ppo/models/behavioral_cloning_agents_drone/bc9/ckpts/002580450.pt (torch_old, 398555 bytes, 26 tensors)

fc1.weight f4 [128, 15]
-0.2649604 0.45807356 -0.4817293 -0.27729243 -0.25524476 0.039768092 -0.32655323 0.10849661
-0.013008811 0.42493662 -0.34833503 -0.025303937 -0.24666992 -0.17100051 0.16210905 -0.35517132
0.20789064 -0.12042353 -0.41355863 0.12628281 0.3338729 0.3829701 0.08132727 0.39092916
-0.14936112 -0.05110253 0.43155453 -0.23952346 -0.162546 0.05326223 -0.29032275 0.009103006
-0.22978674 -0.0364596 0.050438005 -0.43504968 -0.08565524 0.05527145 0.29140237 0.33790886
0.18680632 -0.3987657 0.04368329 -0.24107894 -0.08924989 -0.07754598 0.1769805 0.09182495
-0.35209125 0.047751218 0.15991956 0.07877028 0.22998837 -0.022921199 0.1908711 -0.22784063
0.11935375 -0.20018302 -0.17895406 0.101313785 -0.29827765 -0.36175254 -0.37774372 -0.17102592
0.4817988 0.022551354 -0.0685553 0.13705811 0.19341575 0.7577773 -0.3705454 -0.043954067
0.10147473 0.21393052 0.21048865 0.023875955 -0.056696936 -0.29244736 0.12020953 -0.24683972
-0.13377345 0.19519643 0.059509847 -0.2778084 -0.07520366 -0.18012843 0.08519649 -0.118192315
0.09929198 0.10219481 -0.028040979 -0.069316134 0.041261856 0.028806793 -0.035514012 -0.11475582
-0.14810374 0.17116334 -0.23382968 -0.3074418 0.23080818 0.07265907 -0.11258121 -0.064984724
-0.14245026 -0.3556718 -0.20364378 -0.13331011 -0.12950441 -0.019448081 -0.20013544 0.13706018
-0.16603096 0.48550448 0.22927628 0.011836628 -0.17591538 0.011650622 0.037671506 0.38261083
0.27626124 -0.002378763 -0.6348519 0.25680652 -0.20144995 -0.13904107 0.2039944 -0.32402432
-0.2853438 -0.2752554 -0.06127775 -0.023712097 -0.16820773 -0.013250604 0.34661788 -0.20891184
-0.0115042245 0.054818634 0.21258467 0.2772374 0.42685702 0.27483675 0.37185404 0.14916675
-0.3587881 -0.0847003 0.23771636 -0.001673758 -0.12833682 -0.0593933 -0.5943101 -0.46135458
0.03982746 0.28549466 0.21323697 0.15159385 0.17302936 -0.40398657 0.2624945 -0.361721
-0.25977987 -0.15240143 -0.23169476 -0.2229387 -0.0021362694 -0.059888832 -0.07202066 -0.08380576
-0.46750236 0.14271247 0.2400961 -0.4798227 0.13191305 0.6059733 -0.32340235 0.38204065
0.23860861 -0.11526175 0.2064696 -0.07870748 -0.11624766 0.19989714 -0.011815449 -0.094083466
0.39175004 0.24873939 0.007829175 0.112981796 0.023197709 -0.06261514 0.5921773 0.09908444
-0.1821279 0.011515647 -0.08306933 -0.25078133 -0.30435583 0.06765464 -0.25763997 -0.11314293
-0.06814937 0.17844461 0.079483464 0.0012130062 -0.00198112 0.007508996 -0.2346855 0.21778783
0.09336665 0.03411443 -0.033666767 -0.09688163 0.21065849 -0.22125122 0.17467391 0.05557118
-0.28165436 -0.1294341 0.18876262 -0.14614457 0.23153855 0.3047349 0.09327102 0.0073103905
-0.067488655 0.1402017 -0.009860624 -0.0977404 -0.3256093 0.123752214 0.17489661 0.55481094
0.5872809 0.37474304 0.044595513 -0.4512026 0.06765185 -0.18251978 -0.10943118 0.21674849
-0.22500066 -0.05890304 -0.1513856 -0.20693605 0.18094279 -0.76068294 -0.01102339 -0.0883021
0.04756473 0.057238556 0.2609722 0.09808913 0.2135095 -0.07547657 -0.14790155 0.15442836
00000000: e4a8 87be 9e88 ea3e 39a5 f6be 46f9 8dbe
00000010: 71af 82be dee3 223d fc31 a7be 7833 de3d
00000020: e822 55bc 4b91 d93e f858 b2be 344a cfbc
00000030: 0a97 7cbe c21a 2fbe eaff 253e 04d9 b5be
00000040: 49e1 543e 9da0 f6bd f5bd d3be 4850 013e
00000050: 64f1 aa3e a814 c43e e98e a63d de27 c83e
00000060: 1ff2 18be e350 51bd b7f4 dc3e a345 75be
00000070: 7572 26be 7f29 5a3d 2fa5 94be c624 153c
00000080: 374d 6bbe a956 15bd 1598 4e3d d5be debe
00000090: 046c afbd 5164 623d b132 953e 6402 ad3e
000000a0: 284a 3f3e 052b ccbe 40ed 323d 66dd 76be
000000b0: a5c8 b6bd 6dd0 9ebd 603a 353e b80e bc3d
000000c0: 4e45 b4be c896 433d f4c1 233e 5052 a13d
000000d0: 1282 6b3e 3dc5 bbbc b773 433e 0e4f 69be
000000e0: bd6f f43d c7fc 4cbe bc3f 37be 9a7d cf3d
000000f0: d9b7 98be a137 b9be a067 c1be 6b21 2fbe
00000100: 55ae f63e 9ebd b83c b966 8cbd f658 0c3e
00000110: c70e 463e b1fd 413f 20b8 bdbe 2e09 34bd
00000120: fcd1 cf3d 9a10 5b3e 568a 573e 8297 c33c
00000130: 0c3b 68bd a9bb 95be 6a30 f63d 8dc3 7cbe
00000140: e8fb 08be 93e1 473e 99c0 733d e73c 8ebe
00000150: 6004 9abd 9673 38be 7f7b ae3d d00e f2bd
00000160: 9859 cb3d 834b d13d 32b6 e5bc 9ef5 8dbd
00000170: 3102 293d 39fc eb3c 2477 11bd 1905 ebbd
00000180: 82a8 17be 7145 2f3e 0c71 6fbe 0369 9dbe
00000190: fb58 6c3e 47ce 943d fa90 e6bd b616 85bd
000001a0: 7bde 11be 9d1a b6be ff87 50be 7282 08be
000001b0: ce9c 04be 9551 9fbc 4ef0 4cbe 8159 0c3e
000001c0: 0504 2abe 0b94 f83e 67c7 6a3e 6bee 413c
000001d0: 2923 34be 40e2 3e3c 704d 1a3d 91e5 c33e
000001e0: 1d72 8d3e 05e5 1bbb a785 22bf 257c 833e
000001f0: e548 4ebe c860 0ebe e8e3 503e 84e6 a5be
00000200: 9518 92be 47ee 8cbe 61fe 7abd df3f c2bc
00000210: a63e 2cbe 1019 59bc e677 b13e fcec 55be
00000220: 377c 3cbc 8189 603d ccaf 593e 0ff2 8d3e
00000230: 018d da3e 67b7 8c3e a763 be3e 2bbf 183e
00000240: 13b3 b7be 5a77 adbd eb6b 733e 0062 dbba
00000250: ba6a 03be 6446 73bd b524 18bf ab36 ecbe
00000260: 1e22 233d 5b2c 923e cb5a 5a3e 6b3b 1b3e
00000270: 9c2e 313e 54d7 cebe ae65 863e 7f33 b9be
00000280: de01 85be 1f0f 1cbe 6441 6dbe 0b4a 64be
00000290: a700 0cbb fe4d 75bd 917f 93bd 5ba2 abbd
000002a0: 785c efbe 3823 123e c1db 753e 52ab f5be
000002b0: 3714 073e 1121 1b3f fe94 a5be d59a c33e
000002c0: d155 743e 5a0e ecbd c46c 533e 6331 a1bd
000002d0: 4113 eebd d6b1 4c3e 9695 41bc d5ae c0bd
000002e0: 7693 c83e 8ab5 7e3e f145 003c 0063 e73d
000002f0: 1f09 be3c 5e3c 80bd ee98 173f c8ec ca3d
00000300: bc7f 3abe 20ac 3c3c 4120 aabd 6966 80be
00000310: 87d4 9bbe 848e 8a3d 63e9 83be 7bb7 e7bd
00000320: e691 8bbd 2fba 363e 3ac8 a23d bcfd 9e3a
00000330: aed5 01bb 060e f63b 6551 70be c603 5f3e
00000340: 0437 bf3d 93bb 0b3d 2ae6 09bd e069 c6bd
00000350: dcb6 573e ae8f 62be b8dd 323e 9b9e 633d
00000360: 0035 90be 5f8a 04be fd4a 413e eca6 15be
00000370: 7118 6d3e 3606 9c3e e004 bf3d 008c ef3b
00000380: 7e37 8abd 0991 0f3e 748e 21bc 1e2c c8bd
00000390: 43b6 a6be cd71 fd3d 1918 333e 1708 0e3f
000003a0: 0b58 163f 52de bf3e c9a9 363d 0704 e7be
000003b0: 0e8d 8a3d 77e6 3abe 741d e0bd 51f3 5d3e
000003c0: 9366 66be 5044 71bd d404 1bbe 0be7 53be
000003d0: 1149 393e 1ebc 42bf 739b 34bc bbd7 b4bd
000003e0: 3cd3 423d fa72 6a3d 269e 853e f4e2 c83d
000003f0: 3ca2 5a3e 7693 9abd 8173 17be 7822 1e3e

fc1.bias f4 [128]
-0.34776372 -0.26392305 -0.11752124 -0.032771114 0.03639925 -0.07572799 -0.10542959 -0.24215242
-0.15280329 -0.13146016 -0.2839727 -0.35566822 -0.07747782 0.12637192 0.01717586 -0.12960458
0.10344755 0.17000279 -0.4043292 -0.27735612 -0.3869803 -0.13491659 -0.0048844265 -0.15862541
-0.28231427 0.024405198 -0.07213223 0.25063485 -0.0023589814 -0.37643278 -0.2511074 -0.0822509
-0.10598041 -0.45825636 -0.17723201 -0.43803963 0.032821592 -0.043982632 -0.26523715 -0.03676951
0.17071411 -0.026542976 -0.13256626 0.18947259 -0.053445973 -0.30592555 -0.50549185 -0.20433769
-0.31300783 -0.23073275 -0.5738031 -0.35283035 -0.09091446 -0.34365076 -0.14080723 -0.06680946
-0.00011011693 0.14189245 -0.13587537 -0.14536697 -0.3596946 -0.24401228 -0.052175388 -0.14269334
-0.03829921 -0.21459827 0.016321454 -0.31844446 -0.07565729 0.14653373 -0.27282587 -0.12270576
-0.07780711 -0.14754827 -0.30043545 -0.21437934 -0.06901573 -0.031318203 -0.25387275 -0.011127517
-0.055725284 -0.08791232 0.067064546 0.055732474 -0.014024583 -0.3399646 -0.36511344 -0.096156165
-0.17298016 0.3487942 -0.14439164 0.05510718 -0.10116111 -0.20356229 -0.03605345 -0.2517401
-0.1438184 -0.1229701 -0.28485927 -0.1755257 -0.20479454 -0.15996805 0.053881582 -0.3552078
-0.19740668 -0.22563268 0.09936139 -0.11528262 -0.2521609 -0.05607224 -0.205622 0.0101560205
-0.14818129 0.14678481 -0.088058405 -0.09451857 0.0007029051 -0.35419405 0.20561127 -0.054977905
-0.19119541 -0.06497673 -0.10653106 0.2767749 -0.016772188 -0.09598596 0.17655016 -0.16974176
00000000: 160e b2be ec20 87be faae f0bd 013b 06bd
00000010: 6117 153d 4717 9bbd 78eb d7bd cef6 77be
00000020: 7778 1cbe 7e9d 06be df64 91be 251a b6be
00000030: b1ac 9ebd a467 013e 64b4 8c3c 10b7 04be
00000040: 4fdc d33d 3615 2e3e 3d04 cfbe 9f01 8ebe
00000050: 4822 c6be 9327 0abe 8a0d a0bb b36e 22be
00000060: 7f8b 90be 69ed c73c 10ba 93bd 3653 803e
00000070: 2499 1abb ccbb c0be 2691 80be 2973 a8bd
00000080: 420c d9bd 94a0 eabe 4f7c 35be bb46 e0be
00000090: ef6f 063d 2227 34bd 2acd 87be a09b 16bd
000000a0: aecf 2e3e a870 d9bc 73bf 07be 1a05 423e
000000b0: 2aea 5abd 46a2 9cbe ea67 01bf e63d 51be
000000c0: 9042 a0be 3545 6cbe c3e4 12bf 2ea6 b4be
000000d0: 5c31 babd fef2 afbe c52f 10be 66d3 88bd
000000e0: 94ee e6b8 414c 113e ea22 0bbe 14db 14be
000000f0: e429 b8be 5bde 79be dcb5 55bd 341e 12be
00000100: a2df 1cbd a6bf 5bbe 92b4 853c 270b a3be
00000110: 36f2 9abd f00c 163e d5af 8bbe 284d fbbd
00000120: 5659 9fbd e516 17be add2 99be 4286 5bbe
00000130: 1e58 8dbd 8447 00bd 9cfb 81be 3050 36bc
00000140: 3240 64bd 600b b4bd 2359 893d bc47 643d
00000150: 5dc7 65bc d70f aebe 26f0 babe 86ed c4bd
00000160: b621 31be 2795 b23e 67db 13be 11b8 613d
00000170: 8e2d cfbd a272 50be c8ac 13bd 14e4 80be
00000180: 2145 13be bfd7 fbbd 13d9 91be 02bd 33be
00000190: a9b5 51be aace 23be efb2 5c3d ccdd b5be
000001a0: fa24 4abe 410c 67be fc7d cb3d 4b19 ecbd
000001b0: 3c1b 81be 01ac 65bd 938e 52be 7065 263c
000001c0: d6bc 17be c24e 163e f757 b4bd f492 c1bd
000001d0: 2a43 383a ec58 b5be c38b 523e 8330 61bd
000001e0: bbc8 43be 8512 85bd f52c dabd 71b5 8d3e
000001f0: d465 89bc 4994 c4bd 91c9 343e c9d0 2dbe

fc2.weight f4 [128, 128]
-0.05356474 -0.3011716 -0.27198136 0.058452208 -0.12500103 0.08572901 -0.21536429 -0.07983894
0.40810144 0.2607935 -0.8294451 -0.19142215 -0.46311665 -0.6468987 -0.051647287 -0.16850099
-0.13045369 -0.19530708 -0.0051715085 0.17176753 -0.39238274 -0.1946579 -0.3409127 0.21767016
-0.048737857 -0.30652416 0.032703523 0.07597822 -0.046206847 -0.37385333 0.29408732 -0.55697274
-0.74346113 0.06514506 -0.07098341 0.20046279 0.14458725 0.072554946 -0.9931401 0.009501489
-0.007973177 -0.14319837 -0.35146883 -0.31383342 -0.08187591 -0.74689496 0.10418433 -0.028992807
-0.12007782 0.07444498 -0.17629902 -0.004724424 -0.15038496 -1.0594435 -0.1825938 0.050022397
0.08495665 0.8902631 -0.21330954 0.08743657 0.6255934 0.44403636 0.027591284 0.08891841
-0.23439957 -0.36147162 0.15484667 -0.2165343 -0.10225246 -0.12382768 0.28497443 0.0021778408
-0.33609232 -0.18851978 -0.0150589915 -0.15276675 0.10644184 -0.03009051 0.07159209 -0.18889935
-0.24077736 -0.059857745 -0.05120789 0.25555378 -0.33109403 0.061339308 0.4485557 -0.27555174
0.2559014 -0.40873793 0.00326467 0.11342711 -0.9289338 -0.00023372348 -0.08868208 -0.7178788
-0.36913434 0.18353866 -0.36852118 -0.11107099 -0.5970951 -0.639589 -0.11237509 0.08411924
-0.4058344 -0.06975901 0.03086582 -0.6645681 -0.014824949 -0.92928493 0.16453315 -0.26935616
0.12660517 0.6837842 -0.03979435 -0.04961766 0.11112323 0.09625521 -0.41192818 -0.00050693087
0.064488985 0.17123777 -0.66678727 -0.36956903 0.17461447 -0.04235561 -0.22169992 0.23405737
-0.08003989 -0.390137 -0.33071637 0.092632 0.010800427 -0.111605145 0.16853516 -0.007620478
0.52975625 -0.18991244 0.1377112 0.10336816 -0.41455033 -0.04674483 -0.7091167 0.281363
0.2246222 0.24590084 0.15556274 -0.9113856 -0.40554795 -1.7706975 0.2582777 0.3974203
-0.40661487 -0.89305896 0.13684069 0.16447787 -0.13672815 -0.19891433 0.44043937 0.120838866
-0.2804154 -2.3386593 -0.19123162 0.4700098 0.43214095 -0.18765049 -0.79573035 0.4662908
0.3530485 -1.0360868 0.42878124 0.45162708 0.30955964 -0.016240781 -0.059144396 -0.18285376
-2.0523052 -3.0862415 0.18593757 -1.2060418 -0.43749106 -0.7649317 -0.32338426 0.33134997
-0.5395337 -0.003000025 -0.21895255 0.033290654 0.5518959 -1.2076436 -0.11517312 -1.6829787
-0.79397964 -1.5892965 -0.10240074 -1.4810262 -0.6826544 0.45396966 0.5678647 -0.40256527
-0.34613 -0.010080504 0.14286974 0.3600249 0.23694095 -0.68857163 0.05239324 -0.06890528
0.056384657 -0.29695946 0.04426089 -0.008776628 -0.17492773 0.44014212 0.56084365 -1.0335346
-0.33234498 -0.17359169 -0.8117595 -0.091430545 0.3394483 -0.71591926 -0.33492872 0.09226574
0.38005427 -0.8903152 -0.30266455 0.11339759 -0.19487216 -1.6506152 -0.73961836 -0.59148335
-1.0277091 -0.15409192 -0.28573883 -0.23723015 0.039508972 -0.029689716 -0.10562324 -0.7534867
-5.6535583 -0.0053555504 0.16429073 -0.041496802 -0.029323636 0.3754982 0.20217733 0.41017044
-0.5425517 -0.058532327 -0.022227172 -0.0632682 -0.44787657 -0.41935998 -0.41795912 -2.0806975
00000000: b366 5bbd 2a33 9abe 2441 8bbe 956b 6f3d
00000010: 4500 00be b192 af3d 7588 5cbe 9982 a3bd
00000020: acf2 d03e ba86 853e 8456 54bf 2b04 44be
00000030: a01d edbe 279b 25bf 1b8c 53bd 868b 2cbe
00000040: a795 05be 94fe 47be c275 a9bb d4e3 2f3e
00000050: 64e6 c8be 6754 47be 1c8c aebe ede4 5e3e
00000060: 59a1 47bd bcf0 9cbe 21f4 053d 789a 9b3d
00000070: 6443 3dbd b469 bfbe 9d92 963e c495 0ebf
00000080: 7853 3ebf c66a 853d c05f 91bd 1e46 4d3e
00000090: ae0e 143e b097 943d 6e3e 7ebf 22ac 1b3c
000000a0: eea1 02bc 98a2 12be b9f3 b3be c6ae a0be
000000b0: 8fae a7bd 8234 3fbf 985e d53d 5382 edbc
000000c0: 5ceb f5bd 9c76 983d bb87 34be 57cf 9abb
000000d0: 84fe 19be d89b 87bf def9 3abe 49e4 4c3d
000000e0: c1fd ad3d 48e8 633f d16d 5abe f211 b33d
000000f0: e426 203f bc58 e33e 1e07 e23c db1a b63d
00000100: 7106 70be cf12 b9be 2090 1e3e 2bbb 5dbe
00000110: bd69 d1bd 5e99 fdbd 2be8 913e 1bba 0e3b
00000120: 4b14 acbe 540b 41be fdb9 76bc e36e 1cbe
00000130: 2efe d93d 6080 f6bc e09e 923d d56e 41be
00000140: 578e 76be 652d 75bd 5dbf 51bd f2d7 823e
00000150: 2885 a9be ed3e 7b3d 18a9 e53e 1e15 8dbe
00000160: 8205 833e 1946 d1be 13f4 553b 794c e83d
00000170: 9bce 6dbf ab13 75b9 f39e b5bd e8c6 37bf
00000180: 2dff bcbe 8ff1 3b3e cfae bcbe 3079 e3bd
00000190: 39db 18bf 1bbc 23bf e924 e6bd b546 ac3d
000001a0: 87c9 cfbe d0dd 8ebd 51da fc3c 2321 2abf
000001b0: 58e4 72bc 9ee5 6dbf 617b 283e 0de9 89be
000001c0: c9a4 013e 7b0c 2f3f 66ff 22bd e33b 4bbd
000001d0: 9394 e33d 7421 c53d 40e8 d2be 8ee3 04ba
000001e0: cd12 843d f458 2f3e 92b2 2abf 2738 bdbe
000001f0: 23ce 323e 137d 2dbd 4e05 63be bcac 6f3e
00000200: f4eb a3bd 09c0 c7be a853 a9be d9b5 bd3d
00000210: 46f4 303c 3d91 e4bd 7b94 2c3e 34b5 f9bb
00000220: 1b9e 073f 6878 42be 2a04 0d3e b0b2 d33d
00000230: f13f d4be 8277 3fbd ac88 35bf d00e 903e
00000240: 5d03 663e 6ecd 7b3e d74b 1f3e 9150 69bf
00000250: fba3 cfbe 37a6 e2bf fa3c 843e ac7a cb3e
00000260: d32f d0be 839f 64bf f71f 0c3e e36c 283e
00000270: 7702 0cbe 33b0 4bbe 4581 e13e 5e7a f73d
00000280: 9b92 8fbe 98ac 15c0 39d2 43be 20a5 f03e
00000290: 9441 dd3e 7327 40be fcb4 4bbf abbd ee3e
000002a0: c6c2 b43e 7e9e 84bf 3789 db3e aa3b e73e
000002b0: 9a7e 9e3e 630b 85bc 6541 72bd 043e 3bbe
000002c0: f858 03c0 fb84 45c0 6b66 3e3e 945f 9abf
000002d0: d4fe dfbe 90d2 43bf 9f92 a5be b4a6 a93e
000002e0: e11e 0abf 119c 44bb 1935 60be c85b 083d
000002f0: 0d49 0d3f 1194 9abf e2df ebbd d96b d7bf
00000300: 4042 4bbf 116e cbbf 7bb7 d1bd 4492 bdbf
00000310: 70c2 2ebf b66e e83e 955f 113f 091d cebe
00000320: f437 b1be b328 25bc 724c 123e 2f55 b83e
00000330: a6a0 723e 3b46 30bf 4b9a 563d 361e 8dbd
00000340: 99f3 663d 120b 98be e84a 353d d9cb 0fbc
00000350: 4120 33be 4f5a e13e 7393 0f3f dd4a 84bf
00000360: 1f29 aabe 05c2 31be 78cf 4fbf f03f bbbd
00000370: 2bcc ad3e 7c46 37bf c77b abbe d2f5 bc3d
00000380: 7996 c23e b2eb 63bf d9f6 9abe ff3c e83d
00000390: 918c 47be 5c47 d3bf a157 3dbf 746b 17bf
000003a0: f98b 83bf 46ca 1dbe 5c4c 92be 76ec 72be
000003b0: 29d4 213d d937 f3bc ff50 d8bd 81e4 40bf
000003c0: f3e9 b4c0 9d7d afbb d43b 283e 8df8 29bd
000003d0: 1f38 f0bc 4d41 c03e 9307 4f3e dc01 d23e
000003e0: abe4 0abf 98bf 6fbd c215 b6bc c292 81bd
000003f0: 1450 e5be 5ab6 d6be bdfe d5be 262a 05c0

fc2.bias f4 [128]
-0.30041075 0.30133396 -0.16351913 -0.13672812 0.17386624 -0.12345864 -0.20007399 -0.011763082
-0.16958943 -0.25186065 0.0922568 0.28387594 -0.043999292 -0.03782238 -0.14474796 -0.11912165
-0.11955564 0.021366803 -0.03149608 -0.06278761 -0.0567591 -0.013140817 -0.15933128 0.054288596
-0.09213528 0.002824508 -0.029351635 0.12802598 -0.11706094 0.2777332 0.10054739 -0.14338855
-0.17680262 -0.30523905 0.09581581 -0.20915438 -0.07698476 -0.09287735 0.025043614 -0.30323088
0.05583458 0.028254284 0.18500371 0.17985821 0.06025446 -0.257527 -0.3048212 -0.3370978
-0.12660465 -0.15129384 -0.059969496 0.019333625 -0.0087675 -0.0824669 -0.2507517 0.07310156
-0.1739907 -0.039410368 -0.33936036 0.118761964 -0.053446714 -0.082303055 -0.056841265 0.028294438
0.023522697 0.16262378 0.23501316 0.40087014 0.0017048805 -0.19270416 -0.24752228 -0.0327513
0.33083022 -0.008212577 -0.04956605 -0.043036677 -0.19176948 -0.12979884 0.2574962 -0.031208776
-0.09359975 -0.046519317 -0.24855146 -0.06150546 -0.0036866753 -0.14018394 -0.09790151 -0.19206622
0.2844149 -0.10999532 -0.061663445 0.091030754 0.054627165 0.13590202 0.03136242 0.01578361
0.342043 -0.20268127 -0.08568105 0.26389566 0.06630098 -0.10935302 -0.049124166 0.40698874
0.13121462 -0.23119596 -0.25923243 0.07085444 0.13847138 -0.12651975 -0.16113861 -0.5291515
-0.0037405998 0.03702618 -0.061856717 -0.15382956 -0.018598337 -0.07582769 -0.37735033 -0.084291644
-0.08789599 -0.06353103 -0.060605995 -0.038957775 0.20299636 -0.071313575 0.15589742 -0.076548696
00000000: 70cf 99be 7248 9a3e 8f71 27be 7502 0cbe
00000010: fe09 323e e2d7 fcbd 32e0 4cbe f1b9 40bc
00000020: daa8 2dbe e1f3 80be 22f1 bc3d 3058 913e
00000030: 9a38 34bd a4eb 1abd cf38 14be 0df6 f3bd
00000040: 96d9 f4bd 6f09 af3c 0902 01bd ca96 80bd
00000050: 3b7c 68bd 954c 57bc bd27 23be b85d 5e3d
00000060: 6cb1 bcbd 611b 393b d772 f0bc 3e19 033e
00000070: a5bd efbd 0c33 8e3e caeb cd3d 73d4 12be
00000080: bf0b 35be 4b48 9cbe 143b c43d 912c 56be
00000090: 30aa 9dbd 7b36 bebd 4428 cd3c 1441 9bbe
000000a0: cdb2 643d 8775 e73c 9d71 3d3e c02c 383e
000000b0: 61cd 763d 94da 83be 8611 9cbe 1598 acbe
000000c0: a6a4 01be c6ec 1abe 93a2 75bd 8d61 9e3c
000000d0: 8fa5 0fbc 68e4 a8bd 8762 80be 45b6 953d
000000e0: 9e2a 32be c46c 21bd a4c0 adbe 7939 f33d
000000f0: f1ea 5abd 818e a8bd 63d2 68bd bdc9 e73c
00000100: acb2 c03c d986 263e 4aa7 703e da3e cd3e
00000110: 4c76 df3a 3d54 45be 7b76 7dbe 3a26 06bd
00000120: 9462 a93e 0b8e 06bc c505 4bbd 3a47 30bd
00000130: 385f 44be fde9 04be 8bd6 833e 8ca9 ffbc
00000140: 3ab1 bfbd 0a8b 3ebd 4684 7ebe 26ed 7bbd
00000150: 269c 71bb 618c 0fbe 9680 c8bd 02ad 44be
00000160: d49e 913e 3a45 e1bd cf92 7cbd 556e ba3d
00000170: bcc0 5f3d e629 0b3e e275 003d a14c 813c
00000180: 4320 af3e ae8b 4fbe 8c79 afbd 551d 873e
00000190: cfc8 873d 7af4 dfbd 6c36 49bd d460 d03e
000001a0: 205d 063e a2be 6cbe 1dba 84be 221c 913d
000001b0: 71cb 0d3e 658e 01be 8501 25be 7976 07bf
000001c0: da24 75bb c4a8 173d 785d 7dbd 7f85 1dbe
000001d0: 8a5b 98bc 8c4b 9bbd 1034 c1be 19a1 acbd
000001e0: d002 b4bd 8f1c 82bd fe3d 78bd 3092 1fbd
000001f0: 47de 4f3e da0c 92bd 93a3 1f3e 90c5 9cbd

dist.fc_mean.weight f4 [4, 128]
0.19615012 0.0013621465 0.025603825 0.09983815 0.02860793 0.42739773 0.0133875 0.14121513
-0.0040746396 0.010957983 0.5048322 -3.301921e-05 0.032367814 0.0030449876 0.017580334 0.004199569
0.042105794 0.0043956293 -0.02802655 0.13283752 -0.08291091 0.051216032 -0.078786924 -0.0015768524
-0.006039055 0.0061717383 0.12445201 -0.011641196 -0.20698923 0.007321016 -0.00081047846 0.0010736297
0.010774387 0.20541912 0.0007170231 -0.0020613724 -0.001135522 0.0032374898 -0.025168862 0.12083585
0.0046147197 0.0019609563 -0.0021277969 5.5076755e-05 0.38265854 -2.4562345 -0.3873855 0.63192177
-0.01617331 -0.04717772 -0.07622559 -0.0024722284 -0.016545372 -0.029444637 0.09451997 -0.0018562606
-0.001429812 -0.0010008933 0.05763149 -0.001362738 0.0044580805 0.0013679267 0.041720323 -0.007967158
-0.0009850311 -0.00075539394 0.0013012865 -0.009422555 0.057033956 -0.02727633 0.5292315 -0.032341033
-0.052000124 0.019819565 0.22891937 0.022777054 -0.85304606 -0.14203395 -0.0024513428 -0.0031029782
-0.09360582 -0.0052954783 -0.00057545246 -0.03679962 -0.0091910865 -0.01802241 -0.25319278 0.03877923
0.0008242681 0.104315996 -0.029064706 -0.015852142 -0.0011991557 -0.007932869 -0.00424837 -0.015339867
0.0017725124 0.6308312 0.0030771082 -0.0005854719 -0.023534823 0.020431727 -0.00023109381 -0.005568555
0.0039006537 -0.36196172 -0.012017508 -0.0018403492 -0.00019033965 -0.0010806791 0.016343089 0.019044265
-0.01846626 -0.01956529 -0.004207111 0.14416638 -0.010708668 -0.08802961 0.20223196 -0.008534469
-0.025575457 -0.005584189 -0.029529637 0.016556842 -0.001037902 0.037352078 -0.017131558 0.022090672
-0.3550097 0.0019088675 -0.01529739 -0.101396225 -0.0010156183 0.017428227 -0.0060021523 0.007814194
6.9822854e-05 -0.008919318 -0.0052292445 2.7888214e-05 -0.028153492 0.015968528 -0.01121563 0.14891969
-0.022301793 0.0015822477 0.0033836446 -0.007850064 0.08682978 -0.018786732 0.0785269 -0.0004089284
0.015256042 0.00050963275 -0.05590712 -4.8236176e-05 0.025020666 -0.0007156531 -0.0009991688 -3.6594534e-05
-0.014664615 -0.07639401 -9.9658086e-05 0.07474556 1.3305306 -0.0031540315 0.0018287739 0.021720171
0.005133735 -2.4825482e-05 5.6287285e-05 6.5414815e-07 0.021677868 0.0028921112 -0.0018053773 -1.2579239e-06
0.0011854412 -0.015949963 -0.015440719 -5.354594e-05 -0.004769152 -0.008726863 0.0913164 -0.00015395111
0.0036181672 -0.00049112184 -0.07790667 0.00097178784 0.0033049877 -0.0005454601 -0.12458296 -0.00035188955
0.003390121 0.0028551908 0.00072205847 -0.0051066685 -0.048023153 -0.0012169032 0.006915623 -0.006646588
-0.0011641309 0.027700724 0.02283979 0.006055729 -0.00010450153 0.013877037 0.02628913 0.017160928
-0.015630996 0.91386753 0.017400786 -0.023798238 -0.0015275576 0.037332773 -0.38069725 -0.040956967
-0.0029695812 0.020902148 0.0054956526 0.013703546 0.0002628361 -0.0007836413 -0.010204409 0.0024959084
0.0016406074 0.020285264 0.0023189972 -0.00011346276 -0.0004792712 0.014424521 -0.003971691 0.010515475
-0.00060163095 -0.0056263017 0.5058404 -2.2883149e-05 -0.00017616275 -0.01177644 -0.028702084 0.011020931
0.00054912 0.003069272 -0.0129168425 -0.023339028 -0.009280665 -0.005198067 -0.01775439 -0.006833382
0.004683844 -1.4089305 0.00227222 -0.02474299 0.00032497704 -0.025783043 -0.029530557 0.0068565872
00000000: 94db 483e 0d8a b23a 1dbf d13c f277 cc3d
00000010: 2d5b ea3c e0d3 da3e 3f57 5b3c b39a 103e
00000020: 8e84 85bb 1d89 333c af3c 013f 1b7e 0ab8
00000030: 1d94 043d 6a8e 473b a204 903c 8a9c 893b
00000040: 2077 2c3d 3609 903b ef97 e5bc 8f06 083e
00000050: 32cd a9bd e7c7 513d 0a5b a1bd 63ae ceba
00000060: 44e3 c5bb 4b3c ca3b b2e0 fe3d b7ba 3ebc
00000070: fcf4 53be 22e5 ef3b 4a76 54ba 09b9 8c3a
00000080: 0e87 303c 6459 523e 9bf6 3b3a 1718 07bb
00000090: ccd5 94ba 112c 543b ee2e cebc c978 f73d
000000a0: 1337 973b 6383 003b 8272 0bbb 3702 6738
000000b0: d2eb c33e f232 1dc0 6457 c6be a0c5 213f
000000c0: e47d 84bc 6d3d 41bd 2a1c 9cbd 1c05 22bb
000000d0: 298a 87bc e135 f1bc b093 c13d c54d f3ba
000000e0: 8868 bbba 6830 83ba ff0e 6c3d e69d b2ba
000000f0: 1715 923b 014c b33a eee2 2a3d af88 02bc
00000100: 291c 81ba a105 46ba ee8f aa3a 0f61 1abc
00000110: 709c 693d 9c72 dfbc b77b 073f 0878 04bd
00000120: 15fe 54bd a45c a23c d769 6a3e f296 ba3c
00000130: 3a61 5abf 5971 11be b5a6 20bb 565b 4bbb
00000140: 68b4 bfbd b185 adbb f6d9 16ba 33bb 16bd
00000150: 3696 16bc bca3 93bc 7ca2 81be f8d6 1e3d
00000160: b213 583a a0a3 d53d 1b19 eebc 5adc 81bc
00000170: fd2c 9dba ddf8 01bc e935 8bbb 1154 7bbc
00000180: a653 e83a 277e 213f 4fa9 493b 5b7a 19ba
00000190: 1acc c0bc 7060 a73c c651 72b9 6d78 b6bb
000001a0: 1ca2 7f3b 0c53 b9be 15e5 44bc df37 f1ba
000001b0: e995 47b9 93a5 8dba f1e1 853c b802 9c3c
000001c0: 8e46 97bc 6347 a0bc cedb 89bb 5aa0 133e
000001d0: 6973 2fbc de48 b4bd e515 4f3e 28d4 0bbc
000001e0: 9f83 d1bc 93fb b6bb 23e8 f1bc 37a2 873c
000001f0: 360a 88ba 7efe 183d 7b57 8cbc 7ff7 b43c
00000200: d5c3 b5be f732 fa3a e7a1 7abc d3a8 cfbd
00000210: 7f1e 85ba a4c5 8e3c b4ad c4bb 1b07 003c
00000220: dc6d 9238 5522 12bc 155a abbb 7cf1 e937
00000230: 27a2 e6bc 6ed0 823c c3c1 37bc 677e 183e
00000240: 40b2 b6bc 6c63 cf3a 23c0 5d3b 8e9d 00bc
00000250: d0d3 b13d a2e6 99bc b6d2 a03d 7165 d6b9
00000260: 7af4 793c e098 053a ddfe 64bd 3351 4ab8
00000270: 24f8 cc3c ab9a 3bba 8bf6 82ba 157d 19b8
00000280: da43 70bc 7674 9cbd 87ff d0b8 3314 993d
00000290: d44e aa3f deb3 4ebb 78b3 ef3a 80ee b13c
000002a0: e438 a83b 5140 d0b7 0316 6c38 b898 2f35
000002b0: c995 b13c 9389 3d3b 69a2 ecba f0d5 a8b5
000002c0: ce60 9b3a 7fa9 82bc 12fb 7cbc 8496 60b8
000002d0: 8c46 9cbb 1efb 0ebc 1804 bb3d f06d 21b9
000002e0: c61e 6d3b a1be 00ba 888d 9fbd 94bf 7e3a
000002f0: 7e98 583b 35fd 0eba 5a25 ffbd d17d b8b9
00000300: cb2c 5e3b 271e 3b3b 8648 3d3a d755 a7bb
00000310: edb3 44bd 7f80 9fba 739c e23b 9fcb d9bb
00000320: c095 98ba a1ec e23c 831a bb3c 236f c63b
00000330: d527 dbb8 835c 633c 4d5c d73c 1395 8c3c
00000340: 930c 80bc 39f3 693f 188c 8e3c 86f4 c2bc
00000350: 5438 c8ba 40ea 183d c0ea c2be 7ec2 27bd
00000360: 4e9d 42bb fb3a ab3c e014 b43b d684 603c
00000370: 44cd 8939 476d 4dba 6530 27bc 6592 233b
00000380: a609 d73a 482d a63c 51fa 173b dbf2 edb8
00000390: b146 fbb9 d354 6c3c f524 82bb 1949 2c3c
000003a0: c5b6 1dba d75c b8bb c27e 013f 30f5 bfb7
000003b0: 54b8 38b9 f8f1 40bc a220 ebbc 2391 343c
000003c0: d2f2 0f3a d725 493b 2aa1 53bc 7d31 bfbc
000003d0: ee0d 18bc 8c54 aabb a871 91bc 90ea dfbb
000003e0: ee7a 993b d657 b4bf 87e9 143b d0b1 cabc
000003f0: ae61 aa39 f636 d3bc 11ea f1bc 39ad e03b

dist.fc_mean.bias f4 [4]
0.0030514887 0.0001242316 0.00021083019 -0.002499525
00000000: 7cfb 473b 2b44 0239 4c12 5d39 12cf 23bb

dist.fc_logstd.weight f4 [4, 128]
-0.9178057 0.11955911 -0.22380449 -0.056163594 0.84811485 0.6247791 -1.3196902 -0.19011599
1.5918727 -0.3542776 1.26875 -0.11727468 0.009891864 -0.4842019 -0.07514144 0.0042889775
-0.06582558 -2.9521327 -2.8663266 -0.34581146 -0.0050610476 -0.3066764 0.05349471 0.7137141
-1.5966537 4.356619 0.0109196 -2.9365273 0.19695576 0.4535031 -2.4409995 0.08904497
-0.023588778 -0.39814425 -3.3819184 -3.4227564 -2.4310415 -2.5821996 2.0314064 1.1655661
-2.1369288 -0.7604157 -5.2959 -0.025168207 0.06866722 3.9669497 0.02020229 0.03052278
0.0030899227 2.325614 -0.25208315 -3.782828 -0.7601345 -0.16463117 -0.0040366547 -3.6482608
-0.12623304 -4.7341824 -0.3510026 -2.2931635 -0.2482029 -3.0359666 0.010638128 0.10132637
-0.7696294 -2.141308 -0.5615879 -1.1470057 -1.1066918 -3.0670955 -0.18657245 -0.14668572
3.226513 -0.15984486 -0.260764 -0.21977346 1.6872227 0.0359899 -0.02274107 -0.19523087
0.07855831 -1.4886887 -2.0049193 -0.5543214 -0.53617644 -0.11993481 -0.2596084 -0.0047416384
-0.7844231 -0.0011305343 -0.2971302 -0.65100235 2.2291644 -0.99175894 -0.39442846 -0.23030187
-0.594997 -0.58926797 -1.2460303 -1.410281 0.23131083 -0.13312484 -0.2966675 1.3400937
2.976641 -0.905501 -0.25836986 -3.585823 -1.561865 0.14246628 0.5080335 0.008220338
1.7565787 -1.6531234 -2.0850012 1.0724242 -0.3272168 -0.024254614 -0.66843885 -0.48848265
2.2668238 -1.1855601 -0.0032402005 -0.31867146 -2.7212775 0.043759648 0.36720046 -0.3739676
-1.7114915 2.7032845 0.14243671 0.036355034 -2.1326058 -0.6940931 -1.9584495 -0.10026432
-1.932593 -0.6796375 -3.043336 -2.0562534 -2.5365703 -0.06088311 -0.027983611 -0.012670891
0.07658462 -2.6337137 -0.5628317 -0.5593862 -0.0018122934 -0.11678085 -0.035703707 -2.7713473
-3.044754 -1.3991312 -0.28322867 -1.5986983 -0.16059174 -3.4952548 -0.13234702 -1.1802804
-1.9431976 0.49809983 -1.3793653 -0.32409286 2.5163362 -0.34358478 -1.5628079 -1.8025349
-2.3184364 -1.4276878 -1.9791574 -2.1152413 -1.6273679 -0.41454154 0.0041483054 -1.7389302
0.0053499443 -1.4379199 -0.22788107 -0.5954385 0.27284628 -0.028280405 0.04534691 -1.7942151
-0.7339611 -3.7366362 0.038638867 2.4756436 0.12476952 0.25620434 -0.030768236 -0.47666162
-2.5563135 0.918769 -1.4358615 2.5254188 -0.8722731 -1.5382986 0.045457907 -0.11027985
-1.8363434 -0.44270322 -0.11077757 -0.11407728 -0.8516283 0.01898661 -1.7024217 -0.095319286
-0.08513062 1.1253517 -2.5621703 -0.06342599 -0.34849676 -0.21703808 0.5493099 -0.2944416
2.7025883 -0.46522632 -0.21887943 0.13488051 -1.5310655 1.8896511 1.6836743 -0.19753511
0.59364516 -1.6500434 -1.0018076 -1.6883907 -1.8265318 -0.016308323 -0.31533888 2.0817673
-2.6702144 -2.3902118 0.257089 -1.5166942 -1.2599512 -0.032454308 -0.59760195 1.7710489
-2.0207655 -1.862219 -1.8632385 -0.8550245 -0.13964427 0.0198047 -0.31904748 -1.0192232
-2.248414 2.3706958 -0.16065422 -0.15691718 0.36446023 -1.1476823 -2.8292253 0.02111188
00000000: 50f5 6abf 68db f43d 012d 65be cc0b 66bd
00000010: 0e1e 593f 86f1 1f3f 9ceb a8bf c4ad 42be
00000020: 7cc2 cb3f e063 b5be 6666 a23f b52d f0bd
00000030: 7c11 223c 50e9 f7be c1e3 99bd 8d8a 8c3b
00000040: 90cf 86bd beef 3cc0 e571 37c0 330e b1be
00000050: 25d7 a5bb b004 9dbe 451d 5b3d f8b5 363f
00000060: 265f ccbf 6c69 8b40 1fe8 323c 10f0 3bc0
00000070: c5ae 493e 8f31 e83e 5639 1cc0 365d b63d
00000080: 413d c1bc 90d9 cbbe 5a71 58c0 710e 5bc0
00000090: 2f96 1bc0 c242 25c0 9002 0240 4531 953f
000000a0: 71c3 08c0 9aaa 42bf 0378 a9c0 8e2d cebc
000000b0: 66a1 8c3d 81e2 7d40 467f a53c e90a fa3c
000000c0: 4d80 4a3b dcd6 1440 0b11 81be db19 72c0
000000d0: 2d98 42bf 1395 28be ea45 84bb 1b7d 69c0
000000e0: 3c43 01be 6c7e 97c0 9db6 b3be 31c3 12c0
000000f0: e728 7ebe 474d 42c0 8b4b 2e3c 3384 cf3d
00000100: 6f06 45bf 310b 09c0 3ac4 0fbf 15d1 92bf
00000110: 14a8 8dbf 4b4b 44c0 d90c 3fbe c834 16be
00000120: 307f 4e40 5fae 23be dc82 85be 4b0c 61be
00000130: eaf6 d73f 256a 133d 7b4b babc 9aea 47be
00000140: 2ee3 a03d 5a8d bebf 9950 00c0 02e8 0dbf
00000150: dc42 09bf 62a0 f5bd 64eb 84be bf5f 9bbb
00000160: f4cf 48bf 702e 94ba 7321 98be 17a8 26bf
00000170: a1aa 0e40 eae3 7dbf 87f2 c9be 41d4 6bbe
00000180: b951 18bf 44da 16bf ec7d 9fbf 1684 b4bf
00000190: bfdc 6c3e e151 08be cde4 97be 3188 ab3f
000001a0: 4981 3e40 eace 67bf 0e49 84be 207e 65c0
000001b0: 31eb c7bf aee2 113e 7c0e 023f 99ae 063c
000001c0: 92d7 e03f 8c99 d3bf a970 05c0 3245 893f
000001d0: f688 a7be 9db1 c6bc cf1e 2bbf 661a fabe
000001e0: a413 1140 6fc0 97bf 8b59 54bb e828 a3be
000001f0: 6929 2ec0 513d 333d b301 bc3e ae78 bfbe
00000200: 2712 dbbf 9d02 2d40 eeda 113e 04e9 143d
00000210: 9d7c 08c0 16b0 31bf 79ae fabf 6157 cdbd
00000220: 355f f7bf b9fc 2dbf 04c6 42c0 a899 03c0
00000230: 2b57 22c0 9160 79bd e33d e5bc 9299 4fbc
00000240: 66d8 9c3d c48e 28c0 bd15 10bf ef33 0fbf
00000250: 7a8a edba cc2a efbd 0d3e 12bd c15d 31c0
00000260: 40dd 42c0 bb16 b3bf 5903 91be 25a2 ccbf
00000270: 2972 24be 41b2 5fc0 fa85 07be 6e13 97bf
00000280: b3ba f8bf f106 ff3e 0b8f b0bf 80ef a5be
00000290: a70b 2140 58ea afbe 170a c8bf 77b9 e6bf
000002a0: 4361 14c0 79be b6bf 0855 fdbf 1d60 07c0
000002b0: 974d d0bf ca3e d4be 82ee 873b 4495 debf
000002c0: 964e af3b c20d b8bf a859 69be a86e 18bf
000002d0: 82b2 8b3e 4fac e7bc aebd 393d d7a8 e5bf
000002e0: e0e4 3bbf 0c25 6fc0 ca43 1e3d f270 1e40
000002f0: 2987 ff3d 372d 833e ab0d fcbc fe0c f4be
00000300: a49a 23c0 7234 6b3f 4fca b7bf 76a0 2140
00000310: 4a4d 5fbf f8e6 c4bf 1232 3a3d 67da e1bd
00000320: 4d0d ebbf ffa9 e2be 5adf e2bd 59a1 e9bd
00000330: 5004 5abf cf89 9b3c f4e8 d9bf c236 c3bd
00000340: f658 aebd 860b 903f 99fa 23c0 7ce5 81bd
00000350: 2b6e b2be 3b3f 5ebe 939f 0c3f 0dc1 96be
00000360: 35f7 2c40 2532 eebe ee21 60be 1e1e 0a3e
00000370: f4f9 c3bf 16e0 f13f a482 d73f a546 4abe
00000380: 21f9 173f 9f34 d3bf 3b3b 80bf 301d d8bf
00000390: cbcb e9bf 0899 85bc 1974 a1be ad3b 0540
000003a0: cbe4 2ac0 3bf9 18c0 2ba1 833e 0923 c2bf
000003b0: 1546 a1bf cfee 04bd 71fc 18bf bbb1 e23f
000003c0: 3954 01c0 315d eebf 997e eebf e3e2 5abf
000003d0: e8fe 0ebe 773d a23c 315a a3be e875 82bf
000003e0: 04e6 0fc0 7bb9 1740 8a82 24be e6ae 20be
000003f0: 889a ba3e 41e7 92bf 0712 35c0 d2f2 ac3c

dist.fc_logstd.bias f4 [4]
-0.37383804 -1.8668576 -1.4352763 -0.4010242
00000000: b367 bfbe 31f5 eebf 22b7 b7bf 0b53 cdbe

exp_avg f4 [128, 15]
-0.03841852 0.4126256 0.7783479 0.0376307 -0.31054017 -0.22011128 -0.02637158 -0.01872399
-0.26050776 0.11773207 0.08853029 -0.2023954 0.0 0.0 0.6161195 0.027650794
-0.11234046 0.11629167 0.07178615 0.0172975 -0.112712614 -0.022220274 -0.023642419 -0.00522319
0.05381855 0.0373334 -0.14387786 0.0 0.0 0.3842268 0.024885627 0.5121496
0.55340177 -0.07812432 -0.026755104 -0.23017865 -0.011319492 0.15463723 -0.17844598 0.64273995
0.254911 -0.028620588 0.0 0.0 -0.44780213 -0.12903845 0.41477516 -0.12573425
-0.27243295 0.48305434 0.042556003 -0.21474934 0.43404981 -0.13749292 0.55986017 0.14333242
-0.02860596 0.0 0.0 -1.9855367 -0.03119628 0.022666076 -0.24599327 -0.07780142
-0.0037090757 0.056329187 -0.09600654 0.047260508 -0.07714763 -0.110477865 -0.010899974 -0.019441327
0.0 0.0 -0.32638928 -0.043546997 0.015857356 -0.053781603 -0.039123163 0.19529773
0.17696069 -0.13732569 -0.15835993 0.12046395 -0.18442744 -0.2702315 -0.0313496 0.0
0.0 0.20636652 -0.00821716 -0.00024072042 -0.18708184 -0.10623714 0.105731025 0.07779498
-0.094623014 0.06958348 -0.0461031 -0.12628324 -0.11524824 0.009835755 0.0 0.0
-0.36290342 0.0076377215 0.024486452 0.0006231537 -0.01862552 0.020272344 -0.010825983 0.013551149
0.003907663 -0.014909384 0.0044180728 -0.0034323204 -0.016470075 0.0 0.0 0.007926122
0.024819287 0.0722185 -0.027082317 -0.027493577 0.10062208 -0.052390642 0.09742975 -0.060796015
-0.0142886005 -0.17375128 -0.05556198 -0.056999143 0.0 0.0 -0.20633772 -0.114806145
0.2589438 -0.057826094 -0.07916384 0.30885324 0.16044979 -0.12424116 -0.10466909 -0.06713073
0.29271838 -0.30390754 -0.31621695 0.0 0.0 0.06782967 0.025826996 0.16793911
-0.15564089 -0.16076306 0.0119732125 0.04316388 0.02442925 0.066640235 -0.033232793 -0.077584594
-0.10035305 -0.14930199 0.0 0.0 -0.02635541 -0.05784809 -0.11857123 -0.08700622
0.1447332 0.023301136 -0.012874964 0.049277566 0.07880033 -0.10742069 -0.14098813 0.1504641
0.09831388 0.0 0.0 -0.13743386 -0.16405536 0.06431816 0.30119818 -0.03933911
0.0914046 -0.047484007 -0.023921084 -0.16262004 -0.051898383 0.31630003 -0.28754532 -0.0750355
0.0 0.0 0.48905793 -0.18430372 1.0057869 0.08684344 -0.5866871 0.71095216
0.036263797 -0.1469566 0.70319164 -0.21341984 0.6162616 0.382063 -0.016077833 0.0
0.0 -3.4015694 -0.2379151 0.5667258 0.02775583 -0.4066832 0.44062307 0.047999855
-0.14503635 0.35574824 -0.15820317 0.38952276 0.053502794 -0.2748099 0.0 0.0
-1.2217739 0.033220828 0.028851822 0.043215822 -0.019307405 0.092461005 0.06070581 0.020202173
0.018712271 0.09443243 -0.16048689 0.023427952 0.005261159 0.0 0.0 -0.16083202
-0.012588433 -0.27025875 0.16862331 0.21323507 -0.27438298 -0.019402843 0.04281638 -0.22696866
0.14177391 -0.06204847 -0.14074568 -0.07776059 0.0 0.0 1.8044127 -0.04353688
00000000: bd5c 1dbd aa43 d33e cf41 473f a622 1a3d
00000010: 1fff 9ebe da64 61be 3609 d8bc 0e63 99bc
00000020: 4661 85be 831d f13d 5e4f b53d bd40 4fbe
00000030: 0000 0000 0000 0000 02ba 1d3f eb83 e23c
00000040: c112 e6bd 542a ee3d 9e04 933d 7db3 8d3c
00000050: dfd5 e6bd 4b07 b6bc bfad c1bc 4b27 abbb
00000060: d770 5c3d e8ea 183d b854 13be 0000 0000
00000070: 0000 0000 60b9 c43e f1dc cb3c 3c1c 033f
00000080: bdab 0d3f a5ff 9fbd 852d dbbc f4b3 6bbe
00000090: 6475 39bc 3959 1e3e 8bba 36be 9b8a 243f
000000a0: b283 823e b975 eabc 0000 0000 0000 0000
000000b0: 5246 e5be a822 04be 695d d43e 7bc0 00be
000000c0: 557c 8bbe e652 f73e 344f 2e3d 40e7 5bbe
000000d0: c73b de3e f2ca 0cbe ff52 0f3f bcc5 123e
000000e0: 0c57 eabc 0000 0000 0000 0000 1126 febf
000000f0: 578f ffbc 35ae b93c a9e5 7bbe 5a56 9fbd
00000100: f713 73bb 6fb9 663d 149f c4bd 3c94 413d
00000110: 94ff 9dbd 3842 e2bd ce95 32bc 6b43 9fbc
00000120: 0000 0000 0000 0000 7f1c a7be 565e 32bd
00000130: 49e7 813c 194a 5cbd 9c3f 20bd 21fc 473e
00000140: 2f35 353e 1b9f 0cbe 1b29 22be ceb5 f63d
00000150: 8cda 3cbe c85b 8abe 7068 00bd 0000 0000
00000160: 0000 0000 bf51 533e 44a1 06bc e569 7cb9
00000170: 6292 3fbe dc92 d9bd 8289 d83d f952 9f3d
00000180: b6c9 c1bd c981 8e3d 9bd6 3cbd 6550 01be
00000190: 4507 ecbd 2626 213c 0000 0000 0000 0000
000001a0: 7ace b9be da45 fa3b d097 c83c 235b 233a
000001b0: 8c94 98bc 3012 a63c 775f 31bc a305 5e3c
000001c0: da0b 803b 7d46 74bc 7bc5 903b c8f0 60bb
000001d0: 40ec 86bc 0000 0000 0000 0000 91dc 013c
000001e0: d151 cb3c 4be7 933d bcdb ddbc 363a e1bc
000001f0: f312 ce3d 9297 56bd 4089 c73d 3e05 79bd
00000200: bc1a 6abc dbeb 31be f594 63bd ef77 69bd
00000210: 0000 0000 0000 0000 324a 53be 7c1f ebbd
00000220: 4894 843e 0edb 6cbd a720 a2bd 0322 9e3e
00000230: f34c 243e 2672 febd bf5c d6bd d67b 89bd
00000240: 2fdf 953e c599 9bbe 30e7 a1be 0000 0000
00000250: 0000 0000 48ea 8a3d 2393 d33c 3bf8 2b3e
00000260: 5360 1fbe 129f 24be 4b2b 443c 9ccc 303d
00000270: da1f c83c ad7a 883d 1c1f 08bd ace4 9ebd
00000280: e685 cdbd 9fe2 18be 0000 0000 0000 0000
00000290: 4de7 d7bc 1ef2 6cbd 79d5 f2bd 5130 b2bd
000002a0: f134 143e 06e2 be3c 83f1 52bc 46d7 493d
000002b0: 1162 a13d 61ff dbbd 315f 10be 4313 1a3e
000002c0: ca58 c93d 0000 0000 0000 0000 76bb 0cbe
000002d0: 21fe 27be 3db9 833d a636 9a3e 0c22 21bd
000002e0: 5632 bb3d 977e 42bd 26f6 c3bc de85 26be
000002f0: 6693 54bd 14f2 a13e 2439 93be 36ac 99bd
00000300: 0000 0000 0000 0000 cd65 fa3e 1dba 3cbe
00000310: a0bd 803f f9da b13d 2031 16bf f600 363f
00000320: 5989 143d ca7b 16be 5e04 343f bb8a 5abe
00000330: 52c3 1d3f c39d c33e a9b5 83bc 0000 0000
00000340: 0000 0000 50b3 59c0 04a0 73be f114 113f
00000350: 3260 e33c c838 d0be 5999 e13e 7f9b 443d
00000360: 6984 14be a224 b63e 0300 22be 876f c73e
00000370: bf25 5b3d e2b3 8cbe 0000 0000 0000 0000
00000380: 1663 9cbf 9012 083d a85a ec3c 1303 313d
00000390: 902a 9ebc 325c bd3d a8a6 783d 077f a53c
000003a0: 7a4a 993c ca65 c13d ad56 24be faeb bf3c
000003b0: cd65 ac3b 0000 0000 0000 0000 26b1 24be
000003c0: b73f 4ebc 5b5f 8abe 97ab 2c3e 4b5a 5a3e
000003d0: ed7b 8cbe b6f2 9ebc 3a60 2f3d 796a 68be
000003e0: 2e2d 113e 8926 7ebd a31f 10be f240 9fbd
000003f0: 0000 0000 0000 0000 fff6 e63f ba53 32bd

exp_avg_sq f4 [128, 15]
8.672266 14.764027 327.4809 14.428754 6.366461 110.8032 2.014786 19.285316
86.95966 5.818433 17.369139 6.5913405 0.0 0.0 580.67114 24.056637
58.41751 24.268402 17.466396 6.6647534 125.33633 1.4785879 24.461802 390.65555
2.9166198 2.312447 20.276217 0.0 0.0 121.932365 1.1055896 0.5267494
4.5629816 0.72593945 1.5729376 0.61894196 0.47437525 0.8663047 0.7136022 1.0296779
1.084478 0.84580755 0.0 0.0 10.958142 8.398768 2.2855816 0.82320255
2.0335352 9.275416 1.4566971 0.74913013 3.0472908 2.0725787 3.5351064 2.8389575
1.571648 0.0 0.0 3.9341927 1.5762649 2.969314 208.04471 7.1422124
1.9966172 58.218082 4.3200393 8.686742 7.3762555 3.904305 7.994934 4.138756
0.0 0.0 369.5487 8.022832 1.6818781 139.35751 6.093355 10.583192
39.162804 0.964217 8.324427 3.4444802 4.2360396 5.434234 1.5193499 0.0
0.0 240.57118 0.50746167 1.2301334 68.13159 2.5812204 0.6211178 20.777674
0.47376713 2.8531456 5.995135 0.91224724 1.1799197 1.2349352 0.0 0.0
119.977486 0.53689235 0.17140475 0.015337421 0.11611863 0.7870332 0.09187196 0.97609085
0.297734 0.039833594 0.39152533 0.32476133 0.05223086 0.0 0.0 0.054855783
0.93407685 1.672046 2.31852 2.2120984 2.1863248 1.286051 1.4015806 2.1007967
0.4439226 2.237751 3.109051 0.5919063 0.0 0.0 4.371876 9.753115
24.858984 138.68697 11.049142 3.1569257 88.58517 1.0583915 14.845049 163.88066
2.0470433 3.758449 9.5139 0.0 0.0 273.70578 0.4989406 1.8391811
3.3272913 1.7375329 2.4264839 1.718253 9.442034 4.8395147 0.66938084 2.1143892
6.2241917 0.42648983 0.0 0.0 5.0847936 1.2082177 1.5782284 2.2800124
2.201118 2.404092 1.1277184 10.259545 4.395479 1.1352853 1.6885598 5.056046
1.7881519 0.0 0.0 6.1636786 0.66951406 1.585591 2.2378852 1.113456
0.38170302 3.1962328 0.16854051 1.2011695 8.902374 0.76851934 0.52738315 1.0797107
0.0 0.0 10.525403 2.2397983 1.6378714 17.310392 1.678654 3.9329143
3.905009 0.8465312 1.6642281 1.7344819 1.9463791 2.0998893 1.6394451 0.0
0.0 39.578945 0.5882623 0.83986986 0.69701684 0.94801635 0.96953964 0.29953292
0.4091569 0.7540493 0.48733717 1.1817873 0.7246865 0.5232796 0.0 0.0
4.586926 1.658524 1.1482611 0.6762386 1.1838309 0.8588012 0.35618022 0.25804567
0.83911186 0.7228588 1.3693323 0.72080994 0.62882686 0.0 0.0 4.7237997
10.535029 2.9249647 308.87753 12.461265 12.418989 87.414185 2.0712461 15.256284
7.930261 5.8573093 10.886506 6.2460494 0.0 0.0 534.1397 0.7813003
00000000: 9ac1 0a41 7439 6c41 8ebd a343 2ddc 6641
00000010: 0cba cb40 3d9b dd42 41f2 0040 5448 9a41
00000020: 59eb ad42 9a30 ba40 fff3 8a41 43ec d240
00000030: 0000 0000 0000 0000 f42a 1144 fe73 c041
00000040: 88ab 6942 b025 c241 2ebb 8b41 a945 d540
00000050: 33ac fa42 5e42 bd3f c5b1 c341 e953 c343
00000060: e6a9 3a40 22ff 1340 b135 a241 0000 0000
00000070: 0000 0000 5fdd f342 f683 8d3f 0cd9 063f
00000080: f203 9240 2bd7 393f 0556 c93f fb72 1e3f
00000090: 50e1 f23e 25c6 5d3f a2ae 363f 7ccc 833f
000000a0: 2dd0 8a3f d886 583f 0000 0000 0000 0000
000000b0: 8d54 2f41 5b61 0641 f846 1240 67bd 523f
000000c0: 7125 0240 1b68 1441 0d75 ba3f fec6 3f3f
000000d0: d006 4340 21a5 0440 2f3f 6240 7bb1 3540
000000e0: c32b c93f 0000 0000 0000 0000 d0c9 7b40
000000f0: 0cc3 c93f 3e09 3e40 720b 5043 018d e440
00000100: 2791 ff3f 51df 6842 c33d 8a40 e5fc 0a41
00000110: 490a ec40 22e0 7940 80d6 ff40 b070 8440
00000120: 0000 0000 0000 0000 3cc6 b843 855d 0041
00000130: c847 d73f 865b 0b43 c4fc c240 c154 2941
00000140: b6a6 1c42 edd6 763f da30 0541 5d72 5c40
00000150: a38d 8740 3fe5 ad40 0f7a c23f 0000 0000
00000160: 0000 0000 3992 7043 02e9 013f 0375 9d3f
00000170: 6043 8842 b732 2540 9301 1f3f ad38 a641
00000180: 9b91 f23e f099 3640 25d8 bf40 0989 693f
00000190: 9c07 973f 5b12 9e3f 0000 0000 0000 0000
000001a0: 79f4 ef42 c771 093f ba84 2f3e ce49 7b3c
000001b0: 9bcf ed3d 027b 493f 5e27 bc3d 17e1 793f
000001c0: 9770 983e 8d28 233d 0276 c83e 1e47 a63e
000001d0: 07f0 553d 0000 0000 0000 0000 75b0 603d
000001e0: a91f 6f3f 9a05 d63f a262 1440 0593 0d40
000001f0: bfec 0b40 529d a43f fe66 b33f 7473 0640
00000200: d349 e33e 5037 0f40 b1fa 4640 2c87 173f
00000210: 0000 0000 0000 0000 68e6 8b40 c20c 1c41
00000220: 33df c641 ddaf 0a43 49c9 3041 120b 4a40
00000230: 9b2b b142 5f79 873f 5285 6d41 73e1 2343
00000240: c202 0340 6e8a 7040 ef38 1841 0000 0000
00000250: 0000 0000 57da 8843 2475 ff3e 496a eb3f
00000260: 57f2 5440 7a67 de3f 834b 1b40 b7ef db3f
00000270: 9212 1741 4edd 9a40 8b5c 2b3f 2752 0740
00000280: 942c c740 e05c da3e 0000 0000 0000 0000
00000290: a1b6 a240 e1a6 9a3f 6303 ca3f b9eb 1140
000002a0: 1edf 0c40 a5dc 1940 1459 903f 1927 2441
000002b0: c4a7 8c40 0751 913f ba22 d83f 21cb a140
000002c0: 29e2 e43f 0000 0000 0000 0000 db3c c540
000002d0: 4665 2b3f a5f4 ca3f 8339 0f40 ba85 8e3f
000002e0: 946e c33e 148f 4c40 e295 2c3e ecbf 993f
000002f0: 2070 0e41 afbd 443f 9502 073f f633 8a3f
00000300: 0000 0000 0000 0000 0d68 2841 db58 0f40
00000310: c5a5 d13f af7b 8a41 22de d63f deb4 7b40
00000320: abeb 7940 45b6 583f 6d05 d53f 8103 de3f
00000330: f322 f93f 9664 0640 56d9 d13f 0000 0000
00000340: 0000 0000 d750 1e42 5c98 163f b601 573f
00000350: b26f 323f 33b1 723f c033 783f 615c 993e
00000360: 037d d13e 6009 413f 4284 f93e ce44 973f
00000370: 0e85 393f a7f5 053f 0000 0000 0000 0000
00000380: 19c8 9240 844a d43f 38fa 923f f91d 2d3f
00000390: c587 973f 65da 5b3f 415d b63e 901e 843e
000003a0: 09d0 563f 460d 393f 4846 af3f 0087 383f
000003b0: ccfa 203f 0000 0000 0000 0000 5e29 9740
000003c0: 7b8f 2841 9f32 3b40 5370 9a43 5761 4741
000003d0: 2eb4 4641 10d4 ae42 4c8f 0440 bd19 7441
000003e0: b3c4 fd40 146f bb40 212f 2e41 a3df c740
000003f0: 0000 0000 0000 0000 f188 0544 4c03 483f

exp_avg f4 [128]
-0.4919229 -0.30677477 0.35753453 1.5852941 0.26059604 -0.16476737 0.28974974 -0.006328382
0.16474438 -0.054156613 0.021042703 0.10973012 -0.3904741 2.7158842 0.97549 0.12841165
-1.440681 0.16490115 -0.021727756 -0.54805213 0.020826528 -0.085252255 -0.30925256 5.2652917
0.02670409 0.14515437 -0.08149213 -3.2430775 0.008614015 0.15018547 0.37454736 0.022102568
-0.06598467 -0.056778666 -0.32190108 -0.09299456 0.18608795 0.19735628 0.11226671 0.078867525
-0.17684948 6.2734747 1.4435276 3.2338843 -0.102489285 0.2722578 0.09416945 0.075433224
2.121789 0.10521497 0.090854056 -0.41824618 0.06712986 0.04499416 -0.8289065 0.61603904
0.68910015 0.3857317 -0.22515363 0.35137343 0.14617473 0.20745566 0.05662915 -0.12847884
0.27210355 -0.16724807 -0.09543232 -0.119493715 -1.9464484 -0.7014339 0.57933414 12.236769
0.3937098 -0.9816202 -0.3008906 0.0012437162 -0.15869002 1.3254911 -0.38498583 0.21062744
-1.3793509 0.59774524 -0.18166843 0.588587 1.3837904 0.013339075 -0.014706511 0.0165642
-0.42517304 2.7757227 0.42233583 -0.5830354 -0.052140377 0.029828895 0.01885712 0.1978078
-0.059706468 -0.7490687 0.050358396 -1.0262052 -0.51715404 -0.54528475 2.6939855 0.8347232
-0.28428617 -0.029048577 0.028766943 -0.27924806 -0.0037665311 1.8228059 0.3272214 0.039820105
1.066514 1.2839282 0.12926523 -0.64860386 -0.5915168 0.0657979 -2.2900708 -1.4202642
0.4402929 -0.0073360796 -0.08819511 0.055339254 0.23582323 0.13186777 1.9794849 0.18675253
00000000: 51dd fbbe 9511 9dbe c40e b73e ebea ca3f
00000010: d86c 853e c7b8 28be 145a 943e 515e cfbb
00000020: c0b2 283e 53d3 5dbd bf61 ac3c 2fba e03d
00000030: 39ec c7be 0cd1 2d40 b6b9 793f 587e 033e
00000040: 3c68 b8bf d9db 283e 68fe b1bc 254d 0cbf
00000050: 659c aa3c bc98 aebd 5a56 9ebe 457d a840
00000060: 89c2 da3c 59a3 143e 59e5 a6bd 958e 4fc0
00000070: cc21 0d3c 38ca 193e acc4 bf3e 7210 b53c
00000080: f822 87bd bf90 68bd 38d0 a4be ef73 bebd
00000090: d78d 3e3e c417 4a3e 17ec e53d 4c85 a13d
000000a0: 0818 35be 4ec0 c840 83c5 b83f f6f7 4e40
000000b0: e7e5 d1bd 6065 8b3e eadb c03d bc7c 9a3d
000000c0: 64cb 0740 f27a d73d b111 ba3d 5d24 d6be
000000d0: 617b 893d cc4b 383d 3733 54bf bcb4 1d3f
000000e0: de68 303f a07e c53e ac8e 66be 38e7 b33e
000000f0: d4ae 153e 426f 543e f8f3 673d f58f 03be
00000100: 2851 8b3e 1443 2bbe 0572 c3bd 1fb9 f4bd
00000110: 3925 f9bf 2c91 33bf 3e4f 143f cec9 4341
00000120: 5594 c93e 764b 7bbf 550e 9abe 3104 a33a
00000130: a37f 22be b1a9 a93f dd1c c5be b8ae 573e
00000140: 928e b0bf d505 193f 4a07 3abe a3ad 163f
00000150: 0b20 b13f 238c 5a3c 94f3 70bc a5b1 873c
00000160: 48b0 d9be 71a5 3140 673c d83e cf41 15bf
00000170: 2691 55bd ba5b f43c 3f7a 9a3c 218e 4a3e
00000180: c58e 74bd f7c2 3fbf 9b44 4e3d b15a 83bf
00000190: 3564 04bf c897 0bbf 426a 2c40 6bb0 553f
000001a0: f58d 91be 48f7 edbc a7a8 eb3c 9af9 8ebe
000001b0: e8d7 76bb b451 e93f 9089 a73e 681a 233d
000001c0: 8883 883f c257 a43f 1b5e 043e e70a 26bf
000001d0: a56d 17bf 0dc1 863d 8590 12c0 38cb b5bf
000001e0: 126e e13e 7f63 f0bb a39f b4bd 6aab 623d
000001f0: a57b 713e 5808 073e c35f fd3f 0e3c 3f3e

exp_avg_sq f4 [128]
370.1638 77.72907 6.985561 2.5079515 235.57855 153.35814 76.48278 0.0349693
2.7869668 174.48103 3.2414327 3.9291985 6.7096953 25.230717 2.9240625 3.0113058
340.5007 145.3523 11.137883 28.299189 0.8604354 1.7304639 114.72343 7.6684456
24.531805 349.79703 0.3326778 13.248375 6.16032 2.0275471 148.13324 6.0480742
0.2670949 0.15846947 1.307015 18.851364 604.7372 15.454006 2194.1575 0.83836305
50.796085 29.417322 3.8422973 6209.249 7976.3403 59.930214 0.31331724 0.56319755
603.28503 28.879719 0.9744689 3.8099475 2.174644 49.71407 2.7426925 299.12308
10.892732 31.219486 125.88065 29.55 1.0097052 1120.0997 96.67485 1.8555919
6.0844026 4.9115577 2.5645132 199.26648 157.66249 579.0055 8.045504 526.53656
803.9803 235.41525 49.786293 0.23678769 5.346828 13.689453 8.1605835 0.60338366
2.5613623 14.321754 116.70654 26.227564 25.745749 1.9800977 1.3839414 18.577366
81.861435 139.54123 10.421554 41.024105 3.9267623 0.007508624 5.869893 3.8138978
954.1664 46.2294 0.84506905 1401.0029 4.408612 106.50605 390.7704 357.3391
414.913 1.0021987 14.475505 8.1833 1.2751771 1.3122183 651.26776 27.59534
11.579487 10.443645 327.56577 623.1538 18.72414 0.61660236 157.97429 336.25638
398.23737 15.21325 423.87845 964.66315 12.204939 5.695408 156.91556 67.66018
00000000: f714 b943 4975 9b42 b789 df40 4782 2040
00000010: 1c94 6b43 af5b 1943 2ff7 9842 f83b 0f3d
00000020: aa5d 3240 257b 2e43 a273 4f40 fd77 7b40
00000030: d3b5 d640 82d8 c941 d723 3b40 3cb9 4040
00000040: 1740 aa43 305a 1143 c534 3241 bd64 e241
00000050: 7f45 5c3f d77f dd3f 6572 e542 e863 f540
00000060: 2341 c441 05e6 ae43 bf54 aa3e 58f9 5341
00000070: 5721 c540 55c3 0140 1c22 1443 d389 c140
00000080: aac0 883e d245 223e 444c a73f 98cf 9641
00000090: 2e2f 1744 9c43 7741 8522 0945 f69e 563f
000000a0: 312f 4b42 ad56 eb41 33e8 7540 fe09 c245
000000b0: b942 f945 8ab8 6f42 1e6b a03e b72d 103f
000000c0: 3ed2 1644 aa09 e741 cb76 793f 2ed6 7340
000000d0: 5e2d 0b40 35db 4642 4688 2f40 c18f 9543
000000e0: a148 2e41 82c1 f941 e5c2 fb42 6666 ec41
000000f0: 053e 813f 3103 8c44 8659 c142 0984 ed3f
00000100: 6db3 c240 7b2b 9d40 fc20 2440 3844 4743
00000110: 99a9 1d43 5ac0 1044 62ba 0041 57a2 0344
00000120: bdfe 4844 4e6a 6b43 2a25 4742 7978 723e
00000130: 3719 ab40 0008 5b41 c091 0241 5a77 1a3f
00000140: 5ced 2340 e825 6541 c069 e942 0dd2 d141
00000150: 4bf7 cd41 d773 fd3f fe24 b13f 729e 9441
00000160: 0eb9 a342 8e8a 0b43 afbe 2641 af18 2442
00000170: 1350 7b40 e70a f63b 2ad6 bb40 e716 7440
00000180: a68a 6e44 e8ea 3842 7256 583f 1820 af44
00000190: 5913 8d40 1903 d542 9c62 c343 68ab b243
000001a0: dd74 cf43 0c48 803f ab9b 6741 ccee 0241
000001b0: 0139 a33f c5f6 a73f 23d1 2244 42c3 dc41
000001c0: 9445 3941 2b19 2741 6bc8 a343 d8c9 1b44
000001d0: 0acb 9541 a7d9 1d3f 6bf9 1d43 d120 a843
000001e0: 621e c743 7969 7341 71f0 d343 712a 7144
000001f0: 6e47 4341 c840 b640 62ea 1c43 0352 8742
