ppo/models/behavioral_cloning_agents_drone/bc14/ckpts/001760700.pt (torch_old, 352118 bytes, 26 tensors)

fc1.weight f4 [128, 15]
0.29967153 0.08636576 -0.42899626 -0.37564027 -0.05260412 -0.10058877 -0.2851584 -0.13304985
0.0005933576 0.040235538 -0.075914316 -0.007119053 -0.24666992 -0.17100051 0.10420055 -0.12501055
0.2797269 0.26145303 -0.44764823 -0.040880036 0.22478254 0.5498276 0.24447848 0.19254203
-0.087188706 -1.2414668e-05 0.24614786 -0.23952346 -0.162546 -0.010924358 0.07099977 0.29084793
-0.17437978 0.082458824 -0.23174031 -0.22845629 -0.2710373 0.07221677 0.07781353 0.23457605
-0.05535222 -0.13434187 0.04368329 -0.24107894 -0.0565635 -0.22118235 0.0837136 0.32257947
0.14742021 -0.07424353 0.15665245 0.2626366 0.10137433 -0.05209957 -0.07070547 -0.07352036
0.13576527 -0.20018302 -0.17895406 -0.026195487 0.49404228 0.21776184 -0.41724926 0.1606062
0.58112866 0.32075518 0.34760842 0.2468791 0.019267833 0.118259095 -0.46251875 -0.13511264
0.10147473 0.21393052 0.4091915 0.134146 0.097388074 -0.21708795 -0.13424018 -0.24649717
-0.33532193 0.3240597 0.13879712 -0.10474172 -0.12874775 -0.18571505 -0.05540369 -0.118192315
0.09929198 0.06985419 0.010563727 0.217662 0.26774067 0.25753286 -0.2067786 -0.008446459
0.28833747 0.24044831 -0.7171297 -0.16143583 -0.012109536 0.07398365 -0.11258121 -0.064984724
-0.21245256 -0.28224152 -0.45122886 -0.3151582 -0.21545951 0.039245095 0.09812987 0.6797628
-0.36850885 0.1665176 -0.03894853 -0.2779498 0.0058765733 0.011650622 0.037671506 0.20025088
0.13746658 -0.080611244 -0.34876367 -0.04404238 -0.27547836 -0.21127205 -0.09956987 -0.009405051
-0.4518846 -0.19973394 -0.20149292 0.064977236 -0.16820773 -0.013250604 0.22841221 -0.18381324
0.035701245 -0.018161729 0.031992763 0.06403923 0.30073267 0.377515 0.14178786 -0.056918226
-0.47389454 -0.28015083 0.12650512 -0.001673758 -0.12833682 -0.03670327 -0.3282352 -0.46521512
-0.07393144 0.080192246 0.40579242 -0.28837854 0.25676697 -0.43982756 -0.39622232 -0.12957978
0.12618452 -0.06187053 -0.23169476 -0.2229387 0.012226066 -0.16888013 -0.07322555 0.052621715
-0.18152238 -0.14006564 0.29640788 -0.28716025 0.24304238 0.11894773 -0.332616 0.8866583
-0.033300333 -0.11526175 0.2064696 -0.10670644 -0.12042078 -0.06679089 0.24580984 0.25364423
0.16187851 0.29713517 -0.05522705 -0.21081822 -0.1929762 0.03471459 0.10386621 0.11590943
-0.1821279 0.011515647 -0.11710141 -0.48702237 -0.15674151 0.124162436 -0.514352 0.22309509
0.07443943 0.43064937 -0.47298414 -0.3142614 -0.035252143 0.44860792 -0.023001568 0.21778783
0.09336665 0.001836312 -0.19370285 -0.019584356 0.20247538 -0.048223 0.043290686 0.23314956
-0.26039615 -0.22197486 0.049766116 -0.14347292 0.00018392516 0.109635726 0.09327102 0.0073103905
0.016634244 0.2931581 -0.2896973 -0.16987592 -0.20922604 0.19096527 0.056916017 0.92688704
0.40674096 0.099328265 0.122674786 -0.42654133 -0.020252027 -0.18251978 -0.10943118 0.20735309
-0.123405844 0.053799834 -0.19759825 -0.33197266 0.004781806 -0.2126074 0.26835147 -0.19603133
0.020330524 -0.15517244 0.112854905 0.059737958 0.2135095 -0.07547657 0.033136792 -0.22334522
00000000: 8c6e 993e 88e0 b03d 66a5 dbbe ec53 c0be
00000010: 6b77 57bd 7c01 cebd 4800 92be 383e 08be
00000020: 8e8b 1b3a 05ce 243d f778 9bbd f246 e9bb
00000030: 0a97 7cbe c21a 2fbe 1967 d53d c402 00be
00000040: 5d38 8f3e 2cdd 853e 2632 e5be d371 27bd
00000050: 652d 663e 80c1 0c3f 9158 7a3e bd29 453e
00000060: fe8f b2bd 9848 50b7 2f0e 7c3e a345 75be
00000070: 7572 26be 14fc 32bc 5468 913d 05ea 943e
00000080: 9d90 32be 2ce0 a83d 554d 6dbe 72f0 69be
00000090: 67c5 8abe 63e6 933d b35c 9f3d b434 703e
000000a0: 02b9 62bd ea90 09be 40ed 323d 66dd 76be
000000b0: 21af 67bd a07d 62be 0972 ab3d 2329 a53e
000000c0: 53f5 163e fe0c 98bd 8069 203e 4e78 863e
000000d0: 589d cf3d 5c66 55bd 08ce 90bd d891 96bd
000000e0: 0d06 0b3e c7fc 4cbe bc3f 37be eb97 d6bc
000000f0: 1cf3 fc3e f6fc 5e3e b2a1 d5be f475 243e
00000100: d9c4 143f 063a a43e bbf9 b13e e0cd 7c3e
00000110: 93d7 9d3c d331 f23d 42cf ecbe f85a 0abe
00000120: fcd1 cf3d 9a10 5b3e 8c81 d13e 925d 093e
00000130: 6673 c73d 4e4c 5ebe 4276 09be c169 7cbe
00000140: 51af abbe 27eb a53e d520 0e3e d482 d6bd
00000150: 73d6 03be 162c 3ebe fbee 62bd d00e f2bd
00000160: 9859 cb3d b70f 8f3d 7b13 2d3c cae2 5e3e
00000170: 4e15 893e 59db 833e c5bd 53be 0463 0abc
00000180: f8a0 933e 1538 763e d095 37bf 6f4f 25be
00000190: 1367 46bc bd84 973d fa90 e6bd b616 85bd
000001a0: 2a8d 59be f681 90be 7807 e7be 6a5c a1be
000001b0: 6ba1 5cbe 77bf 203d 50f8 c83d ef04 2e3f
000001c0: 31ad bcbe 9783 2a3e 7e88 1fbd 704f 8ebe
000001d0: 4590 c03b 40e2 3e3c 704d 1a3d 910e 4d3e
000001e0: 0ac4 0c3e 8217 a5bd 2791 b2be c865 34bd
000001f0: 800b 8dbe b357 58be 4aeb cbbd a517 1abc
00000200: 6b5d e7be 0e87 4cbe 2954 4ebe c912 853d
00000210: a63e 2cbe 1019 59bc e4e4 693e 8a39 3cbe
00000220: 783b 123d e8c7 94bc d80a 033d 0027 833d
00000230: a2f9 993e a549 c13e d630 113e 1623 69bd
00000240: 4ea2 f2be ee6f 8fbe 8f8a 013e 0062 dbba
00000250: ba6a 03be 2b56 16bd 720e a8be ad30 eebe
00000260: 5e69 97bd d53b a43d 06c4 cf3e 5aa6 93be
00000270: f676 833e 1431 e1be a7dd cabe 90b0 04be
00000280: 8436 013e f46b 7dbd 6441 6dbe 0b4a 64be
00000290: d64f 483c eaee 2cbe 47f7 95bd de89 573d
000002a0: 01e1 39be 5e6d 0fbe c6c2 973e ab06 93be
000002b0: 1ae0 783e de9a f33d a54c aabe 0afc 623f
000002c0: ee65 08bd 5a0e ecbd c46c 533e e888 dabd
000002d0: 2b9f f6bd aac9 88bd 93b5 7b3e a8dd 813e
000002e0: 7bc3 253e 1a22 983e c235 62bd bbe0 57be
000002f0: 8e9b 45be e330 0e3d cfb7 d43d ec61 ed3d
00000300: bc7f 3abe 20ac 3c3c ddd2 efbd ff5a f9be
00000310: d980 20be e048 fe3d 93ac 03bf 0a73 643e
00000320: b373 983d 137e dc3e fa2a f2be dfe6 a0be
00000330: 8d64 10bd f0af e53e c96d bcbc c603 5f3e
00000340: 0437 bf3d 68b0 f03a 0a5a 46be 5f6f a0bc
00000350: b555 4f3e 7b85 45bd 9351 313d c2be 6e3e
00000360: a552 85be 614d 63be 8ed7 4b3d 91ea 12be
00000370: 09dc 4039 b288 e03d e004 bf3d 008c ef3b
00000380: 8a44 883c d218 963e 3453 94be f4f3 2dbe
00000390: 5a3f 56be 668c 433e c520 693d 7848 6d3f
000003a0: 5a40 d03e 9e6c cb3d eb3c fb3d a063 dabe
000003b0: 94e7 a5bc 77e6 3abe 741d e0bd 5e54 543e
000003c0: 34bc fcbd 375d 5c3d 3257 4abe 52f8 a9be
000003d0: b2b0 9c3b c1b5 59be 5d65 893e 70bc 48be
000003e0: 338c a63c 86e5 1ebe 7920 e73d caaf 743d
000003f0: 3ca2 5a3e 7693 9abd 72ba 073d 9cb4 64be

fc1.bias f4 [128]
-0.28985548 -0.19973454 -0.15020794 0.094738275 -0.16230367 -0.043386906 -0.035427306 -0.059791606
-0.03460218 -0.15414894 -0.29833668 -0.327671 -0.04344766 0.15865171 -0.06694507 -0.120206565
-0.07759152 -0.05737563 -0.27951702 -0.27046344 -0.10430645 -0.09869259 -0.31948933 -0.11961033
-0.3322653 -0.16336039 -0.09449324 0.22844252 -0.062003024 -0.426346 -0.06917236 -0.046740938
0.18501619 -0.118523836 -0.2775559 -0.21035063 0.032025855 -0.268235 -0.28483948 -0.041853696
0.09726415 -0.25067827 -0.4781891 -0.04773915 -0.06555998 -0.31651413 -0.38369164 -0.07145659
-0.33231232 -0.12590112 -0.45464757 -0.27397576 -0.046073277 -0.21693856 -0.21318085 -0.24195945
-0.0038783972 0.002999414 -0.112141766 -0.1872824 -0.3983178 -0.23560835 -0.05386923 -0.09695777
0.05882034 -0.11916367 0.048575964 -0.40519398 -0.041807633 0.18008564 -0.39727858 -0.2383445
0.112199605 -0.14446498 -0.3699859 -0.15748724 -0.15021788 -0.11489606 -0.27802148 0.048029777
-0.06252918 -0.06389825 -0.051451143 0.078096405 0.11619445 -0.12568443 -0.26881954 -0.045347698
-0.18115634 0.13335305 -0.40141895 0.064382456 -0.34270322 -0.14926054 0.0038695969 0.20762359
-0.18762638 0.026003629 -0.45009762 -0.31346846 -0.30037326 -0.22654606 -0.06911879 -0.21078476
-0.108468115 -0.08128365 -0.025953509 -0.19931695 -0.27081224 -0.012828384 -0.240263 0.15150139
-0.28024104 -0.02063565 -0.21176569 -0.05014252 0.038852703 -0.19389641 -0.08479353 -0.18741046
-0.14581333 -0.33015868 -0.21010433 0.23425499 -0.06148324 -0.1561443 -0.115260914 -0.23896027
00000000: f067 94be 3687 4cbe 1cd0 19be 2406 c23d
00000010: ef32 26be 78b6 31bd 391c 11bd 0be8 74bd
00000020: 04bb 0dbd 38d9 1dbe 96bf 98be 7ec4 a7be
00000030: 2cf6 31bd 9875 223e 7f1a 89bd dc2e f6bd
00000040: 4ee8 9ebd b502 6bbd db1c 8fbe 2f7a 8abe
00000050: 9f9e d5bd 571f cabd 1b94 a3be 43f6 f4bd
00000060: ad1e aabe f247 27be ac85 c1bd d6ec 693e
00000070: e2f6 7dbd 064a dabe 3daa 8dbd 6d73 3fbd
00000080: e274 3d3e a0bc f2bd cf1b 8ebe 2866 57be
00000090: 8b2d 033d 1956 89be 7bd6 91be c86e 2bbd
000000a0: 6d32 c73d e758 80be 34d5 f4be 208a 43bd
000000b0: 5044 86bd 240e a2be 3b73 c4be d557 92bd
000000c0: d724 aabe 39ec 00be 91c7 e8be 8d46 8cbe
000000d0: 55b7 3cbd 2425 5ebe 154c 5abe 38c4 77be
000000e0: b52c 7ebb d191 443b 95aa e5bd f5c6 3fbe
000000f0: 50f0 cbbe 5143 71be fba5 5cbd cc91 c6bd
00000100: 99ed 703d 150c f4bd 97f7 463d 9675 cfbe
00000110: 7b3e 2bbd 5f68 383e 1968 cbbe 9510 74be
00000120: e8c8 e53d a1ee 13be cb6e bdbe 5644 21be
00000130: b7d2 19be a04e ebbd d558 8ebe dfba 443d
00000140: 4c0f 80bd 16dd 82bd 6fbe 52bd 02f1 9f3d
00000150: 5bf7 ed3d 6bb3 00be b7a2 89be 82be 39bd
00000160: 0c81 39be b48d 083e c986 cdbe f3da 833d
00000170: cc76 afbe c1d7 18be 1099 7d3b 479b 543e
00000180: 2121 40be 9005 d53c 3273 e6be f07e a0be
00000190: 86ca 99be b1fb 67be 278e 8dbd f6d7 57be
000001a0: 8824 debd 0b78 a6bd 749c d4bc be19 4cbe
000001b0: e7a7 8abe 242e 52bc 8107 76be 2e23 1b3e
000001c0: c17b 8fbe 180c a9bc 1bd9 58be 3e62 4dbd
000001d0: 0324 1f3d c88c 46be 3ba8 adbd 87e8 3fbe
000001e0: 1750 15be 8f0a a9be 9725 57be 8ae0 6f3e
000001f0: dad5 7bbd 4be4 1fbe ea0d ecbd 00b2 74be

fc2.weight f4 [128, 128]
-0.13998552 -0.29767567 -0.1687117 -0.024782699 -0.18483214 -0.04766358 -0.06798764 0.016841872
-0.03355992 0.05842695 -0.19081146 -0.06581892 -0.042200677 0.004276965 -0.08071219 0.027273135
0.052494675 0.014623791 0.01530864 -0.18687436 -0.10409321 -0.024924662 -0.15047048 -0.16611813
-0.008933954 -0.022803705 0.10598646 -0.1826613 -0.026810864 -0.110665515 -0.03414548 -0.009927194
-0.035859164 -0.07720145 -0.22300212 0.14765607 -0.13852635 -0.2816639 -0.08040465 -0.12297791
-0.13789709 -0.18279843 -0.011032761 -0.28757566 -0.27492762 -0.11606546 -0.015553799 -0.0125582265
0.012770131 0.034006793 -0.22085749 -0.04456254 -0.25454545 -0.084221356 0.041739605 -0.046822157
0.033981305 0.14598551 0.0828043 0.012996039 -0.000976229 0.033255994 -0.06518963 -0.21195288
-0.06418156 -0.038311094 0.025495414 -0.009931456 0.12277946 -0.073208034 -0.122118376 -0.1237781
-0.09431371 0.0031178116 -0.056285646 -0.012628325 -0.17087138 0.0071159303 -0.02864954 0.031234257
-0.017675819 -0.13074848 -0.10497091 0.063998684 -0.19700815 0.09007109 -0.41493523 -0.04758596
-0.021835444 -0.19345984 0.1084595 -0.034626104 -0.15821739 0.009901791 -0.17355746 -0.045154355
-0.17870356 -0.07358712 -0.06908468 0.022923604 -0.2035031 -0.0044562803 0.08474843 0.021157663
-0.00792159 0.00470475 -0.1012813 -0.11249059 0.157429 -0.24820286 -0.15301308 -0.095796965
0.0038957265 -0.015389718 0.07797349 0.084846236 -0.13958728 -0.038972557 0.060079075 -0.0033344731
0.005618667 -0.07225741 -0.008451255 -0.08022429 0.031786352 -0.11875209 -0.09901106 0.0046373066
-0.016718186 0.25559968 -0.18935688 0.10118556 -0.19932139 -0.07778108 0.037061706 -0.026805352
-0.18626024 0.44348946 0.12632404 -0.21288274 -0.026281048 0.03477779 0.042188242 -0.03734184
0.23850238 -0.35579905 -0.0035843628 0.0375587 -0.5989764 -0.12874298 0.10530513 0.07753475
0.25593272 -0.54458797 0.11188052 -0.062040094 -0.14005499 0.07678814 -0.42665994 0.05080373
-0.0038522542 -0.3070863 0.18187399 0.28032234 -0.017687013 -0.03503466 -0.05589249 0.1038844
0.053820837 0.09312953 -0.096342236 0.014546927 0.056867518 0.122366354 -0.10427866 0.005367529
-0.09683596 -0.07384263 0.037557445 -0.0791141 -0.119122066 -0.41413286 -0.08769579 0.25827697
0.110054165 0.2761057 -0.29733214 -0.27331412 0.10049772 0.15344663 -0.061416123 -0.19961786
-0.09665355 -0.30997267 0.08041157 -0.20356281 -0.13861588 -0.039184194 0.0041693104 -0.25244367
-0.1307529 -0.2961332 -0.12947275 0.1604084 0.41205677 0.090848245 0.10243312 -0.32243386
0.031339765 -0.112159036 -0.024418281 0.10231097 -0.15210998 -0.2885325 0.15746792 -0.43280172
-0.019018669 -0.0115291355 0.07418767 0.15839443 -0.011486801 -0.235026 0.1753906 0.020038826
-0.2918142 0.14198987 0.06801733 -0.28181234 -0.30455098 -0.24684028 -0.86655104 -0.28298113
0.07100626 -0.31889382 -0.1340838 0.24250837 0.0070458422 -0.2104452 -0.2258582 -0.1291158
-0.15165107 0.11248064 0.06577858 -0.1528139 0.046529178 -0.24041189 -0.9042961 -0.18488085
-0.22358122 0.09026126 -0.011323182 -0.1783775 -0.35018376 -0.29754898 -0.0007058677 -0.051252723
00000000: 5d58 0fbe f268 98be c3c2 2cbe 1605 cbbc
00000010: a344 3dbe e33a 43bd 1b3d 8bbd f7f7 893c
00000020: 2076 09bd 1951 6f3d 1464 43be 12cc 86bd
00000030: 9eda 2cbd c825 8c3b 6f4c a5bd e96b df3c
00000040: a804 573d a098 6f3c 17d1 7a3c fe5b 3fbe
00000050: d22e d5bd ce2e ccbc ef14 1abe df1a 2abe
00000060: b85f 12bc d6ce babc 6e0f d93d 900b 3bbe
00000070: 75a2 dbbc 9aa4 e2bd 21dc 0bbd aba5 22bc
00000080: 0fe1 12bd cb1b 9ebd ab5a 64be 2733 173e
00000090: dad9 0dbe 4036 90be 31ab a4bd d8db fbbd
000000a0: e534 0dbe 832f 3bbe c1c2 34bc 1e3d 93be
000000b0: 50c3 8cbe bab3 edbd 5dd5 7ebc 05c1 4dbc
000000c0: d039 513c b54a 0b3d 7728 62be 3687 36bd
000000d0: c853 82be 3f7c acbd 26f7 2a3d 97c8 3fbd
000000e0: fb2f 0b3d 3a7d 153e 4d95 a93d 57ed 543c
000000f0: 9fe9 7fba 7037 083d 2482 85bd 2d0a 59be
00000100: 9f71 83bd 18ec 1cbd c2db d03c 8cb7 22bc
00000110: cc73 fb3d 18ee 95bd 3319 fabd 5f7f fdbd
00000120: 8c27 c1bd 3354 4c3b c78b 66bd 09e7 4ebc
00000130: e8f8 2ebe c02c e93b 71b2 eabc fcde ff3c
00000140: e1cc 90bc eee2 05be fdfa d6bd be11 833d
00000150: 81bc 49be 3177 b83d 6472 d4be 7fe9 42bd
00000160: 3fe0 b2bc 561a 46be 0420 de3d 1ad4 0dbd
00000170: bd03 22be 1f3b 223c 0cb9 31be c6f3 38bd
00000180: 11fe 36be d8b4 96bd 457c 8dbd 48ca bb3c
00000190: 1e63 50be fd05 92bb 9690 ad3d d652 ad3c
000001a0: 8ec9 01bc 4e2a 9a3b 926c cfbd 7761 e6bd
000001b0: 1135 213e e428 7ebe 76af 1cbe 3331 c4bd
000001c0: 724f 7f3b 2825 7cbc 91b0 9f3d ddc3 ad3d
000001d0: f8ef 0ebe b0a1 1fbd 7a15 763d 2d87 5abb
000001e0: cc1c b83b b1fb 93bd 2277 0abc a24c a4bd
000001f0: 6832 023d 4c34 f3bd 50c6 cabd 8cf4 973b
00000200: 94f4 88bc f6dd 823e c5e6 41be 603a cf3d
00000210: e81a 4cbe b04b 9fbd 04ce 173d e696 dbbc
00000220: 01bb 3ebe 0d11 e33e 175b 013e effd 59be
00000230: 5a4b d7bc 2873 0e3d 94cd 2c3d c2f3 18bd
00000240: f839 743e 4b2b b6be a1e7 6abb 27d7 193d
00000250: 8456 19bf 33d5 03be 37aa d73d 8aca 9e3d
00000260: 9d09 833e 1e6a 0bbf 9d21 e53d c11d 7ebd
00000270: 936a 0fbe 1a43 9d3d 2c73 dabe 9217 503d
00000280: 1a76 7cbb 6a3a 9dbe 2d3d 3a3e 6986 8f3e
00000290: 5be4 90bc 8180 0fbd 86ef 64bd 58c1 d43d
000002a0: 3d73 5c3d b2ba be3d 144f c5bd 3c56 6e3c
000002b0: eaed 683d 369b fa3d 0d90 d5bd 19e2 af3b
000002c0: ef51 c6bd ce3a 97bd d6d5 193d 9306 a2bd
000002d0: 45f6 f3bd 3909 d4be da99 b3bd e13c 843e
000002e0: 1464 e13d ba5d 8d3e eb3b 98be d4ef 8bbe
000002f0: c0d1 cd3d 1d21 1d3e 798f 7bbd a068 4cbe
00000300: 4cf2 c5bd bdb4 9ebe d2ae a43d c572 50be
00000310: 52f1 0dbe 9b7f 20bd b69e 883b 4c40 81be
00000320: 17e4 05be c59e 97be 8194 04be 1a42 243e
00000330: 1bf9 d23e a50e ba3d 75c8 d13d 0d16 a5be
00000340: 205e 003d a3b3 e5bd d908 c8bc 6a88 d13d
00000350: b8c2 1bbe 88ba 93be 453f 213e 3098 ddbe
00000360: 0acd 9bbc b3e4 3cbc b5ef 973d 2632 223e
00000370: 2333 3cbc a8aa 70be 9899 333e 7728 a43c
00000380: ac68 95be cb65 113e ab4c 8b3d b549 90be
00000390: 1bee 9bbe b3c3 7cbe 4ad6 5dbf e7e2 90be
000003a0: bb6b 913d 0d46 a3be 434d 09be 1d54 783e
000003b0: cfe0 e63b f27e 57be 5f47 67be ef36 04be
000003c0: 6b4a 1bbe 405c e63d ecb6 863d 3f7b 1cbe
000003d0: 6195 3e3d 892e 76be f37f 67bf 6851 3dbe
000003e0: 7af2 64be e5da b83d de84 39bc 97a8 36be
000003f0: 494b b3be 5758 98be fb09 39ba 60ee 51bd

fc2.bias f4 [128]
-0.051987104 -0.2680692 -0.16750365 0.08560474 0.005103349 0.026477965 -0.12354033 0.0120482715
0.1505387 0.08672598 -0.07142303 0.25163713 0.115242414 0.009962618 0.114616856 0.017708933
0.009459848 -0.054190967 -0.078545615 -0.15460968 0.06319747 0.15194255 -0.10765112 0.16407073
0.081646636 -0.25398383 0.1291676 0.13325615 -0.05663853 0.018060138 0.1376025 0.055269707
0.11055708 -0.15406449 0.1166547 -0.15330121 0.1480682 0.15958479 -0.2873834 -0.18928583
-0.061048303 0.09153613 0.14533128 0.20994183 -0.024121346 0.011120217 0.019241443 -0.1024191
-0.4302062 -0.015017764 -0.015787574 -0.15448119 -0.035613373 0.12854336 -0.2707903 -0.04273189
-0.0032922828 -0.041507598 0.08401397 0.25656056 -0.027598457 0.0129549615 -0.0015272578 -0.07282264
-0.046400063 -0.058817063 0.07280824 -0.066810735 -0.0328831 -0.13652751 -0.12467277 0.0027206037
0.12359686 0.043825075 -0.009503857 0.21800548 0.17126419 -0.14357798 -0.12578084 0.041628767
-0.21290004 -0.11200678 0.055770528 0.048675906 0.15815161 0.1477944 0.35415778 0.06977176
0.07236009 -0.087597705 0.040483642 0.21850917 0.16608983 -0.07107896 -0.07549428 -0.17484713
-0.029780975 0.055497643 -0.15817502 0.06668421 -0.05458741 0.19412176 -0.06651039 0.11363926
0.036753338 -0.09065436 -0.18027091 0.21999456 -0.21962069 -0.08768447 -0.052625228 -0.2187642
0.031038074 0.1208838 -0.04892513 -0.11313113 0.18468639 0.08409519 -0.029152313 -0.19894835
0.05893413 0.14611916 0.14317678 -0.023908168 -0.044052016 -0.28028482 0.18733932 -0.08124847
00000000: 6ef0 54bd 5e40 89be 1486 2bbe 8a51 af3d
00000010: ff39 a73b 51e8 d83c b602 fdbd 1d66 453c
00000020: d126 1a3e 649d b13d 3d46 92bd 95d6 803e
00000030: 3704 ec3d 403a 233c 3ebc ea3d 5312 913c
00000040: 7afd 1a3c 59f7 5dbd 86dc a0bd 0052 1ebe
00000050: ad6d 813d d496 1b3e 3178 dcbd 2802 283e
00000060: 5a36 a73d 2b0a 82be 8344 043e 4d74 083e
00000070: cefd 67bd dbf2 933c abe7 0c3e 7d62 623d
00000080: c06b e23d 15c3 1dbe a9e8 ee3d fefa 1cbe
00000090: 319f 173e 326a 233e eb23 93be 25d4 41be
000000a0: c90d 7abd 4b77 bb3d b9d1 143e fefa 563e
000000b0: 219a c5bc 9231 363c 3ba0 9d3c 1bc1 d1bd
000000c0: fd43 dcbe 110d 76bc f154 81bc 5130 1ebe
000000d0: 54df 11bd dfa0 033e 07a5 8abe a207 2fbd
000000e0: 57c3 57bb df03 2abd 840f ac3d e85b 833e
000000f0: 2916 e2bc 0c41 543c 452e c8ba 0924 95bd
00000100: fe0d 3ebd 29ea 70bd 7d1c 953d 11d4 88bd
00000110: 6eb0 06bd decd 0bbe 7054 ffbd 284c 323b
00000120: 5a20 fd3d ec81 333d 11b6 1bbc d43c 5f3e
00000130: e15f 2f3e 1b06 13be b1cc 00be ed82 2a3d
00000140: 7802 5abe d063 e5bd a36f 643d 6360 473d
00000150: 7ff2 213e 6a57 173e 2b54 b53e 7fe4 8e3d
00000160: 8731 943d 6d66 b3bd 2dd2 253d dec0 5f3e
00000170: 7413 2a3e d991 91bd bf9c 9abd 200b 33be
00000180: 3bf7 f3bc 7f51 633d a2f8 21be bb91 883d
00000190: 0c97 5fbd dbc7 463e 9936 88bd b3bb e83d
000001a0: ab8a 163d fea8 b9bd f098 38be 4146 613e
000001b0: 3fe4 60be ea93 b3bd 8d8d 57bd b903 60be
000001c0: 8f43 fe3c ed91 f73d b865 48bd 4bb1 e7bd
000001d0: 6e1e 3d3e 193a ac3d d5d0 eebc 1eb9 4bbe
000001e0: ea64 713d 43a0 153e ef9c 123e 10db c3bc
000001f0: e36f 34bd 7e81 8fbe e1d5 3f3e 9965 a6bd

dist.fc_mean.weight f4 [4, 128]
-0.0036087679 0.014247111 -0.12335496 -0.0004371675 0.010421747 0.0010907479 -0.0004912644 -0.002317065
0.005633669 -0.0046743234 -0.009596454 -0.00066582544 -0.002600883 0.0020323368 -0.00066921016 -0.0061851894
-0.019744987 0.0115299225 -0.0010406635 0.4089308 -0.00059171225 0.0020682083 0.05699753 0.0010560591
0.0006784008 -0.37061694 -0.0018101367 -0.0015322218 -0.001595205 0.0016014618 -0.00072633685 0.0044089453
-0.001151151 0.022576202 0.0034761701 -0.023668615 -0.0003001729 0.0004885485 0.19530775 -0.0045001647
0.018518219 -0.001251021 3.136579e-05 0.0014056059 0.00016061614 0.003591928 0.0034638767 0.15133654
0.0020627447 -0.018360784 0.5656155 0.0024716759 -0.013098386 0.0033142974 -0.0013396535 0.006015161
0.008896738 -0.0020213823 -0.0021926893 -0.0034483229 0.012979554 0.005007789 -0.0033179035 -0.012009539
0.020288862 -0.009116082 0.002598808 -0.014130524 0.07433493 -0.271467 0.043508906 0.7807997
-0.0009825326 -0.002142198 0.54318863 -0.00032343893 0.0025950961 -0.29235822 -0.016737444 0.008141845
-0.6462373 0.86206716 0.0005744911 -0.68606496 -0.0029488304 0.001894623 0.00042855323 -0.011636821
-0.004144654 0.015677862 -0.0011480114 -0.0027371414 -0.011865082 -0.0056008156 0.01041732 0.15963909
-0.057899803 0.00054650113 -0.008029643 0.0015722725 -0.00010966575 7.748562e-05 -0.0025828758 0.005331319
0.006143305 0.040236477 0.016520103 0.0064485287 0.011014588 0.00031385175 -0.0055267527 0.009738426
0.03649943 -0.0010380984 -0.019256445 -0.0053515392 -0.0011907354 -0.0019697873 0.077857286 -0.017329423
-0.016985122 -0.0020225001 0.053715944 1.248964 0.018512515 0.0030409861 0.003353898 0.021633465
-0.0016819771 -0.23902217 0.10560732 0.00044383196 0.0005570617 0.0012470175 -0.15901858 -0.030396838
-0.0024099266 -0.006019678 0.20711917 -0.00074573385 -0.001262145 -0.00304268 -0.0012309969 0.001472013
-0.0029234956 0.0010486811 0.7357628 0.0018405358 4.651907e-05 4.4223107e-05 0.103999086 -0.00019444873
0.006614903 7.385945e-06 -0.00064421113 0.004045009 -0.000574905 -0.0028800205 -0.0008812049 0.00433361
0.0004958747 -0.003431789 0.00026531503 -0.004027657 -0.00037775922 -0.0026825375 -0.019921971 0.0015630819
0.014870009 0.0015889972 0.00079706253 0.0009993773 -0.0028691206 -0.0017758292 0.00056525524 -0.016997823
0.0013347578 0.0014723662 -0.019409562 -0.7384414 -0.010786263 -0.0007555664 0.003912185 -0.0030801785
-0.010658892 -6.2413885e-05 0.0005388622 0.00052686 -0.079487406 -0.0016136412 -0.6538429 -0.0024029617
-0.016393369 -0.0020770654 7.37725e-05 -0.018348979 0.0016935167 0.002507799 0.011855033 -0.00014104266
-0.0009281447 -0.0020671058 0.002542248 0.0006565042 -0.0014890158 -0.004064233 0.0035593824 0.0010891866
0.0020481828 0.004562398 0.0005340775 -0.020810902 0.00057020923 0.0030471478 -0.0017175502 0.00015782028
0.004257856 0.0038850592 0.00022175294 0.0010114898 0.0022700913 0.0022442653 0.017167155 -0.13028638
0.010137242 0.0007402382 0.002503797 0.00024123413 -0.006721899 0.0044743097 0.0005233743 0.0032399823
-0.0024553472 0.13548128 0.46612343 -0.0010141276 -0.008082783 0.0010686903 -0.0042890077 0.007005266
-0.0057906033 0.0008896881 0.0021725977 0.023241527 -0.0018577458 -0.0005431632 -0.004549431 0.0019128138
0.0027119284 0.00034455227 0.005668243 -0.00060502166 0.015767973 -0.47408462 -0.0013964217 -0.02025471
00000000: 1481 6cbb b76c 693c 86a1 fcbd a133 e5b9
00000010: fabf 2a3c 6df7 8e3a 32c8 00ba e6d9 17bb
00000020: a49a b83b 112b 99bb 723a 1dbc ca8a 2eba
00000030: 9373 2abb f430 053b ef6d 2fba 21ad cabb
00000040: 3dc0 a1bc 00e8 3c3c df66 88ba 615f d13e
00000050: 231d 1bba c78a 073b 3e76 693d 776b 8a3a
00000060: b5d6 313a 81c1 bdbe 1c42 edba d5d4 c8ba
00000070: 3316 d1ba 24e8 d13a a467 3eba ea78 903b
00000080: 38e2 96ba baf1 b83c 75d0 633b afe4 c1bc
00000090: 8660 9db9 ef11 003a c1fe 473e 1e76 93bb
000000a0: 85b3 973c 4df9 a3ba c38e 0338 4f3c b83a
000000b0: 116b 2839 8d66 6b3b 3502 633b f7f7 1a3e
000000c0: 1d2f 073b 5b69 96bc 2dcc 103f d7fb 213b
000000d0: 9d9a 56bc af34 593b 5097 afba d41a c53b
000000e0: a0c3 113c 2b79 04bb 39b3 0fbb 42fd 61bb
000000f0: 32a8 543c 6118 a43b 2f71 59bb a8c3 44bc
00000100: d434 a63c 9f5b 15bc c350 2a3b b783 67bc
00000110: e93c 983d b9fd 8abe 6536 323d 7de2 473f
00000120: 53c8 80ba 1e64 0cbb 690e 0b3f 3d93 a9b9
00000130: 7d12 2a3b faaf 95be f71c 89bc 6065 053c
00000140: cf6f 25bf 6fb0 5c3f 7299 163a f4a1 2fbf
00000150: 2a41 41bb 0055 f83a 71af e039 5da8 3ebc
00000160: e1cf 87bb dc6e 803c df78 96ba 9d61 33bb
00000170: c365 42bc 0c87 b7bb 68ad 2a3c 6e78 233e
00000180: 5828 6dbd 1243 0f3a c48e 03bc b614 ce3a
00000190: 5afc e5b8 c77f a238 7745 29bb 58b2 ae3b
000001a0: c74d c93b 01cf 243d 2b55 873c 2e4e d33b
000001b0: 8876 343c 788c a439 c319 b5bb eb8d 1f3c
000001c0: 6d80 153d cd10 88ba b1bf 9dbc f75b afbb
000001d0: 7312 9cba 8c17 01bb a473 9f3d 6ff6 8dbc
000001e0: 6224 8bbc ec8b 04bb 4005 5c3d 0dde 9f3f
000001f0: 8fa7 973c 484b 473b 12cd 5b3b aa38 b13c
00000200: c975 dcba 3ac2 74be a748 d83d 1eb2 e839
00000210: c707 123a f772 a33a c4d5 22be ca02 f9bc
00000220: dcef 1dbb b840 c5bb 0c17 543e 5a7d 43ba
00000230: 8f6e a5ba b367 47bb 6759 a1ba 8ff0 c03a
00000240: 1e98 3fbb e673 893a f35a 3c3f 223e f13a
00000250: 791d 4338 337c 3938 79fd d43d efe4 4bb9
00000260: d4c1 d83b c9d4 f736 47e0 28ba ff8b 843b
00000270: 39b5 16ba babe 3cbb a900 67ba f500 8e3b
00000280: 96fd 013a dee7 60bb fb19 8b39 70fa 83bb
00000290: fc0d c6b9 83cd 2fbb 6733 a3bc 53e0 cc3a
000002a0: 57a1 733c e645 d03a f6f1 503a 8afd 823a
000002b0: db07 3cbb f1c2 e8ba a32d 143a 053f 8bbc
000002c0: 0af3 ae3a 69fc c03a cd00 9fbc 7f0a 3dbf
000002d0: deb8 30bc 3411 46ba c931 803b d2dc 49bb
000002e0: a2a2 2ebc 33e4 82b8 6e42 0d3a fa1c 0a3a
000002f0: 4bca a2bd d080 d3ba 4062 27bf 027b 1dbb
00000300: 634b 86bc 601f 08bb 4fb6 9a38 9950 96bc
00000310: fef8 dd3a e359 243b 9d3b 423c dae4 13b9
00000320: bd4e 73ba 4878 07bb d89b 263b 4019 2c3a
00000330: 142b c3ba 422d 85bb 8744 693b 0ac3 8e3a
00000340: ce3a 063b 2b80 953b 5601 0c3a a07b aabc
00000350: 187a 153a a8b2 473b 6c1f e1ba 8f7c 2539
00000360: 7c85 8b3b 7a9c 7e3b 5a86 6839 f793 843a
00000370: d0c5 143b 8614 133b 22a2 8c3c cb69 05be
00000380: ad16 263c 8b0c 423a be16 243b cbf3 7c39
00000390: 6043 dcbb 3b9d 923b 0e33 093a e255 543b
000003a0: e4e9 20bb 9bbb 0a3e bba7 ee3e 7aec 84ba
000003b0: a66d 04bc 4c13 8c3a ce8a 8cbb 6e8c e53b
000003c0: 1abf bdbb f539 693a 2462 0e3b 0465 be3c
000003d0: 9b7f f3ba 1163 0eba 6513 95bb 61b7 fa3a
000003e0: 9cba 313b 06a5 b439 abbc b93b 519a 1eba
000003f0: d62b 813c 38bb f2be 2308 b7ba 35ed a5bc

dist.fc_mean.bias f4 [4]
-0.00050510914 2.0162717e-05 -0.00078605185 0.033328913
00000000: 4d69 04ba 1b23 a937 0c0f 4eba e683 083d

dist.fc_logstd.weight f4 [4, 128]
-0.7157653 -0.5423382 0.28743845 -0.024290962 1.6466515 -1.4983063 -1.1098204 -0.05521647
-0.3609634 0.16023315 -0.09301691 -1.4138334 -0.8325502 -0.9582989 3.2364433 4.7863603
-0.5525351 -0.34206894 -1.0826536 0.010688434 -1.7736326 -3.880127 0.050711628 -0.12635106
-0.63873744 -0.03995836 0.4111503 -2.773107 -1.5973182 -0.7993015 -0.8044433 -1.1433692
0.11642961 -0.68611073 -0.4906942 -1.03613 -0.49434114 -2.4499247 -0.29106876 1.5145762
-1.9194412 -0.8314251 -0.82926905 -2.1519265 -0.1409446 0.36254126 -0.25260496 -0.2427449
-0.9822456 3.6178145 -0.386804 -0.4407196 -2.100439 0.047961198 0.65806246 -0.6335553
-0.9181281 -2.0329924 -1.071909 -2.7575853 -1.2187079 0.46137804 -0.7573039 -0.19517091
-0.21255593 0.29524022 -2.1489408 -0.14457798 -1.2252749 -0.4466715 -0.063931376 -0.5587674
2.079065 -2.0242026 -0.242635 -2.7213066 0.16025552 1.1807116 -0.36749828 1.4311861
0.30955023 0.021464735 -2.7180974 0.40412354 -1.5512002 -0.3442051 -1.4179289 -4.572108
0.93626565 -1.1392951 -0.37593403 -2.9930449 0.64194584 -0.02027967 -0.5495627 -0.33405247
-0.039815787 -1.1279935 1.3267964 -1.4718214 -1.4588822 -1.2467268 -1.0227042 -0.5751064
0.78840166 0.376431 1.0296111 -1.8694878 0.16112737 -0.7429913 -0.06700846 -0.967403
-0.2624279 -0.7403043 0.10013238 0.5573579 -2.6719205 -0.68268317 2.3984156 0.007826728
-1.3190405 -0.26828656 2.824395 2.0826712 -0.013388016 -0.9411395 -0.48311788 -0.053745795
-0.47840428 -1.1243932 -0.2665791 -1.642083 -1.467326 -0.9272802 0.38553685 -0.18906786
-2.9050698 -2.3128767 0.23780654 -1.475743 -1.8019915 -0.3602894 -1.4808604 -1.2939808
1.8782786 -0.67629594 0.032549176 -0.014478509 -1.8143427 -0.9397869 -0.05272588 -1.0095052
-0.086004086 -0.617839 -2.3657873 0.44666424 -1.3144734 -0.006768695 -1.5999266 0.9646764
-1.6796225 -0.98393095 -0.3123131 -0.18433069 -3.519778 -0.92829984 -0.79056656 0.54044825
-1.09389 2.2393866 -1.5002981 0.37606263 0.8868062 -1.5309726 -0.17388877 -1.0780345
-0.7440728 -0.9216728 -0.24116528 -2.005183 -0.4444869 -0.43917927 -1.5013796 1.9402646
0.9849903 0.25409418 -0.57643324 0.32894033 0.19293524 -1.9142601 0.7966774 -0.92415607
-0.60625964 0.29011467 -1.900475 -0.08864023 0.01628897 0.044469308 -0.053338796 -0.29159436
-1.4704907 -1.8219916 -1.375101 -1.7101539 3.5690277 0.1101939 0.47562593 -1.4580271
-0.95715594 -0.19018394 -1.4675066 -0.78632206 1.1126109 -3.1948228 1.8452158 0.72942096
-2.536704 -5.0624394 -0.79931945 2.0580802 -1.5889314 0.41154006 -0.30925438 0.42369062
-0.017786589 -1.3151424 -0.54533607 -0.40911523 -0.11325886 4.876443 -1.1533386 2.5511987
1.3557361 -0.089432426 0.34533176 1.8519422 -1.2447578 0.5647412 0.03828257 1.4476445
-0.46318376 2.622451 -1.1090994 -1.3050685 2.3478346 2.672054 -1.7938851 -0.5538451
-1.3147246 -1.9945133 -1.6222694 -3.4615886 0.036919918 0.17424212 -2.983237 -0.1866523
00000000: 653c 37bf add6 0abf 222b 933e d7fd c6bc
00000010: 7ac5 d23f 80c8 bfbf 980e 8ebf aa2a 62bd
00000020: 32d0 b8be 2914 243e a67f bebd 7ef8 b4bf
00000030: 0322 55bf 1453 75bf e321 4f40 dd29 9940
00000040: f172 0dbf a923 afbe 6594 8abf 8b1e 2f3c
00000050: 6506 e3bf 0054 78c0 ffb6 4f3d 2c62 01be
00000060: 4c84 23bf 61ab 23bd 4b82 d23e 967a 31c0
00000070: ec74 ccbf 069f 4cbf ffef 4dbf ec59 92bf
00000080: a672 ee3d f4a4 2fbf 453c fbbe e89f 84bf
00000090: 481a fdbe 91cb 1cc0 f706 95be a2dd c13f
000000a0: 40b0 f5bf 46d8 54bf fa4a 54bf 2ab9 09c0
000000b0: c853 10be 029f b93e 7055 81be 1e92 78be
000000c0: 7374 7bbf 468a 6740 2d0b c6be 00a6 e1be
000000d0: 986d 06c0 f672 443d c876 283f ae30 22bf
000000e0: 710a 6bbf 8c1c 02c0 5034 89bf 477c 30c0
000000f0: 9ffe 9bbf be39 ec3e abde 41bf e2da 47be
00000100: 43a8 59be ba29 973e 3f88 09c0 400c 14be
00000110: cfd5 9cbf 20b2 e4be 74ee 82bd 610b 0fbf
00000120: 670f 0540 898c 01c0 4f75 78be e329 2ec0
00000130: 061a 243e 8f21 973f bc28 bcbe 1b31 b73f
00000140: 5e7d 9e3e d0d6 af3c 4ff5 2dc0 48e9 ce3e
00000150: ba8d c6bf a73b b0be b27e b5bf b54e 92c0
00000160: 1baf 6f3f 6cd4 91bf 6d7a c0be 0c8e 3fc0
00000170: 9056 243f 8d21 a6bc 24b0 0cbf ed08 abbe
00000180: e115 23bd 1762 90bf 77d4 a93f a564 bcbf
00000190: a7bc babf be94 9fbf f9e7 82bf 2c3a 13bf
000001a0: b1d4 493f 90bb c03e 4cca 833f 604b efbf
000001b0: 93fe 243e ae34 3ebf bb3b 89bd b9a7 77bf
000001c0: f35c 86be 9584 3dbf 3512 cd3d 02af 0e3f
000001d0: bf00 2bc0 53c4 2ebf a47f 1940 ad3b 003c
000001e0: 52d6 a8bf db5c 89be e3c2 3440 7c4a 0540
000001f0: 6959 5bbc 85ee 70bf 3a5b f7be 8d24 5cbd
00000200: 68f1 f4be 1eec 8fbf 0e7d 88be c72f d2bf
00000210: 57d1 bbbf 3c62 6dbf 1665 c53e 019b 41be
00000220: aaec 39c0 2c06 14c0 8f83 733e 26e5 bcbf
00000230: a8a7 e6bf da77 b8be d58c bdbf 2aa1 a5bf
00000240: 6f6b f03f bb21 2dbf 4952 053d 4537 6dbc
00000250: 623c e8bf e095 70bf 18f7 57bd 7737 81bf
00000260: e922 b0bd b22a 1ebf 0f69 17c0 2db1 e43e
00000270: aa40 a8bf eecb ddbb 65ca ccbf 08f5 763f
00000280: dffd d6bf e6e2 7bbf 81e7 9fbe 2fc1 3cbe
00000290: 0b44 61c0 0fa5 6dbf 9262 4abf d15a 0a3f
000002a0: 9604 8cbf 1c52 0f40 c509 c0bf 488b c03e
000002b0: bb05 633f e9f6 c3bf e60f 32be 09fd 89bf
000002c0: 8e7b 3ebf c0f2 6bbf 08f4 76be eb54 00c0
000002d0: c993 e3be 1bdc e0be 352d c0bf 975a f83f
000002e0: 5328 7c3f a218 823e 2191 13bf de6a a83e
000002f0: d190 453e 7a06 f5bf 0df3 4b3f 7e95 6cbf
00000300: d533 1bbf e989 943e c442 f3bf 0289 b5bd
00000310: 7270 853c 7325 363d c879 5abd db4b 95be
00000320: 0a39 bcbf 0537 e9bf 4f03 b0bf 53e6 dabf
00000330: f36a 6440 57ad e13d 3e85 f33e a2a0 babf
00000340: 2c08 75bf 94bf 42be 42d7 bbbf 674c 49bf
00000350: 096a 8e3f fa77 4cc0 0830 ec3f 55bb 3a3f
00000360: 5c59 22c0 81ff a1c0 33a0 4cbf 96b7 0340
00000370: 1b62 cbbf 61b5 d23e 9756 9ebe faed d83e
00000380: 2eb5 91bc 9656 a8bf 259b 0bbf 8d77 d1be
00000390: 43f4 e7bd d20b 9c40 99a0 93bf d746 2340
000003a0: c388 ad3f 5928 b7bd 53cf b03e 710c ed3f
000003b0: 3954 9fbf e192 103f 2fce 1c3d 6a4c b93f
000003c0: 6c26 edbe 3dd6 2740 f8f6 8dbf 7c0c a7bf
000003d0: ec42 1640 ef02 2b40 079e e5bf cbc8 0dbf
000003e0: e548 a8bf 364c ffbf 86a6 cfbf ab8a 5dc0
000003f0: 5739 173d 876c 323e 5bed 3ec0 c821 3fbe

dist.fc_logstd.bias f4 [4]
-0.47577283 -1.9923263 -1.2519773 -0.81397736
00000000: 7f98 f3be 8c04 ffbf cb40 a0bf d260 50bf

exp_avg f4 [128, 15]
-0.07796716 0.118403204 -0.10104189 0.043526463 0.07245701 0.21130568 -0.058368277 0.0055959155
-0.08233049 -0.20246755 -0.055369806 -0.04067726 0.0 0.0 -0.028229237 -0.053331714
0.07467651 -0.055278067 0.07213721 -0.05035192 -0.10807477 -0.0015037733 0.021815445 0.060395017
0.120227374 0.06479839 -0.102642186 0.0 0.0 0.082006305 -0.026024105 0.16413891
-0.14621565 0.041260116 0.1738727 0.22557773 -0.036200803 -0.0032890677 0.0014663056 -0.1957859
0.043324985 -0.2631818 0.0 0.0 -0.07551631 0.11040995 -0.20356852 0.062330972
-0.09311873 0.034435023 0.12590317 0.0061437255 0.0016472315 0.13623746 -0.1220897 -0.08149269
0.19484621 0.0 0.0 -0.41256708 -0.115140304 -0.32168725 0.28788492 0.000894581
-0.24398808 0.05662368 0.114540935 0.20939186 0.12216207 0.5543239 0.28177518 0.1946966
0.0 0.0 0.43810183 0.18443647 -0.31155077 0.05762432 0.006941892 -0.26380834
-0.09858351 -0.09574532 -0.06252219 0.028196141 0.06550937 -0.0045550535 0.12043711 0.0
0.0 -0.10733407 -0.08060511 -0.086751804 -0.28840095 -0.23722532 -0.05362796 0.2990375
0.11563568 0.22700933 -0.036671117 -0.098479316 -0.053552765 -0.1111708 0.0 0.0
-0.51271033 -0.02707201 -0.029744647 -0.10160594 0.03258427 -0.0039427206 -0.052341294 -0.037344284
-0.118324235 0.04707753 -0.0054885014 -0.11531787 0.2990239 0.0 0.0 -0.27412027
-0.017564548 0.024560474 -0.043085273 -0.11737153 0.076796375 -0.0033548134 -0.062410593 0.06247161
0.023322687 0.04365665 -0.11504616 0.14175367 0.0 0.0 -0.050000794 -0.021627221
-0.0705118 0.38387296 0.01907535 -0.097941786 -0.15423636 -0.033893976 -0.005485831 -0.04225984
0.10442917 0.087382786 -0.1727406 0.0 0.0 0.48674932 -0.12774554 -0.4252646
0.12578858 -0.11877371 -0.326688 -0.024520157 0.01849289 0.102126226 0.03429777 0.19218647
-0.032618318 0.34119445 0.0 0.0 0.028245678 0.062712565 -0.13403599 0.3546226
-0.026414912 -0.046578918 -0.104112886 0.03286494 -0.09767169 -0.070541665 0.03658486 -0.1035943
-0.103542775 0.0 0.0 0.39500734 -0.14817332 -0.06318298 0.278225 -0.07573147
-0.13450004 -0.060962852 0.07131934 0.41224027 0.08751169 0.32760924 0.42857933 -0.0076636155
0.0 0.0 0.8623888 -0.1608294 0.15237333 -0.29786676 -0.028110202 0.0029097064
0.04067786 0.023785304 -0.028774727 -0.075569615 -0.091516756 -0.06315073 -0.58106923 0.0
0.0 -0.33952078 -0.08170617 0.0861434 0.021264426 -0.006746105 0.048819486 0.029299358
0.004332673 0.16262698 -0.10428072 -0.05593166 0.16204722 -0.19828773 0.0 0.0
0.20235747 0.045090526 -0.07259929 -0.037527468 -0.039108854 -0.05153156 0.1359742 -0.037160747
0.027953664 -0.026620496 0.1415611 -0.055059675 0.056864742 0.0 0.0 -0.09252058
0.111156344 -0.0066660275 -0.04246842 0.075412035 -0.026748111 -0.018900167 -0.058511913 -0.14430167
0.16752397 -0.07378412 -0.04666307 0.26622373 0.0 0.0 -0.11168943 0.030413479
00000000: 3fad 9fbd 617d f23d 0def cebd ce48 323d
00000010: 5764 943d 8460 583e 9313 6fbd f15d b73b
00000020: e39c a8bd a753 4fbe 73cb 62bd 339d 26bd
00000030: 0000 0000 0000 0000 0041 e7bc 5b72 5abd
00000040: 00f0 983d 416b 62bd acbc 933d d13d 4ebd
00000050: 4e56 ddbd 421a c5ba 4eb6 b23c c460 773d
00000060: c539 f63d 05b5 843d 1136 d2bd 0000 0000
00000070: 0000 0000 ecf2 a73d 8130 d5bc 0814 283e
00000080: 8eb9 15be 5e00 293d af0b 323e d9fd 663e
00000090: 4b47 14bd 668d 57bb 0d31 c03a 197c 48be
000000a0: 8a75 313d c4bf 86be 0000 0000 0000 0000
000000b0: 4ca8 9abd 9d1e e23d 4474 50be c34e 7f3d
000000c0: 08b5 bebd bd0b 0d3d c3ec 003e 4e51 c93b
000000d0: ebe7 d73a d581 0b3e 2a0a fabd a4e5 a6bd
000000e0: c485 473e 0000 0000 0000 0000 fe3b d3be
000000f0: aece ebbd 31b4 a4be a765 933e 5182 6a3a
00000100: 03d8 79be 3bee 673d 7094 ea3d d26a 563e
00000110: 1b30 fa3d 2ce8 0d3f d644 903e 8c5e 473e
00000120: 0000 0000 0000 0000 e24e e03e eadc 3c3e
00000130: 9583 9fbe 7b07 6c3d d078 e33b e311 87be
00000140: 27e6 c9bd 1f16 c4bd a20b 80bd 98fb e63c
00000150: c729 863d 8f42 95bb bba7 f63d 0000 0000
00000160: 0000 0000 f7d1 dbbd 4b14 a5bd eeaa b1bd
00000170: 4aa9 93be 32eb 72be fea8 5bbd 711b 993e
00000180: 66d2 ec3d 2275 683e 7434 16bd 86af c9bd
00000190: 255a 5bbd 84ad e3bd 0000 0000 0000 0000
000001a0: fc40 03bf 1fc6 ddbc 0cab f3bc c616 d0bd
000001b0: 1577 053d f031 81bb d363 56bd 52f6 18bd
000001c0: fa53 f2bd 5ed4 403d e3d8 b3bb c72b ecbd
000001d0: a919 993e 0000 0000 0000 0000 7e59 8cbe
000001e0: 87e3 8fbc 0c33 c93c 2f7a 30bd 7c60 f0bd
000001f0: 6b47 9d3d 6edc 5bbb 40a2 7fbd 3be2 7f3d
00000200: 380f bf3c 51d1 323d 529d ebbd e027 113e
00000210: 0000 0000 0000 0000 a2cd 4cbd 922b b1bc
00000220: 7e68 90bd ff8a c43e e943 9c3c b495 c8bd
00000230: 23f0 1dbe 69d4 0abd 7cc2 b3bb a718 2dbd
00000240: f6de d53d bff5 b23d e9e2 30be 0000 0000
00000250: 0000 0000 3537 f93e bacf 02be 48bc d9be
00000260: b9ce 003e a23f f3bd a643 a7be 7fde c8bc
00000270: 677e 973c 8e27 d13d d27b 0c3d 88cc 443e
00000280: c99a 05bd 0ab1 ae3e 0000 0000 0000 0000
00000290: 7b63 e73c 726f 803d bb40 09be 1891 b53e
000002a0: 1664 d8bc 89c9 3ebd 2339 d5bd 639d 063d
000002b0: 1808 c8bd 2678 90bd 02da 153d 4029 d4bd
000002c0: 3c0e d4bd 0000 0000 0000 0000 673e ca3e
000002d0: bfba 17be 1466 81bd 8273 8e3e 1a19 9bbd
000002e0: 61ba 09be 2fb4 79bd e00f 923d 2811 d33e
000002f0: 5439 b33d 66bc a73e c06e db3e 111f fbbb
00000300: 0000 0000 0000 0000 83c5 5c3f 76b0 24be
00000310: c107 1c3e fe81 98be 5e47 e6bc c6b0 3e3b
00000320: d49d 263d 66d9 c23c fab8 ebbc 3ec4 9abd
00000330: 236d bbbd 2c55 81bd f4c0 14bf 0000 0000
00000340: 0000 0000 abd5 adbe 9155 a7bd f36b b03d
00000350: bc32 ae3c 6e0e ddbb f1f6 473d 3505 f03c
00000360: 18f9 8d3b b087 263e 2191 d5bd 9918 65bd
00000370: b5ef 253e f00b 4bbe 0000 0000 0000 0000
00000380: cc36 4f3e d8b0 383d f0ae 94bd 67b6 19bd
00000390: 9b30 20bd c212 53bd d23c 0b3e de35 18bd
000003a0: 15ff e43c 3a13 dabc 65f5 103e 4186 61bd
000003b0: 01eb 683d 0000 0000 0000 0000 6e7b bdbd
000003c0: f0a5 e33d b16e dabb 5ef3 2dbd a071 9a3d
000003d0: db1e dbbc 86d4 9abc 30aa 6fbd d1c3 13be
000003e0: 678b 2b3e 211c 97bd c621 3fbd 7a4e 883e
000003f0: 0000 0000 0000 0000 6ebd e4bd b025 f93c

exp_avg_sq f4 [128, 15]
0.3454225 0.25791642 0.9045528 0.1998248 0.27993432 0.5040943 0.19150746 0.43009815
0.8257321 0.7001889 0.42250684 1.4761751 0.0 0.0 1.7158846 8.861822
3.3690722 4.38739 0.6482862 16.09859 1.3838749 2.4582672 0.62882715 112.79868
2.9537685 7.0087643 10.397153 0.0 0.0 11.864241 0.8579285 0.68928075
3.0286322 0.46898547 0.8371131 2.499734 0.56272674 0.73392606 1.5562079 1.1294222
2.828167 2.2983353 0.0 0.0 2.643717 2.1395001 0.945197 9.371853
0.58634216 1.1717367 6.299169 0.96160555 1.2384562 7.653698 2.211343 13.231878
3.9642327 0.0 0.0 2.639715 0.85491437 0.5198082 4.1263375 1.080635
0.88848364 2.137035 0.8527045 1.3700553 1.1127223 1.3732246 1.4316623 6.8186603
0.0 0.0 7.707655 0.4200581 3.2332125 3.2982125 0.81187546 1.3105721
1.1922051 0.6805336 3.3676684 0.7676123 1.344766 1.226402 6.972255 0.0
0.0 4.9056754 1.3407327 1.4865936 12.056008 1.748222 1.1292716 5.4583173
0.98153836 2.609586 0.64115375 1.1649612 3.638787 4.7872596 0.0 0.0
17.630291 71.30102 25.51662 30.497408 3.9119194 130.80042 7.650597 18.010103
2.4051754 924.4074 22.13366 55.543064 61.592113 0.0 0.0 88.50859
0.48279387 0.52128243 1.1018898 0.33970043 0.49840474 0.6630413 0.6010144 0.72857887
0.61504734 1.1266626 0.6771658 1.391147 0.0 0.0 2.203843 0.17099714
0.3022043 2.8607314 0.19052538 0.25793546 1.0730944 0.2744355 0.35232055 0.4143349
0.60344696 0.35683557 1.8627567 0.0 0.0 4.874368 0.6184404 1.2318943
2.0445855 0.5492463 0.7804011 1.6794335 0.64327735 1.1845441 2.6104145 1.6712861
2.556636 2.0519967 0.0 0.0 2.295166 1.4063418 1.4270737 11.623619
0.6296598 0.7113781 6.152515 0.7865887 0.6753819 2.46806 0.6213449 6.7108927
8.503591 0.0 0.0 12.434568 0.25150913 0.2942294 1.5346633 0.34144706
0.30675614 0.47490892 0.1816282 0.7764989 0.7812977 0.7134734 0.4461427 2.6759932
0.0 0.0 2.9476876 1.0172378 1.7801591 33.72337 1.6128718 0.53314847
11.071883 0.6960955 2.2598777 2.1865795 1.7700105 4.775701 8.720123 0.0
0.0 54.13131 1.2197044 0.87463605 1.1133603 0.26439202 1.9916252 0.5500007
0.46236187 0.33195466 13.944475 0.86122864 1.2750238 2.0596201 0.0 0.0
2.0315545 1.1079359 2.2398946 2.394689 1.3732535 1.3212196 0.9458108 0.56109595
0.79531753 2.035196 3.1352098 0.88429666 4.264369 0.0 0.0 3.2988174
0.1332939 0.15661873 2.4526246 0.15868382 0.18319182 1.0675074 0.2107139 0.366123
0.76786876 0.5005312 0.30057913 2.3465834 0.0 0.0 4.3846216 3.334612
00000000: 38db b03e 9f0d 843e c690 673f df9e 4c3e
00000010: 8d53 8f3e 530c 013f 881a 443e d335 dc3e
00000020: 2e63 533f 943f 333f d152 d83e 4ef3 bc3f
00000030: 0000 0000 0000 0000 1ba2 db3f 06ca 0d41
00000040: e19e 5740 8065 8c40 16f6 253f eac9 8041
00000050: d022 b13f 4054 1d40 d1fa 203f ed98 e142
00000060: 8b0a 3d40 cc47 e040 bd5a 2641 0000 0000
00000070: 0000 0000 eed3 3d41 34a1 5b3f b474 303f
00000080: 1cd5 4140 dd1e f03e 0b4d 563f a4fb 1f40
00000090: dc0e 103f 94e2 3b3f d231 c73f e890 903f
000000a0: b000 3540 ed17 1340 0000 0000 0000 0000
000000b0: a932 2940 92ed 0840 6ef8 713f 1cf3 1541
000000c0: 851a 163f 78fb 953f cb92 c940 c82b 763f
000000d0: bc85 9e3f 18eb f440 a586 0d40 c6b5 5341
000000e0: fdb5 7d40 0000 0000 0000 0000 17f1 2840
000000f0: abdb 5a3f 2612 053f f50a 8440 3f52 8a3f
00000100: aa73 633f 2ec5 0840 d84a 5a3f f95d af3f
00000110: af6d 8e3f d3c5 af3f b640 b73f 7732 da40
00000120: 0000 0000 0000 0000 1ca5 f640 db11 d73e
00000130: f4ec 4e40 ea15 5340 12d7 4f3f d4c0 a73f
00000140: 2d9a 983f 7337 2e3f e187 5740 3d82 443f
00000150: 4b21 ac3f befa 9c3f b71c df40 0000 0000
00000160: 0000 0000 4bfb 9c40 219d ab3f b348 be3f
00000170: 69e5 4041 bdc5 df3f f98b 903f 89aa ae40
00000180: 1946 7b3f 7503 2740 a722 243f 731d 953f
00000190: e3e1 6840 3b31 9940 0000 0000 0000 0000
000001a0: d60a 8d41 1f9a 8e42 0a22 cc41 b1fa f341
000001b0: e35c 7a40 e8cc 0243 b1d1 f440 b114 9041
000001c0: 65ee 1940 131a 6744 bc11 b141 192c 5e42
000001d0: 535e 7642 0000 0000 0000 0000 6604 b142
000001e0: c230 f73e c472 053f ba0a 8d3f 37ed ad3e
000001f0: e82e ff3e 13bd 293f 14dc 193f 2584 3a3f
00000200: be73 1d3f 7b36 903f bd5a 2d3f 1b11 b23f
00000210: 0000 0000 0000 0000 c40b 0d40 e019 2f3e
00000220: 86ba 9a3e 3916 3740 1619 433e 1e10 843e
00000230: 285b 893f cf82 8c3e 5c63 b43e b423 d43e
00000240: 807b 1a3f 27b3 b63e d06e ee3f 0000 0000
00000250: 0000 0000 d3fa 9b40 1c52 1e3f b6ae 9d3f
00000260: 7dda 0240 689b 0c3f 5ec8 473f adf7 d63f
00000270: d3ad 243f 249f 973f 0811 2740 b4ec d53f
00000280: ed9f 2340 ea53 0340 0000 0000 0000 0000
00000290: 00e4 1240 0203 b43f 5aaa b63f 58fa 3941
000002a0: 6231 213f e01c 363f 67e1 c440 e15d 493f
000002b0: d4e5 2c3f b2f4 1d40 7610 1f3f a2bf d640
000002c0: b50e 0841 0000 0000 0000 0000 fef3 4641
000002d0: cec5 803e 3ca5 963e d96f c43f 26d2 ae3e
000002e0: 240f 9d3e 4327 f33e befc 393e a2c8 463f
000002f0: 2003 483f 31a6 363f d16c e43e 7943 2b40
00000300: 0000 0000 0000 0000 eaa6 3c40 d934 823f
00000310: 41dc e33f bbe4 0642 9572 ce3f 6b7c 083f
00000320: 6f26 3141 5133 323f d6a1 1040 ebf0 0b40
00000330: b48f e23f 8bd2 9840 a085 0b41 0000 0000
00000340: 0000 0000 7686 5842 461f 9c3f 26e8 5f3f
00000350: 9782 8e3f 645e 873e 93ed fe3f d9cc 0c3f
00000360: b2ba ec3e f6f5 a93e 921c 5f41 7b79 5c3f
00000370: fb33 a33f d1d0 0340 0000 0000 0000 0000
00000380: fd04 0240 d8d0 8d3f 6f5a 0f40 9642 1940
00000390: c5c6 af3f b91d a93f a820 723f fca3 0f3f
000003a0: ee99 4b3f a740 0240 47a7 4840 4461 623f
000003b0: b675 8840 0000 0000 0000 0000 d31f 5340
000003c0: 327e 083e a960 203e cdf7 1c40 037e 223e
000003d0: a396 3b3e 15a4 883f 62c5 573e 7974 bb3e
000003e0: 0c93 443f d022 003f 82e5 993e 6c2e 1640
000003f0: 0000 0000 0000 0000 d24e 8c40 486a 5540

exp_avg f4 [128]
0.022538813 -0.06547556 0.060293805 0.32940224 -0.34978968 0.08569779 0.40935868 0.2188634
0.039921697 -0.38863084 -0.022551987 -0.3153822 -0.68854934 0.27108052 -0.16156644 0.07387036
0.08917521 0.08892476 0.124613345 0.25813237 0.28310937 -0.23094988 -0.026313867 0.00175432
-0.54506254 -0.11037683 0.047250174 -0.24806373 0.0512553 -0.144259 0.1762657 0.19775736
0.023944736 0.03308701 -0.12979431 0.1381381 -0.4159247 -0.02722588 0.23074195 -0.072168574
-0.101409815 0.23527704 0.007046503 0.07220924 0.51053727 -0.019082403 -0.07148652 -0.29540077
-0.27455506 -0.04094525 -0.1172963 -0.42114466 -0.13764213 -0.23140085 -0.3497528 -0.57896775
-0.13079998 0.019490926 -0.2970095 -0.01850657 -0.049761392 0.19754745 0.12646754 -0.05555873
-0.13737532 -0.24357927 0.2505089 -0.7759609 0.11123302 0.12881152 -0.17186058 0.32137698
0.27442703 -0.4690839 0.11104309 0.09602354 -0.031238662 0.38875443 -0.06047621 -0.23472221
0.28896075 -0.13556258 -0.58781135 -0.30723062 -0.1236559 -0.05449289 -0.17220263 -0.097693585
0.3221486 -0.33109453 0.16098082 0.20774485 0.0012889315 0.36911324 0.13902321 0.2322822
-0.36738047 0.8915604 0.30889696 -0.093113914 0.08607085 0.29284438 -0.030909613 -0.015126524
0.06064225 -0.24539118 0.078537576 0.14427803 0.23632298 -0.15340143 0.21257883 0.068541564
-0.11500323 0.15136132 -0.23634982 0.23069151 -0.20472041 0.6563706 0.19551234 0.40838546
-0.14071901 -0.013139218 0.023844741 -0.18790382 0.15575744 0.28579044 0.090986095 0.13541268
00000000: 51a3 b83c 0d18 86bd a3f6 763d 69a7 a83e
00000010: a217 b3be 5382 af3d 7697 d13e ba1d 603e
00000020: ef84 233d 9ffa c6be f2be b8bc c779 a1be
00000030: c544 30bf 11cb 8a3e ac71 25be 5849 973d
00000040: 7ea1 b63d 2f1e b63d 4835 ff3d ed29 843e
00000050: b6f3 903e 207e 6cbe 2e90 d7bc 36f1 e53a
00000060: 3889 0bbf 3f0d e2bd 6689 413d 6b04 7ebe
00000070: 14f1 513d a2b8 13be ff7e 343e e880 4a3e
00000080: c027 c43c 3f86 073d cde8 04be 1374 0d3e
00000090: 15f4 d4be cf08 dfbc 9e47 6c3e 1ecd 93bd
000000a0: f3af cfbd 77ec 703e 5ae6 e63b 70e2 933d
000000b0: 92b2 023f b352 9cbc 8667 92bd c53e 97be
000000c0: 7b92 8cbe 35b6 27bd 0b39 f0bd 46a0 d7be
000000d0: 0ff2 0cbe 58f4 6cbe cd12 b3be 3b37 14bf
000000e0: 6ef0 05be 6fab 9f3c a111 98be 179b 97bc
000000f0: 9ad2 4bbd e149 4a3e b580 013e 8d91 63bd
00000100: 1eac 0cbe d86c 79be b442 803e 60a5 46bf
00000110: 23ce e33d 2be7 033e 38fc 2fbe 868b a43e
00000120: b381 8c3e c42b f0be 8f6a e33d fda7 c43d
00000130: 39e8 ffbc d20a c73e e7b5 77bd 055b 70be
00000140: aaf2 933e ebd0 0abe ce7a 16bf 554d 9dbe
00000150: 4e3f fdbd f033 5fbd e355 30be 9313 c8bd
00000160: a9f0 a43e 3985 a9be 28d8 243e 11bb 543e
00000170: 5df1 a83a 69fc bc3e 1a5c 0e3e 63db 6d3e
00000180: 4b19 bcbe 4d3d 643f be27 9e3e 82b2 bebd
00000190: ea45 b03d b3ef 953e 2836 fdbc 3dd5 77bc
000001a0: 0264 783d d347 7bbe 4fd8 a03d 9fbd 133e
000001b0: a7fe 713e 4415 1dbe 44ae 593e 855f 8c3d
000001c0: d086 ebbd 76fe 1a3e b005 72be 653a 6c3e
000001d0: 3aa2 51be e707 283f 6334 483e e617 d13e
000001e0: a518 10be e045 57bc 0c56 c33c dc69 40be
000001f0: e17e 1f3e 2053 923e eb56 ba3d 9fa9 0a3e

exp_avg_sq f4 [128]
1.0938357 7.5631714 1.6853038 1.6827568 4.9134455 3.1272492 11.238881 56.422256
1.4048984 3.107288 1.4631116 7.926728 1.8790778 34.507385 1.2950643 2.1029136
2.7950904 5.1070104 55.110764 1.8311989 77.237114 9.780124 1.1379944 0.6193148
1.4639869 29.394716 5.4238 0.5695665 0.7781578 14.245736 13.876115 1.2619519
11.050716 6.5055 3.6100466 4.032288 17.209211 1.3774228 4.5089884 5.185732
3.9791682 0.6821709 1.8045683 3.2332275 34.999058 17.97307 16.902634 1.7378151
147.64081 3.333555 1.9732984 14.804305 1.2227135 11.769224 26.912277 47.8185
6.4438257 20.180775 7.698532 2.5870337 1.469634 2.0902653 22.443487 7.4575057
18.148342 2.1794314 12.370975 51.847675 2.5530503 1.8758105 5.152669 3.498082
59.09546 15.447259 0.99717647 1.8445306 1.4580449 3.984022 2.1280951 2.4377847
0.5905417 25.724133 5.1555915 8.943852 4.673466 4.176428 1.7237684 5.2972155
3.9209805 2.936725 0.6819777 3.274945 0.82636327 2.3544867 1.5511643 13.05157
14.26569 11.357747 6.8622117 11.306255 1.6146331 9.194878 2.90322 2.156242
1.3872324 22.981812 0.5572033 1.3822402 6.8015056 3.3206162 0.9188387 0.93784034
2.1351705 9.206309 5.853338 5.1465797 2.6711125 3.9862552 1.8309568 2.6174698
0.8565521 0.26045665 0.07451543 5.4382334 49.73188 6.486937 1.6470866 1.962003
00000000: cf02 8c3f 8005 f240 09b8 d73f 9364 d73f
00000010: f23a 9d40 da24 4840 75d2 3341 64b0 6142
00000020: b6d3 b33f cedd 4640 3e47 bb3f c1a7 fd40
00000030: 9f85 f03f 9007 0a42 abc4 a53f 2396 0640
00000040: c3e2 3240 a16c a340 6c71 5c42 ba64 ea3f
00000050: 6779 9a42 637b 1c41 cda9 913f 6a8b 1e3f
00000060: ec63 bb3f 6128 eb41 c58f ad40 1ccf 113f
00000070: 5935 473f 89ee 6341 9104 5e41 a487 a13f
00000080: bccf 3041 0e2d d040 010b 6740 8108 8140
00000090: 77ac 8941 644f b03f a249 9040 84f1 a540
000000a0: b1aa 7e40 c1a2 2e3f 18fc e63f 33ed 4e40
000000b0: 09ff 0b42 d9c8 8f41 9838 8741 ba70 de3f
000000c0: 0ca4 1343 f758 5540 0b95 fc3f 6fde 6c41
000000d0: e081 9c3f be4e 3c41 584c d741 2546 3f42
000000e0: d233 ce40 3a72 a141 605a f640 f691 2540
000000f0: f81c bc3f e8c6 0540 438c b341 e3a3 ee40
00000100: ce2f 9141 ce7b 0b40 83ef 4541 0564 4f42
00000110: 2d65 2340 8f1a f03f aae2 a440 93e0 5f40
00000120: c061 6c42 f927 7741 f546 7f3f 9419 ec3f
00000130: 37a1 ba3f 37fa 7e40 b632 0840 aa04 1c40
00000140: be2d 173f 06cb cd41 9bfa a440 051a 0f41
00000150: 098d 9540 4ca5 8540 71a4 dc3f ca82 a940
00000160: 58f1 7a40 4df3 3b40 1796 2e3f b398 5140
00000170: 8b8c 533f e9af 1640 8d8c c63f 3bd3 5041
00000180: 4440 6441 55b9 3541 3d97 db40 6ce6 3441
00000190: 4cac ce3f 381e 1341 5bce 3940 deff 0940
000001a0: d590 b13f c0da b741 e0a4 0e3f 3fed b03f
000001b0: efa5 d940 fa84 5440 0339 6b3f 4e16 703f
000001c0: a2a6 0840 0b4d 1341 8b4e bb40 c8b0 a440
000001d0: 82f3 2a40 ce1e 7f40 cb5c ea3f a084 2740
000001e0: 0047 5b3f 935a 853e 8c9b 983d 0206 ae40
000001f0: 72ed 4642 fd94 cf40 bcd3 d23f ea22 fb3f
