ppo/models/behavioral_cloning_agents_drone/bc2/ckpts/002116950.pt (torch_old, 372340 bytes, 26 tensors)

fc1.weight f4 [128, 15]
0.08006396 -0.0075684804 -0.10500718 -0.078024246 -0.059592467 -0.029341182 -0.081809066 0.11042924
-0.02275426 2.9482764e-05 0.064803906 -0.017671268 -0.24666992 -0.17100051 0.044707257 -0.0855383
0.24617943 0.4599529 -0.34615746 -0.14110334 0.19911301 -0.35436264 -0.10371108 0.094325006
0.10239415 -0.16742726 -0.023092944 -0.23952346 -0.162546 0.0059505804 0.28442264 0.115835294
-0.10444406 -0.48282868 -0.05324542 -0.89784986 0.16046628 0.011109968 -0.017778449 -0.0025039553
0.02532415 0.13384368 0.04368329 -0.24107894 -0.03625499 -0.29395205 -0.031800088 0.15562478
-0.14889795 0.015253222 -0.14209694 0.24337399 0.24569587 0.15319638 -0.40063438 -0.424543
0.00053600466 -0.20018302 -0.17895406 0.15751535 0.09856467 0.052448858 -0.16501038 0.04187182
0.13463977 -0.017706629 0.010329144 0.099253066 0.12090915 0.24468216 -0.14188561 -0.07522967
0.10147473 0.21393052 0.28488472 -0.07727012 -0.21758603 -0.28457206 -0.02502313 -0.24147063
-0.50716484 0.6947596 0.0072621377 -0.1550785 -0.42802587 0.09207935 0.056590863 -0.118192315
0.09929198 0.011936674 -0.037306085 -0.3418683 0.30358994 -0.2482954 -0.0068544773 -0.34279695
-0.02821493 0.1424669 -0.14099745 -0.8530957 0.4281588 0.17520876 -0.11258121 -0.064984724
-0.1180097 -0.1622977 -0.5179861 -0.33105597 -0.54042524 -0.24977934 -0.79243904 0.7413983
-0.033231117 -0.10471384 0.8452928 -0.3187002 0.19806391 0.011650622 0.037671506 0.20096779
0.07156724 0.022325383 -0.049656495 -0.00919646 -0.16361897 -0.13225389 -0.02340774 0.0045365524
-0.061223954 -0.24821769 0.07968899 0.0052306484 -0.16820773 -0.013250604 0.30979288 0.06621772
0.117005415 0.17147875 0.07340569 0.57705796 0.009003489 -0.17698537 0.6224393 -0.06986655
-1.4111215 0.2751418 0.3280443 -0.001673758 -0.12833682 -0.17327118 -0.45661613 -0.23998296
-0.008362983 -0.060110014 0.28594065 -0.3914708 0.39149922 -0.22825752 0.2138671 -0.43181166
-0.2612705 0.26750177 -0.23169476 -0.2229387 0.3023744 0.17741849 0.057998843 -0.12224576
-0.20888257 0.055933695 0.32478935 -0.61499375 0.42900214 0.04791982 -0.5225884 0.5342219
-0.10621326 -0.11526175 0.2064696 0.06354817 -0.02385452 -0.08291746 0.11508559 -0.09038058
0.0707506 -0.32168454 -0.18700922 -0.08326402 0.0060677286 0.27576017 0.46734136 0.039321292
-0.1821279 0.011515647 0.11028484 -0.123377554 -0.021081625 0.1740398 -0.35843837 0.19734068
0.11481172 0.060166348 -0.4186923 0.03691276 -0.7362165 1.2382648 0.08718588 0.21778783
0.09336665 0.092644684 0.014979861 -0.3298818 0.1104132 -0.5064545 -0.14939313 -0.5385613
-0.31758484 0.48733655 0.015203587 -0.27196482 0.01858664 0.24625294 0.09327102 0.0073103905
0.016142106 -0.2784544 -0.68067497 -0.0046453695 -0.5190674 -0.17257623 -0.44246134 0.39112294
0.45462194 0.49081567 0.017234402 -0.5754924 0.33117992 -0.18251978 -0.10943118 0.13332027
0.2670873 -0.25932303 -0.08509366 -0.2609838 0.2121314 -0.38984326 0.8572376 -0.08480131
-0.073549084 -0.3455621 -0.454112 0.2649038 0.2135095 -0.07547657 0.08550344 0.67094046
00000000: 93f8 a33d 0401 f8bb 010e d7bd 2dcb 9fbd
00000010: 3b17 74bd eb5c f0bc 838b a7bd ba28 e23d
00000020: 2467 babc c151 f737 e9b7 843d 56c3 90bc
00000030: 0a97 7cbe c21a 2fbe f51e 373d b42e afbd
00000040: 7616 7c3e f27e eb3e 8d3b b1be 657d 10be
00000050: 48e4 4b3e 056f b5be 7a66 d4bd 782d c13d
00000060: 06b4 d13d 0d72 2bbe 6a2d bdbc a345 75be
00000070: 7572 26be 16fd c23b d89f 913e 0e3b ed3d
00000080: c4e6 d5bd 5235 f7be df17 5abd 7dd9 65bf
00000090: 4651 243e 9506 363c 1ca4 91bc 6619 24bb
000000a0: 9874 cf3c 510e 093e 40ed 323d 66dd 76be
000000b0: 1d80 14bd e280 96be cf40 02bd 1a5c 1f3e
000000c0: b478 18be a6e8 793c dc81 11be 0837 793e
000000d0: b397 7b3e 83df 1c3e f31f cdbe b35d d9be
000000e0: aa82 0c3a c7fc 4cbe bc3f 37be b44b 213e
000000f0: 46dc c93d 9dd4 563d 7bf8 28be c981 2b3d
00000100: 02df 093e 7e0d 91bc 923b 293c 3145 cb3d
00000110: 379f f73d f68d 7a3e 764a 11be 0312 9abd
00000120: fcd1 cf3d 9a10 5b3e 69dc 913e cc3f 9ebd
00000130: dfce 5ebe 6eb3 91be 4ffd ccbc 1444 77be
00000140: 8ed5 01bf c4db 313f 3af7 ed3b e6cc 1ebe
00000150: 3526 dbbe 1994 bc3d d2cb 673d d00e f2bd
00000160: 9859 cb3d 0a92 433c 44ce 18bd 5d09 afbe
00000170: 2470 9b3e 2641 7ebe 869b e0bb 1583 afbe
00000180: ff22 e7bc d8e2 113e a361 10be 7b64 5abf
00000190: a137 db3e ed69 333e fa90 e6bd b616 85bd
000001a0: 12af f1bd 5e31 26be bd9a 04bf 2b80 a9be
000001b0: 4f59 0abf 28c6 7fbe 49dd 4abf 47cc 3d3f
000001c0: 5a1d 08bd 3674 d6bd 1c65 583f ac2c a3be
000001d0: 44d1 4a3e 40e2 3e3c 704d 1a3d 80ca 4d3e
000001e0: d891 923d b9e3 b63c 9c64 4bbd c0ac 16bc
000001f0: bb8b 27be 906d 07be 97c1 bfbc 5ca7 943b
00000200: f8c5 7abd c72c 7ebe fb33 a33d dc65 ab3b
00000210: a63e 2cbe 1019 59bc 2c9d 9e3e 289d 873d
00000220: 89a0 ef3d 2098 2f3e b955 963d 12ba 133f
00000230: 5f83 133c a73b 35be 2f58 1f3f 3216 8fbd
00000240: a19f b4bf 63df 8c3e 6cf5 a73e 0062 dbba
00000250: ba6a 03be 006e 31be 97c9 e9be 18be 75be
00000260: e504 09bc eb35 76bd d066 923e dc6e c8be
00000270: 9672 c83e 57bc 69be faff 5a3e 6b16 ddbe
00000280: 3fc5 85be fef5 883e 6441 6dbe 0b4a 64be
00000290: d1d0 9a3e 31ad 353e 3290 6d3d fc5b fabd
000002a0: 50e5 55be bb1a 653d ca4a a63e 3b70 1dbf
000002b0: 2ba6 db3e 9347 443d 5ac8 05bf c4c2 083f
000002c0: 5686 d9bd 5a0e ecbd c46c 533e 8b25 823d
000002d0: 8e6a c3bc a1d0 a9bd feb1 eb3d 7419 b9bd
000002e0: b1e5 903d d6b3 a4be 587f 3fbe 5486 aabd
000002f0: ccd3 c63b 7030 8d3e 5e47 ef3e 5d0f 213d
00000300: bc7f 3abe 20ac 3c3c 05dd e13d 5fad fcbd
00000310: 5fb3 acbc 7d37 323e 3c85 b7be ad13 4a3e
00000320: 6822 eb3d fd70 763d d65e d6be d631 173d
00000330: af78 3cbf 767f 9e3f 838e b23d c603 5f3e
00000340: 0437 bf3d 7fbc bd3d 176e 753c 44e6 a8be
00000350: 5120 e23d 01a7 01bf 83fa 18be 27df 09bf
00000360: 7b9a a2be 2d84 f93e 7718 793c f93e 8bbe
00000370: 0243 983c bb29 7c3e e004 bf3d 008c ef3b
00000380: 733c 843c 9391 8ebe b740 2ebf 2f38 98bb
00000390: 9ae1 04bf d3b7 30be 4b8a e2be 4441 c83e
000003a0: 35c4 e83e 314c fb3e 292f 8d3c 7853 13bf
000003b0: 6a90 a93e 77e6 3abe 741d e0bd 1c85 083e
000003c0: abbf 883e fdc5 84be 9645 aebd ab9f 85be
000003d0: f938 593e 8999 c7be ec73 5b3f 4fac adbd
000003e0: e7a0 96bd 84ed b0be 5e81 e8be 79a1 873e
000003f0: 3ca2 5a3e 7693 9abd 6d1c af3d c1c2 2b3f

fc1.bias f4 [128]
-0.2303642 -0.21660905 -0.17051768 -0.08897231 -0.037997622 0.014531057 -0.12986758 -0.060510688
-0.115982376 -0.017580545 -0.5884764 -0.49792215 -0.27083135 0.06784136 -0.0664541 -0.04617484
-0.1299575 0.116280004 -0.4236835 -0.13620298 -0.12718059 -0.10324813 -0.4641318 -0.32241434
-0.2920121 -0.13008864 -0.032448407 0.17950936 -0.0019660287 -0.34961632 -0.24085696 -0.15122402
-0.0990267 -0.28971776 -0.26638567 -0.4936703 0.047006287 -0.01630761 -0.13951123 0.0050320392
-0.12995394 -0.14210057 -0.37256566 0.28824833 -0.24382679 -0.27570906 -0.22515617 -0.38795772
-0.28101802 -0.3286249 -0.34065703 -0.17884324 -0.077057354 -0.38402206 -0.25522268 -0.2771982
0.034222763 -0.18050134 -0.2010283 -0.30886686 -0.28413203 -0.3831946 -0.12070435 -0.09196606
-0.13437554 -0.20655748 -0.033359677 -0.29359093 -0.09826612 -0.00085353234 -0.46075562 -0.46142986
-0.16656114 -0.15083803 -0.298095 -0.056661885 -0.11184389 -0.18143779 -0.4298045 -0.065569274
0.01537555 -0.2876928 -0.25065985 -0.02987103 0.18770358 -0.25149956 -0.12260344 -0.057852954
-0.37272027 0.12917304 -0.3164291 0.043856353 -0.3176519 -0.16299252 -0.085957326 -0.049678635
-0.14846295 0.010121392 -0.4436115 -0.39823747 -0.50288945 -0.24778245 -0.052927356 -0.13257256
-0.0874352 -0.11115869 -0.02643365 -0.251726 -0.30737332 0.105887994 -0.21367446 0.021814369
-0.24674207 -0.11441939 -0.17486447 -0.13597056 -0.10789662 -0.29814893 0.079175346 -0.25498736
-0.3284788 -0.10620198 -0.014813064 0.15140332 -0.11875219 -0.21773489 0.02164174 -0.1896476
00000000: 98e4 6bbe c3ce 5dbe 309c 2ebe 1d37 b6bd
00000010: 65a3 1bbd ac13 6e3c 02fc 04be 0eda 77bd
00000020: 2b88 edbd 1305 90bc 64a6 16bf a7ef febe
00000030: 68aa 8abe 69f0 8a3d 1619 88bd d421 3dbd
00000040: 9413 05be 3624 ee3d 0bed d8be cb78 0bbe
00000050: a13b 02be c173 d3bd afa2 edbe 7e13 a5be
00000060: 9c82 95be f535 05be 9fe8 04bd 4dd1 373e
00000070: 7dd8 00bb e900 b3be 35a3 76be 78da 1abe
00000080: 83ce cabd e355 94be b463 88be 5bc2 fcbe
00000090: aa89 403d 8997 85bc 08dc 0ebe cee3 a43b
000000a0: a512 05be d082 11be edc0 bebe 4995 933e
000000b0: bbad 79be bd29 8dbe 578f 66be 65a2 c6be
000000c0: 98e1 8fbe 8641 a8be 996a aebe af22 37be
000000d0: 3fd0 9dbd 8a9e c4be 8cac 82be ecec 8dbe
000000e0: 2b2d 0c3d 58d5 38be 5dda 4dbe cc23 9ebe
000000f0: c179 91be 1532 c4be d833 f7bd b458 bcbd
00000100: be99 09be ce83 53be 28a4 08bd 8d51 96be
00000110: bf3f c9bd 96bf 5fba 29e8 ebbe 8940 ecbe
00000120: 018f 2abe 4975 1abe e89f 98be 4b16 68bd
00000130: 690e e5bd d4ca 39be 560f dcbe 2f49 86bd
00000140: bbe9 7b3c 784c 93be 7d56 80be 17b4 f4bc
00000150: 5e35 403e 8dc4 80be 8317 fbbd 38f7 6cbd
00000160: 31d5 bebe f045 043e ff02 a2be b8a2 333d
00000170: 45a3 a2be 83e7 26be 650a b0bd d37b 4bbd
00000180: ac06 18be 32d4 253c 0c21 e3be c8e5 cbbe
00000190: 5dbd 00bf afba 7dbe 5bca 58bd 1ac1 07be
000001a0: 3a11 b3bd 2ba7 e3bd 628b d8bc 3be2 80be
000001b0: 0960 9dbe cedb d83d 7acd 5abe 0cb4 b23c
000001c0: f4a9 7cbe b754 eabd ac0f 33be de3b 0bbe
000001d0: e7f8 dcbd faa6 98be af26 a23d b48d 82be
000001e0: 602e a8be 6c80 d9bd 7eb2 72bc 7909 1b3e
000001f0: 5934 f3bd e5f5 5ebe 054a b13c fb32 42be

fc2.weight f4 [128, 128]
-0.04046148 -0.18957916 0.27985767 -0.15412788 0.00996429 0.044516735 -0.8076746 -1.7783424
0.045613002 0.62362796 -0.7112839 -2.2480812 0.14863876 0.5335773 -0.494119 -0.55198425
-4.896468 0.94462293 -1.3384982 0.8480535 0.2140011 0.18154395 -1.8547542 -1.2831013
-2.4329932 -1.8639773 0.06738474 -0.53200734 0.06854814 -0.06297578 -1.3821287 0.2688174
-2.163055 -2.2036743 -0.14814094 -0.00074356253 -1.4175352 0.04988684 -3.044907 -0.40207294
-0.22949831 -0.9815941 -0.32831103 -0.03859625 0.99116266 -0.6409328 -1.1373599 -0.46721223
-2.122721 0.15878265 -1.5730145 -0.3211954 -0.078023374 -1.4181368 0.12826586 -0.0011073874
-1.9306973 -0.2819224 -2.4565258 -0.3750165 -0.37922004 -0.8076723 -0.26638988 -0.34429106
0.5407853 0.07196013 0.012746054 -1.604935 -1.7177866 -0.3688426 0.040327787 -1.8904452
-0.43239424 -0.29951525 -1.3272234 0.17820495 -3.571651 0.02975142 0.07367064 0.023594998
-0.56361943 0.67795414 -0.81747985 0.054703202 0.25932598 -1.2731985 -0.25818482 0.043569077
-3.2046916 -2.3084857 0.41849524 -1.7545383 -0.2953997 0.55013216 0.18374911 -0.06350408
-1.0257659 -0.5694214 -0.371311 -0.032200016 -0.12742025 -0.1101574 -0.6311373 0.26312047
-0.084239274 -0.26361132 0.056901928 0.35517442 -1.9474746 -0.9982764 -0.013866437 -1.3300917
-0.9373128 -3.915154 -0.97070813 -1.4597924 -0.6042396 0.0038992933 1.0148443 -0.9143796
-0.92366636 0.04903168 -0.0019820998 -0.24345256 -1.204204 0.046140615 -0.029170854 0.04194738
0.05511867 -0.11285445 -0.048365783 -0.023504987 -7.308128e-05 -0.029560564 0.06293241 -0.18592197
-0.05237076 -0.021651413 0.018077612 0.0036116804 0.022257017 0.04685111 -0.024704892 -0.08215919
-0.06512071 -0.17909367 -0.0669924 -0.11268237 -0.072795466 -0.18339397 -0.032185577 -0.09972472
-0.0058703437 -0.038907867 0.04849129 -0.023833213 -0.12008332 0.08533665 -0.05381258 -0.0026237534
-0.053646684 -0.0997691 0.0020769914 -0.048979998 0.039273445 -0.08262765 0.031164283 0.06682398
0.05823426 -0.05274409 -0.061801475 -0.19018473 0.00832819 0.0037502777 -0.106403194 -0.1287299
-0.009218436 -0.12699439 0.05249948 -0.09505072 0.09137362 -0.054230206 -0.057678826 -0.07537121
-0.008235176 -0.005810744 -0.25237063 -0.00041153716 0.024240421 -0.07672194 -0.013988204 -0.01633617
-0.01703092 -0.14621165 -0.058988743 -0.10484507 -0.019977143 0.051355112 -0.049627855 -0.04285776
0.057189897 -0.061725013 -0.06332162 0.03809991 0.028355664 -0.007920211 -0.029939208 -0.017972007
-0.0124120945 -0.040517654 -0.02783501 0.008233897 -0.060153995 0.012466638 -0.02947224 -0.0026447482
0.028548896 -0.16448042 -0.023188256 0.054130737 0.02306753 -0.06449317 0.013418071 0.024889685
-0.06811892 -0.06207358 0.056173358 0.016366072 -0.028459206 -0.06905588 0.015625425 -0.03219122
0.010495526 -0.015850632 -0.08741066 -0.07694924 0.13237204 -0.13130996 -0.09471803 -0.11667969
-0.09101406 -0.026105555 -0.008974779 -0.007847912 0.12018452 0.024792237 -0.031074246 -0.047930546
-0.006936581 0.012842688 0.043817922 -0.10593584 -0.06375735 -0.100160085 -0.038009487 0.02362536
00000000: f0ba 25bd 0a21 42be 8149 8f3e b3d3 1dbe
00000010: 4341 233c 2e57 363d c3c3 4ebf b9a0 e3bf
00000020: b3d4 3a3d 15a6 1f3f b416 36bf 90e0 0fc0
00000030: c234 183e 8698 083f 2afd fcbe d74e 0dbf
00000040: deaf 9cc0 cfd2 713f e953 abbf 091a 593f
00000050: 1b23 5b3e a8e6 393e 9668 edbf aa3c a4bf
00000060: 29b6 1bc0 cf96 eebf 0301 8a3d a231 08bf
00000070: f862 8c3d 72f9 80bd 98e9 b0bf 6fa2 893e
00000080: 7e6f 0ac0 0009 0dc0 42b2 17be a3eb 42ba
00000090: cb71 b5bf 2556 4c3d c2df 42c0 81dc cdbe
000000a0: 9b01 6bbe c049 7bbf 6218 a8be 1a17 1ebd
000000b0: d6bc 7d3f 2c14 24bf 0295 91bf 7136 efbe
000000c0: a9da 07c0 eb97 223e 8a58 c9bf b973 a4be
000000d0: b8ca 9fbd 8285 b5bf 2058 033e c125 91ba
000000e0: 1721 f7bf 2258 90be b837 1dc0 2a02 c0be
000000f0: 2129 c2be 9dc3 4ebf 4164 88be eb46 b0be
00000100: e870 0a3f d55f 933d d3d4 503c 836e cdbf
00000110: 6ee0 dbbf f0d8 bcbe c02e 253d 1cfa f1bf
00000120: c762 ddbe 105a 99be 75e2 a9bf 5c7b 363e
00000130: ee95 64c0 40b9 f33c a2e0 963d 4c4a c13c
00000140: 5d49 10bf 678e 2d3f 5c46 51bf 7710 603d
00000150: 60c6 843e 2bf8 a2bf cd30 84be 7d75 323d
00000160: ab19 4dc0 3bbe 13c0 0245 d63e b694 e0bf
00000170: a13e 97be 76d5 0c3f ba28 3c3e 6d0e 82bd
00000180: 4c4c 83bf 9ac5 11bf 7a1c bebe 2ae4 03bd
00000190: 747a 02be 349a e1bd 3792 21bf bab7 863e
000001a0: a485 acbd 10f8 86be ff11 693d 6cd9 b53e
000001b0: d946 f9bf 0b8f 7fbf 0d30 63bc 7240 aabf
000001c0: bbf3 6fbf e291 7ac0 5480 78bf 7ada babf
000001d0: 72af 1abf 498b 7f3b 6be6 813f c814 6abf
000001e0: 6675 6cbf 71d5 483d 1ee6 01bb a14b 79be
000001f0: 5b23 9abf f1fd 3c3d b7f7 eebc 04d1 2b3d
00000200: 1dc4 613d 3c20 e7bd 331b 46bd 888d c0bc
00000210: 3743 99b8 ff28 f2bc b5e2 803d 5462 3ebe
00000220: b982 56bd 4e5e b1bc 8017 943c f1b1 6c3b
00000230: 5954 b63c f3e6 3f3d ea61 cabc 1443 a8bd
00000240: 025e 85bd 5564 37be 5033 89bd 04c6 e6bd
00000250: ca15 95bd a1cb 3bbe 06d5 03bd 793c ccbd
00000260: 035c c0bb db5d 1fbd ce9e 463d df3d c3bc
00000270: 3eee f5bd fbc4 ae3d 946a 5cbd 47f3 2bbb
00000280: a0bc 5bbd be53 ccbd 221e 083b 409f 48bd
00000290: 31dd 203d af38 a9bd 3d4c ff3c 03db 883d
000002a0: 0c87 6e3d 300a 58bd 8b23 7dbd c9bf 42be
000002b0: f672 083c 38c7 753b ebe9 d9bd c5d1 03be
000002c0: ec08 17bc d10a 02be b209 573d f4a9 c2bd
000002d0: 1822 bb3d 7e20 5ebd a240 6cbd 395c 9abd
000002e0: d5ec 06bc 0e68 bebb b936 81be 95c3 d7b9
000002f0: d993 c63c 6420 9dbd c82e 65bc 6ed3 85bc
00000300: 6e84 8bbc 82b8 15be 2e9e 71bd 03b9 d6bd
00000310: 1ba7 a3bc bd59 523d 9446 4bbd 9e8b 2fbd
00000320: f43f 6a3d 5ed3 7cbd c4ae 81bd a70e 1c3d
00000330: 234a e83c c6c3 01bc 1243 f5bc 083a 93bc
00000340: 195c 4bbc d7f5 25bd 3f06 e4bc 78e7 063c
00000350: 0964 76bd df40 4c3c c46f f1bc 8353 2dbb
00000360: 60df e93c 8e6d 28be 4cf5 bdbc 31b8 5d3d
00000370: 1ef8 bc3c ff14 84bd 78d7 5b3c 74e5 cb3c
00000380: ef81 8bbd de40 7ebd 0916 663d 2412 863c
00000390: 4823 e9bc 2b6d 8dbd e400 803c f1da 03bd
000003a0: 6df5 2b3c 2fd9 81bc 5c04 b3bd 9097 9dbd
000003b0: 898c 073e 1e76 06be 87fb c1bd c3f5 eebd
000003c0: 9465 babd 51db d5bc f40a 13bc 8794 00bc
000003d0: 4d23 f63d 1719 cb3c 6b8f febc d252 44bd
000003e0: 424c e3bb 236a 523c 6c7a 333d e4f4 d8bd
000003f0: 3793 82bd bb20 cdbd d6af 1bbd f989 c13c

fc2.bias f4 [128]
0.38796267 -0.16050336 -0.07059644 -0.22325337 0.0043646116 0.046121646 -0.031489063 -0.033301175
-0.06646268 -0.046414196 0.7990658 -0.041655272 -0.08302412 -0.12756066 -0.10649411 -0.08592012
-0.21321933 -0.010553665 0.055383302 0.008381576 -0.05519721 0.2480506 -0.14884171 -0.059959892
-0.01687509 -0.127814 -0.053774856 -0.08318914 -0.11290418 -0.007706257 -0.033157114 -0.09919635
0.07896798 -0.10379727 0.054369405 -0.063434236 -0.07318598 -0.050736256 0.05861706 -0.07788702
0.026229229 -0.12115181 -0.13502723 -0.11177828 -0.2298232 0.0012475841 -0.05789926 -0.07573997
0.400908 -0.074742615 0.10314358 -0.054417316 0.28644675 0.12064999 -0.1787847 -0.06768872
-0.12491193 0.004230694 -0.11367808 -0.034937438 -0.08666461 -0.015145681 0.20377673 -0.06893952
-0.054653265 -0.133541 -0.08839082 -0.057940654 -0.08445821 0.11276117 -0.11452333 -0.06437156
-0.06631529 -0.036092233 -0.11040221 -0.005116933 -0.1430829 -0.11454289 0.08901319 0.011440557
-0.071442805 -0.2772896 -0.087287724 -0.04843392 0.047156353 -0.11780531 -0.108267166 -0.08457118
-0.035946418 -0.10124974 -0.11655589 0.0033910668 -0.13217029 -0.118318915 -0.035915006 -0.02342999
0.18113087 -0.38304403 0.108954936 -0.098219156 0.16608693 -0.11552636 -0.1045766 0.005330987
-0.011042955 0.22075166 -0.04015813 -0.052558113 -0.17499018 0.28721446 -0.16987455 -0.037709888
0.2506005 0.06634605 -0.0049548037 -0.07420735 -0.06936714 -0.09629257 -0.049643613 -0.13147071
-0.07316411 -0.08409992 -0.029069763 -0.04228978 0.27184632 -0.09826272 -0.1748681 -0.07420934
00000000: 0ba3 c63e fe5a 24be de94 90bd 889c 64be
00000010: 0405 8f3b 0dea 3c3d adfa 00bd d066 08bd
00000020: 961d 88bd d01c 3ebd 948f 4c3f b89e 2abd
00000030: 8d08 aabd 439f 02be 9519 dabd e3f6 afbd
00000040: 2b56 5abe 48e9 2cbc 9ad9 623d e152 093c
00000050: 7816 62bd fa00 7e3e f669 18be 8198 75bd
00000060: a13d 8abc ace1 02be 0643 5cbd 115f aabd
00000070: 4f3a e7bd c584 fcbb c1cf 07bd 7527 cbbd
00000080: f7b9 a13d aa93 d4bd 74b2 5e3d cfe9 81bd
00000090: 88e2 95bd d2d0 4fbd 7118 703d 3b83 9fbd
000000a0: aede d63c 711e f8bd 9444 0abe 03ec e4bd
000000b0: c656 6bbe fa85 a33a c627 6dbd 8f1d 9bbd
000000c0: d043 cd3e a812 99bd f13c d33d b1e4 5ebd
000000d0: 26a9 923e 5817 f73d 5613 37be 62a0 8abd
000000e0: d3d1 ffbd a2a1 8a3b 0ed0 e8bd 8f1a 0fbd
000000f0: 377d b1bd 9725 78bc d9aa 503e 2a30 8dbd
00000100: 1adc 5fbd f9be 08be 3f06 b5bd 2e53 6dbd
00000110: 6df8 acbd 54ef e63d 358b eabd 3dd5 83bd
00000120: 50d0 87bd 73d5 13bd 8e1a e2bd f2ab a7bb
00000130: 5384 12be 7695 eabd 8c4c b63d 2d71 3b3c
00000140: 9b50 92bd e7f8 8dbe e8c3 b2bd a562 46bd
00000150: 0527 413d e943 f1bd 2dbb ddbd a833 adbd
00000160: 8d3c 13bd 065c cfbd dbb4 eebd a93c 5e3b
00000170: a657 07be 3051 f2bd 9d1b 13bd 40f0 bfbc
00000180: 5f7a 393e 591e c4be c423 df3d 2027 c9bd
00000190: b112 2a3e 1699 ecbd 422c d6bd 8faf ae3b
000001a0: 83ed 34bc b90c 623e da7c 24bd 2d47 57bd
000001b0: a030 33be c60d 933e 98f3 2dbe af75 1abd
000001c0: b54e 803e 70e0 873d e85b a2bb 06fa 97bd
000001d0: 5c10 8ebd 0a35 c5bd 1a57 4bbd 42a0 06be
000001e0: 11d7 95bd 943c acbd b623 eebc 0c38 2dbd
000001f0: 712f 8b3e f73d c9bd a010 33be 11fb 97bd

dist.fc_mean.weight f4 [4, 128]
0.006785954 0.056323737 0.008920631 0.0062845163 -0.0070138355 0.0028755378 -0.07634853 0.18048741
-0.0022108608 -0.0045808298 -0.0100969905 0.011852437 0.10986054 0.42009655 0.045798708 0.045310646
-0.038382836 -0.8058194 -0.002696686 2.1459875 -0.067965515 0.00053754915 0.00063680875 -0.1121801
0.02060523 -0.052862246 -3.1137462 0.18631606 -0.044230167 0.12731132 -0.20901231 0.22300962
-0.021068674 -0.04411887 -0.07200978 0.16349055 -0.062771626 -0.019011373 0.031320687 -0.13819928
-0.029950356 0.015056912 -0.12431811 2.6534245 0.014564739 -0.42633522 -0.39651054 0.13533919
0.0148706045 -0.03561465 0.0055744625 0.21823159 -0.0071006506 0.027870046 -0.050183233 -0.07273465
0.15085906 -0.100013755 -0.030983504 0.18900327 0.09887423 0.01782284 0.003346236 0.18519476
0.06353819 0.076507 0.12243481 0.2340565 0.21387692 -0.020158572 -0.056725807 0.09995351
-0.018226536 -0.029615523 0.17131342 -0.001373456 -0.16246343 0.327581 0.021007735 0.30534726
-0.09463884 -0.012928649 0.14063743 0.08864244 0.06945103 0.15120755 0.07175725 -0.087111495
0.07273134 1.097331 -0.020061897 1.246193 -0.049841207 -0.15030965 -0.1925618 0.04419512
-0.016639616 -0.0039221337 0.01658347 -0.0069928174 -0.015285947 0.075712204 -0.07949742 -1.6026226
0.018743401 0.0010569306 -0.0068318117 0.07079493 -0.017614445 0.0063049155 -5.2773166 -0.19176935
0.009815887 0.02078555 -0.4842754 0.13333437 0.1533094 -0.045032173 0.101597674 0.17887957
-0.020878008 -0.048630457 -0.0054648896 0.052428763 -0.026719902 -0.21530886 0.05545561 0.07483715
0.0007107746 0.03576295 -0.16156445 -0.00558892 0.0016889357 0.0012586287 -0.018774087 0.012092839
0.0005500353 0.027067332 0.000103962084 -0.008765832 -0.0013192935 0.0009595552 -0.010369221 0.0118285455
-0.016024651 0.0032715658 0.00020636388 0.0007412462 0.07519235 -9.526234e-06 0.003826236 -0.006600498
-0.0052322242 0.064587414 0.020973252 0.018745512 0.0075424444 -0.0008887607 0.004113668 -0.00028102472
-0.0020991159 0.025984574 -0.0025983183 -0.0005584708 0.01330947 -0.021153633 0.0017643131 0.0037639244
0.00017474461 -0.031862043 -0.020546215 -0.0084096 0.012718746 0.017012713 -0.00051354314 0.008454672
6.4004016e-05 -0.023095045 -0.0006098527 -0.0058002085 -0.0002884053 -0.0013429902 0.011357007 0.01135876
-0.0054293405 0.00030821149 -0.013976811 0.0055702836 -0.015868261 -0.0077060424 -3.1963787e-05 0.011031798
0.018724615 0.013487221 -0.010402275 -0.032635152 -0.0138703 -0.00031763103 0.00449204 -0.0050256415
-0.00077188946 -0.007524938 -0.015302514 -0.0031862387 0.015372099 0.00015466035 0.0011773164 -0.0016562875
-0.011931748 0.0037023807 -0.014026871 -0.0032155467 -0.004778173 -0.015017049 -5.6439225e-05 -0.006478134
0.009068431 -0.00015759525 0.18381085 -0.0041529248 -0.07886948 -0.009613701 -0.005263182 -0.0022464884
0.0001739677 -0.0016107289 -0.0005101137 -0.00048751256 -0.0007718314 0.06352919 0.0020419846 -8.5005624e-05
0.0047102836 0.00013228413 -0.0030081272 -0.021365039 -0.0007314988 -0.00022921182 0.005002372 0.0011518227
1.8386903e-05 -0.0011171778 0.010201843 0.00022055922 0.02356629 -0.059783082 0.0067128027 -0.008460955
-0.01628445 -0.0007517278 -0.00083754305 -0.0060124476 0.00021507122 -0.0037383393 0.0034614096 0.011961981
00000000: b55c de3b b8b3 663d d727 123c 58ee cd3b
00000010: 51d4 e5bb 8573 3c3b 9e5c 9cbd b1d1 383e
00000020: 17e4 10bb c91a 96bb d96d 25bc b930 423c
00000030: 90fe e03d e516 d73e 6d97 3b3d a897 393d
00000040: 5237 1dbd 2e4a 4ebf e2ba 30bb dc57 0940
00000050: 8131 8bbd 50ea 0c3a 83ef 263a aebe e5bd
00000060: 4dcc a83c 1586 58bd 9e47 47c0 a3c9 3e3e
00000070: b12a 35bd e65d 023e 5307 56be a25c 643e
00000080: 3698 acbc fdb5 34bd dd79 93bd 116a 273e
00000090: 698e 80bd bdbd 9bbc 1f4a 003d 1d84 0dbe
000000a0: 735a f5bc 44b1 763c 7e9a febd b5d1 2940
000000b0: f1a0 6e3c 9c48 dabe 6e03 cbbe 5b96 0a3e
000000c0: d6a3 733c abe0 11bd fba9 b63b 1a78 5f3e
000000d0: 93ac e8bb b94f e43c ef8c 4dbd e7f5 94bd
000000e0: cc7a 1a3e 03d4 ccbd 1ed1 fdbc 138a 413e
000000f0: 937e ca3d 3401 923c 864c 5b3b b2a3 3d3e
00000100: 5020 823d b4af 9c3d 1abf fa3d 82ac 6f3e
00000110: 8d02 5b3e 9723 a5bc 5259 68bd 6db4 cc3d
00000120: d14f 95bc 419c f2bc c96c 2f3e 8905 b4ba
00000130: d05c 26be b2b8 a73e 6a18 ac3c 7a56 9c3e
00000140: 02d2 c1bd afd2 53bc 4203 103e 2b8a b53d
00000150: 573c 8e3d 27d6 1a3e 77f5 923d 8367 b2bd
00000160: 2bf4 943d 5875 8c3f d958 a4bc 4183 9f3f
00000170: 4b26 4cbd c6ea 19be ec2e 45be f105 353d
00000180: ce4f 88bc 3e85 80bb 0fda 873c 0124 e5bb
00000190: e971 7abc 000f 9b3d 8bcf a2bd bd22 cdbf
000001a0: c38b 993c b588 8a3a 64dd dfbb effc 903d
000001b0: 2b4c 90bc 7799 ce3b c7df a8c0 2f5f 44be
000001c0: d0d2 203c 7546 aa3c f2f2 f7be ce88 083e
000001d0: 24fd 1c3e a873 38bd 7112 d03d 352c 373e
000001e0: 5b08 abbc bb30 47bd d112 b3bb 8bbf 563d
000001f0: b2e3 dabc ed79 5cbe 6c25 633d 3844 993d
00000200: 4753 3a3a 2c7c 123d 2771 25be 4223 b7bb
00000210: 475f dd3a 92f8 a43a 1dcc 99bc 0b21 463c
00000220: 3f30 103a 4fbc dd3c 3806 da38 909e 0fbc
00000230: 25ec acba a98a 7b3a aae3 29bc 84cc 413c
00000240: 2146 83bc c467 563b 6263 5839 3150 423a
00000250: 72fe 993d ddd2 1fb7 96c1 7a3b fe48 d8bb
00000260: 1473 abbb 6846 843d 19d0 ab3c 3090 993c
00000270: 9c26 f73b b9fb 68ba f3cb 863b 8056 93b9
00000280: 5291 09bb 9add d43c 8c48 2abb 5766 12ba
00000290: f70f 5a3c 624a adbc 8640 e73a 2cac 763b
000002a0: a63b 3739 c681 02bd 8950 a8bc 6bc8 09bc
000002b0: 4a62 503c 3f5e 8b3c 4c9f 06ba 7785 0a3c
000002c0: e539 8638 d231 bdbc 86de 1fba ad0f bebb
000002d0: 1b35 97b9 4607 b0ba bd12 3a3c 181a 3a3c
000002e0: 9ce8 b1bb 7297 a139 fffe 64bc ed86 b63b
000002f0: 28fe 81bc f882 fcbb db10 06b8 b7be 343c
00000300: 5d64 993c 81f9 5c3c 4e6e 2abc 70ac 05bd
00000310: 4140 63bc b787 a6b9 f631 933b 23ae a4bb
00000320: a058 4aba c193 f6bb 65b7 7abc 37d0 50bb
00000330: 42db 7b3c 522c 2239 2f50 9a3a c917 d9ba
00000340: 617d 43bc a4a3 723b f6d0 65bc ecbb 52bb
00000350: 3892 9cbb 120a 76bc 28b9 6cb8 8746 d4bb
00000360: c293 143c 2740 25b9 e938 3c3e 4215 88bb
00000370: 5286 a1bd c982 1dbc c576 acbb d239 13bb
00000380: 196b 3639 181f d3ba 27b9 05ba d498 ffb9
00000390: ba54 4aba 981b 823d d1d2 053b 0c45 b2b8
000003a0: b958 9a3b c0b5 0a39 0024 45bb bc05 afbc
000003b0: 0ec2 3fba 9458 70b9 f0ea a33b c2f8 963a
000003c0: 933d 9a37 446e 92ba a225 273c ea45 6739
000003d0: 180e c13c 1bdf 74bd 12f7 db3b d19f 0abc
000003e0: f866 85bc 990f 45ba 908e 5bba 1104 c5bb
000003f0: be84 6139 edfe 74bb d1d8 623b 2ffc 433c

dist.fc_mean.bias f4 [4]
0.0053951875 -0.00018192579 0.00072316686 -0.03988125
00000000: 1dca b03b 55c3 3eb9 e892 3d3a 865a 23bd

dist.fc_logstd.weight f4 [4, 128]
-0.63234484 -0.5198133 -0.03605105 -1.7860374 -2.9504607 -4.0904255 -0.33501518 0.044543184
0.048178602 -0.06498343 -0.40890715 0.4070545 -0.19663204 0.88149697 -0.17250729 -0.11055508
-1.7333848 -3.3266935 -5.086005 0.61586833 -0.0026690543 0.74928004 -0.054442078 -0.41467077
0.35626462 -0.0138826985 1.8480995 -0.7936209 -0.0059004654 -0.19619559 -1.4092287 -1.7070712
-1.6940296 0.48161593 0.42838278 -0.34067813 -0.085676014 -0.35809827 4.859559 -0.17349516
-2.3186452 -0.3001003 -0.8330766 -0.41744646 2.1536095 -0.029182432 4.9247108 -0.09078946
-0.5840762 -0.14687112 -4.885464 0.13224585 -0.6508871 0.09171352 -0.8481412 0.20658635
0.052633204 1.3097991 0.75164044 0.010141192 0.063849755 -0.037992418 -0.66663545 0.13092789
-0.11945661 -0.039762177 0.48009378 -0.32291764 -0.96198887 0.6881655 0.03289799 -0.18921986
-1.9064133 -0.59017396 0.01873647 -2.6367428 -1.3258367 0.14114104 -6.133245 0.59258056
-0.0046038465 -1.3728988 -0.08877329 -0.9611142 1.0405279 -0.00539716 0.04872193 0.003386434
0.00911161 -1.5918403 -0.015557043 2.308559 -0.06745078 -0.10940932 0.53321666 -0.18367091
1.0121951 -4.3912377 -3.070697 1.9922329 -0.8759805 0.019417716 -0.35945243 2.0948794
-0.12093654 -0.97926337 -0.822658 -0.5785297 -1.7614464 0.57773477 0.97777873 -0.34368843
0.9102792 -3.020936 -0.19977428 -0.50179946 0.39850694 0.017925357 0.15237062 0.09630933
-0.06788218 -0.71516615 -0.3806545 -0.3034046 -0.28491488 0.17277366 -4.2844276 -0.5737817
0.715532 -0.41380757 -0.035921726 -2.111335 -0.23882467 -1.2986497 -0.681268 -0.8096224
-0.095811754 -0.3877064 -2.2945287 -1.8249671 -0.40121377 -0.8436627 -0.08013092 -0.6304672
-1.7418582 -0.5766548 -0.9579961 -1.36098 -0.060960192 -2.1377363 -0.08421482 -0.1465061
-0.2349511 -0.045693174 -0.5283644 -0.35285112 -0.0036250034 -0.7215441 -0.3325611 -1.372236
-2.1785874 -0.18455309 -0.6205432 -0.5356412 -0.14732906 -0.28232846 -0.7339288 -0.21077171
-0.90982085 -0.17935029 0.09737711 -1.7135686 -0.94557554 -0.1577526 -1.0308578 -0.27793798
-1.769683 -0.18223 -0.85229135 -0.73115766 -0.9245901 0.13219245 -0.40379232 -0.14187849
0.04071033 -0.6981958 -0.11079739 -0.78869444 -0.12220631 -0.9835906 2.6003504 -0.78231937
-0.67864543 -0.1797464 -0.5888256 -0.52833295 -1.6315031 -2.4085605 0.023017738 -0.2914203
-1.2887361 -0.49592483 -0.044179026 0.38715982 -0.010061452 0.084188595 -0.43597803 -1.0379571
-0.12309837 0.15509929 -0.036166847 -1.8699543 -1.0947415 -0.027191592 -0.84499955 -0.33986124
-0.22172894 -0.9921199 -0.04117685 -1.1017966 -0.15412992 -0.07907795 -1.6283444 -0.33731735
-1.1383742 0.98349696 -1.2064185 -2.3975642 4.046792 -0.040111925 0.08534264 -1.2098808
-0.30836266 -1.515775 -0.36299026 -0.25698334 0.20341463 -1.2724378 -1.0947379 -1.0657244
-1.8139594 -0.8570829 -0.9971416 -0.4210372 -1.2362877 -0.052671317 -0.3095697 -0.07008456
-0.13195547 -0.5707183 -0.28968337 -0.7843751 -1.4069633 -0.0010570778 0.119410485 -0.16086134
00000000: 5ae1 21bf 7c12 05bf 44aa 13bd e09c e4bf
00000010: 59d4 3cc0 c4e4 82c0 1c87 abbe ea72 363d
00000020: ed56 453d 0816 85bd 475c d1be 7369 d03e
00000030: e959 49be c9a9 613f c0a5 30be b46a e2bd
00000040: 8edf ddbf 8ce8 54c0 8ec0 a2c0 8ca9 1d3f
00000050: 4deb 2ebb d1d0 3f3f a8fe 5ebd ba4f d4be
00000060: 5168 b63e 4274 63bc 868e ec3f bd2a 4bbf
00000070: b158 c1bb 7fe7 48be 9b61 b4bf 4f81 dabf
00000080: f6d5 d8bf 5d96 f63e fd54 db3e 5d6d aebe
00000090: e876 afbd a858 b7be 8281 9b40 b7a8 31be
000000a0: af64 14c0 bfa6 99be 8244 55bf 8bbb d5be
000000b0: bdd4 0940 ff0f efbc 3b97 9d40 d3ef b9bd
000000c0: 0586 15bf 6265 16be b955 9cc0 756b 073e
000000d0: 89a0 26bf 4cd4 bb3d c81f 59bf 5f8b 533e
000000e0: ea95 573d 7fa7 a73f 826b 403f 3e27 263c
000000f0: a9c3 823d f09d 1bbd 9fa8 2abf f611 063e
00000100: aba5 f4bd aadd 22bd dace f53e 7655 a5be
00000110: e744 76bf 9d2b 303f 0bc0 063d dac2 41be
00000120: 5a05 f4bf a415 17bf 3a7d 993c 65c0 28c0
00000130: 04b5 a9bf 4787 103e 8b43 c4c0 5cb3 173f
00000140: dddb 96bb 26bb afbf c5ce b5bd 950b 76bf
00000150: 0530 853f a9da b0bb a590 473d efee 5d3b
00000160: dd48 153c 6cc1 cbbf f8e2 7ebc 6ebf 1340
00000170: a223 8abd fe11 e0bd e380 083f 3a14 3cbe
00000180: 9c8f 813f 0585 8cc0 4d86 44c0 7d01 ff3f
00000190: 4240 60bf e711 9f3c 260a b8be 8112 0640
000001a0: 94ad f7bd 01b1 7abf b799 52bf 861a 14bf
000001b0: 1377 e1bf 6de6 133f b54f 7a3f eef7 afbe
000001c0: 0f08 693f 0457 41c0 a191 4cbe ee75 00bf
000001d0: 1a09 cc3e 33d8 923c 0b07 1c3e d33d c53d
000001e0: d005 8bbd 2115 37bf 26e5 c2be d957 9bbe
000001f0: 5de0 91be 94eb 303e 081a 89c0 5ce3 12bf
00000200: 1b2d 373f 96de d3be a922 13bd 1d20 07c0
00000210: 748e 74be 273a a6bf 9467 2ebf 6a43 4fbf
00000220: f438 c4bd 7481 c6be 8fd9 12c0 8698 e9bf
00000230: e46b cdbe 47fa 57bf ae1b a4bd 4c66 21bf
00000240: 36f5 debf a69f 13bf 3b3f 75bf 9834 aebf
00000250: 65b1 79bd acd0 08c0 d278 acbd b205 16be
00000260: 0597 70be c428 3bbd e442 07bf e7a8 b4be
00000270: 7791 6dbb 1db7 38bf 7345 aabe 6ea5 afbf
00000280: fa6d 0bc0 7cfb 3cbe ebdb 1ebf c81f 09bf
00000290: 6edd 16be 5b8d 90be c2e2 3bbf 8ad4 57be
000002a0: 05ea 68bf 9aa7 37be a66d c73d 3756 dbbf
000002b0: 3d11 72bf e689 21be 26f3 83bf e34d 8ebe
000002c0: f984 e2bf 809a 3abe c42f 5abf 262d 3bbf
000002d0: f0b1 6cbf 755d 073e debd cebe 9848 11be
000002e0: e0bf 263d f6bc 32bf bee9 e2bd e1e7 49bf
000002f0: 4d47 fabd 98cc 7bbf 246c 2640 1546 48bf
00000300: b5bb 2dbf 710f 38be 46bd 16bf d440 07bf
00000310: 18d5 d0bf db25 1ac0 b28f bc3c 0b35 95be
00000320: 4ef5 a4bf dce9 fdbe 11f5 34bd d039 c63e
00000330: cad8 24bc 126b ac3d 8338 dfbe c7db 84bf
00000340: 001b fcbd 59d2 1e3e b023 14bd aa5a efbf
00000350: 7d20 8cbf e7c0 debc e451 58bf 4b02 aebe
00000360: e90c 63be 92fb 7dbf 0fa9 28bd ac07 8dbf
00000370: 3cd4 1dbe 9ff3 a1bd 976d d0bf dcb4 acbe
00000380: 3fb6 91bf 75c6 7b3f ec6b 9abf b171 19c0
00000390: 527f 8140 674c 24bd 1fc8 ae3d 60dd 9abf
000003a0: b6e1 9dbe ea04 c2bf dcd9 b9be 5293 83be
000003b0: ed4b 503e 3edf a2bf 5f20 8cbf a869 88bf
000003c0: d22f e8bf c969 5bbf ac44 7fbf 3092 d7be
000003d0: ad3e 9ebf e1bd 57bd eb7f 9ebe 7e88 8fbd
000003e0: 561f 07be 981a 12bf 6151 94be cecc 48bf
000003f0: 6017 b4bf a58d 8aba 7c8d f43d d6b8 24be

dist.fc_logstd.bias f4 [4]
-0.49840084 -2.3475635 -1.3502387 -0.58482754
00000000: 652e ffbe 7b3e 16c0 9fd4 acbf 42b7 15bf

exp_avg f4 [128, 15]
-6e-45 6e-45 6e-45 -6e-45 6e-45 6e-45 6e-45 6e-45
6e-45 -6e-45 6e-45 6e-45 0.0 0.0 -6e-45 -0.4170218
1.2023753 1.0863838 2.4196813 -0.83207685 -0.8496179 -0.8773886 -2.2349942 0.56956494
0.52589583 -0.93437344 0.53571737 0.0 0.0 -1.3397305 -0.033336222 -0.019655144
-0.054605413 -0.047927685 0.049529742 0.058208227 0.005508405 0.05786308 0.124681905 -0.019430043
-0.024400836 0.22045702 0.0 0.0 0.11894741 0.018139794 0.019078014 0.058844183
0.0060047703 -0.0019359381 -0.019549325 0.0095011685 -0.025091946 0.064288855 -0.0063971905 -0.034930304
0.012026873 0.0 0.0 -0.07653446 6e-45 6e-45 -6e-45 6e-45
6e-45 6e-45 6e-45 -6e-45 -6e-45 -6e-45 -6e-45 -6e-45
0.0 0.0 -6e-45 0.0041144253 0.011467337 0.06604697 -0.024511619 0.022851666
0.046837986 0.0099363625 0.14162509 0.11075292 -0.020183725 0.047216512 0.4491654 0.0
0.0 0.5144368 0.055293564 0.18502916 -1.2643048 -0.40789154 -0.09330646 0.20305231
-0.033154674 0.7949682 0.56557393 0.012539614 0.25622237 0.23891093 0.0 0.0
0.96514845 -0.02528101 0.016571071 -0.114329815 -0.08945793 0.0161359 -0.08318877 0.017662887
0.0048039756 -0.039004005 0.014415432 -0.10255659 0.19892804 0.0 0.0 -0.5840838
-6e-45 6e-45 -6e-45 6e-45 -6e-45 6e-45 6e-45 6e-45
-6e-45 -6e-45 6e-45 6e-45 0.0 0.0 -6e-45 -0.007640852
0.021133127 -0.3083813 -0.034634188 0.046478193 0.14224182 0.03517148 0.023408359 -0.30915117
-0.002852643 -0.01974012 -0.17608541 0.0 0.0 -0.92981434 0.016482204 0.029690215
-0.059563927 -0.20404683 0.05555849 0.091651246 0.05643481 0.24146762 -0.02440624 -0.01264707
0.08132066 0.01750154 0.0 0.0 0.052355662 0.009561113 0.020648021 0.020126484
-0.0058316034 -0.015110332 -0.06144307 -0.011218643 -0.016705567 0.08478974 0.017320167 -0.023742106
0.019382803 0.0 0.0 0.042635143 -6e-45 6e-45 6e-45 -6e-45
6e-45 6e-45 6e-45 6e-45 -6e-45 6e-45 6e-45 6e-45
0.0 0.0 -6e-45 0.02843801 -0.045709085 0.08336473 0.24444172 0.011381764
0.027501222 -0.02513653 -0.22823732 0.22624153 -0.04648223 -0.0951855 -0.13868892 0.0
0.0 0.717831 0.00643549 -0.009067329 -0.021729417 -0.038062934 -0.0021339052 -0.01946615
0.0017443129 -0.002282223 -0.032894522 0.00431726 -0.055608768 0.07266412 0.0 0.0
-0.23541273 -0.07654291 -0.010247154 -0.10465444 -0.14852446 0.07379427 0.022902597 0.026490195
0.06869072 0.040333785 0.016110161 -0.067536004 0.2521857 0.0 0.0 -0.7852879
-0.03816572 -0.21151885 1.1028093 0.48767498 0.035257176 -0.17598042 0.022746684 -0.7250899
-0.24309254 -0.00076108275 -0.19141993 -0.15789954 0.0 0.0 -0.13133107 -0.050039075
00000000: 0400 0080 0400 0000 0400 0000 0400 0080
00000010: 0400 0000 0400 0000 0400 0000 0400 0000
00000020: 0400 0000 0400 0080 0400 0000 0400 0000
00000030: 0000 0000 0000 0000 0400 0080 e283 d5be
00000040: 6fe7 993f a00e 8b3f 0fdc 1a40 fd02 55bf
00000050: 8f80 59bf 8a9c 60bf 250a 0fc0 02cf 113f
00000060: 1ca1 063f 1933 6fbf c624 093f 0000 0000
00000070: 0000 0000 4a7c abbf 908b 08bd d303 a1bc
00000080: eda9 5fbd d24f 44bd b3df 4a3d c06b 6e3d
00000090: da7f b43b d601 6d3d 3a59 ff3d c12b 9fbc
000000a0: 43e4 c7bc 7cbf 613e 0000 0000 0000 0000
000000b0: b39a f33d e899 943c 7f49 9c3c 9906 713d
000000c0: aac3 c43b 4ebf fdba e825 a0bc caaa 1b3c
000000d0: a08d cdbc e0a9 833d 869f d1bb 1413 0fbd
000000e0: 5d0c 453c 0000 0000 0000 0000 19be 9cbd
000000f0: 0400 0000 0400 0000 0400 0080 0400 0000
00000100: 0400 0000 0400 0000 0400 0000 0400 0080
00000110: 0400 0080 0400 0080 0400 0080 0400 0080
00000120: 0000 0000 0000 0000 0400 0080 4dd2 863b
00000130: 7fe1 3b3c a243 873d 97cc c8bc 6b33 bb3c
00000140: 30d9 3f3d 20cc 223c 2b06 113e 6dd2 e23d
00000150: 5758 a5bc 1a66 413d 02f9 e53e 0000 0000
00000160: 0000 0000 21b2 033f 817b 623d 4978 3d3e
00000170: bdd4 a1bf 29d7 d0be 7517 bfbd f2ec 4f3e
00000180: 32cd 07bd 0983 4b3f 74c9 103f f472 4d3c
00000190: 942f 833e 11a5 743e 0000 0000 0000 0000
000001a0: f813 773f 1f1a cfbc 0ec0 873c c025 eabd
000001b0: b835 b7bd 6f2f 843c e05e aabd c2b1 903c
000001c0: ab6a 9d3b aac2 1fbd b42e 6c3c 3109 d2bd
000001d0: cbb3 4b3e 0000 0000 0000 0000 8486 15bf
000001e0: 0400 0080 0400 0000 0400 0080 0400 0000
000001f0: 0400 0080 0400 0000 0400 0000 0400 0000
00000200: 0400 0080 0400 0080 0400 0000 0400 0000
00000210: 0000 0000 0000 0000 0400 0080 1d60 fabb
00000220: 611f ad3c 27e4 9dbe 94dc 0dbd eb5f 3e3d
00000230: d7a7 113e f80f 103d e3c2 bf3c 1049 9ebe
00000240: 68f3 3abb 08b6 a1bc bc4f 34be 0000 0000
00000250: 0000 0000 5008 6ebf b005 873c e538 f33c
00000260: 4ef9 73bd a7f1 50be 4d91 633d a6b3 bb3d
00000270: 3028 673d 4a43 773e 98ef c7bc a835 4fbc
00000280: 728b a63d 645f 8f3c 0000 0000 0000 0000
00000290: e472 563d 37a6 1c3c 0a26 a93c 4ce0 a43c
000002a0: 0917 bfbb 5391 77bc bbab 7bbd 66ce 37bc
000002b0: 1dda 88bc 3ea6 ad3d 06e3 8d3c ce7e c2bc
000002c0: afc8 9e3c 0000 0000 0000 0000 30a2 2e3d
000002d0: 0400 0080 0400 0000 0400 0000 0400 0080
000002e0: 0400 0000 0400 0000 0400 0000 0400 0000
000002f0: 0400 0080 0400 0000 0400 0000 0400 0000
00000300: 0000 0000 0000 0000 0400 0080 d4f6 e83c
00000310: 7339 3bbd 21bb aa3d ee4e 7a3e 947a 3a3c
00000320: 3e4a e13c 20eb cdbc 0bb7 69be dcab 673e
00000330: 2764 3ebd 9ef0 c2bd 7804 0ebe 0000 0000
00000340: 0000 0000 c6c3 373f cee0 d23b 228f 14bc
00000350: e401 b2bc e1e7 1bbd fdd8 0bbb 7a77 9fbc
00000360: 6ea1 e43a 5991 15bb 68bc 06bd cd77 8d3b
00000370: 05c6 63bd edd0 943d 0000 0000 0000 0000
00000380: 0910 71be 87c2 9cbd aee3 27bc 1155 d6bd
00000390: cc16 18be 7321 973d 3a9e bb3c f701 d93c
000003a0: b8ad 8c3d 0a35 253d 75f9 833c 5150 8abd
000003b0: 7c1e 813e 0000 0000 0000 0000 a108 49bf
000003c0: a853 1cbd 6698 58be db28 8d3f 89b0 f93e
000003d0: d469 103d 3634 34be 4157 ba3c 7e9f 39bf
000003e0: 40ed 78be 6683 47ba 9603 44be 6bb0 21be
000003f0: 0000 0000 0000 0000 a77b 06be c6f5 4cbd

exp_avg_sq f4 [128, 15]
2.1577734e-27 1.4644785e-28 1.4587158e-26 3.777685e-27 6.3218525e-28 1.3406355e-26 9.0611736e-29 4.0481407e-27
6.9316982e-28 1.1494488e-28 9.8228725e-28 3.6602705e-26 0.0 0.0 3.180206e-26 7.493235
4.4903274 12.094961 16.408207 3.6438966 0.8724294 1.2516881 14.770655 31.242163
0.5485728 3.9173756 1.799911 0.0 0.0 29.704344 24.279991 5.627753
257.89517 22.919851 45.900784 1.3702767 8.267495 58.977516 243.18219 5.604696
39.808105 330.32397 0.0 0.0 860.2246 0.32097885 0.20529938 0.5981764
0.4826601 0.11500445 0.07033422 0.014370756 0.58636165 0.988741 0.020005476 0.36535594
0.20220004 0.0 0.0 1.2532809 3.0820248e-32 1.1582075e-32 6.3840665e-33 1.0942702e-31
1.3489967e-32 8.919878e-33 5.435132e-33 4.9858887e-32 1.6028536e-32 6.632781e-33 1.6178496e-33 2.7364021e-32
0.0 0.0 1.9897168e-32 11.394327 2.2956905 190.5883 12.979229 21.945677
0.83347374 4.2156115 32.953587 116.18572 3.1129515 21.410004 238.78523 0.0
0.0 610.77234 4.1796165 1.4640957 10.336185 2.2760282 0.6424248 3.1536036
0.16981755 4.48296 25.099543 0.15801983 1.255568 12.711518 0.0 0.0
48.638 21.32213 7.5100255 2839.1023 148.08102 41.032284 3.9725013 18.537388
214.76779 210.21884 24.983805 121.241 3541.214 0.0 0.0 8147.976
2.8201992e-30 3.3918406e-30 4.731836e-31 5.3428652e-30 1.1011583e-29 8.225581e-31 7.965803e-31 5.7070913e-30
2.2217325e-30 6.112247e-31 8.762405e-31 1.5186824e-29 0.0 0.0 4.0171927e-30 1.7127749
1.6392814 200.49518 12.724207 1.438203 3.1755435 1.0657617 15.7207775 12.262311
1.4746872 7.6372566 219.15218 0.0 0.0 597.2627 0.35150772 0.7229744
0.48773432 2.8626451 0.17014478 0.2111166 0.93921345 2.3591194 0.46566767 0.069468
0.6224664 0.4456816 0.0 0.0 0.54959065 0.46578312 0.07908465 0.6020411
0.17787744 0.23973687 0.22722685 0.016532615 0.22138157 1.8461491 0.015012099 0.10888816
0.9892247 0.0 0.0 1.5916221 1.5412207e-08 6.3951116e-09 1.6916966e-08 1.5924824e-08
1.9557382e-09 2.089539e-09 3.9259485e-10 2.0860945e-08 5.4373146e-09 1.7018371e-10 1.9435523e-08 9.264837e-09
0.0 0.0 5.788117e-08 8.701655 7.003749 3820.3267 198.76784 4.9160733
9.821606 17.302118 248.51122 40.802135 29.774523 128.30943 4753.7935 0.0
0.0 10912.047 1.6940601 1.2109578 614.95825 31.80309 1.2252398 0.85238343
2.846677 39.977768 7.5914106 4.8238196 21.707922 765.19794 0.0 0.0
1744.4272 6.5881004 4.171429 968.1114 57.630527 8.774001 2.3085673 4.8596244
70.53358 22.910463 7.61551 35.740704 1215.1952 0.0 0.0 2752.9407
5.663901 1.7380153 17.31811 3.9547338 0.8283816 6.0752454 0.2109771 5.6820807
13.6249695 0.27929014 4.257102 18.978283 0.0 0.0 34.069412 6.76354
00000000: d8f4 2a13 0ba5 3911 d776 9014 47a6 9513
00000010: f658 4812 26c5 8414 61ba e510 065d a013
00000020: 9eac 5b12 bfb5 1111 4ea6 9b12 713f 3515
00000030: 0000 0000 0000 0000 e779 1d15 95c8 ef40
00000040: c3b0 8f40 f684 4141 0244 8341 9a35 6940
00000050: 8857 5f3f 5137 a03f 9a54 6c41 f3ef f941
00000060: 446f 0c3f 48b6 7a40 7c63 e63f 0000 0000
00000070: 0000 0000 7fa2 ed41 6c3d c241 8d16 b440
00000080: 95f2 8043 db5b b741 679a 3742 3a65 af3f
00000090: a947 0441 fae8 6b42 a42e 7343 ab59 b340
000000a0: 803b 1f42 7829 a543 0000 0000 0000 0000
000000b0: 600e 5744 5757 a43e 003a 523e 1722 193f
000000c0: 3a1f f73e 7487 eb3d 630b 903d 5273 6b3c
000000d0: cc1b 163f 211e 7d3f 86e2 a33c ef0f bb3e
000000e0: 870d 4f3e 0000 0000 0000 0000 826b a03f
000000f0: 2307 200b e08c 700a 8597 040a 5d0b 0e0c
00000100: 7c16 8c0a 3542 390a 3dc4 e109 ea70 810b
00000110: 2873 a60a eac1 090a db67 0609 0615 0e0b
00000120: 0000 0000 0000 0000 bf9f ce0a 2a4f 3641
00000130: 98ec 1240 9b96 3e43 ecaa 4f41 bf90 af41
00000140: 895e 553f 4ae6 8640 79d0 0342 175f e842
00000150: 993a 4740 b047 ab41 05c9 6e43 0000 0000
00000160: 0000 0000 6eb1 1844 6bbf 8540 7d67 bb3f
00000170: 0461 2541 72aa 1140 f475 243f a4d4 4940
00000180: a7e4 2d3e 6974 8f40 ddcb c841 f3cf 213e
00000190: 74b6 a03f 6162 4b41 0000 0000 0000 0000
000001a0: 508d 4242 b993 aa41 2152 f040 a371 3145
000001b0: be14 1443 0f21 2442 763d 7e40 924c 9441
000001c0: 8ec4 5643 0638 5243 d5de c741 647b f242
000001d0: 6d53 5d45 0000 0000 0000 0000 cf9f fe45
000001e0: 3fcd 640e e396 890e 8e8e 190d 7cbb d80e
000001f0: 6857 5f0f ba77 850d a740 810d d381 e70e
00000200: 943f 340e 905a 460d 9b2d 8e0d 4003 9a0f
00000210: 0000 0000 0000 0000 eaf4 a20e 353c db3f
00000220: f9d3 d13f c47e 4843 5a96 4b41 0917 b83f
00000230: 1b3c 4b40 e16a 883f 4e88 7b41 6d32 4441
00000240: 8dc2 bc3f 6864 f440 f526 5b43 0000 0000
00000250: 0000 0000 d050 1544 d2f8 b33e da14 393f
00000260: 50b8 f93e 9435 3740 6f3a 2e3e f32e 583e
00000270: 4b70 703f d0fb 1640 fe6b ee3e 3d45 8e3d
00000280: f559 1f3f 6130 e43e 0000 0000 0000 0000
00000290: f9b1 0c3f 207b ee3e 22f7 a13d 5e1f 1a3f
000002a0: 8125 363e 957d 753e 28ae 683e 686f 873c
000002b0: dab1 623e 9d4e ec3f 4ff5 753c c100 df3d
000002c0: d43d 7d3f 0000 0000 0000 0000 46ba cb3f
000002d0: cd63 8432 ffbb db31 cd50 9132 0fcb 8832
000002e0: b665 0631 8f97 0f31 d0d4 d72f b431 b332
000002f0: 20d3 ba31 751e 3b2f 2bf3 a632 2f2b 1f32
00000300: 0000 0000 0000 0000 0599 7833 fb39 0b41
00000310: b61e e040 3ac5 6e45 91c4 4643 7950 9d40
00000320: 4c25 1d41 bd6a 8a41 df82 7843 6335 2342
00000330: 3932 ee41 374f 0043 598e 9445 0000 0000
00000340: 0000 0000 3080 2a46 f6d6 d83f aa00 9b3f
00000350: 54bd 1944 ba6c fe41 a8d4 9c3f cd35 5a3f
00000360: f52f 3640 3ce9 1f42 d6ec f240 bb5c 9a40
00000370: d3a9 ad41 ab4c 3f44 0000 0000 0000 0000
00000380: ac0d da44 b8d1 d240 597c 8540 2107 7244
00000390: a985 6642 4f62 0c41 91bf 1340 0b82 9b40
000003a0: 3111 8d42 a148 b741 42b2 f340 7bf6 0e42
000003b0: 3fe6 9744 0000 0000 0000 0000 0d0f 2c45
000003c0: ad3e b540 4977 de3f 7d8b 8a41 5c1a 7d40
000003d0: d110 543f 6968 c240 620a 583e 9bd3 b540
000003e0: e0ff 5941 1eff 8e3e 2e3a 8840 86d3 9741
000003f0: 0000 0000 0000 0000 1447 0842 eb6e d840

exp_avg f4 [128]
6e-45 1.069669 -0.094970115 0.061106723 6e-45 -0.41073716 -0.7705948 0.46634477
6e-45 0.7423833 -0.041801862 -0.034040794 6e-45 -0.57313144 0.18795843 0.6269904
0.10485751 2.117116 -0.010827887 2.1499934 0.4800652 -0.40733665 0.21980143 0.009385483
-0.06560515 -0.03403431 6e-45 -0.27698013 0.18122722 -0.07332735 0.073138736 0.01975998
-0.035754304 0.0048357057 6e-45 -0.052789062 -0.25059453 -0.4531082 -0.1891411 -0.071387194
0.016225254 -0.40801516 0.12248786 1.022908 0.6496306 -0.008506498 0.04092438 0.28197375
0.023933895 0.38466582 -0.17764378 -0.36341727 6e-45 -0.59770614 0.06323552 6e-45
-0.5865029 6e-45 0.12863502 0.050378233 -0.33532083 -0.029362751 -0.2220176 0.22253494
-0.07946334 6e-45 6e-45 0.03818692 -0.5990334 -0.0017875959 0.020894472 -0.041217934
0.0038358392 0.17605455 -0.41136295 0.34146902 -0.22235386 0.11493673 0.024352731 6e-45
0.28457308 0.08524635 -0.04454873 6e-45 0.63166064 -0.232192 -0.67505735 6e-45
-0.040827252 -0.013836381 -0.14762683 -0.51474094 -0.06423188 0.023967922 -0.18819325 6e-45
-0.006271554 -0.17530137 -0.012115756 6e-45 -0.08569017 -0.25399834 -0.32365844 -0.46474403
-0.09651746 -0.1327337 0.12997366 0.11361522 -0.17400728 -0.91332537 -0.11597507 -0.18659875
0.023573395 -0.03828484 -0.09349276 0.0017740855 -0.6019639 6e-45 0.20308973 -0.06022262
-0.054815706 6e-45 0.37338394 -0.31225583 -0.79621595 0.033114634 6e-45 6e-45
00000000: 0400 0000 eaea 883f b17f c2bd 0b4b 7a3d
00000010: 0400 0000 244c d2be b345 45bf bec4 ee3e
00000020: 0400 0000 d50c 3e3f 6e38 2bbd 5c6e 0bbd
00000030: 0400 0000 beb8 12bf 2d78 403e 7182 203f
00000040: 89bf d63d d47e 0740 7367 31bc 7e99 0940
00000050: 1bcb f53e 6e8e d0be a013 613e 92c5 193c
00000060: fe5b 86bd 9067 0bbd 0400 0000 57d0 8dbe
00000070: a193 393e a62c 96bd c3c9 953d aedf a13c
00000080: 1b73 12bd d774 9e3b 0400 0000 5839 58bd
00000090: ed4d 80be ccfd e7be 34ae 41be 7333 92bd
000000a0: d3ea 843c 5de7 d0be eada fa3d a6ee 823f
000000b0: 314e 263f d75e 0bbc 53a0 273d dd5e 903e
000000c0: 0411 c43c ebf2 c43e 40e8 35be d411 babe
000000d0: 0400 0000 4503 19bf a081 813d 0400 0000
000000e0: 0e25 16bf 0400 0000 e6b8 033e 6859 4e3d
000000f0: 2caf abbe 278a f0bc 9558 63be 33e0 633e
00000100: adbd a2bd 0400 0000 0400 0000 e369 1c3d
00000110: 415a 19bf c44d eaba e22a ab3c 23d4 28bd
00000120: b462 7b3b a547 343e 2a9e d2be 07d5 ae3e
00000130: bbb0 63be f363 eb3d 617f c73c 0400 0000
00000140: 90b3 913e a395 ae3d bb78 36bd 0400 0000
00000150: 83b4 213f bdc3 6dbe 8fd0 2cbf 0400 0000
00000160: 7a3a 27bd fdb1 62bc 7d2b 17be 10c6 03bf
00000170: 018c 83bd 6058 c43c bbb5 40be 0400 0000
00000180: 9c81 cdbb 3482 33be 2a81 46bc 0400 0000
00000190: 547e afbd 120c 82be 8fb6 a5be eef2 edbe
000001a0: f2aa c5bd 58eb 07be d117 053e 19af e83d
000001b0: f72e 32be b1cf 69bf 5684 edbd be13 3fbe
000001c0: fe1c c13c 90d0 1cbd 2279 bfbd 6e88 e83a
000001d0: 4e1a 1abf 0400 0000 c1f6 4f3e feab 76bd
000001e0: 6f86 60bd 0400 0000 2e2c bf3e ffdf 9fbe
000001f0: cfd4 4bbf 36a3 073d 0400 0000 0400 0000

exp_avg_sq f4 [128]
2.0272838e-26 18.935822 548.37286 0.79893637 1.2683969e-32 389.3529 31.00557 5194.142
2.560827e-30 380.7404 0.35035044 1.0146198 3.6897962e-08 6956.1626 1112.0304 1754.9329
21.718424 5049.533 0.16887845 3695.4617 73.74075 3164.6223 114.6 0.25583702
561.53577 0.23133855 1.232739e-28 135.36435 706.61804 7458.139 20.062963 2.4329731
2.7793329 0.4939182 1.9574869e-19 0.08964236 80.50081 39.945194 538.3612 9.653524
0.01951192 44.450447 2.4158227 3121.119 28.991959 0.1189936 1466.6769 9.953387
20.680899 63.680553 0.5239744 304.04248 6.675018e-24 146.32492 5.7712245 1.7407658e-27
3116.777 9.2026254e-14 9.666943 9.27092 0.83367 0.40844968 15.793598 5.3193626
2.5706015 7.837286e-25 6.3240482e-24 527.49036 8174.4604 11.656535 13.514174 1.7378998
0.038212463 53.34515 250.50267 51.078545 46918.965 87.98142 5.4184947 5.6159224e-26
43.171406 5.109834 3.2898872 6.0320244e-19 1026.301 6820.775 29.336216 1.3628355e-27
2.9333189 1.1355968 20.757265 36.041977 0.21386144 0.23570698 10.884927 2.370345e-31
1.7237759 350.32462 0.018150492 3.04519e-26 1.9432986 7451.0747 10.570586 29.638031
88.46329 14.447524 6.1813293 5.903939 716.42737 66.92386 16.17481 645.8841
0.14787525 1914.6416 1983.009 0.08212782 6699.744 1.1114774e-24 4320.7197 0.7898507
2292.6458 5.925498e-26 807.8237 5245.21 9.650572 0.70724964 3.6203893e-29 4.0826574e-30
00000000: c0c5 c814 907c 9741 dd17 0944 1887 4c3f
00000010: c6b7 830a 2cad c243 680b f841 2351 a245
00000020: 4cc2 4f0e c55e be43 2261 b33e 10df 813f
00000030: bd79 1e33 4d61 d945 f900 8b44 da5d db44
00000040: 55bf ad41 44cc 9d45 79ee 2c3e 63f7 6645
00000050: 447b 9342 f5c9 4545 3333 e542 12fd 823e
00000060: 4a62 0c44 03e4 6c3e ab44 1c11 465d 0743
00000070: 8ea7 3044 1d11 e945 f380 a041 d5b5 1b40
00000080: 97e0 3140 d9e2 fc3e 6919 6720 6a96 b73d
00000090: 6a00 a142 e1c7 1f42 1e97 0644 d674 1a41
000000a0: 76d7 9f3c 42cd 3142 d79c 1a40 e711 4345
000000b0: 88ef e741 ebb2 f33d a955 b744 1341 1f41
000000c0: 7b72 a541 e3b8 7e42 3023 063f 7005 9843
000000d0: 171d 0119 2e53 1243 dfad b840 edea 0913
000000e0: 6fcc 4245 8639 cf29 ccab 1a41 b055 1441
000000f0: 666b 553f 5120 d13e 94b2 7c41 3838 aa40
00000100: bc84 2440 608d 7217 57a6 f418 62df 0344
00000110: af73 ff45 2b81 3a41 0f3a 5841 8073 de3f
00000120: ac84 1c3d 6f61 5542 af80 7a43 6e50 4c42
00000130: f746 3747 7df6 af42 4f64 ad40 230b 8b15
00000140: 85af 2c42 c383 a340 838d 5240 b008 3221
00000150: a249 8044 3326 d545 92b0 ea41 2df3 d712
00000160: 7fbb 3b40 3c5b 913f e10e a641 fc2a 1042
00000170: 7efe 5a3e 2c5d 713e a928 2e41 1dd8 990c
00000180: b0a4 dc3f 8d29 af43 57b0 943c 5fca 1615
00000190: 02be f83f 99d8 e845 1f21 2941 b01a ed41
000001a0: 34ed b042 0f29 6741 73cd c540 11ed bc40
000001b0: 5a1b 3344 04d9 8542 0366 8141 9578 2144
000001c0: 9c6c 173e 8854 ef44 4ae0 f744 a132 a83d
000001d0: f45d d145 28fe ab17 c205 8745 a833 4a3f
000001e0: 554a 0f45 4eb5 9215 b8f4 4944 aee9 a345
000001f0: be68 1a41 500e 353f 5793 3710 bd9c a50e
