ppo/models/behavioral_cloning_agents_lunar/bc4/ckpts/001349200.pt (torch_old, 351559 bytes, 26 tensors)

fc1.weight f4 [128, 9]
000000 ea d5 8d 3d 91 04 fc 3e 35 25 f7 be a3 7b 06 bf
       0.069255665 0.49222234 -0.48270574 -0.52532405
000010 5b 2a 06 be 1e a8 31 3e c1 45 90 3d b3 dc d8 3e
       -0.13102095 0.17349288 0.070445545 0.4235588
000020 e9 94 00 3e a7 f1 12 bd 77 0c 66 bd da 3f bc bd
       0.12556805 -0.03587499 -0.05616423 -0.09191866
000030 cd 51 b1 be d0 1d 5c be 58 1f db bd d9 7a b9 3c
       -0.34632722 -0.21495748 -0.10699338 0.022641586
000040 9f 06 91 3e fe c4 dc 3e 76 1b 7a be fd 5f 4b be
       0.28325364 0.43119043 -0.24424538 -0.19860835
000050 5b f2 56 3e 98 5f 5f 3e 7d 74 83 3d 1e 67 9f 3e
       0.20990889 0.2181381 0.06418703 0.3113336
000060 ea 75 91 bd 88 f2 cb 3d 34 79 a5 3d 16 a1 63 be
       -0.071025684 0.099583685 0.08079758 -0.22229418
000070 17 25 7f be 80 ed bb be 22 43 10 be b3 a4 d6 3e
       -0.24916492 -0.36704636 -0.14088109 0.4192253
000080 c5 e0 c4 be 70 90 a1 bd b2 be cc bd b1 46 3d be
       -0.38452736 -0.078888774 -0.0999731 -0.18483998
000090 d6 1d 98 be 5d 84 e0 3e 94 ea 6e 3e 6a f3 be 3d
       -0.29710263 0.43850985 0.23331672 0.09323771
0000a0 9e f3 2a 3b 18 f5 8d be 72 b8 c5 3d f5 0b 4c be
       0.0026085149 -0.27726054 0.09654321 -0.19926436
0000b0 6c 77 d6 be 4e 05 af be 41 74 8c 3e e6 3e ce 3e
       -0.41887987 -0.34183735 0.27432445 0.40282363
0000c0 11 db 33 be 19 db 03 be 1d d1 01 3f ca d7 5e 3e
       -0.17564036 -0.12876548 0.50709707 0.21762004
0000d0 f3 f7 ac 3e c4 09 89 3d b8 4e be 3e 01 3e 15 bf
       0.3378292 0.06691316 0.37169433 -0.58297735
0000e0 6b 22 7c 3d 08 3d ff bd 60 6f 68 be ab d6 ae be
       0.06155626 -0.12462813 -0.22698736 -0.34148154
0000f0 d1 3b c3 3d aa 29 0e 3e b9 52 1e be 90 01 2b 3d
       0.095328934 0.13883081 -0.15461244 0.041749537
000100 a6 2c 36 3d 70 5d 0e 3e f3 ee 4c bb 18 1a 50 bf
       0.044476174 0.13902831 -0.0031270355 -0.81289816
000110 ce df 11 3f 65 f8 c9 3e 42 53 2f be 5c e1 84 bd
       0.56982124 0.39447322 -0.17121604 -0.064882964
000120 f7 f1 86 3e 9a d1 09 3f 0a 25 b1 3e b2 81 0c 3e
       0.2635648 0.5383545 0.3459857 0.1372135
000130 91 f7 e0 bc 17 e1 11 be de b5 5a 3c ec fd 8f bc
       -0.027461799 -0.14246021 0.013349025 -0.017577134
000140 30 a8 0f bf eb 01 f1 3e 81 4e 5c 3e 3e 08 27 bf
       -0.5611601 0.47071776 0.21514322 -0.6524695
000150 00 85 ac b9 6b 19 9c 3d 8c b2 c1 be e5 ee a2 be
       -0.0003290549 0.076220356 -0.37831533 -0.31822887
000160 33 4f 2a 3e 2f 6f 64 be 3f a7 6a 3e 50 f6 68 3e
       0.16631775 -0.22308038 0.22915362 0.22750211
000170 40 52 1c 3e fc ef bb 3e d2 ae 55 bf cf e5 9d 3d
       0.15265751 0.3670653 -0.8346988 0.07709848
000180 50 e5 37 3e ef 49 b4 3e c5 00 76 be 56 dc 2d be
       0.1795857 0.35212657 -0.24023731 -0.16978583
000190 63 5a a6 3e f9 d1 25 3e d7 ee 01 be 44 1c c5 bc
       0.32490835 0.1619338 -0.12688766 -0.02406133
0001a0 16 4b a7 be ab 16 81 bd 39 35 0a be ae 2b 1b be
       -0.32674474 -0.06303152 -0.13496865 -0.15153381
0001b0 f1 d1 13 3d 4d 76 98 3b 2b 68 09 be 70 c7 de 3c
       0.036088888 0.0046527744 -0.13418643 0.027194709
0001c0 69 6f 1b bf 96 24 86 3e 64 47 6b 3e 3e 8f 83 be
       -0.60716873 0.26199788 0.22976452 -0.25695223
0001d0 c7 22 c5 bc 1b 52 cc 3d 0a c0 c6 3a be 9f 97 3c
       -0.024064435 0.09976598 0.0015163433 0.018508788
0001e0 30 89 54 3e cc d4 a9 3e fd d5 15 bf 3d da 8a 3d
       0.20755458 0.33170164 -0.58529645 0.06779907
0001f0 f6 1c f9 bd 55 00 da be 4c ab 69 bd 79 34 0c be
       -0.12163727 -0.42578378 -0.057048127 -0.13691892
000200 49 b5 a3 bd 8d 65 73 be 6d d6 2c 3b f2 d3 1e bc
       -0.07993562 -0.23769207 0.0026372925 -0.009694086
000210 c6 70 39 be 34 a9 1f 3d ef 2e 01 3e 5a 45 4a 3d
       -0.18109426 0.038979724 0.1261556 0.049382545
000220 41 ad 03 bd cd eb 3f bc c3 48 2d 3d 80 8e cc 3d
       -0.03214765 -0.011713934 0.04230572 0.09988117
000230 f6 4b 51 3e 79 d9 6c 3e 87 6a 69 3e 89 52 d0 bd
       0.20439133 0.23129834 0.22794543 -0.10171992
000240 6d a9 33 bf f3 18 2b be 8a 36 ce 3e 34 5d d7 bc
       -0.701804 -0.16708736 0.40275985 -0.02628956
000250 41 66 e4 be 51 40 6f be eb f6 aa be 33 9e 6a be
       -0.44609264 -0.23364379 -0.33391508 -0.2291191
000260 8b 5f 21 3d 8f b8 48 3e 67 69 98 3e ff 71 eb be
       0.039397758 0.19601654 0.29767916 -0.4598541
000270 4e bd 65 3e 69 06 c2 be 26 66 dc bd 29 3d ab bc
       0.22435495 -0.37895516 -0.10761671 -0.020903187
000280 c7 e8 4a bb 68 9a 35 bc 9c a8 04 bf 57 8e 9c be
       -0.00309615 -0.011084177 -0.5181978 -0.30577347
000290 69 cf 3c 3d b6 8c 8e 3d 19 7d df be 6f 98 8a 3e
       0.04609624 0.06960432 -0.4365013 0.27069423
0002a0 00 bb 50 be 32 30 93 3c c1 52 ed 3e 84 10 d2 bd
       -0.20383835 0.017967317 0.463522 -0.10257056
0002b0 ea 05 bb 3d 9e 19 58 3e 5d 03 d7 bd 95 37 d5 3d
       0.091319874 0.21103522 -0.10498688 0.10410992
0002c0 c3 15 19 bd 87 7c 3e 3d a7 ea 76 3e dd 90 45 bd
       -0.03737427 0.046505477 0.2411295 -0.048233856
0002d0 3d 82 a8 3d 62 2a 52 be 34 82 20 3f eb be a8 3c
       0.08227966 -0.2052398 0.62698674 0.02059885
0002e0 83 37 82 3d db 3d 78 3e 48 0d 5b bd 57 3b 0f 3e
       0.06358244 0.24242346 -0.053479463 0.1398748
0002f0 32 d2 34 bf 6e a3 5c 3e d8 91 ab 3e ce 7b d6 3e
       -0.7063323 0.21546718 0.33509707 0.4189133
000300 a0 f2 38 be b6 ea f8 3d 5d 93 76 be f3 18 96 bd
       -0.18061304 0.121541426 -0.24079652 -0.073289774
000310 7e 9e 71 bc 61 b3 95 3e b3 cc f1 bd 27 09 f8 3d
       -0.01474726 0.29238418 -0.118066214 0.12111121
000320 52 d7 8b be e3 51 58 3b 15 67 1d 3e e2 4a 80 bf
       -0.27312714 0.0033007793 0.15371354 -1.0022852
000330 f6 52 02 3c 39 c8 82 3d 7c 4a d9 bb 04 14 47 3f
       0.00795435 0.06385846 -0.0066311937 0.77764916
000340 f5 ad 2a 3e 91 80 81 be d8 07 96 bd f8 63 ca be
       0.16667922 -0.252934 -0.07325715 -0.39529395
000350 3e 01 8b 3e b0 49 4c bc ac 44 ea 3d f9 20 81 bd
       0.27149385 -0.01246874 0.11438879 -0.06305117
000360 3e 4a 9b be 2e c3 1d be c0 9a 90 3e 7f 38 90 be
       -0.3033008 -0.15406486 0.28243065 -0.28168103
000370 5a 61 0c be 4c fc 9e 3e 3d 2b bd 3d 9a 1a 30 3a
       -0.13709012 0.31051862 0.09236763 0.0006717831
000380 0d 6f 35 be 88 6b 9c 3e 5a d3 46 be a7 f4 94 bd
       -0.17718144 0.3055079 -0.19416562 -0.07273226
000390 83 4e 4b be b0 86 e6 bd 72 0c a2 bc 11 57 e7 3d
       -0.19854169 -0.11256158 -0.019781325 0.112959035
0003a0 e1 8a f0 3d 5f b0 b1 3e 51 b7 34 3e 68 70 fe be
       0.11745239 0.34704873 0.17648055 -0.49695134
0003b0 fa 55 28 3e d7 1b 9a bd 49 78 64 be e4 07 18 3e
       0.16439047 -0.07524841 -0.2231151 0.1484676
0003c0 fc 03 4b 3e e4 43 a8 3c f8 b8 c5 be f4 7c 26 3e
       0.19825739 0.020540185 -0.38617682 0.16258603
0003d0 4f dc af 3d ce 03 d8 be 03 9c c2 3e 7f b6 d7 be
       0.085869424 -0.42190403 0.38009652 -0.4213142
0003e0 c2 19 f2 bc fe bd db bd 47 9a b7 bd 19 a9 8b 3d
       -0.029553298 -0.107295975 -0.08964973 0.06819362
0003f0 40 47 d6 3e 2d 8c 6e bd 08 8b 8c be 73 6e 3c be
       0.41851234 -0.05823915 -0.27449822 -0.18401508

fc1.bias f4 [128]
000000 5d f4 19 bf cd b5 c7 be a9 26 3e bd ed df fe be
       -0.60138494 -0.3900589 -0.046423588 -0.49780217
000010 59 65 85 be 2b 91 92 bd 72 f2 48 bd df a9 b5 bd
       -0.26053885 -0.07156595 -0.04905934 -0.08870291
000020 f4 f9 02 bf ec e2 27 bc d9 f0 d8 be b2 57 08 3e
       -0.5116265 -0.0102469735 -0.42371252 0.13314703
000030 73 a3 a9 3d 71 bc e2 be ca 2a 0b bc 48 20 4e bd
       0.082831286 -0.44284394 -0.008494088 -0.050323755
000040 d1 b6 41 be af 82 85 be a7 77 6e be 34 0a 7a 3b
       -0.18917395 -0.26076266 -0.23287831 0.0038153054
000050 43 cc d9 be 3c ba 09 bf 12 fa 18 be a8 5f 51 be
       -0.42538652 -0.53799796 -0.14939144 -0.20446646
000060 da 9b 9e bd 0d 32 0f be f3 c4 bf be db 77 93 be
       -0.0774457 -0.13983937 -0.37454948 -0.2880238
000070 5b f6 26 3d b2 7f 3a bf 14 06 1e 3e f1 a9 00 bf
       0.040762287 -0.728511 0.15432006 -0.5025931
000080 0e 53 9d be ee 5e f5 be cf f3 6c bd a8 e2 fc 3c
       -0.30727428 -0.47923988 -0.0578497 0.030869797
000090 68 5e ef bd 4b 67 cd be 20 03 73 be 53 bc 10 bd
       -0.116879284 -0.4011787 -0.23731661 -0.03533585
0000a0 7e 6f e2 bd 01 00 3b be dc 77 6a be c6 ac 07 bf
       -0.11056422 -0.1826172 -0.22897285 -0.52998006
0000b0 da 08 ff 3d b5 6b e6 be 34 59 65 3d 5a 12 70 be
       0.1245286 -0.4500405 0.055993274 -0.234445
0000c0 48 de dd 3d 5b 1a fb bc 35 93 d4 bd c8 c9 36 bf
       0.108334124 -0.030652216 -0.1037964 -0.71401644
0000d0 7a 04 a5 be 18 87 e1 be 7c 07 1b bf 1f c2 97 3e
       -0.32229978 -0.4404838 -0.60558295 0.2964029
0000e0 f6 47 b2 bb 2d 56 a9 be 22 3e cd be c6 24 67 be
       -0.0054407073 -0.3307356 -0.40086466 -0.22572622
0000f0 0c 0e 42 3b da 79 b3 be 26 14 1f bf 1a bc 9a be
       0.0029610423 -0.35053903 -0.6214012 -0.30221635
000100 39 17 c8 3e 57 4d 1e be 75 14 a2 be 8a cf 98 3d
       0.39080217 -0.1545919 -0.31656232 0.0746146
000110 59 41 c5 3d 7a 7d 89 3d 0d 81 ee bd ce b8 58 be
       0.09631605 0.06713386 -0.11645708 -0.21164247
000120 62 39 da 3c 8e 04 fe bd 6c 69 b3 be 8e 62 da 3d
       0.02663869 -0.124032125 -0.35041368 0.10663329
000130 ae 9d da bd c3 5c 74 be e6 2f 25 3d 23 05 6d 3e
       -0.10674606 -0.23863511 0.040328883 0.23146491
000140 be 31 d8 be 2e 24 88 be 92 82 11 3d b6 aa f3 be
       -0.4222545 -0.26590103 0.035524912 -0.4759118
000150 bb a1 29 bd 79 11 2b bc 01 f5 8d bd e8 a1 20 bf
       -0.041414004 -0.0104411775 -0.069314964 -0.6274705
000160 41 d4 a7 be a2 85 00 3b cd d4 07 bf 70 f4 0e bf
       -0.32779124 0.0019610901 -0.53059083 -0.5584173
000170 ea 97 21 bf 95 a4 09 bf c2 5e 26 bf b7 fc ad be
       -0.6312243 -0.5376676 -0.6498834 -0.3398187
000180 ec 68 8b 3d 4d a0 49 be d1 64 5a bd ba f4 be bc
       0.06807122 -0.19690056 -0.053318802 -0.023310054
000190 b4 e4 f2 bd e2 6a 07 bf 00 3f f7 bc 2a 8f d4 3a
       -0.11860028 -0.52897465 -0.030181408 0.0016216983
0001a0 15 0e d9 bb 33 cc 02 bf 0d 90 a4 be d0 1e 03 3f
       -0.006623993 -0.51092833 -0.32141152 0.5121889
0001b0 e0 e4 de be ba 22 d1 3c 79 68 46 3d 3a e3 00 bf
       -0.43533993 0.025529254 0.048439477 -0.5034672
0001c0 dd 38 60 bd 4e da 1e bd 97 d8 91 be 17 91 64 bd
       -0.05474173 -0.03878241 -0.28485557 -0.05580243
0001d0 5f 08 b4 3c 59 b6 9a bd fb dd c2 be 85 5c d7 3c
       0.021976648 -0.07554311 -0.38059983 0.026289234
0001e0 7c 78 c7 be e1 b1 f1 be 87 18 d0 be f5 90 d1 bc
       -0.3895911 -0.47206023 -0.40643713 -0.025581816
0001f0 32 c4 e8 3d 2a 96 58 bd 19 6d 8b 3e f7 73 09 3e
       0.11365546 -0.052877583 0.27231672 0.13423143

fc2.weight f4 [128, 128]
000000 ed c8 db be 3d 6b 0c be 4e b7 d9 3e 3a 50 16 be
       -0.42926732 -0.13712783 0.42522663 -0.14679042
000010 ce 1e 76 3e de d6 70 3e 0e 51 12 3e 75 88 c9 3d
       0.24035189 0.23519465 0.14288732 0.0984048
000020 32 6c 92 be ab b1 28 be 0d 5f 0e 3d 95 7a 75 3d
       -0.2859817 -0.16474025 0.034758616 0.059931356
000030 83 2c 87 bc 5c e7 c8 be d5 5b 2b be 24 55 ac 3d
       -0.016500717 -0.39239013 -0.1673425 0.08414677
000040 38 41 bd be 2b 20 4c 3c 3c ab 44 bf b9 e3 7a be
       -0.3696382 0.012458841 -0.7682378 -0.24500932
000050 ef a2 8b bf 78 3c 55 bc eb e1 7d 3e 39 e1 bb bc
       -1.0909098 -0.013014905 0.24793212 -0.022934543
000060 c0 b4 0a 3e 65 90 c0 3c 1b 54 44 be db 5a 8e bc
       0.13545513 0.023506353 -0.19172709 -0.017377308
000070 82 60 42 be bd 3f a4 be ec 7b e6 3d 53 cb 54 be
       -0.18982127 -0.32079878 0.11254105 -0.20780687
000080 96 8c 97 bd 06 8b 9c be 87 2a f8 3b 08 79 5c 3e
       -0.073998615 -0.30574816 0.007573429 0.21530545
000090 95 61 3f bc f7 22 04 bc 7f 69 9c bd cb e5 56 3e
       -0.01168098 -0.008064977 -0.07637309 0.20986097
0000a0 c9 18 ef 3d 5c 19 23 be 99 a3 ac 3e 2d d3 de be
       0.11674649 -0.15927643 0.33718565 -0.4352049
0000b0 6c dd 93 bd 3c 68 2c be d6 71 a5 3d 4f 03 5d 3d
       -0.07219967 -0.16836637 0.08078353 0.053958233
0000c0 bd 1c 68 be 55 98 4a be 84 ca e0 bd a5 6e cd be
       -0.22667213 -0.19784673 -0.10976127 -0.40123478
0000d0 49 bb 6f 3e b0 73 35 3e f5 bd 59 be c1 95 79 be
       0.23411287 0.17719913 -0.21263869 -0.24373533
0000e0 53 7d 6e be 10 33 8f 3d b8 db 34 3c df 1e 0e 3e
       -0.23289995 0.06992161 0.011038713 0.13878964
0000f0 f4 d0 38 3a bc 0f 33 be 5e df f3 bd 75 61 2e 3d
       0.00070501794 -0.17486471 -0.11907838 0.04257341
000100 84 c6 4e bd ce b3 6f bd 0d ec 7c 3e 80 7f 18 be
       -0.050482288 -0.058521084 0.24699421 -0.14892387
000110 d9 c2 0f 3e 57 82 27 3e 81 71 bc be 69 1f 24 3e
       0.14039172 0.16358314 -0.36805347 0.16027607
000120 22 af 30 3e 97 b5 c3 3e e7 30 b1 bd 51 15 57 3e
       0.17254308 0.3822448 -0.086519055 0.21004225
000130 ef 5c 3f b9 c9 b4 de bd a3 d6 66 3e 1b 22 b8 bd
       -0.000182498 -0.10874326 0.22542815 -0.0899088
000140 08 a5 8a bc 2e 5a 20 3e dd d2 ab be 52 74 83 3e
       -0.016924396 0.15659401 -0.33559313 0.25674683
000150 9b fd d3 bd b1 bd f1 bc 5f 88 dd 3d 4b a9 ed 3e
       -0.10351106 -0.029509397 0.10817026 0.46418223
000160 7d 60 1c 3e a6 ee 0e 3d fd e0 0d 3e 2f a5 4f bd
       0.15271182 0.03489556 0.13855357 -0.05069464
000170 65 02 88 be 36 1f cd 3c bc 8b 0c be 6d 8c 92 3d
       -0.26564327 0.025039297 -0.1372518 0.0715569
000180 cf 08 0d be d2 b5 0c 3e ac ee d2 bb 6d c9 a1 bd
       -0.13772891 0.13741234 -0.0064371433 -0.07899747
000190 53 39 21 3e 00 aa bf be ac 7b d3 bd 5c 27 08 be
       0.15744524 -0.37434387 -0.10326323 -0.13296264
0001a0 8a 84 c2 3b 49 b1 7f 3c 2c 62 c1 be 5c ec cf bd
       0.00593621 0.015606233 -0.37770212 -0.10152504
0001b0 40 e2 85 be 0b 02 73 bc 9e 3c d2 bd c3 70 9a bd
       -0.26149178 -0.01483203 -0.10265468 -0.07541039
0001c0 19 82 d2 bd b3 9d 64 3e a3 46 3e 36 bd e4 45 bc
       -0.102787204 0.22325782 2.8353322e-06 -0.012078461
0001d0 94 e8 48 bd f0 f3 19 3e 89 5b b4 3d 4b a5 b1 3d
       -0.04904993 0.15034461 0.088065214 0.08674105
0001e0 92 30 32 3e b6 6d 25 bc 88 c7 0e 3e bd 79 14 3e
       0.1740134 -0.010096958 0.13943303 0.14499564
0001f0 85 7d d1 3d 21 bd 9f be 21 d1 98 3d bb f5 44 bd
       0.10229019 -0.3119898 0.07461763 -0.04808591
000200 79 19 39 3e 45 14 12 bd 00 93 4f bd 1e 4e 0d 3c
       0.18076123 -0.03566386 -0.0506773 0.008624582
000210 0e cd b8 3d 7d 2f 8d 3b 1e 27 65 bf ae c1 c1 3d
       0.09023486 0.0043086396 -0.89512813 0.094607696
000220 8c 53 40 3e f6 a0 0a be 4c 15 86 3d e2 e1 af 3d
       0.1878187 -0.13537964 0.06547031 0.085880056
000230 c6 cf 26 be dd 53 75 be 2a 65 09 3e 65 ca 93 bd
       -0.16290197 -0.23957773 0.13417497 -0.07216338
000240 8d 08 09 bf e6 08 3d 3d c5 e6 e4 3e fe 61 f8 3c
       -0.5352867 0.046151064 0.44707313 0.030320164
000250 55 0b 78 be 2a 25 26 be fa af 69 bd ae 40 d3 3d
       -0.24223073 -0.16225114 -0.05705259 0.10315071
000260 51 07 f4 3d 4d 5f 10 3e 9f 84 ee bd ea c0 af bd
       0.11915458 0.14098854 -0.11646389 -0.08581717
000270 f0 f6 09 3e c6 e1 3d bd 3d 01 0a bf ab 07 4d 3d
       0.13473105 -0.046357892 -0.5390814 0.05005614
000280 99 7d 03 3e f6 ea d1 3e 61 7f f1 bd 0f c3 4f be
       0.1284088 0.40999573 -0.11791874 -0.20289253
000290 2d 72 92 3b b2 b5 00 3c 6c 85 9a 3d 24 a5 79 bd
       0.004469177 0.00785582 0.075449795 -0.060948506
0002a0 f2 c9 5d be 96 a0 7e bb 5d 4b bb 3d 86 92 06 3f
       -0.21659067 -0.003885304 0.09145234 0.5256733
0002b0 1d cf 2a 3d a2 c0 e0 3d 13 db 7a 3d 72 e9 9b bc
       0.041701425 0.10974242 0.06124408 -0.019032214
0002c0 fd e3 01 3d d7 a2 27 bd 40 48 85 bc 33 d5 f9 3d
       0.031711567 -0.04092678 -0.016269803 0.12198868
0002d0 c6 ab bf bd ca 08 99 bd 29 e2 af bd 5d 2a 3d be
       -0.09358935 -0.074723795 -0.085880585 -0.18473192
0002e0 da 43 16 3e 4c 36 ab bd 00 8c 11 3d 9b 08 08 3e
       0.14674321 -0.08359966 0.035533905 0.13284533
0002f0 42 bf 91 3d 64 ce af bf 7d 49 73 3c 56 5c 4d 3d
       0.07116558 -1.373486 0.014849064 0.050136887
000300 d4 92 d9 bf 1e bb f1 3d 7b 82 e9 bd fa 2a 28 3e
       -1.6997933 0.11803268 -0.1140184 0.16422644
000310 26 32 92 bd 21 13 0a be 87 6f 67 3e 08 e6 1a 3e
       -0.07138471 -0.1348386 0.22601138 0.15126812
000320 58 15 79 bd bd 53 57 3e 36 e9 14 3e 79 5d 6a bd
       -0.06081137 0.21028037 0.14542088 -0.05721805
000330 82 c5 74 3d f8 31 17 bf 4a 0f 19 bd c3 7e 5c be
       0.05975867 -0.5906062 -0.037368096 -0.21532731
000340 4b 4b f7 3e 53 86 55 be 45 1f 35 3e 97 76 7d bd
       0.4829963 -0.20852022 0.1768771 -0.061880674
000350 a3 88 ac 3d c8 35 90 3e f1 cb c7 3d c0 df 13 be
       0.08424499 0.28166032 0.097556956 -0.14440823
000360 cd 14 ba 3b 26 1c d5 bd 2d 92 1e bd 05 29 42 be
       0.005678749 -0.104057595 -0.038713623 -0.1896096
000370 4e ac 86 3e 3c 37 51 be 5e 76 78 bd 47 dd d4 bd
       0.26303333 -0.20431226 -0.06065976 -0.10393768
000380 b1 26 fc 3c 5f 22 f7 3d 36 36 ca bc 11 41 2f 3c
       0.030780168 0.12067103 -0.024684053 0.010696665
000390 00 26 77 3d fe 5c 85 3d eb 4a 2f 3e 62 97 de 3d
       0.060338974 0.065118775 0.17118423 0.10868718
0003a0 2e df 63 3e d1 f2 4c bf f1 d0 ff bd 2c 58 03 c0
       0.22253105 -0.8005801 -0.12491024 -2.0522566
0003b0 1d ae cd bc 7c 9b 2e 3e 0d e5 09 3d 85 36 01 bf
       -0.025107438 0.170515 0.033665705 -0.50473815
0003c0 c6 9f 42 3d 89 d5 21 bd 28 c8 3e 3e f8 f1 83 be
       0.047515653 -0.039510284 0.18631041 -0.25770545
0003d0 cb 72 83 bc 04 ef 92 bd ca 9c 09 be d4 a0 4b be
       -0.016045948 -0.07174495 -0.13438717 -0.1988557
0003e0 5b b8 69 bd 28 e5 f3 3d 99 dd a5 3d e9 51 ae 3e
       -0.05706058 0.119089425 0.08098907 0.34046867
0003f0 2d 2e 0d 3e 15 af 20 bf b5 fb 0e be f0 cf 3a be
       0.13787146 -0.62767154 -0.13963206 -0.18243384

fc2.bias f4 [128]
000000 5d f4 04 3e b9 2a 96 3d 09 bb e7 3d f6 66 23 3c
       0.12983842 0.073323674 0.11314971 0.009973278
000010 65 54 43 bb 8e 30 f4 3d bf 7f d6 3e 21 ee f3 3d
       -0.0029804942 0.119233236 0.41894338 0.11910654
000020 71 09 8f bd a9 f7 d4 bd 1d e6 b0 bc 99 1e df bd
       -0.06984223 -0.103988 -0.021594102 -0.10894508
000030 0b 79 5b 3e fd 46 de 3d b6 1f 27 3e 2e 6b 70 3e
       0.21432893 0.10853384 0.1632069 0.23478386
000040 04 2d 9b bd 8e a3 d2 3b 9b 50 c0 3c 55 d7 73 3c
       -0.075769454 0.0064281886 0.023475936 0.014882882
000050 b0 b9 16 3e 38 20 00 be 87 03 8c 3c 47 b1 11 3e
       0.14719272 -0.1251229 0.017091526 0.14227782
000060 c1 01 9b 3e 09 f5 d1 3c 22 e2 05 3e 92 69 e8 3d
       0.30274776 0.025629537 0.13074544 0.11348261
000070 70 24 b3 3d ff fd 53 3e 8d cb 85 3d 35 ba 59 bd
       0.08747184 0.2070236 0.06532965 -0.053156096
000080 92 d7 bb 3b 94 dc ce 3d 59 16 08 3e 46 d3 8a 3d
       0.005732485 0.10100666 0.13289775 0.067785785
000090 5a e4 39 3e dc d5 ae 3e e7 f3 9e 3d c4 94 98 3d
       0.18153515 0.34147537 0.077613644 0.0745025
0000a0 90 bc a3 3d b5 fb 53 3e db 36 09 be b4 5e 05 3e
       0.0799495 0.20701487 -0.13399832 0.13024408
0000b0 32 f2 1e 3e 1d d2 9c 3d 86 91 00 be f6 27 eb bc
       0.15522078 0.076572634 -0.12555513 -0.028705578
0000c0 3a 25 3c 3d e1 8b fe bd 6d 49 04 3e b8 9f e4 bc
       0.04593394 -0.124290235 0.12918635 -0.027908191
0000d0 c9 9f 10 3e 92 a7 3c 3e 0f 3f c9 bd 85 be d8 3d
       0.14123453 0.18423298 -0.098264806 0.10583214
0000e0 45 e5 28 bd f4 25 65 3d e8 84 2d 3d 1a b9 63 3e
       -0.041234273 0.055944398 0.042363077 0.2223858
0000f0 63 50 b0 3d ca 69 18 3e f8 a8 13 3e 10 9e 8e bd
       0.086090825 0.14884105 0.14419925 -0.06963742
000100 6f cd 03 bb 2d b8 99 3d 79 37 36 3e 51 73 8b 3d
       -0.0020111462 0.07505832 0.17794599 0.06809104
000110 ee 1a 05 3e ab 03 4d bd d3 c3 8c 3d 2c 89 59 3c
       0.12998554 -0.050052326 0.06873288 0.013277333
000120 1b c9 d8 3d e3 51 17 be 29 cf 3d bd 7f 83 1b bd
       0.10585233 -0.14777331 -0.04634014 -0.0379672
000130 e2 c6 6e bd 53 8e ac 3e ba 1b 5a 3e 48 01 47 bd
       -0.05829514 0.33702335 0.2129964 -0.048585206
000140 07 d5 ab bd da 7b f3 3d 72 0c ec 3d a6 50 74 3d
       -0.08390241 0.11888857 0.11525811 0.059647225
000150 b3 20 e1 bd f7 0c 1f be 46 a8 8f 3d 28 6a 7b 3d
       -0.10992565 -0.1553229 0.070145175 0.061380535
000160 8e 44 ae 3d 66 64 10 3d 30 fd 62 3d 96 93 c2 bd
       0.085091695 0.035251997 0.05541724 -0.09500806
000170 29 d0 b8 3b 45 88 3e 3e e7 3e 00 3e d2 b9 81 3d
       0.005640049 0.1860667 0.12523995 0.063342705
000180 14 29 de 3c 7b c5 2d 3e 34 5f 44 bd a4 ef 1f 3b
       0.027119197 0.16969864 -0.047942355 0.0024404312
000190 53 3b 6b bd ce 4a 37 3e 81 63 f5 3c 84 19 2e 3e
       -0.057429623 0.1789963 0.029954674 0.17001921
0001a0 3b 6e 21 3d 34 75 dc 3d 3c a5 3a 3c c2 e9 1f 3e
       0.039411765 0.10764542 0.011391934 0.15616515
0001b0 14 79 27 bd 35 e7 4c 3e 6e 69 18 3e 4c bf 87 3e
       -0.040886953 0.20010073 0.14883968 0.26513135
0001c0 0e 93 25 3e 62 4f 0f bd 00 98 9d bd 69 42 c4 3d
       0.16169378 -0.034987815 -0.07695007 0.09582979
0001d0 3b b1 39 3d b2 40 a4 3d 69 f5 8e 3d d6 3e 9c 3d
       0.045335036 0.08020152 0.06980402 0.076291725
0001e0 a9 31 83 3b 90 0b 88 3c 3f b2 b8 3d 8f 07 c2 bd
       0.0040037227 0.016607076 0.09018373 -0.09474098
0001f0 e9 45 ef 3d 16 6b 20 bd e7 4f 1c 3d 89 83 97 3d
       0.11683256 -0.039164625 0.03816214 0.07398135

dist.fc_mean.weight f4 [2, 128]
000000 de 01 a4 be a3 cb 8f bc dc 5f 37 be ec 8c 0f 3e
       -0.32032675 -0.017553156 -0.17907661 0.14018601
000010 2f b9 36 3e a4 af e0 bc 00 dc 81 3e 0c 3c 96 3c
       0.1784408 -0.027427502 0.2536316 0.01833918
000020 29 a5 1f bd 0e 83 a2 3c d6 8b 76 3b 59 b7 3c 3c
       -0.03897587 0.019837882 0.003761997 0.011518323
000030 38 2a 4f be 63 91 7c 3c 8b cc 46 3d f4 0c ec 3d
       -0.20230949 0.015415522 0.04853491 0.11525908
000040 b7 86 80 be d2 f0 2b be ad e7 9e 3d 1e f3 5c 3a
       -0.2510278 -0.16791084 0.077590324 0.0008428561
000050 57 ac bb bb c8 34 4f bd 61 ed 3c bd 9c b8 11 bc
       -0.0057273316 -0.050587445 -0.04612482 -0.008894112
000060 ff 3e e1 3b be 56 1c 3c fa f7 ce bd a7 5d 9a bd
       0.006873965 0.009542165 -0.101058915 -0.07537394
000070 aa 07 fc bb e8 da 82 bd f0 cd 58 3d 27 dd 32 3c
       -0.0076913433 -0.06389409 0.052930772 0.010916985
000080 12 71 e6 3d 44 b4 97 3d ce 41 f9 bb ea 74 9e 3c
       0.11252035 0.0740743 -0.0076067215 0.019342858
000090 ef 77 a0 3c 84 1a 4a bd 5f 2e f3 3d 01 a5 01 3e
       0.019588439 -0.049341694 0.11874079 0.126606
0000a0 20 1f ac bc 80 f2 f0 3c 81 fa a8 3d c7 5f 95 3d
       -0.021010935 0.029412508 0.08250905 0.07293659
0000b0 55 4b 63 be b1 4a 7b bc 93 5b 1e 3e cd 3f b1 bd
       -0.22196706 -0.015337632 0.1546462 -0.08654747
0000c0 f5 83 cd bc ec 93 60 3c ed 04 d7 3b 27 16 b9 3b
       -0.025087336 0.013707142 0.0065618665 0.0056483927
0000d0 73 9c cd bc ce 70 00 3d 2b 6c c5 bb 20 1f ad 3c
       -0.025099015 0.03135758 -0.0060248575 0.021133006
0000e0 33 60 17 bd 43 3c 83 3c 43 e2 b7 3d 09 fb 10 3d
       -0.036956977 0.016019946 0.08978703 0.035395656
0000f0 06 b7 d4 3e 8e 69 6e be 98 00 d3 3d 2b c8 e9 3b
       0.41545886 -0.23282453 0.103028476 0.0071344576
000100 7c 47 33 3d 49 5a d3 bb 5e e7 df 3d f4 9f d0 bd
       0.043769345 -0.006449972 0.10932802 -0.10186759
000110 a0 71 e9 3d 51 9e f6 bd e0 8e 4f bd 65 a5 25 3c
       0.113986254 -0.12041915 -0.050673366 0.010110234
000120 5a ec 0e be 1b 4b 71 bd 5f fc 15 3d 72 b4 5c bd
       -0.13957348 -0.058909517 0.036617633 -0.053883024
000130 c0 49 31 3c e7 70 35 3e 7d 90 a4 bc 4a b8 86 3d
       0.010820806 0.1771885 -0.020088429 0.06578119
000140 8a 2a 61 3b 69 16 b7 3d 21 c8 89 bd 22 ed 2e bd
       0.003435763 0.08939821 -0.06727625 -0.042706616
000150 d3 c5 52 3c 12 9e 01 be 3b b1 0a 3d 79 15 84 3c
       0.012864548 -0.12657955 0.033860426 0.01612352
000160 bd 4c 49 3b d6 b7 87 bd 34 f1 22 bd 0d d2 11 3d
       0.0030715906 -0.06626861 -0.03978081 0.03560071
000170 bf ac 04 be ad 95 a1 3c 70 cd 77 bc e1 46 8a 3c
       -0.12956522 0.019724691 -0.015124664 0.0168795
000180 76 b1 fe bd a7 92 90 3d 9f 43 d3 bd 7b 21 db bc
       -0.12436192 0.07059222 -0.10315632 -0.026749363
000190 be cc 74 3d 94 ff ee 3d 37 a7 4c 3e ae 8a c7 3d
       0.05976557 0.116698414 0.19985662 0.09743248
0001a0 52 6d 35 bd a4 3b 88 39 b6 2a 20 3d 31 80 2a 3d
       -0.04429371 0.00025984377 0.039103232 0.04162616
0001b0 d6 3e 8a 3c 1f 8c a3 3e ec a9 82 3c 51 c5 43 3d
       0.016875666 0.3194284 0.015950166 0.047795597
0001c0 a4 e0 35 bd eb 2e b9 3c 95 a8 c0 3c 2d 19 bd bb
       -0.044403687 0.02260538 0.023517886 -0.0057708235
0001d0 32 47 15 bd 64 9a 1f 3e ca a5 b9 3e c7 b6 e8 bb
       -0.03644485 0.15586239 0.362593 -0.007101867
0001e0 bf 82 10 be 19 03 8c bc 8d 65 ad bc 27 05 5a bc
       -0.14112376 -0.01709132 -0.021166587 -0.0133068925
0001f0 25 c8 2d 3d 21 5c 9d ba 23 e7 5b be 7b 43 1f 3d
       0.0424272 -0.0012005606 -0.2147489 0.038882714
000200 77 2a 3e 3c 54 61 26 39 79 2b 1d ba 4e e6 cc bb
       0.011606804 0.00015867251 -0.00059955526 -0.0062530404
000210 1f cb 84 bb 98 19 66 3c a2 2d 90 3c 6e fd bf ba
       -0.0040525342 0.014044188 0.017599884 -0.0014647671
000220 6b 40 5d 3c 48 08 bb 3d ef 30 82 b8 61 2d 64 3c
       0.013504128 0.09132439 -6.207998e-05 0.013926835
000230 6e cd a5 bb 8b 4f 2c bb 60 81 15 3b af a6 c9 bc
       -0.0050598895 -0.0026292528 0.002281271 -0.024615614
000240 0a 08 1b bd 26 0a 83 bd ca b0 e1 bd 81 fc 5a 3b
       -0.037849464 -0.0639842 -0.11020048 0.0033414664
000250 9f 8e 59 3c d7 1e b3 3d 02 54 90 bd 2a 2d 16 bb
       0.013278632 0.087461166 -0.07047273 -0.0022915103
000260 38 36 a3 3c f9 e2 38 bd 7d 6c 7e ba 6b 1f 8a 3c
       0.019923314 -0.045138333 -0.0009705497 0.016860684
000270 1d 5f 04 39 9a 2b f7 3a 82 3a e5 bd e9 8b 31 bc
       0.00012623933 0.0018857599 -0.111928 -0.01083658
000280 9b 02 17 3b 11 11 d6 3d 19 da 5b 3b 1f fb 08 3f
       0.0023042324 0.10452474 0.0033546744 0.5350818
000290 4c a2 e8 bb 2d 05 8f ba 21 2e aa 3c 02 bd 04 bf
       -0.0070994254 -0.0010911577 0.02077395 -0.51850903
0002a0 94 7d a8 be de e5 2c 3b a4 e7 41 bb f0 0c a2 3e
       -0.32908309 0.0026382129 -0.0029587531 0.31650496
0002b0 58 c8 9a bb 26 c9 91 3c 1d 58 a2 b9 1e 53 4f 3e
       -0.00472359 0.01779611 -0.00030964697 0.2024655
0002c0 27 5b a7 b9 c1 c1 e2 bd ae 3e 05 3c 82 7d 9b 39
       -0.00031920636 -0.11072112 0.00813262 0.00029657414
0002d0 92 88 43 bb cc 76 97 3c a6 01 7d 3c 0d 36 43 bb
       -0.002983604 0.018489264 0.015442288 -0.0029786855
0002e0 e0 74 b6 bc b7 b7 43 3e f1 ff 83 be 2a f7 42 3d
       -0.022272527 0.1911305 -0.25781205 0.047598995
0002f0 fb ec 28 3d 90 54 e6 3d 96 f8 14 3e a0 c8 62 ba
       0.041241627 0.11246598 0.14547953 -0.0008651111
000300 00 66 e0 ba 57 8a 76 3c a2 5e 0e bd d4 de 84 3b
       -0.0017120242 0.015047631 -0.034758218 0.0040548835
000310 de 0f 4b be 48 1d ab 3c b9 01 81 3c 71 0c e9 bc
       -0.19830272 0.020887986 0.015747892 -0.028448315
000320 80 20 8e 3a 67 c0 34 3f 1f f8 c4 3d 40 eb c7 3a
       0.0010843426 0.7060608 0.09617638 0.0015252605
000330 d6 cf 59 3d 53 fb 2e 39 cd 75 86 bc 88 f5 24 3d
       0.053176723 0.00016687559 -0.016413594 0.04027322
000340 d3 56 04 3c 7f 5c 80 3d ed 99 f6 b7 79 70 16 3c
       0.008077341 0.06267642 -2.9397163e-05 0.009182089
000350 c6 6e 65 3b 97 58 8a 3b 7d 9c 7a 3b 13 d1 15 bd
       0.0035008653 0.0042219865 0.0038240247 -0.03657634
000360 ac 32 45 bc 11 a8 b6 bc e0 4a ca 3b 6d 99 35 bc
       -0.012036007 -0.022296937 0.0061734766 -0.011083943
000370 64 84 08 3c 71 90 2a 3c 03 55 22 bb 7d cd ac be
       0.008332346 0.010410414 -0.002476991 -0.33750525
000380 8a 9e a8 3c 82 9c ad 3c 9f 71 8c bd 71 92 08 bc
       0.02058341 0.021192793 -0.06857609 -0.008335696
000390 11 a7 8e 3d a6 1e 99 3c 59 88 e9 39 79 2c c3 3c
       0.06965459 0.018691372 0.0004454281 0.023824917
0003a0 89 22 31 3b da 86 a7 3b ec 85 0b bc ae 96 c4 b9
       0.0027028641 0.005112511 -0.008515816 -0.00037496298
0003b0 7c 69 1b bd e8 91 d6 bb 75 84 10 3a fb cb fd bb
       -0.037942395 -0.006548155 0.00055129017 -0.0077452636
0003c0 58 61 0b bc d2 2b 8e bb 4b fc 45 bd e8 b4 2c bb
       -0.008507095 -0.00433872 -0.04833631 -0.0026352946
0003d0 b5 62 b6 bd 7a 09 a2 3a 89 f8 11 bc 24 27 f3 3b
       -0.089055456 0.0012362443 -0.008909353 0.0074204374
0003e0 ce a3 73 3a 68 06 96 bb 10 26 7a ba 1c f4 3a 3d
       0.0009294123 -0.0045784004 -0.0009542415 0.045642957
0003f0 c1 a9 83 bc 52 29 18 3d 6f 5e 63 be 63 95 6e 3b
       -0.016072156 0.03714878 -0.22203992 0.003640496

dist.fc_mean.bias f4 [2]
000000 10 c3 31 3e d6 7d bd 3a
       0.17359567 0.0014457058

dist.fc_logstd.weight f4 [2, 128]
000000 e0 4a 2a be 80 c9 42 bf 5b 1d 6a be 1c 0d 64 bd
       -0.16630125 -0.76088715 -0.2286276 -0.055676565
000010 e1 b0 00 3e f9 48 df bd 6a 37 db 3e ce 90 2f bf
       0.12567474 -0.1090259 0.42815715 -0.6858033
000020 0d b5 14 bf 15 a9 84 bc 52 8c 57 3e 58 1e a4 bd
       -0.5808876 -0.016193906 0.21049622 -0.080136
000030 dc 9f 90 bf 92 4e bf bf 2f 86 40 be 85 b4 5d bf
       -1.1298785 -1.4945853 -0.18801187 -0.86603576
000040 7f 86 52 be 72 d6 af bc 90 8f 2d be a1 7a d0 be
       -0.20559119 -0.02146456 -0.16949296 -0.40718558
000050 58 aa e0 be 84 95 a7 3e c3 c4 48 3c 07 6a b4 3d
       -0.43879962 0.3273126 0.012253943 0.088092856
000060 cc 9c 16 3f 6e a0 59 3e 55 72 9f be 62 53 6c be
       0.58833003 0.21252605 -0.31141916 -0.23078683
000070 38 5f 21 bf ff 0f 7b bf 69 5a 15 be 18 c0 f4 be
       -0.6303592 -0.98071283 -0.1458527 -0.47802806
000080 f8 b9 96 bb 8a d0 2c bf a5 73 a5 3d 98 87 10 3e
       -0.004599806 -0.67505705 0.08078698 0.14114225
000090 7f bb c7 3d 8f cd 35 40 d6 9d db 3d e5 ef 79 3f
       0.09752559 2.8406713 0.10723464 0.97631675
0000a0 3c 28 e6 3d 67 82 ad 3e c2 09 2c 3f 34 c2 c7 be
       0.11238143 0.33888552 0.6720239 -0.39015353
0000b0 7c 7d 20 bf 67 9f 43 be fd 3f cb bd 90 ff d2 bc
       -0.62691474 -0.19103776 -0.09924314 -0.025756627
0000c0 c2 69 35 bf 15 a0 7a 3c 9e e4 fb be 88 3c 87 3e
       -0.708645 0.015296956 -0.4919786 0.2641337
0000d0 8e 7d 02 bf 26 79 d3 bf 1c 1f 7c 3d c6 13 9e bf
       -0.5097283 -1.6521347 0.061553106 -1.2349784
0000e0 ae 8c 82 bf db 48 a7 be 17 20 a4 be e9 4b 4a bf
       -1.0199182 -0.32672772 -0.32055733 -0.7902208
0000f0 61 aa c2 be 69 38 65 be d5 06 c6 be cd 1c 79 bc
       -0.38020614 -0.223848 -0.38677087 -0.015204621
000100 ba 57 fe 3c 37 7c 55 bf ae 91 d4 bd 6d c8 4e be
       0.03104769 -0.8339266 -0.10379349 -0.20193644
000110 ec 53 bd bd 61 71 56 bd aa cb 10 3e ac e0 bb bd
       -0.092445225 -0.05235422 0.14140192 -0.09173712
000120 67 78 9c bf 68 e5 0d bf c1 2a 9e bc 05 ad 0d 3d
       -1.2224244 -0.5542817 -0.019307496 0.034588832
000130 88 2f 8b be 6b e5 0a c0 2a 57 94 bf 5d 35 84 bb
       -0.271847 -2.1702526 -1.15891 -0.0040346817
000140 c0 c9 c6 be 8a 02 8c bf ed df bf bf 8b ba f8 be
       -0.38825798 -1.0938275 -1.4990212 -0.4857982
000150 b9 2a 26 3f 91 6a 38 3e a4 40 68 bf 95 af c5 bd
       0.6490894 0.18009402 -0.90723634 -0.0965263
000160 c4 7e 09 3e 70 58 14 3e bc 8d 92 bf 9e 86 3b bf
       0.13427263 0.14486861 -1.1449504 -0.73252285
000170 1f 3e ac bc 28 bb e9 3e 56 25 b4 bf 8f 7f 00 be
       -0.021025715 0.456506 -1.4073894 -0.1254866
000180 2f fa 93 3e 08 d9 d1 3e d6 a3 01 bf d2 3c ee bd
       0.28901812 0.40985894 -0.5064062 -0.11632694
000190 81 4b 9b 3e 4a 41 be 3e 6c ad 24 bd d9 66 24 bf
       0.30331042 0.37159187 -0.04020445 -0.64219433
0001a0 f8 48 a6 3d 66 3e 83 3e 6b 72 f9 bd f7 02 72 bf
       0.081193864 0.25633544 -0.121800266 -0.94535774
0001b0 94 08 30 be 1c d7 7f bf 71 97 eb be bd 67 12 3f
       -0.17190772 -0.99937606 -0.46013978 0.5718954
0001c0 15 a6 c0 bf 2e 76 e2 bf 1d 65 9b bd ae 11 82 bf
       -1.5050684 -1.7692316 -0.07587645 -1.0161645
0001d0 ba ff 71 be 64 dc 32 3f 6b 8d 29 bf 26 bd 7a bf
       -0.23632708 0.6986754 -0.6623141 -0.9794487
0001e0 94 d5 ea bd 4a 7f 94 3f e6 ac ca bd b0 e8 5d bd
       -0.11466518 1.1601346 -0.09896259 -0.054176986
0001f0 79 b7 40 3e f1 06 07 be ce 4c b6 bf 13 1a e9 be
       0.1881999 -0.13186242 -1.4242189 -0.45527706
000200 2f 7b 85 be 6c 9f d4 be db 78 af 3d e9 93 4c 3e
       -0.26070544 -0.4152788 0.08567973 0.19978298
000210 0b 80 97 3e 79 ba 8b be 7a 7c f9 3d 43 a2 24 be
       0.29589877 -0.27290705 0.12181945 -0.16077523
000220 60 ea 1a bf 4a 6b 96 bc d9 96 94 bf 4a ed f2 be
       -0.6051388 -0.018361706 -1.1608535 -0.47446662
000230 46 5a 34 bc 6d ba 1d bf ab 5c 8a be 0d b1 59 be
       -0.011007851 -0.6161259 -0.27023825 -0.21258946
000240 56 a9 a9 be 55 38 b2 bc 7e bd a2 bc 56 44 42 bf
       -0.33137006 -0.021755377 -0.019865748 -0.7588552
000250 c2 6f a3 be 99 64 88 bf 51 4f 4a bd f4 da a2 bf
       -0.31921202 -1.06557 -0.04939205 -1.2723069
000260 fe d8 14 40 9f bc f8 be ae 0c a7 bf ee 81 b7 3d
       2.3257442 -0.48581406 -1.3050745 0.08960329
000270 9f b8 da be ec bd f6 bf ea 73 f2 3d 21 ea 84 3e
       -0.4271898 -1.927671 0.11838515 0.25959876
000280 f1 31 e2 be 28 c1 e8 3c 1e e4 99 bf 2f da 9a bf
       -0.44178727 0.028412417 -1.2022741 -1.2097834
000290 94 ac b9 be 34 38 e2 be 05 7d 29 be 6e 6b b4 3e
       -0.3626448 -0.44183505 -0.16551597 0.35238212
0002a0 bb 47 90 3e e6 55 78 bf dd 5a 72 bf 54 78 d2 3e
       0.28179726 -0.9700607 -0.94669896 0.41107428
0002b0 38 ec 01 be be 27 9f bc 81 a4 11 bf 14 a4 7a be
       -0.12687767 -0.01942813 -0.5689164 -0.24476653
0002c0 9e d9 aa bf 2b ef 72 bd 1d 2c 96 bf e5 a9 10 bc
       -1.3347661 -0.05931012 -1.1732212 -0.0088295685
0002d0 24 fa 06 c0 39 5c d9 bf 1e 29 a8 bd da 8a 05 3f
       -2.1090174 -1.6981269 -0.082109675 0.52164996
0002e0 c6 c6 25 bf 87 fd 99 bd 94 34 14 bf cb 23 bc ba
       -0.6475643 -0.0751906 -0.5789273 -0.0014353929
0002f0 6e 50 8a 3e 3e 45 85 3e 0c f7 90 3e c7 a0 59 bf
       0.27014488 0.2602939 0.28313482 -0.8501095
000300 f0 24 0b 3d 6e 7e 8b bf d4 81 e0 3d f7 8b 48 be
       0.033970773 -1.0897958 0.10962263 -0.19584642
000310 de 67 e7 be 48 10 07 3d 1d 2d f5 bf d2 c5 fe b9
       -0.45196432 0.03297451 -1.9154392 -0.00048594043
000320 d5 b5 b2 bf 17 84 4d 3f 41 1c ca bc 58 7c f7 bd
       -1.3961741 0.8027968 -0.024671676 -0.120842636
000330 e2 33 7f bd 57 d2 46 be de b2 02 be 2e d2 bf bb
       -0.06230534 -0.19416176 -0.12763545 -0.005853913
000340 1d 48 46 bf 3a 3e 98 bf 90 a0 46 bf bc d4 92 bf
       -0.77453786 -1.189399 -0.7758875 -1.1471171
000350 43 bf cb bf 9b 36 14 be 30 02 4e bf b9 28 02 3e
       -1.5917743 -0.14473955 -0.8047209 0.12710847
000360 f5 e6 56 3f 7c 6e d9 3e af 07 cc be d5 a9 69 bf
       0.8394616 0.42467105 -0.39849612 -0.9127477
000370 82 c9 0c bf 11 2b 0e 3e 33 71 6f bf 9f e2 2f 3e
       -0.54994977 0.13883616 -0.93532103 0.17176293
000380 99 28 ca bd b4 18 c1 3d ac 96 d7 be 0f de 89 3b
       -0.09871025 0.0942854 -0.4210714 0.0042073797
000390 c7 2e 3c 3e fa 31 67 3f b3 08 c8 bd db c9 ba be
       0.18377219 0.90310633 -0.09767284 -0.36482129
0003a0 03 fb 17 bf c2 67 10 bf 19 eb 8e bd c6 8d 87 bf
       -0.5936739 -0.5640832 -0.06978435 -1.0590141
0003b0 15 1d 6f be 58 9c c6 be e6 8a 96 bf aa d9 77 bc
       -0.23350938 -0.38791156 -1.1761138 -0.015127579
0003c0 b1 4d be 3e 87 f7 3c bf 60 15 69 bd 68 dc 8c bf
       0.3716865 -0.73815197 -0.05690515 -1.1004763
0003d0 71 f1 24 3e 24 51 66 be b1 2d b4 bf 10 cf 8e bf
       0.16107728 -0.2249189 -1.4076444 -1.115694
0003e0 79 dd b3 3d 4d 5f f8 be 33 cc b3 bf 93 05 32 bd
       0.08782477 -0.4851021 -1.4046692 -0.043462347
0003f0 be 23 f3 bd e1 16 f9 bd 29 62 38 3f 6f 69 ab bd
       -0.11872052 -0.12162567 0.7202478 -0.08369719

dist.fc_logstd.bias f4 [2]
000000 88 25 8c bd a5 51 06 bd
       -0.06843096 -0.032792706

exp_avg f4 [128, 9]
000000 d5 91 ca bd 5b a3 b2 bd 1b 43 0e be ba cd d2 bd
       -0.098910965 -0.08722564 -0.13892786 -0.102931455
000010 da 71 d0 3c 36 48 a9 bb 67 95 af bb f1 d3 41 bc
       0.025444914 -0.005166079 -0.0053583863 -0.011830316
000020 fe d9 c7 bc b2 a0 f5 3b 77 9f 74 3c 84 2f b6 3d
       -0.024395939 0.007495963 0.0149305975 0.08895782
000030 b1 fa 86 3c 29 c9 5f bc 6a 38 55 bc c5 e4 33 bd
       0.01647696 -0.0136588 -0.013013938 -0.043919344
000040 82 12 32 bc 4b 89 82 3d ee 56 2a be 1d e7 31 bd
       -0.01086867 0.06373843 -0.16634724 -0.043433297
000050 1f dc 9e 3d 19 65 21 be 89 87 63 be 2b d6 e6 3d
       0.077568285 -0.15761222 -0.22219671 0.11271318
000060 e8 ae 64 3f 79 51 d0 3c e7 79 9c bd a1 68 36 3e
       0.89329386 0.025429474 -0.076404385 0.1781335
000070 c4 3a 14 3e 60 fd 46 3e e8 85 9d bd bf 42 45 bc
       0.14475542 0.19432592 -0.07691556 -0.012039839
000080 06 9c 8b 3d 58 9b f6 3c d3 42 d2 3c 61 57 50 3e
       0.068168685 0.03010337 0.02566663 0.20345832
000090 06 d2 47 bc 89 ae d5 bd da 92 35 bc 48 28 8e bd
       -0.01219607 -0.104336806 -0.011082375 -0.06941277
0000a0 dc e2 2c 3d 62 11 7c 3d ac 4c 4d bb 7a 9e 54 bb
       0.042208537 0.061540015 -0.0031326218 -0.0032443092
0000b0 c1 58 96 bd 5c 6b 7a be c5 fc 91 3d 12 86 c4 be
       -0.07341147 -0.24455017 0.0712829 -0.38383538
0000c0 2a 5f 33 be 17 85 1f 3e fb 95 6f 3d 5b 0e db 3e
       -0.17516771 0.15578113 0.058492642 0.4278439
0000d0 6a 50 91 bc 67 0c 05 be f3 04 98 3d 64 e8 9d 3e
       -0.01773854 -0.12993012 0.07422819 0.30841362
0000e0 df 87 89 be c0 d1 f2 bd 79 12 be 3e ed 6b a6 3c
       -0.26861474 -0.11856413 0.3712347 0.020315135
0000f0 e7 c6 93 be fa 7a 53 3d 63 d2 8a be ba 3a 8d be
       -0.28862688 0.05163095 -0.27113637 -0.27583867
000100 02 ad 4b be 02 2f 0b be 47 8e 81 bc 02 76 59 be
       -0.19890216 -0.13592151 -0.015814913 -0.21236423
000110 15 61 23 3e e9 4c 7e 3f 34 39 a0 bc 73 c1 53 be
       0.15955003 0.99336106 -0.019558527 -0.20679264
000120 c9 ee 8e 3b fb 93 94 3d 1f 47 ca 3d 0c dc 5d 3e
       0.0043619615 0.072547875 0.098768465 0.21665972
000130 7d 2d be bd cc d2 4d 3c 5f 75 ae bc fe a8 9e bc
       -0.0928602 0.012562465 -0.021296201 -0.019367691
000140 fc 66 0c 3d dc 1d ae bd e6 d1 bc 3c 59 b9 69 be
       0.0342779 -0.08501789 0.023049306 -0.22824611
000150 85 99 22 3e 4c 2d 5c 3e 1a f8 76 3e 9f b4 c6 bb
       0.15878876 0.21501654 0.2411808 -0.006064012
000160 7c 66 ba bb a5 e5 bd be 75 af f1 3d be 15 fd 3c
       -0.0056884866 -0.37089267 0.11801044 0.030894157
000170 c0 d3 4d 3e 33 0d 4e be 2e ed 8b bd 58 66 19 3d
       0.20100307 -0.20122223 -0.06832348 0.03745112
000180 18 b9 22 bd d2 5b 32 3c b8 2a b9 3d 0b b1 38 be
       -0.0397273 0.0108861495 0.09041351 -0.18036287
000190 6b be cc bd 0b f1 a1 3d 24 e5 4c 3e 3c 38 48 be
       -0.09997257 0.079073034 0.20009285 -0.19552702
0001a0 24 a6 36 be 2d b4 0f ba 29 d5 b5 37 9b c7 05 3e
       -0.17836815 -0.00054818654 2.1676142e-05 0.13064425
0001b0 e3 5c be bc f2 78 6c 3e 05 b3 b4 bd fa 36 87 be
       -0.023237651 0.23093012 -0.08823208 -0.2640913
0001c0 13 f6 de 3d c1 01 3f be b8 69 93 be 3b da 3e 3d
       0.10886779 -0.18653013 -0.28791595 0.04659484
0001d0 52 05 4b bd 1e 73 a5 3e 72 1e bf 3e 17 ce 69 3f
       -0.04956562 0.3231439 0.37327915 0.91330093
0001e0 9f 5f ae be db 51 ef be 5e 3a 83 be d2 38 ae 3d
       -0.34057328 -0.46742138 -0.25630468 0.08506931
0001f0 8e 4e 9b 3d 79 b9 33 3f 70 b9 19 3d a1 d9 c9 3c
       0.075833425 0.70204884 0.037530363 0.024639906
000200 ee 60 c3 bd 17 f7 8d 3d 35 1c 96 3d 12 ba 56 3d
       -0.09539972 0.06931894 0.07329599 0.052423544
000210 da d0 1c bc 8f ef 71 bc 27 a2 08 bd 71 28 d8 3d
       -0.0095712785 -0.014766588 -0.033357766 0.105545886
000220 4d 6e bb 3d ae a8 e7 3d e7 66 28 3c 5f f1 31 bd
       0.091518976 0.1131147 0.01027844 -0.04344308
000230 b0 73 a4 bc 38 82 c0 bd 73 06 cf 3b 9f 06 9f 3d
       -0.020074695 -0.09399837 0.0063179075 0.07764935
000240 5a 00 8b bd f8 ed 15 be 1d 6a 42 bd f3 ec 0b be
       -0.067871764 -0.14641559 -0.04746448 -0.13664608
000250 1d 6e 78 3d f2 58 d2 bc 2a 94 80 ba 3e 8e df bb
       0.060651887 -0.025677178 -0.0009809781 -0.0068223765
000260 6d 2c 14 be 47 8e 10 3e ce 23 12 bd 10 d9 0c bd
       -0.14470072 0.14116774 -0.035678677 -0.034386694
000270 72 0c 21 bb 21 6d 14 3e e8 38 8d 3e a5 5f a3 3c
       -0.0024574068 0.14494754 0.2758248 0.019943068
000280 24 8f 9b 3c 78 14 8f 3d 27 33 19 bd 9a 5c dc bd
       0.018989153 0.06986326 -0.0374023 -0.1075985
000290 1b 96 87 bc a6 e1 93 3d 88 01 e6 bd f4 d6 c1 3e
       -0.016551068 0.072207734 -0.11230761 0.3785931
0002a0 96 13 57 3f 62 f0 bb bd d8 69 86 3e 8f ac 10 bd
       0.8401426 -0.09176709 0.26252627 -0.035320815
0002b0 c1 ae c9 3d 4a 52 06 be e9 de 40 3e f6 d0 38 3d
       0.09847785 -0.13117328 0.18835033 0.045121156
0002c0 82 44 83 bd 33 dd a6 3b a9 5c 59 3c b0 97 0c bd
       -0.06409551 0.005092287 0.013266721 -0.034324348
0002d0 46 f7 60 be e9 d3 98 bd 8b 5a 53 be 1d 21 76 3e
       -0.21969327 -0.07462294 -0.20640008 0.24036069
0002e0 3c 24 61 bd 75 92 ed 3d 40 bc 01 3f c0 0f 49 bb
       -0.054966196 0.116002 0.5067787 -0.0030679554
0002f0 35 0f 3f be ac 2b 52 3c 67 d2 91 bd a1 9e 2f be
       -0.18658145 0.012827795 -0.07120209 -0.17150356
000300 50 f1 c4 3d a1 db ed 3d c3 88 84 3d 38 1d d6 3c
       0.09616339 0.116141565 0.06471398 0.02613698
000310 60 19 f8 3c fc 4b 6e be 87 46 21 be 44 d3 90 3e
       0.030285537 -0.23271173 -0.1574956 0.28286183
000320 41 e9 a4 bd fb e5 d1 3d 52 9f 15 bd 5e b8 fc bd
       -0.08052302 0.102489434 -0.036528893 -0.12339853
000330 b6 2f 94 bd 2c c2 99 bd b1 2d 6d be f5 16 15 3e
       -0.07235663 -0.075077385 -0.23161961 0.14559539
000340 0c 72 b8 3d 40 35 07 be 0f 16 3d bc 25 39 2e 3e
       0.09006128 -0.13203907 -0.011540904 0.17013986
000350 7d a9 19 3e 2e 1f 8b bd 8f 08 86 bd 36 f9 0d be
       0.15006061 -0.067930564 -0.06544601 -0.13864598
000360 9f f9 68 3d 5f 7c 8b 3d 09 d7 28 3e a5 8b 70 be
       0.056878682 0.06810831 0.1648828 -0.2349077
000370 ec 73 fe bd 04 2d 43 bd 2e 24 53 be 61 03 d4 bc
       -0.12424454 -0.047650352 -0.2061927 -0.025880517
000380 34 a3 0b ba ea ac c6 bc 6d f6 b6 be fe 2a 1d 3e
       -0.00053267484 -0.024252374 -0.35734883 0.15348431
000390 40 24 86 3d 8b a4 c2 bd 40 8d 8a 3e 11 f5 2c 3f
       0.06549883 -0.0950404 0.2706089 0.6756144
0003a0 9d dd cb bc 62 fd 7b bd bf db 91 3e 90 8a 48 3e
       -0.024885947 -0.06152094 0.28487965 0.19584107
0003b0 97 12 9f 3d 82 11 62 bd a9 6a 96 3e 6d 93 07 bc
       0.077672176 -0.055192478 0.2937825 -0.008274895
0003c0 cc f6 78 bf c1 a6 f9 ba 81 bc 9e bd c6 3b e6 3d
       -0.9725158 -0.0019046889 -0.07750798 0.1124187
0003d0 1b 36 86 3c 13 b2 94 bd 63 84 09 bc 87 cd 08 3e
       0.016383221 -0.072605275 -0.00839338 0.13359652
0003e0 4d c4 60 3e 7b 20 b2 bb a5 de ae bb 6b 8c 30 3d
       0.21949883 -0.005436001 -0.0053366 0.043102663
0003f0 07 39 8c 3d 24 b2 8b bd 0f be 49 3d 14 08 3d 3e
       0.068468146 -0.06821087 0.04925352 0.18460113

exp_avg_sq f4 [128, 9]
000000 07 c3 14 3f ff 9c f6 3e 8d 5d 75 3f b5 bf 34 3f
       0.5811009 0.48166654 0.9584587 0.7060502
000010 d6 78 29 3f 25 99 c1 3e 5d 86 a2 3c 44 7e 25 3d
       0.66200006 0.37812153 0.01983946 0.04040362
000020 c9 90 35 3f 23 22 dc 3d 22 3a 3e 3e 93 4d 05 3e
       0.7092405 0.107486986 0.18576863 0.13017873
000030 47 ea 22 3e fa 7c ca 3d 8c d1 8a 3d 81 d0 11 3c
       0.15909682 0.09887119 0.06778249 0.008899809
000040 c2 ea 45 3c 36 5f cf 3e ac c9 a5 3e 9f c9 1c 3f
       0.012079896 0.40502328 0.32380426 0.6124515
000050 e7 08 9d 3e 41 8a f8 3e fe b9 97 3e 8f fb 72 3f
       0.30670854 0.4854298 0.29634088 0.949151
000060 7a b8 96 40 50 b8 d4 3c 95 4c e7 3e 2a 44 cc 3e
       4.710019 0.025966793 0.45175615 0.39895755
000070 48 4c 74 3e 29 2e 9e 3e 64 27 84 3e 68 4d 7f 3e
       0.23857224 0.30894592 0.25811303 0.24931872
000080 6c 43 81 3e eb a4 0b 3c f1 3f 17 3c 25 be 83 3e
       0.2524675 0.008523206 0.009231553 0.25731006
000090 33 f1 1c 3e e8 0c 9e 3e 2a 5c 5d 3e 77 18 76 3e
       0.15326385 0.30869222 0.21617189 0.2403277
0000a0 71 20 20 3e 93 23 41 3e 8a 33 07 3c cc 08 ea 3b
       0.15637375 0.18861227 0.008252034 0.007142162
0000b0 db 89 91 3e 49 b6 91 3e e2 68 3f 3f 75 d8 be 3e
       0.28425488 0.28459385 0.74769413 0.3727452
0000c0 fa 75 c5 3e a0 be 99 3e c5 81 03 3f 5a a6 a9 3f
       0.3856657 0.30028248 0.5136989 1.3253891
0000d0 b4 87 2c 3d 57 ad 51 3f fb f2 f2 3e 2a 6b 00 3f
       0.042121604 0.8190512 0.47451004 0.5016352
0000e0 18 b2 c6 3e 43 88 da 3e 0b 2d a7 3e 73 67 e3 3e
       0.3880775 0.42682084 0.32651553 0.44414863
0000f0 28 2a 49 3f a1 a6 ee 3c aa 6e 55 3f b7 d6 02 3f
       0.7857995 0.02913219 0.83371985 0.5110888
000100 d4 e0 27 40 aa 5b 49 3f 9d 38 bb 3f 8f 54 91 3e
       2.6230974 0.78655493 1.4626652 0.28384826
000110 eb 1f a5 3f f5 ed cb 40 08 95 60 3d 4e 19 f5 3f
       1.2900366 6.3727975 0.054829627 1.9148347
000120 d3 70 76 3e 61 b6 98 3e 21 42 8b 3e c2 b6 16 3e
       0.24066477 0.29826644 0.2719889 0.14718154
000130 bf c9 2e 3e be d9 6f 3e 62 91 1f 3c 24 21 03 3c
       0.17069148 0.23422906 0.009739252 0.008003507
000140 27 63 cb 3e 14 4c ae 3e d5 46 7d 3f 49 4c d7 3e
       0.39724085 0.34042418 0.98936206 0.42050388
000150 f3 93 0a 3f a0 ec 0c 3f 52 8b e8 3e 56 68 bb 3c
       0.54132 0.5504856 0.45418793 0.0228769
000160 a6 94 37 3d b1 09 b4 3f e4 5f 02 3e a8 71 64 3e
       0.044819497 1.4065458 0.12731892 0.22308981
000170 ec 53 28 3e bf ff 64 3e 6a 1a d7 3d d8 82 1b 3e
       0.16438264 0.22363184 0.10503085 0.15186632
000180 e3 06 00 3d 35 f2 91 3c 51 6e 5d 3e c4 1f db 3e
       0.031256568 0.017815689 0.21624114 0.42797673
000190 0f 79 f7 3e 49 ba 24 3f da 35 05 3f 88 f8 b9 3e
       0.48334548 0.6434675 0.52035296 0.36322427
0001a0 65 f3 b6 3e 28 3f d2 3c f2 ce c8 3c 7e 12 8b 3f
       0.3573257 0.02566488 0.024512742 1.0865018
0001b0 eb 36 e6 3e 71 e9 37 3f 49 73 08 3f 70 43 f2 3e
       0.44963774 0.7184058 0.5330091 0.47317076
0001c0 a5 17 02 3e 2d f0 e9 3e 6a 90 4d 3f 33 e6 ca 3c
       0.12704332 0.45691052 0.80298483 0.02476797
0001d0 26 3f 56 3f 50 91 0a 3e 1c 80 db 3e dd aa b6 3e
       0.83690107 0.13531995 0.42871177 0.35677233
0001e0 aa 03 9a 3e d8 ef 4b 3e 68 32 07 3e f2 49 5c 3c
       0.3008092 0.19915712 0.13202822 0.013445364
0001f0 e4 e5 22 3c c0 85 27 3f 4c f2 43 3e 9e fd 2e 3e
       0.0099425055 0.6543846 0.19135398 0.17088935
000200 74 8b 3c 3e 55 cc 4e 3e 5b 74 2c 3e 88 1d 05 3e
       0.18412572 0.20195134 0.16841261 0.12999547
000210 f9 9f b7 3b c7 75 42 3c ce 59 89 3e ed 78 e0 3d
       0.005603787 0.011868901 0.26826328 0.10960565
000220 8f 14 1f 3e 8d 1a ec 3d b6 7f 01 3e 76 9a a3 3d
       0.15535186 0.11528502 0.12646374 0.079884455
000230 e5 fa eb 3d 3c 3a 9a 3d 5e 6f 05 3c 1f ca 90 3e
       0.11522464 0.075306386 0.008144228 0.28279206
000240 48 7b a2 3e d4 ba 30 3f 0c ea 34 3f cd 76 fd 3e
       0.3173468 0.6903508 0.7066963 0.495047
000250 ad 5b 03 3e e9 ea 28 3e 1d 37 ef 3c 0a 81 e5 3c
       0.1282794 0.16495861 0.029201085 0.028015632
000260 e3 eb a7 3f f0 5a 12 3e 97 a6 01 3f 55 50 5b 3e
       1.3118862 0.14292502 0.5064482 0.21417363
000270 4d a6 88 3e dd ac 00 3e 96 73 53 3e c2 52 3f 3c
       0.26689377 0.12565942 0.20649561 0.011677446
000280 df 17 2f 3c ed 9d bf 3e 61 02 d3 3e c5 c1 5e 3f
       0.010686844 0.37425175 0.41212752 0.8701442
000290 a4 af 05 3f d6 3d d6 3e f1 6c 51 3e 22 91 5b 3f
       0.5222113 0.41844052 0.20451714 0.8576833
0002a0 7f d2 a6 40 04 bd 03 3d af ac 90 3f fa cd 91 3d
       5.2131953 0.03216268 1.1302699 0.07119365
0002b0 dd ce 5d 3d 11 f2 da 3d 28 05 86 3d 60 0b 91 3d
       0.05415236 0.10690702 0.06543952 0.07082248
0002c0 cb 77 68 3d dc 6d a0 3b 1e 53 cf 3b 12 b0 a6 3d
       0.05675487 0.0048959088 0.006327047 0.081390515
0002d0 de 72 11 3f ce 8a 32 3f c5 fc b8 3e bc 69 cb 3e
       0.568159 0.6974305 0.36130348 0.39729106
0002e0 47 54 a7 3e 2c 4e 30 3f cf 34 dc 3f 63 25 d2 3c
       0.32681486 0.6886928 1.7203616 0.025652593
0002f0 24 20 0f 3f 85 c0 4e 3e 93 a1 74 3f 1e 69 c8 3e
       0.5590842 0.20190628 0.9555904 0.39142698
000300 aa 03 da 3e c1 eb 13 3e 87 a7 02 3e 39 9f ee 3c
       0.4258092 0.14445402 0.12759219 0.029128658
000310 2f c8 e3 3c 99 f8 8d 3f e7 f9 85 3e e7 54 e7 3f
       0.027805416 1.1091491 0.26167223 1.8072785
000320 03 ed 38 3f 38 b7 37 3f 00 2c b9 3d be 48 12 3e
       0.7223665 0.71763945 0.090415955 0.14285561
000330 18 9b 35 3d c3 80 39 3d 15 54 9c 3f 0c 9e ce 3e
       0.044337362 0.045288812 1.221316 0.40354955
000340 b6 2e 04 40 e4 5f 45 3f 4f f0 ca 3f 6a 4e 7e 3e
       2.065351 0.7709944 1.5854586 0.248346
000350 22 ee 78 3e 4e 96 5e 3d 0e 6d 93 3d 19 e6 fe 3f
       0.2430959 0.05434256 0.07198535 1.991397
000360 e4 fc 0d 3e 0e 0a 38 3e 96 ee 20 3e ac 11 67 3e
       0.13866001 0.17972586 0.15716013 0.22565335
000370 4f 52 21 3e 8c 34 2e 3e be 4e 6e 3e ff cf 15 3c
       0.15754054 0.17012233 0.23272225 0.009143828
000380 6f 1a 44 3e f1 2a a0 3e 15 45 09 3f 5f 7a 90 3e
       0.19150709 0.31282762 0.53621036 0.28218362
000390 88 ab 92 3e d9 48 50 3e fd 16 28 3f 6e ed 49 40
       0.28646493 0.20340289 0.6566008 3.1551166
0003a0 ad a3 b7 3c 30 55 14 3f 67 16 5f 3f f6 44 46 3f
       0.022416914 0.57942486 0.8714356 0.77448976
0003b0 d8 8f ff 3e 38 f7 c6 3e 50 3a ea 3e 34 f0 e0 3f
       0.49914432 0.38860488 0.45747614 1.7573304
0003c0 cb e1 bf 40 5c 2e 43 3d 13 69 fc 3e a5 80 62 3e
       5.9963126 0.047651634 0.49298915 0.22119386
0003d0 d4 fe cc 3e 2f 4b 2e 3e 8d f1 5f 3e a5 1d 5c 3e
       0.40038168 0.17020868 0.21869488 0.21495683
0003e0 bd 37 8b 3e 8f 04 ff 3b 99 87 f4 3b dd 68 e1 3e
       0.27190962 0.007782526 0.0074624536 0.44025317
0003f0 62 fc 9e 3f df 56 75 3f e5 3d 7e 3f 11 71 58 3f
       1.2420771 0.9583568 0.99313194 0.84547526
