ppo/models/behavioral_cloning_agents_drone/bc11/ckpts/001742550.pt (torch_old, 351002 bytes, 26 tensors)

fc1.weight f4 [128, 15]
000000 50 45 2f be 2d 2e 20 3e a3 e3 97 bd c7 14 49 be
       -0.17116284 0.15642615 -0.07416465 -0.19636832
000010 ee 7b e3 bc 19 26 48 3e db e2 5c be 95 07 d1 3e
       -0.027769055 0.19545783 -0.21570913 0.40826097
000020 5e 30 bc be 71 33 07 3e e8 47 3f bc f3 f8 50 3e
       -0.3675565 0.13203217 -0.011674859 0.20407467
000030 0a 97 7c be c2 1a 2f be 69 17 75 3d 3a 13 3e 3e
       -0.24666992 -0.17100051 0.05983678 0.18562022
000040 ec 21 2c 3e f5 70 a8 3d ad 45 23 be a4 a6 cb be
       0.16809815 0.0822467 -0.15944548 -0.39775574
000050 e1 7f bb 3d 62 ed ab 3e 9c 37 96 bd 5e 38 61 3e
       0.0915525 0.33579546 -0.073348254 0.21994159
000060 7c e0 8c bd 12 76 87 3e f1 dd c9 3e a3 45 75 be
       -0.068787545 0.26457268 0.3942714 -0.23952346
000070 75 72 26 be c0 d2 97 bd c5 59 4e be 89 d0 3e 3e
       -0.162546 -0.07413244 -0.20151432 0.18634237
000080 40 1d 82 be c3 d2 41 be 87 ec 06 be fb 29 0b be
       -0.2541294 -0.18928055 -0.13176166 -0.13590233
000090 87 93 68 be c0 ac e5 bd ac 3a 4d 3d 4f 32 08 3d
       -0.22712527 -0.1121459 0.050104782 0.033251103
0000a0 a7 28 0a be f5 0e b3 bd 40 ed 32 3d 66 dd 76 be
       -0.1349207 -0.08743087 0.04368329 -0.24107894
0000b0 45 83 ab 3d eb cd 7f be 69 13 a6 3e aa ff 8d 3d
       0.08374647 -0.24980895 0.32436684 0.0693353
0000c0 7a 2e 2c be ab cf 32 be 8b 15 9b 3e 43 11 ee bc
       -0.16814604 -0.17462032 0.30289873 -0.029060965
0000d0 3c 9f 87 3e e3 e1 7b be 48 07 1f 3e a2 26 aa be
       0.26488674 -0.24597888 0.15530121 -0.332326
0000e0 e1 d5 0f 3e c7 fc 4c be bc 3f 37 be a8 10 dc 3d
       0.14046432 -0.20018302 -0.17895406 0.107453644
0000f0 73 1e 2f bd d3 bb 4a bd 78 7d b9 bd e1 56 b3 bd
       -0.042753648 -0.04949553 -0.090571344 -0.08756805
000100 21 fd 38 bc da 12 50 3c ea 8d 05 be 04 74 95 3e
       -0.011290819 0.012699807 -0.13042417 0.29190075
000110 8d 4e 62 be 73 65 66 3f f3 f7 23 bf e5 05 c1 3d
       -0.22100277 0.8999855 -0.64050215 0.094249524
000120 fc d1 cf 3d 9a 10 5b 3e 02 e0 1a 3e d6 ee 09 3e
       0.10147473 0.21393052 0.15124515 0.13470015
000130 35 f4 db bd b5 95 49 bd ff 8f 06 3e 20 eb 8a be
       -0.10739938 -0.049215037 0.13140868 -0.2713251
000140 1d ed 78 be 8f 9d f5 3c 52 99 ae 3e 81 1a bb be
       -0.24309202 0.029982356 0.3410135 -0.36543658
000150 5e dc cb bc a8 53 e8 bc 55 30 88 bd d0 0e f2 bd
       -0.024885353 -0.028360203 -0.066498436 -0.118192315
000160 98 59 cb 3d 61 0c 21 3d 85 68 75 3e 54 25 1d 3e
       0.09929198 0.039318446 0.23965652 0.15346271
000170 db 27 3e bd 0a 9e 11 3e 4b 15 9c be 76 41 30 3d
       -0.046424728 0.14220443 -0.30484995 0.04303118
000180 32 10 be 3e 0e af 55 bd 8b 0d 01 be 77 3a eb bd
       0.3712173 -0.0521689 -0.12602822 -0.11485761
000190 f6 5c 55 3e 57 be 7b 3d fa 90 e6 bd b6 16 85 bd
       0.20836243 0.06146082 -0.11258121 -0.064984724
0001a0 c1 c0 94 bd d6 1d 57 be 36 68 42 3d 2a 3a 8c be
       -0.072633274 -0.21007475 0.047462665 -0.27388126
0001b0 6b ef 06 bd 98 a6 6b 3e de 4b c5 bd 9f 34 46 3e
       -0.03294317 0.23012769 -0.09633611 0.19356011
0001c0 42 88 bc be 34 e0 5b bb 7e 42 a7 3e c5 54 71 bf
       -0.36822706 -0.0033550384 0.32667917 -0.94269973
0001d0 0a ec 0a be 40 e2 3e 3c 70 4d 1a 3d f5 74 d5 3b
       -0.13566604 0.011650622 0.037671506 0.0065141865
0001e0 0d f6 fd bd c4 bc fe 3d 18 65 76 be 54 34 10 be
       -0.12400446 0.12438348 -0.24062002 -0.14082462
0001f0 b3 5e c0 bc 94 11 28 be 0d a1 1c 3e f1 7a 29 bf
       -0.023482656 -0.16412956 0.15295811 -0.6620322
000200 57 7b cd bd c3 93 94 be 48 f1 0c bd 98 07 50 3e
       -0.10033291 -0.29018983 -0.03440979 0.20315397
000210 a6 3e 2c be 10 19 59 bc 00 ee 2a 3e b4 5b 8f 3d
       -0.16820773 -0.013250604 0.16692352 0.06999913
000220 18 38 aa bd 58 68 27 3c c1 66 40 3e b8 cf 8a 3c
       -0.0831148 0.010217749 0.18789198 0.016944751
000230 7f f8 27 3e 49 62 8a 3e 50 dc a2 3e 4b 77 84 be
       0.16403387 0.2702811 0.3180871 -0.25872263
000240 7c 32 79 bd de 68 95 bd 3a df 3c 3e 00 62 db ba
       -0.06083916 -0.072953925 0.18444529 -0.001673758
000250 ba 6a 03 be 35 a0 2b bc 76 43 05 bf 0f 31 56 be
       -0.12833682 -0.010475208 -0.5205606 -0.20917152
000260 3b 6f f7 be 3b 13 45 bd 1b 01 84 3e 2d 3b bd be
       -0.4832705 -0.048114043 0.25782093 -0.3695921
000270 4d ca 96 3e df 61 e9 be 83 e8 92 3e 61 f1 d0 be
       0.29451218 -0.45582482 0.28693017 -0.40809157
000280 ab 23 74 be a1 79 82 3c 64 41 6d be 0b 4a 64 be
       -0.23841731 0.015927138 -0.23169476 -0.2229387
000290 2a 6f 85 3e 89 a7 2c be 69 14 60 be 98 d4 85 3d
       0.26061374 -0.16860785 -0.21882786 0.0653469
0002a0 57 99 16 be 26 88 02 be d5 b4 3b 3e 4e 00 a0 bd
       -0.14706932 -0.12747249 0.183307 -0.07812558
0002b0 7e 58 f8 3d b2 99 a0 3e c9 f2 32 be f5 8d 8c 3e
       0.121262535 0.3136726 -0.17475428 0.27452055
0002c0 72 b3 02 3e 5a 0e ec bd c4 6c 53 3e f8 09 e3 bd
       0.12763765 -0.11526175 0.2064696 -0.11085886
0002d0 a8 f6 33 3e c8 34 ae 3d e6 ad 12 be 28 18 21 be
       0.1757456 0.08506161 -0.1432415 -0.15731871
0002e0 41 11 2f bd e7 46 0b 3d e7 63 22 be da 4e ad bd
       -0.042741064 0.034003165 -0.15858422 -0.08462305
0002f0 71 5e 22 bf 16 1d 15 3d dd 97 74 3d 86 39 56 3e
       -0.63425356 0.03640469 0.05971514 0.20920381
000300 bc 7f 3a be 20 ac 3c 3c cb 80 e8 3d 14 f1 b3 be
       -0.1821279 0.011515647 0.1135269 -0.35144866
000310 88 88 dd 3c d1 b2 94 3d db 78 8b be 00 1a 99 be
       0.027042642 0.07260669 -0.27240643 -0.2990265
000320 b6 02 08 3e 0b d6 15 3e 33 10 0c be e3 c0 f4 be
       0.13282284 0.14632432 -0.13678055 -0.4780341
000330 a2 e1 cf be 6b 0d 90 3e 7c ae 55 be c6 03 5f 3e
       -0.40601832 0.28135237 -0.20867342 0.21778783
000340 04 37 bf 3d 07 8e 9e bc 55 14 f5 bd 93 68 00 bd
       0.09336665 -0.019354833 -0.11966769 -0.03134973
000350 d9 b1 61 3d b5 af 25 be 60 5e b1 3e d0 f6 63 3e
       0.05510125 -0.16180308 0.34642315 0.2226212
000360 ed a8 ab be 79 34 86 be 5d 2a 4f 3e b3 df c9 bd
       -0.33527318 -0.26211908 0.20231004 -0.0985712
000370 7d 6a 01 3d f1 d0 0c 3f e0 04 bf 3d 00 8c ef 3b
       0.031595696 0.5500632 0.09327102 0.0073103905
000380 b3 b2 83 3d 8e 73 a7 3e 27 ab d8 be ef 3d 90 be
       0.064305685 0.3270535 -0.4231808 -0.28172252
000390 7c 21 8c be 5a 2e e8 be 1f da b6 bd 42 85 e7 3c
       -0.27369297 -0.45347863 -0.08928322 0.028261784
0003a0 b2 f4 d1 3e f2 b7 1e be 94 54 da 3e 59 af fd bd
       0.41007 -0.15499857 0.42642653 -0.123869605
0003b0 16 a4 90 3e 77 e6 3a be 74 1d e0 bd dc 2b 53 3e
       0.28250188 -0.18251978 -0.10943118 0.206222
0003c0 36 7b 43 3e 78 ab 56 3e 4d 26 e5 be d4 56 ad bd
       0.1908997 0.20963848 -0.44755784 -0.08463827
0003d0 ca 15 85 3d 14 75 f8 bc 85 8d bd 3e 70 f3 ff be
       0.064982966 -0.030329265 0.37022033 -0.49990416
0003e0 5d 46 82 be f1 82 83 be b8 92 94 be 1d 10 a7 3d
       -0.25444308 -0.25685838 -0.29018188 0.0815737
0003f0 3c a2 5a 3e 76 93 9a bd 87 b2 42 3c 9c 28 68 be
       0.2135095 -0.07547657 0.011883385 -0.22671741

fc1.bias f4 [128]
000000 e1 62 7b be 16 ce 0b be d8 be 94 be d4 60 1f bd
       -0.24549438 -0.13652834 -0.29051852 -0.038910702
000010 f7 df c3 3d 6c 8b 52 bc 92 73 33 be da 28 09 3e
       0.09564202 -0.012850624 -0.17524555 0.1339449
000020 47 41 dc 3c aa b4 38 be b3 f5 0b bf af a3 a5 be
       0.026886595 -0.18037668 -0.5467178 -0.32351443
000030 7c 53 8c be 56 28 38 3e 3d bc ea bd 49 de f3 bd
       -0.27407444 0.17984137 -0.11461685 -0.11907632
000040 f8 c2 66 bd 12 85 95 3b 5f e3 b9 be 54 24 57 be
       -0.05633828 0.0045629824 -0.36306283 -0.21009952
000050 3b 2f 7b be 7c 42 a2 bc 50 b7 9f be 83 d8 9e be
       -0.24529736 -0.019807093 -0.31194544 -0.3102456
000060 d1 25 32 be c0 38 42 3d 3e 10 22 bd bd 2a f1 bc
       -0.17397238 0.047417402 -0.03956627 -0.029439325
000070 7e 87 27 be 42 04 9b be f7 8f 8e bd 69 85 d8 bd
       -0.1636028 -0.30276686 -0.06961053 -0.10572321
000080 df b8 46 3d 86 2e 86 be 6a 39 5c be ca c1 d4 bd
       0.04851615 -0.2620737 -0.21506277 -0.10388525
000090 3d f9 7c 3d 22 b1 fd bd 94 aa ee bd 2f 88 ee bd
       0.06176113 -0.12387301 -0.11653629 -0.11647069
0000a0 00 bc 3a 3e b4 f4 25 be e5 5c 5c be 87 82 81 3d
       0.18235779 -0.16206628 -0.21519811 0.06323724
0000b0 4c 86 51 be 4e 8d 9c bd a3 f0 a0 be 5f ea fc bd
       -0.20461386 -0.07644139 -0.3143359 -0.1234939
0000c0 89 12 a1 be c1 19 92 be e1 ec d3 be 65 25 89 be
       -0.31459454 -0.28535274 -0.41391662 -0.26786342
0000d0 60 38 99 bd e1 f0 3c be 22 4b 85 be ab f0 f8 bd
       -0.07481456 -0.18451263 -0.26033884 -0.12155279
0000e0 d5 52 42 3c 13 e0 ac bc 39 23 1c bd c2 35 03 be
       0.011860569 -0.02110294 -0.03811953 -0.12813476
0000f0 a2 54 b8 be 5c 50 98 bd 3a 1e b9 bd a9 b5 1c be
       -0.3600207 -0.07437202 -0.090389684 -0.15303673
000100 a9 27 b3 39 df 9a a7 bd a2 46 3a 3d b8 e5 8b be
       0.0003417109 -0.08183836 0.045477517 -0.273237
000110 8d 42 ab bd 0c 1a 4e 3e 1f d6 b8 be 0d bc b8 be
       -0.08362303 0.20127124 -0.3610086 -0.3608097
000120 3c 76 b8 bd fe 40 19 be ce fe 1d be 96 8d 3d be
       -0.090069264 -0.14966199 -0.15429232 -0.18511042
000130 05 9e 99 3c ba ea 19 be 11 58 67 be 74 7f ea 3d
       0.018752107 -0.15030947 -0.22592188 0.11450091
000140 1b a1 8e bc ef 5e 5c bd 2b aa 09 be d3 12 fa bc
       -0.017410805 -0.053801473 -0.1344382 -0.030526554
000150 30 76 4b be b1 fb 93 be 6b c3 23 3d 20 e4 66 bc
       -0.19869304 -0.28902963 0.039981287 -0.014092475
000160 45 6b 88 be ec 4e 20 3e 86 52 b9 be 47 9e e2 3d
       -0.2664434 0.15655106 -0.36195773 0.11065345
000170 00 a1 a4 be af a7 a1 bd 49 36 29 3d f7 38 79 bd
       -0.32154083 -0.07893311 0.041311536 -0.06084534
000180 d5 ba 11 bc 13 83 1d bd a4 02 73 be 9a 4d 8a be
       -0.008894642 -0.03845508 -0.23731476 -0.2701233
000190 ab 3f 65 be 2d dc 73 be c5 8b 13 bd 09 6c b8 be
       -0.22387569 -0.23814459 -0.036021966 -0.36019924
0001a0 9d f1 35 be 96 ad 36 be dd 36 ac 3d 22 15 dd bd
       -0.1776795 -0.17839655 0.08408902 -0.107950464
0001b0 27 29 8a be 31 41 dd 3d 4a 73 29 be 66 05 1a 3e
       -0.26984522 0.1080345 -0.16547886 0.15041122
0001c0 db 22 63 be 99 f4 da bd 03 cc 14 be b1 2c 7d bd
       -0.22181265 -0.106911846 -0.1453095 -0.0618102
0001d0 96 af c8 3c e4 6e 2e be 15 a1 33 3e 7a bf df bd
       0.024497788 -0.17034489 0.17541917 -0.10925193
0001e0 fd d9 fd bd c8 93 3e be 2d 54 a6 bd 59 1d 8c 3e
       -0.123950936 -0.18611062 -0.08121524 0.2736614
0001f0 82 bd 38 3d 5c ae 11 bd d1 4e 0b 3e 54 25 0b bf
       0.045102604 -0.035566673 0.13604285 -0.54353833

fc2.weight f4 [128, 128]
000000 8e 4f 30 be 3b 7b 79 be 3c 3c c0 bd a2 5a 9f 3d
       -0.17217848 -0.24363415 -0.09386489 0.07780959
000010 7d d2 ac be df 16 9b 3d b1 40 72 bc b0 20 f0 3d
       -0.3375434 0.07572722 -0.014785931 0.11724985
000020 ee a3 bb 3d 0e 2b 34 be 6d 70 04 3e ff dd 0e be
       0.091621265 -0.17594549 0.12933512 -0.13951872
000030 c9 ae 0b be 73 f5 79 bd d4 76 c6 bd 40 5b 2a bf
       -0.13640894 -0.061025094 -0.096906334 -0.66545486
000040 6b 06 2f 3c f8 00 6d 3e a1 48 88 be 32 ed 5c 3e
       0.0106826825 0.23144901 -0.2661791 0.21574858
000050 ba 26 0b 3d 70 73 a3 be cc b8 61 3e f8 93 05 3c
       0.03397248 -0.3192401 0.2204315 0.008152954
000060 dc 9d 0b 3e b6 60 82 be 95 9e 4f 3d e2 b6 bc 3d
       0.13634437 -0.2546441 0.050688345 0.0921457
000070 f5 e9 ab be e9 27 93 3d 8e 1c e6 3d 3c 8b b1 bc
       -0.33576933 0.07185347 0.11235915 -0.021672837
000080 ec 9e 2b 3e 40 5d 1f be c0 8e c6 bd bf 2b 32 3e
       0.16759843 -0.15562916 -0.09695196 0.173995
000090 07 36 02 bf 98 ae ce bd d9 57 5b be cc 7d 1e be
       -0.5086369 -0.10091895 -0.2142023 -0.15477675
0000a0 2c 35 00 bd 13 f5 41 bf 83 c6 9b bd 6e 0d db be
       -0.03130071 -0.7576458 -0.076062225 -0.42783684
0000b0 09 56 02 3f 17 07 ca 3d 58 7a 02 bd 1a 4d d0 3e
       0.5091253 0.098646335 -0.031854957 0.40683824
0000c0 e0 46 6f 3e 47 e2 ae be 76 dd 8c be 49 1a 56 be
       0.2336688 -0.3415701 -0.2751271 -0.20908464
0000d0 19 af c3 be 0d 41 2a bf 09 13 3f be 79 7d 8c bd
       -0.38219526 -0.6650551 -0.18659605 -0.068598695
0000e0 46 c6 28 be 43 ca a2 3e 95 e5 01 3d 8e 67 76 be
       -0.16481885 0.31794938 0.031713087 -0.2406294
0000f0 d9 35 2f bf db 55 84 3e 1d 0a 06 bc 5d 6b 87 be
       -0.6844154 0.25846753 -0.008181122 -0.264491
000100 18 12 d8 bd 7d 33 ab 3d 70 3a f7 be 06 6d 15 bf
       -0.10550326 0.0835943 -0.48286772 -0.5836948
000110 ad 78 90 be 19 78 ef be fd 4a f2 3d 03 3f da be
       -0.28217068 -0.46771315 0.11830709 -0.426262
000120 9a cf a3 bd 52 b4 86 3d a5 63 07 bc 65 06 97 3d
       -0.07998581 0.06577362 -0.008263503 0.073742665
000130 ec 99 b2 be b1 b3 66 3d bd dd 14 bd 0e b2 60 3d
       -0.34883058 0.05632371 -0.03634428 0.054857306
000140 a5 5e 04 3e 94 d2 99 be 84 dd e9 3d e1 ae 5d 3e
       0.12926729 -0.3004347 0.11419204 0.21648742
000150 57 1b c8 3e 18 0c f9 bd 59 e2 8a be f7 22 30 be
       0.3908336 -0.1216051 -0.27125815 -0.17200838
000160 6d bb 69 3b aa 23 f8 bd 01 37 86 be da ea b0 be
       0.0035664693 -0.121161774 -0.2621384 -0.34554178
000170 9a 21 eb be 80 b4 da 3c 5a f0 e6 bc f5 02 87 3d
       -0.45924073 0.026697397 -0.02819078 0.06592361
000180 df 1e 12 be ed 7d 8b 3e 41 39 88 bd c2 c1 3a 3c
       -0.14269589 0.2724451 -0.06651545 0.0113987345
000190 1c 84 2a bf 4c af ee 3c e0 c1 6b be d8 86 87 be
       -0.6660783 0.029136322 -0.23023176 -0.26470065
0001a0 70 f2 dc 3d 6a 34 2f be a7 80 c2 bd a2 17 e4 3d
       0.10788429 -0.17109838 -0.09497195 0.1113732
0001b0 c4 c6 34 be 0f 67 25 bf d3 fb 90 3e d3 1a 0e bd
       -0.17653948 -0.6461038 0.28317127 -0.03469355
0001c0 08 af 55 bd 76 24 3f 3d c1 c5 db 3b ce 65 ea 3b
       -0.052168876 0.04666563 0.0067069237 0.0071532493
0001d0 80 f4 e2 be 25 ee 51 3e 3c 0e 3c 3b bc 75 a7 be
       -0.44327164 0.20501001 0.0028695008 -0.32707012
0001e0 5d 54 b5 bd ce 3e c8 3c e7 cc 07 bf c7 ac e7 3c
       -0.08853982 0.02444401 -0.5304703 0.028280629
0001f0 e1 ce 4d bc 25 8b be be 9e b2 bb be 21 f5 39 be
       -0.012561531 -0.37215534 -0.36659712 -0.18159916
000200 1c 55 1a bf 68 22 b6 3d 48 8f b8 bb 42 42 4a bd
       -0.60286117 0.08893281 -0.005632315 -0.049379595
000210 2d c8 1c bf e4 4f 67 bd 3a 2e 77 3c 9d 02 8c be
       -0.61242944 -0.056472674 0.015086705 -0.27345744
000220 97 20 7e bd f0 8c 7c be 0f 88 76 3e 01 fb 2b bd
       -0.0620428 -0.24663138 0.2407534 -0.041987423
000230 d6 9a e7 3e b5 56 e2 3c c2 ad 57 be d0 61 75 bf
       0.45235318 0.027629236 -0.21062377 -0.95852375
000240 ee fd ce 3e e1 c3 a3 3d fc 32 6b bf 3c ee ac 3d
       0.40428108 0.07996345 -0.9187467 0.08443877
000250 f7 82 95 3d 07 d0 2d 3e e7 9f af be 40 59 01 3d
       0.0730037 0.16973887 -0.34301683 0.031579256
000260 6d 6a 58 3e c6 8f 8f 3e ab 89 4c 3e 53 8a ff 3d
       0.21134348 0.28039378 0.19974391 0.12477555
000270 c3 65 d4 be 10 09 01 bd e6 39 fe 3d 67 8f 9c 3d
       -0.41483888 -0.031502783 0.12413387 0.07644539
000280 86 43 7b 3e b4 3a 0a bf c4 03 54 3d 06 ea b4 3e
       0.24537477 -0.53995824 0.051761404 0.35334796
000290 9a a9 33 be ce c0 d7 bd 36 31 08 ba fd ad e0 3c
       -0.17545167 -0.105348215 -0.0005195321 0.027426714
0002a0 24 9f dd bd ae b1 16 bf cb 92 c0 bf 6d 76 e5 bd
       -0.10821369 -0.5886487 -1.5044798 -0.112042286
0002b0 ba b5 ae be bc 03 cc 3e 61 c1 34 be 6d 11 f0 3d
       -0.3412302 0.398466 -0.17651893 0.11722074
0002c0 ec 0c ee 3e b3 89 13 be bd ff 9f 3d 65 a7 99 be
       0.46494234 -0.14407997 0.0781245 -0.30010524
0002d0 97 24 1e 3d 7e 92 89 3d 67 fa 78 bc 5b 02 c8 39
       0.038609114 0.06717394 -0.015196419 0.00038148728
0002e0 19 bd 08 be 1d 2d 83 be df a1 52 bf 3d 31 9e bc
       -0.13353385 -0.25620356 -0.82278246 -0.019310588
0002f0 ed 32 22 be fe 83 81 be 98 bc c9 3d a4 b1 d6 bd
       -0.15839739 -0.25296015 0.098504245 -0.10483101
000300 49 16 81 3e 61 a8 f2 bc e7 e5 10 3e 10 2c 39 3e
       0.25212315 -0.029621305 0.14150201 0.18083215
000310 a8 1a be 3d 7f c5 65 3e e8 82 e7 bc f3 91 e4 3e
       0.09282428 0.2243862 -0.028260663 0.446426
000320 de 03 d5 3c b5 3d 20 be 9e 85 a2 bc 15 79 b5 3e
       0.02600282 -0.1564854 -0.019839104 0.3544394
000330 cc e6 cd bd a1 d2 be 3b a9 a4 db 3c 3f 87 08 bb
       -0.10053787 0.0058234488 0.026811915 -0.0020832566
000340 5e 0a 63 3b 66 a8 bd bd 4e 7e 15 bd 0c d2 ef ba
       0.003464363 -0.09260635 -0.036497407 -0.0018296852
000350 d4 4a c3 3d c2 02 36 be 13 c3 3f 3e d2 c4 f0 bc
       0.09535757 -0.1777449 0.18726759 -0.029390726
000360 f4 56 4f 3e d6 db 1f be 86 81 dd 39 88 5c b3 3e
       0.20248014 -0.15611205 0.00042248907 0.35031533
000370 e1 54 1f bf e2 29 91 bd 0f 08 10 be de 9b f9 3d
       -0.6223889 -0.07088067 -0.14065574 0.121879324
000380 d1 2d 2e bd c2 24 25 3e 8e 64 b2 3d 87 35 4e be
       -0.042524163 0.16127303 0.087105855 -0.20137607
000390 54 94 23 bf c8 54 89 3e 6f d0 21 be 05 ae 7a 3e
       -0.63898206 0.26822495 -0.15802167 0.24480446
0003a0 27 b6 2d be 86 4e 25 3b 6a 64 27 be 0b b2 01 3e
       -0.16964017 0.0025223806 -0.16346899 0.12665574
0003b0 55 71 33 be 82 09 06 bf a0 01 a6 be 46 3c 49 be
       -0.17523701 -0.5235826 -0.32423115 -0.19651899
0003c0 b2 ef d0 be fd 03 d9 3e 67 73 97 3d 2d 66 8f bd
       -0.40807873 0.42385855 0.07395058 -0.0700191
0003d0 2f 05 01 be 60 e1 d0 bd 68 00 6c 3c e2 fd 29 be
       -0.12599634 -0.10199237 0.014404394 -0.16600755
0003e0 a6 05 67 39 bd 3f 7d 3e 7e 77 8d 3d 8e 97 96 bd
       0.00022031981 0.24731345 0.06907557 -0.073531255
0003f0 f9 7f b2 3d 25 d3 68 3e 08 3d a0 bd 03 59 68 bb
       0.08715815 0.22736795 -0.07824141 -0.0035453446

fc2.bias f4 [128]
000000 f4 6c c0 bd aa 04 21 be 12 fb 64 3d 13 e4 15 3e
       -0.09395781 -0.15724435 0.0559035 0.14637785
000010 d6 41 4e be 18 cf ec 3d f3 6b 0e be e3 c5 f4 bd
       -0.20142302 0.115629375 -0.13908367 -0.119518064
000020 bd e0 91 3d a2 3b 6c 3e 8c 02 81 be 9d 32 3d bd
       0.071229436 0.23069623 -0.25197256 -0.046190847
000030 2c b6 09 3e 62 52 16 3e 3f 1c 21 be f5 b6 b0 bc
       0.134484 0.14679864 -0.15733431 -0.021571616
000040 df 0e 81 bd db 78 91 bd ae d7 32 be 2c cd 58 3e
       -0.063016646 -0.071031295 -0.17465088 0.21172017
000050 b9 64 49 3d ad 17 b2 3d 43 5c e9 3d 31 2e a8 3d
       0.049168322 0.08695922 0.11394551 0.08211935
000060 9a 95 0a bd 27 f4 dc bd ff aa 1a 3e 3f 7f 99 be
       -0.033834077 -0.10788756 0.15104292 -0.29979894
000070 a0 d5 e7 bd 5d c2 99 bd ae 1f 03 3e 6c 68 47 bc
       -0.113200426 -0.07507775 0.12805054 -0.012170892
000080 c4 a3 1d be 1c d3 22 be 68 03 a7 3e 03 2c f3 3d
       -0.15394503 -0.15900844 0.32619786 0.11873629
000090 ad bd e7 bc b0 2a 1c 3e af 9d 9f 3d 4b a1 cc bd
       -0.028288687 0.15250659 0.07793748 -0.09991702
0000a0 7f 9c c8 bd cd 5a cc be eb 2b 06 3e ae 4f 9c 3d
       -0.09795474 -0.39913025 0.13102691 0.07632385
0000b0 e3 6b 29 be bb 0e 19 be 6a 30 bd 3d 0a ce b8 bd
       -0.16545062 -0.14947025 0.0923775 -0.09023674
0000c0 1c cd 0e be d6 aa 20 bd f0 50 a6 bd 60 4e 8d 3d
       -0.1394543 -0.03922542 -0.08120906 0.068997145
0000d0 55 f1 81 3e 4d 89 80 be b5 6f e9 be 88 44 9b bd
       0.25379434 -0.25104752 -0.45593038 -0.07581431
0000e0 91 9a 7f 3c 42 19 52 3c 45 9c e1 bd 95 07 d6 3d
       0.015600816 0.012823405 -0.11016134 0.10450665
0000f0 c3 2c 14 bb f4 65 0d 3e bb 07 b4 bc 0d bc 84 3e
       -0.0022609688 0.13808423 -0.021976342 0.2592472
000100 80 73 d3 3d 72 1c e9 bd dc d2 5e 3e b5 75 2d be
       0.10324764 -0.11382379 0.21760124 -0.16939433
000110 6d 51 ae bd c6 01 ad bd 1a ca 10 be c0 ee 9f 3d
       -0.085116245 -0.08447604 -0.14139596 0.0780921
000120 fd d1 98 bc 9f ba 67 3e 1c d0 2e 3e 77 e0 1f bd
       -0.018654818 0.22629784 0.17071575 -0.039032426
000130 34 d4 7c 3d fc c8 ea bd 2b 79 ed bd c4 ea 4b 3e
       0.06172581 -0.11464116 -0.115953766 0.19913775
000140 64 31 a9 bd b2 50 80 be 95 6b 71 3d b6 e8 70 be
       -0.08261374 -0.25061566 0.05894049 -0.23526272
000150 69 e0 fa bd 9e 08 12 be e3 42 ee 3e 62 aa 41 3c
       -0.12249834 -0.142611 0.46535406 0.011820408
000160 10 1e c2 be ae f7 c9 3d d7 51 d1 3d 2e de e1 3d
       -0.3791356 0.09861694 0.10220688 0.110287055
000170 18 d5 8b bd a3 55 34 be 8f 2c 0a 3e 65 ec f0 bc
       -0.06827754 -0.17610793 0.1349356 -0.029409597
000180 51 54 c8 bc 36 fb b8 bd 94 06 4c 3d b1 f0 88 3d
       -0.024454268 -0.0903229 0.04981096 0.06686533
000190 29 55 42 bc ac 13 6d be 41 4e e1 bd 91 d0 63 3e
       -0.011861124 -0.23152035 -0.11001254 0.2224753
0001a0 38 d7 98 bd 7d 58 34 3e 43 a2 87 be 31 18 d0 bd
       -0.07462925 0.1761188 -0.26490983 -0.10160864
0001b0 b0 8f 26 be 01 1c 47 bd ad 5a 60 bd 5c 6a 4f 3e
       -0.1626575 -0.04861069 -0.054773975 0.20255417
0001c0 f8 1a df bd 3f b2 e5 3c 75 c9 80 bd ec 11 5d 3e
       -0.10893816 0.028039096 -0.06288425 0.21588868
0001d0 e6 57 86 be b5 f4 87 bd d1 37 9e bd f3 7b e8 bd
       -0.26238936 -0.06638471 -0.0772549 -0.113517664
0001e0 5c 02 7a 3e bb c3 bd be 07 ea 51 be 91 ec 17 bd
       0.24414963 -0.37063393 -0.2049943 -0.03709084
0001f0 8c 08 20 3e 50 01 3b be f7 e9 9c 3e 95 e6 d8 3d
       0.1562826 -0.1826222 0.3064725 0.10590855

dist.fc_mean.weight f4 [4, 128]
000000 b0 bf 49 bd 85 16 d0 3b c8 3c fe 3c 65 5e 26 bb
       -0.049255073 0.006350341 0.031034842 -0.0025385853
000010 02 b9 46 3e e7 a0 5f bb c1 b0 88 be ba df f3 3c
       0.19406512 -0.0034123005 -0.26697353 0.029769767
000020 47 c6 ba 3d fc 58 06 3d a4 19 32 bd 20 f5 0f be
       0.0911985 0.032799706 -0.043481484 -0.14058352
000030 fa 5f 02 be 4a 61 02 bc 57 37 ac bc f3 a3 9a 3c
       -0.12731925 -0.007957766 -0.021022482 0.018877005
000040 17 df 5b bd 32 b6 07 bd 97 19 9b bd 23 43 53 3c
       -0.053679552 -0.03313274 -0.0757324 0.012894425
000050 c6 a6 6d bd 52 5e 99 bc 0c 10 d4 ba 78 69 94 bd
       -0.058020376 -0.018721733 -0.0016179099 -0.07246679
000060 9c e2 b7 bd 7c 26 c2 bf bf 5a 2e bb 78 34 8d bd
       -0.08978769 -1.5167994 -0.0026604382 -0.06894773
000070 7b 98 6f 3c 93 5c 40 bb b8 96 a0 3d e9 32 ff bc
       0.0146237565 -0.0029352054 0.07841247 -0.031152206
000080 d1 ee db 3e 95 7b 4c 3c 03 9b 03 bc f3 51 a2 bb
       0.4295564 0.012480636 -0.008032563 -0.0049536168
000090 c6 79 6b 3c 9b df ab bb 90 de 72 bc e2 0f f2 be
       0.014372295 -0.0052451617 -0.014823571 -0.47277743
0000a0 cb 96 2d bc 12 ba d7 ba 2c e0 db bc f4 ec de ba
       -0.010595034 -0.0016458652 -0.026840292 -0.0017007873
0000b0 91 88 68 bc ca 0d 48 bf e2 02 ec bb ef 8a c6 3c
       -0.014192716 -0.7814604 -0.007202492 0.02423617
0000c0 77 7a cb bc 9f 88 29 be 47 fe bc 3e 08 65 90 ba
       -0.02483867 -0.16556023 0.36912748 -0.0011016438
0000d0 df 35 c7 3c 5b b9 f3 bd a9 ea 0c bb 51 4e 95 be
       0.02431768 -0.11900588 -0.0021502173 -0.29161313
0000e0 9f c9 0d 3e 2a 8d 88 bb 3e 74 44 bd ac 64 be ba
       0.13846444 -0.0041672187 -0.04796242 -0.0014525852
0000f0 5c 84 f0 3b 5e e9 0b bd 3a 01 f8 3c c3 50 56 bd
       0.007339997 -0.034158103 0.030274022 -0.052323114
000100 43 52 9e 3f c3 54 eb 3c 7a 77 92 bc 2e 8e 11 bc
       1.2368854 0.028726941 -0.017879236 -0.008883996
000110 55 2d 1d be ea b5 64 bd 3c ee 3d 3c 02 47 8e bc
       -0.15349324 -0.05583755 0.011592444 -0.017367844
000120 a3 f7 00 3e 6c 2e a2 3b 6e 94 d6 b9 d7 48 01 bb
       0.12594466 0.0049493816 -0.0004092785 -0.0019727254
000130 bf 24 43 bc 19 ce 27 bc c1 01 e1 bb 81 3a 09 bc
       -0.011910616 -0.010242009 -0.006866664 -0.008375765
000140 77 d7 f3 3a c9 bb 15 c0 8a 09 14 3e 01 80 cc bd
       0.0018603642 -2.3395865 0.14456764 -0.09985352
000150 52 86 27 3d d9 1f 22 3f c3 8d 04 bc 83 93 77 be
       0.040899582 0.63329846 -0.008090439 -0.24177365
000160 bc 98 9f be a8 c5 3b bc b3 3c 9d bc df 3f ab 3c
       -0.31171215 -0.011460699 -0.019193983 0.02090448
000170 4e 1a 69 bd 4a 54 e4 bb c3 3c ab 3c 43 fb 69 3c
       -0.05690985 -0.006968056 0.020902997 0.014281097
000180 9a b3 03 bc 64 5a 2a 3e 1a fa 4a bc c6 06 f2 3d
       -0.008038426 0.16636044 -0.01238873 0.11817698
000190 1d cd db be 34 21 e6 3c 14 56 d5 3e c0 90 f8 bb
       -0.42929927 0.028092004 0.41667235 -0.007585615
0001a0 e1 a8 5f bc a7 18 c9 bb fa 50 e9 bd b6 42 5e 3d
       -0.013651104 -0.006136972 -0.11392398 0.05426284
0001b0 f4 6f 54 3a 29 e1 d5 3d 5f 30 c8 bd 6d b5 14 bc
       0.00081038405 0.104433365 -0.09774851 -0.009076458
0001c0 58 c5 8b bd 9e 32 4e 3d 11 90 22 c0 95 e7 23 bc
       -0.0682475 0.05034124 -2.540043 -0.010003944
0001d0 0c ae ea 3c 3e 58 9d bd 79 c3 27 3c a6 9e 03 3f
       0.028647445 -0.076828465 0.010239475 0.51413953
0001e0 5d 13 d1 bb 4d 54 a4 bc 01 f5 03 bc e4 10 b8 bf
       -0.006380482 -0.020059729 -0.008054019 -1.4380155
0001f0 67 e2 cb be bb 3b 79 be 37 1c 5e ba 5f 38 10 3b
       -0.3982117 -0.24339192 -0.0008472832 0.0022006256
000200 e2 1b 0e bd 77 f1 9c be f7 e7 de bc 34 c7 a8 b8
       -0.03469456 -0.30652973 -0.027210219 -8.047969e-05
000210 4b 85 d9 ba cd d3 05 3a 39 74 73 be 24 fd 19 bd
       -0.001659551 0.0005105108 -0.23774804 -0.03759493
000220 f1 c1 c5 3a 21 88 e1 ba 3a da 65 be 40 37 f1 bb
       0.0015087706 -0.0017206707 -0.22446528 -0.0073613226
000230 fb a6 1f ba 2b 1c d0 ba 12 1a 20 bc f5 d4 8a 3a
       -0.00060902507 -0.0015877535 -0.009771841 0.0010592031
000240 6e 6e 1b bc 51 d7 c6 3d 5d 86 95 3c 82 e2 5f ba
       -0.009486778 0.09709037 0.018252546 -0.0008540527
000250 36 93 db b8 a2 e6 c8 bc 62 b9 89 b9 65 75 1c 3b
       -0.00010470154 -0.024524037 -0.00026268797 0.0023873684
000260 cb bc 00 bd e2 27 bf ba 6f f2 80 b9 fe 01 0a bd
       -0.031430047 -0.001458403 -0.0002459469 -0.033693306
000270 5f 71 02 bd f1 40 ca b9 a1 b9 05 ba 0f da 0c 3d
       -0.0318464 -0.00038576828 -0.0005101208 0.034387644
000280 37 25 04 ba 66 f5 c6 ba 06 04 3c 3a 4f 55 05 39
       -0.0005040946 -0.0015179336 0.00071722304 0.00012715648
000290 8e 2e 4e ba f7 5b 2b ba 67 d2 3b 3c 1b c1 c8 37
       -0.00078652136 -0.0006536836 0.011463738 2.393178e-05
0002a0 87 d8 2b 38 51 a4 cb be 77 fc 18 ba 97 49 bf ba
       4.0971234e-05 -0.397738 -0.000583596 -0.0014594075
0002b0 8d 95 b5 bc 18 37 79 ba 2f 78 8c 37 8d 00 db 38
       -0.022166038 -0.0009506806 1.6745265e-05 0.00010442836
0002c0 2b 77 a0 3c 1f 29 92 3a de 5c f0 3a 75 71 5e 3b
       0.019588074 0.0011151171 0.0018338223 0.0033942137
0002d0 e6 65 91 b9 ce b9 14 be 76 11 85 bd e3 6f ec 3c
       -0.00027732475 -0.14524004 -0.06497471 0.028861945
0002e0 23 5c fd 3c d8 a4 32 3c f9 aa 4e 3c f1 28 cc 39
       0.030927723 0.01090356 0.012614005 0.00038940416
0002f0 98 86 6c 3b a8 7e ac bb 84 91 1d be 9c 70 75 3a
       0.0036090966 -0.005264122 -0.15387541 0.00093627884
000300 c2 db 56 bb 47 4b 90 3c 0c 59 3c b9 40 90 dc be
       -0.0032784794 0.01761402 -0.0001796225 -0.43078804
000310 76 52 38 3a 4f 44 bd 3c a5 fd f0 3c bf d8 8d b8
       0.00070313306 0.023103861 0.029417822 -6.763776e-05
000320 7d 2d b6 b9 ba 90 6f 3a 8f 91 0a bb 71 93 96 3a
       -0.00034747637 0.00091386924 -0.0021143889 0.0011488033
000330 a2 8c 70 ba 19 b6 8f bc fe 5a cd 3c 99 0e c8 ba
       -0.00091762294 -0.017542886 0.025067803 -0.001526314
000340 2a 9e bf 3b d2 e9 e1 bb 15 0e 01 3a 86 bc 33 3a
       0.005847712 -0.0068943286 0.0004923058 0.00068564
000350 8e 7e 23 ba 0c 53 e4 39 2d d2 f7 3a 67 2b 09 39
       -0.00062368147 0.00043549424 0.0018907242 0.00013081507
000360 54 42 06 3e 63 be 45 3a 5b aa ca ba 34 09 a1 ba
       0.1311124 0.00075433234 -0.0015462147 -0.0012286068
000370 00 7d 05 bc 3d 57 a2 3c 32 c6 ca b8 bb 2f 16 3b
       -0.008147478 0.01981699 -9.669027e-05 0.0022916633
000380 56 49 eb bb 72 d9 5b bd a8 36 7d b9 d3 2d 6c 3c
       -0.007180373 -0.05367417 -0.00024148321 0.014415222
000390 af 72 0b be da a1 5e 3f 28 21 f3 bb 17 e2 36 b9
       -0.13617967 0.86965716 -0.007419724 -0.00017441098
0003a0 d3 35 e1 bc c7 17 d3 ba 70 e6 49 3e 90 e3 8b 3a
       -0.027491486 -0.0016105109 0.19716811 0.0010672677
0003b0 15 93 9b b9 6a a2 88 bb 96 8e 87 3d c8 4b 1b b9
       -0.00029673488 -0.004169752 0.06618993 -0.00014810183
0003c0 62 10 c3 3b c7 7f 6e 39 ba 1b f6 ba 76 a5 86 b9
       0.0059528807 0.0002274505 -0.0018776574 -0.0002568175
0003d0 38 97 18 3c 24 bd 0e bd c8 5d 33 bc 9a 0b 3d ba
       0.009313397 -0.034848347 -0.010947652 -0.00072115066
0003e0 61 52 b6 3a a4 46 27 bd 13 1f f0 39 2b 49 07 ba
       0.0013910049 -0.040838853 0.0004579952 -0.0005160744
0003f0 25 dd 56 bb 0b c3 a2 bc e3 e4 54 b9 7b 57 95 ba
       -0.003278562 -0.019868394 -0.00020303162 -0.0011393869

dist.fc_mean.bias f4 [4]
000000 4d b6 99 3c 2e f3 34 3a 17 5f 9c ba 8c cc 47 3d
       0.018763686 0.00069026917 -0.0011930194 0.048779055

dist.fc_logstd.weight f4 [4, 128]
000000 2b 22 3e 3f ed 81 12 bf a0 22 86 bf 95 79 8e bf
       0.74270886 -0.572295 -1.0479317 -1.1130854
000010 0c 38 c7 bc 81 cc 8b bf 66 f5 5f 3d 26 f2 ed be
       -0.024318717 -1.0921785 0.05467739 -0.46473807
000020 f9 b9 a9 be 5c 30 f0 bf 2a e2 79 3e 6e 56 19 bd
       -0.33149698 -1.8764758 0.24402681 -0.03743594
000030 9c 01 3a c0 73 50 74 3f e9 d3 0d bd ba 3f be 3c
       -2.9063482 0.95435256 -0.03462592 0.023223747
000040 2a f0 3b 3e 23 9b 86 bf a5 44 08 bf 66 fa f8 3e
       0.18353334 -1.0516094 -0.53229743 0.4862854
000050 56 e3 c2 bd e2 0a 14 bf 50 eb 9b be 7b d2 74 3f
       -0.09516017 -0.57829106 -0.30452967 0.9563367
000060 ec 8a b3 bd 90 1d 35 3f b5 fa ad 3e 75 5f 12 3e
       -0.087667316 0.70748234 0.33980337 0.14294226
000070 5b 4f dc bc 06 7d a1 be 83 14 84 3f ae db 45 bf
       -0.026893308 -0.31540698 1.031876 -0.7728833
000080 56 53 83 3e ea 3d d2 bf da 26 63 c0 ee 03 8f bf
       0.25649518 -1.6425145 -3.5492463 -1.1173074
000090 d6 95 b1 bf 95 f9 60 bf 0b 47 ff bf b5 ac ec be
       -1.3873851 -0.8788083 -1.9943556 -0.46225515
0000a0 9b 70 1a c0 f9 47 00 bf f0 72 ca 3f c5 03 52 c0
       -2.413123 -0.5010982 1.5816326 -3.28148
0000b0 09 58 65 be 6d f9 a1 3f 68 dd 2b c0 7f b2 d3 bf
       -0.22396864 1.2654244 -2.6853886 -1.6538848
0000c0 e1 1e c4 bc ab 9d e1 3f 86 b9 22 bf 33 86 c8 be
       -0.023940505 1.7626241 -0.63564336 -0.39164886
0000d0 37 d9 15 3e 57 3b be be 63 2c a5 3e bb 46 9e 3d
       0.14633642 -0.37154648 0.32260427 0.077283345
0000e0 5a f0 e0 3e d1 5a 97 3f 9a 11 a4 bd 27 3b 39 bf
       0.43933374 1.182459 -0.0801117 -0.72355884
0000f0 af 35 5f 3e 69 b2 f7 3b 10 99 00 3c 81 38 6f bf
       0.21797822 0.00755911 0.007848993 -0.93445593
000100 78 34 2c 40 ef c1 82 bc cf 5f 66 3f 08 58 c3 be
       2.6907024 -0.015961615 0.8998994 -0.381531
000110 b3 94 a0 bf 23 42 06 bd 0d 82 ea be 46 dd d2 bf
       -1.2545379 -0.032777917 -0.45802346 -1.6473777
000120 60 ea 40 3d e7 0a 93 3f 8a 6d 87 be 69 f6 47 bf
       0.047098517 1.1487702 -0.2645076 -0.7811037
000130 db 56 88 bf ca 2b 2d bf e7 68 4b bf 85 3a 38 c0
       -1.0651506 -0.6764494 -0.79456943 -2.8785717
000140 26 3f b5 be be fc 38 3e 51 a0 a7 3f c3 bd eb bd
       -0.3539974 0.18065163 1.30958 -0.115108036
000150 1c a4 22 be 57 7f 28 3e c1 ac ac bf a0 e6 1b be
       -0.15882915 0.16454826 -1.349022 -0.15224695
000160 d8 fa a1 be 21 ed 0d 40 59 38 ea be 68 ad 0a c0
       -0.3163669 2.2175982 -0.45746115 -2.1668339
000170 e7 92 3d bc 80 9f 1f bf 0b ba c4 be 4d dc fb bd
       -0.011570669 -0.6235275 -0.3842319 -0.122978784
000180 50 93 ea bf 21 09 c7 3c a5 84 64 c0 b0 64 1d 3f
       -1.8326206 0.024296345 -3.570596 0.6148176
000190 90 90 6b be 12 c9 8c bf 57 1a c9 bf a5 fb c3 be
       -0.23004365 -1.0998862 -1.5711163 -0.38277927
0001a0 58 38 a7 bc 82 40 23 bf 74 31 87 bf d2 23 1f bf
       -0.020412609 -0.63770306 -1.0561967 -0.6216403
0001b0 e5 bd 8f bf 1f d0 0f bf c8 fb 62 bd 79 c9 6f bf
       -1.1229826 -0.5617694 -0.0554159 -0.936668
0001c0 3c 40 7c bf b0 e4 0f c0 00 6d 6b bf 48 5a 95 be
       -0.98535514 -2.248333 -0.91963196 -0.29170442
0001d0 4e ee 9e be 80 35 38 3b c4 fd b3 3c 43 78 bd 3e
       -0.31041187 0.002810806 0.02197159 0.37005815
0001e0 68 26 ed 3e 3b 37 68 3d c7 5e a4 be 8c 48 6e bf
       0.46318364 0.056693297 -0.3210356 -0.9307945
0001f0 5e 89 e2 3f b9 45 29 be dd 9a a1 3e db ce 4f bf
       1.7698171 -0.16530503 0.31563464 -0.8117501
000200 fb cd 01 3c c8 53 c6 be 74 90 48 3f 12 65 7f bf
       0.007922645 -0.38735795 0.7834542 -0.99763596
000210 7a 77 d0 be 6f a1 8f bf f8 56 0b 3e 6b 9d b3 be
       -0.40716153 -1.1221141 0.13607395 -0.35081038
000220 69 24 4a bf 20 76 89 c0 e2 18 97 3d e0 05 17 bd
       -0.7896181 -4.2956696 0.07377793 -0.036870837
000230 f2 77 35 c0 db 23 09 3f e9 ec d3 be e8 24 0b bf
       -2.835446 0.53570336 -0.41391686 -0.5435319
000240 71 0a 11 bf 7b e3 8a bf 93 ae f2 be c8 83 a1 bf
       -0.5665656 -1.0850672 -0.47398815 -1.2618341
000250 26 8b 5c 3f 39 1c e3 be 7c 29 05 c0 bc 2b a1 bf
       0.86149824 -0.4435747 -2.080657 -1.2591472
000260 a8 af 95 be d4 57 da bf cc 22 03 c0 5c 59 25 bf
       -0.29235578 -1.7058053 -2.0489988 -0.64589477
000270 49 b4 06 bf 25 29 37 bf aa 63 b4 bf e3 8e f0 bf
       -0.52618843 -0.71547157 -1.4092915 -1.8793606
000280 ba 48 52 c0 86 ed 06 bf 58 36 d3 be 1f ec 83 bf
       -3.2856889 -0.5270618 -0.41252398 -1.0306433
000290 63 69 f6 be 3b 7c ae be b4 12 36 3f c7 f7 c4 be
       -0.4812728 -0.34079155 0.7112229 -0.3847029
0002a0 44 69 29 bf 24 93 d7 be 3f 22 cd bf 81 a7 d2 bf
       -0.6617625 -0.42104447 -1.6026076 -1.6457368
0002b0 5f a3 aa 3e f6 ed 03 be a9 96 1f c0 67 6b d9 3e
       0.33327767 -0.12883744 -2.4935706 0.42464754
0002c0 85 de ea bd b1 92 ba bf 54 e3 24 3f 44 a1 c5 be
       -0.114682235 -1.4576017 0.64409375 -0.38599598
0002d0 ed 16 36 c0 22 8b 62 be de 8f 45 be e3 8d 65 be
       -2.8451493 -0.22123387 -0.19293162 -0.22417407
0002e0 dd 83 87 bf e1 ed 48 be 21 5f c8 bb 30 1d c4 3e
       -1.0587116 -0.19621994 -0.006114856 0.38303518
0002f0 57 9a 98 bf bf 01 ce bf 02 7d 21 3c 4b 13 50 c0
       -1.1922101 -1.6094283 0.009856464 -3.2511775
000300 f0 81 51 be e1 fd 71 bd 74 4a ca bf c1 f0 a2 bd
       -0.20459723 -0.05908001 -1.5803971 -0.079560764
000310 f5 55 2e bf 66 b2 42 bf 25 c4 a4 bd 73 81 8c bf
       -0.6809991 -0.76053464 -0.08045224 -1.0977005
000320 51 af ce be 4e 34 91 bf 43 ec 57 40 c9 87 27 c0
       -0.4036813 -1.1344087 3.3737953 -2.6176627
000330 fd f1 63 bf 2b dd ee 3f 7b 86 1b c0 cf 9c 12 bf
       -0.8904112 1.8661245 -2.430083 -0.5727052
000340 8c 62 c4 bf da 80 12 bf 96 c4 c5 bf fc a3 8d be
       -1.5342574 -0.5722786 -1.5450618 -0.27664173
000350 05 e3 12 bf ad 5a 4b bf e2 dc 2c 40 ef 36 b2 bf
       -0.57377654 -0.79435235 2.7009816 -1.3923014
000360 b9 0e 0f bf 89 74 c3 bf d3 28 fe bf fc a3 ca 3f
       -0.5588184 -1.5269939 -1.9856209 1.5831294
000370 0d 3d 4c be 4b bf fd be ca 07 70 bf 74 a4 74 bd
       -0.19945164 -0.49560007 -0.93761885 -0.059727147
000380 b2 fa d2 bd 9e 6a 18 bd 61 b2 67 bf 3c c1 0b 3f
       -0.103017226 -0.037211053 -0.9050656 0.5459173
000390 1e 4b 86 bf c9 c4 10 40 56 81 f4 bf 9d 66 02 c0
       -1.0491674 2.2620108 -1.910197 -2.037513
0003a0 59 f8 03 be c7 78 b6 bf 31 d4 88 3e 8a c4 f4 be
       -0.12887706 -1.4255608 0.2672439 -0.47806197
0003b0 1f 1f 11 bf 74 78 48 bf f2 bd 93 bd d5 e4 30 c0
       -0.5668811 -0.78308797 -0.072139636 -2.7639668
0003c0 6d 9d 54 bf 89 e3 0a bf 9b 98 b1 bf 5b 96 12 c0
       -0.8305271 -0.5425344 -1.3874696 -2.290427
0003d0 60 01 57 bf 5a 17 60 bc 8c 67 b6 bf 7a 9b 8e bf
       -0.83986473 -0.013677442 -1.425035 -1.1141198
0003e0 41 10 fb 3e 59 7b 1b bf ea 66 bd be 28 32 c6 bf
       0.49035838 -0.6073509 -0.3699258 -1.5484056
0003f0 8a 64 64 bf 08 ff 21 be 11 0c c7 bf 72 23 83 be
       -0.8921591 -0.15819943 -1.5550557 -0.2561298

dist.fc_logstd.bias f4 [4]
000000 46 7f 6c bf c2 86 96 bf 21 46 8c bf 1f 90 12 bf
       -0.92381704 -1.1759875 -1.0958902 -0.5725116

exp_avg f4 [128, 15]
000000 9b da 42 bd 2d 3b 9e 3d ce 27 95 3c 7f 35 00 be
       -0.04757176 0.07726131 0.018207457 -0.12520407
000010 75 7a ca 3d e0 71 6a 3d 7b 02 1f bd 49 0d 1c 3e
       0.09886638 0.057237506 -0.038820725 0.15239443
000020 50 cb f0 3c 1f 51 31 be 91 9a 36 3e ca e0 34 bd
       0.029393822 -0.17316101 0.178324 -0.044159688
000030 00 00 00 00 00 00 00 00 92 08 07 be 00 2e 87 bc
       0.0 0.0 -0.13186863 -0.016501427
000040 18 72 94 bc 2a 6e 16 3e ab e4 1f 3c 9f d7 ca 3d
       -0.01812081 0.14690462 0.009759109 0.09904408
000050 0e b7 dc bd 92 b0 01 3e c7 bc 44 bc 9d 59 0c bd
       -0.107771024 0.12665012 -0.012007899 -0.03426515
000060 f8 ff 52 3e 5b 97 ff 3d 57 2d 47 be 00 00 00 00
       0.20605457 0.12480041 -0.1945089 0.0
000070 00 00 00 00 92 60 0b 3e 79 8b a5 3c c9 62 09 3d
       0.0 0.13611057 0.020208107 0.033541474
000080 d7 61 1e bd c7 46 4b 3d 38 c9 94 3d 76 ef c2 3d
       -0.038667526 0.049628045 0.07264942 0.0951833
000090 e9 00 99 3d 24 4c 5e bb b6 14 90 bc de 0a 82 3d
       0.07470877 -0.0033919895 -0.017588 0.06349729
0000a0 50 7a 0f 3d 00 51 b0 bc 00 00 00 00 00 00 00 00
       0.035028756 -0.021522999 0.0 0.0
0000b0 f3 65 7b 3d 0e 2e 62 bd 56 1c 88 3d 6a 43 ce 3d
       0.061376523 -0.055219702 0.0664603 0.10071452
0000c0 a8 4f 1b be dd 5d 82 3d ac b7 08 3d 15 72 c2 bb
       -0.15167105 0.06365559 0.03337829 -0.00593401
0000d0 4f 15 25 3e 2e 6a 11 bd e7 a4 31 bc 08 e4 9a 3d
       0.1612141 -0.03550165 -0.010842538 0.07563025
0000e0 14 70 77 bc 00 00 00 00 00 00 00 00 ea df 32 be
       -0.015102405 0.0 0.0 -0.17468229
0000f0 87 d3 c9 bd cb 4a e7 3d 65 75 5b bf 7e 7c 7c be
       -0.09854799 0.112935625 -0.85726005 -0.24656865
000100 64 2e 1a 3e b6 c3 67 3e cc dc 9a 3e 0c ba 8f 3e
       0.15056759 0.22633252 0.3024658 0.2807163
000110 37 55 35 be 2e 43 40 3f f9 29 a3 3e e1 cc 70 3d
       -0.17708288 0.7510251 0.3186796 0.058789138
000120 00 00 00 00 00 00 00 00 82 a6 d4 bf 60 8f ea bd
       0.0 0.0 -1.6613314 -0.11453128
000130 de e1 aa 3d 88 62 8a be 4e db f4 3c a3 6c dd bd
       0.08343862 -0.27028298 0.029889729 -0.108117364
000140 9d 68 ae bd 4d f0 ab ba 98 80 ad bc 4a 02 56 3d
       -0.08516047 -0.001311788 -0.021179482 0.052248277
000150 b9 e8 76 3e 18 69 48 bc 22 80 d7 3c 00 00 00 00
       0.24112214 -0.012232088 0.026306216 0.0
000160 00 00 00 00 b8 44 0f be 7b 61 2b bd 29 55 6b 3c
       0.0 -0.13991058 -0.04184101 0.0143635655
000170 e3 13 df bd 35 2e 68 bd 47 1e be 3b 61 ce a9 3c
       -0.10892465 -0.05668469 0.005801949 0.020728292
000180 b7 d1 88 bc 1c 0c 45 3d f3 c1 62 bd 09 73 09 be
       -0.016701562 0.04810725 -0.055360746 -0.13422789
000190 1f 63 cb 3d 9f 87 4b 3d 00 00 00 00 00 00 00 00
       0.09931015 0.049689885 0.0 0.0
0001a0 8d d8 8f be 43 1e bd bd d8 a2 18 bd 6e 99 93 3e
       -0.28094903 -0.092342876 -0.037264675 0.28827995
0001b0 86 1d 04 bd a2 02 25 bd af bc a8 be 45 80 19 be
       -0.03225472 -0.040285714 -0.32956454 -0.14990337
0001c0 08 6f 6f bd 79 fc 14 bc ca 9b 35 3e 2b 6b 90 be
       -0.058455497 -0.009093397 0.1773521 -0.28206763
0001d0 21 1e 8d be 00 00 00 00 00 00 00 00 62 29 15 3e
       -0.2756205 0.0 0.0 0.14566568
0001e0 7c 52 e3 bc d1 8c 19 bd 46 f5 f0 3d 29 51 b6 3d
       -0.027749293 -0.03748781 0.11765532 0.08902199
0001f0 89 0e 90 bd 6d ed 1f 3e 23 82 e1 bd 30 0f c1 bb
       -0.07034022 0.15617914 -0.1101115 -0.005891703
000200 7d 75 0b 3c ce 82 11 bd e9 c8 2b bd c1 c9 c9 bd
       0.008511898 -0.035525136 -0.04193965 -0.09852935
000210 00 00 00 00 00 00 00 00 fb d9 a6 3e 01 a3 82 bd
       0.0 0.0 0.3258818 -0.06378747
000220 c4 06 29 3d 49 3b 09 be 75 90 ac 3c e6 72 b9 bc
       0.041266218 -0.13401522 0.021064976 -0.022637796
000230 23 eb 0d bd 84 a4 63 3c 8f 85 1a 3d c4 65 6e 3d
       -0.034648072 0.013894204 0.037725028 0.05820252
000240 f1 da c5 3c b5 bb cb bc 7e 0a bd 3d 00 00 00 00
       0.024152251 -0.02486978 0.09230517 0.0
000250 00 00 00 00 36 79 76 bd b0 e9 69 bc bb 75 10 3d
       0.0 -0.06017419 -0.014276907 0.035268527
000260 ab 7a 75 bd 26 16 64 3d 50 c6 6f bc b1 44 8d 3c
       -0.05993144 0.055685185 -0.014634684 0.017244669
000270 89 25 0d bd 40 97 34 3c d7 f4 3a 3d c2 82 a4 bd
       -0.034459624 0.011022389 0.045643654 -0.080327526
000280 3a e0 54 3d 62 cd a9 3c 00 00 00 00 00 00 00 00
       0.05197165 0.020727817 0.0 0.0
000290 36 6c d6 bc 56 b2 aa 3d 18 05 62 3e 92 8a c9 bd
       -0.026174646 0.08334796 0.22072256 -0.09840883
0002a0 a0 81 0f 3e 85 a5 15 3e 47 eb 58 3e e3 93 86 3e
       0.14014292 0.14613922 0.21183501 0.26284704
0002b0 2d 67 17 be e0 df ae bd b9 57 b1 3e 6b 22 52 be
       -0.14785452 -0.085387945 0.3463724 -0.20520942
0002c0 ee a6 14 3e 00 00 00 00 00 00 00 00 0b a2 b0 3e
       0.14516804 0.0 0.0 0.3449863
0002d0 c8 e5 a3 be 2c 8f 1d 3e 26 1f e8 be dc 07 62 3d
       -0.32011247 0.15386647 -0.45336264 0.055183277
0002e0 39 c9 88 be 51 ce d8 3c d0 82 bc bd de 7d b1 3d
       -0.2671602 0.026465567 -0.09204638 0.086665854
0002f0 83 d7 40 3e 09 32 3a bd 8e 3e ac 3d a6 44 19 3c
       0.18832211 -0.045457873 0.08410369 0.009354746
000300 00 00 00 00 00 00 00 00 b3 b4 4d 3e dd 91 85 3d
       0.0 0.0 0.20088463 0.06521962
000310 73 b8 8b 3d e8 89 d2 3d 89 e0 49 3d 53 26 96 3b
       0.0682229 0.1028021 0.0492864 0.0045822053
000320 94 09 9d 3d 5f 13 4e bc 39 3b a4 bd d8 4b 1a 3d
       0.076678425 -0.012577861 -0.08019108 0.037669986
000330 c4 2f 8f 3d b8 73 1e 3c 36 c6 3d 3d 00 00 00 00
       0.069915324 0.009671144 0.046331607 0.0
000340 00 00 00 00 2e 2c cb 3e 03 69 30 be 09 48 00 bd
       0.0 0.39682144 -0.17227559 -0.031318698
000350 86 b8 a9 be 8f 72 0b 3e 45 08 d2 be f6 b1 06 be
       -0.33148593 0.1361792 -0.41021934 -0.13153824
000360 c0 c2 82 bc e7 06 29 3d 43 86 f9 3d 1c 30 3e 3d
       -0.015962005 0.04126635 0.121838115 0.0464326
000370 a3 68 ef 3d d2 83 ed 3d 00 00 00 00 00 00 00 00
       0.1168988 0.11597408 0.0 0.0
000380 d3 c5 96 3e ce 73 8d 3c 51 37 94 3d b9 7e 48 3d
       0.29447803 0.017267134 0.07237113 0.048948977
000390 7f 36 58 3c d1 86 c9 3d 0d ac 1a 3e 74 2f 54 3d
       0.013196587 0.09840167 0.15104695 0.051803067
0003a0 7f e9 08 3d 7a 58 5f 3d eb a5 c4 bd df 27 f1 3d
       0.033425804 0.054527737 -0.09601959 0.11775183
0003b0 1e c8 10 3d 00 00 00 00 00 00 00 00 63 a3 d0 3c
       0.035347097 0.0 0.0 0.025468534
0003c0 e1 34 c4 bd c8 11 2e 3d d8 de 90 3e 06 bd 92 3d
       -0.09580398 0.042497426 0.28295016 0.071649596
0003d0 e9 ff a1 3d b4 7e 24 be af 5d c9 bb d5 60 2d bd
       0.07910139 -0.16063958 -0.006145201 -0.042328674
0003e0 1a be ac bd 40 10 b6 3d 02 6d 09 bd e2 4d 06 be
       -0.084346965 0.08889818 -0.033551224 -0.13115647
0003f0 00 00 00 00 00 00 00 00 c5 ec 5f 3e b1 68 d9 bd
       0.0 0.0 0.21867664 -0.106156714

exp_avg_sq f4 [128, 15]
000000 cb 9b 20 42 1c 40 01 42 c9 e6 a9 44 b4 6d 4b 42
       40.15214 32.312607 1359.212 50.857132
000010 ec 0f 12 45 a7 5f 2f 42 ae b9 fe 45 99 1e 2d 45
       2336.995 43.84341 8151.21 2769.9124
000020 f9 6a 2e 42 93 c8 31 47 24 23 0e 45 1a f0 87 44
       43.604465 45512.574 2274.1963 1087.5032
000030 00 00 00 00 00 00 00 00 24 33 f4 44 99 bf 2a 43
       0.0 0.0 1953.5981 170.74843
000040 1f 66 08 43 ca 2e b6 45 0e ad 57 43 90 c0 1c 46
       136.39891 5829.8486 215.676 10032.141
000050 75 5f 39 43 c3 b7 08 47 35 e8 39 46 c7 7b 3b 43
       185.37288 34999.76 11898.052 187.4835
000060 06 da 3e 48 65 b0 18 46 77 9b 91 45 00 00 00 00
       195432.1 9772.099 4659.433 0.0
000070 00 00 00 00 33 a1 02 46 d7 0f f2 3f 48 33 01 40
       0.0 8360.3 1.8911084 2.018755
000080 51 bd 06 41 18 aa 25 40 a2 3a 63 41 2a 2f 8f 40
       8.42122 2.5885067 14.201815 4.4745073
000090 66 11 3e 42 38 e9 74 41 93 45 cb 3e 96 17 88 43
       47.51699 15.306938 0.39701518 272.18427
0000a0 7b 41 75 41 ef 6c f8 40 00 00 00 00 00 00 00 00
       15.328486 7.7632976 0.0 0.0
0000b0 e5 cd 66 41 35 95 0b 42 e0 07 d9 41 9b 87 8f 44
       14.425267 34.89571 27.128845 1148.2377
0000c0 14 d5 a3 42 5d 2a f5 44 3e dd 70 42 58 1a d6 45
       81.91617 1961.3239 60.216057 6851.293
0000d0 00 c4 11 45 34 70 1e 42 b9 35 15 47 83 51 f2 44
       2332.25 39.609573 38197.723 1938.5472
0000e0 03 96 63 44 00 00 00 00 00 00 00 00 c1 d5 cc 44
       910.34393 0.0 0.0 1638.6798
0000f0 6f 90 5c 43 37 7f 31 43 d7 26 ea 45 89 6b 8c 43
       220.5642 177.49693 7492.855 280.84012
000100 13 3f 48 46 32 b9 7b 43 dc 9d 2e 47 77 7c 6d 46
       12815.769 251.72342 44701.86 15199.116
000110 2b cc 70 43 d3 bf 73 48 d0 ff 42 46 99 da b9 45
       240.79753 249599.3 12479.953 5947.3247
000120 00 00 00 00 00 00 00 00 89 30 28 46 ac 35 d3 3f
       0.0 0.0 10764.134 1.6500754
000130 6f 60 52 40 d3 84 25 40 da e7 18 40 d9 cb 16 41
       3.2871358 2.586232 2.389151 9.4247675
000140 cb d0 22 41 ed ba 65 41 0b 63 1c 3f 7d 02 f0 3e
       10.175975 14.358136 0.6108863 0.46876898
000150 6b ea 8b 41 c5 f1 d1 40 78 f6 26 41 00 00 00 00
       17.489462 6.560763 10.435173 0.0
000160 00 00 00 00 37 3e 10 41 0e 66 0f 3e 44 57 20 3d
       0.0 9.015189 0.14003775 0.039145723
000170 b5 d5 a7 3f 0e a4 45 40 79 02 85 3e 6e b1 0d 40
       1.3112093 3.088138 0.2597845 2.2139544
000180 66 85 8b 3f 30 f1 34 3f 49 9c 10 3f 35 c6 ba 3f
       1.0900085 0.7068052 0.5648847 1.4591738
000190 8c 08 25 40 8c 04 83 3f 00 00 00 00 00 00 00 00
       2.5786467 1.0235763 0.0 0.0
0001a0 b8 8c fa 3f be c5 03 44 42 ec d3 43 50 31 8b 46
       1.9574194 527.0897 423.84576 17816.656
0001b0 f1 5a 26 44 c3 53 ef 46 a8 02 10 44 c4 ae d0 47
       665.42096 30633.88 576.0415 106845.53
0001c0 12 e7 0d 47 5d ad 0e 44 f4 a8 11 49 72 0a e9 46
       36327.07 570.7088 596623.25 29829.223
0001d0 40 83 5e 46 00 00 00 00 00 00 00 00 26 b7 c7 46
       14240.8125 0.0 0.0 25563.574
0001e0 76 82 31 40 33 1b ad 40 a9 5b 20 40 ae 54 76 40
       2.7735877 5.40957 2.5055945 3.8489184
0001f0 aa 91 82 41 7d 9e 8d 41 6c 75 ce 41 08 8b 88 3f
       16.321125 17.702387 25.807335 1.0667429
000200 dc 6d 14 3f b9 fb d5 41 c1 f4 17 41 67 71 2d 40
       0.5798013 26.747911 9.497254 2.7100465
000210 00 00 00 00 00 00 00 00 df 96 3c 41 27 3c 40 41
       0.0 0.0 11.786834 12.014686
000220 f1 a4 18 41 c1 20 cb 43 d0 06 ce 41 62 8f 2d 44
       9.540269 406.2559 25.753326 694.24036
000230 f5 1c 9c 41 c9 84 17 45 c6 47 4e 44 6c 69 5e 41
       19.51414 2424.299 825.12146 13.900738
000240 c9 4c 53 46 e7 fb 2a 44 78 4e a1 43 00 00 00 00
       13523.196 683.936 322.61304 0.0
000250 00 00 00 00 3a 0f 11 44 9f 71 34 3f a4 e3 09 3f
       0.0 580.2379 0.7048587 0.5386298
000260 7d 34 ba 3e d8 81 a1 3f 3d c0 60 3f 1a 97 08 40
       0.3636817 1.261775 0.8779333 2.1342225
000270 8b 81 35 40 71 5c 0b 3f b8 33 5a 3e 00 d0 79 40
       2.8360317 0.5443793 0.21308792 3.9033203
000280 a3 11 0f 40 91 72 67 3e 00 00 00 00 00 00 00 00
       2.2354515 0.22602297 0.0 0.0
000290 15 d1 e3 3e 14 23 02 41 31 ed 65 42 78 d2 5c 41
       0.44495454 8.133564 57.481632 13.801384
0002a0 70 81 c4 40 5e 90 72 43 d9 a7 2c 43 70 37 b0 43
       6.1408005 242.56393 172.65565 352.4331
0002b0 94 a0 99 3f a6 49 b9 40 f8 7f d2 43 b6 f8 cc 42
       1.200213 5.7902403 420.99976 102.48576
0002c0 26 fd eb 40 00 00 00 00 00 00 00 00 50 e6 ec 42
       7.374652 0.0 0.0 118.44983
0002d0 22 a9 b3 43 1c 71 90 43 6b e0 3f 46 8c 6f e2 43
       359.32135 288.88367 12280.1045 452.87146
0002e0 86 2f a5 46 95 bd c2 43 30 0a 90 47 60 db c3 46
       21143.762 389.4811 73748.375 25069.688
0002f0 27 c5 c4 43 c5 0f c9 48 00 ce a0 46 6f 3d 19 46
       393.54025 411774.16 20583.0 9807.358
000300 00 00 00 00 00 00 00 00 a4 88 89 46 02 d1 be 3f
       0.0 0.0 17604.32 1.4907534
000310 5b d2 b2 40 ee 8b 9e 40 3f 3f 03 40 82 43 9e 41
       5.588178 4.9545813 2.0507352 19.782963
000320 33 e1 c1 41 68 50 de 41 28 4e 9f 3f f1 29 e6 3f
       24.23496 27.78926 1.2445726 1.798155
000330 64 02 04 42 cc 69 0e 41 c6 17 58 41 00 00 00 00
       33.002335 8.900829 13.505804 0.0
000340 00 00 00 00 62 97 0e 42 98 40 35 40 ff ce c5 40
       0.0 35.647835 2.8320675 6.181518
000350 d7 43 d2 3f d0 03 6c 40 96 b2 97 40 85 e3 7c 40
       1.6426953 3.6877327 4.74055 3.9513867
000360 c5 7c ba 3f e8 3a 9b 3f 6f 8f e8 3e 3f 76 b5 3f
       1.4569327 1.2127352 0.4542193 1.4176711
000370 34 34 02 40 1c 63 39 3f 00 00 00 00 00 00 00 00
       2.0344362 0.72416854 0.0 0.0
000380 d9 88 a4 40 19 3c 69 42 65 12 3f 42 5b 9a f6 44
       5.141705 58.30869 47.767963 1972.8236
000390 28 60 93 42 c1 04 54 45 04 22 83 42 a8 cc 38 46
       73.687805 3392.297 65.56644 11827.164
0003a0 ea 27 7b 45 90 75 7d 42 90 f4 80 47 57 4b 4e 45
       4018.4946 63.364807 66025.125 3300.7087
0003b0 f7 ba c4 44 00 00 00 00 00 00 00 00 7d 19 31 45
       1573.8427 0.0 0.0 2833.593
0003c0 e5 bc b7 42 a0 ef 92 42 d2 14 44 45 15 14 fd 42
       91.868935 73.46802 3137.3013 126.53922
0003d0 16 63 a8 45 21 9b d9 42 15 e9 92 46 f8 c7 c7 45
       5388.3857 108.802986 18804.541 6392.996
0003e0 0a 41 cd 42 62 fe cc 47 a0 4c a4 45 0a e5 1c 45
       102.62703 104956.766 5257.578 2510.315
0003f0 00 00 00 00 00 00 00 00 b3 a9 8c 45 c1 7f ae 3f
       0.0 0.0 4501.2124 1.3632737
