ppo/models/behavioral_cloning_agents_lunar/bc2/ckpts/001376400.pt (torch_old, 353856 bytes, 26 tensors)

fc1.weight f4 [128, 9]
00000000: 24c4 81be d705 893e cf52 0fbf 8eb4 c3be
00000010: 3965 6a3e 8c26 d43d 5664 353c 6694 903e
00000020: 28ec efbd fde6 ea3d e813 c0be 2e0a 74be
00000030: 0901 afbe 203d d7bd ce3a 02be 7c8e a73b
00000040: d374 af3b bfe8 853e 2608 7fbe 3fd6 d7bd
00000050: 0532 6b3e 4234 d53d 5c90 81bd 65dd 813e
00000060: 4ca0 d7ba b043 59bd 463f 423e 419f d9be
00000070: 2347 e6bd aa7c c23b 27fc 753e c1de 1e3f
00000080: d9e1 eb3b 17c7 1dbe 0899 c7be 50c6 d3be
00000090: 35c2 71be 8b8c 2c3e bc1c a13e 15b1 7b3c
000000a0: 03e6 553e a4ab 1fbe 49cf 85bd a3eb b0be
000000b0: 5e72 cbbd 9ced 86be 7492 d93d 45bc 4b3e
000000c0: 6570 c5bd 3bad a6bd 6ecc bf3e b826 893e
000000d0: c647 973d 9f22 b23c 9b13 083f db12 6cbe
000000e0: bc68 ea3d 013a 93be 9d12 c1be 6c18 bfbd
000000f0: 281c 8e3d f814 41bd 9812 3dbe 36ba f43d
00000100: 6863 4d3d 22b9 11bd bdee 44bd a562 e3bd
00000110: 93db 6e3e 4259 733e 9181 adbe ba09 c7bd
00000120: 8960 893d 8fa0 813e 89a0 0c3f 410b 963e
00000130: 8a29 813e 0a70 cdbe 61e9 32bb 43af 49be
00000140: 75bd 60be 8856 0e3f 78f9 bf3e 679d b3be
00000150: d136 28be 70eb f6bd a1d9 09be aa9b fb3d
00000160: 7e33 013e e513 fabd 3cca 4d3e 1c35 443c
00000170: 37fc 9e3e 3b34 9d3c 900e 03bf 22dc 3dbe
00000180: 6f08 7f3e 8136 133d f470 d8be 4099 1dbe
00000190: 5db4 873e fca9 633e 8823 2ebe 31f7 103d
000001a0: 8cbe 4ebe a45a 24be cdc3 2ebe 17be 74bd
000001b0: 5a1a c53c 856d 383c edd3 b93c 9b6c a13c
000001c0: 939b 8ebd 01c3 123e 2a50 d93d dc52 03be
000001d0: 2050 223c c053 4e3e 6431 dfbc 81cc c6bd
000001e0: f46f ab3d 5e63 4f3e bc7d ebbe 9dd0 023e
000001f0: f988 a2be e7e5 bdbe af9c 6d3c d3b4 6cbe
00000200: bbf1 8abe 39b6 a7be 6335 1c3e b490 153e
00000210: c03c 4cbe 857d 7ebd 26e4 713e af44 05bd
00000220: 874a 36bd cb9b 973e 1027 503c 9b47 7d3e
00000230: 7b94 6e3f 7663 a0bb af78 233e a9ef 4b3c
00000240: c9a0 87be c51e c5be ced5 ac3e b558 1e3d
00000250: 7cac b9bd ef1a 1fbe 6da6 9dbe ffff 8ebe
00000260: 00bb 06be c414 e23e 5463 9e3d 399b f0be
00000270: 65dd 383d 2646 08bf 3c34 043f bfe9 bfbd
00000280: 6354 5dbe 7422 76bd 2a99 c9be 0669 a1be
00000290: 6529 45bd b0a9 4dbe 713f dcbd 1940 033d
000002a0: ea17 79be 2c31 65bd a7a8 9c3e 8d24 70be
000002b0: 6409 2b3e ad6a 463e a736 30be d37f 9e3e
000002c0: 949c f2bc 1f5b 89bd 3eaf 823e 6e8e 21be
000002d0: f9ad 973e 82a0 6cbe a99c 533e 18f9 ad3d
000002e0: 14b7 623e 62b7 9b3e a02f d6bc cedc a43c
000002f0: 0156 20bf 31ed 9b3e 340f db3e c9cf e93d
00000300: c18b f1be 28d6 423d 33bf 99be 49a0 84be
00000310: 95e3 b8bd 9ce1 9a3d bff1 a6be 4c9e 7f3d
00000320: c7ec 79bd 614d 0e3e 92a6 3cbe 2efd c0be
00000330: dc9b a4bd 52d9 993d 2be5 0bbe ffd0 0a3f
00000340: 619d a83e 0546 51bd 5e0e 7bbd 787d 6fbe
00000350: 92a1 483e 5672 ab3c bd8b e33d a433 c53c
00000360: fe87 1fbe d271 b8bc 9d6d 4e3e 828e 9dbe
00000370: 07fc 0e3d d704 ae3e fc30 2a3d e09d 093d
00000380: c903 a0be 6fb7 eb3d 4aa3 b9be 21e6 8bbe
00000390: 4d86 02be 8437 283c ca33 a33d 8195 fe3d
000003a0: f1e8 93bd 2627 153f 8af4 da3e 40ff d0bd
000003b0: 1711 4d3e 5d34 89be de69 a9be ed6b 95bd
000003c0: 9402 183e 793a 153e 8c91 38be 3dc2 553c
000003d0: d636 173e 9dc8 0ebf 0fe2 4b3e 4d34 e0be
000003e0: cb09 c43c 17c9 f53c a72a d9bd 0a6e 3dbb
000003f0: 5d19 e23e 7830 62bd 5ccd 8cbe 74e4 dabd
-0.25344956 0.26762268 -0.5598573 -0.3822369 0.22890176 0.10358915 0.011071285 0.2823822
-0.11714965 0.11469839 -0.37515187 -0.23832008 -0.34180477 -0.105097055 -0.12717745 0.005113421
0.0053545027 0.26154134 -0.24905452 -0.10538911 0.229683 0.10410358 -0.063263625 0.25364223
-0.001645097 -0.053043067 0.1896945 -0.42504314 -0.11244037 0.0059352713 0.2402197 0.62058645
0.007198554 -0.15407978 -0.3898394 -0.41362238 -0.2360924 0.16850488 0.31467235 0.015362044
0.20888524 -0.1559282 -0.06533677 -0.34554777 -0.09933923 -0.26353157 0.10623637 0.19896038
-0.09640578 -0.0813851 0.37460655 0.26787353 0.073867366 0.021745024 0.53154916 -0.23054068
0.11445758 -0.2875519 -0.37709513 -0.0933083 0.06938964 -0.047139138 -0.18464124 0.119495794
0.05014363 -0.035576947 -0.04807924 -0.11102799 0.23325948 0.23764518 -0.33887914 -0.09718652
0.06707866 0.2531781 0.5493246 0.2930546 0.25227004 -0.40124542 -0.002729975 -0.19695763
-0.21947272 0.55600786 0.37495017 -0.35081026 -0.16427161 -0.12056625 -0.13461925 0.1228555
0.12617299 -0.12210826 0.20096678 0.011975553 0.310518 0.019189944 -0.51194096 -0.18541005
0.24905561 0.03594065 -0.42273676 -0.15390491 0.26504794 0.22232813 -0.17005742 0.03539199
-0.20189875 -0.16050202 -0.1706688 -0.059751596 0.024060417 0.01125658 0.022684062 0.019705107
-0.06963267 0.143322 0.10610993 -0.12824577 0.009906799 0.20149136 -0.027245231 -0.09706975
0.08370963 0.2025275 -0.45994365 0.12774892 -0.31745127 -0.37089464 0.014502688 -0.23115854
-0.2713755 -0.32756212 0.1525474 0.14605981 -0.1994505 -0.062131424 0.23622188 -0.032536205
-0.04450467 0.29611048 0.012704626 0.24734347 0.93195313 -0.004894669 0.15964006 0.012447276
-0.26489857 -0.38500038 0.3375687 0.038658816 -0.09066102 -0.15537618 -0.30791035 -0.27929685
-0.13157272 0.44156468 0.07733789 -0.46993425 0.045133013 -0.5323204 0.51642203 -0.093707554
-0.21614222 -0.06009145 -0.39374667 -0.3152544 -0.04813518 -0.20084262 -0.10754288 0.03204355
-0.24325529 -0.055955097 0.30597422 -0.23451443 0.16702801 0.19376631 -0.17208348 0.30956897
-0.029615678 -0.06706833 0.25524324 -0.15776989 0.29624918 -0.23108104 0.2066523 0.084947765
0.22140151 0.30413347 -0.026145756 0.02012482 -0.6263123 0.304544 0.42785037 0.11416585
-0.47176936 0.047567517 -0.30028686 -0.25903538 -0.09027783 0.07562563 -0.32606313 0.062406823
-0.061016824 0.13896705 -0.18422917 -0.3769316 -0.0803754 0.07512154 -0.1366164 0.5422515
0.3293257 -0.051092166 -0.061293 -0.23387706 0.19592884 0.020928543 0.11110637 0.024072476
-0.1557922 -0.022515211 0.20159002 -0.30772787 0.03490832 0.33988068 0.04155062 0.033597827
-0.31252888 0.115095966 -0.36257392 -0.27324012 -0.12746544 0.010267142 0.07968862 0.12430859
-0.072221644 0.5826286 0.42764693 -0.10204935 0.2002605 -0.26797763 -0.33088583 -0.07295976
0.14844733 0.14573087 -0.18024272 0.013046798 0.14767012 -0.5577486 0.19910453 -0.43789902
0.02393045 0.030003114 -0.106038384 -0.00289047 0.44159976 -0.055222005 -0.27500427 -0.10688105

fc1.bias f4 [128]
00000000: d5fb 26bf 7459 32be e214 bc3d c0d7 abbe
00000010: 9e3b eabd 12ba a03d 59c6 f23c 7cc1 1fbd
00000020: 692d dcbe 3a9e 59bd 13a6 cbbe 642e a23d
00000030: 5077 4cbe 8837 c5be b228 1b3d 078b e63d
00000040: a797 0abe 4caa 83be ae56 5abe b1a4 aa3d
00000050: fec6 09bf 8f51 b2be 9141 14be df8b e3be
00000060: b2d4 0a3e 4ae4 9fbe 67bc ccbe 11de f9be
00000070: 270e 4abe 7986 10bf c54f 453e 4752 09bf
00000080: 0830 8bbe 0bc3 23bf ebe4 54be bc93 7d3e
00000090: f75a 433d ba96 a1be 7543 15be 15ed 5fbc
000000a0: 57ae 22be e418 093d 4c26 e6be bd3d 06bf
000000b0: 09e8 53be 86cd 5abe 4570 c3bc e42d bfbe
000000c0: 07c6 8c3d 4fc0 0b3e 8531 ddbb eefa f0be
000000d0: dc3f 6cbe c165 e9be cd2e 7cbe 2863 983e
000000e0: 3632 293d 8315 16bf 9ddd 83be 8e30 b3bd
000000f0: 6a1b b83d 5d85 a7be 8e1d f8be 7b7c c3be
00000100: bc82 1e3e f0eb dfbd 7789 e8be 34d9 bdbd
00000110: 3157 a93a d48c 96bc 3b4e 38be 2bc3 45be
00000120: 9b93 5a3d 4850 95bd 139f 2bbf 0b0c 143e
00000130: c2aa 3bbe d159 1bbf 0f95 f23c e370 893d
00000140: 786b a7be 4da9 98be dffa 15be 5d3d 10bf
00000150: 3a19 383c 6c7a 0b3c 8af0 acbd c719 3dbf
00000160: b932 8ebe b324 a43d 9fd6 86bd 114a d2be
00000170: a091 f2be dfb4 4cbf b761 24bf 8270 77be
00000180: 5762 4a3e 6784 60be 8d5f 833d 919c 253e
00000190: 0928 b33d 2980 febe 8597 5a3d b2ff 3ebd
000001a0: 1d8f e03d 66c6 42bf b914 de3c 76dd 7c3e
000001b0: 52a2 e9be 3b8c 1cbe e70c 8dbe ca08 02bf
000001c0: a99f 03bc 6a5c 1dbe 976f f4bb 2aa5 563e
000001d0: 807a fd3d 1ed0 243e aefb b5be ea3a 40be
000001e0: fc0e 55bf 99d5 bcbe 1f92 a2bd 760b b7be
000001f0: fa25 2a3e d661 32bc 83fd 123e 6cfd 243d
-0.65228015 -0.17416936 0.091836706 -0.33563042 -0.11437152 0.0784799 0.029635595 -0.03900288
-0.43003395 -0.053129412 -0.39775142 0.079190046 -0.19967389 -0.3851893 0.037880607 0.11256986
-0.13534413 -0.25715864 -0.21322128 0.08332194 -0.53819263 -0.3482785 -0.14478137 -0.4444265
0.135577 -0.31228858 -0.3998749 -0.48802236 -0.19731961 -0.5645519 0.19268711 -0.5364117
-0.27185082 -0.63969487 -0.2079045 0.24763387 0.047694173 -0.31560308 -0.14576514 -0.013667365
-0.15886818 0.033471003 -0.44951093 -0.52437955 -0.20693983 -0.21367463 -0.023857245 -0.373397
0.06873708 0.13647579 -0.006750288 -0.47066444 -0.23071235 -0.45585445 -0.24627228 0.2976315
0.04130765 -0.58626574 -0.25755015 -0.087494954 0.08989604 -0.32718936 -0.48460048 -0.3818091
0.15479559 -0.109336734 -0.45417377 -0.09269944 0.0012919662 -0.018377699 -0.17998593 -0.19312732
0.053363424 -0.07290703 -0.67039603 0.14457719 -0.18326858 -0.60683924 0.029612092 0.067109846
-0.3269918 -0.29816666 -0.14646481 -0.5634363 0.011236483 0.008513074 -0.08444317 -0.7386746
-0.27773073 0.08014812 -0.065839045 -0.41072133 -0.47376728 -0.7996349 -0.642116 -0.24164012
0.19764076 -0.21925507 0.06414709 0.16173007 0.087478705 -0.49707153 0.053367157 -0.04663057
0.10964797 -0.7608398 0.02710949 0.24693856 -0.45631653 -0.15287869 -0.27548906 -0.5079466
-0.008033671 -0.15367284 -0.0074595916 0.20961443 0.12376881 0.16095015 -0.3554358 -0.18772474
-0.8322599 -0.36881712 -0.07938027 -0.35750932 0.1661605 -0.010887584 0.1435452 0.040280744

fc2.weight f4 [128, 128]
00000000: 3a6c 8d3d f4a4 0dbe e8cd 443d b7c8 d53d
00000010: e8a3 e7bd 302d 8ebe 7799 00bd 66f8 cfbe
00000020: d659 693e 127e eabe be63 363e ff7b 9bbe
00000030: 1c80 23be cede 173e f453 813e 7739 dabe
00000040: 1710 883c bff4 ccbe 35de 56be be90 0abe
00000050: a271 18be cfd8 34bf 9bdb 983d 0d0e 89bd
00000060: 5df5 f13d 4391 17be 6ae4 a3bd c9e1 333d
00000070: 7fb3 b7bf de9e aabe 8bc5 403e 4e98 083f
00000080: e4b9 41be c2a0 61bd c826 bfbe 9b0b fa3d
00000090: 1567 29bf dc01 3abe c6d3 c53d 47ee 07bf
000000a0: 729c b43d 24a0 623d 1c32 3fbf 4b06 85be
000000b0: 310a 90be 89b2 02be 734d 51bd bac3 813e
000000c0: b6b0 bf3d 1f6e 33bd 7bf6 4e3d 6ba4 cfbd
000000d0: f178 b13e 90f2 a2be 8e29 34bf 10b3 1cbd
000000e0: 52af 9dbe 4745 3bbf 20ee 9e3d de35 02be
000000f0: 51d3 943c 0a0d 5bbe 0d02 fbbe b668 d1bd
00000100: e436 3e3e d2b4 7dbe 98cd a13e 1737 e73d
00000110: 4bdf e4bd 7eac dcbe fe70 f03d 057a 38bc
00000120: a0bd 3fbe 1c29 223f 307d febe 0173 23bd
00000130: ed32 78be db11 33be 3b0b 00bc eef0 6a3e
00000140: 8a70 8a3e 46a4 503e 00bc 6cbe 9bf1 cc3e
00000150: e3dd cf3c 8fb4 d3be 4e1f ab3d 4c44 0c3e
00000160: 7480 10be 8dd3 56be b35c 1abd 74f6 e13d
00000170: ae8f ca3d 59dc 2e3e 729b 3f3d deaf 693e
00000180: f789 873e 247d 0e3d 5ee9 1ebe 9902 893d
00000190: e3eb dcbd d848 2fbe 9046 abbe 957e c8bc
000001a0: 45d8 903e 786a 52bd e744 adbe 4249 8bba
000001b0: 2169 f5be efae 563c 4184 4dbe 28c4 913e
000001c0: 7b95 aabe 5873 913e ea18 723d a6ea a4bc
000001d0: ee0e a8be 673a 27be c836 f8bd d027 2bbd
000001e0: 264f 04bf 5661 a93d c721 57be c384 bebc
000001f0: 58d3 e33d 3fb2 a1be a4dc e33d db6b b9bc
00000200: 68be 293e 0fd7 3ebe 9761 153d 2084 db3e
00000210: d553 e33d 3422 cdbd e8b9 913c e610 3cbe
00000220: 2130 48be 5c37 19bf 2c06 a4bd a877 37bc
00000230: d1ec 6ebd ded0 63bd 7aee 0ebe 7e60 4a3e
00000240: 104f 12be 5b04 68bf 170c 803e d009 eb3c
00000250: 7692 a93e a370 0bbe 8247 37be 789b eebe
00000260: 0347 503d ada5 59bf 3386 0e3e 17ed 303e
00000270: 33ac 9dbe 1ae2 153e 126e 0bbe cca0 b83c
00000280: 10b9 e4be f24c 2fbe ce3a d9be 597c f7bd
00000290: 1fa0 44bd e24c af3e 900f 0dbf d674 c3bd
000002a0: 14b5 a03e 2428 30be c121 b7bc 6b14 463e
000002b0: 9f9c 89be 31bf 96be 6fce 82bd ff09 313e
000002c0: 73ca ba3d fb4b 833d 8c5d f9be 33d7 9fbd
000002d0: 225d ba3e e857 3ebd 7e23 12bd d696 4abd
000002e0: bf56 90bd c4b6 30be cfdb 973e 347c 353c
000002f0: f12f d63c 610d 37bf ed21 febe 24e0 9fbe
00000300: 2684 653e 382d 303d 8e59 d43c 1f14 b23d
00000310: e724 503d bfbe ffbe d97a b23e 0f21 73bf
00000320: 3842 fa3d a26e a33e fcf2 33bd 37fc 88be
00000330: 122a 393e 15c5 edbe 618f 9dbd b2cd 07bd
00000340: 079c 9a3e 0a08 663e d32a bdbe b28f 513d
00000350: 6b8b 45be 4268 8bbe d9d2 493e 833d 173f
00000360: 3f94 fbbd 7e5c bbbe 8331 8a3c 763d f13d
00000370: bb96 b43e 8142 03bf db76 423f 574e 3dbe
00000380: 6f69 91bd 44b6 8c3d da9c c03d bf90 293e
00000390: 583b 27bf 621f a8bd 94e4 06be ea14 96be
000003a0: 4a27 bcbd 9817 0abf fea9 a53d 2d3f 55be
000003b0: c563 8ebf 70b3 58bd f75c a6bd a381 863e
000003c0: cbd4 103e 082d 9a3d 5ca4 1c3e e68b 2dbd
000003d0: 576b 8dbe 7466 c4bd 1b64 99be 1437 b2bd
000003e0: 3926 a33b 4e48 0a3d 30d6 8e3e bd92 fa3d
000003f0: 1a6d 5a3c f058 a13b 98db 623e deef 0cbe
0.06905408 -0.13832456 0.04804793 0.10438674 -0.113105595 -0.2776885 -0.031396355 -0.406192
0.22788176 -0.4579931 0.17811486 -0.3036804 -0.15966839 0.14831087 0.25259364 -0.42621967
0.016609235 -0.40030476 -0.20983203 -0.13531777 -0.14887097 -0.70643324 0.074637614 -0.06692133
0.118143775 -0.14801507 -0.08002551 0.043916497 -1.4351653 -0.3332433 0.18825357 0.533574
-0.18918568 -0.05508495 -0.37334275 0.12209245 -0.66172916 -0.18164772 0.09659533 -0.5309796
0.08818902 0.055328503 -0.74685836 -0.25981364 -0.28132775 -0.12763418 -0.051099252 0.2534464
0.09359877 -0.04380619 0.05052803 -0.10138782 0.34662583 -0.31825686 -0.7037591 -0.038256705
-0.3079782 -0.73152584 0.077602625 -0.12715861 0.01816717 -0.21391693 -0.49025002 -0.1022505
0.18575627 -0.24776009 0.31602168 0.112898044 -0.11175402 -0.4310035 0.117403015 -0.0112595605
-0.1872468 0.6334398 -0.49704885 -0.0399046 -0.24238177 -0.1748728 -0.007815178 0.2294347
0.27038985 0.20375165 -0.23118591 0.4002808 0.025374359 -0.41348693 0.0835558 0.13697928
-0.14111501 -0.20979138 -0.03768606 0.11033335 0.09890686 0.17076243 0.046779104 0.22820994
0.26472446 0.034787312 -0.1551871 0.066899486 -0.10787179 -0.17117631 -0.33452272 -0.024474422
0.2829 -0.051371068 -0.3384163 -0.0010626691 -0.4793177 0.013103231 -0.20069982 0.28469968
-0.3331717 0.28408313 0.05910579 -0.02013142 -0.3282389 -0.16330872 -0.12119824 -0.041786015
-0.5168327 0.082705185 -0.21008979 -0.023256665 0.11124295 -0.31581303 0.11126068 -0.022634437
0.1657654 -0.18636726 0.036470022 0.4287424 0.11099974 -0.10016289 0.017788842 -0.18365821
-0.1954961 -0.59850097 -0.0800899 -0.011197962 -0.058331314 -0.055619113 -0.13958159 0.19763371
-0.14287972 -0.90631646 0.25009224 0.028691202 0.33119553 -0.13617186 -0.17898372 -0.46602988
0.050848972 -0.85018426 0.1391838 0.17277943 -0.3079544 0.14637032 -0.13616207 0.022537611
-0.4467244 -0.17119196 -0.42427677 -0.12084264 -0.048004266 0.34238344 -0.5510187 -0.09543769
0.31388152 -0.17202812 -0.022354962 0.19343726 -0.26877305 -0.29442742 -0.0638703 0.1728897
0.091206454 0.064109765 -0.48704183 -0.07804718 0.3639918 -0.046470553 -0.03567838 -0.049460255
-0.070477955 -0.1725722 0.29659888 0.011076976 0.026145907 -0.7150479 -0.49635258 -0.31225693
0.22413692 0.043011874 0.02592161 0.08695244 0.050816443 -0.49950215 0.3485935 -0.9497232
0.122196615 0.31920344 -0.0439329 -0.26754925 0.18082455 -0.46439424 -0.07693363 -0.03315515
0.30197164 0.22464004 -0.36946735 0.05116243 -0.19291465 -0.2722798 0.19709338 0.59078234
-0.12284135 -0.36594003 0.016869312 0.11779301 0.35271248 -0.5127335 0.7596261 -0.18486916
-0.07100188 0.06870702 0.09404917 0.16559123 -0.65324926 -0.08209111 -0.13173133 -0.2931283
-0.09187181 -0.5394225 0.08089064 -0.20824881 -1.1124197 -0.0529055 -0.081232004 0.2627078
0.14143674 0.0752812 0.15297073 -0.042369746 -0.27620956 -0.09589854 -0.29959187 -0.087019116
0.0049789217 0.03376036 0.27897787 0.12235019 0.013331676 0.0049239323 0.22154081 -0.13763377

fc2.bias f4 [128]
00000000: 947e 67bd 6027 b7bd cd2d a83d d75b 91bc
00000010: 3883 ebbd 74ae 9f3d aa93 983e cdf9 fdbd
00000020: 1b21 483e f446 86bd 18a6 d73d c36f 733d
00000030: 7c7a b9bd 73c9 48bd cae2 923d 0faa 0a3e
00000040: da6d a5bd 2f5b 603e 18b1 7d3a 6bd3 5abe
00000050: 6f05 993d 6d56 85be 941f 293c 5393 e23d
00000060: ebee c83b 9f78 99bd 45b4 053d dcb1 2c3e
00000070: 52a8 163e 98af 473e cae5 1c3d b78c c1be
00000080: b672 783d c665 2c3e e695 503e 44e4 0f3e
00000090: 5b8b 0f3e 7e7a 6e3e 66b3 863d ec02 06bc
000000a0: f8bc 3b3e 4746 e93d eeff afbd 4804 123e
000000b0: 9212 923d 35ff 6a3d 7c5d 873d 014e c6bd
000000c0: 7910 203e 7a9e 14be 0f4c 473e 6d8a 86bb
000000d0: 4ebf 373e ee94 783d d0c2 b6bd 5f46 023e
000000e0: a8ba 6bbd 1c13 833d d5b0 ca3d 4a65 29be
000000f0: 30d1 343d 4625 bc3d 3761 f83d 499f 123e
00000100: 7e82 9a3d f568 a3bd f5a9 e63d 9e90 7f3d
00000110: 1ac2 8a3c 7beb 4b3c d4b9 433e 989a 6f3d
00000120: 7d87 6c3e 33a3 0f3d e76d abbd fbbe d53d
00000130: ac97 3abd da49 8c3d 7725 cabd 777b fdbc
00000140: 60f6 a73e 73cb 9e3d 9fb3 b93d f63b 1a3c
00000150: 45c8 26bd e542 803c eab1 923d 596c e53d
00000160: 6049 7d3d 30f9 853d 6c35 2fbd 3ceb 363e
00000170: cec6 e43d 3609 a73d 0b83 983d 7ee1 0c3e
00000180: c04e 8fbe 1337 24be 56c0 abbd fc70 ba3d
00000190: c96a 5c3c 2699 cb3a a1d7 fa3d ab00 bf3d
000001a0: b701 4c3e 77bd 2b3e a641 a13d 7323 0a3e
000001b0: 0516 52bd 49c1 923d 07dc 10bd f07a 043e
000001c0: b43e a03d 8bb8 8ebc 2778 f33c d066 113c
000001d0: 5bb9 cfbd 6e2c 673c ddca 0c3e f61f 0d3d
000001e0: 2f99 8bbe 841e e6bc f0ff f73d b20e 61be
000001f0: 1e55 133e 7e39 243e f3a2 1dbe 20d1 043e
-0.0565172 -0.08943057 0.08211861 -0.017743988 -0.11499637 0.07796946 0.2980016 -0.12401161
0.19543879 -0.06556502 0.10529727 0.059432756 -0.09056565 -0.049020242 0.07172163 0.13541435
-0.08077593 0.21909784 0.0009677573 -0.21369712 0.074717395 -0.260425 0.01032247 0.11063256
0.006131997 -0.0749371 0.03264262 0.16864723 0.14712647 0.19500577 0.03830508 -0.3780267
0.060656272 0.16835698 0.20369682 0.1405192 0.14018004 0.23288915 0.06577186 -0.008179408
0.18333805 0.113903575 -0.085937366 0.14259446 0.07132448 0.05737229 0.066096276 -0.09682847
0.15631284 -0.14513579 0.19462608 -0.004105857 0.1794407 0.060688905 -0.08923876 0.12722157
-0.057551056 0.06400129 0.09897009 -0.16542545 0.04414481 0.09186797 0.12127917 0.14318575
0.07544421 -0.07979003 0.112628855 0.062393777 0.016938258 0.01244628 0.19113857 0.05849704
0.2309856 0.03506775 -0.083705716 0.10436817 -0.0455548 0.068500236 -0.09870427 -0.030942662
0.32805157 0.077536486 0.09067463 0.00941371 -0.040718336 0.015656898 0.07162841 0.11202306
0.061837554 0.06541669 -0.042775556 0.17863172 0.111707315 0.08156054 0.074468695 0.13757893
-0.2798977 -0.16036634 -0.083862945 0.09103581 0.013453194 0.0015533313 0.12248159 0.09326299
0.19922529 0.16771494 0.078738496 0.13490085 -0.05129053 0.071657725 -0.035366084 0.12937522
0.0782446 -0.017421981 0.029720379 0.00887461 -0.101427756 0.014109714 0.13749261 0.03445431
-0.27265307 -0.028090723 0.12109363 -0.21978262 0.14387938 0.16037557 -0.15394191 0.129704

dist.fc_mean.weight f4 [2, 128]
00000000: 6b88 43be 0db1 a83d f784 a7bd c517 78bc
00000010: cba9 dd3d d894 fb3c 3c1a 603e 5297 593d
00000020: 55b0 723b 64b8 52bd 39de 7c3b 1cd1 313a
00000030: a773 5fbb 3b4c 97bc c253 7a3c 2856 e03d
00000040: 1a66 0bbe ad0f a0be f931 813b 0a64 6e3d
00000050: 7600 533e 4433 e73c 9f86 e4bd b693 b63d
00000060: 42b4 643c 8611 17bd fbba 17be 67b5 f9bc
00000070: 737e b73b 0fc5 43bb 9ce7 123e 76dd 763e
00000080: ba69 5c3c 81da 373f 2cca da3d 4e32 edbb
00000090: 6b95 3d3d 6628 163d eed7 e3bb 9c6c 91bc
000000a0: 6fc9 403c a22f 383e 5b17 293e 5951 f8bb
000000b0: 25b4 51bd 3633 b7bc 7b47 df3d c59d 6bbe
000000c0: c7e4 dcbc f27f 033d 3dfc cbbc 5d87 bb3d
000000d0: f918 9a3b 8706 393b ed38 8e3b 8b36 da3b
000000e0: 6a28 0ebd 35e7 94bc 27ea b63c 383a 2036
000000f0: 7e30 9b3e bd99 e9be 20ae 273c c039 dbbc
00000100: a97d 853d f712 ab3b 6b1c 96bc 4bf5 263c
00000110: 3bf7 a53b 051f eebe 372e ba3c 4b33 0e3c
00000120: 28d7 81bd e4b6 233d 1585 083c 44c3 86bc
00000130: a760 0fbc 8d09 0fbc 9bb7 c03d e339 a73e
00000140: 82d8 bdbc accf 783c 53cd 243f a453 6bbc
00000150: b714 f13b 2adb 61bd fed7 1fbd 19cb 963d
00000160: fcdf fab9 9484 26bd 140e eaba 4ff7 e13b
00000170: 8ba2 01bd 6c2d 003e e5f7 1ebc 9b84 7fbe
00000180: 5ba4 b9be c0b0 c73e d633 afbd 03be 7bbc
00000190: b227 20bc 83cc b73c b951 623e 8300 ba3d
000001a0: 4a75 fcbd f7a6 0ebd ae8e 2f3e 05c7 273c
000001b0: 5c7e 033d 631d a33d b641 9e3c ea44 033d
000001c0: 36f3 c93b e0fd 1abb 0f91 30bc 3284 b83b
000001d0: 943e 3cbd 1f29 903b cd10 d83c 06ff 96bb
000001e0: 3f79 35be fbb6 38bc 3be0 ccbc aaf9 243c
000001f0: 6eb8 b5b9 7e0a 2fbd 1f9e 73bc e1ba f3bb
00000200: 96ca 1f3d 0a24 903d f6f1 2cbc 19b8 07bd
00000210: 5e4d 113e 343c ac3c ab36 203b 3010 98bb
00000220: dc13 7aba 0f13 583e 8aa3 b6ba 8334 d7bd
00000230: caf6 423c 7b25 cebc 2abe af3d 52d1 fcbd
00000240: ac34 d0bd 3ef2 6f3c 80d7 d8bb 54c4 693c
00000250: 8478 503d 7740 b23d 05b6 21bd 12e3 2ebd
00000260: 950e cf3d 826d e3bc 4b8b bfbe 9920 de3c
00000270: c0f6 2cbb 2d04 63ba 74e7 e1bd 34ce 36be
00000280: 5862 293d 1005 903e 77db 30bc 1f4a 9b3d
00000290: de72 3b3b 480f 4fbc 7a5c 373b bd1f 79be
000002a0: e693 99bd 759b 943e bbff 243a e3ae 84b6
000002b0: f323 e03b 7b7c a13c 3080 d4bc e0f8 adbc
000002c0: bfe3 2e3b a452 b9bd dd43 8b3d 8e7e 60bd
000002d0: 7fb2 da3e b048 a83d ece6 8bbb 60f0 e9bb
000002e0: d5a4 a2bc 6d86 2e3e 6d6c 9cbd db36 dd3d
000002f0: b1b1 3bbc 9c1c 313d 8ea3 eb3c 3348 413c
00000300: 275e 623d 022d 9a3b 1e06 74bd 26f6 693d
00000310: d838 dabc 5618 c43c bc5d 22bb c382 bbbe
00000320: 87e1 813c fd22 afbb b496 6b3d 0912 babb
00000330: 5242 f83d 470f 81be b442 683c 8472 353e
00000340: 802f 0e3d d969 a03d a745 2cbe e069 253c
00000350: f7ee d2bb 0036 033c 5ee4 f5bb a59e e4bc
00000360: d83e c8bd 0c48 4cbd 85a6 293c 4a3f 20bf
00000370: e517 a83b 488c db3e afb5 97bd 969f 15be
00000380: 531c d83c a51a 283e 66c5 f2bd a05a aa3d
00000390: 4194 913d 6a38 063d 9642 9bbd 67f6 1a3e
000003a0: 2cd9 2bbb be55 ea3a b18f e9bb 3fd4 0a3d
000003b0: 0a89 24be cafc 243b 4455 803a e5d9 ddbb
000003c0: ee67 ccbb faa4 113c 1ce5 acbd fffb 203c
000003d0: 2940 edbc 60c1 fd3b 199d 3b3c 72f6 583e
000003e0: 36eb c1bd 0a72 9fbd 2b62 1e3c 9e67 ce3e
000003f0: 7a8b 03bc 2799 803d 17ed 9fbc 7081 b03b
-0.19095008 0.08236895 -0.08179658 -0.015142386 0.10823401 0.030710623 0.21885008 0.053122826
0.0037031372 -0.05144538 0.0038584603 0.0006783174 -0.0034096034 -0.018468967 0.0152787585 0.10953933
-0.13613167 -0.3126196 0.003942725 0.058200873 0.20605645 0.028222688 -0.111584894 0.089148924
0.013958992 -0.036881946 -0.14817421 -0.030482007 0.0055997907 -0.0029872095 0.14346164 0.24107918
0.013452942 0.71817786 0.106830925 -0.007238663 0.046285074 0.03665962 -0.006953231 -0.017751984
0.0117667755 0.1798692 0.16512816 -0.007578057 -0.05119719 -0.022363286 0.10902306 -0.23009403
-0.026964558 0.03210444 -0.02490055 0.09156678 0.004702684 0.002823265 0.004340282 0.006659334
-0.03470651 -0.018176654 0.02232845 2.3875746e-06 0.30310434 -0.45625106 0.010234386 -0.026760936
0.065181084 0.0052207666 -0.018324098 0.010190318 0.0050648726 -0.4650804 0.022727115 0.008679221
-0.06339866 0.03996934 0.0083325105 -0.016450532 -0.008751071 -0.008730304 0.0941002 0.32661352
-0.023174528 0.015186232 0.643758 -0.014363203 0.0073572057 -0.05514065 -0.039024346 0.073629566
-0.00047850597 -0.04065378 -0.0017856979 0.0068959366 -0.031649154 0.12517327 -0.009702657 -0.24952929
-0.36258206 0.39002037 -0.08554809 -0.015365127 -0.009775089 0.022436386 0.22101487 0.09082129
-0.123270586 -0.0348272 0.17144272 0.010240321 0.032102928 0.079645894 0.019318443 0.032048143
0.006163026 -0.0023649856 -0.010776772 0.0056309933 -0.045958117 0.0043994333 0.026375199 -0.004608038
-0.17722033 -0.011274095 -0.025009265 0.01006929 -0.0003466042 -0.042734616 -0.014869242 -0.007438049
0.03901156 0.07038124 -0.010555735 -0.033134554 0.1418967 0.0210248 0.0024446647 -0.0046406016
-0.00095397024 0.2110102 -0.0013934236 -0.10508063 0.011899659 -0.025164356 0.08581193 -0.12344612
-0.10166296 0.014645157 -0.0066174865 0.014268 0.050896183 0.08703702 -0.039480228 -0.04269702
0.10110203 -0.027762178 -0.3741096 0.027115153 -0.0026392192 -0.0008659985 -0.11030474 -0.17852098
0.041353554 0.28128862 -0.010794512 0.07582497 0.0028602402 -0.012637921 0.0027978704 -0.24328513
-0.074989125 0.29024854 0.00062942103 -3.954266e-06 0.006840223 0.019712677 -0.02594003 -0.021236837
0.002668604 -0.090489656 0.06800053 -0.054808192 0.42714307 0.08216989 -0.0042694714 -0.0071392506
-0.019853989 0.17043467 -0.07637868 0.108014785 -0.011455939 0.043240175 0.028764512 0.011796999
0.055265572 0.0047050724 -0.059576146 0.05711951 -0.026638433 0.023937386 -0.0024775108 -0.366232
0.01585461 -0.005344747 0.05751677 -0.0056784195 0.121220246 -0.25206968 0.0141760595 0.17719465
0.03471327 0.07832689 -0.16823445 0.010096043 -0.0064371782 0.00800848 -0.00750403 -0.027907679
-0.097776115 -0.049873397 0.010354643 -0.6259657 0.0051298016 0.42880464 -0.074077 -0.14611658
0.026380694 0.16416414 -0.11854057 0.083180666 0.07108355 0.032768644 -0.0758106 0.15133058
-0.0026221974 0.0017878336 -0.007127725 0.03389382 -0.16067901 0.0025175088 0.0009791036 -0.00677036
-0.0062379753 0.008889431 -0.08442137 0.009825706 -0.028961258 0.0077439994 0.011451029 0.21187761
-0.09468691 -0.07785423 0.00966696 0.4031343 -0.008028859 0.062792115 -0.019522233 0.005386524

dist.fc_mean.bias f4 [2]
00000000: 4d80 b53d 4743 8abc
0.08862362 -0.016877783

dist.fc_logstd.weight f4 [2, 128]
00000000: 48da e43e 2fc3 d7bb e26c 25bf e073 bdbd
00000010: 4800 03bf d348 ad3a 4b10 443d 61f1 54be
00000020: a31c e43d e8ec af3e 014d e9be 7238 16bc
00000030: cc7a 8dbf 8846 41bd 6b9e b23d 5d1e 87be
00000040: c3ab 52bc cc6e 05bf 3b2e 68be 4394 85be
00000050: 12af 9abd 6f45 46bc 07b8 17bd 811a 893e
00000060: 32f5 3d3e 942e 6b3b 2d0f 85be bc77 8ebe
00000070: 108d bbbe 8470 b4be cef9 643e c84d 513e
00000080: 3596 08bd 297e c83f bfe2 53be eba3 263e
00000090: c743 a33e 4769 c13d 69a3 5dbe dbd9 c3bd
000000a0: 9d79 24bf 94ee 48bf 55e5 babe 9542 4dbf
000000b0: dc38 f8bd c5a9 683e 59a7 3a3e c8d9 4ebf
000000c0: 5f38 923e 9938 df3e 681b 45bf 25a1 173f
000000d0: e7f7 e8be 0495 17bf 666e 58bd c4e5 943e
000000e0: a84c 8cbe bd15 cdbd 7c98 2cbe a95b 9d3e
000000f0: dacb 7bbd b7c8 a8be a3ab b2bd e2d4 1e3f
00000100: 1c41 dfbd 26ce efbd 7ed9 70be b516 d7be
00000110: 61ae a1bd 64c6 85bd d9c0 993d 81d9 84bd
00000120: 7cde e3bf f7a8 02bf a53b 40bd 4a61 48bf
00000130: b86b 38bd 7d19 56bf 988d 903d 973d aa3e
00000140: 7e7a aebf 6675 58bd 1f99 eb3e 6210 c23e
00000150: fa3d 39bd 8478 27bf b5d5 b8bf 9a80 e3be
00000160: 0ab6 80bf 663a 37be fee3 c8bf 978d 96bf
00000170: 7fb8 dcbe 400d 87be 141f 51be 795c 97bf
00000180: 9922 4e3f 91dd e93d b22f 10bc 19eb 1fbe
00000190: d64c fc3d 6bc8 593f aa5a f9be 479a 46be
000001a0: d1be bebe b71c 6fbf dff1 a1be 7ac2 c5bf
000001b0: 29c7 81be cfd1 423f e54b 0ebf cb02 acbe
000001c0: fedc 48bf 7aad 27bf c0d1 acbc bff1 9bbf
000001d0: 2c75 f5be fb89 9d3e 94f8 443f 461b 9cbf
000001e0: f3b0 d93d 19ea 1a3e 8978 23bf bb6a 3dbd
000001f0: fd65 dfbf 2579 8bbf ce45 81bd 4822 203f
00000200: e6fb dfbe 5dd1 55bf 95a4 acbe f843 56bf
00000210: 1960 463d 4328 943d ed62 abbb 59e0 12bd
00000220: 85d7 82bf d005 083f 7a21 d3bd a2fc 123e
00000230: 4a10 e9bf 06fe 84bd 3793 be3e 4dfc ad3d
00000240: 003d 19bc f87e a9be 4a8c e4bd 4fde 9dbe
00000250: 4c2d 993f 64b7 12bf 561a 6cbc aca0 c33e
00000260: f811 16be 3325 86bc 53d7 d1bd 2cf9 e9bc
00000270: 4cef 57bf a109 c1bf 3340 c33e c7b2 4abf
00000280: 452f 05bf 94f6 003f 31b3 143d 25e0 343e
00000290: fe57 b3be 9167 a6bf b350 97bf 89b4 733e
000002a0: 39d4 31bc b0cf fabe 31b0 63be 0fe8 7ebe
000002b0: 1637 8b3d 0e9d d93d 0d8b 43be 6866 42bf
000002c0: 9c4c 84bf 50f4 8b3e 85ab 90bf be91 1dbd
000002d0: cc8a 9d3d 4262 84be fc0c 133d 38d4 0ebf
000002e0: 4b53 533e 0155 47bf 3bc1 3abd 3eb8 493e
000002f0: 7505 783e e407 5f3e 5b87 69be 5018 4dbf
00000300: abe1 63bd 124b eabd 6259 07bf 8a95 03bf
00000310: 017e e7bd 5942 f73c 5e1b 35bf d989 3ebe
00000320: ad95 82bf 743b 33bf 5806 4dbd 34d6 2a3f
00000330: 8745 e03d 4cbc 5cbf b6e1 c7be 20de 683e
00000340: 441b ed3e 0f23 2f3e fcf4 a0be 362d 47bf
00000350: 9cf3 89bd bc22 76bf b436 cdbe 4ddf 163f
00000360: f8a5 05bf 93b7 dd3e b898 083e 78dd 7cbe
00000370: 63d6 e5be 6b6f 983e fcad debf 1231 043f
00000380: aede 27bd f3fe 12be 1de1 19bc 0c1d 073f
00000390: ed34 ac3e dd9c ce3e d4d3 5ebe 3d8b 80be
000003a0: 11c3 ffbe 42aa 57bf ac13 cab9 44ec ef3e
000003b0: 6b19 3cbe d890 d9bd 4bc4 aabe aa4f c6be
000003c0: 2bca fcbd 04b3 9cbe dadf d6bd 87a9 3ebe
000003d0: 5f5c 673e de11 1e3e 1142 ab3c 1f54 fcbe
000003e0: b361 b33a 0eed 0fbe 0447 95bf ba03 073e
000003f0: c9a5 10bf 683e 063f 6a99 92be 3832 07bf
0.44697785 -0.006584547 -0.64619267 -0.09250617 -0.51172304 0.0013220556 0.0478671 -0.20795204
0.111382745 0.34360433 -0.45566562 -0.009168731 -1.10531 -0.047186404 0.08721622 -0.26390353
-0.012858334 -0.5212219 -0.22673886 -0.26089677 -0.07552923 -0.012101515 -0.037040737 0.26778033
0.18550566 0.0035885917 -0.2598814 -0.27825725 -0.3663106 -0.35242093 0.22360918 0.20439827
-0.033346374 1.5663501 -0.20691966 0.16273467 0.31887648 0.09443908 -0.21644367 -0.09563037
-0.6424807 -0.7848904 -0.3650309 -0.8017972 -0.1212022 0.22721012 0.182279 -0.8080106
0.28558633 0.43597868 -0.76994944 0.5923026 -0.45501634 -0.59211755 -0.05283966 0.29081547
-0.27402234 -0.10013912 -0.16855043 0.30733994 -0.061473705 -0.32965633 -0.08724143 0.62043583
-0.109010905 -0.117092416 -0.23520467 -0.42009512 -0.07894588 -0.06531981 0.07507486 -0.06486798
-1.7802272 -0.5103907 -0.04693188 -0.7827345 -0.045024604 -0.8363264 0.07058257 0.33250114
-1.3631132 -0.052846335 0.4601526 0.37903124 -0.04522512 -0.6541827 -1.4440218 -0.44434053
-1.0055554 -0.17893371 -1.5694578 -1.176196 -0.4310951 -0.26377296 -0.20422012 -1.1825095
0.8052154 0.114192136 -0.008800434 -0.15617026 0.12319343 0.8507144 -0.48701984 -0.1939479
-0.37254956 -0.9340319 -0.31629845 -1.5449975 -0.2534726 0.7610139 -0.55584556 -0.3359588
-0.7846221 -0.6549908 -0.02109611 -1.218315 -0.47940958 0.30769333 0.769418 -1.2195823
0.106294535 0.15128364 -0.638558 -0.046244364 -1.7452999 -1.0896345 -0.06312142 0.6255231
-0.4374687 -0.8352259 -0.33719316 -0.8369746 0.04843149 0.07234242 -0.0052302987 -0.035858486
-1.0222021 0.5313387 -0.103091195 0.14354184 -1.8208096 -0.064937636 0.3722169 0.08495388
-0.009352922 -0.33104682 -0.111595705 -0.3083367 1.1966949 -0.5731108 -0.014410576 0.3820852
-0.14655292 -0.01637516 -0.10246148 -0.028561197 -0.84349513 -1.5081064 0.38134918 -0.7917904
-0.5202525 0.5037625 0.036303703 0.1766363 -0.3502807 -1.3000356 -1.1821502 0.23799337
-0.0108538205 -0.48986578 -0.2223518 -0.24893211 0.06797616 0.10625659 -0.19096012 -0.7593751
-1.0335879 0.27334833 -1.1302344 -0.03846907 0.07692489 -0.25856215 0.035901055 -0.5579257
0.20637242 -0.7786408 -0.045594435 0.19699189 0.24220832 0.21780354 -0.2280554 -0.8011522
-0.055635136 -0.114401 -0.5287076 -0.51400054 -0.1130333 0.030183004 -0.70744884 -0.18607272
-1.0201927 -0.70012593 -0.050054878 0.667331 0.10950761 -0.8622482 -0.3903939 0.22740984
0.46309865 0.17103218 -0.31436908 -0.7780336 -0.06735918 -0.9614675 -0.40080798 0.5893448
-0.52206373 0.4330412 0.13339508 -0.24693859 -0.44890127 0.29772505 -1.7396846 0.51637375
-0.04098385 -0.14355068 -0.00939205 0.52778697 0.3363413 0.40354052 -0.21760494 -0.2510623
-0.4995351 -0.8424417 -0.000385431 0.46859944 -0.18369071 -0.1062333 -0.33352885 -0.38732654
-0.12343248 -0.30605328 -0.10491915 -0.18619357 0.2259383 0.15436503 0.020905526 -0.4928293
0.0013685733 -0.14055273 -1.1662297 0.13185015 -0.5650297 0.52438974 -0.2863267 -0.52811

dist.fc_logstd.bias f4 [2]
00000000: e47d 2cbe ceb4 9dbd
-0.16844898 -0.077005014

exp_avg f4 [128, 9]
00000000: c60a 363d 86f2 923c 331a a33d a1ba 343d
00000010: 6ba0 44bd 3c98 0abc dfd4 4c3a 1ba0 abbc
00000020: 6cb0 413c 71dc 7d3c 6ce4 86bc 23aa d1bc
00000030: c32b 5dbd 7e36 323c 8cbb 743c e93c edbc
00000040: 78b2 aabd 7a39 cb3c 5d40 4f3d 4c06 87bd
00000050: 0ee2 3f3d 6916 383d 153b a8bc 5078 93bd
00000060: 80c0 9abc c488 e6bc ea34 683e 7944 2fba
00000070: 3a58 72bd 956d 8abd 2c86 a43d ec83 393d
00000080: 9098 8bbc 90e5 1bbc 68ba e6bb be35 52bd
00000090: c181 993c 57e0 69be 4ad8 653d 5431 a0bd
000000a0: 0f4f a1bc c881 80bc 5fbd 143d ca3a 1f3d
000000b0: 4dd2 243e fa39 07bc 336f 273e 0864 113c
000000c0: aa5b 2a3d 87e3 efbd 8a65 18bd dadd 66bc
000000d0: 7140 4bbc c061 833c 2e8a 3e3e d678 6fbd
000000e0: ec4a 663e b3f7 d9bd ff74 9dbd 192c 1c3a
000000f0: d89f 353b 2cf0 d8bd b6e8 b23e d3c2 0cbc
00000100: b7f4 d03b 667e 2cbd e75a e9bc e869 e53b
00000110: 2215 2b3d a1f4 36bb 43d1 bd3a f70d 8c3b
00000120: a889 4cbc a840 623d 70f5 c3ba 6df3 a53d
00000130: 9071 e7bc 7a28 2d3c d6d0 a7bc a5db c0bc
00000140: 489e d0bd 5389 3b3a 0a57 023d 4f20 87bd
00000150: eecc 023e e40b 893d 6a3f 863c 688b 3c3d
00000160: 48eb 7e3c d3e2 243d 0b0d febd 1080 f23d
00000170: 3e7d adbd cce9 0c3d 0a68 c5bc 4565 7fbd
00000180: 529e 0fbd ffbb 8ebc a823 12be b62e b2bd
00000190: 9d91 ccbd 0afb 2c3c e360 3bbe 208a ffbd
000001a0: 476a e23c 4fb4 fdbb 16b4 cfbb 1928 333e
000001b0: 6834 68bb 7539 9e3b 0e1e 973b ee5f 05bc
000001c0: 8fe9 2abb 63d9 e63b 108a 9fbb e6b7 0cba
000001d0: a037 8abb 902e 65be 613b c83d 3ff4 5dbe
000001e0: 8513 543d 53dc 13bc 1f01 f5bd c1fe 3739
000001f0: be89 8bbc 0c5e c0bd 521e ce3d 2740 703b
00000200: 42d5 453d f00d 073e 3c4d 9e3d dbe4 9b3d
00000210: 181c 313d f6cf 973c 4361 1cbe 3276 4e3d
00000220: e182 b93e 7cdf 92bd 968c 14be 2a1c 4e3c
00000230: 25d5 cc3b d65a be3c b5f0 983d b3ae c6bd
00000240: a387 093d ca10 b43d e09a 4e3d c871 f3bc
00000250: 47c7 a6bc d701 023d e382 89bc c92f 22bc
00000260: ec39 b0bd 217a 063e 916d 1abe f9cb 513e
00000270: 702e 4b3d faa3 8bbc f50b bfbb f1b4 353d
00000280: f3e2 ed3c 8501 e93d 983c 583d 3f8d 9e3e
00000290: 2412 54be d799 19bf 84dd 643e 3630 f93d
000002a0: bbb3 e43d 1da5 e63d 296b 0dbf 56d4 52be
000002b0: bce3 bdbd 15c6 3cbe 0ada 7abd 3fe4 c2bb
000002c0: 9adc 16be ff59 ba3b 4537 0b3d f3ab 0e3e
000002d0: b4e3 4a3e 60a3 b73c 7678 263e 7518 dbbc
000002e0: b55d 43bd 4029 5d3d b31e bebc ecde 80bc
000002f0: 48ba 5abd 7dc6 6d3c 732b 9abd df4c 42bc
00000300: d796 44bd 1c86 f0bc 0f82 2a3d c453 d93b
00000310: fb54 bc3a e1e3 6ebc ccd7 1d3d 3cbc 533d
00000320: a5c1 c63d fc26 7ebc 5c1b 5fbd 5e60 043d
00000330: 7917 3dbb 3bcf 863c e02f c3bd edde a23c
00000340: 5dfb 33bc 8c05 693b 9316 27bd f2c7 70bd
00000350: 11c2 a03c 8f78 ba3c 12d2 10bc 005b 9b3c
00000360: f3ae 44bc c922 823d 3efb c2bc 75ea 6abd
00000370: 517d 6b3b cf42 a7bc 977e ba3b 9faf debb
00000380: cd49 9c3c a006 483d 897a 89be be63 493e
00000390: c142 bd3e 4213 1cbe 0c4f 4ebe 8b6d b1bd
000003a0: 06b2 04be 4482 db3e 89f1 aebd 5d26 673d
000003b0: 2f37 ffbd 73b9 9d3c ece9 953d 455d 1b3d
000003c0: bd27 013a 3e2d 89bc 94ea 16be f14b c5bb
000003d0: 0ceb bebd 84a0 ffbc a907 a73d 5267 dbbb
000003e0: 685e 67bc b534 7f3b cb8f a6ba c0bb 8dbd
000003f0: 61c0 5dbd f032 14bd 16e9 2f3d 31c1 993c
0.044443868 0.01793791 0.079639815 0.044123296 -0.04800455 -0.008459147 0.00078137027 -0.020950368
0.011821847 0.015494452 -0.016466342 -0.025593823 -0.053996813 0.01087725 0.014937293 -0.028959708
-0.083348215 0.02480768 0.05059849 -0.06592998 0.046846442 0.044943247 -0.020535985 -0.07200682
-0.01889062 -0.028141387 0.22676435 -0.00066859234 -0.05916617 -0.06759182 0.08033404 0.045291826
-0.01704052 -0.009515181 -0.0070412643 -0.051320784 0.01873863 -0.22839485 0.056114472 -0.078219086
-0.019691018 -0.015686885 0.03631341 0.038874425 0.16095848 -0.008253569 0.16351013 0.008873947
0.041591324 -0.11713319 -0.03720621 -0.0140909795 -0.012405501 0.016037822 0.18607399 -0.058464848
0.22489518 -0.10642948 -0.07688331 0.0005957499 0.0027713683 -0.10592684 0.3494317 -0.008591372
0.0063768285 -0.04211273 -0.028485728 0.0070011504 0.0417682 -0.0027916806 0.001448192 0.0042741257
-0.012483992 0.055237442 -0.0014950465 0.081030704 -0.028252393 0.010568732 -0.020485323 -0.023542235
-0.1018644 0.0007153947 0.03182129 -0.06597959 0.12773487 0.06691721 0.01638766 0.046031386
0.015559025 0.04025538 -0.124048315 0.11840832 -0.08471154 0.034402654 -0.024097461 -0.062352438
-0.035063095 -0.017423628 -0.14271414 -0.08700316 -0.09988711 0.010557899 -0.18298678 -0.12477517
0.027638568 -0.0077424417 -0.0063386066 0.17495765 -0.0035431627 0.0048286268 0.004611737 -0.008140547
-0.0026079153 0.0070449575 -0.0048687533 -0.0005367979 -0.004218057 -0.22381043 0.09776951 -0.21675204
0.051776428 -0.009024697 -0.119631045 0.00017547143 -0.017033454 -0.09392938 0.10064377 0.0036659332
0.04829908 0.1318891 0.07729575 0.0761201 0.043239683 0.01853178 -0.15271477 0.05040569
0.36232665 -0.071715325 -0.14506754 0.012579957 0.0062509947 0.023236673 0.07467786 -0.0970129
0.03357662 0.08792265 0.05044067 -0.029717341 -0.020358695 0.031740036 -0.016786044 -0.009899088
-0.08604798 0.13132526 -0.15080859 0.20487966 0.049604833 -0.017045964 -0.005830283 0.044362012
0.029038882 0.11377243 0.05279216 0.30967137 -0.20710045 -0.60000366 0.22350127 0.12167399
0.11167093 0.112619616 -0.5524164 -0.20588812 -0.092719525 -0.18434937 -0.061243095 -0.005947619
-0.1473259 0.005686998 0.033988256 0.13932781 0.19813424 0.02241677 0.1625689 -0.02674506
-0.047696788 0.053994417 -0.023207998 -0.015731297 -0.053400308 0.014512655 -0.075278185 -0.011859148
-0.047995415 -0.029360823 0.04162794 0.0066323 0.0014368588 -0.014580698 0.038535878 0.051693186
0.097049035 -0.015512224 -0.05446945 0.032318465 -0.0028853102 0.016456237 -0.09530616 0.01988169
-0.010985223 0.0035556285 -0.040793013 -0.058784433 0.019623788 0.022762565 -0.008839147 0.01896429
-0.012004602 0.06354291 -0.023801442 -0.057352502 0.0035932849 -0.020417599 0.00569136 -0.006795838
0.01907816 0.048834443 -0.268513 0.19666955 0.36964992 -0.15241721 -0.20147341 -0.08663472
-0.12958536 0.42872822 -0.08542163 0.05643307 -0.12461697 0.019253468 0.07320008 0.037930746
0.0004926881 -0.016745206 -0.14737922 -0.006021016 -0.093221754 -0.03120447 0.08155758 -0.0066956664
-0.014121629 0.0038941328 -0.0012707649 -0.06920576 -0.054138545 -0.03618139 0.042946897 0.018768879

exp_avg_sq f4 [128, 9]
00000000: 0dff 643e 18af 3e3e 3590 9a3e f78b 103e
00000010: b8b4 693d 1ea6 073e b008 613d 8106 a03d
00000020: 684f 9e3e 8e32 5a3e 1381 033e f6eb 393e
00000030: 81ee 563e f9f4 933d 8b8a 8f3d 1034 d13c
00000040: ceaa a03d c4dd 413e 1539 5a3e 2cd0 433e
00000050: dd0a 683e c0c0 773e 9495 fc3d d548 f63d
00000060: ea43 913c b2a9 043d d3b6 613e ac32 333e
00000070: 12d2 ac3e 2c8a 6c3e 132c a93e c015 283d
00000080: 943b 683d 3137 4c3c 9c09 353c c6d0 a63e
00000090: 1f3d 2b3e 7e00 fd3e a116 533e b133 6c3e
000000a0: c8a3 b93d 3de9 643d 9c88 773c 6ebc 5d3c
000000b0: 27ef bb3e dc7a 563e 907b 7c3e a885 6c3e
000000c0: 21c0 623e bf78 e83d 6d15 b73d d300 003d
000000d0: 90a7 0b3d f24e 923e c023 b83e adb4 3e3f
000000e0: 9b28 f33e b41c 363f b072 813e b6c0 363e
000000f0: f0f5 6b3d ccde cd3e 707c 8c3f 2e8b ac3d
00000100: ad2d f13d 1592 063e 37f4 b93d b7ef 6d3d
00000110: 7592 be3c 3d49 883c 1a27 ae3b 3e76 2e3e
00000120: 00b3 0b3e c99a 803e 2746 2e3e c390 853e
00000130: 186a 453d 82b8 0e3d d602 203c 902a bd3b
00000140: 01bc 923e de97 9f3e 2b94 363f 6684 b03e
00000150: 264a 153f f4d1 b53d 2701 d43d 49b8 7d3d
00000160: 03bb de3e 947e 293f ca83 493e b4ed 893e
00000170: 3a78 4e3e ba19 843e 982f e53d b636 7f3d
00000180: d6cf 693d 2de9 f73c 9372 cc3e 0163 ab3e
00000190: da5a d83e e80a e13e 8503 c73e c24d 713e
000001a0: a302 1b3e 78fe 863c 7267 7a3c 6791 093f
000001b0: 9389 803b 7701 013b ce61 af3b 8fba ed3a
000001c0: b37a 083b cf23 8d3b e7fd ac3b 4cd7 8439
000001d0: 6a90 253b de8c b23d 61fa d03d 4ab2 993d
000001e0: e121 e13d 88d2 f03c 0c7e 0d3d d4df 963c
000001f0: 1656 4d3b 7767 4b3e 09a4 1a3e c60f 453e
00000200: e74a 0d3e a1aa 683e 782c 863d 453b c93d
00000210: df5e 123c 2221 203d d1a8 a03e d016 083f
00000220: 74df d83f b3dd 383f c5ab 893f 7106 f63d
00000230: 0bcc fb3d f380 7d3d 6f7c f73d dcf6 0840
00000240: f11c 4c3e c487 1d3e 6af0 463e 01a8 2e3e
00000250: 4f65 ed3d c2bf b43d c28e 203c c1fc ad3b
00000260: b7e1 7a3e d072 3a3e f558 d13e 4300 633e
00000270: 2751 ac3e 9441 d13d e5a5 1c3e 661e 973c
00000280: e6b5 013d 3667 bd3e 2f64 263e ce54 513e
00000290: a9e5 4b3e 55fc 543e 79e3 083e e6d8 973d
000002a0: 7134 d73b 77af 7d3c 714c 803e aa3d 183e
000002b0: e195 8e3e 405e 2d3e c6ce 4f3e a514 863d
000002c0: 3c04 883d 6167 8b3c 2680 5e3e 2ab7 803e
000002d0: a464 9e3e de27 9c3e 6857 913e 76af 603e
000002e0: 6bc5 053e f13b 0c3e 211b d63c 2ef6 dc3d
000002f0: 448f 083f c705 173e 2aeb 593e da11 4f3e
00000300: b1ee 833e a836 083e 3050 a03d 48dd f93b
00000310: 9dd6 f43b 925e 9b3e 1586 833e cf3d ae3e
00000320: 0f06 7a3e 92d7 523e 63c5 c43d feba b43d
00000330: c79b 613c 7e9e e53c f60a c63e aacf 5a3e
00000340: 14f0 953e 4537 6a3e b6d2 693e 937d 9a3d
00000350: 473b 963d 7934 873c 5859 2c3e 83c1 853e
00000360: 5517 3b3e 56fa 3e3e acbe 4c3e 1fd8 513e
00000370: 2524 083e 42df c63d d92c 383d 03a8 b43c
00000380: 378b 7b3e cf29 0b3f 61c7 9d3e 00c5 003f
00000390: d7f1 fd3e 6e16 433e 65df 3c3e 1c60 ec3c
000003a0: 8aeb b23d bf63 2d3f a157 033e ee5f cc3d
000003b0: 1d6a 3f3e 6434 eb3d c2dd 183e 24d9 933d
000003c0: bf72 923c a4a3 693d 0a05 2f3e 1ada bd3e
000003d0: 8f93 f13e 25a4 ad3e 83d5 893e 5654 e93d
000003e0: b0ee e23d c5e4 a13d a00c 863c 68c5 c33e
000003f0: 4363 893e eb17 053f 6b2c b73e c039 c03e
0.22362919 0.1862148 0.30188146 0.14115892 0.057057112 0.13246962 0.054939926 0.078137405
0.30919957 0.21308348 0.12842207 0.18156418 0.2098942 0.07224459 0.07008847 0.02553752
0.078450784 0.18932253 0.21310838 0.1912238 0.22660394 0.24194622 0.12333217 0.1202561
0.01773258 0.032388397 0.22042398 0.17499799 0.3375402 0.23099583 0.33041438 0.041036367
0.056697443 0.0124643305 0.011049654 0.32581156 0.16722535 0.49414438 0.20614101 0.23066594
0.09064442 0.055886496 0.015108254 0.013533695 0.36705896 0.20945305 0.2465651 0.23097861
0.22143604 0.113511555 0.089396335 0.031250786 0.034095347 0.28575855 0.35964775 0.7449444
0.47491917 0.7113755 0.25282812 0.17846951 0.05760759 0.40209043 1.0975475 0.08424984
0.1177629 0.13141663 0.090797834 0.058089938 0.023263196 0.016636485 0.00531472 0.17037293
0.13642502 0.25118092 0.17018948 0.26087007 0.048196882 0.03484393 0.009766301 0.005772896
0.2865906 0.31170553 0.71319836 0.34476012 0.58316267 0.08877936 0.10351782 0.061943326
0.43502054 0.6620877 0.1967918 0.26939166 0.2016305 0.25800878 0.111907184 0.062308036
0.057082973 0.030262554 0.39931163 0.3347397 0.42256814 0.43953633 0.38869873 0.23564819
0.15137725 0.016478762 0.015283452 0.5373749 0.00392265 0.001968471 0.0053522354 0.0018137264
0.0020825088 0.004307247 0.005279291 0.0002533741 0.002526308 0.087182745 0.10204006 0.07504709
0.1099279 0.029397264 0.034544036 0.018417276 0.0031331829 0.19863687 0.15101637 0.19244298
0.13798104 0.2272134 0.065514505 0.09825758 0.008933752 0.039094098 0.31378797 0.5315981
1.6943192 0.72213286 1.0755545 0.12012947 0.122947775 0.061890554 0.12084281 2.140067
0.19932915 0.15383822 0.19427648 0.17056276 0.11591589 0.088256374 0.009799661 0.0053096716
0.24500166 0.1820786 0.4088818 0.22168069 0.33655664 0.10217586 0.15297659 0.018447112
0.031667612 0.36992806 0.16249155 0.20442507 0.19911827 0.20799382 0.13368024 0.07414417
0.006567531 0.015483729 0.2505832 0.14867273 0.27848724 0.16930485 0.20293722 0.065469064
0.06641433 0.017017068 0.21728572 0.25139743 0.30936158 0.30499166 0.28386998 0.21941933
0.1306359 0.13694741 0.026135983 0.107891425 0.53343606 0.14748298 0.21281114 0.20221654
0.25768045 0.133021 0.078277946 0.0076252557 0.007471873 0.3034559 0.25688234 0.3403153
0.24416374 0.20590046 0.09607961 0.088247284 0.01377005 0.028029677 0.38680238 0.2136828
0.29284728 0.22872646 0.22834286 0.07543483 0.07335525 0.016504513 0.16830957 0.261242
0.18270619 0.18650183 0.1999461 0.204926 0.13295038 0.09710552 0.044964645 0.02205277
0.24564825 0.5436067 0.30816177 0.503006 0.49598572 0.19051525 0.18444593 0.028854422
0.08736332 0.67730325 0.12826397 0.09979235 0.18692823 0.11484602 0.14928344 0.07219151
0.01787698 0.057040825 0.17091766 0.3708046 0.4718289 0.33914295 0.2692071 0.11393039
0.11080682 0.079049625 0.016363442 0.38236547 0.26833543 0.5198962 0.35776076 0.3754406

exp_avg f4 [128]
00000000: 8fd4 63bd 87fc 0e3e fcd9 4b3e b69d 5d3d
00000010: 1ed4 83be 6ae8 633e a3e0 173e 1c27 1dbc
00000020: a2fa 033e 50fd 9f3b bc0c 4f3d f7f5 2b3d
00000030: 3720 693b aee5 093e 17f3 8fbe 10f0 8dbe
00000040: d946 863d ddd5 25be dfe1 39bf 40a9 353c
00000050: 3ae5 1b3e 5ca1 30bd 1505 68bc 63eb 8e3d
00000060: 69d9 00bd 0052 023f ac54 8abd 57f1 093c
00000070: f554 5fbe aa29 95be 7ea4 623e 256c e5bc
00000080: 8144 c2be 78ad a5bd 3664 803e 6cb2 b8bd
00000090: 9205 243e af6b 3a3e e75c a83d 5cf7 3f3d
000000a0: 45ba d63d eb67 373d 633d be3e 991b f5bd
000000b0: 5a71 cb3e b3a5 e7bd 4afa 0bbb ab6f 143e
000000c0: 5f09 273e d971 77be f930 183d 9c2c 013e
000000d0: 0656 b7be 35bd a1bd b1cc f9bd f41a 81be
000000e0: 6f43 0a3c 4bfb 73bd c762 81be 155e 383e
000000f0: 4aa8 17be ce04 cfbd 6cdf a3bd c933 95bd
00000100: 7a4c ae3e 262d 13bd b60f 39bc f88e 193f
00000110: 1ae3 813d e61f 133e b875 5d3d b980 833d
00000120: a2ef 2fbe 118d d0be 17c1 d13d 2610 153d
00000130: b899 6d3d cd45 acbc dc8c 473d f520 06bf
00000140: 51cd f9bd d216 45be 3aa2 913b a441 60bd
00000150: 5712 903d 875b bebd 29cc 803d c7b8 dd3c
00000160: a572 123e 3659 c73d 93e1 38bd dcf0 9eb8
00000170: 0a2c 023e ca04 f43a 39bb 04bd d6d4 a7bd
00000180: 7fdf 283e 7197 223d 0266 90bd 3190 953e
00000190: 23f8 e7bd 97db 173e cae4 d93d e93e f93d
000001a0: 70db 5bbd a642 d2bd dc7f c73e 98dd 4dbe
000001b0: f87f cc3c eb6c c2bc 7dda ad3c e1c9 50ba
000001c0: 1dc1 34bd bcbf 4b3d 25be dc3e d5ce 393e
000001d0: 9315 c9be 0a12 033e cfe1 a83e 47b3 933c
000001e0: 1f80 3ebd 6856 cbbd 262f b73d 7d7a 06bd
000001f0: 1232 d73d 8f8f 6ebd 8718 133f 6e7c 76bd
-0.055622634 0.13963519 0.19907373 0.054105483 -0.2574777 0.22256628 0.14831786 -0.009591844
0.12888578 0.004882492 0.050549254 0.041982617 0.003557218 0.13466522 -0.2811515 -0.27722216
0.06556482 -0.16194864 -0.72610277 0.011087716 0.15224162 -0.043122634 -0.014161368 0.0697849
-0.03145734 0.5090637 -0.06754431 0.008419356 -0.21809752 -0.2913335 0.22133061 -0.028005669
-0.3794289 -0.08089727 0.25076455 -0.09018406 0.1601775 0.1820514 0.08220845 0.04686676
0.10484747 0.04477684 0.3715621 -0.119681545 0.39734918 -0.113109015 -0.00213589 0.14495723
0.16312169 -0.24164523 0.03715608 0.12614673 -0.35807818 -0.078974165 -0.12197245 -0.25215876
0.008438929 -0.059565824 -0.25270674 0.1800464 -0.14810291 -0.10108338 -0.08001599 -0.07285268
0.34042722 -0.03593173 -0.01129525 0.5998378 0.06342144 0.14367637 0.054067343 0.06421036
-0.17181256 -0.40732625 0.10241907 0.036392353 0.058007926 -0.021029377 0.04871832 -0.5239404
-0.12197364 -0.19246987 0.0044443877 -0.0547501 0.07034748 -0.09294801 0.062889405 0.027065648
0.14301546 0.097338125 -0.045137 -7.578891e-05 0.12712112 0.001861715 -0.032405112 -0.08194892
0.16491507 0.039695207 -0.070507064 0.29211572 -0.11326625 0.1482986 0.10639341 0.12170202
-0.05367607 -0.102666184 0.38964736 -0.20104063 0.024963364 -0.023733577 0.021222347 -0.00079646526
-0.04412948 0.0497434 0.4311382 0.18145306 -0.39274272 0.1279985 0.32984778 0.018029822
-0.046508905 -0.0992859 0.0894454 -0.032831658 0.10507597 -0.058242377 0.574593 -0.06017726

exp_avg_sq f4 [128]
00000000: f0fb 703e 299e 853e 3a9a 983e 1f48 b73e
00000010: d3fc 173f c704 a73e f312 783f 9c8d 393e
00000020: 10e5 7e3e 5859 343f f0f7 a83e 3aa3 2b3f
00000030: ab1c 113b bbb7 033e ee61 c13e 0c87 fa3f
00000040: 4c84 6e3e 630e c43e 8a95 8d3e d204 be3e
00000050: 63a8 de3e 6079 a33e 9882 d23e b377 863e
00000060: 8cc5 823e c878 313f 4cc3 123e 1641 d03e
00000070: 5ca3 423f 5c0d 8f3e af20 123f caf3 7e3e
00000080: f4fd 303f 0907 ea3e 58e0 223f 8499 833f
00000090: 6d4e 503e fa3e 953e c464 803e b036 7f3e
000000a0: 3efa 223e 60ab 003e 2acf 933e ae35 e53e
000000b0: a619 553e 3ae9 4b3f fa6e ba3d d7ac a43e
000000c0: 4f58 633f 21ba 7d3e 137d a53e 3e73 8a3e
000000d0: bd61 ba3e 09fe 9c3e 22eb 493e 7573 0e3f
000000e0: 3d8c 283f d27b 013e bc0e b83e d866 ef3f
000000f0: 3223 3c3f 564a 1e3e e05b 403f 523a 013f
00000100: 8810 013f daf3 a43d 9a84 393e 74e4 ba3e
00000110: 6e7c e23d 968c 323f c494 063f 8875 cd3e
00000120: c7be 473f d78e a63e 192a 903e a682 1a3f
00000130: 4071 353e 5600 1f3e a208 333e 914d b43e
00000140: 788e 8a3e 2812 ae3e 366f 623e c5fa 0c3e
00000150: 5474 393f 7687 203f 910a e43e 1838 563e
00000160: fa59 9f3e 3f32 d03e 87bc b53e 11ac 203f
00000170: 5027 eb3e 0473 a83d bc6d 833e 8d3a 5e3e
00000180: 775b 0a3f 4762 003f 40c6 cb3e 5e20 f23e
00000190: 1fef 073f 7596 fe3e 4900 b33e 3604 5f3e
000001a0: bf43 c23e 91ee a23e 28e9 a13e a6af 553f
000001b0: 78e2 6d3e 1735 2c3f 35fd 263d 20e1 073f
000001c0: 58df 043f c1cc 8f3e cb0e 273f 0e29 ef3e
000001d0: 35aa 503f c716 913e fbda 313f 4210 c53b
000001e0: 0084 c73d 01df 6b3f 0501 e53e 3e93 513e
000001f0: 537c 903e 791c 8a3e b21b 653f 2070 de3e
0.23533607 0.2609723 0.29805166 0.35797212 0.59370154 0.32620832 0.96903914 0.18120426
0.24892068 0.7044883 0.3300166 0.6704594 0.0022142332 0.12863056 0.37770027 1.9572463
0.23292655 0.38292226 0.27653152 0.37113053 0.43487844 0.3192854 0.4111526 0.26263198
0.2554134 0.6932492 0.14332312 0.40674657 0.76030517 0.2793988 0.5708112 0.24897686
0.691375 0.45708492 0.6362357 1.0281224 0.20342417 0.2914961 0.25076878 0.24923205
0.15915772 0.12565374 0.2886899 0.44767517 0.20810565 0.7965275 0.09103198 0.32163116
0.88806623 0.24778034 0.32321987 0.27041048 0.36402693 0.30662563 0.19718602 0.55644923
0.65838987 0.1264489 0.3594874 1.870326 0.73491204 0.15458044 0.7514019 0.50479615
0.5041585 0.080543235 0.1811699 0.3650242 0.11058889 0.6974577 0.5257075 0.40128732
0.7802548 0.32530853 0.28157118 0.60355604 0.17718983 0.15527472 0.17483762 0.35215428
0.2706182 0.33998227 0.22112736 0.13767536 0.7244313 0.62706697 0.44539312 0.20919836
0.31123334 0.40663335 0.35495397 0.6276255 0.4592843 0.082250625 0.25669658 0.21702023
0.54045814 0.5014996 0.3979969 0.4729032 0.53099245 0.49724165 0.34961155 0.2177895
0.3794231 0.31822637 0.31623197 0.83471143 0.23230922 0.6726851 0.04076882 0.5307789
0.51903296 0.28085902 0.6525695 0.4671101 0.81509715 0.2833769 0.6947476 0.006013901
0.09741974 0.9213715 0.4472734 0.20466325 0.28219852 0.26974848 0.89495385 0.4344492
