ppo/models/behavioral_cloning_agents_drone/bc13/ckpts/003014400.pt (torch_old, 423149 bytes, 26 tensors)

fc1.weight f4 [128, 15]
0	0x3db7b208	0.08969504
1	0x3e887622	0.26652628
2	0x3e1f12ea	0.15534559
3	0xbe93a3aa	-0.28835803
4	0xbd8dd2eb	-0.06924995
5	0x3d5cc723	0.05390085
6	0xbeb21ef0	-0.34789228
7	0x3eb6c92e	0.35700363
8	0x3c009337	0.007847599
9	0x3ca4b6f3	0.020106768
10	0x3e8622a8	0.26198316
11	0x3d3768c3	0.044777643
12	0xbe7c970a	-0.24666992
13	0xbe2f1ac2	-0.17100051
14	0x3e553fd3	0.20825128
15	0xbe77234e	-0.24134561
16	0x3f18a8ef	0.5963277
17	0x3e8e11cb	0.2774795
18	0xbee4b860	-0.44671917
19	0xbe3cb1f5	-0.1842726
20	0x3e8a023a	0.26954824
21	0x3e9688e4	0.29401314
22	0xbe2c3f09	-0.16820921
23	0x3f19e572	0.6011573
24	0xbd233932	-0.039849468
25	0x3e770a66	0.2412506
26	0x3e0fdc76	0.14048943
27	0xbe7545a3	-0.23952346
28	0xbe267275	-0.162546
29	0xbe0ee04b	-0.13952748
30	0x3c90a16f	0.017655103
31	0x3e9b11a2	0.3028689
32	0xba0f6c46	-0.0005471151
33	0xbdd5616d	-0.10418973
34	0xbccb1c7c	-0.024793856
35	0xbe93af7a	-0.28844815
36	0xbe4bfb23	-0.1992002
37	0x3e80af83	0.25133905
38	0x3e08ddeb	0.13365905
39	0x3e0d606f	0.13806318
40	0x3dd08e05	0.10183338
41	0x39a2cf8e	0.00031053688
42	0x3d32ed40	0.04368329
43	0xbe76dd66	-0.24107894
44	0xbdcda4f6	-0.100412294
45	0x3e5613d2	0.20905998
46	0x3ebc068b	0.36723742
47	0x3dd8ab25	0.10579518
48	0x3cd4c085	0.025970707
49	0x3e5f6676	0.2181643
50	0x3d962c1d	0.07332633
51	0x3e0cf041	0.13763525
52	0x3d41d03c	0.04731773
53	0x3e14fe9b	0.1455025
54	0x3cca4fdf	0.024696289
55	0x3e41cf01	0.18926622
56	0xbbd364de	-0.0064512333
57	0xbe4cfcc7	-0.20018302
58	0xbe373fbc	-0.17895406
59	0x3e29dcbc	0.1658811
60	0x3e715296	0.2356666
61	0x3dd8d5d7	0.10587662
62	0xbe9e73c2	-0.3094769
63	0x3dabe181	0.08392621
64	0x3e99d457	0.30044815
65	0x3db0def7	0.08636277
66	0x3ee07f6d	0.43847218
67	0xbd5b2c94	-0.05350931
68	0x3e69836b	0.22804038
69	0x3e267dca	0.16258922
70	0xbea5b324	-0.32363236
71	0xbe93eb03	-0.28890237
72	0x3dcfd1fc	0.10147473
73	0x3e5b109a	0.21393052
74	0x3edf7bbb	0.43649086
75	0x3e28c99d	0.1648316
76	0x3d55f7a2	0.052238114
77	0xbad47cc9	-0.0016211505
78	0x3d8b4019	0.06799335
79	0x3dcfd7be	0.101485714
80	0xbe86bea9	-0.26317337
81	0x3cc2acbd	0.023764009
82	0xbe1e7593	-0.15474539
83	0x3d02363f	0.031790014
84	0xbe90d409	-0.2828677
85	0xbdf054c7	-0.1173492
86	0xbd1c2080	-0.038116932
87	0xbdf20ed0	-0.118192315
88	0x3dcb5998	0.09929198
89	0x3cb6c46a	0.022310454
90	0x3cfafb65	0.030637452
91	0x3d7c45a2	0.061589845
92	0x3d188479	0.03723571
93	0x3e1026a7	0.14077245
94	0xbebb11ee	-0.36537117
95	0x3e3920f5	0.18078978
96	0x3e6b2da4	0.2296663
97	0x3da2bb41	0.07945872
98	0x3f0ae49f	0.542551
99	0xbf46e761	-0.77696806
100	0x3e60a828	0.21939147
101	0x3e00d701	0.12582017
102	0xbde690fa	-0.11258121
103	0xbd8516b6	-0.064984724
104	0xbe06ad60	-0.13152075
105	0xbdfef816	-0.124496624
106	0x3d9d6932	0.0768608
107	0x3a84ec91	0.0010141303
108	0xbe902187	-0.2815058
109	0x3e3efad5	0.18650372
110	0x3da36f11	0.079801686
111	0x3d8030ec	0.06259331
112	0xbe2b7832	-0.1674507
113	0x3ef36cde	0.47543997
114	0x3de2be4e	0.11071454
115	0xbf04ce1f	-0.51877016
116	0x3e0db3cb	0.13838117
117	0x3c3ee240	0.011650622
118	0x3d1a4d70	0.037671506
119	0x3ecb6730	0.39727163
120	0xbd871403	-0.06595614
121	0x3d9bbe02	0.076046005
122	0xbecbfac5	-0.3983976
123	0xbd18d09d	-0.037308324
124	0xbecc0cf8	-0.39853644
125	0x3cb095db	0.021555832
126	0xbe48f76f	-0.19625638
127	0xbdaed78a	-0.085372046
128	0xbdf8a69a	-0.12141152
129	0xbea05b57	-0.31319687
130	0x3e44c162	0.19214395
131	0x3dbdea6a	0.092732266
132	0xbe2c3ea6	-0.16820773
133	0xbc591910	-0.013250604
134	0x3eb37ebd	0.3505763
135	0xbe954485	-0.2915384
136	0x3db3adb6	0.08773367
137	0x3cbd88ea	0.023136575
138	0x3db3d146	0.0878015
139	0x3e98558b	0.29752764
140	0x3eab5f50	0.33471155
141	0x3e2384a0	0.15968561
142	0x3ec8af6c	0.39196336
143	0x3e33af23	0.17547278
144	0xbe9ae98f	-0.30256316
145	0xbe72fe94	-0.23729926
146	0x3dd07fb8	0.101806104
147	0xbadb6200	-0.001673758
148	0xbe036aba	-0.12833682
149	0xbd345303	-0.04402448
150	0xbe3df7cc	-0.18551558
151	0xbd6f8c29	-0.058483277
152	0xbd5f2049	-0.05447415
153	0xbd1a0c83	-0.03760959
154	0x3d0e8213	0.034792017
155	0xbc24f948	-0.010069199
156	0x3dc4315c	0.09579727
157	0xbdf050b5	-0.11734144
158	0x3e6d54b8	0.23176849
159	0xbdcf6bf4	-0.10128012
160	0xbdb556b4	-0.08854428
161	0xbd15bae5	-0.03655519
162	0xbe6d4164	-0.23169476
163	0xbe644a0b	-0.2229387
164	0x3eab1670	0.33415556
165	0xbd949256	-0.07254474
166	0x3eb04b4b	0.34432444
167	0x3e7b7b9c	0.24558872
168	0xbe18cd9a	-0.14922181
169	0x3ebb897f	0.3662834
170	0x3c9fbb9b	0.019498637
171	0xbdfe03bc	-0.12403056
172	0x3da81b79	0.08208365
173	0x3eb4a700	0.3528366
174	0xbdf508cb	-0.11964568
175	0x3e71f4f9	0.23628606
176	0x3de43b1a	0.11144085
177	0xbdec0e5a	-0.11526175
178	0x3e536cc4	0.2064696
179	0xbe083fe5	-0.13305624
180	0xbd457cb2	-0.04821462
181	0x3e1e2ff6	0.15447983
182	0xbcf700d6	-0.030151766
183	0x3c91049e	0.017702397
184	0x3e52b4a1	0.20576717
185	0x3d38e1f1	0.04513735
186	0xbd86997e	-0.06572245
187	0xbd15f1dd	-0.036607612
188	0x3d090791	0.03345448
189	0xbda81537	-0.082071714
190	0x3ec8ac6b	0.39194044
191	0x3c99faa5	0.018796274
192	0xbe3a7fbc	-0.1821279
193	0x3c3cac20	0.011515647
194	0x3e1dc68f	0.15407775
195	0xbe17893d	-0.14798446
196	0xbe29828d	-0.16553707
197	0x3dad9554	0.08475748
198	0xbccc8dec	-0.024970017
199	0xbcfd7bb6	-0.030942779
200	0xbe3bc0b4	-0.18335229
201	0x3d8e2510	0.06940663
202	0xbeada075	-0.33911481
203	0xbc4940d3	-0.012283522
204	0xbee8b4ae	-0.45450348
205	0xbe8a0e57	-0.26964065
206	0x3e81b2ac	0.25331628
207	0x3e5f03c6	0.21778783
208	0x3dbf3704	0.09336665
209	0x3d045b75	0.032313783
210	0xbdd9b3a6	-0.10629968
211	0x3e2b4317	0.16724811
212	0x3dc1f7df	0.09471106
213	0xbea45192	-0.32093483
214	0xbe2f4f81	-0.17120172
215	0x3a1023f4	0.00054985215
216	0x3d1883aa	0.03723494
217	0xbe14c7ef	-0.14529394
218	0x3d910315	0.07080666
219	0xbd71806a	-0.058960356
220	0x3e1e9405	0.15486152
221	0x3bfec73a	0.0077752145
222	0x3dbf04e0	0.09327102
223	0x3bef8c00	0.0073103905
224	0x3e1df265	0.15424497
225	0x3e9f310b	0.31092104
226	0xbeef9350	-0.46792078
227	0xbbafae09	-0.005361323
228	0x3d95c4fe	0.07312964
229	0x3edb8c6f	0.4288058
230	0x3e52ff12	0.20605114
231	0x3e681ef1	0.22668053
232	0x3f2383f4	0.6387322
233	0x3a19f847	0.0005873483
234	0x3eae9677	0.3409917
235	0xbf9ce088	-1.2256021
236	0x3dcd6723	0.100294374
237	0xbe3ae677	-0.18251978
238	0xbde01d74	-0.10943118
239	0x3cc039eb	0.023465117
240	0x3e28ec91	0.16496493
241	0x3ec23059	0.3792751
242	0x3cdad6b3	0.026713705
243	0xbe9b5891	-0.30341008
244	0x3e83aa61	0.25715926
245	0xbdac316c	-0.08407864
246	0x3e93da11	0.2887731
247	0xbdee621f	-0.11639809
248	0x3ea2e122	0.31812388
249	0xbc8fb4c0	-0.017542243
250	0xbcb5a2bf	-0.02217233
251	0x3ed103cb	0.40823206
252	0x3e5aa23c	0.2135095
253	0xbd9a9376	-0.07547657
254	0x3dc84fb8	0.0978083
255	0x3d8dbdbc	0.069209546

fc1.bias f4 [128]
0	0xbec9add4	-0.39390433
1	0xbd91ae3a	-0.07113309
2	0xbdd9d35b	-0.10636016
3	0xbdc758c8	-0.097337306
4	0xbe422658	-0.1895994
5	0x3b884086	0.0041580824
6	0xbdee4cf7	-0.11635774
7	0xbe837cf9	-0.25681284
8	0xbe2087a1	-0.15676738
9	0xbe1658f5	-0.14682372
10	0xbf1ec9b3	-0.6202652
11	0xbe9a4628	-0.3013165
12	0xbea1169a	-0.31462556
13	0x3e033fcf	0.1281731
14	0xbe5177a6	-0.20455799
15	0x3d826aba	0.06368013
16	0xbe11ad42	-0.14226249
17	0x3e101e48	0.14074051
18	0xbe9a16db	-0.30095562
19	0xbe066352	-0.13123825
20	0xbe08ddce	-0.13365862
21	0xbddf6f47	-0.10909896
22	0xbe4c1534	-0.19929963
23	0xbda4d8ad	-0.0804914
24	0xbea6bddd	-0.3256673
25	0x3dbb2061	0.09137035
26	0xbe4f73ce	-0.2025902
27	0x3e339f17	0.17541157
28	0xbe89ca46	-0.26912135
29	0xbe8d82e7	-0.27638933
30	0xbe14a70d	-0.1451685
31	0xbd3c53a7	-0.045978215
32	0x3ded8771	0.11598099
33	0xbf10e3fa	-0.56597865
34	0xbe72f2cb	-0.2372543
35	0xbebbd9d1	-0.36689618
36	0x3ab17d8f	0.0013541448
37	0xbe88f6ce	-0.26750797
38	0xbe08bb76	-0.1335276
39	0x3e46c142	0.1940966
40	0xbcc3933c	-0.023873918
41	0xbe0fbd86	-0.14037141
42	0xbe7df7d1	-0.24801566
43	0x3da77c46	0.08178
44	0xbcaa8512	-0.020815406
45	0xbe29893d	-0.16556258
46	0xbebdcb0c	-0.37068975
47	0xbe9e29e5	-0.30891338
48	0xbe0004c6	-0.12501821
49	0xbe872c51	-0.26400998
50	0xbee0969b	-0.43864903
51	0xbdb4bf86	-0.08825593
52	0xbdcb4295	-0.09924809
53	0xbf0a6daf	-0.54073614
54	0xbe4fbb47	-0.20286284
55	0xbe27d209	-0.16388716
56	0x3dab042e	0.083504066
57	0xbe030bfc	-0.1279754
58	0xbe2bee8a	-0.16790214
59	0xbe46f8d6	-0.19430861
60	0xbed00b10	-0.4063344
61	0xbe48c47e	-0.19606206
62	0xbdce1d2b	-0.10064157
63	0xbe2568aa	-0.16153207
64	0x3b39b889	0.0028338751
65	0xbe1cd3bd	-0.15315147
66	0x3e0a5efa	0.13512793
67	0xbe906c5d	-0.28207675
68	0xbe0ef756	-0.13961539
69	0x3d4387cc	0.047736928
70	0xbe718a00	-0.23587799
71	0xbeb0bc57	-0.34518692
72	0xbe2956d2	-0.16537026
73	0xbda1b3af	-0.078956
74	0xbe86092f	-0.26178882
75	0xbe5068f4	-0.20352536
76	0xbe5f9624	-0.21834618
77	0xbece0f7c	-0.4024619
78	0xbe8a4a34	-0.27009737
79	0xbdaac4f7	-0.08338349
80	0xbeb6e385	-0.3572046
81	0xbe3e8c63	-0.18608241
82	0xbe599044	-0.21246439
83	0xbe6701a3	-0.22559218
84	0x3c87e3d6	0.016588133
85	0xbea7ad60	-0.32749462
86	0xbdefe93a	-0.11714406
87	0xbe441df5	-0.19152053
88	0xbe04e388	-0.12977421
89	0x3e455e07	0.1927415
90	0xbe7c8ec4	-0.24663836
91	0x3d3ab351	0.045581166
92	0xbec63efa	-0.38719922
93	0xbdff803d	-0.124756314
94	0xbcd615b9	-0.026133405
95	0xbe15177d	-0.14559741
96	0x3d2dac57	0.042400684
97	0x3d5e1c75	0.054226357
98	0xbe6c4e8a	-0.23076835
99	0xbe8f9bbc	-0.28048503
100	0xbef6aa59	-0.4817684
101	0xbe84c435	-0.25930944
102	0xbd9aab8d	-0.07552252
103	0xbecdd52b	-0.40201697
104	0x3bee68ce	0.0072756773
105	0xbe58157e	-0.21101949
106	0x3d995852	0.07487549
107	0xbe8c8af2	-0.27449757
108	0xbd7cd11f	-0.06172287
109	0xbd8c51d9	-0.06851549
110	0xbe896fe9	-0.26843193
111	0xbd97ce99	-0.07412452
112	0xbe01551e	-0.12630126
113	0x3d0aab95	0.03385504
114	0xbdb40a21	-0.087909944
115	0xbe0c0f11	-0.13677622
116	0xbd34825b	-0.04406963
117	0xbe8e91e5	-0.27845684
118	0x3d4b2934	0.04959984
119	0xbe585293	-0.2112525
120	0xbeb632a8	-0.35585523
121	0xbde0c6b4	-0.109753996
122	0xbe9e71f5	-0.30946317
123	0x3e17244b	0.14759938
124	0xbd46520a	-0.048418082
125	0xbe2db72d	-0.16964407
126	0xbe2cd9c3	-0.16879945
127	0xbeafa54a	-0.34305793

fc2.weight f4 [128, 128]
0	0x3ee22fa7	0.4417698
1	0x3ce578e1	0.028011741
2	0xbe69a236	-0.22815785
3	0xbe27a77a	-0.16372481
4	0x3e477e0e	0.1948168
5	0xbe394565	-0.18092878
6	0x3e057909	0.13034452
7	0xbc2987a5	-0.010347282
8	0x3e041132	0.12897184
9	0x3de87dd5	0.113521256
10	0xbdfcd483	-0.12345221
11	0xbe4daf62	-0.20086434
12	0x3e97456d	0.29545155
13	0xbc45e45f	-0.012078374
14	0x3da65c06	0.08123021
15	0x3da23513	0.07920279
16	0xbe6cd1bf	-0.23126887
17	0x3dd546d9	0.10413904
18	0xbcae485c	-0.021274738
19	0xbd5f29d8	-0.054483265
20	0xbf274aea	-0.65348685
21	0x3d85db26	0.0653594
22	0xbd8bf4a7	-0.06833773
23	0x3c92fd1c	0.017942958
24	0x3bb6fe28	0.005584497
25	0xbd215f9f	-0.039397832
26	0xbe530b13	-0.20609693
27	0x3db46f29	0.088102646
28	0xbc100e03	-0.008792403
29	0x3d08889f	0.033333417
30	0x3e9ebb25	0.31002155
31	0x3c1a8df7	0.009433261
32	0x3e431a67	0.1905304
33	0x3db607a3	0.08888175
34	0xbe92b238	-0.28651595
35	0x3de2e603	0.110790275
36	0x3e936034	0.28784335
37	0xbc834553	-0.016024267
38	0x3cad276e	0.021136966
39	0xbe6d69f4	-0.23184949
40	0xbda1995b	-0.07890578
41	0xbc0887c6	-0.008333152
42	0x3ed5d12e	0.41761154
43	0xbea73924	-0.32660782
44	0x3e573214	0.21015197
45	0xbd3e6172	-0.04647965
46	0x3e2a99b3	0.16660194
47	0x3bb75443	0.0055947616
48	0x3d89c536	0.06727068
49	0x3db44a77	0.088032655
50	0xbcb0009d	-0.021484667
51	0x3e50f83b	0.20407192
52	0xbe428080	-0.18994331
53	0x3e395b57	0.1810125
54	0xbddf87dc	-0.10914585
55	0x3d27a501	0.040928844
56	0xbda31014	-0.07962051
57	0x3efbf439	0.49209765
58	0x3d88d2b8	0.066808164
59	0xbe8f1d0d	-0.2795185
60	0x3dc7d477	0.09757321
61	0x3de66319	0.1124937
62	0xbdb662f5	-0.08905593
63	0x3c22aefb	0.009929414
64	0xbd26e01f	-0.040741082
65	0xbdcc6817	-0.09980791
66	0x3d68a6a6	0.056799553
67	0x3e81c0ff	0.25342557
68	0xbdc1e306	-0.094671294
69	0xbeebd042	-0.46057326
70	0x3df50539	0.11963887
71	0x3d27d689	0.04097608
72	0x3d8b0020	0.06787133
73	0xbea3666c	-0.3191408
74	0x3dae9c94	0.08525959
75	0x3dc7dfcb	0.09759482
76	0xbec86117	-0.39136574
77	0x3e9b942c	0.30386484
78	0x3dce14dd	0.10062573
79	0xbe27501e	-0.16339156
80	0xbd276fa0	-0.04087794
81	0xbd7c745a	-0.0616344
82	0xbe89d48e	-0.2691998
83	0xbe5f73ea	-0.21821561
84	0xbdc7a24c	-0.097477525
85	0xbeae3ea9	-0.3403218
86	0xbea888b4	-0.32916796
87	0xbd8c31d2	-0.0684544
88	0x3e136f61	0.14397956
89	0xbef30f29	-0.47472504
90	0x3dc44b76	0.095847055
91	0x3eaafb06	0.3339464
92	0xbe034d5c	-0.12822479
93	0xbd667b90	-0.056270182
94	0x3df03665	0.11729125
95	0xbf00f4e4	-0.50373673
96	0xbe9369d8	-0.2879169
97	0xbd9d1c51	-0.076714166
98	0xbda41b35	-0.08013002
99	0xbdfa74a5	-0.122292794
100	0xbdf904fd	-0.121591546
101	0xbf38c05d	-0.72168523
102	0xbe0a6320	-0.13514376
103	0xbcd08ac8	-0.025456801
104	0xbdd0c1ac	-0.1019319
105	0xbd4b130a	-0.049578704
106	0xbe378ad9	-0.1792406
107	0xbe72db0c	-0.23716372
108	0xbdfa16dc	-0.12211391
109	0xbdbf595e	-0.09343217
110	0xbe50de82	-0.2039738
111	0x3ea2b7c6	0.31780833
112	0x3d401f2b	0.046904724
113	0xbe52dc8b	-0.20591943
114	0x3dfa600b	0.1222535
115	0xbea875cd	-0.32902375
116	0xbe3f29be	-0.18668267
117	0xbec3325f	-0.38124368
118	0xbe02e651	-0.12783171
119	0xbe408605	-0.18801124
120	0x3e9f2d07	0.3108904
121	0xbdc22d67	-0.09481316
122	0x3d68e362	0.056857474
123	0xbe3d81a2	-0.18506482
124	0xbc45599d	-0.012045291
125	0x3e660a7f	0.22464941
126	0xbdafa91b	-0.08577176
127	0xbe537b58	-0.2065252
128	0x3d740feb	0.059585493
129	0xbd35e0ce	-0.044403844
130	0xbcd7b771	-0.026332589
131	0xbd02dd51	-0.031949345
132	0xbd24ef7d	-0.040267456
133	0xbbd1cb3d	-0.0064024017
134	0x3d0a05e5	0.033697028
135	0xbe1e790b	-0.15475862
136	0xbe951478	-0.2911718
137	0xbd8c19b2	-0.068408385
138	0xbc8e8a8e	-0.017400052
139	0xbceaaee8	-0.028647855
140	0x3a74b05b	0.00093341403
141	0xbdb59934	-0.08867112
142	0x3a959208	0.0011411319
143	0xbd377b42	-0.044795282
144	0x3dd81815	0.10551468
145	0xbe51077c	-0.20413011
146	0xbdac2ea9	-0.08407337
147	0xbd48b89b	-0.04900418
148	0x3c012667	0.007882691
149	0x3db55191	0.08853448
150	0xbe1ef147	-0.15521728
151	0xbddec972	-0.108782664
152	0x3bc2d75b	0.0059460825
153	0xbdd765c1	-0.10517455
154	0x3d662c33	0.056194495
155	0xbc58e716	-0.013238689
156	0xbdb71e9b	-0.089413844
157	0xbd4aaaf0	-0.049479425
158	0xbded697c	-0.11592385
159	0xbb424b73	-0.0029647022
160	0xbdb941cd	-0.09045754
161	0x3baa36a6	0.005194503
162	0x3bc0d8a9	0.005885203
163	0xbc2ec880	-0.01066792
164	0x3dc20548	0.094736636
165	0x3bc28380	0.005936086
166	0x3d8909bb	0.06691309
167	0x3c35bf2c	0.011092942
168	0xbca0b6fd	-0.019618506
169	0xbda8fa61	-0.08250881
170	0xbd6a9f2a	-0.057280697
171	0xbda04010	-0.07824719
172	0x3c244868	0.010027029
173	0xbd13e8d9	-0.036110733
174	0x3d370f3c	0.044692263
175	0x3dbcfd1b	0.092279635
176	0x3c338069	0.010955908
177	0xbdd5c604	-0.10438159
178	0x3cf863a6	0.030320954
179	0xbe02c7aa	-0.12771478
180	0x3e1b9dec	0.15196961
181	0xbd7eec25	-0.062236924
182	0xbcd735a0	-0.026270688
183	0xbd261ba2	-0.040553696
184	0xbacee0ba	-0.0015783526
185	0xbd1bf560	-0.038075805
186	0xbd82a61f	-0.06379341
187	0x3e028dcd	0.12749405
188	0x3d5a304d	0.05326872
189	0x3d94a76c	0.07258496
190	0x3beefe11	0.0072934707
191	0x3d41529f	0.047197934
192	0x3cb2ef05	0.021842489
193	0xbdbd6b45	-0.09248976
194	0xbe1b45d2	-0.15163353
195	0xbe5f449a	-0.21803513
196	0xbdc95e5e	-0.09832452
197	0x3d467b45	0.048457403
198	0xbd1a7c4f	-0.037716206
199	0xbd673432	-0.05644626
200	0x3b29993d	0.002587869
201	0xbe0fb360	-0.1403327
202	0x3d1d4879	0.038399193
203	0x3dc8e929	0.09810097
204	0x3c9d6121	0.019211354
205	0x3da33df4	0.07970801
206	0x384f04f3	4.9357255e-05
207	0xbd4f3b32	-0.050593562
208	0x3d8328da	0.06404276
209	0xbc224306	-0.009903675
210	0x3be18abb	0.006882993
211	0x39a1013c	0.00030709233
212	0xbd1bb332	-0.03801269
213	0xbd622484	-0.055210605
214	0xbe8dfefe	-0.27733606
215	0x3b902f7c	0.004400192
216	0xbd49a0f8	-0.049225777
217	0xbe053aab	-0.13010661
218	0xbe8a1002	-0.26965338
219	0x3d6357c5	0.055503625
220	0xbc335c47	-0.010947294
221	0xbddb6e8e	-0.10714446
222	0xbc449fd1	-0.012000994
223	0xbe211de2	-0.15734056
224	0xbe3b9a8c	-0.18320674
225	0x3dc6be09	0.09704215
226	0xbce51033	-0.027961826
227	0x3df07d1e	0.11742614
228	0xbe14c037	-0.14526449
229	0xbdf7dab4	-0.12102261
230	0xbb1c5765	-0.0023855802
231	0x3d0f8243	0.035036337
232	0xbdcf394c	-0.101183504
233	0xbda7e202	-0.081974044
234	0xbdc03c87	-0.09386545
235	0xbd13a4d8	-0.03604588
236	0x3c0d0bc1	0.008608759
237	0xbdd8b46d	-0.105812885
238	0x3b83b35d	0.0040191845
239	0x3db3b0b2	0.08773936
240	0xbd84ba2e	-0.064808235
241	0xbe051b81	-0.12998773
242	0xba4ecda9	-0.0007888922
243	0xbccb3e6e	-0.024810042
244	0x3da7ade1	0.08187462
245	0x3dae0b4d	0.08498249
246	0xbd8aae03	-0.06771471
247	0xbdbf0e52	-0.09328903
248	0xbd8346dd	-0.064100005
249	0xbdeaa4c7	-0.1145721
250	0x3d471388	0.04860261
251	0xbe8c2abc	-0.27376354
252	0x3e0bc964	0.13651043
253	0xbdfd0ded	-0.12356172
254	0xbd1011ce	-0.03517323
255	0xbc2f758d	-0.010709179

fc2.bias f4 [128]
0	0x3ec61cb7	0.38693783
1	0xbdfdba02	-0.12388994
2	0xbdccd5fc	-0.10001752
3	0xbd8e8cf6	-0.0696048
4	0xbdf48ece	-0.119413
5	0xbde7dba6	-0.113211915
6	0xbd0f9fc4	-0.035064474
7	0xbd7d71ad	-0.061875988
8	0xbeecc2a2	-0.46242243
9	0xbd879454	-0.06620088
10	0x3c583aa1	0.013197572
11	0xbd78dc4b	-0.060756963
12	0x3ed5b196	0.4173705
13	0xbdfbe007	-0.12298589
14	0x3e3eedcd	0.18645401
15	0xbda53993	-0.08067622
16	0x3da12572	0.0786847
17	0xbd8ae72e	-0.06782375
18	0xbe10b0d7	-0.14129959
19	0xbda1b9f5	-0.078967966
20	0xbd04e387	-0.03244355
21	0xbe79626d	-0.24353953
22	0xbe185836	-0.148774
23	0xbd4e4b12	-0.05036456
24	0xbdcf2523	-0.10114505
25	0xbe7ad3c6	-0.24494848
26	0xbde80d82	-0.113307014
27	0xbea5c817	-0.3237922
28	0x3bf05fde	0.007335647
29	0xbe1db281	-0.15400125
30	0xbd86c6f3	-0.06580915
31	0xbd109168	-0.03529492
32	0xbde2c902	-0.110734954
33	0x3cef5029	0.029213028
34	0xbdd28d95	-0.10280911
35	0xbd844306	-0.06458096
36	0xbe0b17da	-0.13583317
37	0xbdd1327b	-0.102147065
38	0xbe4ec5b1	-0.20192601
39	0xbdb68262	-0.08911587
40	0x3f2609be	0.64858615
41	0x3d2adc8a	0.04171423
42	0x3d73d996	0.059533678
43	0xbdc3da40	-0.09563112
44	0xbbe64b93	-0.007028052
45	0xbe1c03f1	-0.15235879
46	0x3bc161f7	0.005901571
47	0xbe673882	-0.2258015
48	0xbe186221	-0.14881183
49	0xbd87cc5c	-0.06630775
50	0xbe43e2a1	-0.19129421
51	0xbe074ce3	-0.13212924
52	0xbd999974	-0.07499972
53	0xbdca2e32	-0.09872092
54	0xbdfde763	-0.12397649
55	0xbd63f715	-0.055655558
56	0xbe1a7811	-0.15084864
57	0xbd8fdc5d	-0.07024453
58	0xbeb59223	-0.35463056
59	0x3e27a152	0.16370133
60	0xbdf83217	-0.12118929
61	0xbd2b73d0	-0.041858494
62	0xbe35f828	-0.17770445
63	0xbca28e00	-0.019843102
64	0xbeab5341	-0.33461955
65	0xbe0b6215	-0.13611634
66	0xbd55a929	-0.052163277
67	0xbe0c2e96	-0.13689646
68	0xbbf7337d	-0.0075439797
69	0xbe0b82df	-0.13624142
70	0xbf052970	-0.52016354
71	0xbdc1a94c	-0.09456119
72	0xbd8cf858	-0.06883305
73	0xbd4f5c9f	-0.05062544
74	0xbcfe974e	-0.031078007
75	0xbdd8a537	-0.10578387
76	0xbd2bf38e	-0.04198032
77	0xbd4e3be4	-0.050350085
78	0xbe0db6bf	-0.13839243
79	0x3d854713	0.06507697
80	0xbdd28cc0	-0.10280752
81	0xbe8ec5f1	-0.27885392
82	0x3f1d447f	0.6143264
83	0xbe49ed65	-0.19719465
84	0xbe1e94e6	-0.15486488
85	0xbdbe65d5	-0.09296767
86	0xbd82fb9b	-0.06395646
87	0xbdac2fac	-0.0840753
88	0xbe81ec25	-0.25375476
89	0xbea1adfa	-0.31578046
90	0xbd9b478c	-0.07582006
91	0x3db79e01	0.08965684
92	0xbdd66b5d	-0.10469697
93	0x3e1e4843	0.15457253
94	0xbe090dd2	-0.13384178
95	0xbd8cc730	-0.068739295
96	0xbd58c526	-0.05292239
97	0x3db3dfc9	0.08782918
98	0x3bc493ad	0.0059990496
99	0x3d4f9817	0.050682154
100	0xbda8dbea	-0.0824507
101	0xbde50eee	-0.11184488
102	0xbdf576e3	-0.119855665
103	0xbd8562c8	-0.06512982
104	0xbdb323d6	-0.087470695
105	0x3da22b33	0.07918396
106	0xbdf9ba53	-0.12193742
107	0xbe0ea4cf	-0.13930057
108	0xbe110a25	-0.14164026
109	0xbdb990ab	-0.09060796
110	0xbdb8e1f8	-0.09027475
111	0xbdbbd896	-0.0917217
112	0x3e3d7e39	0.18505181
113	0xbddb6b5f	-0.10713839
114	0xbd457473	-0.048206758
115	0xbe1f6f94	-0.15569907
116	0xbddc8ece	-0.10769425
117	0x3e4a57c3	0.19760041
118	0xbe3a5dd6	-0.18199858
119	0xbe0207d2	-0.12698296
120	0xbe031f46	-0.12804899
121	0xbcbf935d	-0.023385698
122	0xbdb5f778	-0.088850915
123	0xbdab056e	-0.08350645
124	0xbdc2544e	-0.09488736
125	0xbd44eb94	-0.048076227
126	0x3d534cab	0.05158679
127	0xbea1e65f	-0.31621072

dist.fc_mean.weight f4 [4, 128]
0	0xbd2edee2	-0.042693026
1	0x3f380bc5	0.7189296
2	0xbbd51815	-0.006503115
3	0x3ea38c33	0.319429
4	0xbeb2eadd	-0.3494481
5	0x3f1ccb8f	0.61248106
6	0xbde25014	-0.1105043
7	0x3ef00e4d	0.4688591
8	0x3bf88f58	0.0075854473
9	0xbe84dfea	-0.25952083
10	0xbc8198db	-0.015819957
11	0xbd5ce677	-0.053930726
12	0x3d09d23c	0.03364776
13	0x3e2eafaf	0.17059205
14	0x3d3dc718	0.04633245
15	0xbe2cc2fa	-0.16871253
16	0x3b357f4d	0.0027694285
17	0xbe47c5e1	-0.19509079
18	0xbefdeeb9	-0.49596193
19	0xbbec421f	-0.0072100307
20	0xbf1d3440	-0.6140785
21	0xbfa77f0c	-1.3085647
22	0x3a2ebe0d	0.0006665893
23	0xbde17a77	-0.110096864
24	0xbf2f5fbe	-0.68505466
25	0xbf9bebb1	-1.2181302
26	0xbc3845b0	-0.011247084
27	0x3e0deabc	0.13859075
28	0xc027df03	-2.6229866
29	0x3f00903c	0.50220084
30	0x3dd6b245	0.10483221
31	0xbd286507	-0.041111972
32	0xbdf4b3fb	-0.11948391
33	0x3c51cc47	0.012805051
34	0x3e711cfc	0.23546213
35	0x3ddf2810	0.10896313
36	0xbe036e4b	-0.12835042
37	0x3e605b8d	0.21909924
38	0x3f6eb40d	0.93243486
39	0xbf776af2	-0.9664756
40	0x3db85617	0.09000795
41	0x3d0c6542	0.034276254
42	0x3cc79eee	0.024367776
43	0x3dd2f09d	0.102997996
44	0x3f05d026	0.52270734
45	0xbec7eb45	-0.39046684
46	0x3ae08740	0.0017130151
47	0x3dad7c9d	0.08471034
48	0xbc014e2b	-0.007892172
49	0xbc1e4b3e	-0.009661494
50	0xbe93d214	-0.28871214
51	0xbf2bc85a	-0.6710259
52	0xbf9df2ba	-1.2339699
53	0xbbc049b6	-0.005868162
54	0xc0da6612	-6.8249598
55	0xbe571056	-0.21002325
56	0xbcb3cc7d	-0.021948094
57	0x3c7494cb	0.014928053
58	0xbfab83e0	-1.339962
59	0x3cb8f195	0.022576133
60	0xbe275791	-0.16341998
61	0xbbf5e7f7	-0.007504459
62	0xbeac9c94	-0.3371321
63	0x3e3d7eda	0.18505421
64	0x3ea4f48c	0.32217824
65	0xbf2bc3a6	-0.6709541
66	0xbe40ec35	-0.18840106
67	0x3dced18d	0.100985624
68	0x3d0fe6bf	0.035132166
69	0x3d79f362	0.061023124
70	0xbcaa57f0	-0.020793885
71	0x3eb076b7	0.34465572
72	0x3dce7b0d	0.10082064
73	0x3df2b056	0.1185004
74	0xbbaadba7	-0.005214173
75	0xbcd43f5c	-0.025909118
76	0xbc7196f9	-0.014745467
77	0x3e9e5b2e	0.3092894
78	0xbdfe76bb	-0.1242499
79	0xbda6f76a	-0.08152659
80	0xbdefbf1a	-0.117063716
81	0x3c966b4f	0.018361716
82	0xbca3764c	-0.01995387
83	0x3d433f64	0.047667876
84	0xbf927c1a	-1.1444123
85	0x3c2c8378	0.0105293915
86	0xbd718ab6	-0.058970176
87	0x3d2ec0bb	0.04266427
88	0x3cc4873e	0.02399027
89	0x3faad7fc	1.3347163
90	0x3da1d67a	0.07902236
91	0x3d053380	0.032519817
92	0xbd53feaf	-0.051756557
93	0xbb9224a7	-0.0044599357
94	0xbf8bfe60	-1.0937004
95	0x3e2746dd	0.16335626
96	0xbd4ee5e0	-0.050512195
97	0xbc0a31b4	-0.008434702
98	0x3c18e442	0.009331765
99	0xbce228a3	-0.027607268
100	0xbbb3f5aa	-0.005491932
101	0x3dcf0891	0.10109056
102	0xbf755581	-0.95833594
103	0x3e7ad8ef	0.24496816
104	0xbe2bca1f	-0.16776322
105	0x3e700996	0.23441157
106	0x3d8c618d	0.06854544
107	0x3ee99347	0.45620176
108	0xbe30c69d	-0.17263265
109	0x3e0f814c	0.14014167
110	0xbf162a49	-0.5865827
111	0xbddad194	-0.10684505
112	0xbc16fbf3	-0.009215343
113	0xbd53b534	-0.05168648
114	0xbbe37fb9	-0.006942716
115	0x406de2dc	3.7169714
116	0xbe59b3a2	-0.2125993
117	0x3b9fb9ed	0.004874459
118	0xba48c099	-0.0007658094
119	0x4089982c	4.2998257
120	0x3d4d9987	0.050195243
121	0x3c7a7fbd	0.015289244
122	0xbdcdd8af	-0.10051095
123	0x3dcdb91e	0.10045074
124	0xbdb1531b	-0.08658429
125	0xbd7d1807	-0.061790492
126	0xbbafd948	-0.005366478
127	0x3f15194d	0.5824173
128	0xb7ff0439	-3.0400335e-05
129	0x3c7c734d	0.015408349
130	0xbe12ca6e	-0.14335033
131	0xbc12f891	-0.008970396
132	0xb9ef7496	-0.00045672496
133	0x3c9c961f	0.019114552
134	0xbcd1fb2b	-0.025632462
135	0xbc349d1b	-0.011023785
136	0x3b386d3f	0.0028141288
137	0x3d21352b	0.039357346
138	0x3a562457	0.0008168867
139	0xb8e5ee04	-0.00010963905
140	0xb8ca4bde	-9.646242e-05
141	0x3c86e3c0	0.016466022
142	0xba07a51a	-0.00051744434
143	0x3db519cb	0.0884281
144	0xb9029571	-0.00012453437
145	0xbbf3edd8	-0.0074441247
146	0xbb56400f	-0.003269199
147	0x39a0cec3	0.00030671628
148	0x3c825837	0.015911205
149	0xbc675b45	-0.014120881
150	0x3de2d6b4	0.110761076
151	0x3c0de034	0.008659411
152	0xbc3c5a66	-0.011496162
153	0xbcff7661	-0.031184377
154	0xbafad516	-0.0019136991
155	0xbf10f795	-0.5662778
156	0x3a8ab092	0.0010581187
157	0x3dbb35c8	0.09141117
158	0xbc3073f7	-0.010769836
159	0xbca6d597	-0.02036552
160	0x3bfb8743	0.0076760366
161	0x3aa6f028	0.0012736367
162	0x3beb41cc	0.0071794745
163	0xbcd497cc	-0.025951289
164	0x3c1d9466	0.0096179005
165	0xbc3b0380	-0.011414409
166	0x3c2d7b81	0.010588528
167	0x399292be	0.00027956621
168	0xb8d63a4e	-0.00010215175
169	0x3a8f07a0	0.0010912307
170	0xb8b799f6	-8.7547975e-05
171	0xbd6453a4	-0.05574383
172	0xba1d0aae	-0.0005990666
173	0xbbf42d5a	-0.0074516954
174	0xb9785b36	-0.00023685102
175	0xbd4ee509	-0.050511394
176	0xbd06703a	-0.03282187
177	0xbc28b722	-0.0102975685
178	0xbc7877cf	-0.015165283
179	0x3bd30813	0.0064401715
180	0xbc7483be	-0.014923988
181	0x3c82c7c5	0.015964398
182	0xb9cf174e	-0.0003949948
183	0x3b6da148	0.0036259461
184	0xbc9c8974	-0.019108512
185	0x3cf13a07	0.029446615
186	0xbc5ba92f	-0.013407036
187	0x39968234	0.00028707238
188	0x3d18287c	0.037147984
189	0x3b8f5996	0.004374693
190	0xbb359a34	-0.002771032
191	0xbc407b8b	-0.011748205
192	0x3c31fe32	0.010863828
193	0xbcd6a6b5	-0.026202539
194	0x3cb318e2	0.021862451
195	0xbb333551	-0.0027345011
196	0xba073ee2	-0.00051592116
197	0x3b0da3b0	0.0021612458
198	0x3e424e33	0.18975143
199	0xbb858bbe	-0.0040754965
200	0xbc3263ae	-0.010888023
201	0xb8c2f0c0	-9.295484e-05
202	0xbadda8ca	-0.0016911265
203	0x3c2ab3fb	0.010418887
204	0x3aa70ebe	0.0012745482
205	0xbbf2c5f7	-0.007408853
206	0x3c69032f	0.01422195
207	0xba6208b2	-0.00086225115
208	0x3c4cfefd	0.012511966
209	0xbb39a40a	-0.0028326535
210	0xb8bd73e2	-9.033807e-05
211	0xbb655b92	-0.0034997207
212	0x3cac8c9b	0.02106314
213	0x3d2c40d3	0.04205401
214	0xbcf996c6	-0.030467402
215	0x3bbb0370	0.005707197
216	0x3f14dfb4	0.58153844
217	0x3ac0647b	0.0014678383
218	0x3b0bf502	0.0021355753
219	0x399f034a	0.00030329294
220	0xbcefa3b3	-0.029252863
221	0x3a503190	0.00079419557
222	0x3c663c9d	0.014052537
223	0x3ca011dd	0.019539768
224	0xbd8a8f57	-0.06765621
225	0x3a0a913f	0.00052859256
226	0xbb19682c	-0.0023408039
227	0x39cb6ed6	0.00038801756
228	0xbae18485	-0.0017205632
229	0x3d58973e	0.05287861
230	0x3b35149e	0.0027630697
231	0xbd02c6ed	-0.03192799
232	0xbc158151	-0.00912507
233	0xba881f3c	-0.0010385285
234	0x3dec4ecd	0.115384676
235	0xba8a6e1b	-0.0010561378
236	0x3c94fc0f	0.018186597
237	0xbd30bc83	-0.04314853
238	0xbc6b593b	-0.014364536
239	0x3a7f2ce2	0.0009734166
240	0x3a0c5ced	0.0005354423
241	0xbb2b5fac	-0.0026149554
242	0xbaf79ada	-0.0018890754
243	0xbadf6c94	-0.0017045909
244	0x3b742086	0.003725083
245	0x3901d4c4	0.0001238166
246	0xbb4d270f	-0.0031303798
247	0xbb279856	-0.0025572977
248	0xb9b10538	-0.0003376396
249	0xbc73348e	-0.014844073
250	0x3ae0527b	0.0017114425
251	0x38fc463b	0.00012029378
252	0x3a4d02e7	0.0007820562
253	0x3d00a40b	0.031406444
254	0xb953c76f	-0.00020196823
255	0x3b27a381	0.0025579634

dist.fc_mean.bias f4 [4]
0	0xbd6585a6	-0.05603566
1	0x395c5c94	0.00021015323
2	0x39b01ed0	0.00033592293
3	0xbb2e6d37	-0.002661539

dist.fc_logstd.weight f4 [4, 128]
0	0xbe95de8d	-0.29271355
1	0xbcce772f	-0.025203316
2	0x3b2da023	0.0026493154
3	0xbe317920	-0.17331362
4	0x3fc73eef	1.5566081
5	0xbfd60d4a	-1.6722806
6	0xbefefde7	-0.49803087
7	0xbed2fdca	-0.4120925
8	0xbf231ad1	-0.63712794
9	0x3edbf96e	0.42963737
10	0xc0f8860f	-7.7663646
11	0xbcd04f3d	-0.025428409
12	0x3d721a99	0.059107397
13	0xbe9fe42e	-0.31228775
14	0xbee74024	-0.45166123
15	0xbd2b6dad	-0.04185264
16	0xbf056343	-0.52104586
17	0xbf1721b0	-0.5903578
18	0xbf2409b8	-0.6407733
19	0xbf84f7d5	-1.0388132
20	0x3edfe9c8	0.43733048
21	0x3da6221e	0.08111976
22	0xbaf7d248	-0.0018907273
23	0xbe1f3504	-0.15547568
24	0x3f0a5f70	0.54051876
25	0xbf519f8f	-0.8188409
26	0xc08786e3	-4.2352157
27	0xbe4b8ad9	-0.19877185
28	0x41295f10	10.585709
29	0xbf332eb1	-0.6999312
30	0xbffc79e0	-1.9724693
31	0xbe37a66d	-0.1793458
32	0x3efbb781	0.4916344
33	0xc09ce0b9	-4.902432
34	0x3ecac583	0.39603814
35	0xbeed6266	-0.46364135
36	0x3ec8028c	0.39064443
37	0xbe22da56	-0.15903601
38	0xc01e76e9	-2.4760077
39	0x3f726a96	0.9469389
40	0xbd332004	-0.043731704
41	0x3dc11e33	0.09429588
42	0xbf3f41a6	-0.74709547
43	0xbbcbe3d8	-0.0062222295
44	0xbd152d6e	-0.03642028
45	0x3dd51d6d	0.10406003
46	0xc05eccea	-3.481257
47	0xbf2d1e22	-0.67624104
48	0xbd7e8462	-0.06213797
49	0x3f11ddcc	0.5697906
50	0xbf5528ad	-0.8326519
51	0xbf226456	-0.6343435
52	0xbe93175f	-0.28728768
53	0xbec579e6	-0.38569564
54	0xbee68205	-0.45021072
55	0x3e68ba9f	0.2272744
56	0xbf0f81dd	-0.5605753
57	0x3f14a2cf	0.58060926
58	0x3f1e5b12	0.6185771
59	0xbf813e03	-1.009705
60	0xbf35a5aa	-0.7095591
61	0x3ea58865	0.32330623
62	0x3ed2161d	0.41032496
63	0x3e40e820	0.18838549
64	0x3ebc8df2	0.36827046
65	0x3d11c861	0.035591487
66	0x3f66f332	0.90214837
67	0xbf94b13e	-1.161659
68	0x3e286c67	0.16447602
69	0xbffcc6b8	-1.9748144
70	0xbf94c891	-1.1623708
71	0xbe196996	-0.14981684
72	0x3d93e5c2	0.07221557
73	0xbf6aefbd	-0.9177206
74	0x3d01caaa	0.031687416
75	0x3c524b6a	0.012835363
76	0xbf960e51	-1.1723119
77	0xbeeea9eb	-0.46614012
78	0xbfe79694	-1.8092828
79	0xc00e82a6	-2.2267241
80	0x3c7c6aee	0.015406353
81	0xc007fb58	-2.1247158
82	0xbd9ea30d	-0.07745943
83	0xc02d9409	-2.7121603
84	0x3f000817	0.50012344
85	0x3cb07d54	0.021544136
86	0xbf5ebfd1	-0.8701144
87	0xbea93dfe	-0.3305511
88	0xbfafedb1	-1.3744413
89	0x3f2e6474	0.6812203
90	0xc0475bb6	-3.1149726
91	0xc08beb93	-4.3725066
92	0x3cd5a7ce	0.026080992
93	0x3e9971fa	0.2996977
94	0x3eb243c8	0.34817338
95	0xbd874a57	-0.06605976
96	0xbd5ebed7	-0.054381218
97	0x3fea0a5e	1.8284414
98	0xbe62d878	-0.22152889
99	0x3ff41af3	1.9070724
100	0xbf9f2e10	-1.2435932
101	0x3c1c5286	0.0095411595
102	0x3f3f5ddf	0.7475261
103	0xbf3c71f6	-0.7361139
104	0xc050194b	-3.2515438
105	0x4072cb6b	3.7936656
106	0xbbe877e2	-0.0070943693
107	0xbee927ea	-0.45538265
108	0xc0074abb	-2.1139362
109	0xbd9bee96	-0.07613866
110	0xbe82f32d	-0.25576153
111	0x3d139e29	0.036039505
112	0xbf897ae0	-1.0740623
113	0xc0c3960b	-6.112066
114	0xc0f9a1f4	-7.8010197
115	0xc02e8ab8	-2.7272167
116	0xbdd485d6	-0.1037709
117	0x3e6b11ef	0.2295606
118	0xc08374c5	-4.108004
119	0xbf6f223a	-0.934116
120	0xbfec4348	-1.8458033
121	0xbe7f128a	-0.24909416
122	0x3e7c3471	0.2462938
123	0xbf93d132	-1.1548216
124	0xbf185055	-0.59497577
125	0x3efd4b9e	0.49471754
126	0x3bf427da	0.0074510397
127	0xbf0875dc	-0.5330484
128	0xc009abf7	-2.151121
129	0xbf18fc17	-0.5975966
130	0x3b9e14fe	0.00482428
131	0xbe5d6e78	-0.21624172
132	0xc01e5957	-2.4742029
133	0xbefe1dce	-0.49632114
134	0xbf1249a4	-0.57143617
135	0xbfb52a16	-1.4153469
136	0xc01e1f58	-2.470663
137	0xbe059c6b	-0.1304795
138	0xbf3b7b1f	-0.7323474
139	0xbaa7fd96	-0.0012816663
140	0xbffa8f07	-1.9574898
141	0xbe552a77	-0.2081698
142	0xbfbdf8e1	-1.4841577
143	0xbd962558	-0.073313415
144	0x3fbb7ffb	1.4648432
145	0xbf9d76cd	-1.230188
146	0xbe031fd9	-0.12805118
147	0xbfa5b2f6	-1.294524
148	0xbf16b716	-0.58873117
149	0xc045e32d	-3.0919907
150	0xbd23e14d	-0.040009785
151	0xbd87ba11	-0.06627286
152	0xbe0a3c2f	-0.1349952
153	0xbf907185	-1.1284643
154	0xbf8a525d	-1.0806385
155	0x3f075ad2	0.52872956
156	0xbd3e8786	-0.046515964
157	0x3e31aa4e	0.17350122
158	0xbf843804	-1.0329595
159	0xbeb16023	-0.3464366
160	0xbf9bf39d	-1.218372
161	0xbfdb4914	-1.7131677
162	0xbf5fa178	-0.87355757
163	0xbf38fcb8	-0.7226062
164	0xbd7557d0	-0.059898198
165	0xbfe982b4	-1.8243012
166	0xbe34d753	-0.17660265
167	0xbf1ffbf8	-0.6249385
168	0xc0105abf	-2.2555387
169	0xbefc448e	-0.49271053
170	0xbf7dcb7b	-0.9913861
171	0xbc2ad1e1	-0.010426016
172	0xbfbb1032	-1.4614317
173	0xbf6bf7a5	-0.9217475
174	0x3d2728ad	0.040810276
175	0xbf8a3445	-1.0797201
176	0xbb911638	-0.0044276975
177	0xbe9d86c0	-0.3076687
178	0xbf574d19	-0.84102017
179	0xbe0b10ff	-0.13580702
180	0xbf997d2e	-1.1991327
181	0xbefd4401	-0.49465945
182	0x3d69b53b	0.0570576
183	0xbe13b059	-0.1442274
184	0xc010f476	-2.2649207
185	0xbf863ff3	-1.0488266
186	0xbf93b41f	-1.1539344
187	0xc01d64b8	-2.4592724
188	0xbe633861	-0.22189476
189	0xbe304ac2	-0.17216018
190	0xbfe88479	-1.8165427
191	0xbf0cb7df	-0.54968065
192	0xbfcf2676	-1.6183612
193	0x3ce7297a	0.02821802
194	0xbf45433c	-0.77055717
195	0xbfdb7c91	-1.714739
196	0xbf410832	-0.7540313
197	0xbf427665	-0.75961906
198	0xbbf3bec9	-0.007438515
199	0xbe4e9566	-0.20174178
200	0xbef6a8f4	-0.48175776
201	0xbec8ae7a	-0.39195615
202	0x4026e426	2.607675
203	0xbf08f1dc	-0.5349405
204	0x401de251	2.4669383
205	0xbe308ff6	-0.17242417
206	0x3eb6b3dc	0.35684097
207	0xbf5dd196	-0.8664793
208	0xbd8bc6ab	-0.06825002
209	0x3f3f482e	0.7471951
210	0xbffe81dd	-1.9883381
211	0xc082d99a	-4.0890627
212	0xbf89f5f2	-1.0778182
213	0xbdd46d51	-0.10372413
214	0xbf0abcb9	-0.5419422
215	0xbd0265ac	-0.031835243
216	0x3fbf30d5	1.4936777
217	0xbf84a89d	-1.0363957
218	0xbf84502a	-1.0336964
219	0xbfced9a1	-1.6160165
220	0xbc7a44f8	-0.0152752325
221	0xc0182feb	-2.3779247
222	0xbf8a8210	-1.0820942
223	0xbf299739	-0.6624637
224	0xbcf7387c	-0.030178301
225	0xbfad5c8e	-1.354387
226	0xbffeffee	-1.9921854
227	0xbe95e99b	-0.2927979
228	0xbfd6aab3	-1.6770843
229	0xbc949827	-0.018138958
230	0xbd0b81d3	-0.034059357
231	0xbefd96e9	-0.49529198
232	0xbf57742f	-0.8416166
233	0xc017425e	-2.3634257
234	0xbe0dd5ce	-0.13851091
235	0xbe66ffbc	-0.22558492
236	0xbfe1465b	-1.7599596
237	0xbd87032c	-0.06592402
238	0xbd86721e	-0.06564735
239	0xbdf2192c	-0.118212074
240	0xbf945bc7	-1.1590508
241	0xbee9e8ee	-0.45685524
242	0xbec6b322	-0.38808542
243	0xc02badfe	-2.6824946
244	0xbfd04bae	-1.6273096
245	0xbfe1700f	-1.7612323
246	0xbf80d1ef	-1.0064067
247	0xbea890ff	-0.32923123
248	0xbf785e58	-0.9701896
249	0xbe8286bb	-0.25493416
250	0xbf3dc51a	-0.7412888
251	0xbf179a71	-0.59220034
252	0xbe269f0a	-0.16271606
253	0xbef6a23e	-0.48170656
254	0xbfd22c0b	-1.6419691
255	0x3f4a9dd1	0.7914706

dist.fc_logstd.bias f4 [4]
0	0xbec098fc	-0.37616718
1	0xc00966b3	-2.1468933
2	0xbfd53287	-1.6656045
3	0xbebea7bf	-0.37237355

exp_avg f4 [128, 15]
0	0x3cc18e67	0.023627473
1	0xbd86610c	-0.06561479
2	0x3d233523	0.039845597
3	0xbcd8ff6c	-0.026488982
4	0xbdb6503e	-0.08902024
5	0x3cce6cfb	0.02519845
6	0xbd0e7ebb	-0.03478883
7	0x3e1c2de3	0.1525188
8	0xbd99b0e8	-0.07504445
9	0x3cfb4ce1	0.030676307
10	0x3dd92054	0.10601869
11	0xbd01dda5	-0.031705517
12	0x00000000	0.0
13	0x00000000	0.0
14	0xbe35eb1a	-0.17765465
15	0x3d31fc3c	0.04345344
16	0xbc857363	-0.016290372
17	0x3da123a5	0.07868127
18	0x3eabf50f	0.33585402
19	0x3d71db81	0.059047226
20	0xba59c936	-0.0008307876
21	0x3c8234bf	0.015894292
22	0xbec683c6	-0.3877241
23	0x3e8c4a76	0.2740056
24	0x3bcc9e89	0.006244485
25	0xbe384973	-0.17996769
26	0x3c450015	0.012023945
27	0x00000000	0.0
28	0x00000000	0.0
29	0x3f3b386b	0.7313296
30	0x3bedc792	0.0072564567
31	0xbd0aa397	-0.033847418
32	0xbf0a632f	-0.5405759
33	0x3d77ecfc	0.06052874
34	0xbd097bad	-0.033565212
35	0x3e067712	0.13131359
36	0xbced6dac	-0.02898296
37	0xbd18ade2	-0.037275203
38	0x3e961ea7	0.2932026
39	0xbc3c547e	-0.011494754
40	0xbd12d224	-0.035844937
41	0xbdd008f4	-0.10157958
42	0x00000000	0.0
43	0x00000000	0.0
44	0x3f010521	0.5039845
45	0xb8021ab0	-3.101927e-05
46	0x383d83b0	4.5183755e-05
47	0xb87f5572	-6.0876315e-05
48	0xb97e14d5	-0.00024231088
49	0x3829cd24	4.0483792e-05
50	0x3b0e1c57	0.0021684372
51	0x389b68ce	7.410497e-05
52	0x398aee4d	0.0002649896
53	0x3b1b1b36	0.0023667342
54	0x38aa86c9	8.1313374e-05
55	0x3945f376	0.0001887808
56	0xba7015eb	-0.00091585395
57	0x00000000	0.0
58	0x00000000	0.0
59	0xbafefb59	-0.001945357
60	0xbc1c9841	-0.009557785
61	0x3ceb0032	0.028686617
62	0x3d7ce122	0.06173814
63	0xbde19633	-0.11014976
64	0xbd3caca5	-0.046063084
65	0xbd15733a	-0.03648684
66	0xbd72a5cf	-0.05924016
67	0x3e035c3f	0.12828158
68	0x3d4aea03	0.049539577
69	0xbca912ed	-0.020638907
70	0x3d2114bb	0.03932641
71	0x3db3399a	0.08751221
72	0x00000000	0.0
73	0x00000000	0.0
74	0x3ddea5ad	0.10871444
75	0x3e3e4e39	0.18584527
76	0xbe062083	-0.1309834
77	0x3c0cac22	0.008585962
78	0xbdbf58e1	-0.09343124
79	0xbcd3078b	-0.025760433
80	0xbe1a3645	-0.15059765
81	0xbd64b2dc	-0.055834636
82	0x3e3c4b1a	0.18388024
83	0xbd015917	-0.031579103
84	0xbd050e91	-0.032484595
85	0x3da9bd2f	0.08288037
86	0xbe0ce3eb	-0.13758819
87	0x00000000	0.0
88	0x00000000	0.0
89	0x3d14d997	0.036340322
90	0x3e23024c	0.15918845
91	0xbdbfde5d	-0.09368584
92	0xbf276b5f	-0.6539821
93	0xbcf5433b	-0.029939285
94	0xbcea79d3	-0.028622543
95	0x3ee938a0	0.45551014
96	0x3b8b5f65	0.0042533153
97	0x3df11cd6	0.11773078
98	0xbdfc43bd	-0.123176076
99	0x3d6b1395	0.05739172
100	0x3e014079	0.1262225
101	0xbcedeb82	-0.029042963
102	0x00000000	0.0
103	0x00000000	0.0
104	0xbf91b642	-1.1383746
105	0x3adf6551	0.0017043744
106	0xba6dbc70	-0.0009068912
107	0x3b09bdbf	0.0021017639
108	0x3c005137	0.007831863
109	0xba9e6478	-0.0012084385
110	0xbc30a5e9	-0.010781744
111	0xbc808602	-0.0156889
112	0xbc68dfe5	-0.014213537
113	0xbca94392	-0.020662103
114	0xbc5e33b3	-0.013562131
115	0xbc845460	-0.016153514
116	0xbcadfc8b	-0.021238586
117	0x00000000	0.0
118	0x00000000	0.0
119	0x3c9da8cb	0.019245526
120	0x3c9e7ed2	0.019347582
121	0xbbb23b81	-0.0054392223
122	0xbc651cdf	-0.013983934
123	0x3c318279	0.01083433
124	0x3b5cef60	0.0033712015
125	0x3d2e40e4	0.042542353
126	0xbaaec663	-0.001333427
127	0xbd2fe1df	-0.042940017
128	0xbce753ab	-0.028238138
129	0xbbf0920d	-0.0073416294
130	0xbc9429fa	-0.018086422
131	0xbc579bff	-0.013159751
132	0x00000000	0.0
133	0x00000000	0.0
134	0xbcac2e8a	-0.021018285
135	0x3d6efd8f	0.05834728
136	0xbbfbf345	-0.007688912
137	0x3e6a7610	0.228966
138	0x3d580e74	0.05274816
139	0xbd05aaf9	-0.032633755
140	0xbeebd36a	-0.46059734
141	0xbd2977c6	-0.04137399
142	0xbd97c369	-0.074103184
143	0xbd48e71d	-0.04904853
144	0xbd91d265	-0.07120208
145	0xbdd38a42	-0.10329105
146	0x3de967c2	0.11396743
147	0x00000000	0.0
148	0x00000000	0.0
149	0x3f66aa5d	0.90103704
150	0x80000004	-6e-45
151	0x80000004	-6e-45
152	0x00000004	6e-45
153	0x00000004	6e-45
154	0x80000004	-6e-45
155	0x00000004	6e-45
156	0x80000004	-6e-45
157	0x80000004	-6e-45
158	0x00000004	6e-45
159	0x80000004	-6e-45
160	0x80000004	-6e-45
161	0x00000004	6e-45
162	0x00000000	0.0
163	0x00000000	0.0
164	0x80000004	-6e-45
165	0xbb3baca0	-0.0028636828
166	0xbb4b478b	-0.0031017985
167	0xbd1ea8d4	-0.038735226
168	0x3a5c2aa1	0.0008398686
169	0x3a5ca1a7	0.0008416422
170	0xbd025cb1	-0.03182668
171	0xbaa60ff4	-0.0012669549
172	0x3a978e75	0.0011562841
173	0xbc859a0e	-0.01630881
174	0xbb9789a0	-0.0046245605
175	0x399ab4eb	0.00029507963
176	0x3c0118dd	0.007879463
177	0x00000000	0.0
178	0x00000000	0.0
179	0x3d805c6d	0.06267629
180	0x00000004	6e-45
181	0x80000004	-6e-45
182	0x00000004	6e-45
183	0x00000004	6e-45
184	0x80000004	-6e-45
185	0x80000004	-6e-45
186	0x00000004	6e-45
187	0x80000004	-6e-45
188	0x00000004	6e-45
189	0x80000004	-6e-45
190	0x00000004	6e-45
191	0x00000004	6e-45
192	0x00000000	0.0
193	0x00000000	0.0
194	0x80000004	-6e-45
195	0xbd4292ef	-0.047503408
196	0x3cc3719e	0.023857888
197	0xbdee6c51	-0.116417535
198	0xbd8fc8f5	-0.070207514
199	0x3d4872ff	0.048937794
200	0x3dae3f5b	0.08508178
201	0x3d1783aa	0.0369908
202	0x3d90aa1f	0.07063698
203	0x3e1a59d4	0.15073329
204	0xbd4cb8fe	-0.04998111
205	0xbd36eea4	-0.04466118
206	0xbe13578c	-0.14388865
207	0x00000000	0.0
208	0x00000000	0.0
209	0x3f4caa12	0.79947007
210	0x3b12f867	0.0022425891
211	0x3a8a555f	0.0010554007
212	0xba9c70f4	-0.0011935518
213	0x3b185032	0.002324116
214	0x39d45a8d	0.00040503257
215	0x3ae57074	0.0017504827
216	0xba04c984	-0.00050654286
217	0xbb14ed4c	-0.0022724448
218	0x38b8eff6	8.8185e-05
219	0x39839ad7	0.00025101632
220	0xba3e4fec	-0.0007259834
221	0xb857466c	-5.132558e-05
222	0x00000000	0.0
223	0x00000000	0.0
224	0x3aaebef0	0.001333205
225	0xbea6c570	-0.32572508
226	0x3e5bed5b	0.21477263
227	0xbf4843c9	-0.7822843
228	0xbea001dd	-0.31251422
229	0xbb7dfa3a	-0.0038753883
230	0xbfafd3a9	-1.3736469
231	0xbd3419ad	-0.0439698
232	0x3f05bc7f	0.5224075
233	0x3fd27d38	1.6444464
234	0xbe265ff6	-0.16247544
235	0x3e6fff78	0.23437297
236	0xbe40463e	-0.18776795
237	0x00000000	0.0
238	0x00000000	0.0
239	0x406a9b6a	3.6657357
240	0xbb193a48	-0.0023380686
241	0x3bcdb072	0.0062771374
242	0x3da9b78e	0.082869634
243	0x3cbbdf6e	0.022933688
244	0x3b046e83	0.0020207472
245	0xbdba3493	-0.09092059
246	0xbc7b946f	-0.015355214
247	0xbcf05ca7	-0.029341055
248	0xbd3280a9	-0.04357973
249	0xbc6d22b5	-0.014473607
250	0xbd747749	-0.05968407
251	0xbe3e0277	-0.18555628
252	0x00000000	0.0
253	0x00000000	0.0
254	0x3e53504e	0.20636103
255	0xbb480b0b	-0.003052416

exp_avg_sq f4 [128, 15]
0	0x3dda3c29	0.10656006
1	0x3d4d38e9	0.050103102
2	0x3f0dcb3c	0.55388236
3	0x3e15c652	0.14626434
4	0x3d2ea336	0.04263612
5	0x3db7583d	0.08952377
6	0x3ecb0b41	0.39657024
7	0x3e4e9bd9	0.20176639
8	0x3ebd67c3	0.36993226
9	0x3d98e367	0.074652486
10	0x3e8aeecc	0.27135313
11	0x3ca5c43e	0.020235177
12	0x00000000	0.0
13	0x00000000	0.0
14	0x3ea4be2b	0.32176337
15	0x3d6198f6	0.055077516
16	0x3d0a7e9a	0.033812143
17	0x40dc7ffe	6.890624
18	0x3f3dbadd	0.74113256
19	0x3ce0c245	0.027436385
20	0x41011995	8.068746
21	0x3d82a8b1	0.063798316
22	0x3f8def76	1.1088703
23	0x40900144	4.5001545
24	0x3d9d7c66	0.07689743
25	0x3f6d63f5	0.9273065
26	0x40d139fb	6.5383277
27	0x00000000	0.0
28	0x00000000	0.0
29	0x4217a302	37.909187
30	0x3e267921	0.16257145
31	0x3e2ab9dc	0.16672462
32	0x41a1f503	20.244635
33	0x402eedfe	2.733276
34	0x3d937135	0.07199327
35	0x402e4761	2.7231066
36	0x3fd7a211	1.6846334
37	0x4044c689	3.0746176
38	0x40c62143	6.1915603
39	0x3f05ee22	0.52316487
40	0x4006683a	2.1001115
41	0x41510d72	13.065783
42	0x00000000	0.0
43	0x00000000	0.0
44	0x43097f52	137.49734
45	0x3c7f65ed	0.015588266
46	0x39f5cc5b	0.00046882298
47	0x3c8ea194	0.01741103
48	0x3ce3ae1d	0.027792985
49	0x3a70f0c0	0.0009191148
50	0x3d06d919	0.032921884
51	0x39efe033	0.00045752674
52	0x3ceaf782	0.028682474
53	0x3c321ca0	0.010871083
54	0x3a14ada4	0.00056716264
55	0x3b1d45be	0.0023997868
56	0x3b1f6b06	0.0024325266
57	0x00000000	0.0
58	0x00000000	0.0
59	0x3cf36ceb	0.029715022
60	0x3b4c22ea	0.003114874
61	0x3c93b16a	0.018028934
62	0x3d4ccff1	0.050002996
63	0x3d818a6a	0.063252285
64	0x3c20a5aa	0.009805122
65	0x3e369a04	0.1783219
66	0x3cb3a871	0.021930905
67	0x3da9f0bc	0.082978696
68	0x3dcf4aa3	0.10121658
69	0x3bbb7126	0.0057202755
70	0x3cccaecc	0.024985693
71	0x3ed260a6	0.41089362
72	0x00000000	0.0
73	0x00000000	0.0
74	0x3e4a97ad	0.19784422
75	0x3f09397d	0.53603345
76	0x3e293925	0.16525705
77	0x3f2c476f	0.672965
78	0x3f79710b	0.97438115
79	0x3d629d68	0.055325896
80	0x3e71c40c	0.23609942
81	0x3d8ebc9f	0.0696957
82	0x3f944d57	1.1586102
83	0x3f667d0e	0.9003457
84	0x3d3340f7	0.043763127
85	0x3eb79cc9	0.35861805
86	0x3effd24a	0.49965125
87	0x00000000	0.0
88	0x00000000	0.0
89	0x3fdcc309	1.724702
90	0x3eccfecb	0.40038142
91	0x3ea78310	0.3271718
92	0x41456f7e	12.33972
93	0x4038e092	2.8887067
94	0x3e4d9ba0	0.20078897
95	0x40b81e83	5.7537246
96	0x3e6f5818	0.23373449
97	0x40773b45	3.8629925
98	0x3fb4671d	1.4093968
99	0x3e731dd6	0.2374185
100	0x403d9fed	2.962886
101	0x408bfb82	4.3744516
102	0x00000000	0.0
103	0x00000000	0.0
104	0x4303c9b2	131.78787
105	0x3b32224e	0.0027181092
106	0x3b1deb45	0.002409653
107	0x3c138317	0.009003422
108	0x3c4a88b5	0.012361695
109	0x3ac1a9ac	0.0014775298
110	0x3cf9a2ef	0.0304732
111	0x3c489446	0.012242382
112	0x3da1c66e	0.078991756
113	0x3d6d93fb	0.058002453
114	0x3cf63d50	0.030058533
115	0x3e78ee3b	0.24309628
116	0x3cfd9884	0.030956514
117	0x00000000	0.0
118	0x00000000	0.0
119	0x3de9659f	0.11396336
120	0x41b311b9	22.383654
121	0x4181844d	16.1896
122	0x3d7da6c9	0.061926637
123	0x4253b822	52.929817
124	0x41599b77	13.600455
125	0x40193b9b	2.394263
126	0x412baa42	10.729067
127	0x414f3c01	12.952149
128	0x40ae547d	5.4478135
129	0x3e0b6248	0.1361171
130	0x3fe48015	1.7851588
131	0x41da9b90	27.325958
132	0x00000000	0.0
133	0x00000000	0.0
134	0x4173ac3e	15.229551
135	0x3eb27c5e	0.3486051
136	0x3f044224	0.5166342
137	0x42072ebf	33.79565
138	0x3ff2a8c3	1.8957752
139	0x3eb35a64	0.350299
140	0x41e44ff3	28.539038
141	0x3f1c2136	0.60988176
142	0x3fd4fc7d	1.6639553
143	0x41bfec15	23.990274
144	0x3e85a2e3	0.26100835
145	0x3ff8cc26	1.9437301
146	0x400d4518	2.2073421
147	0x00000000	0.0
148	0x00000000	0.0
149	0x42856bf6	66.71086
150	0x221e3706	2.1442122e-18
151	0x22d2f5b9	5.7180783e-18
152	0x223ae9e0	2.5331513e-18
153	0x227c6722	3.4206966e-18
154	0x21b1e7fe	1.2055394e-18
155	0x2150ca8f	7.0741225e-19
156	0x22008d40	1.7422012e-18
157	0x22e7e2a1	6.285263e-18
158	0x21b91e1d	1.2544059e-18
159	0x2293b464	4.0035426e-18
160	0x2300b3ca	6.976966e-18
161	0x222b6112	2.322621e-18
162	0x00000000	0.0
163	0x00000000	0.0
164	0x21d6bfef	1.4552008e-18
165	0x3eb47760	0.35247326
166	0x3d6d6cb1	0.057964984
167	0x411e8c6d	9.909284
168	0x3f357c33	0.7089264
169	0x3c8c0cf5	0.017096022
170	0x409982e9	4.7972302
171	0x3d81f959	0.063463874
172	0x3fd3c410	1.6544209
173	0x40e9db6d	7.3080354
174	0x3d236b32	0.03989715
175	0x40323858	2.784689
176	0x407e0881	3.969269
177	0x00000000	0.0
178	0x00000000	0.0
179	0x41eea8f3	29.832495
180	0x19121678	7.552561e-24
181	0x19bfb944	1.9823765e-23
182	0x1933c6a2	9.294197e-24
183	0x1802d2b9	1.6908494e-24
184	0x186c3bea	3.0532534e-24
185	0x18f958e0	6.4454732e-24
186	0x18505584	2.6926544e-24
187	0x1875279b	3.1685503e-24
188	0x18915beb	3.7574435e-24
189	0x19fcf93a	2.6156851e-23
190	0x181d96c5	2.0367894e-24
191	0x19e9d0c9	2.4175963e-23
192	0x00000000	0.0
193	0x00000000	0.0
194	0x1874523d	3.157778e-24
195	0x43c6d736	397.68134
196	0x4309eb67	137.91954
197	0x430a623f	138.38377
198	0x44225dd6	649.4662
199	0x41f8ef9a	31.116993
200	0x41476d59	12.464196
201	0x4175226a	15.320902
202	0x440b136c	556.30347
203	0x43a074a3	320.91122
204	0x3fa5c7d4	1.2951608
205	0x41b50ac9	22.630266
206	0x41d8c1d8	27.09465
207	0x00000000	0.0
208	0x00000000	0.0
209	0x4387a409	271.28152
210	0x40358517	2.8362482
211	0x3ec69720	0.38787174
212	0x3f02778a	0.5096365
213	0x4020e9a4	2.5142603
214	0x3d9b39a4	0.075793535
215	0x3ef0f96d	0.47065297
216	0x3e144c15	0.14482148
217	0x3fd896cf	1.6921023
218	0x3bcf7bd2	0.006331899
219	0x3d14e7bb	0.036353808
220	0x3e68f6b8	0.22750366
221	0x3e390955	0.18069966
222	0x00000000	0.0
223	0x00000000	0.0
224	0x3f05c63b	0.522556
225	0x3ecb44c4	0.39700902
226	0x3f0c6e12	0.54855454
227	0x42d79d9d	107.80784
228	0x40c2ce8c	6.0877132
229	0x3e572c3e	0.21012971
230	0x4275545a	61.332375
231	0x3f153e7c	0.5829847
232	0x41232d07	10.198493
233	0x42b25fac	89.18686
234	0x3f4a2b43	0.7897226
235	0x4098411d	4.7579484
236	0x41b2ffda	22.374928
237	0x00000000	0.0
238	0x00000000	0.0
239	0x438fb3ae	287.40375
240	0x4007f853	2.1245315
241	0x418b14a7	17.385084
242	0x43e09236	449.14227
243	0x430e3368	142.2008
244	0x413becbd	11.745297
245	0x431c2430	156.14136
246	0x42549e31	53.154484
247	0x450763db	2166.241
248	0x4380eda7	257.85666
249	0x4318e9a1	152.91261
250	0x4488872b	1092.224
251	0x424c5240	51.080322
252	0x00000000	0.0
253	0x00000000	0.0
254	0x4472d0c0	971.2617
255	0x3e3094f3	0.1724432

exp_avg f4 [128]
0	0x3e113f5b	0.14184324
1	0xbf157b0f	-0.583909
2	0xbece064d	-0.40239182
3	0x3acb9535	0.0015532138
4	0xbdb1c425	-0.0867999
5	0xbcedb0ab	-0.029014906
6	0x3f68adcb	0.9089019
7	0xbc7bc1cf	-0.015366032
8	0x3c89793b	0.01678144
9	0xbf382b0d	-0.7194069
10	0x00000004	6e-45
11	0xbd4cf8e7	-0.05004206
12	0x00000004	6e-45
13	0xbf236886	-0.63831365
14	0xba8b8551	-0.001064459
15	0xc03b50b3	-2.9268005
16	0xbe28b79f	-0.16476296
17	0xbf6d54c1	-0.9270745
18	0xbbd43661	-0.006476209
19	0x3ead61a8	0.33863568
20	0x3d89b12e	0.067232475
21	0xba810698	-0.0009843884
22	0xbf8b6b9b	-1.0892214
23	0x3fc8107d	1.5630032
24	0x3ddda3eb	0.108222805
25	0x401c8289	2.4454672
26	0x00000004	6e-45
27	0xbeb586ab	-0.35454306
28	0x00000004	6e-45
29	0x3f1e1d76	0.61763704
30	0x3f914acd	1.1350952
31	0xbe1fc8be	-0.15603921
32	0xc04d0c6f	-3.203884
33	0x3b0cfe91	0.0021514038
34	0xbf08a41e	-0.5337542
35	0x3e7b7625	0.24556787
36	0x3f30e16d	0.6909397
37	0xbbab37dd	-0.0052251653
38	0xbee4d0a5	-0.44690433
39	0x3e35b0d5	0.17743237
40	0xbcf94c3f	-0.030431865
41	0xbf5b9328	-0.8577142
42	0x405c53cb	3.4426143
43	0x3e13d72e	0.14437553
44	0xc0d69877	-6.7061114
45	0x4038d716	2.8881278
46	0x3e07e5f6	0.13271317
47	0x3ecfe278	0.4060247
48	0x3f029205	0.5100406
49	0xbbf560b3	-0.007488334
50	0x3ee74559	0.45170096
51	0x409ab7c0	4.8349304
52	0x3d74a73e	0.059729807
53	0x3e65d88d	0.22445889
54	0x32613f7d	1.3111159e-08
55	0x3eb9d10e	0.3629231
56	0x3fba3267	1.4546632
57	0x3d9676d5	0.07346884
58	0x00000004	6e-45
59	0xbc96c837	-0.018406017
60	0x00000004	6e-45
61	0xbe40fee4	-0.18847233
62	0xbe9ade56	-0.30247754
63	0x3e96b0a5	0.29431644
64	0xbe972b3c	-0.29525173
65	0x3f6f1b74	0.93401265
66	0x3fa31597	1.2740964
67	0xbe06251e	-0.13100097
68	0xbc75bf5a	-0.014999235
69	0x3e19ed78	0.15031993
70	0x3d946387	0.07245546
71	0x3d83ba3c	0.06432006
72	0xbc24e08a	-0.0100633
73	0xbd8cb0be	-0.068696484
74	0x3f140054	0.57813
75	0xbb167961	-0.002296053
76	0x3b7cbcc2	0.0038564657
77	0xbce26b07	-0.027638925
78	0x00000004	6e-45
79	0xbf77e5e2	-0.9683515
80	0x80000004	-6e-45
81	0x00000004	6e-45
82	0x3b5d44c9	0.0033762923
83	0xbbce3274	-0.0062926356
84	0xbe4c2813	-0.19937162
85	0xbeeeb1fc	-0.46620166
86	0x3d0c6a06	0.0342808
87	0x3f3bc4ec	0.73347354
88	0x3f2570f2	0.64625466
89	0xbd317aa7	-0.04332986
90	0x3e0c690f	0.13711952
91	0xbf0886e6	-0.5333084
92	0xbeb45987	-0.35224554
93	0x3e6035ce	0.21895525
94	0x3a965a30	0.001147097
95	0xbd85910a	-0.06521805
96	0xc01cd265	-2.4503415
97	0x3eac10d1	0.3360658
98	0xbd8287ec	-0.06373581
99	0x3cab5f5f	0.0209195
100	0xbf2dad4f	-0.6784257
101	0x3cc5269d	0.024066264
102	0xbdd884fc	-0.1057224
103	0xbcc60532	-0.0241724
104	0xbeefbb01	-0.4682236
105	0x3c88f47c	0.016718142
106	0xbf03678b	-0.5132987
107	0xbc232755	-0.009958108
108	0xbf83637c	-1.0264735
109	0xbecc9c49	-0.39962986
110	0xbde2051d	-0.110361315
111	0x3f2fc82a	0.686648
112	0xbee4540c	-0.44595373
113	0xc0d6ae39	-6.7087674
114	0x408e81de	4.453353
115	0x3cfa198e	0.030529764
116	0x3e835e85	0.2565805
117	0xbf148fe3	-0.58032054
118	0xbefecad4	-0.4976412
119	0x3fccaa5b	1.5989488
120	0x3dafc5cc	0.08582649
121	0xbe71ed17	-0.23625599
122	0x3b19a6ce	0.002344537
123	0xbf06c21e	-0.5263995
124	0x3dc6240d	0.09674845
125	0x3ee034e1	0.43790343
126	0xb9843388	-0.00025215396
127	0x3d336eed	0.04380696
