ppo/models/behavioral_cloning_agents_lunar/bc6/ckpts/001220200.pt (torch_old, 340543 bytes, 26 tensors)

fc1.weight f4 [128, 9]
0.0243017 0.26391307 -0.50684834 -0.35462338 -0.2971101 0.09349823 0.08491521 0.13489817
-0.10159822 0.3332131 0.1125534 -0.17897175 -0.45707032 -0.078233406 -0.4452641 0.06379987
0.12514667 0.049110834 -0.21533935 -0.07458757 0.1302231 0.0417393 -0.3808015 0.2133545
-0.15940897 0.04804358 0.068540454 -0.31807473 -0.04424291 -0.08195176 -0.3086026 0.32289326
-0.08411318 -0.1370259 -0.18829288 -0.30952504 -0.25122067 0.36978334 -0.07360393 0.19769786
-0.4052964 -0.10618253 0.18469696 -0.14082956 -0.30635622 -0.16905536 0.18235321 0.21841927
-0.17668317 -0.35257503 0.18165016 0.2592991 0.14651644 0.11471857 0.25361025 -0.32463092
-0.23287572 -0.28734958 -0.84685355 -0.033714965 0.06731097 0.060330577 -0.26073146 0.31129715
0.3181452 -0.05372556 -0.23390108 -0.03494314 0.22982983 0.2686874 -0.0026267362 -0.20079634
-0.027652351 -0.06007363 0.6007875 0.5022301 -0.008254108 -0.44475636 -0.15084435 -0.051390227
-0.18156253 0.7339637 0.458523 -0.30534932 -0.11785039 0.13959955 -0.18989696 -0.010214971
0.13929157 -0.15379311 0.09949082 0.27773064 0.113264084 0.2882928 -0.37288532 -0.28644544
0.15371741 0.20106845 -0.4928682 -0.13650331 0.3099561 0.34398776 -0.09603163 -0.14504284
-0.1978083 0.15301602 -0.0017201456 -0.20135145 -0.06684551 -0.041871037 -0.112405375 0.18499224
-0.30015257 0.31697333 0.100224376 -0.21024767 -0.110878006 0.09505302 0.008087784 0.03111503
0.45439363 0.73611975 -0.6260187 0.17854995 -0.12786457 -0.07540515 -0.029508304 -0.09849165
-0.27158225 -0.07538365 -0.3067271 0.14325689 -0.037683345 -0.018626867 0.25048804 0.10452796
0.1495159 -0.0819852 -0.089374006 -0.45492572 0.908627 0.17386079 0.20067544 0.06339862
-0.6381018 -0.106267795 0.26564062 0.109201886 -0.39237332 -0.25475964 -0.3319574 -0.27996606
0.07007124 0.3630128 0.1897644 -0.50520027 0.31580845 0.115609154 -0.029099591 0.14252213
-0.02575129 -0.055484522 -0.44201037 -0.53286225 0.16034943 -0.12166175 -0.23147532 0.09836949
-0.3250224 -0.09806786 0.09926224 -0.056600347 0.070524 0.2031624 -0.136086 0.23784406
-0.1446115 0.059646044 0.09079073 0.0684273 0.1959943 -0.07015078 0.15651165 -0.041316055
-0.12748326 0.29061067 -0.27211806 -0.059791528 -0.58152133 0.055702217 0.04637642 0.095317245
-0.2423848 0.009284632 -0.6303014 -0.30956486 -0.3144109 0.09628572 -0.44062248 0.1379158
-0.09792446 0.057606295 -0.052701075 -1.1675599 -0.07188434 0.20414364 -0.07925335 0.6322292
0.20463902 -0.18693967 -0.04864058 -0.6454178 0.37583065 0.036078617 -0.15004948 -0.011259038
-0.26656935 -0.096315205 0.39492103 -0.14130819 -0.34683746 0.28982425 0.18469168 0.059993178
-0.13107969 0.23962209 -0.086269476 -0.14278372 -0.19330332 -0.10601479 -0.08687972 0.26436776
0.16628624 0.53470856 0.13315012 -0.22450556 0.18251361 -0.28340542 -0.4475036 0.1857252
-0.01615547 0.03264947 -0.23722677 -0.1585534 0.05093636 -0.61637944 0.060890455 -0.32324404
0.11135804 -0.07956226 -0.09170453 0.25069806 0.21331282 0.051703364 -0.32583106 -0.21433677
00000000: 5c14 c73c 9d1f 873e d0c0 01bf 3291 b5be
00000010: d11e 98be 007c bf3d 07e8 ad3d bf22 0a3e
00000020: ba12 d0bd e89a aa3e 6682 e63d 5f44 37be
00000030: 1f05 eabe d638 a0bd a8f9 e3be 82a9 823d
00000040: 7326 003e 7128 493d eb81 5cbe 5ec1 98bd
00000050: 3459 053e d4f6 2a3d 6af8 c2be 9a79 5a3e
00000060: 1b3c 23be 58c9 443d f05e 8c3d b1da a2be
00000070: 0e38 35bd 53d6 a7bd 2901 9ebe 4452 a53e
00000080: 8843 acbd 8450 0cbe d9cf 40be 117a 9ebe
00000090: ff9f 80be 3e54 bd3e a8bd 96bd 4f71 4a3e
000000a0: 0283 cfbe 3a76 d9bd 3321 3d3e a035 10be
000000b0: b9da 9cbe d91c 2dbe cdba 3a3e 4da9 5f3e
000000c0: 6fec 34be b784 b4be 8002 3a3e dac2 843e
000000d0: 6808 163e 92f1 ea3d 34d9 813e 0636 a6be
000000e0: f976 6ebe 7c1f 93be 65cb 58bf b418 0abd
000000f0: 55da 893d 321d 773d 987e 85be 5762 9f3e
00000100: ede3 a23e 550f 5cbd c483 6fbe 8a20 0fbd
00000110: 8358 6b3e 6591 893e 5225 2cbb 8e9d 4dbe
00000120: 2f87 e2bc c40f 76bd 36cd 193f 2792 003f
00000130: 3d3c 07bc 1bb7 e3be f176 1abe 8f7e 52bd
00000140: 87eb 39be 0ce5 3b3f 87c3 ea3e bf56 9cbe
00000150: 8c5b f1bd 2ff3 0e3e 5974 42be b25c 27bc
00000160: 73a2 0e3e f17b 1dbe d8c1 cb3d b632 8e3e
00000170: 00f7 e73d 1d9b 933e d3ea bebe faa8 92be
00000180: 1968 1d3e e3e4 4d3e 3959 fcbe 86c7 0bbe
00000190: 91b2 9e3e 2a1f b03e 3bac c4bd 1c86 14be
000001a0: 428e 4abe 3bb0 1c3e 8276 e1ba 132f 4ebe
000001b0: 4ce6 88bd f780 2bbd ca34 e6bd 9b6e 3d3e
000001c0: 99ad 99be 544a a23e 7042 cd3d 2a4b 57be
000001d0: 0214 e3bd 28ab c23d a082 043c f3e4 fe3c
000001e0: 48a6 e83e 5872 3c3f c342 20bf ccd5 363e
000001f0: eeee 02be 046e 9abd 66bb f1bc fdb5 c9bd
00000200: d40c 8bbe be62 9abd 560b 9dbe efb1 123e
00000210: da59 1abd 5f97 98bc f83f 803e c112 d63d
00000220: b21a 193e dbe7 a7bd b809 b7bd 06ec e8be
00000230: c79b 683f 9008 323e dd7d 4d3e 23d7 813d
00000240: a45a 23bf eea2 d9bd 0c02 883e 3da5 df3d
00000250: 28e5 c8be db6f 82be 52f6 a9be b657 8fbe
00000260: 8381 8f3d d0dc b93e 9951 423e ce54 01bf
00000270: a5b1 a13e 7ec4 ec3d 4462 eebc 52f1 113e
00000280: 5ff4 d2bc bd43 63bd 2f4f e2be a969 08bf
00000290: a432 243e cc29 f9bd de07 6dbe f175 c93d
000002a0: 5669 a6be cdd7 c8bd 004a cb3d c4d5 67bd
000002b0: e36e 903d ce09 503e 215a 0bbe 658d 733e
000002c0: 0915 14be 694f 743d 7ef0 b93d 9d23 8c3d
000002d0: bbb2 483e 36ab 8fbd 9744 203e 063b 29bd
000002e0: f98a 02be ecca 943e 0f53 8bbe f6e7 74bd
000002f0: 95de 14bf 0228 643d 33f5 3d3d b035 c33d
00000300: b933 78be 921e 183c 6f5b 21bf 497f 9ebe
00000310: 77fa a0be 7331 c53d 4599 e1be cd39 0d3e
00000320: 9f8c c8bd 94f4 6b3d 15dd 57bd 9a72 95bf
00000330: 1938 93bd 080b 513e 954f a2bd c6d9 213f
00000340: e48c 513e 1d6d 3fbe 583b 47bd 1a3a 25bf
00000350: e06c c03e 2cc7 133d 92a6 19be d477 38bc
00000360: c77b 88be e840 c5bd 1733 ca3e 18b3 10be
00000370: ae94 b1be d863 943e d11f 3d3e 68bb 753d
00000380: c139 06be 7e5f 753e 0dae b0bd e535 12be
00000390: 4ef1 45be 481e d9bd ffed b1bd 365b 873e
000003a0: f146 2a3e a9e2 083f 8158 083e c9e4 65be
000003b0: d9e4 3a3e 841a 91be 311f e5be bf2e 3e3e
000003c0: 7a58 84bc 73bb 053d 93eb 72be d35b 22be
000003d0: a5a2 503d 0bcb 1dbf 4568 793d 3e80 a5be
000003e0: af0f e43d 8af1 a2bd 96cf bbbd 7f5b 803e
000003f0: ad6e 5a3e e8c6 533d 54d3 a6be 197b 5bbe

fc1.bias f4 [128]
-0.54279363 -0.16094238 0.03160156 -0.4315494 -0.35195673 -0.17358617 -0.24363999 -0.4473325
-0.7153263 -0.29696843 -0.19750582 -0.06460951 -0.003849366 -0.5251208 -0.1764921 -0.12223436
-0.21466866 -0.38523164 -0.1326095 -0.13007577 -0.3356181 -0.2672593 -0.18352626 -0.23116073
0.0020001496 -0.30399457 -0.15116745 -0.44952285 -0.14495187 -0.29283696 0.07607064 -0.40897623
-0.57251704 -0.4083105 -0.20772338 0.052548204 -0.010302284 -0.5255126 -0.26232603 -0.19463497
-0.06940167 0.014423213 -0.22726658 -0.35179794 0.012076894 -0.21426392 -0.15221621 -0.39253306
-0.012842356 0.08946412 0.041460432 -0.6078064 -0.44960257 -0.1621199 -0.40060565 0.26578718
-0.10932325 -0.41236898 -0.56017715 -0.1545027 -0.34151962 -0.39565098 -0.5268456 -0.5212728
0.031598598 0.05342079 -0.68934965 0.11818695 0.08956188 0.012848034 -0.21504351 -0.020803982
-0.03234052 0.15157963 -0.6382079 -0.047845498 -0.12964025 -0.15511462 -0.09190968 0.2536795
-0.47573638 -0.20467232 -0.14034124 -0.42458513 -0.2512763 -0.114730455 0.05198422 -0.6589954
-0.56658876 -0.05199065 0.05907364 -0.6262839 -0.5600943 -0.7671083 -0.4040038 -0.74597955
0.085452564 -0.24227363 0.070177324 -0.019272786 -0.034670755 -0.5848325 0.07083548 -0.1531065
0.08235397 -0.32242966 -0.0010218796 0.57895553 -0.35237536 -0.12658237 -0.066949405 -0.42347166
-0.11686463 -0.06643887 -0.15997571 0.16718456 -0.02576382 0.22726679 -0.32098725 0.05171241
-0.27508444 -0.22031845 -0.26608595 -0.21774276 0.12743317 -0.05635331 0.28236493 0.11305426
00000000: 86f4 0abf 14ce 24be a370 013d 0bf4 dcbe
00000010: ac33 b4be 93c0 31be c37c 79be c408 e5be
00000020: a01f 37bf 3f0c 98be f73e 4abe fe51 84bd
00000030: a545 7cbb 516e 06bf 58ba 34be 0256 fabd
00000040: 1ad2 5bbe 153d c5be c9ca 07be 9532 05be
00000050: 23d6 abbe 36d6 88be 4fee 3bbe 66b5 6cbe
00000060: f114 033b 2da5 9bbe a4cb 1abe dc27 e6be
00000070: 436e 14be baee 95be ecca 9b3d 5565 d1be
00000080: 7a90 12bf 130e d1be 70b5 54be c93c 573d
00000090: e9ca 28bc fe87 06bf 994f 86be 644e 47be
000000a0: 7622 8ebd 574f 6c3c 92b8 68be dc1e b4be
000000b0: 2ade 453c 0068 5bbe 91de 1bbe 18fa c8be
000000c0: bf68 52bc f738 b73d 6ad2 293d 3399 1bbf
000000d0: 4f32 e6be c202 26be 2f1c cdbe 4215 883e
000000e0: dee4 dfbd 0722 d3be c567 0fbf f535 1ebe
000000f0: a9db aebe c492 cabe 5adf 06bf 2272 05bf
00000100: 886d 013d c2cf 5a3d 3879 30bf 000c f23d
00000110: 386c b73d 8f80 523c 5e34 5cbe 1d6d aabc
00000120: 7e77 04bd b137 1b3e 9861 23bf a4f9 43bd
00000130: 6ac0 04be 5ed6 1ebe 243b bcbd 48e2 813e
00000140: b893 f3be 9f95 51be 9db5 0fbe 3963 d9be
00000150: 4aa7 80be cdf7 eabd 68ed 543d ecb3 28bf
00000160: f60b 11bf 26f4 54bd 33f7 713d 2454 20bf
00000170: 5762 0fbf 3661 44bf 96d9 cebe 84f8 3ebf
00000180: c101 af3d 9416 78be 21b9 8f3d f6e1 9dbc
00000190: ec02 0ebd 95b7 15bf 3112 913d f3c7 1cbe
000001a0: 33a9 a83d 8015 a5be 97f0 85ba 6e36 143f
000001b0: 8b6a b4be cf9e 01be c51c 89bd 47d1 d8be
000001c0: b956 efbd 1a11 88bd acd0 23be 6e32 2b3e
000001d0: a60e d3bc a0b8 683e 7158 a4be 64d0 533d
000001e0: ded7 8cbe 299b 61be 6b3c 88be f5f7 5ebe
000001f0: d77d 023e bad2 66bd 2392 903e fe88 e73d

fc2.weight f4 [128, 128]
-0.14601469 0.34483644 0.02035383 0.027580345 0.029854894 0.05141993 0.24965645 -0.011403252
-0.1003058 -0.3387347 0.23264585 -0.0888148 -0.12227601 -0.21194552 -0.8592654 -0.022203675
-0.08532968 -0.098049745 -0.7667481 0.03653905 -0.7737216 0.13852671 0.11763991 0.1604795
0.2576273 -0.014286417 -0.016885648 -0.05548202 0.04763488 -0.10871236 -0.51780164 -1.1117616
-0.3904004 -0.39112982 0.14506246 0.11883143 0.017371714 -0.12776195 0.007271646 -0.21267095
-0.02148529 -0.7907032 0.07630872 -0.071814924 -0.09024978 0.1443311 -0.35507494 0.053215094
-0.3740938 -0.4217274 0.017154923 0.062427945 0.0526449 0.20022996 0.22151981 0.71197563
0.46404254 0.6760038 -1.4376773 -1.0611936 0.54239166 -1.1606667 -0.059514128 0.008869987
-0.009175122 0.030422604 0.0056855427 0.8241918 -0.6577454 -0.3655451 -0.27621394 -0.48419744
-0.35970452 0.020714968 -0.1299023 -0.20139699 0.006685451 -0.07919605 -0.039529905 -0.032201797
0.33472276 0.42942712 -1.1493756 -0.10723667 0.19434264 0.32837114 -0.15093917 -0.22543812
-0.026124187 -0.16149758 0.037996113 0.026979832 -0.8818171 0.04202248 -0.030171342 -0.20837608
-0.17765492 0.035313595 -0.065874666 -0.009275317 0.122549824 -0.23601444 -0.0051334905 0.16418071
-0.90816057 0.37636748 0.26813874 -0.46029273 -0.11024591 0.1412264 0.028855583 0.07618432
0.16445398 -0.85248023 0.32865494 -0.49729088 -0.017323837 -0.30338734 0.117337696 -0.07937958
0.41491476 -0.025747199 -0.6054802 0.8940791 -0.16419996 -0.35337174 -0.3039565 -0.00785225
-0.33799246 -0.41133443 -0.21372055 0.012130906 0.2922751 -0.19005716 0.21077134 -0.00385711
-0.88142085 0.29230517 -0.06237247 0.046379022 -0.09762333 -0.52653384 0.12574089 -0.07333628
-0.033086337 0.09833014 0.28428832 -0.34831542 -0.16247651 -0.16414706 0.02728099 0.12035343
-0.030855682 -0.26798072 0.07114519 0.14689438 -0.06582078 -0.5079189 0.03562315 0.14839147
0.04646294 -0.04603493 -0.122164376 -0.018318646 0.06678532 -0.20180228 0.0051223477 0.12700042
-0.20454174 -0.4696249 0.06599718 0.13590837 -0.0051559275 -0.14837371 0.08121508 -0.1556251
-0.07288867 -0.04874737 -0.088111505 -0.21154197 -0.5326387 -0.042873017 -0.2083742 -0.36948973
-0.16601972 -0.033702176 -0.10136662 0.15447304 -0.13471448 -0.095848784 0.014985529 -0.24053328
0.09361137 0.047450736 -0.42548418 0.04531236 -0.0025152166 -0.0027506712 -0.27860335 -0.4003523
0.31810078 0.09745262 0.03204174 -0.17604065 -0.03098841 0.3597453 -0.1432864 -0.28892237
0.090321064 0.1643648 -0.10844813 -0.26813173 -0.23260231 -0.2714304 0.09612298 0.07966324
-0.31580427 -0.26616117 0.16561733 0.29086778 0.04231054 -0.5442662 -0.094555035 -0.08954589
0.05996506 -0.049306646 0.010974831 0.0038272156 0.041947868 0.08277514 -0.04747757 -0.18678637
-0.08234178 0.13134211 -0.12448702 -0.1531306 -0.063968726 -0.08171696 0.015590545 0.17578687
-0.5383215 -0.024146797 -0.0014994367 -0.04801293 -0.021578576 0.17171292 -0.4927609 0.076625146
-0.12120464 -0.714645 0.05845188 -0.085966654 -0.011867443 -0.078954965 0.018974751 -0.061353114
00000000: e084 15be 678e b03e 13bd a63c 2df0 e13c
00000010: 4092 f43c b49d 523d f1a5 7f3e b5d4 3abc
00000020: 216d cdbd a26e adbe b73a 6e3e 89e4 b5bd
00000030: d86b fabd 3f08 59be d1f8 5bbf 7be4 b5bc
00000040: 54c1 aebd 4ece c8bd 9a49 44bf f9a9 153d
00000050: 9e12 46bf f2d9 0d3e 31ed f03d bd54 243e
00000060: bae7 833e 9311 6abc c553 8abc 1d41 63bd
00000070: cb1c 433d 96a4 debd a68e 04bf 344e 8ebf
00000080: 90e2 c7be 2b42 c8be 418b 143e e55d f33d
00000090: 204f 8e3c 07d4 02be fd46 ee3b 6ac6 59be
000000a0: eb01 b0bc 866b 4abf bf47 9c3d b413 93bd
000000b0: e0d4 b8bd 88cb 133e 62cc b5be 12f8 593d
000000c0: 3989 bfbe a7ec d7be 7b88 8c3c 72b4 7f3d
000000d0: 2ea2 573d 1509 4d3e 17d6 623e 0944 363f
000000e0: fc96 ed3e 960e 2d3f cf05 b8bf 31d5 87bf
000000f0: 2eda 0a3f ba90 94bf 16c5 73bd 6c53 113c
00000100: 4053 16bc d338 f93c ca4d ba3b 3cfe 523f
00000110: 0162 28bf ba28 bbbe ea6b 8dbe bae8 f7be
00000120: 312b b8be 70b2 a93c 1c05 05be 033b 4ebe
00000130: a111 db3b 8a31 a2bd 1cea 21bd 08e6 03bd
00000140: c860 ab3e dfdd db3e bd1e 93bf e69e dbbd
00000150: c201 473e 4320 a83e cc8f 1abe 40d9 66be
00000160: 6402 d6bc 9f5f 25be d0a1 1b3d cf04 dd3c
00000170: c4be 61bf c41f 2c3d e429 f7bc 8a60 55be
00000180: 2ceb 35be fda4 103d 4ce9 86bd 80f7 17bc
00000190: 67fb fa3d c5ad 71be d736 a8bb fd1e 283e
000001a0: 367d 68bf 3db3 c03e 7b49 893e 7dab ebbe
000001b0: 9cc8 e1bd a79d 103e 8b62 ec3c 8606 9c3d
000001c0: a066 283e 253c 5abf 7645 a83e e99c febe
000001d0: b8ea 8dbc 9655 9bbe bf4e f03d c391 a2bd
000001e0: b56f d43e caeb d2bc c000 1bbf 5ee2 643f
000001f0: 0924 28be 24ed b4be 30a0 9bbe b9a6 00bc
00000200: 590d adbe 6d9a d2be 8fd9 5abe b5c0 463c
00000210: 15a5 953e 589e 42be 71d4 573e 91c7 7cbb
00000220: cca4 61bf 06a9 953e 467a 7fbd eef7 3d3d
00000230: beee c7bd ecca 06bf 38c2 003e 5531 96bd
00000240: 8a85 07bd 5061 c93d 3d8e 913e 6656 b2be
00000250: 3e60 26be 2b16 28be 627c df3c dc7b f63d
00000260: 0ec5 fcbc c534 89be 92b4 913d 7b6b 163e
00000270: 0ccd 86bd f906 02bf 95e9 113d eff3 173e
00000280: ec4f 3e3d 1f8f 3cbd 5131 fabd fc10 96bc
00000290: bec6 883d 42a5 4ebe 5ed9 a73b 660c 023e
000002a0: 6473 51be ad72 f0be 8829 873d 902b 0b3e
000002b0: 0ef3 a8bb 47ef 17be 1854 a63d 305c 1fbe
000002c0: a846 95bd 52ab 47bd ce73 b4bd 759e 58be
000002d0: 035b 08bf 9e9b 2fbd 0c60 55be c22d bdbe
000002e0: 1301 2abe 4b0b 0abd 4d99 cfbd 2e2e 1e3e
000002f0: 98f2 09be 5e4c c4bd dd85 753c 5b4e 76be
00000300: 51b7 bf3d b45b 423d 10d9 d9be 7499 393d
00000310: 55d6 24bb 9b44 34bb 19a5 8ebe fafa ccbe
00000320: 1bde a23e 3d95 c73d 333e 033d 0044 34be
00000330: 68db fdbc 8930 b83e acb9 12be a2ed 93be
00000340: 40fa b83d 3f4f 283e 0e1a debd 9048 89be
00000350: 4d2f 6ebe edf8 8abe 20dc c43d 7b26 a33d
00000360: 19b1 a1be 4746 88be 9797 293e 9fec 943e
00000370: d14d 2d3d 0855 0bbf 12a6 c1bd d663 b7bd
00000380: ec9d 753d c4f5 49bd c7cf 333c 06d2 7a3b
00000390: 87d1 2b3d 0386 a93d d777 42bd ed44 3fbe
000003a0: cfa2 a8bd 8c7e 063e 0df3 febd 45ce 1cbe
000003b0: 0902 83bd 395b a7bd 7c6f 7f3c 7901 343e
000003c0: 70cf 09bf 81cf c5bc bf88 c4ba 35a9 44bd
000003d0: 8ec5 b0bc 83d5 2f3e 284b fcbe a5ed 9c3d
000003e0: 233a f8bd faf2 36bf 3d6b 6f3d 490f b0bd
000003f0: aa6f 42bc 24b3 a1bd f070 9b3c 674d 7bbd

fc2.bias f4 [128]
0.07346674 0.14906389 0.08907607 -0.09274959 -0.20917122 -0.0007627639 0.20856181 -0.0051649166
0.031643987 -0.10787213 -0.13101041 -0.08947058 0.078481495 0.07277598 0.12275803 0.033713654
-0.0121273855 0.0048459927 0.09588551 0.05710119 0.10906945 -0.15611495 -0.010783621 0.13247721
0.11048326 0.04909516 -0.0963865 0.059467565 0.005497248 0.047803413 -0.107730076 -0.034016654
-0.03024231 -0.015174005 -0.09742752 -0.11398341 0.14964482 0.3707422 0.12206256 -0.31019968
0.016500847 0.21309544 -0.0638422 0.11755704 0.12881275 -0.021486826 0.03237576 0.029297374
0.03340783 -0.12812719 0.19959249 -0.24413459 -0.1720215 0.19968508 0.11785053 0.2493356
-0.16442785 0.10707105 -0.12104649 -0.086038105 0.1839581 0.12344349 -0.02693151 0.024769925
-0.19330506 -0.056579538 0.05552498 0.12059996 -0.26914912 0.21039014 0.13411564 0.22559492
-0.048078727 0.13482338 -0.032938503 0.07345934 -0.1850854 0.20689057 0.14931613 -0.06838509
0.12716575 -0.0260541 -0.07771257 -0.040207367 0.17108627 -0.44435242 0.06273012 0.13968839
-0.044985943 0.035929754 0.047713853 0.112118185 0.14732768 0.046566203 0.056744017 0.2004932
-0.09115608 0.046072584 0.021064213 0.16141605 0.047794666 0.023762101 -0.1415669 -0.02105765
0.13682127 0.16493803 0.1824523 0.19654417 -0.34890443 -0.098785914 0.11832935 0.13847078
0.057351332 -0.045422014 -0.063807726 -0.01910295 0.037965234 -0.26534215 -0.048451852 0.020829432
-0.08304245 -0.087126456 0.13827904 -0.15244427 -0.04695414 0.10978616 0.15475589 0.02128912
00000000: bb75 963d 34a4 183e 846d b63d 7ff3 bdbd
00000010: fb30 56be 38f4 47ba 3a91 553e 763e a9bb
00000020: 209d 013d 10ec dcbd 9827 06be 5a3c b7bd
00000030: e8ba a03d 930b 953d 9068 fb3d 5417 0a3d
00000040: f1b1 46bc 22cb 9e3b 9f5f c43d f0e2 693d
00000050: ce5f df3d 99dc 1fbe c9ad 30bc 1ba8 073e
00000060: 0c45 e23d 0218 493d 4966 c5bd 4394 733d
00000070: 4222 b43b 83cd 433d 96a1 dcbd 0c55 0bbd
00000080: b9be f7bc 649c 78bc 1488 c7bd 2270 e9bd
00000090: 7e3c 193e ecd1 bd3e effb f93d 7ed2 9ebe
000000a0: c92c 873c b135 5a3e b3bf 82bd bfc1 f03d
000000b0: 7de7 033e 2405 b0bc 729c 043d 0c01 f03c
000000c0: a6d6 083d c633 03be f961 4c3e 6bfe 79be
000000d0: 6726 30be 3f7a 4c3e 9e5b f13d d551 7f3e
000000e0: c65f 28be 1148 db3d 39e7 f7bd bf34 b0bd
000000f0: 835f 3c3e f1cf fc3d 789f dcbc 4cea ca3c
00000100: c3f1 45be f2bf 67bd 296e 633d 1dfd f63d
00000110: eacd 89be 8370 573e 9c55 093e 5b02 673e
00000120: 33ee 44bd 240f 0a3e 86ea 06bd da71 963d
00000130: 0787 3dbe 1fdb 533e 54e6 183e 7b0d 8cbd
00000140: bd37 023e 686f d5bc c527 9fbd 7bb0 24bd
00000150: 3d31 2f3e 2982 e3be a678 803d 790a 0f3e
00000160: 2e43 38bd 142b 133d 9a6f 433d 389e e53d
00000170: 11dd 163e 34bc 3e3d 6a6c 683d 174e 4d3e
00000180: 0ab0 babd 9bb6 3c3d db8e ac3c 404a 253e
00000190: 57c4 433d bda8 c23c eaf6 10be 1881 acbc
000001a0: e01a 0c3e 84e5 283e c7d4 3a3e e042 493e
000001b0: 9aa3 b2be 4550 cabd a956 f23d 49cb 0d3e
000001c0: 3be9 6a3d 6f0c 3abd a0ad 82bd ca7d 9cbc
000001d0: 6f81 1b3d edda 87be 7375 46bd 7ca2 aa3c
000001e0: 2912 aabd 5b6f b2bd 0599 0d3e 5a1a 1cbe
000001f0: fc52 40bd 91d7 e03d 5478 1e3e 8566 ae3c

dist.fc_mean.weight f4 [2, 128]
-0.0019384028 0.011974468 -0.0008617698 0.297037 0.9765509 -0.030256368 0.42460254 0.4398554
0.0029584982 0.014476453 0.014907375 0.020948287 0.002200498 0.0011903349 -0.010086748 -0.063513994
-0.20829786 -0.13716379 -0.017064303 -0.0008538525 -0.0076605086 -0.0005898427 -0.0012956121 -0.003604353
-0.002162899 0.17250048 -0.078324504 -0.0037440434 0.007052462 -0.0007327462 0.10735696 0.013586303
-0.00046623038 0.0012049627 0.19094093 0.12046911 0.508812 -0.0034002436 0.0017050365 -0.022966895
-0.042047493 0.0015739178 0.023332728 -0.006282651 0.0037850325 -0.014801768 0.3136081 0.0028878928
0.0015416362 0.032817572 -0.0031868983 0.27387762 -0.020680169 -0.0019811722 0.7691397 0.0038274266
-0.3490097 -0.00025884452 0.36282057 -0.06825069 0.011929338 -0.011542463 0.006488386 -0.00035658554
0.00605976 -0.002284213 0.0491902 -0.0051108776 0.004187287 -0.14943497 0.0009144437 -0.004791463
-0.002531794 0.002749451 0.144985 -0.0033758848 0.2652218 0.9054366 0.39933455 0.04851819
0.007775355 0.032826252 -0.0012445571 6.215363e-05 0.0014776852 -0.15982996 0.002842442 -0.0021764876
0.0019367499 0.0014493448 -5.400505e-06 -0.0060398206 -0.22321099 0.0042504757 0.002485799 -0.21927358
-0.018299775 0.1713431 0.0022490884 -0.019463623 0.0069607953 0.012084351 0.37566075 0.0040668203
-0.0015859345 -0.0023542838 0.00096976734 -0.00046818014 0.23092017 3.8791874e-05 -0.0011630099 0.41427475
-0.0032278898 0.0023414819 0.048247468 -0.0076326765 -0.01049859 0.1231491 0.012564882 0.011036898
-0.01879578 0.02173894 -0.0059772283 -0.036190536 -0.02209057 0.003127048 0.0006736078 0.020785566
-0.0034712788 0.0060207006 -0.0048703565 -0.00051107915 -0.00078387844 -0.013785181 0.0025272712 -0.5973394
0.0006569545 -0.0012050049 -0.011342994 0.005179322 0.0004008476 0.00046236615 -0.0019927225 -0.4776073
-0.00846461 -0.042189583 -0.005230252 0.004234721 0.00034737322 0.0017064412 0.013865651 0.0019977314
-0.0013746632 -1.8120574e-05 -0.0042425683 0.0016473985 0.01211602 -0.011211234 0.015298845 -0.2982956
0.0063974545 -0.0101838065 0.0014451188 -0.01980551 -0.0011728691 -0.0010792933 -0.0033481952 0.31654686
0.0010855895 0.00036254688 0.017389948 -0.00032087398 0.009315858 -0.005606826 -0.0016411481 0.0025027124
-0.010382785 -0.038179196 0.0018862246 -0.025812076 -0.010153757 0.0064034793 -0.0013607283 0.0003133209
-0.22979923 0.0017893361 -0.18288378 0.32494915 3.9541283e-05 0.0011619271 -0.023656681 0.0024950812
0.021026844 0.017970568 -0.17817424 -0.010575971 -0.51094276 0.0017374464 0.00049017963 -0.0021199558
-0.006946463 0.00033200817 0.12035878 0.006310092 -0.018304488 -0.002558238 0.0005082623 0.03154985
0.0037488907 0.6667564 -0.0021751667 0.004822243 0.0011059818 0.0021509905 -0.0025448678 -0.0023331319
-0.0029894984 0.0033864458 0.0035945754 0.006676034 -2.0905258e-05 -0.016363313 0.006829731 0.0032321848
0.005377607 -0.0022282638 0.004030821 -0.0040089064 -0.003369697 -0.026172124 0.0016250362 -0.0029657835
0.00096632214 0.0030535806 -0.0002609918 -0.0042227684 -0.33941326 -0.0032378053 -0.0030289101 0.0014447308
-0.0011077367 -0.0060805096 -0.3989698 0.0031103296 0.00017726624 0.022521561 -0.025725076 0.010263462
0.016507417 -0.51207143 0.004627722 0.05965299 0.005195582 0.00043824816 0.002106588 0.018115886
00000000: 0112 feba 8f30 443c 64e8 61ba 3c15 983e
00000010: 3dff 793f 34dc f7bc 8165 d93e ba34 e13e
00000020: 5de3 413b a52e 6d3c 103e 743c be9b ab3c
00000030: 3b36 103b 0305 9c3a e342 25bc a013 82bd
00000040: 094c 55be aa74 0cbe 70ca 8bbc 12d5 5fba
00000050: 0105 fbbb ac9f 1aba 87d1 a9ba 0237 6cbb
00000060: 6cbf 0dbb f7a3 303e 9968 a0bd a05e 75bb
00000070: 5718 e73b c415 40ba f7dd db3d 1699 5e3c
00000080: 6270 f4b9 d7ef 9d3a 0586 433e 82b8 f63d
00000090: 8141 023f 9fd6 5ebb 887b df3a 1225 bcbc
000000a0: fe39 2cbd eb4b ce3a 4724 bf3c b2de cdbb
000000b0: 4f0e 783b 1d83 72bc 3e91 a03e cd42 3d3b
000000c0: ba10 ca3a b86b 063d 48db 50bb b039 8c3e
000000d0: 7569 a9bc 8ed6 01bb 57e6 443f 90d5 7a3b
000000e0: 66b1 b2be 86b5 87b9 9ec3 b93e 05c7 8bbd
000000f0: 4573 433c 991c 3dbc 879c d43b 1af4 bab9
00000100: f490 c63b bcb2 15bb aa7b 493d 2679 a7bb
00000110: 8235 893b 7b05 19be 47b7 6f3a b401 9dbb
00000120: 74ec 25bb 2230 343b f376 143e f33d 5dbb
00000130: 27cb 873e b1ca 673f 9475 cc3e 02bb 463d
00000140: 68c8 fe3b d274 063d 6820 a3ba 7a58 8238
00000150: e3ae c13a 77aa 23be 4348 3a3b 67a3 0ebb
00000160: 8bda fd3a f1f7 bd3a fc35 b5b6 b0e9 c5bb
00000170: 6c91 64be 9347 8b3b c9e8 223b 4189 60be
00000180: 69e9 95bc 9174 2f3e 7165 133b 2d72 9fbc
00000190: 6217 e43b 71fd 453c 9b56 c03e f642 853b
000001a0: 22df cfba 544a 1abb fc37 7e3a 1376 f5b9
000001b0: 5676 6c3e 75b4 2238 2370 98ba d21b d43e
000001c0: 018b 53bb 8c73 193b 239f 453d 881b fabb
000001d0: 4702 2cbc 9835 fc3d efdc 4d3c 1bd4 343c
000001e0: 9cf9 99bc dd15 b23c a0dc c3bb 873c 14bd
000001f0: 48f7 b4bc 29ef 4c3b 0e95 303a 7e46 aa3c
00000200: 657e 63bb 4c49 c53b 8397 9fbb f1f9 05ba
00000210: 317d 4dba 3ddb 61bc 93a0 253b 3ceb 18bf
00000220: 7837 2c3a 41f1 9dba f7d7 39bc 4db7 a93b
00000230: db28 d239 bc69 f239 5698 02bb f288 f4be
00000240: 26af 0abc fcce 2cbd 8962 abbb 6ac3 8a3b
00000250: a51f b639 aaaa df3a c12c 633c 5fec 023b
00000260: 0b2e b4ba a301 98b7 3e05 8bbb 85ed d73a
00000270: 4582 463c 53af 37bc 02a8 7a3c 33ba 98be
00000280: bda1 d13b fbd9 26bc 246a bd3a 2a3f a2bc
00000290: f5ba 99ba 1377 8dba 656d 5bbb 6e12 a23e
000002a0: 574a 8e3a 3814 be39 5d75 8e3c fa3a a8b9
000002b0: 8aa1 183c 77b9 b7bb cb1b d7ba 8c04 243b
000002c0: 8f1c 2abc ca61 1cbd 323b f73a d973 d3bc
000002d0: f25b 26bc 47d4 d13b 775a b2ba 3845 a439
000002e0: 7d50 6bbe 2888 ea3a e345 3bbe bc5f a63e
000002f0: 21d9 2538 ce4b 983a a8cb c1bc 8484 233b
00000300: 7d40 ac3c 0337 933c 4f73 36be d646 2dbc
00000310: 25cd 02bf 07bb e33a 667f 003a f5ee 0abb
00000320: 289f e3bb 6211 ae39 aa7e f63d e3c4 ce3b
00000330: 4bf3 95bc 1da8 27bb e83c 053a 6a3a 013d
00000340: f3af 753b 8cb0 2a3f 3e8d 0ebb e803 9e3b
00000350: 97f6 903a a2f7 0c3b ccc7 26bb 75e7 18bb
00000360: 76eb 43bb 22ef 5d3b f892 6b3b a2c2 da3b
00000370: b35d afb7 5b0c 86bc f0cb df3b 10d3 533b
00000380: a336 b03b 1008 12bb fa14 843b 255d 83bb
00000390: 22d6 5cbb ec66 d6bc 2bff d43a 975d 42bb
000003a0: c850 7d3a 951e 483b bad5 88b9 265f 8abb
000003b0: 93c7 adbe 5c31 54bb ae80 46bb 1f5d bd3a
000003c0: 7a31 91ba 033f c7bb c545 ccbe acd6 4b3b
000003d0: 8be0 3939 237f b83c 65bd d2bc 1428 283c
000003e0: 903a 873c 1d17 03bf 25a4 973b b256 743d
000003f0: b33f aa3b acc4 e539 af0e 0a3b c467 943c

dist.fc_mean.bias f4 [2]
6.568973e-05 -0.0007466921
00000000: e8c2 8938 a9bd 43ba

dist.fc_logstd.weight f4 [2, 128]
-2.6818452 -1.2106792 -1.2978624 1.0347261 -0.8752265 -0.12460525 1.6164088 -0.06146612
-0.22427815 0.08401951 -0.2955717 0.02622544 -1.0588397 -2.3809483 0.14875433 -0.50907177
0.11719131 0.016625373 -0.66273564 -1.2128283 -1.4626873 -0.71673226 0.16651523 0.781642
0.124837905 -0.37121704 -0.9087808 -1.2001166 -1.3552102 -0.46252784 -0.09154555 -0.31866044
-0.1409595 0.028351443 -0.34330338 -0.2162867 -1.9507369 1.7976186 -0.48525 -0.10359555
0.16277441 -1.0703232 -0.6229717 -1.4300412 -1.1853291 -0.27786577 1.5171775 -1.1275924
-0.039867774 -0.06139547 1.9532368 0.5080492 -0.48379293 -1.4891227 1.2027475 1.0650865
-0.2753737 -2.911527 -0.72819275 -0.192766 0.06009668 -0.41545832 -0.31859136 -1.5212836
0.074225105 -0.18426518 -0.24435157 -0.8747902 0.24904267 -1.0329654 0.27475747 -2.503484
-0.67627525 -0.58682173 -0.086681925 -1.8044542 0.03474389 -0.6279346 -0.18443516 -0.021007024
-0.24655826 0.20264253 -0.85528284 0.3051254 -0.122843914 1.0110121 -1.2284721 -1.9698368
-1.012244 -0.6251453 -1.5644478 0.85626894 -0.39657193 -0.025960797 -1.697134 -1.7181352
-0.30070633 -0.89462966 -0.7098779 0.07420395 -2.5720816 -0.11462317 0.69924533 0.14341798
-1.7503989 -0.5711116 0.43053082 -1.2599663 -0.48133504 0.7935553 -0.96770936 0.3666498
-0.5734098 -0.96323335 -0.2496045 -0.9018444 -1.2141473 -0.19304101 0.02008877 -0.7947228
-0.53549373 0.048987433 -0.4694493 0.01657947 -0.6037202 -0.64523655 -2.0829182 -0.5070858
1.0088251 -1.2168096 -0.92446816 -1.0474119 0.3917438 -0.044189706 -0.18646818 1.6000108
-1.0024561 0.0062907045 -0.20488223 -0.2645307 -0.5953444 -0.19051763 -0.8450089 -0.6057688
-0.40122154 -0.0331556 1.5518094 -1.2194245 -0.7623685 0.6719676 -0.15108117 -1.3897235
-1.8145504 1.426112 0.13608462 -1.3833864 -0.45555234 -0.96878606 0.3268762 0.26308894
-0.17188875 -0.11035593 -1.1871833 -0.45272636 -0.7482324 -1.3816786 -1.6092333 -0.6269349
-0.548696 -1.6343957 -1.2328143 -1.9424509 -1.6585404 -1.7655519 0.72132885 -0.45208642
-0.53568083 -0.0083215805 -0.6942459 0.62485725 -1.1633201 -1.2890226 0.42264593 -1.2152963
0.64130676 -1.437875 0.045634728 -0.99667805 -2.0987396 -1.036013 -0.57208955 0.106602445
-0.4932771 -0.32369134 1.593123 0.39653727 -0.21046928 -0.25488627 -0.94596386 0.36760187
-1.06242 -2.05624 -0.3710363 -0.9379732 -0.049005877 0.9242624 0.3689871 -0.024352692
-1.7590774 1.228097 -1.2860259 -1.2193725 -2.303904 1.2467127 -0.609273 -1.5996302
-1.0567988 -0.18781334 -1.2719936 -1.5829254 -0.9241752 -0.098912455 -0.96882385 1.7824173
0.89902484 -0.5834226 -0.77856493 2.3253188 -1.5568806 -0.031552695 0.03422209 -0.96600866
-1.3125654 -1.3010213 -1.1545697 -1.5224572 -0.09423551 -1.8076833 -1.7705029 0.32862985
-1.473385 -1.1947953 -0.26575208 -1.0209726 1.1846662 -0.27891555 -0.13060662 -0.1554654
-0.43355265 -0.13219282 -1.6882237 0.23526111 -0.777485 -1.7614527 -0.85830474 -0.78144157
00000000: 5aa3 2bc0 89f7 9abf 5b20 a6bf e871 843f
00000010: d80e 60bf 0a31 ffbd 7ce6 ce3f e6c3 7bbd
00000020: 2ca9 65be 6c12 ac3d 2d55 97be bcd6 d63c
00000030: 0f88 87bf 7561 18c0 0e53 183e 8752 02bf
00000040: ff01 f03d ef31 883c 0ba9 29bf f53d 9bbf
00000050: 5639 bbbf c47b 37bf f882 2a3e b119 483f
00000060: 04ab ff3d 2910 bebe dca5 68bf 6c9d 99bf
00000070: 8777 adbf 73d0 ecbe 3c7c bbbd 7627 a3be
00000080: b057 10be 4941 e83c 76c5 afbe 437a 5dbe
00000090: bfb1 f9bf 5e18 e63f b072 f8be e729 d4bd
000000a0: 56ae 263e 5a00 89bf 137b 1fbf 970b b7bf
000000b0: ddb8 97bf 6c44 8ebe df32 c23f f354 90bf
000000c0: 644c 23bd d179 7bbd aa03 fa3f 830f 023f
000000d0: b5b3 f7be 939b bebf a1f3 993f c154 883f
000000e0: c8fd 8cbe 7556 3ac0 d76a 3abf 7364 45be
000000f0: f027 763d f4b6 d4be 681e a3be 6cb9 c2bf
00000100: 5503 983d 03b0 3cbe 4c37 7abe 40f2 5fbf
00000110: 0b05 7f3e 3638 84bf 03ad 8c3e 1539 20c0
00000120: 6020 2dbf f339 16bf 4b86 b1bd 5bf8 e6bf
00000130: 9c4f 0e3d 52c0 20bf 92dc 3cbe ec16 acbc
00000140: c579 7cbe 8681 4f3e d1f3 5abf 6539 9c3e
00000150: 9795 fbbd d868 813f 933e 9dbf 9d23 fcbf
00000160: 3691 81bf 8609 20bf d33f c8bf 7134 5b3f
00000170: 7a0b cbbe bdab d4bc b03b d9bf dbeb dbbf
00000180: 2ef6 99be 7306 65bf 8fba 35bf 3ef8 973d
00000190: fc9c 24c0 8dbf eabd be01 333f 2adc 123e
000001a0: 120d e0bf 5f34 12bf 896e dc3e 9346 a1bf
000001b0: 8c71 f6be 7126 4b3f cdbb 77bf 86b9 bb3e
000001c0: fcca 12bf 7696 76bf 5298 7fbe 46df 66bf
000001d0: 2e69 9bbf 8bac 45be 3491 a43c f472 4bbf
000001e0: 1e16 09bf 0ca7 483d a95b f0be abd1 873c
000001f0: 688d 1abf 392e 25bf 884e 05c0 60d0 01bf
00000200: 2e21 813f 6bc0 9bbf f2a9 6cbf 9811 86bf
00000210: a592 c83e 4400 35bd 84f1 3ebe 27cd cc3f
00000220: 7b50 80bf 4122 ce3b a6cc 51be 9170 87be
00000230: 7e68 18bf 0e17 43be 8152 58bf aa13 1bbf
00000240: e96c cdbe 2bce 07bd b1a1 c63f 1a16 9cbf
00000250: 952a 43bf 1206 2c3f 06b5 1abe 76e2 b1bf
00000260: 3043 e8bf d78a b63f c459 0b3e ce12 b1bf
00000270: 283e e9be 5d02 78bf 515c a73e 98b3 863e
00000280: 9b03 30be 4a02 e2bd 9ff5 97bf c0cb e7be
00000290: 298c 3fbf d8da b0bf 5bfb cdbf ce7e 20bf
000002a0: 5777 0cbf e133 d1bf dccc 9dbf 3ba2 f8bf
000002b0: 0d4b d4bf 9bfd e1bf 02a9 383f df77 e7be
000002c0: 6122 09bf 3d57 08bc 19ba 31bf a5f6 1f3f
000002d0: ace7 94bf b1fe a4bf 0c65 d83e d48e 9bbf
000002e0: ae2c 243f 4a0c b8bf 7beb 3a3d 4b26 7fbf
000002f0: c051 06c0 139c 84bf 7674 12bf 6252 da3d
00000300: d18e fcbe dfba a5be 74eb cb3f ef06 cb3e
00000310: 4285 57be 7480 82be b02a 72bf 5036 bc3e
00000320: 61fd 87bf 7099 03c0 78f8 bdbe 031f 70bf
00000330: 63ba 48bd 769c 6c3f e1eb bc3e 4c7f c7bc
00000340: 7329 e1bf 4832 9d3f 7f9c a4bf 6614 9cbf
00000350: 2a73 13c0 4894 9f3f 51f9 1bbf afc0 ccbf
00000360: 2f45 87bf 2452 40be b0d0 a2bf 4d9d cabf
00000370: bf96 6cbf 9d92 cabd d704 78bf 4026 e43f
00000380: 7e26 663f 2f5b 15bf 0850 47bf 06d2 1440
00000390: dd47 c7bf 663d 01bd 762c 0c3d 584c 77bf
000003a0: 2502 a8bf de87 a6bf f1c8 93bf e1df c2bf
000003b0: 8cfe c0bd 2b62 e7bf d79f e2bf 2c42 a83e
000003c0: e197 bcbf 0def 98bf a810 88be 3baf 82bf
000003d0: 24a3 973f 05ce 8ebe bebd 05be 5232 1fbe
000003e0: 9dfa ddbe 8e5d 07be b717 d8bf 4ae8 703e
000003f0: 4209 47bf 4877 e1bf dcb9 5bbf 8e0c 48bf

dist.fc_logstd.bias f4 [2]
-0.816993 -0.8085256
00000000: 7426 51bf 89fb 4ebf

exp_avg f4 [128, 9]
0.008345981 -0.21953532 -0.07609805 -0.20077251 -0.013169323 0.016194 -0.019262712 0.0037591283
-0.0015394756 0.099815086 0.08770901 -0.0075790626 0.19994505 -0.01464377 0.014972376 0.020472938
0.04418378 0.2485471 0.13705255 -0.034969274 0.14047775 0.26575112 0.002546774 0.02782109
0.040137406 0.05631961 -0.026181906 0.12497344 0.21487051 0.14878865 0.16767125 -0.043348726
-0.006593417 0.019718913 0.020643536 0.15702555 -0.018557686 -0.21389231 -0.07405633 0.039615758
0.011631631 0.024419103 0.007351191 0.025243495 0.17890097 -0.0025319133 0.06427918 -0.010085851
0.039859477 0.008098351 -0.006765156 0.011596137 0.0064647086 -0.022999063 0.0850506 0.33392695
0.20168422 -0.108384624 -0.06511923 -0.06380075 -0.0046073734 0.00786493 0.1855205 0.14947332
-0.043988667 0.08181434 -0.004279486 0.037533574 0.10085597 -0.026573123 -0.0036596092 0.05980577
0.19412461 0.31831115 0.108162805 -0.045596495 0.017784083 0.009728676 -0.0015673317 0.0037766593
0.023255613 -0.052022517 -0.45040438 -0.14742997 0.39409688 -0.03231548 0.108557254 0.035067856
0.12596457 0.51802546 -0.083391726 -0.026891515 -0.26413795 0.01158589 0.04637965 0.031919815
0.035224576 -0.005468234 0.052700676 -0.23041607 -0.16728094 -0.31990305 -0.012556424 0.11413383
0.04395847 0.098540716 0.037736814 -0.30129123 0.051311165 0.117604196 0.05755993 0.14031874
-0.033662386 -0.05892381 -0.0055293036 0.013702818 -0.0868114 0.17930089 0.026545553 0.19989368
-0.17056133 -0.021065436 0.02700205 -0.010910426 0.004054507 -0.0244695 -0.36451897 -0.11220745
-0.392265 -0.26550972 0.054619312 -0.044437774 -0.045425247 -0.03026889 -0.09040046 0.10196659
-0.0679828 0.15267888 -0.15014468 -0.054486345 -0.063012354 -0.0043387013 -0.0191059 -0.0059499806
-0.37616324 0.12563182 -0.5649812 -0.3700444 0.14824261 0.070118405 -0.012228744 -0.012309263
-0.46540985 0.28564793 -0.117225006 0.32339057 -0.15383779 -0.0774654 -0.043117464 -0.028757673
0.026608763 0.121925496 -0.2720734 -0.2860773 -0.23017536 -0.30054274 0.023327477 0.0045630736
-0.055552587 -0.058177233 0.004280194 -0.21435082 -0.120329864 -0.26361853 0.0075761187 0.121729225
0.08350417 0.03674192 0.026540413 -0.30624768 0.04385415 0.15996069 0.028196758 0.030098984
0.04992944 0.03982948 -0.009468452 -0.003182329 -0.04073132 0.11157304 0.046304323 0.11008899
0.1252124 -0.010642291 -0.014589181 0.004171105 0.016730431 0.071200974 0.19862238 0.48452824
0.20819825 0.091281615 -0.046817653 -0.031473327 -0.06745199 -0.04890204 -0.16981433 0.31985852
0.3105515 0.52065766 -0.19313784 -0.11158208 -0.13210805 -0.09206022 -0.071459584 0.10423559
0.19412957 0.3217693 0.18639779 0.071664095 -0.04888384 -0.020579308 -0.021225907 -0.039177604
-0.017755853 -0.053737085 0.19062802 -0.07561189 -0.016731678 0.050345086 0.0056584333 0.050675392
0.004463702 -0.21465282 -0.02015596 0.07437107 -0.02596978 0.09606551 0.009251405 -0.017380616
0.0046867384 0.0014650829 -0.01843645 0.17461745 0.051060364 0.14312111 0.18312664 -0.0126207825
0.0137315625 0.063440725 0.036781885 -0.26225847 -0.049424633 0.03301075 -0.10985764 -0.072703704
00000000: 95bd 083c decd 60be 4bd9 9bbd 4f97 4dbe
00000010: 25c4 57bc 48a9 843c d6cc 9dbc b55b 763b
00000020: 3bc8 c9ba da6b cc3d c8a0 b33d c959 f8bb
00000030: 65be 4c3e 6cec 6fbc b24e 753c ddb6 a73c
00000040: 0dfa 343d 2283 7e3e 8157 0c3e f13b 0fbd
00000050: 66d9 0f3e 8810 883e c7e7 263b 0ee9 e33c
00000060: 1f67 243d 64af 663d 707b d6bc 13f2 ff3d
00000070: 0407 5c3e 0d5c 183e 03b2 2b3e 6f8e 31bd
00000080: 970d d8bb 8f89 a13c a21c a93c 4ecb 203e
00000090: 4a06 98bc 9606 5bbe d8aa 97bd 2244 223d
000000a0: 9992 3e3c 920a c83c 42e2 f03b 72cb ce3c
000000b0: d131 373e 75ee 25bb cda4 833d 203f 25bc
000000c0: b143 233d f2ae 043c 3eae ddbb b9fd 3d3c
000000d0: e8d5 d33b 8868 bcbc 022f ae3d 79f8 aa3e
000000e0: 4f86 4e3e c2f8 ddbd 3b5d 85bd f8a9 82bd
000000f0: 73f9 96bb e8db 003c 16f9 3d3e 890f 193e
00000100: 762d 34bd 478e a73d ee3a 8cbb cebc 193d
00000110: 938d ce3d e1af d9bc 0ed6 6fbb e5f6 743d
00000120: 9ac8 463e aef9 a23e 7684 dd3d 64c3 3abd
00000130: edaf 913c 0665 1f3c ed6e cdba d481 773b
00000140: 8e82 be3c 9015 55bd 679b e6be e2f7 16be
00000150: 11c7 c93e 3d5d 04bd 4453 de3d 50a3 0f3d
00000160: dbfc 003e 519d 043f 48c9 aabd 984b dcbc
00000170: 173d 87be bfd2 3d3c 96f8 3d3d 5abe 023d
00000180: a547 103d df2e b3bb aadc 573d 31f2 6bbe
00000190: b24b 2bbe 55ca a3be 76b9 4dbc ffbe e93d
000001a0: cc0d 343d b7cf c93d eb91 1a3d d842 9abe
000001b0: a82b 523d 78da f03d f6c3 6b3d b7af 0f3e
000001c0: 92e1 09bd 185a 71bd 292f b5bb c981 603c
000001d0: 2dca b1bd a79a 373e 0f76 d93c eeb0 4c3e
000001e0: a1a7 2ebe 6c91 acbc 6733 dd3c a5c1 32bc
000001f0: abdb 843b 4374 c8bc 3ba2 babe 05cd e5bd
00000200: f5d6 c8be e4f0 87be 80b8 5f3d 6204 36bd
00000210: d30f 3abd 77f6 f7bc e023 b9bd dcd3 d03d
00000220: 913a 8bbd da57 1c3e 87bf 19be 132d 5fbd
00000230: 9f0c 81bd aa2b 8ebb fa83 9cbc 0ef8 c2bb
00000240: 7898 c0be a1a5 003e 9ca2 10bf 7676 bdbe
00000250: e9cc 173e 3d9a 8f3d 125b 48bc cbac 49bc
00000260: 334a eebe 7240 923e aa13 f0bd 7393 a53e
00000270: a787 1dbe 2ea6 9ebd f09b 30bd 3695 ebbc
00000280: 9ffa d93c 13b4 f93d 344d 8bbe b978 92be
00000290: 17b3 6bbe bde0 99be 4419 bf3c d685 953b
000002a0: 1c8b 63bd 404b 6ebd df40 8c3b c87e 5bbe
000002b0: 816f f6bd 02f9 86be 1741 f83b 2c4d f93d
000002c0: 3c04 ab3d b27e 163d 486b d93c 7fcc 9cbe
000002d0: 69a0 333d bccc 233e e3fc e63c 2592 f63c
000002e0: d082 4c3d 3d24 233d 9121 1bbc 9f8e 50bb
000002f0: e2d5 26bd 6880 e43d 9aa9 3d3d 5676 e13d
00000300: ae37 003e 015d 2ebc 7607 6fbc c4ad 883b
00000310: 420e 893c d1d1 913d aa63 4b3e 1614 f83e
00000320: ec31 553e dbf1 ba3d dec3 3fbd 2dea 00bd
00000330: 4524 8abd 814d 48bd cfe3 2dbe 7fc4 a33e
00000340: 9b00 9f3e d249 053f edc5 45be 2585 e4bd
00000350: 5547 07be 128a bcbd 6759 92bd 7879 d53d
00000360: e7c9 463e f2be a43e 10df 3e3e a0c4 923d
00000370: 6c3a 48bd f095 a8bc f4e1 adbc b278 20bd
00000380: b974 91bc 6b1b 5cbd fe33 433e 68da 9abd
00000390: df10 89bc a636 4e3d 616a b93b 0091 4f3d
000003a0: 3f44 923b f3cd 5bbe 1d1e a5bc dc4f 983d
000003b0: 93be d4bc febd c43d 3493 173c cb61 8ebc
000003c0: 3693 993b 0608 c03a 0a08 97bc ebce 323e
000003d0: ac24 513d 578e 123e 8d85 3b3e 66c7 4ebc
000003e0: 59fa 603c 36ed 813d 9aa8 163d be46 86be
000003f0: 7c71 4abd 4836 073d 0bfd e0bd aee5 94bd

exp_avg_sq f4 [128, 9]
0.51348305 0.44879532 0.6469103 0.96692854 0.5265035 0.102399655 0.03266931 0.061970126
0.6115886 0.39612022 0.59868807 0.43945497 0.5374964 0.10224104 0.078561395 0.08373765
0.16966933 0.45473844 0.16594313 0.19983214 0.18421917 0.23591374 0.030994434 0.030710055
0.0065313694 0.017541941 0.18105772 0.22006078 0.27512553 0.26453418 0.4116962 0.072762124
0.07785596 0.0089974515 0.009115343 0.31617826 0.31470224 1.2976434 0.66338706 0.9788922
0.04507913 0.07015688 0.03536724 0.0252237 0.4579915 0.15237635 0.14794868 0.15600544
0.16049603 0.029217634 0.033825852 0.049951486 0.021831779 0.14176685 0.74116915 0.5369044
0.8326877 0.6459251 0.121571876 0.09304851 0.037640233 0.09797099 0.5479111 0.2682802
0.15640132 0.17499347 0.26930878 0.10222397 0.15618758 0.029585704 0.010745541 0.19655389
0.47006333 1.4090725 0.64792675 0.99978584 0.08446771 0.08602005 0.01288009 0.025413454
0.38564876 2.8004496 4.6346264 3.4706092 3.578696 0.4997409 0.89919513 0.4064702
0.36142772 3.7163343 0.98842674 1.2093211 0.6836291 0.9408225 0.053592607 0.072102636
0.043193746 0.04194862 0.5648102 0.39645636 0.4774321 0.60821724 0.32588732 0.08241275
0.05196703 0.29338515 0.03493638 0.35999584 0.17559674 0.33078444 0.20990336 0.24663512
0.028884856 0.056817647 0.036476843 0.00890677 0.23113884 0.35298938 0.84599864 0.37485084
1.0058554 0.14608482 0.11844817 0.056154985 0.023622079 0.23669836 0.16798739 0.3274388
0.27220812 0.31680518 0.046452537 0.07455964 0.1393846 0.045737337 0.49021742 0.405496
1.1167438 0.76652634 1.054898 0.15280573 0.17215817 0.1857935 0.061554953 1.1424164
0.54629153 1.1900935 0.8493314 1.0429653 0.10093603 0.09692832 0.023312548 0.022410875
0.52909535 0.46196926 1.9805682 0.7928158 1.5350171 0.06803292 0.08656411 0.18258949
0.039427456 0.8507677 0.77492315 0.48455307 0.92156565 0.96813154 0.46844512 0.09836589
0.02128619 0.026393898 0.60402435 0.148782 0.08429435 0.20336127 0.17818667 0.07269528
0.027460163 0.0078204 0.01320236 0.18532482 0.4847316 0.46396622 0.41917282 0.50091
0.10337139 0.10872119 0.010607989 0.02123144 0.42772657 0.29025397 0.39023206 0.39738
0.28348374 0.07032959 0.064636976 0.010419536 0.010078147 0.5016676 0.4900978 2.842847
1.016638 3.4821627 0.08305836 0.10040939 0.072143614 0.06568656 1.0537775 0.99218684
4.4873037 1.7690928 1.6408316 0.2380541 0.31164876 0.36891878 0.091099985 2.1812456
0.25611645 0.17930487 0.2851549 0.29562178 0.06856249 0.0808547 0.02150379 0.075016074
0.20065796 0.5300345 0.793189 0.8224322 1.0717237 0.23117658 0.14235093 0.11498666
0.06509781 1.4172812 0.3985969 0.15963444 0.37023678 0.43918994 0.10430978 0.07236391
0.031380147 0.02270188 0.24069923 0.57902867 1.3590169 0.9740259 1.1228225 0.123218045
0.12856644 0.09156398 0.061940767 1.1492568 0.4394304 0.40462205 0.6071298 0.5981214
00000000: a073 033f 80c8 e53e ea9b 253f a188 773f
00000010: efc8 063f e9b6 d13d 41d0 053d 63d4 7d3d
00000020: 1291 1c3f 45d0 ca3e 9f43 193f 3e00 e13e
00000030: 5d99 093f c063 d13d cce4 a03d a57e ab3d
00000040: ccbd 2d3e 7ad3 e83e ffec 293e cca0 4c3e
00000050: f3a3 3c3e 5f93 713e 0ae8 fd3c a793 fb3c
00000060: 1905 d63b 1eb4 8f3c 3267 393e 9d57 613e
00000070: 41dd 8c3e 0671 873e d8c9 d23e 4f04 953d
00000080: f272 9f3d 0c6a 133c 8558 153c 1ee2 a13e
00000090: a720 a13e 2e19 a63f bcd3 293f ae98 7a3f
000000a0: e5a4 383d 69ae 8f3d 3ddd 103d efa1 ce3c
000000b0: dd7d ea3e 8c08 1c3e dc7f 173e e4bf 1f3e
000000c0: 1259 243e d259 ef3c fa8c 0a3d ee99 4c3d
000000d0: 8fd8 b23c 542b 113e 43bd 3d3f 9172 093f
000000e0: 052b 553f 595b 253f adfa f83d 3890 be3d
000000f0: a52c 1a3d 04a5 c83d e743 0c3f 065c 893e
00000100: ab27 203e 7d31 333e d7e2 893e cd5a d13d
00000110: a3ef 1f3e b85d f23c 110e 303c 6c45 493e
00000120: 24ac f03e 7d5c b43f 87de 253f f7f1 7f3f
00000130: 68fd ac3d 482b b03d 0307 533c e02f d03c
00000140: c173 c53e 913a 3340 dc4e 9440 761e 5e40
00000150: 5b09 6540 0ade ff3e a731 663f dd1c d03e
00000160: 0e0d b93e 6cd8 6d40 8909 7d3f 09cb 9a3f
00000170: 5102 2f3f bed9 703f ec83 5b3d 8caa 933d
00000180: edeb 303d 51d2 2b3d 6797 103f 54fc ca3e
00000190: fb71 f43e 20b4 1b3f b4da a63e 04c8 a83d
000001a0: 61db 543d 9436 963e 7319 0f3d 6051 b83e
000001b0: a2cf 333e 945c a93e e8f0 563e eb8d 7c3e
000001c0: ef9f ec3c 9fb9 683d be68 153d b3ed 113c
000001d0: a9af 6c3e 06bb b43e 5e93 583f 73ec bf3e
000001e0: dfbf 803f 4297 153e f494 f23d c502 663d
000001f0: 1783 c13c 0e61 723e e304 2c3e 0fa6 a73e
00000200: dd5e 8b3e 4a34 a23e 0445 3e3d b9b2 983d
00000210: d6ba 0e3e 1357 3b3d c7fd fa3e 2c9d cf3e
00000220: 76f1 8e3f 123b 443f e606 873f 1b79 1c3e
00000230: 3b4a 303e a740 3e3e 0c21 7c3d b33a 923f
00000240: c3d9 0b3f fc54 983f c86d 593f e37f 853f
00000250: 8db7 ce3d 5b82 c63d f5f9 be3c 0397 b73c
00000260: cb72 073f 3c87 ec3e 4283 fd3f faf5 4a3f
00000270: 717b c43f d854 8b3d 8648 b13d bdf8 3a3e
00000280: af7e 213d e9cb 593f 5d61 463f 5717 f83e
00000290: baeb 6b3f 78d7 773f 0ad8 ef3e 0e74 c93d
000002a0: 6060 ae3c 0438 d83c 57a1 1a3f 4f5a 183e
000002b0: 84a2 ac3d f03d 503e 9176 363e 43e1 943d
000002c0: 23f4 e03c 2321 003c b64e 583c cac5 3d3e
000002d0: be2e f83e fb8c ed3e d29d d63e a33b 003f
000002e0: 61b4 d33d 37a9 de3d 21cd 2d3c 8fed ad3c
000002f0: fafe da3e 2b9c 943e 7fcc c73e 6475 cb3e
00000300: c824 913e f608 903d 6460 843d b4b6 2a3c
00000310: d01e 253c 4a6d 003f 19ee fa3e 35f1 3540
00000320: 3221 823f c1db 5e40 801a aa3d 70a3 cd3d
00000330: 08c0 933d ad86 863d 2ee2 863f f5ff 7d3f
00000340: fe97 8f40 a271 e23f c506 d23f 74c4 733e
00000350: 6d90 9f3e ece2 bc3e a192 ba3d 8799 0b40
00000360: b221 833e b29b 373e d3ff 913e bd5b 973e
00000370: 7e6a 8c3d 2697 a53d b728 b03c 07a2 993d
00000380: 4879 4d3e 57b0 073f 6f0e 4b3f eb8a 523f
00000390: 3e2e 893f 8eb9 6c3e 71c4 113e 207e eb3d
000003a0: 0052 853d 7869 b53f e514 cc3e 3677 233e
000003b0: ad8f bd3e 81dd e03e 5ea0 d53d 8833 943d
000003c0: 7888 003d 4bf9 b93c dc79 763e 393b 143f
000003d0: 44f4 ad3f c359 793f a6b8 8f3f be59 fc3d
000003e0: eca6 033e e585 bb3d 9ab5 7d3d d91a 933f
000003f0: 05fd e03e 9f2a cf3e dc6c 1b3f 7c1e 193f

exp_avg f4 [128]
0.14777893 0.013809553 -0.26254928 -0.1293256 -0.17547049 -0.0014223168 -0.12072169 0.0670418
0.009107965 -0.5074791 -0.051436294 -0.17308138 -0.09102484 -0.06114366 0.18493856 -0.00024713468
0.081528164 -0.23513767 0.36121204 -0.18304902 0.06153419 -0.026546959 0.41739854 0.48388577
0.1263253 -0.030125428 -0.15589945 -0.21285662 0.0005961228 0.028637586 0.32096878 -0.39078254
-0.4946267 0.06680952 -0.23325495 -0.44668525 -0.07180634 0.017575381 0.04602658 0.10154124
0.22339676 0.26479667 -0.21912254 -0.18277285 0.016726458 0.03141575 0.17850262 -0.0032692365
0.014991253 0.076636255 0.021172915 -0.107442915 -0.030025695 -0.22832511 0.3628984 0.4097528
0.13251975 -0.05103242 -0.065802746 -0.31539333 0.16059609 0.1810419 -0.40963036 -0.017042335
0.059678778 0.07113521 -0.13123544 0.19067179 0.096111186 0.073996685 0.07353427 0.09907509
0.22129743 0.45034784 -0.11895996 -0.09055539 0.020318639 -0.1861747 0.0007966267 0.13415885
-0.10236447 -0.25697455 0.078091785 0.051440265 0.083793625 1.5955961 0.19620949 0.34024245
0.16979857 0.29887813 0.22348873 0.11883317 -0.2759686 -0.47610837 0.07942425 0.052606918
0.2533788 0.40450242 -0.19903392 -0.027244916 -0.25090432 0.29502732 -0.034954242 -0.56834257
0.086385734 0.061596736 -0.80672306 1.2075043 -0.41282728 -0.025643399 0.035889417 -0.42787904
0.034938674 0.16674809 0.083838575 -0.1601803 -0.020181095 -0.020512272 -0.24551313 0.15021205
-0.6594496 0.026019577 -0.16525508 0.07155282 -0.18743764 0.31068492 0.29462317 0.10045744
00000000: 5c53 173e 7741 623c dc6c 86be ee6d 04be
00000010: 89ae 33be 086d baba ef3c f7bd 364d 893d
00000020: 9339 153c 26ea 01bf ddae 52bd 3f3c 31be
00000030: 3b6b babd c671 7abd 8960 3d3e db91 81b9
00000040: 3df8 a63d eec7 70be c9f0 b83e 3471 3bbe
00000050: 460b 7c3d 0279 d9bc 43b5 d53e e0bf f73e
00000060: 6b5b 013e 9ac9 f6bc 1ba4 1fbe 16f7 59be
00000070: 2045 1c3a 5f99 ea3c 0556 a43e a614 c8be
00000080: b63f fdbe 6ed3 883d 63da 6ebe eeb3 e4be
00000090: 340f 93bd 3ffa 8f3c 5e86 3c3d dbf4 cf3d
000000a0: 1fc2 643e 6e93 873e a961 60be ce28 3bbe
000000b0: ed05 893c cdad 003d 64c9 363e b040 56bb
000000c0: df9d 753c 78f3 9c3d d272 ad3c 080b dcbd
000000d0: 72f8 f5bc 0fce 69be d2cd b93e 1ecb d13e
000000e0: 42b3 073e 5f07 51bd 97c3 86bd 3c7b a1be
000000f0: 4d73 243e 0c63 393e 12bb d1be 5e9c 8bbc
00000100: bc71 743d 56af 913d 9562 06be 773f 433e
00000110: f1d5 c43d 938b 973d 2399 963d e1e7 ca3d
00000120: cb9b 623e fe93 e63e 48a1 f3bd 1b75 b9bd
00000130: 4673 a63c 95a4 3ebe b6d4 503a f060 093e
00000140: 77a4 d1bd 2b92 83be 96ee 9f3d 07b3 523d
00000150: fe9b ab3d 7e3c cc3f 24eb 483e 4234 ae3e
00000160: addf 2d3e 8e06 993e 3bda 643e ce5e f33d
00000170: c24b 8dbe 7ac4 f3be 2ea9 a23d 5a7a 573d
00000180: deba 813e f11a cf3e 8ccf 4bbe bb30 dfbc
00000190: 8876 80be d20d 973e 2e2c 0fbd e67e 11bf
000001a0: 01eb b03d dc4c 7c3d 6785 4ebf 808f 9a3f
000001b0: 195e d3be 1b12 d2bc c800 133d f612 dbbe
000001c0: db1b 0f3d 03c0 2a3e 8fb3 ab3d 4e06 24be
000001d0: d352 a5bc 5a09 a8bc cb67 7bbe 30d1 193e
000001e0: b0d1 28bf 0227 d53c a138 29be 498a 923d
000001f0: a7ef 3fbe 1812 9f3e d9d8 963e a1bc cd3d

exp_avg_sq f4 [128]
0.568452 0.58119273 0.27445698 0.37736127 1.0925543 0.16760157 0.672246 0.20399082
0.5360272 4.3490863 0.99477035 0.54756767 0.33794716 0.46181256 0.5102581 1.8129804
0.98278606 1.0424587 0.8816062 0.14841194 0.4147847 0.43609327 2.4856138 3.743884
0.36775514 1.3583158 0.36126316 1.4620987 0.701106 0.20113142 1.0920742 2.2492335
1.2415233 0.8648246 0.92110085 0.27394563 0.22353901 0.12469609 0.44351727 0.4179965
0.9044692 0.6677613 0.99212784 0.8855506 0.48813453 2.752874 0.022045217 1.5341161
0.47012785 0.63252914 0.27337587 0.43034127 0.34888807 0.73475796 1.6690713 1.9384066
0.89599043 1.0558052 2.556487 1.767745 0.19548972 0.38702866 1.0105371 0.40809953
0.3154051 0.7520828 0.26239565 0.8874217 0.30609554 2.4412289 1.1064445 2.1697903
1.765672 2.04071 0.25989628 0.15589096 0.078284815 2.0241346 0.01597829 0.84536886
0.18547557 0.50756806 0.4008592 0.70836174 0.6324834 0.4458624 0.6073985 0.97993124
0.5211347 0.6507636 0.61025745 0.41395313 0.5624966 1.5531933 2.173736 0.34827152
0.35902223 0.72705835 0.5767103 0.29388273 0.50327075 0.7906221 0.9050407 0.84839815
1.0396775 1.073575 0.78784025 12.03324 2.848237 0.9438481 0.5332004 0.96339923
1.7371832 0.5554492 0.8169791 0.64375347 0.09452725 1.0357624 1.7380466 0.33698675
0.72110945 0.65351045 1.0978037 1.0632674 0.43584356 0.4654805 1.2348485 0.3557245
00000000: 1286 113f 0cc9 143f a085 8c3e 7f35 c13e
00000010: d2d8 8b3f bf9f 2b3e 5018 2c3f f8e2 503e
00000020: 1439 093f b72b 8b40 45a9 7e3f 652d 0c3f
00000030: 6907 ad3e b272 ec3e 46a0 023f be0f e83f
00000040: de97 7b3f 496f 853f f2b0 613f 4df9 173e
00000050: a95e d43e 9e47 df3e 4c14 1f40 cc9b 6f40
00000060: 674a bc3e 4bdd ad3f 7cf7 b83e 0d26 bb3f
00000070: af7b 333f 65f5 4d3e 16c9 8b3f 71f3 0f40
00000080: 3cea 9e3f 2565 5d3f 44cd 6b3f 9a42 8c3e
00000090: 69e7 643e aa60 ff3d b214 e33e a303 d63e
000000a0: 4b8b 673f 68f2 2a3f 17fc 7d3f 72b3 623f
000000b0: c5ec f93e 162f 3040 2c98 b43c eb5d c43f
000000c0: 99b4 f03e 6eed 213f ecf7 8b3e b155 dc3e
000000d0: 75a1 b23e 1919 3c3f 21a4 d53f b51d f83f
000000e0: a15f 653f a024 873f 7c9d 2340 7845 e23f
000000f0: 752e 483e 9f28 c63e 4859 813f 6cf2 d03e
00000100: c77c a13e 8088 403f b958 863e 122e 633f
00000110: 8eb8 9c3e 183d 1c40 f99f 8d3f d8dd 0a40
00000120: 8a01 e23f fe9a 0240 2011 853e e1a1 1f3e
00000130: ca53 a03d 6c8b 0140 e7e4 823c 186a 583f
00000140: 4fed 3d3e fbef 013f 6b3d cd3e 3257 353f
00000150: 6fea 213f 1448 e43e 787e 1b3f c6dc 7a3f
00000160: 1569 053f 7198 263f d539 1c3f aaf1 d33e
00000170: c7ff 0f3f 0acf c63f 7e1e 0b40 a550 b23e
00000180: c3d1 b73e 7f20 3a3f 49a3 133f cc77 963e
00000190: 5ad6 003f 3666 4a3f bfb0 673f 9f30 593f
000001a0: 2714 853f e86a 893f e6af 493f 2788 4041
000001b0: 8449 3640 07a0 713f d27f 083f 55a1 763f
000001c0: 055c de3f eb31 0e3f 8b25 513f 07cd 243f
000001d0: 8197 c13d dd93 843f 5078 de3f 8789 ac3e
000001e0: a19a 383f 764c 273f d584 8c3f 2519 883f
000001f0: e326 df3e 7653 ee3e 840f 9e3f 8621 b63e
