ppo/models/behavioral_cloning_agents_drone/bc3/ckpts/001719600.pt (torch_old, 349784 bytes, 26 tensors)

fc1.weight f4 [128, 15]
0	0x3c018d79	0.007907265
1	0x3e5351b7	0.2063664
2	0xbece172f	-0.40252063
3	0xbe88a442	-0.2668782
4	0xba46f08f	-0.00075889466
5	0xbdc2eaf0	-0.09517467
6	0xbc8d7855	-0.017269293
7	0x3ec9c97e	0.3941154
8	0xbe6d5a05	-0.23178871
9	0x3da337e9	0.079696484
10	0xbda687c4	-0.08131364
11	0x3cb6e024	0.022323675
12	0xbe7c970a	-0.24666992
13	0xbe2f1ac2	-0.17100051
14	0x3dc36a5e	0.09541772
15	0xbde2cf19	-0.11074657
16	0x3d8d6426	0.069038674
17	0x3e23e4f1	0.16005303
18	0xbe464a0e	-0.19364187
19	0x3c16f452	0.009213524
20	0x3e410b01	0.18851854
21	0x3f74c1d1	0.9560824
22	0x3eee5347	0.4654791
23	0x3e1ad7c6	0.15121374
24	0xbe56a61f	-0.20961808
25	0xbe0d7d7e	-0.13817403
26	0x3ed67052	0.4188257
27	0xbe7545a3	-0.23952346
28	0xbe267275	-0.162546
29	0x3da93e77	0.08263867
30	0xbdb25b06	-0.087087676
31	0x3e3b17ff	0.18270873
32	0xbeb4fae5	-0.35347667
33	0x3cd76e51	0.02629772
34	0x3e07e3b8	0.13270462
35	0xbeae1e97	-0.34007713
36	0xbdedc323	-0.11609485
37	0x3e7398a6	0.237887
38	0xbd09935f	-0.03358781
39	0x3ea07794	0.3134123
40	0x3d7669ca	0.060159482
41	0xbdbca4ea	-0.09211142
42	0x3d32ed40	0.04368329
43	0xbe76dd66	-0.24107894
44	0x3b85890f	0.0040751765
45	0xbe9366af	-0.2878928
46	0x3d2efcf7	0.042721715
47	0x3e13db74	0.14439183
48	0xbe151f06	-0.14562616
49	0xbd2559a2	-0.040368684
50	0x3e4139fc	0.18869776
51	0x3f03ec2f	0.5153226
52	0x3e3ba683	0.18325238
53	0xbe4c2f2e	-0.19939873
54	0x3c794d04	0.015216116
55	0xbe988bef	-0.2979426
56	0x3dbc3c24	0.091911584
57	0xbe4cfcc7	-0.20018302
58	0xbe373fbc	-0.17895406
59	0x3d48a9a3	0.048989903
60	0x3f242fcb	0.64135426
61	0x3e85a065	0.26098934
62	0xbed6fd21	-0.41989997
63	0x3e21f741	0.15816976
64	0x3eede1ab	0.46461233
65	0xbdbf4170	-0.09338653
66	0x3e76bca6	0.24095401
67	0x3ed24c89	0.41074017
68	0x3d07eb9d	0.033183683
69	0x3ef59925	0.47968403
70	0xbea6dcf8	-0.3259046
71	0xbd6dafd9	-0.05802903
72	0x3dcfd1fc	0.10147473
73	0x3e5b109a	0.21393052
74	0x3e8e1b98	0.27755427
75	0xbdb3ec08	-0.08785254
76	0xbc12df13	-0.008964318
77	0xbe65dd83	-0.22447781
78	0x3bd4a1c4	0.0064890105
79	0xbe642c7e	-0.22282597
80	0xbdab9b00	-0.08379173
81	0x3de2951c	0.110635966
82	0x3ead79d8	0.33882022
83	0xbd5f6cd1	-0.054547135
84	0xbdc5decc	-0.09661636
85	0xbdd5e97e	-0.10444926
86	0xbde100af	-0.109864585
87	0xbdf20ed0	-0.118192315
88	0x3dcb5998	0.09929198
89	0x3e036233	0.12830429
90	0xbdc7824b	-0.09741648
91	0x3e0e3954	0.13889056
92	0x3e11ba8c	0.14231318
93	0x3e93c517	0.28861305
94	0xbef00df0	-0.46885633
95	0xbe0ff7f8	-0.14059436
96	0x3def4495	0.11683003
97	0xbde4e777	-0.11176961
98	0xbcda3563	-0.026636785
99	0xbf00b73c	-0.50279593
100	0x3f06528d	0.5246971
101	0x3d71a7cd	0.058997918
102	0xbde690fa	-0.11258121
103	0xbd8516b6	-0.064984724
104	0xbd8df7bf	-0.069320194
105	0x3e45c774	0.19314367
106	0xbe1ace60	-0.15117788
107	0xbf2e1b1d	-0.6801012
108	0xbf11bac9	-0.56925637
109	0x3d309abf	0.043116327
110	0x3e3d4f14	0.18487197
111	0x3d030af9	0.031992886
112	0xbddcb70b	-0.107771
113	0x3cae8397	0.021302981
114	0x3ee7d3ca	0.4527877
115	0xbf703c83	-0.93842334
116	0xbdbea26f	-0.093083255
117	0x3c3ee240	0.011650622
118	0x3d1a4d70	0.037671506
119	0x3ed78105	0.42090622
120	0x3e4c448e	0.19948027
121	0xbe03847b	-0.12843506
122	0xbe1bb061	-0.15204002
123	0x3e0a928d	0.13532467
124	0xbe8406d9	-0.25786474
125	0x3db87e4f	0.090084665
126	0xbd467c56	-0.04845842
127	0xbec50538	-0.38480544
128	0x3c7ea28b	0.015541683
129	0xbf09e4c1	-0.53864676
130	0xbf0c6881	-0.5484696
131	0x3e5aded6	0.21374068
132	0xbe2c3ea6	-0.16820773
133	0xbc591910	-0.013250604
134	0x3f0ee0a5	0.5581153
135	0xbcc84c79	-0.024450528
136	0x3e269e31	0.16271283
137	0x3e422a9a	0.18961564
138	0xbe21435b	-0.1574835
139	0x3dd7d2be	0.10538243
140	0x3e96638c	0.29372823
141	0x3e8c484b	0.27398905
142	0x3eb5eee3	0.3553382
143	0xbe5d0375	-0.2158335
144	0xbe33532b	-0.17512195
145	0xbe0591ba	-0.13043872
146	0x3e296f6d	0.16546412
147	0xbadb6200	-0.001673758
148	0xbe036aba	-0.12833682
149	0xbdaef1f1	-0.085422404
150	0x3e3b94dd	0.18318506
151	0xbecb1381	-0.39663318
152	0x3e867fc4	0.26269352
153	0x3e42b14c	0.19012946
154	0x3f4e3d23	0.8056204
155	0xbed51dbb	-0.41624245
156	0x3ee5efb5	0.44909444
157	0x3d14c9f4	0.03632541
158	0xbe2d7d83	-0.1694241
159	0xbf3ae338	-0.7300296
160	0xbdce4fd5	-0.100738205
161	0xbecdb246	-0.40175074
162	0xbe6d4164	-0.23169476
163	0xbe644a0b	-0.2229387
164	0x3e546c3b	0.20744412
165	0x3d6defda	0.05809007
166	0xbeb31793	-0.34978923
167	0x3dd514b0	0.104043365
168	0xbeb70c63	-0.35751638
169	0x3d94d39d	0.072669245
170	0x3e0563b2	0.13026312
171	0xbed0bf8d	-0.40771142
172	0x3e218294	0.15772468
173	0x3db57732	0.08860625
174	0xbf44e6e8	-0.76914835
175	0x3f381e0f	0.71920866
176	0x3d16f14b	0.03685121
177	0xbdec0e5a	-0.11526175
178	0x3e536cc4	0.2064696
179	0xbe46de3a	-0.1942071
180	0x3e856e53	0.26060733
181	0x3e4d07c7	0.20022498
182	0x3e8c995b	0.2746075
183	0x3dd4f270	0.10397804
184	0x3eb85be3	0.36007604
185	0x3f066508	0.5249791
186	0xbe493611	-0.19649531
187	0xbe643b2b	-0.22288196
188	0xbeed144d	-0.4630455
189	0x3d5ee673	0.054418992
190	0x3efadb32	0.48995358
191	0x3ea2bfe7	0.31787035
192	0xbe3a7fbc	-0.1821279
193	0x3c3cac20	0.011515647
194	0xbdcbb086	-0.099457785
195	0xbd3e53ba	-0.046466567
196	0xbec4c8d6	-0.38434476
197	0x3f13a498	0.57673025
198	0x3d71c1e8	0.059022814
199	0xbe2fe970	-0.17178893
200	0x3e7a9ee7	0.24474679
201	0x3e0e8650	0.13918424
202	0xbe192269	-0.14954533
203	0x3bdf9906	0.0068236617
204	0xbe9925bf	-0.2991161
205	0x3f207c1f	0.62689394
206	0xbd09eab3	-0.033671092
207	0x3e5f03c6	0.21778783
208	0x3dbf3704	0.09336665
209	0x3e42e1e5	0.19031484
210	0xbdf0dea2	-0.11761214
211	0xbd207843	-0.03917719
212	0x3d434bd4	0.047679737
213	0xbd8d61db	-0.0690343
214	0x3ebac5f6	0.36479157
215	0x3cd3fee3	0.025878375
216	0xbe7287de	-0.23684642
217	0xbea55c75	-0.32297102
218	0xbd2898be	-0.04116129
219	0xbe8fe608	-0.28105187
220	0x3e3502b7	0.17676817
221	0xbdbfac32	-0.093590155
222	0x3dbf04e0	0.09327102
223	0x3bef8c00	0.0073103905
224	0xbba5d072	-0.005060249
225	0x3ed08114	0.4072348
226	0xbefb1e17	-0.49046394
227	0x3d958351	0.07300437
228	0x3cf8aa2d	0.030354584
229	0xbe0b14a2	-0.1358209
230	0xbe25f474	-0.16206533
231	0x3f257b46	0.64641225
232	0x3ed3a6dc	0.4133824
233	0x3e94d332	0.2906738
234	0x3ee70b46	0.45125788
235	0xbe305086	-0.17218217
236	0x3e664b81	0.2248974
237	0xbe3ae677	-0.18251978
238	0xbde01d74	-0.10943118
239	0x3ec614ce	0.38687748
240	0x3e05fb31	0.13084103
241	0x3e70457a	0.23464003
242	0xbe7cf0f3	-0.2470129
243	0xbb214c37	-0.0024612078
244	0x3e36d43c	0.17854398
245	0xbeb8caa9	-0.36092117
246	0x3e848626	0.25883597
247	0xbe502bbe	-0.20329186
248	0xbe016756	-0.12637076
249	0xbc57274a	-0.013131926
250	0xbda451c6	-0.080234095
251	0x3d93d1a6	0.07217722
252	0x3e5aa23c	0.2135095
253	0xbd9a9376	-0.07547657
254	0x3cbeebc9	0.02330579
255	0x3e868c45	0.26278892

fc1.bias f4 [128]
0	0xbe8fe8f2	-0.2810741
1	0xbe962bb3	-0.29330215
2	0xbe57e884	-0.21084791
3	0x3ca02dbb	0.019553056
4	0xbcfb3682	-0.03066564
5	0xbdd08fae	-0.10183655
6	0xbe36d7b9	-0.17855729
7	0xbe8f96c9	-0.28044727
8	0xbeba85ec	-0.364303
9	0xbdd7eae2	-0.10542847
10	0xbefcb344	-0.4935552
11	0xbe75eea3	-0.24016814
12	0xbd7a3b00	-0.061091423
13	0xbcf45c8e	-0.02982929
14	0xbd395993	-0.04525144
15	0xbe997682	-0.29973227
16	0xbd8ac625	-0.06776074
17	0x3caedc62	0.021345321
18	0xbecab871	-0.39593843
19	0xbed107b5	-0.40826192
20	0xbe41975c	-0.18905395
21	0xbe6124ce	-0.21986696
22	0xbe05a9c0	-0.13053036
23	0xbe76aa66	-0.2408844
24	0xbed18ff9	-0.40930155
25	0xbe0876d9	-0.13326587
26	0xbe25f77d	-0.1620769
27	0x3e92a9b0	0.28645086
28	0xbd1dcd50	-0.03852588
29	0xbe81c28b	-0.25343737
30	0x3cf2a886	0.029621374
31	0xbd82f793	-0.06394877
32	0x3d165b79	0.03670833
33	0xbe577afc	-0.21043009
34	0xbe4054b7	-0.18782316
35	0xbeaa3fc1	-0.33251765
36	0x3da7bcc1	0.08190299
37	0xbdfc2112	-0.12310995
38	0xbe274464	-0.16334683
39	0x3e513f20	0.20434237
40	0x3cf517a2	0.029918496
41	0xbdf9c40f	-0.12195598
42	0xbe9546be	-0.29155535
43	0x3e1a93df	0.15095471
44	0xbe83655a	-0.25663263
45	0xbe8939e3	-0.26801977
46	0xbeae6027	-0.34057733
47	0xbea21f95	-0.3166472
48	0xbe789878	-0.24276912
49	0xbe82710e	-0.2547688
50	0xbf009420	-0.5022602
51	0xbe1a4817	-0.15066563
52	0xbb6f0026	-0.0036468594
53	0xbe8737bd	-0.26409712
54	0xbd6372f3	-0.055529546
55	0xbe4b5649	-0.19857134
56	0x3dc83d83	0.097773574
57	0x3d0fb1f2	0.03508181
58	0xbe21648c	-0.15761012
59	0xbddcefa1	-0.10787893
60	0xbe5809f0	-0.21097541
61	0xbe3ee29f	-0.18641137
62	0xbda90581	-0.08253003
63	0xbd5d171e	-0.053977124
64	0xbc0b44cf	-0.008500292
65	0xbe217bb0	-0.1576984
66	0x3d686ed7	0.05674633
67	0xbe6a969f	-0.2290902
68	0xbc8c4daa	-0.017126877
69	0x3d832e46	0.0640531
70	0xbed41e09	-0.41429165
71	0xbe35bb2f	-0.17747186
72	0xbc09504f	-0.0083809635
73	0xbdfbc630	-0.12293661
74	0xbe8f70b7	-0.28015682
75	0xbe3cec73	-0.18449573
76	0x3cac71de	0.02105039
77	0xbd272d1a	-0.040814497
78	0xbe82384d	-0.2543358
79	0x3dc2bb4a	0.09508379
80	0x3d6b5166	0.057450674
81	0xbd782967	-0.06058636
82	0xbda7c909	-0.08192641
83	0xbd43d69c	-0.04781209
84	0x3dddd0fa	0.10830875
85	0xbdd77490	-0.105202794
86	0xbeb52e57	-0.35386917
87	0x3d473430	0.048633754
88	0xbe257d45	-0.16161068
89	0x3e6e5363	0.23273997
90	0xbec46538	-0.38358474
91	0xbbcbe24e	-0.006222046
92	0xbef724b7	-0.482702
93	0xbe09e705	-0.13467033
94	0x3db38c5f	0.08767008
95	0x3e1160e9	0.14197125
96	0xbd078598	-0.03308639
97	0x3c1e2add	0.009653774
98	0xbe2fb3e1	-0.17158462
99	0xbe8d3689	-0.2758067
100	0xbe294ec0	-0.16533947
101	0xbeb2a0c4	-0.3488828
102	0x3da6a787	0.08137422
103	0xbe8dc3ea	-0.27688533
104	0xbd957e19	-0.07299442
105	0xbdd26c1d	-0.10274527
106	0xbce80223	-0.028321331
107	0xbe99cf5d	-0.30041018
108	0xbe916612	-0.28398186
109	0x3c98edc2	0.01866806
110	0xbe5684f4	-0.20949155
111	0x3df2565e	0.118328795
112	0xbea84f0d	-0.3287281
113	0xbdd52814	-0.10408035
114	0xbe28a493	-0.1646903
115	0xbb95c5e9	-0.004570712
116	0xbd8ebfa8	-0.06970149
117	0xbdf2451b	-0.11829587
118	0xbbdf3768	-0.006812025
119	0xbdd5bc3c	-0.104362935
120	0xbe6e4489	-0.23268332
121	0x3cda0e18	0.026618049
122	0xbc6858cd	-0.014181328
123	0x3da49df9	0.080379434
124	0x3d50e53c	0.050999865
125	0xbdb5a88b	-0.08870038
126	0x3e49b35a	0.19697323
127	0xbea91add	-0.33028308

fc2.weight f4 [128, 128]
0	0xbead91c3	-0.3390027
1	0x3d86dd72	0.06585206
2	0xbe2d1e0f	-0.16905998
3	0xbd9396c2	-0.07206489
4	0x3f2b0e5c	0.66818786
5	0xbd0cc82b	-0.034370583
6	0xbe6d570a	-0.23177734
7	0xbea58b69	-0.32332924
8	0xbbb42c35	-0.005498434
9	0xbee20d58	-0.44150805
10	0x3e98bcd8	0.29831576
11	0xbdd16203	-0.102237724
12	0xbf57fb07	-0.8436741
13	0xbe736a2a	-0.23770967
14	0xbc3e2e7d	-0.011607763
15	0xbe87b97a	-0.26508695
16	0x3d6abbeb	0.05730812
17	0xbd3ad9e8	-0.045617968
18	0xbe6fe80b	-0.23428361
19	0xbe71088e	-0.2353842
20	0xbf70efa5	-0.9411567
21	0xbbf6c85a	-0.007531208
22	0xbd06f757	-0.032950725
23	0x3e0dcc3a	0.13847438
24	0xbe9eb6d5	-0.30998865
25	0x3dae00e2	0.08496262
26	0x3cf8d1d4	0.030373491
27	0x3e5fe524	0.21864754
28	0xbdd5ee37	-0.104458265
29	0x3dc272cb	0.09494551
30	0x3dd9d0a3	0.106354974
31	0xbea39aec	-0.31954134
32	0x3d8d4cc8	0.068994105
33	0xbe31e2c2	-0.17371657
34	0xbf5a10e5	-0.8518203
35	0x3d87b58c	0.06626424
36	0x3e2ee8eb	0.17081039
37	0xbf2562fd	-0.6460417
38	0xbe83ab27	-0.25716516
39	0xbe9c890a	-0.30573303
40	0xbd064c8d	-0.03278785
41	0x3d82c629	0.06385452
42	0x3db5a34f	0.08869039
43	0xbd610dc6	-0.054944776
44	0x3e035a44	0.12827402
45	0xbd854a0c	-0.06508264
46	0xbeb561c4	-0.35426152
47	0xbda8c902	-0.08241464
48	0xbdb3c432	-0.08777656
49	0xbadb0ecc	-0.0016712784
50	0xbe9cd429	-0.30630615
51	0x3e25d223	0.16193442
52	0x3d6bd928	0.057580143
53	0x3e42c9d2	0.19022301
54	0xbeed3567	-0.46329805
55	0xbf04f5ec	-0.51937747
56	0x3e8e56e6	0.27800673
57	0xbe462731	-0.19350888
58	0xbdce87c6	-0.100844905
59	0xbe8daea1	-0.27672294
60	0x3d593540	0.0530293
61	0x3eb40312	0.35158592
62	0xbd677ce1	-0.05651558
63	0x3d8afeec	0.06786904
64	0x3e9917d8	0.29901004
65	0x3e5a1d75	0.213003
66	0xbd45ce6f	-0.048292574
67	0xbe6f8098	-0.23388898
68	0x3cd60c75	0.026128987
69	0xbe0a0554	-0.13478595
70	0xbdfe9b79	-0.12431998
71	0xbd197219	-0.037462328
72	0x3e24f4e8	0.1610905
73	0xbee58771	-0.44829896
74	0x3e0562bb	0.13025944
75	0x3e3f70aa	0.18695322
76	0xbe50717d	-0.20355792
77	0x3e476158	0.19470727
78	0xbecbcb51	-0.39803556
79	0xbe8f8b08	-0.2803576
80	0x3e2faa35	0.17154773
81	0xbd799898	-0.06093654
82	0xbddd1bde	-0.10796331
83	0xbf327d2f	-0.69722265
84	0xbea1c26d	-0.31593648
85	0xbe25e826	-0.16201839
86	0xbe08d4e8	-0.13362467
87	0x3c550227	0.013001001
88	0x3e1a1301	0.15046312
89	0xbe2d13fd	-0.16902156
90	0x3ddc00e2	0.10742356
91	0x3e3a63bb	0.18202107
92	0xbdbbb779	-0.09165854
93	0xbe5d12e5	-0.21589239
94	0xbdb923a3	-0.0904
95	0xbecdf047	-0.4022238
96	0x3c741b38	0.014899068
97	0xbe88d231	-0.26722863
98	0xbf221843	-0.6331827
99	0xbf0cd777	-0.55016273
100	0x3d98cc23	0.07460811
101	0xbcb65d1e	-0.022261199
102	0xbe406f24	-0.18792397
103	0x3dffa746	0.12483077
104	0xbdb41cb2	-0.08794536
105	0xbe22f114	-0.15912277
106	0xbe6bf419	-0.23042335
107	0x3e336b47	0.17521392
108	0x3dadc755	0.08485285
109	0xbe395f7a	-0.18102828
110	0xbdeb4fbd	-0.11489818
111	0xbeb9ec05	-0.3631288
112	0xbc9c9c57	-0.019117517
113	0xbe042ca2	-0.12907651
114	0x3c0ae39e	0.00847712
115	0xbe65cf92	-0.22442463
116	0xbe5a5cd7	-0.21324478
117	0x3dfb7dc1	0.12279845
118	0x3e92af24	0.28649247
119	0xbdb4ed55	-0.0883433
120	0x3b84969d	0.004046275
121	0x3dc3f20c	0.09567651
122	0xbda3c90b	-0.0799733
123	0xbd813552	-0.06308998
124	0x3e2acb7e	0.16679189
125	0x3d0a42a6	0.033754967
126	0xbe434d74	-0.19072515
127	0xbdf552aa	-0.119786575
128	0xbcbb59b1	-0.022869917
129	0x3e73992c	0.23788899
130	0x3de19da0	0.11016393
131	0x3e0a0a13	0.13480406
132	0xbcf0908e	-0.029365804
133	0x3da6a75a	0.081373885
134	0x3d949eca	0.07256849
135	0xbedeb0c5	-0.4349424
136	0xbf0a9b90	-0.5414362
137	0x3e36bdeb	0.17845885
138	0x3e208057	0.15673958
139	0x3d504502	0.05084706
140	0xbd87a0ee	-0.06622492
141	0x3da7059c	0.08155367
142	0xbe789fac	-0.2427966
143	0xbd92a42e	-0.07160221
144	0xbd706fbf	-0.05870032
145	0xbe110bd1	-0.14164664
146	0x3ea06df5	0.3133389
147	0x3e7f546c	0.24934548
148	0x3e7ca0b8	0.24670684
149	0xbdf35e3e	-0.1188321
150	0xbd5937f7	-0.053031888
151	0xbdbb600b	-0.09149178
152	0x3e323651	0.17403533
153	0xbe6c4ad8	-0.23075426
154	0x3ec14115	0.37744966
155	0xbdec5cb1	-0.11541117
156	0xbd8d5159	-0.069002815
157	0x3e591ccd	0.21202393
158	0xbf2a867a	-0.66611445
159	0x3e8a873e	0.27056307
160	0x3e123473	0.1427782
161	0xbe23c1fa	-0.15991965
162	0xbfc8326d	-1.5640389
163	0xbeaa225d	-0.33229342
164	0xbef88bba	-0.48544103
165	0xbd372f34	-0.04472275
166	0x3c6058fe	0.013693092
167	0xbfa202e3	-1.2657131
168	0x3ea6e6ae	0.3259787
169	0xbecd6010	-0.40112352
170	0xbf1dd97d	-0.61659986
171	0x3d414510	0.047185004
172	0x3efa2f90	0.48864412
173	0xbe2f49b3	-0.17117958
174	0xbe408064	-0.18798977
175	0xbdac3eb2	-0.08410396
176	0x3eafdf7a	0.34350187
177	0xbf182815	-0.5943616
178	0x3ce33f84	0.027740248
179	0xbed9103b	-0.42395195
180	0xbf181367	-0.59404606
181	0xbf11ba18	-0.5692458
182	0xbec92014	-0.39282286
183	0x3e1ae65a	0.15126935
184	0xbd1ad886	-0.03780415
185	0x3da820bf	0.08209371
186	0x3dd09f0b	0.10186585
187	0x3c507094	0.012722153
188	0xbf26918e	-0.6506585
189	0xbf2acc12	-0.66717637
190	0x3e59da7e	0.21274754
191	0xbe1daaf9	-0.15397252
192	0x3e20c9be	0.15701959
193	0xbf29d133	-0.6633484
194	0xbeb59fba	-0.35473424
195	0xbdea6353	-0.11444726
196	0xbf1cd913	-0.6126873
197	0x3d4beede	0.04978835
198	0xbe036210	-0.12830377
199	0xbf3c6e9e	-0.7360629
200	0x3e487726	0.19576702
201	0xbf45c27d	-0.7724989
202	0xba82d84b	-0.0009982673
203	0x3dff4d85	0.124659576
204	0xbf037b54	-0.5136006
205	0xbb49a350	-0.0030767508
206	0x3e669f81	0.22521783
207	0xbdafa8fe	-0.085771546
208	0xbf1a467b	-0.60263795
209	0x3e71ef4a	0.23626438
210	0x3dae92a1	0.08524061
211	0x3f0f8af7	0.5607142
212	0x3d0d1111	0.034440104
213	0xbf42f306	-0.76152074
214	0x3e4e4184	0.2014218
215	0x3e09f568	0.13472521
216	0x3e8e685d	0.27813998
217	0xbed28073	-0.41113624
218	0xbe2d73d7	-0.1693872
219	0x3d5f933e	0.05458378
220	0xbe1fe3fb	-0.15614311
221	0xbe644ac0	-0.2229414
222	0xbd15c26d	-0.036562372
223	0x3e360a6c	0.17777413
224	0xbc4566be	-0.012048421
225	0x3dcff8aa	0.10154851
226	0x3dd0f4a5	0.10202912
227	0x3ea93837	0.330507
228	0xbf4cb978	-0.799705
229	0x3e75ca01	0.2400284
230	0xbf1035a5	-0.56331855
231	0x3e8c3fc7	0.27392408
232	0x3ece250b	0.40262637
233	0x3e70397f	0.23459433
234	0xbf534c8d	-0.8253868
235	0xbe2e8742	-0.17043784
236	0x3ea9bb6f	0.33150813
237	0xbf29b5a1	-0.6629277
238	0xbe54b765	-0.20773084
239	0x3c2fa6c8	0.010720916
240	0xbe43ca1a	-0.19120064
241	0xbd6768b0	-0.056496322
242	0x3ea6ea7f	0.3260078
243	0x3e30ed8a	0.17278114
244	0xbddc45ad	-0.10755477
245	0x3e5b0d06	0.21391687
246	0x3ec561d1	0.3855119
247	0xbd2a30e8	-0.041550547
248	0xbed335cd	-0.41251984
249	0x3e363201	0.17792512
250	0x3e3842e3	0.17994265
251	0xbea5fa15	-0.3241736
252	0xbe90ecaf	-0.28305575
253	0xbf429f6a	-0.76024497
254	0xbe6d417b	-0.2316951
255	0xbf82363d	-1.0172802

fc2.bias f4 [128]
0	0x3db6e202	0.08929826
1	0x3d89c3f5	0.06726829
2	0xbd92ef0f	-0.07174503
3	0xbc031f78	-0.008003108
4	0xbd831b45	-0.064016856
5	0x3d00d60a	0.031454124
6	0x3c7c8454	0.015412409
7	0xbc49fba8	-0.012328066
8	0x3da3fdb0	0.080073714
9	0xbe16ac73	-0.14714222
10	0xbb9345c7	-0.004494402
11	0x3e72f207	0.23725139
12	0x3c4bef32	0.012447165
13	0xbd46b5b7	-0.04851314
14	0xbe615c0e	-0.22007772
15	0xbe113df3	-0.14183788
16	0x3da332f2	0.079687014
17	0xbc93c3f5	-0.018037776
18	0xbda0b468	-0.0784691
19	0xbe8b4f7e	-0.27209085
20	0x3ead3674	0.33830607
21	0x3d37a770	0.044837415
22	0xbe056836	-0.13028035
23	0x3e051278	0.12995327
24	0x3e2958e9	0.16537823
25	0xbcf4e658	-0.029894993
26	0x3ba6709d	0.0050793425
27	0xbd361657	-0.0444549
28	0xbe46fcf9	-0.19432439
29	0x3dbf1d03	0.093317054
30	0xbc125dc4	-0.008933488
31	0xbd36a11c	-0.04458724
32	0x3e371be1	0.17881729
33	0xbddaae5c	-0.10677788
34	0xbdf984b6	-0.12183516
35	0x3d98ac6b	0.07454761
36	0x3daf812f	0.08569562
37	0x3e6c6d63	0.23088603
38	0xbd2bc25d	-0.041933406
39	0xbee3ece0	-0.4451666
40	0xbd7e1a6d	-0.06203692
41	0x3e8301ba	0.25587255
42	0x3e651a2b	0.22373264
43	0xbdef2da7	-0.11678629
44	0xbe8b12ab	-0.2716268
45	0xbc12f470	-0.008969411
46	0x3d45c5e2	0.04828442
47	0x3d98eab1	0.07466639
48	0xbe79ac6a	-0.24382177
49	0x3c8e3aed	0.017362082
50	0xbdaf0485	-0.08545784
51	0xbd32020e	-0.04345899
52	0x3e1bc864	0.15213162
53	0xbe52a1b5	-0.20569499
54	0xbd6329ac	-0.055459663
55	0x3c0f4a3a	0.008745724
56	0x3d3c5f7a	0.04598949
57	0x3e220f02	0.15826038
58	0xbbd2236e	-0.006412915
59	0x3d741588	0.059590846
60	0x3d32780b	0.043571513
61	0x3d551e92	0.052031107
62	0x3da40bf1	0.0801009
63	0x3d62e067	0.055389788
64	0x3df90747	0.12159591
65	0xbdcc6a11	-0.09981168
66	0x3e179155	0.14801534
67	0x3c8c9182	0.017159227
68	0x3e5c944f	0.2154095
69	0xbd151f51	-0.03640682
70	0xbe583dff	-0.211174
71	0x3d849312	0.06473364
72	0x3da78281	0.081791885
73	0x3e033479	0.12812985
74	0x3e061bb1	0.13096501
75	0xbb1751b0	-0.002308946
76	0xbd0625c9	-0.03275088
77	0xbd8fc1fc	-0.070194215
78	0xbeb308bb	-0.34967598
79	0xbcdb60f7	-0.026779635
80	0xbdba7332	-0.09104003
81	0x3d9df191	0.07712091
82	0x3da3baaf	0.079945914
83	0xbdf13116	-0.117769405
84	0xbdf03837	-0.11729472
85	0xbdb7d6fa	-0.089765504
86	0x3c187e63	0.009307477
87	0x3e2d83a9	0.16944756
88	0xbda979f3	-0.08275213
89	0xbd9ce3a9	-0.0766061
90	0xbe049d35	-0.12950595
91	0x3deb5cbc	0.11492297
92	0x3e52c37d	0.20582385
93	0xbda1c1d4	-0.07898298
94	0x3d57cecd	0.052687455
95	0xbbf89995	-0.007586668
96	0xbd3fc7cd	-0.046821404
97	0x3d0ffb00	0.03515148
98	0x3ddaf4e3	0.1069124
99	0xbd459104	-0.048234
100	0x3dc41e04	0.095760375
101	0x3e138234	0.14405137
102	0xbda5b41f	-0.08090996
103	0x3e0d5fac	0.13806027
104	0xbc013f9e	-0.007888703
105	0x3c8d1487	0.017221702
106	0xbe54ac44	-0.20768839
107	0x3d557583	0.05211402
108	0x3d1de0e6	0.038544558
109	0x3abcf58c	0.001441644
110	0x3d946bbc	0.07247111
111	0xbe1c4c34	-0.15263444
112	0x3dd2ec37	0.10298961
113	0x3e4fb3de	0.20283458
114	0x3e532a53	0.20621614
115	0xbc231ccd	-0.009955597
116	0x3d139f71	0.036040727
117	0x3e893b5e	0.26803106
118	0x3db274b5	0.08713666
119	0xbd7aa306	-0.061190628
120	0xbe94f0dc	-0.2909001
121	0x3d40ce4f	0.04707175
122	0xbd0c6e4c	-0.034284875
123	0xbbabc9c3	-0.0052425577
124	0x3e63e62f	0.22255777
125	0x3e4f78e1	0.20260955
126	0x3e905b01	0.2819443
127	0xbe02cb63	-0.12772898

dist.fc_mean.weight f4 [4, 128]
0	0xbb9b606b	-0.0047417185
1	0xbad7ae1b	-0.0016455086
2	0x3cd736b5	0.026271204
3	0xb82a5a3f	-4.0615207e-05
4	0xbd70d564	-0.058797255
5	0x3c645633	0.013936567
6	0xbb3d9586	-0.0028928234
7	0x3c9b4d21	0.018957676
8	0x3bae32cc	0.005316114
9	0x3e1fc08e	0.15600798
10	0x3b6bebe7	0.0035998763
11	0xbbd30b5c	-0.006440563
12	0xbea67169	-0.325084
13	0xbb84089c	-0.0040293466
14	0x3f5ad488	0.85480547
15	0x3a89c8b5	0.0010512086
16	0xbac98e0e	-0.0015377419
17	0xbca6c922	-0.02035958
18	0xbc016e70	-0.0078998655
19	0x3ed27191	0.4110227
20	0xbb0462a9	-0.0020200408
21	0x3f3ed66e	0.74545944
22	0x3bf803c6	0.007568809
23	0xbc83d575	-0.016092995
24	0xbc392885	-0.0113011645
25	0xbc3652ea	-0.011128167
26	0xbc1d9ebe	-0.009620367
27	0x3c9b1851	0.018932493
28	0xbc45a80f	-0.012063994
29	0x3c1cb8f3	0.00956558
30	0xbc323e4b	-0.01087911
31	0xbc9fb6d9	-0.019496368
32	0xbd0e190a	-0.034691848
33	0x3d38ebaf	0.04514664
34	0x3921720f	0.00015396647
35	0x3ebf581b	0.37371907
36	0x3a6753a2	0.0008824413
37	0x3b9d9008	0.0048084296
38	0x3c3fff83	0.011718634
39	0xbe7e443f	-0.24830721
40	0xbb300756	-0.0026859841
41	0xbaacf802	-0.0013196471
42	0xbb03105a	-0.001999876
43	0x3be55f38	0.0069998764
44	0x3f380dfa	0.71896327
45	0xbd61c186	-0.0551162
46	0xbe880a5e	-0.2657041
47	0xbc99a1ca	-0.018753905
48	0x3c38de17	0.011283419
49	0x3b494662	0.0030712117
50	0x3ed0ea2f	0.40803668
51	0xbe99c70e	-0.3003468
52	0xbb9c8e52	-0.004777708
53	0x3b7e7f24	0.0038833106
54	0xbc9ecb5e	-0.019384082
55	0xbd08563d	-0.03328537
56	0x3b069ef8	0.002054153
57	0xbb034ca3	-0.0020034693
58	0x3c97f670	0.018550128
59	0x3a16bc3b	0.00057500944
60	0x3f993672	1.196974
61	0x3be5a1c4	0.0070078094
62	0x39e1133e	0.0004292968
63	0xbb60754f	-0.003424961
64	0xbcb454e4	-0.022013135
65	0xbf3e998b	-0.7445304
66	0x3bb55c00	0.005534649
67	0xbb04d633	-0.0020269274
68	0xba85d6e8	-0.0010211142
69	0x3a6339c3	0.000866797
70	0x3c1de9a2	0.009638222
71	0x3e8d598d	0.27607384
72	0x3c03a003	0.008033755
73	0xbb29c345	-0.0025903743
74	0x3b80b7db	0.0039281673
75	0xbbd26f8b	-0.0064219884
76	0xbc5eb37e	-0.013592599
77	0x3aa7eb59	0.0012811228
78	0xbad03fd0	-0.0015888158
79	0x3c4dcbbf	0.012560784
80	0xbd873548	-0.066019595
81	0xbb15993b	-0.0022826928
82	0x39ee5572	0.0004545856
83	0xbbb523b5	-0.0055279383
84	0xbcddf05a	-0.027092148
85	0x3c71e6d9	0.014764511
86	0x395d2b44	0.0002109232
87	0xb9b95048	-0.00035345764
88	0x3c6d41fe	0.014481066
89	0x3c813a95	0.015775004
90	0xbdc2b883	-0.09507849
91	0xbad14f97	-0.0015969154
92	0x3b96537e	0.0045875898
93	0xbda2d313	-0.079504155
94	0xbf68cc32	-0.9093658
95	0xbb3855c5	-0.0028127294
96	0xbdf77e76	-0.120846674
97	0x3a9883f9	0.0011636011
98	0xbc0a4bbd	-0.008440909
99	0xbc3e868d	-0.011628759
100	0x3ceeb001	0.02913666
101	0xb9bd65e3	-0.000361248
102	0xbd084ece	-0.03327828
103	0x3c6c1a3c	0.014410552
104	0xbd80adc0	-0.0628314
105	0x3c2080ad	0.009796304
106	0x3a68ea0f	0.0008884975
107	0xbb384a96	-0.0028120629
108	0x3c85b973	0.01632378
109	0x3d32891e	0.043587796
110	0xbc5770c4	-0.013149444
111	0x396c7342	0.00022549651
112	0xbb448edb	-0.0029992375
113	0x3c3df638	0.011594348
114	0x398814bb	0.00025955387
115	0x3e10e456	0.14149603
116	0x3f1492bc	0.580364
117	0x3b36ae23	0.002787479
118	0xbb54e639	-0.0032485856
119	0x3f7daa9e	0.99088466
120	0xbc1263f1	-0.008934961
121	0x3b4f934d	0.0031673491
122	0xbda525ec	-0.08063874
123	0xbed181c0	-0.40919304
124	0xbb8a7974	-0.004225904
125	0x3bdaa07f	0.0066719647
126	0x3cce0c03	0.025152212
127	0x3cbafdae	0.022826042
128	0x3b373817	0.0027957016
129	0xbcc53f9d	-0.024078185
130	0xbe216f1b	-0.1576504
131	0x3acbbff4	0.0015544877
132	0x3c44b9d4	0.0120071955
133	0x39c2c60b	0.00037150117
134	0xba37d1e8	-0.00070121745
135	0x3ab7ea84	0.0014031683
136	0xbb947147	-0.0045301053
137	0x3af902d3	0.0018998034
138	0xbaee968e	-0.0018202828
139	0xbaac3938	-0.0013139611
140	0x3b15541b	0.0022785726
141	0xb9a49bb5	-0.00031396528
142	0xbaa27220	-0.0012393631
143	0xb9ad7151	-0.0003308156
144	0xb9461b89	-0.00018893009
145	0xbc19b45d	-0.009381381
146	0xbbc03d36	-0.005866672
147	0xb8b92cad	-8.829809e-05
148	0x38140f8a	3.530042e-05
149	0xba37f752	-0.00070177496
150	0x3da32330	0.07965696
151	0xba61445b	-0.00085932546
152	0xba7c650d	-0.0009628095
153	0xbb88ebe9	-0.0041785133
154	0xbb89579f	-0.0041913535
155	0x3b9be9f2	0.004758113
156	0x3b7a0d0b	0.0038154747
157	0xbb8479b3	-0.004042828
158	0xbb00bfb9	-0.0019645526
159	0x3d0fa302	0.035067566
160	0x3a9f5405	0.0012155777
161	0x3b98c371	0.0046619703
162	0x3beeeff0	0.0072917864
163	0xbbbe6812	-0.005810746
164	0x387682cd	5.8772788e-05
165	0x39a70a86	0.00031860563
166	0x3ae8d62a	0.0017764021
167	0x3b2de642	0.002653495
168	0x3a6f5a71	0.0009130603
169	0x3aae31e2	0.0013290013
170	0x3abadc3f	0.0014256312
171	0xbe31bd9b	-0.17357485
172	0x3df68eef	0.12038981
173	0x3a955f3b	0.0011396179
174	0xbb0d23a8	-0.0021536145
175	0xba84bd37	-0.0010127191
176	0x3bb7b996	0.0056068404
177	0x3b093bd7	0.0020940208
178	0x3a8d9409	0.0010801564
179	0xbca0868f	-0.019595413
180	0xba0425cb	-0.0005041032
181	0x3c73f3f9	0.014889711
182	0xba4c10d4	-0.000778449
183	0xbc7c854e	-0.015412642
184	0xba5cfb00	-0.0008429736
185	0x39b534b2	0.0003456227
186	0xbb9bfcb4	-0.004760349
187	0xbafd4ae8	-0.0019324692
188	0x3a0e8dfc	0.00054380274
189	0xba026ec5	-0.00049756124
190	0xbb095781	-0.0020956697
191	0xbaa234f8	-0.0012375405
192	0x3a195cca	0.00058503135
193	0x37c8ed4c	2.3952358e-05
194	0x3b31f42e	0.00271536
195	0x3b054542	0.002033547
196	0xbae585e3	-0.0017511215
197	0x3aa5d29a	0.0012651265
198	0xba8460d5	-0.0010099659
199	0xbc40f4eb	-0.011777143
200	0x3a641177	0.0008700112
201	0xba2ed963	-0.00066699664
202	0xba6256c6	-0.0008634146
203	0xbaa95445	-0.0012918791
204	0x3b422a50	0.002962727
205	0xbc4f7d60	-0.012664169
206	0xba516133	-0.0007987201
207	0xb9ae462f	-0.00033240157
208	0x3c986008	0.018600479
209	0xbacf54e0	-0.0015818141
210	0x3a5192a7	0.000799457
211	0xbd555ae6	-0.05208864
212	0xbbf19fe1	-0.0073737954
213	0xbc3b84e2	-0.011445256
214	0xb92c822b	-0.0001645169
215	0x3b21ad4e	0.0024669948
216	0x3d96c8cf	0.0736252
217	0xbcc10433	-0.023561573
218	0x3db5656e	0.08857237
219	0x3a8028c0	0.000977777
220	0x3a15d62b	0.00057158124
221	0x3b972794	0.0046128724
222	0xba5fb359	-0.00085335
223	0xbbaf0188	-0.0053407587
224	0xbb8daae0	-0.0043233484
225	0xb97bf71b	-0.0002402928
226	0x3b2fb8c4	0.002681301
227	0xbb153edc	-0.0022773063
228	0x3b2a0586	0.0025943234
229	0xbb9a0bca	-0.0047011124
230	0x3acfc5ac	0.0015851757
231	0x3abf042d	0.0014573388
232	0xbb61e037	-0.0034465918
233	0x3af19eb1	0.0018434135
234	0x3fe544b4	1.7911592
235	0x3a64d95d	0.00087298994
236	0xbb3efce1	-0.0029142427
237	0x3ab02d9c	0.0013441327
238	0xbb02ebe3	-0.0019977025
239	0xbaa0aa00	-0.0012257695
240	0xba1f242a	-0.00060707575
241	0xba2bfb07	-0.00065605383
242	0x3a8f712a	0.001094376
243	0x3ab4c6d0	0.0013792161
244	0x3ab28b4a	0.0013621834
245	0x3a887d55	0.0010413328
246	0xbb2af854	-0.0026087957
247	0x3a592b4d	0.00082843454
248	0xbaea5e04	-0.0017880802
249	0x3a4fc9cf	0.0007926495
250	0xbcc6b2d0	-0.024255186
251	0xbb0fb45d	-0.0021927573
252	0x3aa5f807	0.0012662419
253	0x3809da18	3.286646e-05
254	0x39d14ecb	0.00039922292
255	0x3bd90269	0.0066226018

dist.fc_mean.bias f4 [4]
0	0x3ad3e05a	0.0016164884
1	0xb9ed16a7	-0.0004522104
2	0xbac106f8	-0.0014726808
3	0xba7cd50e	-0.0009644785

dist.fc_logstd.weight f4 [4, 128]
0	0x3f428d1a	0.75996554
1	0xbeface9f	-0.48985764
2	0xbc946730	-0.01811561
3	0xbfb33fd6	-1.4003856
4	0x3e9b69bc	0.30354106
5	0x3ecfb964	0.4057113
6	0xc014dc41	-2.3259432
7	0xbe6723fa	-0.22572318
8	0xbfeebec4	-1.8651967
9	0x40029665	2.0404294
10	0xbd9ae2eb	-0.075628124
11	0x3fc47b8b	1.5350202
12	0xbc871b62	-0.01649255
13	0xc01894dd	-2.384086
14	0xbf67ab9b	-0.90496224
15	0xbf1c219d	-0.6098879
16	0xbfa982be	-1.3243024
17	0xbfafb4fd	-1.3727108
18	0xbf00d171	-0.5031958
19	0x3e2356cf	0.15951084
20	0xc01945dd	-2.394889
21	0xc006062c	-2.0941267
22	0xbd472f0c	-0.04862885
23	0x3efc455f	0.49271676
24	0xbf79b702	-0.9754487
25	0xbf30e6ea	-0.69102347
26	0xbf67e9a0	-0.9059086
27	0xbf928c39	-1.1449043
28	0x3e2b14be	0.16707131
29	0xc0857923	-4.171037
30	0xbf7ba361	-0.9829617
31	0xbd80ca35	-0.06288568
32	0x3ed3ff33	0.4140564
33	0xbf3cea00	-0.73794556
34	0xbfd5ea16	-1.6712062
35	0x3ec56ddb	0.38560376
36	0xc0458401	-3.0861819
37	0x3e66f947	0.2255603
38	0x3f8313f7	1.0240468
39	0xbe613dba	-0.21996203
40	0xc002e564	-2.045251
41	0xbf097ed3	-0.53709143
42	0xbd31d3d8	-0.04341492
43	0xbed4cb48	-0.4156134
44	0xbe91b264	-0.28456414
45	0x405295e8	3.2903996
46	0xc02546b7	-2.582441
47	0xc0165dc8	-2.349474
48	0x3ee2704c	0.442263
49	0x4051664b	3.2718685
50	0xc00a0619	-2.1566222
51	0xbec32154	-0.38111365
52	0xbf42128d	-0.75809556
53	0xbf15310a	-0.5827795
54	0x40696dc4	3.6473246
55	0xbf1f8fdd	-0.6232889
56	0xbe9210c5	-0.2852842
57	0x3fbb6986	1.4641578
58	0x3eaa343f	0.33242986
59	0xc03e23a2	-2.9709249
60	0x3f21b82c	0.6317165
61	0xbe74319d	-0.23847051
62	0x3f17f762	0.5936185
63	0xc013ead0	-2.3112068
64	0xc08565a2	-4.1686563
65	0x3f721b6c	0.9457309
66	0xbf8726c7	-1.0558709
67	0xbfe8f744	-1.820046
68	0xbfed918b	-1.8560041
69	0xc010bf74	-2.2616854
70	0xbe5318d4	-0.2061494
71	0xbe684568	-0.22682726
72	0x3f2d8785	0.6778491
73	0xbf800772	-1.0002272
74	0xbe4a8a34	-0.19779283
75	0xc01615d6	-2.3450828
76	0xbe062267	-0.13099061
77	0xbe50566e	-0.2034547
78	0xbfac5702	-1.3464053
79	0xc06c52c3	-3.6925514
80	0xbd5cc6be	-0.053900473
81	0xc0209c00	-2.5095215
82	0xbf498a5f	-0.7872676
83	0xbecf45a6	-0.40482825
84	0xbf9a67d8	-1.2062941
85	0x3bebf418	0.007200729
86	0xbfd4d110	-1.6626301
87	0xc004464d	-2.0667908
88	0x3cfbf4e1	0.030756416
89	0xbef01a09	-0.46894863
90	0xbd27b0d7	-0.040940132
91	0xbf5bb8b5	-0.85828716
92	0x3f6f0282	0.933632
93	0xbcc6470c	-0.0242038
94	0x3f8b8b05	1.09018
95	0xbd829b59	-0.063772865
96	0xbe6313cc	-0.2217552
97	0xbd40e444	-0.04709269
98	0xbf8e3039	-1.1108466
99	0xbece997f	-0.40351483
100	0x3c99efeb	0.01879116
101	0xbeebb840	-0.4603901
102	0xbd1a3443	-0.037647497
103	0xbf1afcd0	-0.6054201
104	0xbe90c0c1	-0.2827206
105	0x4003eba8	2.0612583
106	0x3f74a7af	0.95568365
107	0xbfe77c9b	-1.8084902
108	0x3f26e704	0.6519625
109	0xbfb7e631	-1.4367124
110	0xc084ed4d	-4.1539674
111	0xbfbbd18c	-1.4673324
112	0x3ef5254e	0.47880024
113	0x401ee69f	2.482826
114	0xbfdf0eec	-1.7426429
115	0x40148b46	2.3210006
116	0x3ead6646	0.3386709
117	0xbeac87d4	-0.3369738
118	0xc045d410	-3.0910683
119	0xbf08aa40	-0.5338478
120	0xbeeee47c	-0.46658695
121	0xbe6d2729	-0.2315947
122	0xbd8e3479	-0.06943602
123	0x3fad052c	1.3517203
124	0xbfe7ab5f	-1.8099173
125	0xbcc864c6	-0.024462115
126	0xbef4ea01	-0.4783478
127	0xbf025f31	-0.509265
128	0xc02a5210	-2.6612587
129	0x403dbf8e	2.9648166
130	0xbb2bbf5d	-0.002620659
131	0x3f6bbec4	0.9208796
132	0xbecadf08	-0.39623284
133	0xbfd5956f	-1.6686229
134	0xbeb89e24	-0.36058152
135	0xbe97baeb	-0.29634795
136	0xbf97f667	-1.1872071
137	0xbfb89886	-1.4421546
138	0xbd87eced	-0.06636987
139	0xbee9e7b8	-0.456846
140	0xbed67cb9	-0.4189203
141	0xbfaaab75	-1.3333575
142	0xbf6aa7e2	-0.9166242
143	0xbfd70856	-1.6799419
144	0xc02ba40b	-2.6818874
145	0xbf422b7e	-0.75847614
146	0xbf0040ce	-0.50098884
147	0xbff8a9ea	-1.9426854
148	0x4011996b	2.274989
149	0xbfecc571	-1.8497754
150	0xbd340ac7	-0.04395559
151	0xc02e442d	-2.7229111
152	0xc00d3250	-2.2061958
153	0xbec046ee	-0.37554115
154	0xbf76fff1	-0.96484286
155	0xbf665f36	-0.8998903
156	0xbff8caef	-1.943693
157	0xc03956e9	-2.8959296
158	0xbf74e8ea	-0.956679
159	0xbe165fa5	-0.14684923
160	0xbfc5ffc9	-1.5468684
161	0xbf811c3a	-1.0086739
162	0xc0124a49	-2.285784
163	0xbe675589	-0.22591223
164	0xbfafb74f	-1.3727816
165	0xbfdc8ae5	-1.7229887
166	0xc006d4fa	-2.106749
167	0x3d91f6e9	0.071271725
168	0xbf8213bb	-1.0162271
169	0x3ff3c0f8	1.9043264
170	0xbffd19df	-1.977352
171	0xbf22a06c	-0.63526034
172	0x3f1aad98	0.60421133
173	0xbf9944af	-1.1974086
174	0xbf9e02a8	-1.2344561
175	0xbf8c722e	-1.0972345
176	0xbf0ca027	-0.54931873
177	0xbfed4fdd	-1.8539997
178	0xbf75f9ff	-0.9608459
179	0xbe2bb2a3	-0.16767363
180	0xc0065a3f	-2.0992582
181	0xbf9b3123	-1.212437
182	0xbe446bcd	-0.19181748
183	0xbeb92589	-0.3616145
184	0xbfdef955	-1.741984
185	0xbfca992a	-1.5827992
186	0xbf6a9fe7	-0.9165024
187	0xbfa531d1	-1.2905828
188	0xbfaf2666	-1.3683593
189	0xbf78b15d	-0.97145635
190	0xc00d0332	-2.20332
191	0x3e30a6c6	0.17251119
192	0x3f212515	0.6294721
193	0xbfc7d499	-1.5611755
194	0xbfeb5c4f	-1.8387545
195	0xc0088d80	-2.1336365
196	0xbf315a23	-0.6927816
197	0xbfae43e3	-1.3614467
198	0xbf2e5ec6	-0.6811336
199	0x3d7ec984	0.0622039
200	0xbfacf44b	-1.3512052
201	0xbfb5a2c2	-1.4190295
202	0x403d603b	2.9589984
203	0xbf547148	-0.82985353
204	0xc0257aeb	-2.5856273
205	0x3c8b1c80	0.016981363
206	0x3fbdaf69	1.4819156
207	0xbfb03c5f	-1.3768424
208	0xbdf5c982	-0.12001325
209	0x3ef5b532	0.47989804
210	0xbf4c78fa	-0.79872096
211	0xbf6e2179	-0.93019825
212	0xbf27769e	-0.6541537
213	0x3c8b958c	0.017039083
214	0xbfcbbc83	-1.5916904
215	0x3fc582ff	1.5430602
216	0xbc4c01f6	-0.012451639
217	0xbf3bf8ca	-0.73426497
218	0x3d2a976c	0.041648313
219	0xc0043dd2	-2.0662732
220	0xbfdf9334	-1.7466798
221	0xbd9fb8ff	-0.07798957
222	0xbfd0fa1c	-1.6326327
223	0xbe4befef	-0.19915746
224	0x3c2e6d0c	0.010646116
225	0xbffaff74	-1.9609208
226	0x3dc93609	0.098247595
227	0xbe6fe107	-0.23425685
228	0x3f98c08a	1.1933758
229	0x3fe1c829	1.7639209
230	0xbdc33d75	-0.095332064
231	0xbfa72010	-1.305666
232	0xbd7eb954	-0.06218846
233	0xbfa41e45	-1.2821738
234	0x403ac75e	2.9184184
235	0xbfb33a5d	-1.4002186
236	0xc003837c	-2.0549002
237	0x3f566496	0.8374723
238	0xbf119f4a	-0.5688368
239	0x3f3e0980	0.74233246
240	0xbffcad6f	-1.9740428
241	0xbfe77301	-1.8081971
242	0xc00988bc	-2.1489706
243	0xc01a186b	-2.4077404
244	0xbfb5abcf	-1.4193057
245	0x40110d47	2.2664354
246	0xbf6e9447	-0.93195003
247	0xbf84b0e3	-1.0366482
248	0xbee351a2	-0.44398218
249	0xbffaa952	-1.9582922
250	0xbdd60b5c	-0.104513854
251	0xbfe2e3dd	-1.7725788
252	0x3f393b19	0.723558
253	0x3e4e4fc0	0.2014761
254	0xc0012584	-2.0179148
255	0x3eb8a8f8	0.36066413

dist.fc_logstd.bias f4 [4]
0	0xbf5755f0	-0.84115505
1	0xbfe4eb3c	-1.7884288
2	0xbf6d5206	-0.9270328
3	0xbf2ae2c0	-0.66752243

exp_avg f4 [128, 15]
0	0xbdc9b9ea	-0.098499134
1	0x3ebcf81b	0.3690804
2	0xbf652a65	-0.89517814
3	0xbe6eed68	-0.23332751
4	0x3c7f162e	0.015569253
5	0x3f0ff678	0.56235456
6	0x3e1ca690	0.15297914
7	0x3d935d18	0.071954906
8	0x3d5474cc	0.0518692
9	0x3e9f994b	0.3117164
10	0xbdb545ed	-0.08851228
11	0x3e22b483	0.15889172
12	0x00000000	0.0
13	0x00000000	0.0
14	0xbfa68bd5	-1.3011423
15	0xbcbbf095	-0.022941867
16	0x3b1c5897	0.0023856515
17	0x3d4d4aba	0.050120093
18	0x3c98cc9b	0.018652251
19	0x3c6db3b8	0.01450818
20	0x3b6158cb	0.00343852
21	0x3cff96c9	0.03119983
22	0x3d1b5b5f	0.037928935
23	0xbe99afd4	-0.3001696
24	0x3cdaf558	0.026728317
25	0x3c5680ff	0.0130922785
26	0xbe413ecd	-0.18871613
27	0x00000000	0.0
28	0x00000000	0.0
29	0x3d2f2bc0	0.042766333
30	0x3c80013e	0.015625592
31	0x3c69c434	0.01426797
32	0xbb508d14	-0.003182237
33	0x3b18f6cc	0.0023340462
34	0x3d929a45	0.07158331
35	0x3d53ecb7	0.05173942
36	0x3e016eef	0.12639974
37	0xbd970a64	-0.07375029
38	0xbd18ad17	-0.037274446
39	0x3e88c5ae	0.26713318
40	0xbd9b08bd	-0.07570026
41	0x3e09855c	0.13429779
42	0x00000000	0.0
43	0x00000000	0.0
44	0xbcceda43	-0.02525056
45	0xbd804871	-0.06263817
46	0x3e3b8e5a	0.18316022
47	0xc01b9b7e	-2.4313655
48	0xbed6f3e5	-0.41982952
49	0x3daf9545	0.08573393
50	0x3fa2957e	1.2701871
51	0x3e470128	0.19434035
52	0x3ec0afcc	0.37634122
53	0xbea384f8	-0.31937385
54	0x3ed111ca	0.40833884
55	0x3e6aaaa1	0.22916652
56	0x3e71de87	0.23620044
57	0x00000000	0.0
58	0x00000000	0.0
59	0xc04c727c	-3.1944876
60	0xbdfff120	-0.12497163
61	0x3cefa02d	0.029251182
62	0xbfa7ba5a	-1.3103745
63	0xbeb4b562	-0.35294634
64	0x3cf0707f	0.029350517
65	0x3f1230c8	0.57105684
66	0x3e5eb3d0	0.2174828
67	0x3e7a241d	0.24427839
68	0xbe0b92d0	-0.13630223
69	0x3ef4b09a	0.47790986
70	0x3d6cca53	0.05781014
71	0x3daaa620	0.08332467
72	0x00000000	0.0
73	0x00000000	0.0
74	0xbfd6628a	-1.6748822
75	0xbd08d858	-0.033409446
76	0x3b308f46	0.0026940866
77	0x3e02346e	0.12715313
78	0x3d1695c4	0.03676392
79	0x3c836af5	0.016042212
80	0xbcdad276	-0.026711684
81	0x3c258e52	0.010104733
82	0xbc892173	-0.016739583
83	0x3ca92109	0.020645635
84	0x3d3abffa	0.04559324
85	0xbd3eb3ba	-0.04655812
86	0xbadc2e36	-0.001679844
87	0x00000000	0.0
88	0x00000000	0.0
89	0x3e01638a	0.12635627
90	0x3d838a52	0.06422867
91	0xbd78e8e3	-0.060768973
92	0xbd2b7517	-0.041859712
93	0x3d1bf056	0.038071
94	0x3d5c3e60	0.053770423
95	0x3dbc906b	0.09207233
96	0x3c82fd77	0.015990002
97	0x3c82f80b	0.015987417
98	0x3cb42da0	0.021994412
99	0xbcb70d96	-0.022345345
100	0x3b8c1bef	0.004275791
101	0x3bb5c7c4	0.0055474956
102	0x00000000	0.0
103	0x00000000	0.0
104	0xbca032fb	-0.01955556
105	0xbd48711c	-0.048935995
106	0xbcbf07c8	-0.02331914
107	0x3f565653	0.8372547
108	0x3d7c0426	0.061527394
109	0xbe9506fb	-0.29106888
110	0xbeb28617	-0.34867927
111	0xbf0a83c2	-0.54107296
112	0x3e076b33	0.13224487
113	0x3d0ec2e6	0.03485384
114	0xbf3fbdbd	-0.7489889
115	0x3e1a9a78	0.15097988
116	0xbe053b73	-0.1301096
117	0x00000000	0.0
118	0x00000000	0.0
119	0x3f90c331	1.1309568
120	0x3c78872a	0.015168944
121	0xbddb127b	-0.10696884
122	0x3c9f3d99	0.019438552
123	0x3cb30da2	0.021857087
124	0x3e907d3a	0.2822054
125	0x3d1a85b6	0.037725173
126	0x3d1d2c20	0.03837216
127	0x3d58cfc6	0.052932523
128	0xbed901dd	-0.42384234
129	0x39bba1c4	0.00035787944
130	0x3e83c4ac	0.25735986
131	0xbe989b33	-0.29805908
132	0x00000000	0.0
133	0x00000000	0.0
134	0x3e814b97	0.25252983
135	0xbc8dc707	-0.017306818
136	0x3da1698e	0.07881461
137	0xbed86817	-0.42266914
138	0xbdb56d96	-0.088587925
139	0xbd4b1b0c	-0.04958634
140	0x3ea84df0	0.32871962
141	0x3b30837c	0.002693384
142	0x3d9016f0	0.07035625
143	0xbd7f9ed1	-0.06240732
144	0x3dde3076	0.10849087
145	0x3d793a49	0.0608466
146	0x3cad21c0	0.021134257
147	0x00000000	0.0
148	0x00000000	0.0
149	0xbf2d7280	-0.6775284
150	0xbc2b61cc	-0.010460328
151	0xbaa7a0dd	-0.001278903
152	0x3c405f3c	0.011741456
153	0x3cbdbbce	0.023160841
154	0x3c5e7b7f	0.013579248
155	0x3cfa8884	0.030582674
156	0x3bda6445	0.006664785
157	0x3cf2b9a3	0.029629534
158	0xbd909679	-0.070599504
159	0x3ca892bf	0.020577786
160	0x3d65388e	0.055962138
161	0xbd9d02e4	-0.07666567
162	0x00000000	0.0
163	0x00000000	0.0
164	0xbcfaf97e	-0.030636545
165	0x3dc7b1b8	0.09750694
166	0xbe4c2090	-0.19934297
167	0x3ec53d51	0.38523343
168	0xbd66f161	-0.05638254
169	0xbcf1baa3	-0.02950794
170	0xbfaedb2a	-1.3660634
171	0x3cb0867c	0.021548502
172	0x3da2d656	0.079510376
173	0xbeafd888	-0.34344888
174	0x3dcced66	0.10006218
175	0xbd91da86	-0.07121758
176	0xbe13aae3	-0.14420657
177	0x00000000	0.0
178	0x00000000	0.0
179	0x3fa0debb	1.2567972
180	0xbd70bd8c	-0.058774516
181	0x3e8a0e0a	0.26963836
182	0xbf8c4d54	-1.0961099
183	0xbeaae446	-0.33377284
184	0x3db2d25f	0.08731531
185	0x3eafb98f	0.34321257
186	0x3e29a7a8	0.16567862
187	0x3e657b3f	0.22410296
188	0xbe201868	-0.1563431
189	0x3ecc9777	0.39959309
190	0xbd170d4d	-0.03687792
191	0x3def14b4	0.11673871
192	0x00000000	0.0
193	0x00000000	0.0
194	0xbfb72892	-1.4309256
195	0x3d039da0	0.032132745
196	0xbe4e632c	-0.20155019
197	0xbe4fbf53	-0.20287828
198	0xbe603c94	-0.21898109
199	0xbdb66762	-0.089064375
200	0xbe9e8889	-0.30963543
201	0x3c49d01c	0.012317684
202	0x3e05744f	0.1303265
203	0xbe03c41b	-0.12867777
204	0x3dbcd598	0.09220427
205	0xbdaac1b9	-0.08337731
206	0x3c54c523	0.012986454
207	0x00000000	0.0
208	0x00000000	0.0
209	0x3f0559eb	0.5209033
210	0xbc991709	-0.018687742
211	0xbd068129	-0.03283802
212	0x3ddfe0ec	0.10931572
213	0x3d3679bc	0.04454969
214	0xbc3a8228	-0.011383571
215	0xbe1424c4	-0.1446715
216	0xbb210089	-0.002456697
217	0xbcad959d	-0.021189505
218	0x3cc0e117	0.023544831
219	0x3d637283	0.05552913
220	0xbc9d435f	-0.019197164
221	0x3e0ce6f7	0.13759981
222	0x00000000	0.0
223	0x00000000	0.0
224	0x3ebd3f3c	0.36962306
225	0x3c96fedd	0.018432075
226	0xbccf21d9	-0.025284695
227	0x3d8dd4b3	0.06925335
228	0x3c74a0e9	0.014930942
229	0xbdc5f371	-0.096655734
230	0xbc6c066b	-0.014405827
231	0xbc60679a	-0.013696576
232	0xbd56a0c6	-0.05239942
233	0x3dcc5d4f	0.09978735
234	0xbd4f1f0e	-0.050566725
235	0xbd9f3a6c	-0.07774815
236	0x3d4dd720	0.050253987
237	0x00000000	0.0
238	0x00000000	0.0
239	0xbd311b2a	-0.043238796
240	0x3cf32e56	0.02968518
241	0xbe23c116	-0.15991625
242	0x3e3a476d	0.1819131
243	0x3d838a83	0.064229034
244	0xbd904da5	-0.070460595
245	0xbe82ad37	-0.25522777
246	0xbe1a0e00	-0.15044403
247	0x3dd18517	0.10230463
248	0xbc94636c	-0.018113814
249	0xbe8c2743	-0.27373704
250	0x3e63db70	0.22251678
251	0xbc9cc070	-0.01913473
252	0x00000000	0.0
253	0x00000000	0.0
254	0x3e73a357	0.23792778
255	0xbdb4fab9	-0.08836884

exp_avg_sq f4 [128, 15]
0	0x3dfe8b92	0.12428965
1	0x3f81cd3b	1.0140756
2	0x40774734	3.863721
3	0x3ea32261	0.31862167
4	0x3eb44139	0.3520601
5	0x3fcc2606	1.5949104
6	0x3e3b9e1e	0.18322036
7	0x3ebc4796	0.36773366
8	0x3f02d01f	0.5109882
9	0x3f005cf4	0.50141835
10	0x3e516c24	0.20451409
11	0x3feefceb	1.8670934
12	0x00000000	0.0
13	0x00000000	0.0
14	0x40e247a5	7.0712457
15	0x3e59e5a6	0.2127901
16	0x3f9eb203	1.2398075
17	0x3f1052de	0.56376445
18	0x3eb3bf41	0.35106853
19	0x3f1f23b5	0.6216386
20	0x3efe2160	0.49634838
21	0x3e171308	0.14753354
22	0x3ea0408a	0.3129924
23	0x3fb099b0	1.3796902
24	0x3eff66d6	0.49883145
25	0x3eb564d0	0.35428476
26	0x3f954241	1.1660844
27	0x00000000	0.0
28	0x00000000	0.0
29	0x3fedbc54	1.8573098
30	0x3d92ac0f	0.07161724
31	0x3e84c3b4	0.2593056
32	0x401573df	2.3351972
33	0x3e8a868a	0.2705577
34	0x3e3d587e	0.18490788
35	0x3f206c15	0.6266492
36	0x3e10bab2	0.14133719
37	0x3e5ac17a	0.21362868
38	0x3f1bf8dc	0.60926604
39	0x3f0877e1	0.5330792
40	0x3e2bea43	0.16788583
41	0x3f3eb6d9	0.74497753
42	0x00000000	0.0
43	0x00000000	0.0
44	0x40941009	4.6269574
45	0x4276b27b	61.674297
46	0x4401ebc4	519.68384
47	0x4288a335	68.31876
48	0x408d0659	4.407025
49	0x42f83f33	124.123436
50	0x413dc95d	11.861661
51	0x41aca308	21.579605
52	0x40512a8e	3.2682223
53	0x40c1991b	6.0499396
54	0x41722973	15.135119
55	0x40a9d0a3	5.3067183
56	0x41ff23ad	31.89242
57	0x00000000	0.0
58	0x00000000	0.0
59	0x428cc583	70.385765
60	0x41e81447	29.009901
61	0x426c96a0	59.147095
62	0x41a15680	20.167236
63	0x426b80b8	58.8757
64	0x42e90c82	116.52443
65	0x417e6092	15.898577
66	0x41d516ab	26.636068
67	0x3fcbb3e0	1.5914268
68	0x4172781b	15.154323
69	0x42cd5f4a	102.68611
70	0x3f874753	1.0568641
71	0x42a37016	81.71892
72	0x00000000	0.0
73	0x00000000	0.0
74	0x4206a342	33.65943
75	0x3d523cf7	0.05132767
76	0x3de8baac	0.1136373
77	0x3fd276bd	1.6442486
78	0x3dc8442c	0.09778628
79	0x3e22809f	0.15869378
80	0x3f1b82a6	0.6074623
81	0x3cc82ea2	0.024436299
82	0x3de89504	0.113565475
83	0x3e703c76	0.23460564
84	0x3dabf715	0.083967365
85	0x3d890d76	0.066920206
86	0x3f1aaa33	0.60415953
87	0x00000000	0.0
88	0x00000000	0.0
89	0x4034b400	2.8234863
90	0x4228e8fb	42.22752
91	0x433b3fcf	187.24925
92	0x41db0af1	27.380342
93	0x4259c50d	54.442432
94	0x43083e3d	136.24312
95	0x417751c0	15.4574585
96	0x41eb00b9	29.375353
97	0x40082bba	2.1276689
98	0x416f0b43	14.940249
99	0x42bddd2a	94.93196
100	0x40101cbc	2.2517538
101	0x429f1bac	79.55405
102	0x00000000	0.0
103	0x00000000	0.0
104	0x42047120	33.110474
105	0x3ff97976	1.9490192
106	0x3fd03cad	1.6268517
107	0x40af4e74	5.478327
108	0x3fb0b5b5	1.3805453
109	0x4051bb3f	3.2770536
110	0x4032a09e	2.7910533
111	0x3fd1f2ad	1.6402184
112	0x3f91610a	1.1357739
113	0x407ee721	3.982857
114	0x400443f0	2.0666466
115	0x3fd7e3a1	1.6866342
116	0x403a2b65	2.9088986
117	0x00000000	0.0
118	0x00000000	0.0
119	0x411f505b	9.957118
120	0x44220dc4	648.2151
121	0x44a4d9a2	1318.801
122	0x4373887f	243.53319
123	0x44a3de26	1310.9421
124	0x4522194f	2593.5818
125	0x4396ecc9	301.84988
126	0x44141674	592.3508
127	0x41b4b38d	22.587671
128	0x43a0a014	321.2506
129	0x450db82b	2267.5105
130	0x41925efa	18.296375
131	0x44de3ec0	1777.9609
132	0x00000000	0.0
133	0x00000000	0.0
134	0x43bf2ace	382.3344
135	0x44850129	1064.0363
136	0x460bd183	8948.378
137	0x448e4f71	1138.4825
138	0x42923d15	73.1193
139	0x450617fa	2145.4985
140	0x433fd10f	191.81664
141	0x43b984ad	371.03653
142	0x424dabab	51.417645
143	0x42a4db33	82.42812
144	0x4381fb3e	259.96283
145	0x42b200da	89.00166
146	0x440259b6	521.40173
147	0x00000000	0.0
148	0x00000000	0.0
149	0x44864a86	1074.3289
150	0x4082fbdd	4.093245
151	0x40fdd1df	7.931869
152	0x3fca6cc7	1.5814446
153	0x40fdcb71	7.931084
154	0x41757a69	15.342385
155	0x40019c54	2.0251665
156	0x40745492	3.8176618
157	0x3f229228	0.63504267
158	0x402645f7	2.5980203
159	0x41568815	13.408223
160	0x3f128bf5	0.5724481
161	0x414373e2	12.215792
162	0x00000000	0.0
163	0x00000000	0.0
164	0x4055bd74	3.3396883
165	0x411207f9	9.126946
166	0x4195772a	18.683186
167	0x41343f2a	11.265421
168	0x4190a734	18.081642
169	0x420e6342	35.59693
170	0x40e76dd1	7.2321553
171	0x41019b6e	8.100447
172	0x3f618899	0.88099056
173	0x4104ccc1	8.299989
174	0x41f59d9e	30.701962
175	0x3f2324e8	0.6372819
176	0x41e634f8	28.775864
177	0x00000000	0.0
178	0x00000000	0.0
179	0x41ef89fb	29.942373
180	0x4449b7d6	806.87244
181	0x45d3f080	6782.0625
182	0x4458b204	866.7815
183	0x426900f9	58.25095
184	0x44cb73d6	1627.6199
185	0x4312bf9a	146.74844
186	0x438d5535	282.66568
187	0x421e2880	39.53955
188	0x427e7d65	63.622456
189	0x4348f574	200.9588
190	0x4288be3f	68.371574
191	0x43c6ebac	397.8412
192	0x00000000	0.0
193	0x00000000	0.0
194	0x444d979b	822.36884
195	0x435aae94	218.68195
196	0x43df29dc	446.32703
197	0x42a64156	83.12761
198	0x43ddaa0f	443.32858
199	0x445b5036	877.2533
200	0x42ccb863	102.36013
201	0x434803f6	200.01547
202	0x40e7b929	7.2413526
203	0x42db43ba	109.63228
204	0x443ff53d	767.83185
205	0x40b09fff	5.519531
206	0x4416830c	602.0476
207	0x00000000	0.0
208	0x00000000	0.0
209	0x430309a3	131.03764
210	0x3ed63d7e	0.4184379
211	0x3f192e7c	0.59836555
212	0x3ed7f621	0.4217997
213	0x3f0bb688	0.54575396
214	0x3f54106d	0.82837564
215	0x3eb4e7da	0.3533314
216	0x3ea4beef	0.3217692
217	0x3e59a699	0.21254958
218	0x3ea23757	0.31682846
219	0x3f348594	0.70516324
220	0x3e8cf02b	0.27526984
221	0x3f831f80	1.0243988
222	0x00000000	0.0
223	0x00000000	0.0
224	0x3fc4fcea	1.5389683
225	0x3edc17cb	0.42986903
226	0x3f09294e	0.5357865
227	0x3ea3c5b5	0.31986776
228	0x3e1565d4	0.14589626
229	0x3efd55c6	0.49479502
230	0x3e8d9799	0.27654722
231	0x3e440463	0.19142298
232	0x3e337168	0.1752373
233	0x3f436a2a	0.7633387
234	0x3e7a38c2	0.24435714
235	0x3ebabbbd	0.36471358
236	0x3fa6e7fe	1.3039548
237	0x00000000	0.0
238	0x00000000	0.0
239	0x3f38d333	0.72197264
240	0x41613d21	14.077424
241	0x41e6e2a0	28.860657
242	0x40ec4f4b	7.3846793
243	0x41e3d836	28.480572
244	0x425fe1fc	55.970688
245	0x40e23976	7.0695143
246	0x41523363	13.137546
247	0x3f2398b9	0.6390491
248	0x40e6bb95	7.210398
249	0x42479327	49.893703
250	0x3f1741cc	0.59084773
251	0x421a41eb	38.564373
252	0x00000000	0.0
253	0x00000000	0.0
254	0x41459b58	12.350426
255	0x3f8c51bd	1.0962445

exp_avg f4 [128]
0	0x3f84f957	1.0388592
1	0xbd0bdc2e	-0.034145527
2	0x3ca527a6	0.020160507
3	0x40233c27	2.5505464
4	0x3fab2b5f	1.3372611
5	0xbdce9d0e	-0.100885496
6	0x3c7fd00d	0.015613568
7	0xbf6729ac	-0.9029796
8	0xbe4e76d0	-0.20162511
9	0x3f0a7be5	0.540953
10	0x3cc8622a	0.02446087
11	0xbf807129	-1.0034534
12	0x3f923cd2	1.1424811
13	0xbed4f0dc	-0.4159001
14	0xbe97194a	-0.29511482
15	0x3d0d67c3	0.034522783
16	0xbe42869a	-0.18996659
17	0x3e6c2b04	0.23063284
18	0x3e83cc76	0.2574193
19	0x3e415208	0.18878949
20	0xc0f703d5	-7.719218
21	0xbbaa2aa6	-0.0051930724
22	0x3f0e317c	0.5554426
23	0x3d003757	0.031302776
24	0xbd85f9e8	-0.065418065
25	0xbdad91de	-0.084750876
26	0xbd60c7c3	-0.054878008
27	0xc02636a4	-2.597085
28	0xbaa19ee9	-0.0012330684
29	0x3fe9a709	1.82541
30	0x3e08a6ee	0.13344929
31	0xbd3443d9	-0.044010017
32	0x3f0658b3	0.52479094
33	0xbf26459c	-0.64949965
34	0x3dacdea2	0.08440901
35	0xbe9a1203	-0.30091867
36	0xbea24490	-0.31692934
37	0x3eed3899	0.46332243
38	0xbff33256	-1.8999736
39	0x3dd693b2	0.104773894
40	0x3e72795f	0.23679112
41	0xbdccd63f	-0.10001802
42	0x3da17cc8	0.07885128
43	0xbe606285	-0.21912582
44	0x3e06c448	0.13160813
45	0x3f179d7f	0.59224695
46	0x3c806681	0.015673878
47	0xbd9efa56	-0.077625915
48	0xbf7f6318	-0.9976058
49	0xbf973800	-1.1813965
50	0x3e9e1c5a	0.30881006
51	0x3f91ab2f	1.1380366
52	0xbe0a176e	-0.134855
53	0xbe1345ac	-0.14382046
54	0xbee39831	-0.4445205
55	0xbef59b10	-0.47969866
56	0x40132040	2.2988434
57	0x3f8635af	1.0485133
58	0xbd54ee68	-0.051985174
59	0x3e72e4c3	0.23720078
60	0xbe2c889c	-0.16848987
61	0x3fd5ca07	1.6702279
62	0xbe687af0	-0.22703147
63	0x3d835d0f	0.06414234
64	0xbf3eeee2	-0.74583256
65	0x3e68876f	0.22707914
66	0x3d486a16	0.048929296
67	0xbfb19a7b	-1.3875269
68	0xbf34205a	-0.70361865
69	0xbd9627c3	-0.07331803
70	0x3e24f515	0.16109116
71	0xbf83839f	-1.0274543
72	0xbea1a52e	-0.31571335
73	0x3fa84709	1.3146678
74	0xbd92362e	-0.0713924
75	0xbc11e459	-0.00890454
76	0xbe60d37b	-0.21955673
77	0xbe72f3b9	-0.23725785
78	0xbfc14b08	-1.5101023
79	0xbcef1600	-0.029185295
80	0xbf3001b9	-0.6875263
81	0x3d1a0425	0.03760161
82	0xbe24c7c9	-0.16091837
83	0x401c3f3c	2.4413595
84	0x3f16e78e	0.58947074
85	0xbefbd52c	-0.49186075
86	0x3cb8ab7f	0.022542713
87	0xbfa160e6	-1.2607696
88	0xbff3af42	-1.903786
89	0xbf3334fc	-0.7000272
90	0xbddfae10	-0.10921872
91	0xbf0f75a5	-0.56038886
92	0xbddb8cc5	-0.10720209
93	0xbdbe2885	-0.09285072
94	0x3f00b7c1	0.50280386
95	0xc003b5c5	-2.0579693
96	0xbf36d7d7	-0.71423095
97	0xbf0e6788	-0.55626726
98	0x3dfa12fb	0.122106515
99	0xc05b3b4e	-3.4254947
100	0xbe8a68c4	-0.27033055
101	0xbef82499	-0.48465422
102	0x3f2d0eb6	0.6760057
103	0x3e08cca3	0.13359313
104	0xbea3b5d7	-0.3197467
105	0xbf1b24b5	-0.60602885
106	0xbf49b9f2	-0.78799355
107	0xbd6607e2	-0.05615986
108	0x3f9f466b	1.2443365
109	0x3f21ae27	0.6315636
110	0xbe4769e5	-0.1947399
111	0x3e812622	0.25224406
112	0x3e703261	0.23456718
113	0x3f345355	0.70439655
114	0xbf91dce3	-1.1395534
115	0xbf1ca9a9	-0.6119638
116	0x3c6dce53	0.014514524
117	0x3f89c47f	1.0763091
118	0x3ded14b3	0.11576214
119	0xc01f2ee8	-2.487238
120	0x3fcb4c8a	1.5882733
121	0xbe167e42	-0.14696601
122	0x3f9ac97f	1.2092742
123	0xbcb3f8a1	-0.021969141
124	0xbe580a28	-0.21097624
125	0xbde587e8	-0.11207563
126	0x3f9abb3f	1.2088393
127	0x3d7112f0	0.05885595
