ppo/models/behavioral_cloning_agents_drone/bc1/ckpts/002556300.pt (torch_old, 397156 bytes, 26 tensors)

fc1.weight f4 [128, 15]
000000 21 b8 f7 3e 78 b6 1b 3f 5a 0e 54 be 5a 88 87 bc
       0.48382667 0.608253 -0.207086 -0.01654451
000010 22 d7 ef bd 05 46 1b be b8 b5 52 be 0b 5e 8a 3e
       -0.11710955 -0.15163429 -0.20577133 0.27024874
000020 e5 e7 b0 b9 10 c8 3f 3e 5e b1 97 be b7 df 4e be
       -0.0003374211 0.18728662 -0.29627508 -0.20202528
000030 0a 97 7c be c2 1a 2f be d7 27 14 3d 9b 6c 85 bd
       -0.24666992 -0.17100051 0.036170807 -0.065148555
000040 25 5c 0c 3f 5d 25 24 be 11 13 ee be 57 5c e5 3d
       0.548281 -0.16029878 -0.46498922 0.11199253
000050 3b 9b 86 3e d0 88 36 3f fb af c1 3c 68 c7 2d 3e
       0.26290306 0.7130251 0.023643484 0.16970599
000060 22 39 9a be 51 e5 d0 bd 74 e8 86 3d a3 45 75 be
       -0.30121714 -0.10199989 0.06587306 -0.23952346
000070 75 72 26 be c5 e3 56 3e 14 4b 45 3e f6 58 fb 3e
       -0.162546 0.20985325 0.19266921 0.4909131
000080 1b 63 a1 be 43 73 7f 3e c5 66 2e 3d 92 15 b0 be
       -0.31520924 0.24946313 0.042578477 -0.34391457
000090 74 ce 04 bf 5c f6 fa 3d d9 60 48 3e 77 01 65 3e
       -0.5187752 0.122540206 0.19568194 0.2236384
0000a0 d4 01 65 be 15 0e 54 be 40 ed 32 3d 66 dd 76 be
       -0.22363979 -0.20708497 0.04368329 -0.24107894
0000b0 a2 36 95 bc e4 0e f4 3c 64 b5 2d 3e f8 bc 71 3d
       -0.018214528 0.029792257 0.16963726 0.059018105
0000c0 29 09 d5 bd eb 74 82 bd 84 4f 97 3e d9 db 0f 3e
       -0.10402138 -0.063699566 0.29552853 0.14048709
0000d0 df 52 e9 bc 0d 91 09 3d b1 f9 c7 bd 68 d5 d1 bd
       -0.028481899 0.033585597 -0.09764422 -0.10245782
0000e0 c3 e6 da bb c7 fc 4c be bc 3f 37 be aa fe 18 3e
       -0.006680341 -0.20018302 -0.17895406 0.14940897
0000f0 db 79 16 3f b3 18 fe 3e 2f 1a b9 be d1 66 cc 3e
       0.58779687 0.4962822 -0.3615279 0.39922193
000100 3f 31 97 3e 46 6c b5 bd 6b 98 8b bd 7f c3 de bd
       0.2952976 -0.08858542 -0.06816181 -0.10877132
000110 9f af c4 3c c9 5c 08 3f d0 8d d0 3c 2d 15 24 be
       0.024009524 0.5326658 0.025458246 -0.16023703
000120 fc d1 cf 3d 9a 10 5b 3e b4 f0 85 3e 2d 9d 4a bd
       0.10147473 0.21393052 0.26160204 -0.0494663
000130 0a b0 51 3e de 74 5c be b1 ab 86 3d e3 70 73 be
       0.2047731 -0.21528956 0.06575716 -0.23773532
000140 73 47 c2 be 13 9e 35 3e 79 3d 4e 3e 9d 95 cd be
       -0.37945136 0.17736082 0.20140637 -0.40153208
000150 bd 95 3a 3e bd 6a 81 be 8f 7b 93 3d d0 0e f2 bd
       0.18221183 -0.25276747 0.07201301 -0.118192315
000160 98 59 cb 3d c9 85 94 3d 86 33 df bd ab 7f fb 3d
       0.09929198 0.0725208 -0.10898499 0.1228021
000170 a1 f2 0c 3e 15 cc c5 3e 4a b2 6b bf c8 df 0b be
       0.1376443 0.38632265 -0.9206892 -0.13659585
000180 67 04 98 3e 11 d6 a4 3e ae 8a 9a be 17 16 ad be
       0.2969086 0.3219457 -0.3018393 -0.33805916
000190 bc 76 aa 3e b6 17 84 3e fa 90 e6 bd b6 16 85 bd
       0.33293712 0.2579934 -0.11258121 -0.064984724
0001a0 f6 f9 f2 bd 0d dc 11 ba 02 6d 9a bd 6d 0f 18 be
       -0.118640825 -0.0005564101 -0.07540323 -0.14849634
0001b0 8b 68 1e bd c5 6b 10 be 51 40 fc be ed c4 b2 bd
       -0.03867392 -0.14103611 -0.4926782 -0.08728967
0001c0 81 a9 a0 be 80 0d c0 3d 78 9b b8 3e 12 98 d2 be
       -0.3137932 0.09377575 0.36056113 -0.41131645
0001d0 4c 0b e2 bd 40 e2 3e 3c 70 4d 1a 3d b4 fb 11 3e
       -0.11037311 0.011650622 0.037671506 0.14256173
0001e0 c7 5a 90 bd 46 ce 91 be 15 4e a5 bb 7a 38 6c 3f
       -0.070485644 -0.28477687 -0.0050447085 0.92273676
0001f0 44 da 1f bf b6 c0 8f bc 07 43 e0 be 0e 37 08 be
       -0.6244242 -0.017547946 -0.43801138 -0.13302252
000200 92 6d f9 bc ec 8a 1d be 88 68 78 be 5e 52 05 be
       -0.030447755 -0.15385026 -0.24258626 -0.13019702
000210 a6 3e 2c be 10 19 59 bc 2a da a0 3e c8 4b 0e be
       -0.16820773 -0.013250604 0.31416446 -0.13896096
000220 61 da 81 3d 71 e2 28 be 5d d0 be 3d 2a 1a 67 3e
       0.063404806 -0.1649263 0.09317086 0.22568575
000230 41 65 8b 3d 04 37 b5 3e 6a 3b 5a 3e fb a2 5f 3d
       0.06806422 0.35393536 0.21311727 0.05459879
000240 3e 2d ab be 0d 49 c1 bd de 47 48 3e 00 62 db ba
       -0.33432955 -0.094377615 0.19558665 -0.001673758
000250 ba 6a 03 be e9 cb 16 3c 75 94 41 bf 99 6e fb be
       -0.12833682 0.009203889 -0.7561715 -0.49107817
000260 41 36 40 bc 38 c3 68 3e 47 fa 21 bd bf bf 07 bf
       -0.011731685 0.2273072 -0.039545324 -0.53026956
000270 dd 1e 34 be 19 53 b1 be 6e 8e 77 3e 82 33 2f bf
       -0.17589898 -0.3463371 0.24175426 -0.6843797
000280 b3 dc 7a be f0 4f b1 be 64 41 6d be 0b 4a 64 be
       -0.24498253 -0.346313 -0.23169476 -0.2229387
000290 8f 05 4b 3d e5 a5 a2 bd bc d3 cc 3d bb a0 ee bb
       0.049565848 -0.07941798 0.100013226 -0.007282344
0002a0 42 77 98 be 33 75 1e be 41 e3 64 3e 49 ef cf 3a
       -0.29778486 -0.15474395 0.22352315 0.0015864159
0002b0 88 bd c9 bc c3 ef 7e 3c f0 8b 27 bf c8 e1 24 3e
       -0.024626508 0.015560093 -0.654479 0.16101754
0002c0 75 46 8a bd 5a 0e ec bd c4 6c 53 3e 81 78 fc bd
       -0.0675172 -0.11526175 0.2064696 -0.12327672
0002d0 c8 43 80 be a7 42 49 bd 3c 0e 13 3e 30 90 72 3d
       -0.25051713 -0.04913583 0.14360899 0.05921954
0002e0 bd a8 cd 3e ed dc d7 bd b8 44 65 be f6 d3 e0 be
       0.401678 -0.10540185 -0.22389495 -0.43911713
0002f0 b9 f0 b7 bc ea 61 83 3e 4f 62 b1 3e ff 51 e1 bc
       -0.022453653 0.2566064 0.34645316 -0.02750492
000300 bc 7f 3a be 20 ac 3c 3c 02 0f 16 be 0e d5 e1 be
       -0.1821279 0.011515647 -0.14654163 -0.4410786
000310 67 e7 6a be bc b0 bd 3d 73 f3 02 be 4f 02 f4 bd
       -0.22939835 0.09262225 -0.12788181 -0.11914503
000320 a8 11 93 3e e8 67 a8 3f f5 af 03 bf 17 36 05 be
       0.28724408 1.315671 -0.51440364 -0.13008915
000330 a6 6f 2c bc d0 5b ff 3e 49 8a 7a 3c c6 03 5f 3e
       -0.010524666 0.49874735 0.015291759 0.21778783
000340 04 37 bf 3d f0 56 0d 3e 0f 20 7b 3d 51 f4 8a be
       0.09336665 0.13802695 0.06130987 -0.27139524
000350 56 a8 c0 3c 37 bb 22 3d f6 5d b9 3e 6e 2e b9 3d
       0.023517769 0.039729323 0.362045 0.09042059
000360 27 ae dd be 0a 98 0a be 71 7d d2 bc 60 38 5c be
       -0.4329693 -0.13534561 -0.02569458 -0.2150588
000370 cb ab 1d 3e 29 05 b1 3d e0 04 bf 3d 00 8c ef 3b
       0.15397565 0.08643562 0.09327102 0.0073103905
000380 a0 8b 42 bd 46 42 6a 3e 41 d5 86 be c4 63 b9 be
       -0.047496438 0.22876844 -0.26334575 -0.36208928
000390 52 9b 04 bf 0f 2c 0d be 8e dc 14 3e 3f b3 02 3f
       -0.517995 -0.13786338 0.1453726 0.5105476
0003a0 6a 3b af be 40 0f a7 3e 02 71 9a 3e 1a db a0 be
       -0.34225017 0.32628822 0.30164343 -0.3141716
0003b0 9e 3f d3 3d 77 e6 3a be 74 1d e0 bd 86 97 bc 3e
       0.103148684 -0.18251978 -0.10943118 0.36834353
0003c0 f2 de dc 3d 57 b8 15 3f c1 ab ce 3c ae 12 a8 bd
       0.10784711 0.58484405 0.025228383 -0.08206688
0003d0 15 e1 e5 bb 66 76 2e be 9a 08 18 3e 34 8f 1c be
       -0.0070153573 -0.17037353 0.14847031 -0.15289003
0003e0 a0 dc 0a 3e 08 9f 1a bd 8f 18 c2 3d 88 93 db 3d
       0.13560724 -0.03774932 0.094773404 0.10721499
0003f0 3c a2 5a 3e 76 93 9a bd 92 31 15 3e 53 1d ab bc
       0.2135095 -0.07547657 0.14569691 -0.020888006

fc1.bias f4 [128]
000000 dc 26 63 be d5 4d d7 be 50 15 41 be 2f 9d a5 bd
       -0.22182792 -0.4205157 -0.18855786 -0.08086621
000010 03 1b 71 bc 0c a3 3c bd 6d 56 04 be 80 df 09 bb
       -0.014715913 -0.04605393 -0.12923594 -0.0021037757
000020 ff 7c f6 bd b0 db 4c be ca dd ab be 49 48 9f be
       -0.1203556 -0.20005679 -0.3356765 -0.31109837
000030 2f 85 65 bc 11 fa b7 3c 24 84 38 bb 64 f9 8f be
       -0.014008804 0.022458108 -0.0028154934 -0.28119957
000040 fa b6 42 be c6 6b cd bc d4 5c a6 be 9a 63 e5 be
       -0.19015113 -0.025075804 -0.32492697 -0.44802552
000050 da 45 dd bd 02 89 26 bd 24 13 87 be ff 18 14 be
       -0.10804339 -0.040658005 -0.2638179 -0.1446266
000060 f3 a6 28 be 3c a9 1e be c2 cf 05 be 8d 6b 29 3e
       -0.16469936 -0.15494245 -0.13067535 0.16544934
000070 10 6c d6 3d 82 3a 83 be 65 d1 03 be 43 b2 01 3d
       0.1046983 -0.25630575 -0.12872846 0.031664144
000080 89 11 f2 3d 55 a8 35 bd 1a d3 a1 be d7 2b f0 bd
       0.11819751 -0.044349987 -0.3160637 -0.11727112
000090 a7 73 a8 3d 6b 6b ea bd 25 89 eb bd 52 ed c6 bc
       0.08225184 -0.114462696 -0.115007676 -0.024283085
0000a0 99 c0 72 bc e9 c0 ab bd c8 b8 57 be 21 ee 37 3e
       -0.014816427 -0.08386404 -0.21066582 0.17961933
0000b0 b7 0c 15 bc 12 93 ba bd 7f ad ef be a9 d1 3d be
       -0.00909727 -0.09110083 -0.46812055 -0.1853701
0000c0 00 28 88 be c6 ea 76 be b6 84 08 bf 96 04 06 be
       -0.26593018 -0.24112996 -0.533275 -0.13087687
0000d0 80 bf d4 3b 3f c7 be be 95 6c 55 be d8 7f c4 be
       0.006492555 -0.37261388 -0.20842202 -0.38378787
0000e0 eb 63 99 3d c9 67 81 3d d3 9b 5b bd 12 fd 78 be
       0.07489761 0.063186236 -0.053615402 -0.24315289
0000f0 a2 a3 e0 be 21 d5 5f be de dd 4c bd 5f 03 df bd
       -0.43874842 -0.21858646 -0.050016277 -0.10889315
000100 f1 b1 e4 3c 80 10 a7 bd 6b 4a 2f be b2 c0 b6 be
       0.02791688 -0.08157444 -0.17118232 -0.3569389
000110 de da 65 bc f2 07 47 3e 86 69 cf be e1 90 68 be
       -0.014029233 0.19436625 -0.40510195 -0.22711517
000120 45 14 95 be 6a ec 6b be 7f d5 82 be cb 8a c3 bd
       -0.29117027 -0.23039404 -0.2555351 -0.09547957
000130 ee 8a 3c 3c 33 33 54 3d 3a 8a e9 bd c6 5e fb 3d
       0.011507733 0.05180664 -0.11403318 0.12273936
000140 2e fe 8f bd 2f 0b e2 bd 69 55 6c b9 ed 6c 52 bc
       -0.07030903 -0.11037289 -0.00022538532 -0.012843353
000150 41 45 ec 3c fd 11 1f be 4b 2d 25 3d 92 cc cb bc
       0.028841617 -0.15534206 0.040326398 -0.02487782
000160 25 bd 00 be 98 bb 32 3e 22 ef 4f be ad 41 dc 3c
       -0.12572153 0.17454374 -0.20306066 0.026886785
000170 aa 75 7e be e1 5f 2a be 4b 2a df 3d 8f 06 96 bd
       -0.24849573 -0.16638137 0.108967386 -0.0732547
000180 e5 a1 9b bd aa 34 19 3e 74 cb a0 be e1 8d 83 be
       -0.07599238 0.14961496 -0.31405222 -0.25694183
000190 b4 ff 9b be 20 e3 0c be 3d 80 be 3d 0c ec 96 be
       -0.30468524 -0.13758516 0.09301803 -0.29476964
0001a0 c1 78 5d bd 9b 47 41 be fb 9e 23 3e 7b 6d 5e be
       -0.054070238 -0.18874972 0.15978615 -0.21721451
0001b0 db 81 76 be c6 c6 68 3e 51 be 41 be 42 2c 29 3e
       -0.24072973 0.22732076 -0.18920256 0.1652079
0001c0 a1 b9 e7 be ee e4 2a bd 06 94 55 be e4 50 b5 bc
       -0.4525881 -0.04172223 -0.20857248 -0.022133298
0001d0 3e 92 db bd a3 8e 43 be 63 96 24 3e 04 2f 47 be
       -0.10721253 -0.1909738 0.16072993 -0.19451529
0001e0 6c 05 88 be ea 9e 17 be 4a 48 74 bc 32 4d 8b 3e
       -0.26566637 -0.14806715 -0.014909813 0.27207333
0001f0 aa dd 4b be a1 74 d6 bd 30 53 e6 3c a0 3a 8a bd
       -0.19908777 -0.10471464 0.028115839 -0.06749463

fc2.weight f4 [128, 128]
000000 d1 56 77 be 1d 31 d0 3b 6e 99 b0 be a1 ba d4 bd
       -0.24154212 0.006353511 -0.34492058 -0.10387159
000010 8e 1a 3d bd ab 66 dd bf e3 90 07 bc 4a 7e bf 3b
       -0.046167903 -1.7296957 -0.00827429 0.0058439123
000020 c4 a2 ac be 89 7e 5e bd 0e 20 83 bf d1 05 06 bc
       -0.3371793 -0.054319892 -1.0244157 -0.008180098
000030 4f d0 6d bd da e1 38 bf 23 9c 7c be d9 9c 81 be
       -0.058059987 -0.7221962 -0.24668936 -0.25314978
000040 7a a5 0c 3d 80 fa 03 3e 0c 35 e3 bd 27 2b 87 be
       0.0343375 0.12888527 -0.11094102 -0.2640011
000050 03 eb 03 be 25 28 54 be 4d 0d aa 3c e6 fe 04 3f
       -0.12882619 -0.20718439 0.020758295 0.51951444
000060 4f d7 a4 be a0 af d4 3d 64 62 c5 3c 35 98 0c be
       -0.32195517 0.1038506 0.024094768 -0.13729937
000070 d9 ab e3 3d e1 9f 00 3e 4a fe 7f 3e 90 18 6a 3d
       0.11116762 0.12560989 0.24999347 0.05715233
000080 cb 9c 7e be 10 63 16 3e a7 12 7a bd 0f e0 84 3e
       -0.248645 0.14686227 -0.061052945 0.25952193
000090 86 87 b5 be 99 2e ff be 11 34 bc bc cb 54 c2 bc
       -0.3545496 -0.4984024 -0.022974046 -0.023722073
0000a0 a5 a2 8a 3e 10 09 1b be 96 b6 22 3e c7 94 1f be
       0.27077213 -0.15140176 0.15889964 -0.15584098
0000b0 d7 b5 c9 3d 39 51 29 be 13 95 5e bd 02 b2 99 3e
       0.09849136 -0.1653489 -0.054341387 0.30018622
0000c0 23 9f 12 3d 0b 96 33 3d 9a d4 82 3e c4 5f f1 bd
       0.035796296 0.043844264 0.25552827 -0.11785844
0000d0 73 a9 dd be 12 73 bc 3d 21 0b ba bd aa 8f 57 bd
       -0.43293342 0.092016354 -0.09084154 -0.052627243
0000e0 06 e6 af bd 1a ae fb 3d 64 12 aa bd f0 59 87 3c
       -0.08588795 0.122890666 -0.08304289 0.016522378
0000f0 29 2c 6c 3e 56 4d cf bd 36 90 a8 bc 95 d0 c9 be
       0.23063721 -0.101221725 -0.020576578 -0.39416948
000100 e3 5f 49 be 73 63 a8 3e db a2 af 3d 8b 2a 4d 3e
       -0.19665484 0.32888374 0.08575984 0.2003576
000110 0f 56 38 3d 61 b3 1a bf 74 71 93 3e 03 0e a8 be
       0.045003947 -0.6042996 0.28797495 -0.3282319
000120 ba 82 0e bd 54 ad 87 be 83 85 c8 be dd e1 36 3d
       -0.03479264 -0.26499426 -0.3916436 0.044648994
000130 15 f4 99 be 56 c2 58 3d c1 a4 41 3e 3e a8 d8 b9
       -0.30069032 0.05291971 0.18910505 -0.0004132408
000140 6c 22 84 bd 4b 55 85 3d 5b 63 ac be 7d 83 3b 39
       -0.06451878 0.06510409 -0.33669552 0.00017882693
000150 97 11 1c be 3d 6c b5 bd d2 a6 d7 be b9 4f 74 3c
       -0.15241085 -0.088585354 -0.4211946 0.0149115855
000160 78 07 05 3f 19 ef f4 bd 8b a2 20 3e af c2 8a 3e
       0.5196452 -0.11959667 0.15687005 0.27101657
000170 ea f2 bb 3e f6 ef 39 3d 45 7a 2d be e7 df 33 3e
       0.36708766 0.04539486 -0.16941173 0.1756588
000180 12 72 4f 3d d8 d9 23 bf 40 83 5f 3d a8 1a 6f be
       0.050645895 -0.6400428 0.05456853 -0.23350012
000190 c0 f7 75 be 1d f2 05 be 92 9b 59 be 3f f7 16 3e
       -0.2402029 -0.1308064 -0.21250752 0.14742754
0001a0 26 45 02 3e 46 94 b0 3b 3d 3e ca bd 55 50 18 be
       0.1272169 0.0053887693 -0.09875152 -0.14874394
0001b0 82 e1 9d 3d 19 94 6a be 93 a5 db bd 96 c5 f0 bd
       0.07709028 -0.22908057 -0.1072494 -0.117564365
0001c0 a7 11 28 be b8 b1 0f bd 7a 9a 46 be 5a 11 70 3d
       -0.16412984 -0.035081595 -0.19394866 0.058610298
0001d0 97 6c 3a be 0d 40 40 3e d9 71 aa bc 9a df d4 bd
       -0.18205486 0.18774433 -0.02080624 -0.10394211
0001e0 bb 59 53 3d e9 a6 ee bd 73 64 9e be 07 f7 3a bd
       0.051599246 -0.11652929 -0.30936012 -0.04564574
0001f0 97 32 80 3e 1f de 94 3d 19 74 bc bd 82 e1 f9 bd
       0.25038597 0.07268929 -0.09201831 -0.12201215
000200 d3 48 12 3e e8 c2 69 be ff ee 2f 3e 97 41 91 be
       0.14285593 -0.22828257 0.17181014 -0.28370354
000210 c4 7c a6 bc 6b 82 a1 3d d7 a3 64 bf 32 38 7c bd
       -0.020323165 0.078862034 -0.893125 -0.06157703
000220 6f 9a 05 bd 23 8c 8e 3d d0 2c 1c 3e 1a 72 13 be
       -0.032617982 0.06960323 0.1525147 -0.14398995
000230 79 75 85 3d cf c9 0a be 05 1f 6a bd 5a 20 04 3e
       0.06516547 -0.13553546 -0.05715849 0.12902966
000240 69 92 d3 bd 2e b1 6b be cb ec cf 3d df a7 74 3d
       -0.1033066 -0.23016807 0.101525865 0.059730407
000250 da a4 b4 be 0a d8 80 be 64 a6 33 be 76 a1 42 bf
       -0.35282022 -0.25164825 -0.17543942 -0.7602762
000260 2b 5d 21 bd a4 93 07 be 27 c0 64 bc 95 3a 14 3f
       -0.039395493 -0.13239914 -0.013961828 0.5790189
000270 3e 79 0b bd 87 7f 24 3e 27 91 97 be dc 7f 75 bf
       -0.034051172 0.16064273 -0.2960293 -0.9589822
000280 f8 f7 c5 bd 96 51 83 3d 3c 30 85 3e 09 9f 29 3d
       -0.09666437 0.06412046 0.26013362 0.041411433
000290 e7 74 8b be d8 55 4c bf 95 48 43 3d 33 a7 ed 3d
       -0.27237627 -0.7981849 0.04767664 0.11604156
0002a0 ef 1c 0c be 8b f9 7c be 50 f6 b1 be 45 f3 01 be
       -0.13682912 -0.24704568 -0.34758234 -0.12690456
0002b0 dd ce 48 bf 09 4a 08 3e 11 a7 1b be 37 f2 11 3e
       -0.7844065 0.13309492 -0.1520045 0.14252554
0002c0 30 6a a7 3d a7 a0 13 bd 7d d6 c9 bc be 8b 45 bd
       0.081745505 -0.036041882 -0.024638409 -0.04822897
0002d0 6e 81 5d be f5 79 28 3e 68 97 2c bf 24 8a 1b bf
       -0.21631405 0.16452773 -0.6741853 -0.6075766
0002e0 40 d5 21 bf 63 c0 a2 bd f1 9b 81 3e dc a7 0c 3e
       -0.6321602 -0.07946851 0.25314286 0.13735908
0002f0 a5 7b 4e be 93 d7 74 be b4 da 05 be b1 b6 8c be
       -0.20164354 -0.2391036 -0.1307171 -0.27483132
000300 69 b8 c4 3d d2 ae b6 bc 4d b3 12 bd d0 0d 87 bd
       0.09605486 -0.022300158 -0.035815526 -0.065944314
000310 74 b1 cb 3d c7 a3 05 3f fd 41 2c ba 9d 56 78 be
       0.09945956 0.5220303 -0.00065711123 -0.2425179
000320 bb 99 68 3e 35 59 00 3f 30 03 7e 3e 06 b0 de 3e
       0.22714894 0.5013612 0.24805903 0.4349367
000330 55 f8 24 3e 00 36 8a be 77 b9 b5 3e 09 1a 31 3d
       0.16110356 -0.26994324 0.3549306 0.04323772
000340 54 67 48 3e 9d 0f 51 3d b9 fe 4c bd e4 1e bb 3d
       0.19570667 0.05104028 -0.05004761 0.09136751
000350 9b 50 67 bc 19 21 f8 bd 36 24 30 3e 96 0b 9b 3c
       -0.014118339 -0.12115688 0.17201313 0.018926423
000360 d7 c9 04 3d 29 b4 b1 3e 40 16 1a bd 4e e4 0d 3e
       0.032419052 0.34707764 -0.037618876 0.13856623
000370 cf d3 98 3c 9e b0 23 3e 7e 0f 80 3e 5b 7c 42 be
       0.018655686 0.15985343 0.2501182 -0.1899275
000380 19 d6 f3 be 01 af 81 be aa 9d 3b be 8c 8a 59 bc
       -0.4762428 -0.2532883 -0.18321863 -0.013277661
000390 ee d0 62 3e 70 3a cd be eb 81 32 bf bc ca 58 3d
       0.22150013 -0.40083647 -0.6972949 0.052927718
0003a0 36 8f 82 be 94 81 22 3e 5b d5 79 be e3 8e e5 bc
       -0.25499886 0.15869743 -0.24397795 -0.028022235
0003b0 30 70 83 bc f0 5e d2 be e1 82 85 be 1a 52 95 3d
       -0.016044706 -0.41088057 -0.26076415 0.0729105
0003c0 aa 99 d8 3e 94 55 1c 3d a7 63 8c 3e 77 68 d9 3d
       0.42304736 0.03816755 0.2741978 0.10615628
0003d0 06 a7 6c be 30 a0 85 bd 1b b3 16 bf bb e7 dd 3d
       -0.2311059 -0.06524694 -0.58867043 0.10835215
0003e0 ef c2 7f be 94 13 a8 be d1 0f 22 3e b0 a7 90 bf
       -0.24976705 -0.32827437 0.15826346 -1.1301174
0003f0 de 02 13 bd 59 9a 84 3e 00 e3 8c 3e 37 d8 00 3f
       -0.035891406 0.25899008 0.27516937 0.5032992

fc2.bias f4 [128]
000000 90 80 e8 be d6 9d 1c 3d b2 9f 7a bd ec 7d d6 bc
       -0.45410585 0.03823646 -0.061187454 -0.026183091
000010 6e 17 6a bd 8f af 5b 3e 5a af 54 3c a3 21 7e bb
       -0.05715125 0.21453689 0.01298126 -0.0038777373
000020 95 e0 4f 3e c0 66 d4 3d 90 43 fa bb 90 2c 1a 3e
       0.20300515 0.103711605 -0.0076374486 0.15056062
000030 7d c0 03 3e d9 03 54 3d 9d d1 81 bd 3b c0 3f be
       0.12866397 0.051761482 -0.06338809 -0.18725674
000040 ee 9d b2 3c 8b 5e 27 3e 26 c7 3a be fa a2 0a 3d
       0.021803822 0.16344659 -0.18240032 0.033846833
000050 70 67 1f bd a6 6e f4 3c 32 07 16 be e8 61 07 be
       -0.038917005 0.029837918 -0.14651182 -0.13220942
000060 7c 50 9a 3d 59 69 15 be d2 a2 10 3e e8 90 b1 bd
       0.075348824 -0.14590968 0.14124611 -0.08670217
000070 de 54 a8 bd e1 80 6b 3e 3e 46 3b be 8a de 34 bd
       -0.08219312 0.22998382 -0.18288514 -0.044157542
000080 b2 3a bc 3d b0 91 6e 3e 00 65 a6 bd b3 75 14 bd
       0.09190883 0.23297763 -0.08124733 -0.03624506
000090 dc 63 89 3e b2 f1 9b 3e 4d e9 cc bd ed 42 57 3b
       0.26834 0.30457836 -0.10005436 0.0032846287
0000a0 10 d3 b6 bb e0 ab bd 3d 07 c5 09 bc 26 43 55 3e
       -0.00557936 0.09261298 -0.008408791 0.20826396
0000b0 f1 ca c8 3d af ba 50 be 2b c9 95 bd 7d fc 8b 3d
       0.09804333 -0.20383714 -0.0731376 0.06835268
0000c0 76 31 0e bf c4 7f 4b be 80 9d 44 3d e3 02 e0 bd
       -0.5554422 -0.19872957 0.048001766 -0.109380506
0000d0 6e d6 1b be ee d5 8b bd 2a ef 07 be 02 9b 03 3e
       -0.15218517 -0.06827913 -0.13274828 0.128521
0000e0 ca 21 c5 bd 91 26 1f 3e 66 74 a3 be 13 32 36 3e
       -0.096255854 0.15542056 -0.31924742 0.1779254
0000f0 af 6f f9 3d 11 d4 fa 3a ba e2 d2 3d bb 3e 4a 3e
       0.12179505 0.0019136687 0.10297151 0.19750492
000100 51 70 56 3d 39 53 fa bd 90 a3 46 be 4c dd d5 bc
       0.052353207 -0.12222905 -0.19398332 -0.0261065
000110 a0 05 c0 bd 3c 32 37 bd ac 01 43 3e 8c 68 4e bc
       -0.09376073 -0.04472564 0.19043607 -0.012598168
000120 e3 ea 3e 3e e8 14 48 bb bb cb 0b 3e e6 c9 33 bd
       0.1864429 -0.003053004 0.13651936 -0.043893717
000130 ea af ed 3d 38 4e e6 bd 03 30 0b 3e 41 cd 98 bc
       0.116058186 -0.11245388 0.13592534 -0.01865256
000140 47 73 8e bd e1 ef ff bd 5f ec 12 3e d9 c1 ad be
       -0.06955581 -0.12496925 0.14347981 -0.33936957
000150 02 d9 be 3c 8f 17 63 bd d8 e9 58 3d a8 99 da bb
       0.023296837 -0.05544239 0.052957386 -0.0066711493
000160 2d c4 30 be ca e9 ed bd a2 a0 00 bd 30 d2 8b bc
       -0.17262335 -0.11616857 -0.03140319 -0.017067999
000170 e6 ec 18 3e 90 57 07 be 03 50 14 3d bb 33 5c bc
       0.1493412 -0.13216996 0.036209118 -0.013440068
000180 ab 93 e7 be ab fa c3 3c f6 a2 ab bd 67 61 b5 3c
       -0.4522985 0.023923239 -0.08380692 0.022141172
000190 f5 38 d0 be e4 a4 b7 3c 97 2a c8 bd f7 70 c8 3d
       -0.40668455 0.022417493 -0.09773748 0.09787171
0001a0 78 6d 5f 3e 12 93 73 3d d2 1e c0 3b 5f 43 39 3d
       0.21819103 0.05946643 0.005863049 0.045230266
0001b0 83 e9 59 3d 7f 32 14 3e c7 fc d6 bd 03 dc ab be
       0.05320121 0.14472388 -0.10497432 -0.33566293
0001c0 00 18 9f 3d 81 a4 6e 3c a9 c2 11 3d 31 1e 28 3e
       0.077682495 0.014565588 0.035586033 0.16417767
0001d0 9a 6f 61 bd 7a fa cb be a2 83 85 3e ea 29 78 bb
       -0.055038072 -0.39839536 0.2607699 -0.003786678
0001e0 23 89 0d bf b0 73 be bd 9e 09 75 be bc 17 47 3d
       -0.5528738 -0.092994094 -0.2392945 0.04860662
0001f0 05 c5 72 3e 0d 1f 53 bd 05 e3 aa 3e 59 37 ff 3c
       0.2370797 -0.051543284 0.33376327 0.031154322

dist.fc_mean.weight f4 [4, 128]
000000 14 9d f2 bb 6a b5 7a 3a 7e 9b 6b bc 38 cf 68 ba
       -0.007403979 0.0009563776 -0.014380334 -0.00088809757
000010 b6 75 0d ba cb ed 3f b8 2d 47 31 3b 01 ee db bb
       -0.00053962634 -4.575941e-05 0.002705048 -0.006711722
000020 4d 07 c9 ba 8d 9e fd ba 72 c6 9d 3d e4 35 a0 ba
       -0.0015337259 -0.001934962 0.07703866 -0.0012223092
000030 66 de 7f 3b 40 41 70 b8 5d 06 dd ba 2e fb f8 3b
       0.0039042472 -5.7281228e-05 -0.0016862858 0.0075983023
000040 db 75 ea 39 55 f5 59 3b 78 c8 d6 3b 76 b3 8f ba
       0.00044719767 0.0033257802 0.0065546595 -0.0010963518
000050 03 2c a6 bb 7a 81 fa 3b 3d 93 71 3b 5d b8 9b 3a
       -0.0050711646 0.0076448293 0.0036861442 0.0011880506
000060 e6 e2 4e ba d2 99 fe 3b 8c c4 95 3b cb 50 92 bb
       -0.0007892087 0.0077698017 0.0045705494 -0.0044651977
000070 6e 6c 58 3a d9 5a 01 bb 94 1b 86 bc 58 51 99 ba
       0.00082559034 -0.0019737987 -0.016370572 -0.0011697216
000080 40 10 13 3a d5 54 36 3b 9f 6c ea 3b 48 6a e0 3b
       0.00056100264 0.002782156 0.007154062 0.006848607
000090 3e 14 55 bc 96 c1 cf 3a 62 0a c2 3d c7 0f 74 b9
       -0.013005314 0.001585054 0.094746366 -0.00023275531
0000a0 3b d9 ba bb e1 e5 db bb 0d 27 c7 bb c4 78 c0 38
       -0.0057021654 -0.0067107533 -0.0060776533 9.177768e-05
0000b0 d7 d5 42 bb fd ef 58 be 3d fd 59 3b ea 2c be 3b
       -0.002972951 -0.21185298 0.0033262514 0.005803694
0000c0 7d ed bf 3e c1 bd 6b 3c c7 de 17 3b 44 9e 4f bf
       0.37485877 0.014388503 0.0023173557 -0.8110087
0000d0 83 3d 19 3c 8c b7 38 bc 53 9b ac ba 0a 22 e2 3a
       0.009353044 -0.01127423 -0.0013168849 0.0017252576
0000e0 1c b7 8d 3b cc 08 3b 3b c4 30 cc bb 30 ca 3c bb
       0.004324807 0.002853918 -0.0062313993 -0.0028807037
0000f0 17 e4 81 3d fe 2f cf b9 ad a4 a1 39 21 6c 0d 3c
       0.06342333 -0.00039517874 0.00030831006 0.008631737
000100 bb 8a a9 3c 28 08 d8 3d 16 28 e1 bc d5 9d 24 3c
       0.020696035 0.10548431 -0.027484935 0.010047396
000110 b9 43 ad 3a 7c 51 11 3d 65 76 5e 39 e4 23 37 bb
       0.0013219035 0.0354781 0.00021215675 -0.0027944976
000120 6d 10 55 ba 33 ac cb 3a 02 c4 46 3b f9 3a 0f bc
       -0.0008127753 0.001553899 0.0030329232 -0.0087420875
000130 bc 59 8f 3b 4c 64 b4 3c cb b0 5c 3a 51 b1 f4 3a
       0.004374711 0.022020482 0.0008418678 0.0018668567
000140 b3 6b 1b bb 85 2c 09 39 2e 11 f2 ba 44 32 98 3a
       -0.0023715317 0.00013081923 -0.0018468255 0.001161166
000150 14 da a1 bd 14 c9 a1 bc 22 1d 9f 39 c5 0e 7a 3b
       -0.07902923 -0.019749202 0.0003034855 0.0038155776
000160 61 fb 5f 3c fa c0 60 bc 59 79 12 3a e0 02 ac bb
       0.013670773 -0.013717884 0.000558754 -0.005249366
000170 81 0f 87 3b 02 fe 40 3a 23 76 a6 bc d0 3a f0 3b
       0.0041217213 0.0007362069 -0.020320004 0.0073312297
000180 94 9e 53 be ad 14 4d bc d5 59 ec b9 ce f6 aa bb
       -0.20665962 -0.0125171365 -0.00045080358 -0.0052174097
000190 11 e0 ba be c2 70 13 ba 9b 6e 1a 3c 8f d6 6f 3c
       -0.36499074 -0.0005624407 0.009425784 0.014638557
0001a0 39 44 e0 3a a6 7f 98 3b e4 0f 11 3b 8d bd 05 bb
       0.0017110176 0.0046538888 0.0022134716 -0.002040717
0001b0 3d b5 e4 ba 7f 97 8d 3a 58 a7 ff bb ae 06 a0 3b
       -0.0017449033 0.0010802596 -0.0078019314 0.004883609
0001c0 ac db 64 bb 21 79 a8 ba 3d f4 a4 bc f5 24 01 3a
       -0.0034920974 -0.0012853482 -0.020135993 0.00049264665
0001d0 52 56 24 ba e9 5e cc be 3d e9 12 3a 9e aa 91 bb
       -0.0006268966 -0.3991616 0.0005604213 -0.004445388
0001e0 23 bb 04 3f 46 84 f1 bc 58 00 80 3b 43 85 ef 3b
       0.5184805 -0.029482018 0.003906291 0.007309587
0001f0 7a 9d 1d 3c f8 44 0d bd bd 29 37 3b 74 4d 28 3f
       0.009620065 -0.0344896 0.0027948462 0.65743184
000200 0b 43 7b be 75 07 0f bc 78 9b 3f be d5 ed 8f ba
       -0.24537294 -0.008729805 -0.1871165 -0.0010980914
000210 d6 33 b8 bb fb a9 97 3a cb 69 de ba 85 b0 18 3a
       -0.0056214137 0.0011571044 -0.0016968785 0.00058246433
000220 c1 32 a9 39 03 ef b2 3a 4e 57 3b 3d 7a 9f 6d ba
       0.00032272007 0.0013651553 0.045737557 -0.00090645964
000230 7c 72 c6 ba 62 cd 43 bb f6 aa 4a 3e de f4 8c 3f
       -0.001514032 -0.0029877056 0.19791779 1.1012228
000240 22 b4 d5 ba 38 37 6b bb 7c b9 30 3b a8 5a 88 ba
       -0.0016304294 -0.0035891067 0.0026966026 -0.0010402994
000250 e8 38 e1 ba c4 f2 c5 3c 27 a9 85 3d 5a 84 c6 bc
       -0.0017183097 0.024163611 0.06526404 -0.024233032
000260 01 95 e6 3a 72 9c ff 3e 35 13 e8 ba c8 b1 76 bf
       0.0017592014 0.49924046 -0.001770592 -0.9636502
000270 3c 29 73 bb 74 55 44 b8 97 d4 4a 3c f7 53 0e bb
       -0.0037103435 -4.6809626e-05 0.012379787 -0.0021717527
000280 43 6a 23 3a 89 1d 83 3b ad 35 8e bb d2 b3 ee bb
       0.0006233791 0.0040013236 -0.0043398947 -0.00728462
000290 9f dd 35 bb 77 7f 68 b9 82 29 f2 bc 98 1b 81 b8
       -0.0027750505 -0.00022172728 -0.029560808 -6.156339e-05
0002a0 a0 7f 6c bc 85 24 4e 3b f3 d2 0f bd 50 cf d8 bb
       -0.014434725 0.0031454873 -0.035113286 -0.0066165105
0002b0 5b 6b c8 ba 42 ee 7c 3b 6d 58 43 3b 6b a5 0f 39
       -0.0015290783 0.003859416 0.0029807345 0.00013699166
0002c0 43 04 f3 3c 05 9a 25 bc b8 70 06 bb 6a 51 54 bb
       0.029665118 -0.010107522 -0.0020513963 -0.003239716
0002d0 9c 0a 7b 3f 1f 3b 0e 3d cc 6b 7f ba d4 b9 56 3b
       0.98063064 0.03472435 -0.0009743541 0.003276457
0002e0 60 46 c6 3b e5 e6 c8 3a 00 bd 32 bc 09 f2 4b b6
       0.00605087 0.0015327601 -0.010909319 -3.039024e-06
0002f0 0f 3f 54 3b 61 f2 a1 ba 1e 36 39 3b 0b 0d 87 bb
       0.0032386219 -0.001235556 0.0028261016 -0.004121428
000300 4d 1e 74 ba c7 b1 a1 3c 0c ab a4 3e 25 a2 ca 3a
       -0.00093123765 0.019738091 0.32161748 0.00154597
000310 49 42 12 3d 8b b8 eb bc 97 f0 37 3c 83 0f 8c 3c
       0.035707746 -0.02877452 0.011226795 0.01709724
000320 c6 fb e0 b6 e1 44 10 bb 78 5a a7 ba c8 b1 0b bd
       -6.7050305e-06 -0.0022013711 -0.0012768051 -0.034105092
000330 4b 7c 4c 3b b3 7e 9c 3b 68 12 13 3b b2 0b 0b bc
       0.0031202014 0.004775846 0.002244139 -0.008486675
000340 4a 68 40 bc c3 55 e1 bb 2d c0 5f 3a 87 89 c2 3d
       -0.011743614 -0.0068766787 0.00085354113 0.094988875
000350 a1 ae 42 bb f5 a8 2b bc ce 68 03 ba 73 a8 67 bb
       -0.0029706138 -0.010477294 -0.00050128705 -0.0035348206
000360 eb fa 05 3c 13 a8 9a 3c 39 69 04 3b 9d 1f 7f 3a
       0.008177499 0.018878972 0.002020432 0.0009732189
000370 a8 2a 5a bb 27 c8 75 3e e5 d5 98 bc fa db 80 bc
       -0.0033289585 0.24002133 -0.01865668 -0.015729893
000380 16 f3 cc 3d 1d 92 51 3b 61 0a 0d 3c 96 25 1a ba
       0.100073025 0.003197796 0.008608432 -0.00058802345
000390 b3 bc 40 be ed 36 72 3b ad 18 a0 3c 84 ea 9f 3a
       -0.18821983 0.0036959008 0.019543016 0.0012200628
0003a0 01 8a 80 3b db a1 0f 3b bf a9 43 3c 66 bd b5 ba
       0.0039227013 0.0021916542 0.011942326 -0.0013865649
0003b0 ae bc 9e ba a6 65 8b b9 fc f6 9f bd c4 aa 84 bc
       -0.0012110674 -0.0002658788 -0.078107804 -0.016194709
0003c0 bb a9 5e bd a1 d6 8d bb 78 57 0d bc f5 ab f2 ba
       -0.054361086 -0.0043285643 -0.008626811 -0.0018514382
0003d0 51 d1 04 3c 5a 19 a6 be 6b ab 87 39 2b 42 93 bb
       0.008106546 -0.32441217 0.00025876923 -0.004493972
0003e0 84 5c b3 bc 31 c9 98 bb fb 5a 11 be ff 50 15 bb
       -0.0218947 -0.0046626558 -0.14194863 -0.0022783873
0003f0 0b bc 31 3a 8a dc 16 3d e1 d6 de b8 bb d7 4d 3c
       0.0006780035 0.036831416 -0.00010625809 0.012563641

dist.fc_mean.bias f4 [4]
000000 ca 7a 3f 3a a5 2a c5 39 4a 4f 63 3a a6 2b 9c 3a
       0.0007304369 0.0003760654 0.0008671178 0.0011914864

dist.fc_logstd.weight f4 [4, 128]
000000 ea b2 19 c0 99 4a 9b be 28 cb d4 bb da 98 37 bf
       -2.401545 -0.3033035 -0.0064939447 -0.7171761
000010 7d 77 0c bf f5 df 27 bf bf 0e 7e 3c 30 d8 a2 bd
       -0.54869825 -0.65576106 0.015506445 -0.07951391
000020 f5 e0 fb bf 51 ea b6 be e9 ea da bd be 6e 01 c0
       -1.9678026 -0.35725644 -0.10689337 -2.0223842
000030 3b ca 98 bf be 96 63 40 d4 91 54 bf 2e ec df be
       -1.1936716 3.5560756 -0.83035016 -0.43734878
000040 aa af c1 3e b2 7e 6c c0 11 d0 28 c0 d0 a7 a9 3e
       0.37829334 -3.6952329 -2.6376994 0.33135843
000050 e9 3a df bf 90 e0 03 be a1 70 cf bc 78 b9 b3 bf
       -1.7439853 -0.12878633 -0.02532226 -1.4040976
000060 17 b7 85 be c3 0f a8 bf 6e 77 cf bf 29 67 90 bf
       -0.2611625 -1.312981 -1.6208322 -1.1281482
000070 54 5a a5 bd da 63 6e c0 bf d8 1a c0 23 b5 6e 3f
       -0.08073869 -3.7248445 -2.4194791 0.9324514
000080 31 37 44 c0 bb 1d de 3f d0 f8 bf bf 13 cd 33 3f
       -3.0658686 1.7352823 -1.4997807 0.70234793
000090 1d fb 78 40 e1 49 b9 bf 4b 42 05 3c 0c 25 11 c0
       3.8903267 -1.4475671 0.008133481 -2.2678862
0000a0 3e 01 16 c0 2c 1d 5c 3f a7 15 28 bf 81 cd 85 bf
       -2.3438258 0.8598201 -0.6565804 -1.045334
0000b0 09 23 2a bf 1a 02 4b 3f 1e b0 88 3f 06 66 79 c0
       -0.6645971 0.7930008 1.0678747 -3.896852
0000c0 dd dc c7 be d3 67 cb bf c3 8d d0 bf 54 7b 1a 3c
       -0.39035693 -1.589106 -1.6293262 0.009428818
0000d0 3b 7d 6c bf e4 8c b5 bd f0 14 38 40 5b d1 dc be
       -0.92378587 -0.088647634 2.876278 -0.43128476
0000e0 07 60 17 c0 ac fa 8b 3f 1f fa c4 3f 21 c7 92 c0
       -2.365236 1.0935874 1.5388831 -4.5868077
0000f0 d6 f4 2e 40 24 25 05 be ff 5d 12 c0 86 ee 64 40
       2.7336936 -0.1300245 -2.286987 3.5770583
000100 63 d6 1e bf 1f f2 60 3f a9 36 c6 bf 0b f6 52 be
       -0.6204588 0.8786945 -1.5485431 -0.2060167
000110 cc 7c 40 c0 96 04 37 be d4 57 90 bf c0 a3 97 be
       -3.007617 -0.17872843 -1.1276803 -0.2961712
000120 88 f9 9f bf 56 06 19 bf 8c 8a 04 c0 02 77 d1 bf
       -1.2498026 -0.5977529 -2.0709562 -1.6364443
000130 39 62 a1 bf 3b 4f fb be ac 70 c9 bf 8d 98 eb bf
       -1.26081 -0.49083886 -1.573751 -1.840593
000140 8b 29 20 bf 46 ec 9d 3f cb bb 01 c0 6e a3 1e 3f
       -0.6256339 1.233773 -2.027087 0.61968124
000150 e9 43 50 be 62 85 e0 be 1d c2 05 c0 b3 76 cf be
       -0.20338406 -0.43851763 -2.0899727 -0.40520248
000160 ff c6 09 40 9f cd d3 be e0 49 29 c0 bb 24 31 c0
       2.1527708 -0.41367814 -2.645134 -2.7678668
000170 51 28 84 3b 6c b0 2f c0 1e a8 1f 40 e1 0a 4a be
       0.0040331264 -2.745143 2.494636 -0.19730712
000180 27 73 dd 3e 7f 1f 19 c0 91 88 5f c0 2a 6d bd 3e
       0.43251917 -2.3925474 -3.4927104 0.36997348
000190 d6 35 35 be 3a 4c 25 c0 f4 8a 7a bf b8 dd 08 c0
       -0.17696318 -2.5827775 -0.97868276 -2.1385326
0001a0 1f 6d dc bf 19 ef c5 3e 7d 30 bc 3c 2f 3c b8 3f
       -1.7220801 0.3865898 0.02297234 1.4393367
0001b0 e7 8a ec bd 34 16 50 bf 2f 56 f4 3c cd 04 b3 be
       -0.11549931 -0.8128388 0.029826252 -0.349646
0001c0 9e 71 16 c0 f9 c7 e3 be 77 a8 ab be 12 21 97 c0
       -2.3506846 -0.44488505 -0.33526966 -4.722787
0001d0 b7 92 24 bf 35 bb 17 3f a7 6c 4a 40 00 86 32 40
       -0.6428637 0.5927003 3.1628816 2.7894287
0001e0 7e 6f 61 3f f2 f7 be bf 82 6d 4b 3e ed 53 71 c0
       0.8806075 -1.4919417 0.19865993 -3.7707474
0001f0 7f de 67 3f 5a ac 24 bf 64 5b 1a c0 40 3b 6e bf
       0.9057388 -0.6432549 -2.411828 -0.9305916
000200 6a a3 aa bf 06 dc 97 3f 47 12 42 3b 38 68 91 bf
       -1.333112 1.1864021 0.0029612945 -1.135993
000210 75 26 5c bf 7a 49 17 c0 d9 94 38 be 23 bd 94 be
       -0.8599618 -2.3638597 -0.18025531 -0.2905055
000220 8e fb 7f c0 47 c0 64 bf 9e 61 f8 bd 1d 17 dd 3e
       -3.9997287 -0.8935589 -0.12127994 0.43181697
000230 49 45 6d bf 77 c8 5b bf 80 09 bc 3f da 38 99 bf
       -0.92683846 -0.8585276 1.4690399 -1.1970475
000240 57 df 8b bf ab f4 eb be dd 6c 56 c0 45 69 1b c0
       -1.0927533 -0.46085104 -3.3503945 -2.4283001
000250 dc ea 0a be cf b1 ad bd d5 45 b5 bd 28 a5 39 be
       -0.13566154 -0.0848118 -0.0885121 -0.18129408
000260 21 b0 f4 bf fa 03 b3 be 00 77 04 c0 6b 6b b0 be
       -1.911625 -0.3496397 -2.0697632 -0.34456953
000270 83 93 6b be d0 e7 7b bf 81 fb 57 c0 e9 00 87 c0
       -0.2300549 -0.9840059 -3.3747256 -4.218861
000280 0a 14 da be 35 d8 86 c0 ce b1 14 c0 2c ee 29 c0
       -0.42593414 -4.2138925 -2.3233523 -2.6551619
000290 2b 3a 0c bf 0c 33 55 c0 c0 9a 90 3a 2b 4f 00 c0
       -0.5477626 -3.3312407 0.0011032447 -2.004832
0002a0 d4 98 c0 bf a5 ad 57 c0 02 c7 1c bf a5 cf 4d 40
       -1.504664 -3.3699734 -0.6124116 3.2157986
0002b0 a9 dd 63 be 88 4c 44 c0 a8 99 0c c0 6a 01 ea bf
       -0.22252525 -3.067171 -2.1968784 -1.8281682
0002c0 35 43 30 be 3a f7 b3 bf c0 f9 9d be b3 d7 91 bf
       -0.17213137 -1.4059823 -0.30854607 -1.1393951
0002d0 c7 fd c3 3e 10 17 ea bd 09 b7 80 3e 6e 32 36 c0
       0.38279554 -0.1143018 0.25139645 -2.846828
0002e0 58 01 fc 3e bb d2 9c bf f8 96 13 bf bf 6c 08 c0
       0.49219775 -1.225181 -0.57652235 -2.1316373
0002f0 a8 03 2c c0 7b d3 b9 bd bd 2d ad 3d ab 4d 8f be
       -2.6877232 -0.0907354 0.084559895 -0.27988943
000300 00 a9 ec be eb 64 d5 bf 32 72 35 be 46 c3 11 c0
       -0.46222687 -1.6671423 -0.17719343 -2.2775435
000310 4c 31 80 bf 86 09 78 be d1 94 ee 3f 64 66 8b be
       -1.0015044 -0.24222383 1.8639165 -0.27226555
000320 b1 82 4a c0 bb ad ab be 78 b8 5c 40 7f 90 6f be
       -3.1642268 -0.33530983 3.448759 -0.23394965
000330 2b e8 50 c0 1c 23 9c bf 86 cf d9 3f bd 1f 10 c0
       -3.2641704 -1.2198215 1.7016456 -2.2519372
000340 e7 f7 ca be 55 e6 98 bf fb 28 21 3e 2c 67 17 be
       -0.3964226 -1.1945292 0.15738289 -0.1478545
000350 bb 18 93 bd e5 23 8a be 24 7f 08 3f 0d 29 29 bf
       -0.07182451 -0.2698051 0.53319 -0.66078264
000360 34 c8 7b 3f 6d 36 8f bb 61 dc 6a bf 46 2c 9c bf
       0.9835236 -0.0043705017 -0.9174252 -1.2201011
000370 cc 8b e7 bf 7f 69 b7 bf 1c 97 07 c0 24 ae 54 bd
       -1.8089538 -1.432907 -2.118598 -0.051923886
000380 ac 44 ad 3d fe 33 d6 3f 8c 7b 6a c0 51 5e 1b c0
       0.08460364 1.6734617 -3.6637907 -2.4276316
000390 cb 05 75 be 7a 41 10 40 98 4e 1e c0 44 d2 13 c0
       -0.23927991 2.2539964 -2.473547 -2.3097086
0003a0 4b ee df bf b3 21 b8 bf 1a 84 bc bf 92 32 aa bf
       -1.7494596 -1.4385284 -1.4727814 -1.3296683
0003b0 7c 63 1c c0 96 8a 3c c0 17 b6 a8 3d e5 92 f7 3e
       -2.443572 -2.9459586 0.08237856 0.4835426
0003c0 41 62 ae bf 81 1e 18 c0 61 b6 d9 be 4f d9 30 c0
       -1.3623735 -2.3768618 -0.42521957 -2.7632635
0003d0 71 b5 82 bf 8b 0e 6b be 16 60 16 c0 98 a6 ca bc
       -1.0211622 -0.22954766 -2.3496146 -0.024737641
0003e0 41 42 36 bf ad 08 66 c0 03 58 29 be a8 0a f0 bd
       -0.71194845 -3.5942795 -0.1653748 -0.117207825
0003f0 cd 3a ad 3e e6 f6 eb be ee 44 bf bf a2 98 35 c0
       0.33833924 -0.46086806 -1.4942911 -2.837441

dist.fc_logstd.bias f4 [4]
000000 12 62 b3 bf 98 26 2e bf de ab 8d bf c4 ac c8 bf
       -1.4014304 -0.6802764 -1.1068075 -1.5677724

exp_avg f4 [128, 15]
000000 52 48 66 bd fe e2 e5 3d 78 4d b6 bc 04 88 81 bb
       -0.056221314 0.11224936 -0.022253737 -0.003952982
000010 25 14 6b 3c 9b 42 8c 3d a2 92 32 bc fa 43 31 be
       0.014348065 0.068486415 -0.010899218 -0.17311087
000020 cb 1b 9a bb 4b 5b ba 3d b3 bb 29 be 73 1f 88 bd
       -0.00470302 0.09099444 -0.16575508 -0.066466235
000030 00 00 00 00 00 00 00 00 93 ac 73 be a4 c7 85 3c
       0.0 0.0 -0.237963 0.016330548
000040 25 57 a1 3c c6 87 ff bc d8 82 6d 3c 3e c7 0f 3d
       0.019694874 -0.031192672 0.014496528 0.03510212
000050 ed ff 3c 3d 14 ca 41 39 38 0c 60 3a 7c 71 b3 bd
       0.046142507 0.00018481194 0.00085467426 -0.0876188
000060 db 27 4c 3c f0 8c 67 3d ef 04 42 3d 00 00 00 00
       0.012460674 0.056530893 0.047367986 0.0
000070 00 00 00 00 ba 68 f1 bc 67 84 33 bd 61 84 d0 3c
       0.0 -0.029468883 -0.04382744 0.025453748
000080 a3 2e dc 3c 90 81 cf 3c a4 55 ab 3c dc ce e5 3b
       0.026877707 0.025330335 0.02091486 0.007013185
000090 d2 7f 20 3c 8c e7 be bd 33 3d 76 3d aa 1e d0 bc
       0.0097961 -0.09321508 0.060116958 -0.025405247
0000a0 5b 51 71 bd e0 4d 93 3d 00 00 00 00 00 00 00 00
       -0.058915477 0.07192588 0.0 0.0
0000b0 1c c4 0c 3d 03 23 80 3d 17 3a 8a 3c d6 b7 5d bc
       0.034366712 0.06256678 0.016873403 -0.013532599
0000c0 89 29 cd 3c b9 51 97 bc 05 d1 8e 3c 4d a2 74 3c
       0.02504422 -0.018471586 0.017433653 0.014931274
0000d0 52 be 4e bc 46 06 3f bd 79 f8 23 3c db 1b a8 bc
       -0.012618618 -0.046636842 0.010007971 -0.020521095
0000e0 9f 8d 84 bb 00 00 00 00 00 00 00 00 4c a4 fc bc
       -0.004045203 0.0 0.0 -0.030840062
0000f0 0d 6a 34 3d 28 a9 0e 3c 74 0a 80 bd 90 8e fe bb
       0.04404645 0.008707322 -0.06251994 -0.0077684596
000100 d3 0d 95 bb 55 d0 3c 3d 9e 7b 86 3b b7 ca 01 3b
       -0.004548767 0.04609712 0.004104092 0.0019804665
000110 71 8b 91 bd d0 59 52 bd f7 14 b2 3c 62 f0 c3 bd
       -0.071066745 -0.051355183 0.021738512 -0.09567334
000120 00 00 00 00 00 00 00 00 82 75 d8 bd 01 97 d7 3c
       0.0 0.0 -0.10569288 0.026317121
000130 a6 bd 33 3c 8a 37 5a 3e 05 84 c8 3c 47 4b df 3c
       0.010970509 0.21310249 0.024477014 0.027257575
000140 d1 e2 79 bd 77 6a 79 3b cf 9e cb bd b8 c0 68 3d
       -0.061007325 0.0038057843 -0.099424 0.056824416
000150 69 80 08 3a ac 1d 60 bd fb 3f 39 bd 00 00 00 00
       0.0005207123 -0.054715797 -0.045227032 0.0
000160 00 00 00 00 d8 6e b5 3e 7f 45 c5 3d 71 70 42 bd
       0.0 0.3543613 0.09632396 -0.047470514
000170 6c 81 76 3e c9 c7 c9 3d 63 3d 13 3d 16 f9 1a be
       0.24072808 0.09852559 0.035947215 -0.15134081
000180 2f e8 33 3d c3 62 86 be e3 a3 08 3d ce 5b de 3d
       0.0439226 -0.26247224 0.03335942 0.10857354
000190 ee 93 1e be 00 a1 79 bd 00 00 00 00 00 00 00 00
       -0.15486118 -0.060944557 0.0 0.0
0001a0 8e 3e f9 3e c4 55 21 bc 1d c3 97 bc fa d4 75 bc
       0.48680538 -0.009847108 -0.018525654 -0.015004391
0001b0 dc 1a a6 bc 91 6a 5b 3a 91 e6 fa 3c 15 f9 48 3d
       -0.02027648 0.00083700666 0.03062752 0.049065668
0001c0 d4 c2 07 3d 4c f2 21 be 91 bc c5 bb 02 39 4c 3d
       0.033144787 -0.15815085 -0.0060344418 0.049859054
0001d0 5b 18 a5 bd 00 00 00 00 00 00 00 00 15 fd 73 3d
       -0.08061286 0.0 0.0 0.05956753
0001e0 e8 9f 06 3d 6a 55 33 3d 8e d6 8a 3d b5 25 58 3d
       0.032867342 0.04378263 0.06779204 0.052770335
0001f0 bf b5 4f 3d d7 89 2d bd 22 a4 32 3d 9d 6d 8b 3c
       0.050710436 -0.042367782 0.04361356 0.017020041
000200 a1 0d 2c be ba 8d 0d 3d 43 3f 7e 3d c5 c8 9f 3d
       -0.16802074 0.03455899 0.06207205 0.078019656
000210 00 00 00 00 00 00 00 00 37 4a ed 3d 9f bc 07 3d
       0.0 0.0 0.11586421 0.033138867
000220 63 0d 50 3c 97 a8 ee bc 25 dc 97 bb a9 c9 56 bd
       0.012698504 -0.029133124 -0.0046343976 -0.05243841
000230 26 ad a2 3c bb b1 2c bd 56 91 15 3c 28 25 dd 3d
       0.019857954 -0.042161684 0.009128889 0.107981026
000240 9b 6a 4e 3d 2e 13 c1 bc f8 b0 2a 3e 00 00 00 00
       0.050394636 -0.023568716 0.1666907 0.0
000250 00 00 00 00 d0 c7 34 bd 7b 71 1c bd 1d e5 46 bc
       0.0 -0.04413587 -0.03819416 -0.012139586
000260 ba 2c a9 3d 9e d4 96 bb ad 34 a4 3d 07 3a f4 bc
       0.08260484 -0.0046029827 0.080178596 -0.029812826
000270 6e 06 07 3e 3a 25 f7 3a e4 09 7e 3d 54 b5 19 3d
       0.13186046 0.0018855699 0.06202115 0.037526444
000280 f1 80 b3 3d cd a5 5f 3d 00 00 00 00 00 00 00 00
       0.08764828 0.05460148 0.0 0.0
000290 0b c3 80 3d 40 a1 10 bd 58 c3 04 3c cb b3 09 bd
       0.062872015 -0.03531003 0.008103214 -0.03361873
0002a0 af c4 0a bb b5 3e aa bc 3b f8 92 3d d2 a9 c4 bc
       -0.0021174361 -0.020781854 0.071762525 -0.024006758
0002b0 29 a2 00 3d 45 55 f1 3d 32 af b4 3c 47 f3 dd 3c
       0.031404648 0.11783842 0.022056196 0.027093543
0002c0 31 a6 44 3c 00 00 00 00 00 00 00 00 c6 47 0f be
       0.012002514 0.0 0.0 -0.13992223
0002d0 10 2b 02 3d 72 4e 21 bb 5c 60 45 bd cf 84 ec 3c
       0.03177935 -0.0024613407 -0.0481876 0.028871922
0002e0 42 90 23 bb 9b 81 b8 bc 67 5e b0 bc d1 03 0d 3c
       -0.002495781 -0.022522738 -0.02152939 0.008606867
0002f0 d8 c9 ee bd c7 75 8f 3c ee c8 7f bb ba df 77 bc
       -0.116595924 0.017512215 -0.0039029676 -0.015129024
000300 00 00 00 00 00 00 00 00 32 72 fc 3c c6 fa 06 3e
       0.0 0.0 0.030816171 0.131816
000310 18 4d 11 3d b8 0f f9 3d bc 84 b5 3c e5 4b 83 3d
       0.035473913 0.12161201 0.02215802 0.0641096
000320 80 62 ae bc 42 07 51 3d 75 2d d3 3c d8 2f 07 3e
       -0.021287203 0.051032312 0.025778512 0.13201845
000330 09 3d 9e bd 9c 5d 86 3d fc 7c 2e 3e 00 00 00 00
       -0.07726485 0.06560823 0.17039865 0.0
000340 00 00 00 00 05 1d c9 bd ca 91 1f 3b 79 76 3e bc
       0.0 -0.09819988 0.0024348372 -0.011624926
000350 59 f6 dd bd ff f1 7e 3b de f6 bb 3c 99 e9 83 ba
       -0.10838003 0.0038901565 0.022944864 -0.0010064124
000360 b6 2c 53 3c 0e 4a f2 bb 53 9f 8a bc 06 55 67 3a
       0.012889078 -0.007394082 -0.016921675 0.000882462
000370 4b 45 ed bb 09 76 03 3d 00 00 00 00 00 00 00 00
       -0.0072409264 0.03209499 0.0 0.0
000380 6d cc 60 bd 10 2a 91 bd 22 f9 98 3c 93 7c 82 bd
       -0.054882456 -0.07088101 0.018673483 -0.06371417
000390 99 93 35 38 37 63 98 3c 45 44 db 3c 17 9a 25 bb
       4.3291224e-05 0.018601997 0.026765952 -0.0025268847
0003a0 68 4e c2 bd 58 6c a5 3d a6 6c e3 3c ef ff 17 3d
       -0.09487611 0.080773056 0.027761769 0.03710931
0003b0 3a 24 8d 3e 00 00 00 00 00 00 00 00 0a 70 f7 bd
       0.275667 0.0 0.0 -0.12081917
0003c0 cf 92 e3 bc 1d 21 3a bc f1 b9 96 bc 1f 8f 26 bb
       -0.027779965 -0.011360434 -0.01839921 -0.0025414897
0003d0 c3 06 f9 3b 60 1e 8d bc 72 b9 62 ba 3d 43 48 3c
       0.007599683 -0.017226398 -0.00086488493 0.012223062
0003e0 bd 62 9b 3b 5e 80 d6 bc 78 84 44 3c cd ec e3 3c
       0.004741995 -0.026184257 0.011994474 0.027822876
0003f0 00 00 00 00 00 00 00 00 2a 63 9b 3b 5b 89 69 3c
       0.0 0.0 0.004742046 0.0142539395

exp_avg_sq f4 [128, 15]
000000 99 4f 19 40 9b d9 38 3f c6 fb 52 40 1e 3c b0 3f
       2.3954833 0.7220704 3.296617 1.3768346
000010 09 4d a3 3f b4 2a df 3f 7d 1e ac 3f d1 85 ad 3f
       1.2757884 1.7434907 1.3446804 1.3556463
000020 09 87 36 3f cd 99 50 40 34 03 ac 3f a7 c1 0a 3f
       0.712998 3.2593873 1.3438478 0.5420174
000030 00 00 00 00 00 00 00 00 bc 4b 7f 40 bf a8 83 3f
       0.0 0.0 3.9889975 1.0285872
000040 63 ef 9d 3e 13 ef 0a 3f bf 5f 85 3f 3f e4 02 3e
       0.308467 0.5427105 1.0419844 0.12782381
000050 8a 95 30 3f c0 f4 7d 3e 27 67 2f 3f d3 58 17 3f
       0.6897818 0.24800396 0.68516773 0.5911991
000060 58 3e 68 3f 7a b0 bc 3e 28 f3 1d 40 00 00 00 00
       0.9072013 0.3685339 2.467966 0.0
000070 00 00 00 00 09 9a bf 3f f3 46 a4 3f 6b 50 3d 3f
       0.0 1.4968883 1.2834152 0.73950833
000080 be 6f 31 40 f1 8d 50 40 42 62 ec 3e be aa 77 41
       2.7724452 3.2586634 0.46168715 15.479185
000090 4a e7 91 41 b3 70 98 40 7e ed 91 40 3c 8f 0d 40
       18.237934 4.763757 4.5602407 2.2118673
0000a0 68 56 9f 40 99 88 64 3f 00 00 00 00 00 00 00 00
       4.9792976 0.8927093 0.0 0.0
0000b0 b6 c7 e5 40 74 48 cc 3e 71 74 2c 3e b4 2c d9 3e
       7.180629 0.39899027 0.16841294 0.42416918
0000c0 da c9 86 3d 03 f8 50 3e 0c 51 92 3e f4 36 6f 3c
       0.06581469 0.20407109 0.2857746 0.014600504
0000d0 06 9b 11 3e 26 61 e9 3e 20 d4 1e 3f 1a fc 89 3e
       0.14219293 0.4558193 0.6204243 0.2695015
0000e0 59 63 6b 3d 00 00 00 00 00 00 00 00 82 47 29 3f
       0.057467792 0.0 0.0 0.6612474
0000f0 43 1c 25 3f fc de c4 3e 21 b4 29 3f 8b 55 8a 3e
       0.6449625 0.38451374 0.6629048 0.2701839
000100 f2 89 60 3e 2e f2 4c 3e 89 9f 3e 3e 60 5c 15 3f
       0.21927622 0.20014259 0.18615545 0.5834408
000110 7b 3c 26 3f 76 f1 3c 3f 44 c2 25 3f 92 49 72 3f
       0.64936036 0.7380594 0.6474955 0.9464351
000120 00 00 00 00 00 00 00 00 83 ca 1d 40 e3 71 85 3f
       0.0 0.0 2.4654853 1.042538
000130 09 6f b6 3e 85 d0 9a 40 fe b2 c4 3f 48 09 01 3f
       0.35631588 4.837954 1.5367124 0.5040479
000140 b5 bd 87 40 dc 75 9e 40 c3 aa 06 40 bc c8 2b 3f
       4.2419076 4.951887 2.1041725 0.6710317
000150 ba 0f 5e 3f a7 d9 ab 3f 35 71 70 40 00 00 00 00
       0.86742747 1.3425797 3.7569096 0.0
000160 00 00 00 00 cc 9e 47 41 e1 3d e8 3f 8d 08 06 40
       0.0 12.476269 1.8143884 2.094272
000170 e4 51 a6 40 13 04 6d 40 1c 08 ec 3f 71 22 56 41
       5.1974964 3.7033737 1.8439975 13.383409
000180 57 59 4f 41 44 46 bd 40 24 74 00 41 6f 29 85 40
       12.9593115 5.9148273 8.028355 4.161308
000190 87 1b 0e 41 83 d9 73 40 00 00 00 00 00 00 00 00
       8.881721 3.8101509 0.0 0.0
0001a0 7d 5c a9 41 d6 83 de 3f a6 95 5f 3f 4f e2 a8 3f
       21.17016 1.7383983 0.8733772 1.3194064
0001b0 dd f5 47 3f 29 a2 63 3f 0d 9d dc 3f f5 82 35 40
       0.7810953 0.8891931 1.7235428 2.836118
0001c0 69 04 82 3f 5b d4 8a 3f 85 c9 3d 40 ee c6 7d 3f
       1.0157596 1.0846056 2.9654248 0.9913167
0001d0 55 7f 59 3f 00 00 00 00 00 00 00 00 ff 13 3d 40
       0.8495992 0.0 0.0 2.9543455
0001e0 72 3a 6d 3f 67 4b 34 40 ec a6 11 40 a6 e0 12 40
       0.92667305 2.8171022 2.275813 2.2949615
0001f0 6b bb f6 3f 73 d5 12 40 2e 18 a7 3e e8 d4 1c 40
       1.9275945 2.294278 0.32635635 2.4504948
000200 34 0c a4 3f f8 a9 f7 3f 68 d5 cd 40 6b a9 10 3f
       1.2816224 1.9348745 6.4323006 0.5650851
000210 00 00 00 00 00 00 00 00 9e 21 38 40 ef 83 b5 3e
       0.0 0.0 2.8770518 0.3545222
000220 6f 43 87 3e a1 9a 1d 3f b9 4a 95 3e fe 82 85 3e
       0.26418635 0.6156407 0.2915857 0.26076502
000230 52 92 d9 3e 44 3b 79 3d 99 d8 21 3f 9f d1 c7 3e
       0.42494446 0.060847536 0.63221127 0.39027116
000240 c4 79 51 3f 1c 21 6c 3f ba 07 54 3f 00 00 00 00
       0.81826425 0.9223802 0.8282429 0.0
000250 00 00 00 00 3e 60 a6 3f bf 12 c5 3f 18 e5 aa 3f
       0.0 1.2998121 1.5396346 1.3351164
000260 a2 5d aa 3f 83 c4 a8 40 a1 80 39 3f a9 fe bd 41
       1.3309824 5.2739882 0.724619 23.749346
000270 33 ab ea 41 9c 6c da 40 25 1a f4 3f 47 0e 5d 40
       29.333593 6.825758 1.9070479 3.4539964
000280 1a d2 ba 40 a5 2c 5d 3f 00 00 00 00 00 00 00 00
       5.838147 0.8639625 0.0 0.0
000290 dc 52 40 40 15 f3 03 40 96 02 83 3f 42 72 c8 40
       3.0050573 2.0617115 1.0235164 6.2639475
0002a0 bd 86 7f 40 c3 ae 74 3f fc 94 b0 41 e2 5d cf 41
       3.9925988 0.95579165 22.072746 25.920841
0002b0 79 b1 dd 40 64 bd 82 40 1d e9 98 40 e2 58 b7 40
       6.927914 4.085619 4.778456 5.7296
0002c0 9e bb d3 3f 00 00 00 00 00 00 00 00 de 1e 66 41
       1.6541631 0.0 0.0 14.382536
0002d0 f3 9a 82 3f 53 ee 8b 3f 7b 3a c5 40 46 1f d2 3f
       1.0203537 1.0932106 6.1633887 1.6415794
0002e0 89 97 47 3f f2 20 8e 40 07 80 93 40 b9 53 e6 3f
       0.779656 4.4415216 4.6093783 1.79943
0002f0 ee 2d 95 3f 71 41 09 40 f2 61 35 40 63 e4 13 3f
       1.1654642 2.1446192 2.834103 0.57770365
000300 00 00 00 00 00 00 00 00 ea 95 53 41 b3 ce 64 40
       0.0 0.0 13.2241 3.575116
000310 79 88 d9 3f ac b0 86 40 78 60 5b 40 45 f1 78 3f
       1.6994773 4.2090664 3.427763 0.9724315
000320 1a ae 1a 40 3a 19 68 3e 4f 1a fc 3f e0 4f eb 3f
       2.4168763 0.22665873 1.9695529 1.8383751
000330 bf 8c fd 3f 11 7e 6b 40 5c 5a 29 40 00 00 00 00
       1.9808577 3.6795695 2.64614 0.0
000340 00 00 00 00 c3 7c 43 41 5b 5f c6 3e 51 be 44 3f
       0.0 12.217959 0.38744625 0.768529
000350 01 3c 36 41 07 e9 c2 3f 55 50 e7 3e 62 0d ad 40
       11.389649 1.5227364 0.45178476 5.4078836
000360 13 a3 b0 40 70 b7 16 40 56 e6 94 3f 11 27 a5 3f
       5.5199065 2.3549461 1.1632793 1.2902547
000370 03 b4 44 40 9a 2f 8b 3f 00 00 00 00 00 00 00 00
       3.073487 1.0873902 0.0 0.0
000380 63 c9 b1 41 f5 27 75 40 ad 91 21 3f 8d 45 a5 3e
       22.223333 3.8305638 0.6311291 0.32279626
000390 d0 13 2a 40 b3 67 a3 3e 66 eb 2f 3f 40 b7 2d 3e
       2.6574593 0.31915054 0.68718565 0.16964436
0003a0 31 48 14 3f c4 67 fc 3f 7a a7 8a 3f 22 a6 cb 3f
       0.57922655 1.9719167 1.083236 1.5910075
0003b0 0f 61 00 40 00 00 00 00 00 00 00 00 14 c9 09 40
       2.005924 0.0 0.0 2.1528978
0003c0 88 7c 4f 3e 71 09 3c 3e 9f 49 8b 3e 4a 70 4a 3e
       0.20262349 0.18362977 0.27204606 0.19769397
0003d0 e4 ca d1 3d 71 2b 72 3d 58 35 1d 3d 38 cc 84 3e
       0.102437764 0.05912346 0.03838095 0.25937057
0003e0 17 2c 8f 3e b9 e0 71 3e 5b 0e b0 3e 2f f3 68 3d
       0.27963325 0.23620881 0.34385952 0.056872543
0003f0 00 00 00 00 00 00 00 00 1c 60 b6 3e 0f 2b 55 3f
       0.0 0.0 0.356202 0.8326883
