ppo/models/behavioral_cloning_agents_drone/bc8/ckpts/002733300.pt (torch_old, 407241 bytes, 26 tensors)

fc1.weight f4 [128, 15]
000000 65 af 51 3e a5 84 87 3d bc 10 d7 bd 9c cc 38 3c
       0.20477064 0.06617097 -0.10501239 0.011279251
000010 c4 52 1c 3c 32 e3 1a be e8 dd f9 bc a4 b5 05 3f
       0.009541217 -0.1512573 -0.030501321 0.52230287
000020 95 73 0d be 00 33 a5 be bb fe 28 bf 86 38 af 3d
       -0.13813622 -0.32265472 -0.6601369 0.08555703
000030 0a 97 7c be c2 1a 2f be 84 ce 34 bc e8 4c 68 be
       -0.24666992 -0.17100051 -0.011035565 -0.22685587
000040 07 f2 39 3d 89 f7 db 3e 68 5a b9 be 3a 20 20 bf
       0.04539683 0.42962292 -0.36201787 -0.62549174
000050 88 b0 b5 3e 8b 77 ea 3e 8d 13 b0 be 89 c2 50 3e
       0.35486245 0.4579433 -0.34389916 0.2038671
000060 ce b4 29 3c 0f c8 e3 bd e0 c9 a3 3e a3 45 75 be
       0.010358049 -0.111221425 0.31989956 -0.23952346
000070 75 72 26 be 58 cc f8 3d 09 29 42 be 8a b0 36 3e
       -0.162546 0.121483505 -0.18960966 0.17840782
000080 99 88 8d be e7 29 f8 bd c8 4e e4 be 28 3a 7c be
       -0.27643278 -0.12117367 -0.44591355 -0.2463156
000090 cc a6 b8 be de 4c 66 3e 48 a0 e1 3e 5f be c4 3e
       -0.36064756 0.2249026 0.44067597 0.38426492
0000a0 8a 6a 5c bd bd 0d d8 3b 40 ed 32 3d 66 dd 76 be
       -0.05381254 0.0065934346 0.04368329 -0.24107894
0000b0 50 61 9f 3b 51 b2 91 be fa 3f c3 3d 2d d1 37 3e
       0.0048638955 -0.28456357 0.09533687 0.17950888
0000c0 12 40 57 be c8 71 f0 3d 33 0e 23 3e de cf 32 3f
       -0.21020535 0.11740452 0.15923385 0.6984843
0000d0 af ae ee 3c 9b 79 d8 be 45 e0 a7 3e 15 29 03 be
       0.02913603 -0.42280278 0.32788292 -0.1280864
0000e0 18 f4 85 3e c7 fc 4c be bc 3f 37 be 99 8c 98 3d
       0.2616279 -0.20018302 -0.17895406 0.07448692
0000f0 4d 91 09 be a4 23 5e 3e bf 20 a3 be 85 a5 f0 bd
       -0.13434334 0.21693283 -0.3186092 -0.1175032
000100 2e db ca 3e fe be 7e 3e 2f 02 63 3f 5f cd 80 3e
       0.39620346 0.24877545 0.88675207 0.25156686
000110 46 17 01 be 73 71 1f 3f ae 2c 24 be 97 e4 0e 3d
       -0.12606534 0.62282485 -0.16032669 0.03488597
000120 fc d1 cf 3d 9a 10 5b 3e 15 85 a1 3e 35 c4 1a 3e
       0.10147473 0.21393052 0.31546846 0.1511391
000130 ad 8d 0f bc 61 1a b0 be 00 f1 8a bd b7 bf 69 be
       -0.0087618055 -0.34395126 -0.06784248 -0.2282704
000140 c9 00 8f be 5c 09 83 bd db 46 86 3b 2c 5b 5d be
       -0.27930287 -0.063982695 0.004097802 -0.2161681
000150 83 8d e9 3d 5d 55 c4 bb 27 f5 41 be d0 0e f2 bd
       0.11403944 -0.0059916214 -0.18941174 -0.118192315
000160 98 59 cb 3d ff 33 01 3e 9d 62 00 3d 50 d5 0a 3e
       0.09929198 0.12617491 0.031344045 0.13557935
000170 92 f9 be 3e 98 3b 80 bd 14 61 00 bf d6 87 d7 3e
       0.37299782 -0.062613666 -0.5014813 0.42095822
000180 71 2b 41 3d d0 5f fa 3d 07 28 1a bf 4f 79 d2 3e
       0.04716057 0.12225306 -0.60217327 0.41108176
000190 49 64 c3 3e 17 c7 0c 3c fa 90 e6 bd b6 16 85 bd
       0.3816245 0.008592389 -0.11258121 -0.064984724
0001a0 24 e6 bd 3d 60 33 08 3c 1c 74 c5 3c 56 f9 21 bf
       0.092724115 0.00831303 0.024103217 -0.6327108
0001b0 1f da 58 bd cf 2e 86 bd 5e d3 84 be e2 35 ef 3d
       -0.05294239 -0.06551897 -0.2594251 0.11680199
0001c0 e9 a8 63 be e7 4f df 3d ef dc 38 3d a1 9a b2 be
       -0.22232403 0.10903912 0.045132574 -0.34883597
0001d0 94 27 2d bd 40 e2 3e 3c 70 4d 1a 3d cd 07 69 3e
       -0.042274073 0.011650622 0.037671506 0.22756882
0001e0 22 e9 cc 3e f6 49 d6 3d e2 cb 17 be 01 f1 a6 bd
       0.40021616 0.10463326 -0.14823869 -0.081514366
0001f0 a4 5b f1 be 3b 2e ba bc 30 d4 af 3c f7 a1 94 be
       -0.4714023 -0.022727123 0.021463484 -0.2902982
000200 5f d7 20 be 43 69 16 bf eb 88 9b be c2 ae 0e be
       -0.15707158 -0.58754367 -0.30377898 -0.13933852
000210 a6 3e 2c be 10 19 59 bc 08 78 f6 3e f7 d6 99 bd
       -0.16820773 -0.013250604 0.48138452 -0.075117044
000220 b0 25 44 be 51 ff ce 3d 22 ba 24 3e ee 2a 1f bd
       -0.19155002 0.101072915 0.16086629 -0.0388593
000230 f4 b8 a8 3e 64 db 74 bd 95 0f 89 3e 74 9a 17 be
       0.32953608 -0.05977954 0.267697 -0.14805013
000240 06 93 ee be fa c0 11 bd 0a 33 3e 3e 00 62 db ba
       -0.46596545 -0.035584427 0.18574157 -0.001673758
000250 ba 6a 03 be d2 ea b2 bc 88 bb 1c bf cf 59 01 bf
       -0.12833682 -0.021840487 -0.6122365 -0.5052766
000260 19 38 14 be df 2a 61 bd 60 7a 83 3d 8f dd bd be
       -0.14474525 -0.054972526 0.064198256 -0.37083098
000270 64 c0 aa 3c 70 7b 6e bd 8e 00 19 3e 8f 16 b3 bd
       0.020843692 -0.058223188 0.14941618 -0.08744537
000280 e5 49 ec 3d f7 7d 64 3c 64 41 6d be 0b 4a 64 be
       0.11537532 0.013946048 -0.23169476 -0.2229387
000290 49 36 ca 3d 00 48 1b 3e 23 24 07 bd 31 9c 93 be
       0.09873635 0.15164185 -0.032993447 -0.28830102
0002a0 16 19 cf be 37 8d 57 3e 72 a5 81 3b 44 36 44 bf
       -0.40448827 0.21049963 0.00395649 -0.766453
0002b0 46 ad 60 3e 09 79 0b 3e d0 fb 04 bf 5f 1c 21 3f
       0.21941099 0.1362039 -0.51946735 0.62933916
0002c0 39 85 4a 3d 5a 0e ec bd c4 6c 53 3e 5e cf 9e 3d
       0.049443457 -0.11526175 0.2064696 0.07754396
0002d0 f7 01 37 3e 36 42 dd bc 02 54 bf 3e 13 b0 f7 bd
       0.17871843 -0.02700911 0.3736878 -0.1209413
0002e0 b8 0d b8 be 3b 64 89 3d b3 af 8a bd 79 0e 1d 3e
       -0.35947967 0.067085706 -0.06771793 0.15337552
0002f0 4d 55 0b be e4 90 87 3e 13 40 cb 3b 43 e3 53 3e
       -0.13606758 0.2647773 0.0062027066 0.20692162
000300 bc 7f 3a be 20 ac 3c 3c a3 2f b1 3d f5 b1 69 be
       -0.1821279 0.011515647 0.08651664 -0.22821791
000310 4c df 1e 3e 12 80 5c 3e b5 46 22 bf c1 19 9c 3c
       0.15514868 0.2153323 -0.6338914 0.01905525
000320 8e de 86 bd 3c 18 95 3e ce 37 84 bb 1e 65 69 be
       -0.06585418 0.29120052 -0.0040349727 -0.2279248
000330 43 5e c0 be 64 09 5c 3a 06 37 04 bd c6 03 5f 3e
       -0.37571916 0.00083937333 -0.032279037 0.21778783
000340 04 37 bf 3d 0c 7f 1d 3e 94 34 07 3e 5f f8 29 bd
       0.09336665 0.15380496 0.1320365 -0.04149663
000350 5c 9c 00 3e 4c 39 16 be 36 a7 2d 3e 37 e9 3d 3a
       0.12559646 -0.14670295 0.16958317 0.00072445296
000360 97 3d 27 be c5 b7 c0 bd f7 6f 9d bd 45 03 03 bf
       -0.16332088 -0.09410051 -0.07687371 -0.51176864
000370 c2 36 d4 3c fe d0 37 3d e0 04 bf 3d 00 8c ef 3b
       0.025905017 0.044877045 0.09327102 0.0073103905
000380 7b 57 88 bd 6e e6 53 be 16 89 c9 bd 5f 35 69 be
       -0.066573106 -0.2069337 -0.098406 -0.22774266
000390 0d 49 d5 be 19 b3 8b bd 95 ab a7 bd 44 3b e1 3e
       -0.41657296 -0.068212695 -0.081870236 0.4399053
0003a0 d2 47 bd bb a7 a5 89 bd 17 2b b3 bd 5c 44 93 be
       -0.005776384 -0.06721049 -0.08748453 -0.28763092
0003b0 e1 25 6c 3e 77 e6 3a be 74 1d e0 bd 44 80 b3 3e
       0.23061325 -0.18251978 -0.10943118 0.35058796
0003c0 c3 a3 12 3e 88 82 b1 3e 7c 21 9b be c3 9a 95 be
       0.14320283 0.346699 -0.30298984 -0.29219636
0003d0 88 80 9d 3d 95 5b ab be 19 d3 bc 3d 42 c2 13 be
       0.07690531 -0.3346831 0.09219951 -0.14429572
0003e0 34 03 9d bd 42 1c 48 be 7a 65 aa be 6e 9b a2 bd
       -0.076666266 -0.1954203 -0.33280545 -0.07939802
0003f0 3c a2 5a 3e 76 93 9a bd c1 a4 42 3c a6 7c 13 3e
       0.2135095 -0.07547657 0.011880101 0.14403018

fc1.bias f4 [128]
000000 05 d0 32 be c3 0e aa be 67 b7 58 be 6e c4 c2 bb
       -0.17462166 -0.33214387 -0.21163712 -0.0059438264
000010 96 74 8c bd c2 33 cc bd a9 63 ae be 4c 65 b2 bd
       -0.068581745 -0.099708095 -0.3406041 -0.08710727
000020 89 3c 93 be 27 11 2d be 61 09 c5 be ed 0c 03 bf
       -0.28757122 -0.16901074 -0.38483718 -0.511916
000030 80 fe 7c be 71 fc da 3b 19 3c 85 3c ed e1 86 be
       -0.24706459 0.0066829254 0.016264008 -0.26344243
000040 9f bf 66 bd 42 29 c5 3d 61 4e 0d bf 39 9d 8b be
       -0.056335088 0.0962701 -0.5519772 -0.2726839
000050 89 08 d0 be ee de 2a be 7a b4 66 be 72 79 2d be
       -0.40631512 -0.16686603 -0.22529784 -0.16940859
000060 0c 1b 54 be da 54 1d be 19 ed 77 be fc ac 3a 3e
       -0.20713443 -0.153644 -0.2421154 0.18230051
000070 8f b9 94 be 4b ad b6 be 8c 8b b5 bd 66 24 e3 bd
       -0.2904782 -0.35679087 -0.08864507 -0.11090927
000080 d1 cb 13 3e f3 06 bc be 57 e5 97 be 6a f1 b4 be
       0.14433219 -0.36724052 -0.2966716 -0.35340434
000090 95 0c 05 bd 34 ec 41 be 23 d7 58 be 21 4c 20 be
       -0.032482702 -0.1893776 -0.21175818 -0.15654041
0000a0 dc ef fb 3d 98 f5 f5 be c2 0c 5a be 69 50 2f 3e
       0.12301609 -0.48038936 -0.21293929 0.17120518
0000b0 c1 06 48 bd 38 df 39 be d9 5f 60 be d2 63 0b be
       -0.048834566 -0.18151557 -0.21911563 -0.13612297
0000c0 6d a1 e1 be 11 ed 8e be 76 6b e7 be 75 4e 5a be
       -0.4406847 -0.27915242 -0.45199174 -0.21318991
0000d0 04 7e 03 be 25 d6 54 be 02 e7 69 be eb 75 51 be
       -0.1284104 -0.20784815 -0.22842029 -0.20455138
0000e0 ad 70 ba bd 58 e4 fb 3d b3 97 6c be 50 69 aa be
       -0.091035224 0.122994125 -0.23104744 -0.33283472
0000f0 9b ec df be 9e 2a ab be 3d a6 16 be 61 5a 46 be
       -0.43735203 -0.33430952 -0.14711852 -0.19370414
000100 3d ca b4 3d 05 21 66 3c 7c 58 46 be 3f 1c 01 bf
       0.088276364 0.014045958 -0.19369692 -0.50433725
000110 ec 80 1a be 05 9f 14 3e 8d 59 59 be 6b 56 8c be
       -0.15088242 0.14513786 -0.21225567 -0.27409682
000120 85 f8 04 bb 8f 52 1a be f1 ba 83 be 4d 11 33 3c
       -0.002028973 -0.15070556 -0.25728562 0.010929418
000130 aa 04 2f bd 18 6d 15 be 22 cf 8a be 2e e6 bb bc
       -0.042729057 -0.14592397 -0.27111155 -0.022936907
000140 f1 a0 a3 bc f1 30 9c be 65 76 95 be de 4b c2 b9
       -0.019974204 -0.3050609 -0.2919189 -0.0003705909
000150 88 9a 8d bd 70 7d 50 be b7 98 ed be 8c fc ad 3c
       -0.0691424 -0.2036035 -0.46405575 0.021238588
000160 75 36 4a be b1 65 26 3e 54 15 04 bf cb 72 41 bd
       -0.19747336 0.1624973 -0.51595044 -0.047228616
000170 47 17 9b be 91 fd 1d be cc b9 7a 39 5f 02 e8 bd
       -0.30291197 -0.15428759 0.00023911073 -0.11328577
000180 38 4e 97 be 15 c0 99 bd db d6 d0 bd df 77 a4 bd
       -0.29551864 -0.0750734 -0.101972304 -0.08030676
000190 a0 ba de be 60 1f 8d be d7 85 71 bd a7 56 8b be
       -0.4350176 -0.27563 -0.05896553 -0.27214548
0001a0 32 81 16 be 21 42 29 be 2a 41 2a 3d ef 0f b6 be
       -0.14697722 -0.16529132 0.04156605 -0.3555903
0001b0 47 ca 86 be 51 e4 92 be e2 c0 70 be 49 70 cf bd
       -0.263262 -0.28689817 -0.23511079 -0.101288386
0001c0 c4 0a 75 be 68 76 45 3e c8 9a 1f be a2 9b a3 3d
       -0.23929888 0.1928345 -0.15586388 0.07988669
0001d0 02 65 57 3d 15 cb 39 be 1b 4a 84 3b 9e 0f 4d be
       0.052586563 -0.18143876 0.0040371544 -0.20025489
0001e0 91 a8 c5 bd 81 49 03 bf c8 7e 9d be 14 72 e0 bd
       -0.09651292 -0.51284033 -0.3076079 -0.10959259
0001f0 d6 9e 1c be e0 8d c1 bc 77 73 e3 bd ad 7c 89 be
       -0.15294966 -0.023627222 -0.111060075 -0.26852933

fc2.weight f4 [128, 128]
000000 07 92 9b bd 65 9b 9f bd 5b 31 70 bd b8 5e 32 3d
       -0.07596212 -0.07793311 -0.05864082 0.043547362
000010 c1 15 bf bd 4e 57 ec bc 97 57 0d bd 7f 66 e5 bd
       -0.09330321 -0.028850224 -0.03450736 -0.1120119
000020 92 06 0f bd 9f 5a 95 3c 89 37 d8 bd df 4b 64 bc
       -0.034918375 0.018231688 -0.105574675 -0.013934105
000030 fb 5a 37 3c 8a 14 68 3c c1 fe 19 bd b6 d3 d3 bd
       0.011191125 0.014165053 -0.037596468 -0.10343115
000040 1f 76 4e bd 48 2b f1 bc 79 c0 7b 3d 3d 12 17 3c
       -0.050405618 -0.029439583 0.061462853 0.009220657
000050 83 bc b0 bc 8d 03 9d bd ae 24 de bd c5 b7 0d 3d
       -0.021574264 -0.07666693 -0.1084684 0.034599084
000060 15 bd aa bd 05 7d 67 3c 96 eb 61 3c 36 2e b5 bd
       -0.08336846 0.014128928 0.013789078 -0.08846705
000070 57 6b b5 3c e0 e2 21 bd 3f a0 93 3b 0e 60 dc bd
       0.02214591 -0.039523005 0.004505187 -0.107605085
000080 70 7b 9a bd 9d 38 e1 bd 18 ef 12 be 94 89 3c bd
       -0.07543075 -0.10997126 -0.1434902 -0.046029642
000090 62 f3 95 bd a8 a5 c4 bd 91 25 9f bd 65 44 69 3c
       -0.07321812 -0.09601909 -0.07770837 0.014237498
0000a0 f5 b5 47 bd 1e a1 f0 3c e3 7d b8 bd 1d e2 b9 bd
       -0.048757512 0.029373702 -0.09008386 -0.09076331
0000b0 60 2e f5 bc 6c 58 a5 bd 18 54 9f bd 4f 23 64 bd
       -0.02992934 -0.08073506 -0.077797115 -0.055697735
0000c0 aa e2 0a bc 04 cb 21 3b 4d 4e 82 bc 5e 71 5a bc
       -0.0084768925 0.0024687657 -0.015906477 -0.013332693
0000d0 aa f6 43 bd 70 64 b4 bc 3e 4d f7 ba 83 ee 45 bd
       -0.04784266 -0.022020549 -0.0018867624 -0.048323166
0000e0 a5 51 85 3c 32 16 13 bd db ff f0 bc bc d7 d4 bd
       0.016274283 -0.03590984 -0.029418876 -0.103927106
0000f0 64 23 59 3d 01 91 bf bd 45 0b 5a bd 69 df 37 bb
       0.053012267 -0.09353829 -0.053233404 -0.0028056747
000100 72 4c 25 bd 9b 8b 0c bc 22 c3 8e bd 23 fd 9b bc
       -0.040356107 -0.008578206 -0.069708124 -0.019041603
000110 43 a9 8e bd a6 8a 97 bd 19 97 2e 3c 0c e1 9a bd
       -0.06965878 -0.07399492 0.010656142 -0.075624555
000120 e3 3a 92 bd 5e f6 8b bd df 3c 6d bd cd 94 13 bd
       -0.07140138 -0.068341 -0.05791938 -0.03603058
000130 0a 84 e0 bd 08 67 2c bd c9 b0 6f 3d 41 f9 06 3c
       -0.109626845 -0.042090446 0.058518205 0.008238138
000140 33 fb 77 bc a0 a3 b3 bd 1d 67 47 bd e8 36 20 3c
       -0.015135574 -0.08771443 -0.04868232 0.009778716
000150 4e da a8 bd 91 88 40 bd 43 7b 01 be 6b 27 c2 bc
       -0.08244763 -0.04700524 -0.12644677 -0.023700437
000160 63 b8 fc 3c c5 40 ed bd d1 fa bf 3b 9b 37 90 3b
       0.030849641 -0.115846194 0.005858757 0.00440116
000170 c6 b7 01 be ee e0 83 3d 77 05 d1 bd 94 47 fd 3c
       -0.1266776 0.06439386 -0.102061205 0.03091792
000180 93 25 43 bd 8c ac 31 bd 42 0c f7 bc a0 04 a1 bd
       -0.047643255 -0.043377444 -0.030157212 -0.0786221
000190 97 5d d2 bd c3 b9 8a bd 7d 57 cc bc b6 b1 e3 3c
       -0.10271757 -0.067737125 -0.024944061 0.0277947
0001a0 45 15 e0 bc 5a 44 67 bc 57 2b e9 bc 35 47 c3 bd
       -0.027353892 -0.014115417 -0.028463049 -0.09535066
0001b0 16 cf b8 3c d8 19 a3 bd 63 67 fd bb 80 1d 9a bd
       0.022559684 -0.07963914 -0.007733272 -0.07525158
0001c0 bb bf 91 bd 6a 1c 92 bd 54 d1 fd bc 6f 37 05 bd
       -0.07116648 -0.07134326 -0.030983604 -0.03252357
0001d0 e5 4c 9b bd fd 89 b9 bd 3c d4 bd bc 4f 50 33 3c
       -0.07583026 -0.09059522 -0.02317249 0.01094444
0001e0 dd de 18 bd 24 9e e3 3d 1c 68 85 3b 88 24 9f 3d
       -0.037321914 0.11114147 0.0040712487 0.0777064
0001f0 8f 68 02 bd 61 bf 62 bc f1 7a 07 3c ff c4 f8 ba
       -0.031837996 -0.013839574 0.008269058 -0.0018979608
000200 3d 59 c8 3e 06 50 22 be 32 9f 38 3e 0b c6 e6 bd
       0.39130583 -0.15850839 0.18029478 -0.112682424
000210 c3 d0 70 bd 61 0b 43 3e ac a7 5f 3d 12 0e 93 be
       -0.05879284 0.1904731 0.054603264 -0.28721672
000220 89 84 c1 3d 58 f8 63 3c 2d 05 0f be 85 ab 98 3d
       0.09449107 0.01391419 -0.13966818 0.0745459
000230 f1 cc d5 bd 63 6a d8 3d 42 d1 5f 3c 47 bc c3 be
       -0.1043948 0.10567167 0.013660731 -0.38229582
000240 ab 9e 9a 3a bb f8 9d be 30 b9 28 bd 33 a0 da 3e
       0.0011796554 -0.3085383 -0.041192234 0.42700347
000250 0e c4 fa 3c bf a2 9f be 82 3f 90 be 9e 16 1c be
       0.030611064 -0.31178853 -0.28173453 -0.15243003
000260 7d ac 1f 3d 7f fd 23 bf 1f 06 5e bc 99 24 18 bf
       0.038982857 -0.6405868 -0.013551264 -0.59430844
000270 e8 21 fc bd 19 44 b3 3e ce 98 14 be 17 84 03 bf
       -0.123111546 0.35012892 -0.14511415 -0.5137343
000280 a7 56 a0 be 3e ea e0 be f8 16 11 3e 15 2f d4 be
       -0.3131611 -0.43928713 0.14168918 -0.4144217
000290 51 ab 48 3e cf 1c f8 3c 38 e8 d5 3d d0 18 d6 bd
       0.19596602 0.030287175 0.10444683 -0.10453951
0002a0 e3 e4 51 bd c3 76 46 3e f6 94 1b be aa 4b 7d bc
       -0.051243674 0.19381242 -0.15193543 -0.015459934
0002b0 b6 08 fe be 97 e5 25 3e a7 6b 45 be ce 47 c5 bc
       -0.4961602 0.16200863 -0.19279347 -0.02408209
0002c0 c8 08 22 ba 7d c8 11 be 13 55 b8 3c cf 7c d7 be
       -0.0006181118 -0.14236636 0.022501504 -0.4208741
0002d0 5b 11 64 bd 90 1d 53 bd 73 d3 65 be 96 d3 71 be
       -0.055680614 -0.051541865 -0.22443943 -0.2361587
0002e0 16 7b a1 bd 82 85 68 3e 66 f8 36 be 31 25 1b be
       -0.07884805 0.22707179 -0.17868194 -0.15150906
0002f0 98 87 71 3e 95 64 60 3d 3a 52 ef 3b 1f e7 32 3e
       0.23586881 0.054783422 0.0073035033 0.17470978
000300 6e ad 8d bd 93 f2 cb 3d 27 48 7c 3d 03 2d cc bd
       -0.06917845 0.09958377 0.061592247 -0.09969523
000310 68 0f 10 be 69 f5 a1 3e c8 cb 33 3d fd ca 63 be
       -0.14068377 0.31632546 0.043895513 -0.22245403
000320 1a 7a 44 3e f0 41 a5 3d c4 69 b1 bd ae 26 e7 bc
       0.19187203 0.08069217 -0.08662751 -0.028216686
000330 62 c4 53 3e ee ed 17 3e d7 d5 02 3e 6b 98 31 be
       0.20680383 0.14836857 0.12776886 -0.17343299
000340 cd 21 3e 3e c3 dd 8d 3d 2d a9 ad 3d 7d da 6a bd
       0.18567581 0.06927063 0.08479533 -0.057337273
000350 e1 89 ec be 51 69 8c be 46 75 32 3e 01 79 46 3e
       -0.46198943 -0.274241 0.17427549 0.19382097
000360 ba 24 ae 3e ef 30 18 be e2 bd a3 3e e3 af 6b 3d
       0.34012395 -0.14862417 0.31980807 0.057540786
000370 e4 f0 5b be c1 01 b6 bd a7 4f 08 3d 4f 2d 77 3e
       -0.21478611 -0.08887053 0.033279087 0.24138378
000380 8e b3 d6 3e cd f5 7f bd c8 c0 80 be 29 68 58 bf
       0.41933864 -0.062490273 -0.2514708 -0.84533936
000390 a9 ff d7 be ef c4 57 3e 53 91 ac bc e1 e5 00 3d
       -0.4218724 0.21071218 -0.02106539 0.03146923
0003a0 f2 1e ed 3d f7 a0 69 3b f1 84 bc 3d ea d2 c7 bd
       0.11578168 0.003564892 0.09205044 -0.097570255
0003b0 7f 1b 8a bd cd a4 72 3e f7 c3 e3 3e df cd 06 3e
       -0.06743526 0.23695679 0.44485447 0.13164471
0003c0 9b 18 41 bd eb c8 02 bb 3a b2 f3 be 2a a4 f1 bd
       -0.047142606 -0.0019956182 -0.47596914 -0.1179889
0003d0 e8 07 ad bc d8 95 20 be d9 1a 7b be 52 31 1e be
       -0.021121934 -0.15682161 -0.2452196 -0.15448502
0003e0 04 b9 a6 bc 84 1f 7e 3d 2c 3c 11 be 00 0e e9 bd
       -0.020351894 0.062041774 -0.1418311 -0.113796234
0003f0 a6 e7 87 bd 23 26 83 be 17 5c 39 be dc d3 0e be
       -0.0663598 -0.25615034 -0.18101536 -0.13948005

fc2.bias f4 [128]
000000 4a 28 b2 bb 5a bf 87 be 4d a3 8d bd bd 8a 7a bd
       -0.0054369317 -0.26513177 -0.06915913 -0.061167467
000010 db 6f f8 3d ad 13 69 3d 21 2a b4 bd 89 0d eb bc
       0.1213071 0.05690353 -0.08797098 -0.028692978
000020 17 3c 90 3e ff b5 89 be 87 2e 1a 3f be aa a4 3d
       0.28170845 -0.26896665 0.60227245 0.08040379
000030 95 19 62 3d 01 ff 55 bd df 4a c4 bd d3 ac 95 bd
       0.05520018 -0.052245144 -0.09584593 -0.07308354
000040 74 0a a1 bd 0b a6 23 bb 16 d7 69 be 42 5b f8 bd
       -0.07863322 -0.0024970795 -0.22835955 -0.12126781
000050 22 4f 8e bd c9 2b 9a bc 04 dc 9a bd 96 54 ec bd
       -0.06948687 -0.018819707 -0.07561496 -0.11539571
000060 b3 35 94 bd e5 a2 e5 bd 70 5a 10 3e 74 24 42 bd
       -0.07236805 -0.1121271 0.14096999 -0.047398046
000070 23 09 62 be f5 8d c9 bc 2f e4 9c bc 61 e0 62 bd
       -0.22073798 -0.024603823 -0.019151775 -0.055389766
000080 b0 c4 4c bd eb 18 a6 bd ad 42 ab 3d fa 76 6b bd
       -0.049992263 -0.081102215 0.08362327 -0.05748651
000090 9e a9 b9 bd 0f 17 5f bd a8 8a 0f be 85 fb e2 bd
       -0.09065555 -0.05446535 -0.14017737 -0.1108313
0000a0 cc 25 6d bd e9 17 50 bd 14 1a c3 bc c9 22 cc bd
       -0.057897374 -0.050804053 -0.023816146 -0.09967572
0000b0 c6 7f c4 be 1e 5f 39 bd 8c 3f e6 bd fb 06 d6 bc
       -0.38378733 -0.045256726 -0.11242589 -0.026126375
0000c0 99 59 41 be 52 f8 a7 bd 26 b3 43 be e5 f5 a5 bd
       -0.18881835 -0.0820166 -0.19111308 -0.08103541
0000d0 6b 7d 4c 3e 0d 5a a9 bd c8 27 a1 bd 36 4c 6e bd
       0.19969718 -0.08269129 -0.07868916 -0.05817815
0000e0 aa b2 12 bd 99 8c 9a 3c 58 1d 0c 3d 32 9f 40 3c
       -0.03581492 0.01886587 0.034207672 0.011756705
0000f0 03 7f 4c bd b9 2f 0a be 92 c4 37 bc b8 98 c0 bd
       -0.049925815 -0.13494767 -0.0112163 -0.09404129
000100 37 5c 95 bd 82 32 cc bd 61 cf 1b bd 17 b6 28 be
       -0.07292979 -0.09970571 -0.03803957 -0.16475712
000110 c2 cf 89 bb 13 cb 08 be b4 bc ff bd 6c 77 34 be
       -0.004205675 -0.13358717 -0.12487164 -0.17623681
000120 54 3a 1f 3e be f7 b6 bd ee 27 ab bd 38 53 a9 bc
       0.15549594 -0.08933972 -0.08357225 -0.020669565
000130 9b 59 38 bd a5 63 77 3c f5 22 64 be 69 78 62 3e
       -0.04500733 0.015099441 -0.2227896 0.22116245
000140 7b b8 ec bd bc a9 95 3d 30 1c b2 3e 21 8d b7 3d
       -0.11558624 0.07307765 0.3478713 0.08962465
000150 e7 77 37 3c 65 01 a9 bd 83 b5 61 3e a4 b5 0f be
       0.011198021 -0.08252219 0.22041897 -0.14034134
000160 c5 a9 48 3f a7 e4 10 be a9 f4 c7 3d 16 46 64 be
       0.7838405 -0.14149724 0.09763462 -0.2229236
000170 a3 7c d8 bd ba 75 b7 3d 0c c3 23 3e 6d bb f1 bc
       -0.105706476 0.089580014 0.15992373 -0.029508317
000180 2e 0b db bd 80 00 8c 3d 44 93 75 bc f5 fc 8e bd
       -0.10695492 0.06836033 -0.014988724 -0.069818415
000190 81 dc aa bc 89 7b 1f bc 16 c1 c5 bd b4 22 94 bd
       -0.020857098 -0.009734043 -0.09655969 -0.072331816
0001a0 d8 86 5e bd 28 7b c1 3b 12 28 28 bd d5 c2 81 bd
       -0.054327816 0.005904574 -0.04105384 -0.063359894
0001b0 7a 35 17 be 17 6b ec 3c 20 2c 03 bd de 39 09 be
       -0.14766493 0.028859658 -0.032024503 -0.13400981
0001c0 df 16 f5 3d bc de 72 3c 29 3a 05 3e 25 7d e5 be
       0.11967253 0.014823612 0.13010468 -0.4482204
0001d0 2e c9 3c be 04 6f 7e bd a3 b0 4d 3c f2 e1 98 be
       -0.18436119 -0.06211759 0.0125543205 -0.29859883
0001e0 f8 81 f7 3e 1c 0e 69 3c b9 c7 39 3c f3 44 9f 3c
       0.48341346 0.014224555 0.0113391215 0.019442057
0001f0 63 3d d4 3b 39 7a 3d be f8 41 36 be db 03 cc 3d
       0.0064770444 -0.18503655 -0.17798603 0.09961673

dist.fc_mean.weight f4 [4, 128]
000000 cb 75 2e bd 86 27 3d 3d 0b 8c ec bc a0 5e a1 3a
       -0.042592805 0.04618027 -0.028875371 0.0012311526
000010 27 d1 dc bc c9 42 39 3b 0c 4f ab bc 1f 8d 41 3c
       -0.0269552 0.0028268567 -0.020911716 0.011813431
000020 22 db 3a 3d 27 87 04 bd 9f 0f a9 b8 1b 9e 9b 3b
       0.045619138 -0.032355454 -8.0614576e-05 0.0047490722
000030 1a 79 aa 3e 1f ab 3c 3e 97 6c aa 3e b4 ba ff 3d
       0.33295518 0.18424653 0.33285972 0.12486783
000040 c8 02 3a bf f5 67 1d bf dd 14 80 bf 23 ef ed 3f
       -0.72660494 -0.6148675 -1.0006367 1.8588604
000050 f8 f2 71 bd 03 0f fb ba 77 0a c8 bd db 89 0f be
       -0.059069604 -0.0019154254 -0.09767621 -0.14017431
000060 d0 21 a9 be e6 5b de bd 28 ae 2a 3c ac 85 98 be
       -0.3303361 -0.10857372 0.010417499 -0.29789484
000070 5c 9e 39 3d e5 71 99 3d 84 19 cf be a2 5c db bd
       0.04531704 0.07492427 -0.40449154 -0.10711028
000080 b3 8b 6f be e4 b5 ae bd 72 a2 8b 3a dd 92 c3 3e
       -0.23393135 -0.08530787 0.0010653271 0.38197985
000090 e1 e1 8d 3e 99 b4 c1 3c e8 a2 86 3f 4d f7 8a be
       0.27711394 0.023645686 1.0518465 -0.271418
0000a0 c6 6b a8 3d 57 10 8c 3d e8 9e 5d 3f 01 af 5a bc
       0.08223681 0.06839054 0.86570597 -0.013347388
0000b0 32 d8 80 3c c7 ca 14 be 87 39 a0 bf ca d9 2b 3d
       0.01572809 -0.14530478 -1.2517556 0.041955747
0000c0 c9 5e 47 3e 20 7d 44 be eb 6b 9a bd fb f4 61 be
       0.19469751 -0.19188356 -0.07540115 -0.22066109
0000d0 e8 70 a9 3c 36 98 7a be 9b 4d 64 bd e7 0d dc bd
       0.02068372 -0.24472126 -0.055738073 -0.10744839
0000e0 d3 bd 2e bd 71 b9 cd 3b 6c e1 31 ba 38 43 07 3d
       -0.0426615 0.00627821 -0.00067856046 0.03302309
0000f0 70 26 46 3e e6 0e c3 3c db 90 38 3d 27 e2 93 3c
       0.193506 0.023810815 0.04506002 0.018052174
000100 18 ae 85 bd dc 53 f7 bd ad 16 8c be 84 6a 2a 3d
       -0.065273464 -0.12076542 -0.2736105 0.041605487
000110 d8 29 31 be 83 62 8a bc db 4c 51 be c3 90 a5 bf
       -0.17301118 -0.016892677 -0.20439474 -1.2934803
000120 65 87 97 3b 8c ca 5d bc 8e a0 70 3e 41 fd 0b 3e
       0.0046242946 -0.0135370605 0.23498747 0.13670827
000130 fb ec 63 bf 73 16 86 3c a5 f1 c3 3e 33 17 cd bb
       -0.8903348 0.016368126 0.38270298 -0.006258869
000140 d6 29 1a bf df b8 17 3c 03 52 c2 3c 07 80 e8 3c
       -0.60220087 0.009260385 0.023720747 0.02838136
000150 ed 5c ea 3d fa d7 4d 3e f8 26 2c 3c 7c 54 43 bd
       0.114435054 0.2010192 0.010507338 -0.047687992
000160 4a a9 0d 3d e4 73 9d 3c 23 77 d4 3b 67 17 e6 bb
       0.034585275 0.0192203 0.0064839288 -0.0070218327
000170 be 58 00 bc c2 fd fd 3c 41 3b 65 3c 67 e1 59 3c
       -0.007833658 0.03100479 0.013991178 0.013298369
000180 c5 12 05 bf de 85 2a be 3b 18 35 be d3 af 83 be
       -0.51981765 -0.16652629 -0.17685024 -0.2572008
000190 2e e1 76 bd 96 eb 7d bd 75 c0 f3 bc 65 31 3c 3f
       -0.06027334 -0.06199225 -0.029754857 0.7351287
0001a0 4d c5 9f 3d f1 58 f8 3d 2d 6c 61 bb f8 49 b7 3c
       0.07801304 0.12126339 -0.0034396753 0.022374138
0001b0 48 3a 84 3f 83 ed 80 bd 43 02 b3 bc 0c f5 49 bf
       1.0330286 -0.06295302 -0.021851664 -0.78889537
0001c0 6c 45 a6 3d 48 00 4c 3e 5f d1 b2 bc ee 9c c1 be
       0.0811871 0.19921982 -0.021828352 -0.3781504
0001d0 6a c0 a9 bc 82 e4 57 bc 6c da 17 3d 50 30 06 3f
       -0.020721633 -0.013177039 0.037073538 0.5241747
0001e0 02 69 2d 3d 51 3b bf 3e 3d 67 d8 bb c8 53 86 3d
       0.04233647 0.37349942 -0.006604104 0.06558949
0001f0 2f ab 66 be e3 5e 09 bd 86 b8 b4 be 3d 38 ba bc
       -0.22526239 -0.033537757 -0.3529703 -0.022731895
000200 f6 95 0e 3b 21 86 21 3d ba d8 5f be 8d c9 52 3a
       0.0021756864 0.039434556 -0.21860018 0.00080408977
000210 07 6f 10 bb 2a b3 d5 b9 b1 b4 b9 b9 86 c7 0d bd
       -0.0022038834 -0.00040760014 -0.00035420575 -0.03461411
000220 97 e9 0a 39 6e cd 13 bc d5 b8 db 38 d0 04 6c 3a
       0.00013247725 -0.009021146 0.000104771614 0.00090034027
000230 eb eb 57 bc 1e e5 4d bc 6f 39 c8 bb 79 e3 91 3c
       -0.013178806 -0.012566833 -0.0061103622 0.017808663
000240 b9 b1 8b bc 41 ce e0 3c 18 7a 45 bb 13 06 a6 38
       -0.017052518 0.0274421 -0.0030132588 7.916628e-05
000250 93 a3 96 3d 38 fe 86 b9 26 2f 8f 3c 54 5b 0b bc
       0.07355418 -0.0002574788 0.017478537 -0.008505661
000260 e7 c3 78 bc 7d cb b4 3d ff 67 0c 3b a7 94 ff 3b
       -0.0151834255 0.08827875 0.0021424291 0.007799703
000270 a9 ee 2f bb e3 36 01 3d 07 2e 92 b8 11 41 a8 bc
       -0.0026845133 0.031546485 -6.970396e-05 -0.020538839
000280 3e 57 d0 bc e5 c6 17 3c 4e 38 a9 ba 8d dc 86 bb
       -0.025432225 0.009263729 -0.0012910457 -0.004115647
000290 92 d5 db 3c 4a 71 0b bb 3c 9c 4e bc e9 f3 04 3d
       0.026835237 -0.0021277242 -0.012610491 0.032459173
0002a0 0f 54 3a bd a1 0a 72 3b cc 71 6b 3a 84 03 a0 3a
       -0.04549032 0.0036932605 0.00089814956 0.0012208079
0002b0 3e 5c 7e 3a 62 86 5e 3d 55 ab 0a 3b 84 ca c7 3c
       0.0009703076 0.054327376 0.002115925 0.02438856
0002c0 16 76 9c 3a 60 4b 8f 3c 38 df f9 bc 89 72 da bc
       0.0011937048 0.017491996 -0.030501947 -0.026665943
0002d0 f5 79 2a ba 70 7e 6e 3c 24 c6 47 bc af 06 cf b9
       -0.00065031584 0.014556512 -0.0121932365 -0.00039487096
0002e0 00 35 0b 3c d4 f1 80 3c ff 21 46 bb f7 36 13 bc
       0.008496523 0.015740313 -0.0030232666 -0.008985273
0002f0 62 90 b3 bb e1 16 62 bb a6 66 6c 3c df 70 b2 3c
       -0.0054798583 -0.00344985 0.01442877 0.021782337
000300 94 d8 c4 3b 64 d1 bd 3b 52 a1 83 bc d5 8e 05 3e
       0.0060072634 0.0057927836 -0.016068134 0.13042767
000310 07 31 3f bc 06 66 15 bb dc 7a 3e 3a 56 7e 25 bb
       -0.011669404 -0.0022796406 0.0007266232 -0.0025252304
000320 85 46 89 3a 98 85 19 3b 96 0a b6 bc 4f db bc 3b
       0.0010473287 0.0023425575 -0.022221845 0.0057634483
000330 3f 20 d9 b9 8b 4f f9 3a f1 c7 01 3a 97 0c cd 39
       -0.0004141349 0.0019020898 0.0004950753 0.00039110027
000340 a6 90 25 3c f4 85 7d 37 9e 1d 6c b9 22 30 6b bb
       0.010105288 1.51111635e-05 -0.00022517747 -0.0035886844
000350 35 51 d2 39 e5 b8 5c bb 3a bd 14 39 93 b3 cf 3c
       0.00040114825 -0.0033679542 0.00014184872 0.025354182
000360 34 bb f7 39 83 e4 2f bb ba 6d dd 3a 32 82 b4 3c
       0.00047250988 -0.0026839084 0.0016893663 0.022034738
000370 14 09 10 3b 44 4c 17 39 09 37 e7 3a 40 14 70 bd
       0.0021978067 0.00014428893 0.0017640303 -0.058613062
000380 c4 1f 9e 39 0e 29 bf 37 ed dd ce 3c 7b 6d 3a 3c
       0.00030159776 2.2788092e-05 0.025252307 0.011378641
000390 48 68 03 bd cb 2d 1a bb 65 7f 9a 3b e1 4a 4a 3b
       -0.032081872 -0.002352583 0.0047148936 0.0030867385
0003a0 34 c6 d0 bc d0 11 8a 3c 0e eb 0b 3c 80 81 24 3b
       -0.025485136 0.016854197 0.008539928 0.0025101602
0003b0 c6 aa 21 3b 84 b1 83 3a bf c5 38 ba 35 f0 55 3c
       0.002466844 0.0010047411 -0.00070485094 0.013057758
0003c0 7b 4e 90 bb 79 ad b7 bb 5d d6 1c 3b 5c af 86 bc
       -0.004403887 -0.0056053963 0.0023931481 -0.01644104
0003d0 b8 10 2b 3b 17 5d b1 3b d1 de cd 3a 29 8e de bb
       0.0026102494 0.0054127085 0.0015706663 -0.006791849
0003e0 d0 c1 11 b9 2d e0 d5 bc c7 ea 42 3a ad 3f e0 3c
       -0.00013900478 -0.026107872 0.0007435497 0.027374113
0003f0 b0 96 b4 bc 38 af af bb 7a ee 59 3a 4a 3d 86 b9
       -0.02204451 -0.005361464 0.0008313429 -0.00025604136

dist.fc_mean.bias f4 [4]
000000 b7 bf 98 bd d6 ef 73 38 e2 b1 18 39 96 a3 7f 3b
       -0.07458442 5.815908e-05 0.00014562116 0.0039007417

dist.fc_logstd.weight f4 [4, 128]
000000 f7 c7 0a bf c4 b7 a6 bf b9 ce 23 be 7b e4 1a 3e
       -0.5421137 -1.3024831 -0.15996827 0.15126221
000010 ff 26 d8 c0 bb c2 57 c0 99 ae 80 c0 c6 cd 0d be
       -6.7547603 -3.3712604 -4.021313 -0.13848028
000020 d1 83 82 3c 9e bc fc bd 11 1f dc 3d 70 d2 66 c0
       0.015931996 -0.123406634 0.10748113 -3.606594
000030 95 d9 a5 bf 6b 7f 15 be c7 9f a0 bd 56 e6 ee 3d
       -1.2957026 -0.14599387 -0.07842975 0.11665027
000040 45 a4 08 3f 4b f6 33 bf 93 0b 44 3e 19 61 4d bf
       0.53375655 -0.7029769 0.1914504 -0.80226284
000050 91 f1 05 bd aa d9 ee bd 82 7f 82 bd 24 4a c6 be
       -0.03270108 -0.1166261 -0.063719764 -0.3872844
000060 78 87 ac 3e c1 f2 0e bd 8a 8b 43 be e7 1a 67 bd
       0.33697104 -0.034899477 -0.19096199 -0.05642214
000070 a0 78 ab bf b2 25 30 bf ec 68 ab 40 49 41 16 bf
       -1.3396187 -0.6880752 5.356558 -0.5869337
000080 6c 1a 81 bf 20 81 05 bd c9 66 04 bf cb 32 81 be
       -1.0086188 -0.032593846 -0.5171934 -0.25234064
000090 00 0c c9 3f b2 82 d1 be db c3 ac bf 64 a2 37 3e
       1.5706787 -0.40920025 -1.349727 0.17933041
0000a0 90 f0 75 3d 0f ef 5d c0 19 c8 35 bd 47 72 92 3f
       0.06004387 -3.467716 -0.04438028 1.1441125
0000b0 b9 84 d1 bf bc e5 c0 bf 6c 56 eb 40 ce 3a 34 bf
       -1.6368629 -1.5070109 7.3542995 -0.7040223
0000c0 1c 47 c2 3f db 9d 10 3d e8 1a 19 be ad e9 35 be
       1.5177951 0.035306793 -0.1495167 -0.17764921
0000d0 99 7a b4 be 54 fd 9e 3d e2 45 56 bf f1 f1 02 bf
       -0.35249785 0.07763162 -0.8370038 -0.51150423
0000e0 87 de 19 3e 06 f9 bb 3c ef 5a 3c c0 3a a9 1a 3d
       0.15026294 0.022945892 -2.9430501 0.037759043
0000f0 aa d1 a0 be d3 73 c7 c0 62 28 93 3e 22 76 82 bf
       -0.3140996 -6.2328887 0.28741747 -1.0192301
000100 48 86 b8 bd 25 7f 63 bc 5a 2a 76 be 39 eb 8d bf
       -0.09009987 -0.013885294 -0.24039593 -1.1087409
000110 c7 88 f0 bd 28 89 ae 3f 15 20 da bd fc 31 df bf
       -0.11744838 1.3635607 -0.106506504 -1.7437129
000120 22 5b a4 c0 e8 b1 7b bf a7 94 54 3c 09 d0 99 be
       -5.1361246 -0.9831834 0.012974895 -0.3004153
000130 da e4 8b 40 4c 1e 8a bf 18 ed a1 3f e0 9b d2 c0
       4.371686 -1.0790496 1.265048 -6.5815277
000140 ce c2 37 bf ce 00 f1 3e e0 0f 2f c0 32 59 27 c0
       -0.71781623 0.47070926 -2.735344 -2.614819
000150 26 a4 8d 40 ce d8 b8 bd 57 1f 9d c0 e8 7f 96 bd
       4.4262877 -0.09025727 -4.9100757 -0.07348615
000160 6f 38 2c be db cf d1 c0 ee 5b 17 bf 7e 42 6b bf
       -0.16818403 -6.556623 -0.5912465 -0.91898334
000170 7a f9 ca bc f4 78 b4 bf a2 b0 02 40 b0 6b b7 bd
       -0.024777163 -1.4099412 2.0420308 -0.08956087
000180 fd 99 82 be 5f 3a a2 be 9d 62 16 be c2 92 83 bd
       -0.2550811 -0.3168516 -0.14686055 -0.06424476
000190 d6 5c 07 be 9e 6a 8c 3e e1 15 1f be e5 70 1b bf
       -0.13219008 0.27425092 -0.1553569 -0.6071914
0001a0 1d 49 db 3e 50 30 92 3e 87 73 f6 be ca 84 d7 bf
       0.42829219 0.28552485 -0.48135015 -1.6837399
0001b0 1f d9 a7 bd 95 db ed bd 9b 59 d6 be ab f8 67 bf
       -0.081957094 -0.116141476 -0.4186524 -0.9061381
0001c0 e8 76 82 40 5b 95 05 40 c1 a5 08 41 95 0c 6c bf
       4.077015 2.087241 8.540467 -0.922067
0001d0 74 b4 bb c0 20 b5 bf bd 00 f9 a7 3f f0 f8 a1 bf
       -5.865778 -0.09360719 1.3122864 -1.2654095
0001e0 98 e8 1a bd 69 32 b5 be 93 b6 dc c0 6b 92 8f bf
       -0.037819475 -0.35390022 -6.897287 -1.1216558
0001f0 b9 94 bf be 7a f9 35 3d 9c b6 11 3f 5d ba c2 be
       -0.37418154 0.044427373 0.56919265 -0.3803281
000200 fa e5 c4 be 37 b6 d1 be b5 0c 96 3c 2a c2 0a be
       -0.38456708 -0.4095933 0.018316606 -0.1355063
000210 04 3d 11 bf aa dc f2 3f f2 28 04 c0 c5 f8 b8 be
       -0.5673373 1.8973591 -2.064999 -0.36127296
000220 a7 25 f0 bf 11 87 72 bf 5b ed 9c bf b1 c5 74 be
       -1.876149 -0.94737345 -1.2259935 -0.23903538
000230 fd 64 0b c0 b2 b3 8d bd 8f 72 20 be a5 e6 78 3c
       -2.1780388 -0.0691904 -0.156687 0.015191709
000240 1d e8 62 be ed 31 f2 be 79 4e be bf 3b 7c 97 3f
       -0.22158857 -0.47303715 -1.4867698 1.1834787
000250 62 c7 db bd de 38 ab bd 4b ac 49 be d2 1a 0c be
       -0.10731389 -0.08360456 -0.19694631 -0.13682106
000260 81 de 70 be da b3 76 bc 8f b2 46 40 05 8d 33 be
       -0.23522379 -0.015057528 3.1046484 -0.17534263
000270 5a 4c 62 3e d5 40 98 bf cf 7d 39 c0 79 87 b4 be
       0.22099438 -1.1894785 -2.8983037 -0.35259607
000280 ec 58 d4 be 1c ec c4 bf e7 0c 94 bd f9 6c 2d bf
       -0.41474092 -1.5384555 -0.072290234 -0.67744404
000290 02 75 0f bf 53 78 5f bf c3 ef 84 bf 92 71 06 bd
       -0.56037915 -0.87292975 -1.038567 -0.032823153
0002a0 72 8c 88 bd ec 52 96 bf f3 bc 29 bf d6 28 92 bf
       -0.06667413 -1.1744056 -0.6630394 -1.1418712
0002b0 d9 83 0e be a1 1a a6 be 84 d2 91 3e 4d 91 d8 be
       -0.13917483 -0.3244219 0.28480923 -0.42298356
0002c0 28 14 0c c0 7e 09 b1 be 0a 0f d6 bf f5 f4 4d be
       -2.1887302 -0.34577554 -1.672334 -0.20112975
0002d0 21 3d f7 bf 31 37 1f bd 6f df 9a bd 08 ed 01 bf
       -1.931553 -0.038870994 -0.07562148 -0.50752306
0002e0 ab 0e 8b be 4c 9a 16 c0 96 4b c3 be cf 34 eb be
       -0.27159628 -2.3531675 -0.38143605 -0.45938727
0002f0 68 a1 74 be d1 76 14 c0 dd 60 3e be cd f3 5c c0
       -0.23889697 -2.319752 -0.18591638 -3.4523804
000300 b3 a9 70 bf 66 8f 59 bd da 65 47 bf c5 fc fd bf
       -0.9400894 -0.05311527 -0.7788979 -1.9842764
000310 f0 0f 53 bf a3 99 01 c0 4a a0 ee bf dd 41 04 c0
       -0.82446194 -2.0250022 -1.8642666 -2.06652
000320 53 5d 59 bf e7 39 96 bf a7 91 56 bd 40 03 00 be
       -0.84908026 -1.173642 -0.052385 -0.1250124
000330 d2 c9 2e 3f db b1 d0 be 7b ec ed bf 93 1c 03 bf
       0.68276703 -0.40760693 -1.8587793 -0.51215476
000340 e9 09 f7 bd e6 d8 3f 40 e2 b4 db bf 21 2d b3 bf
       -0.12062437 2.9976134 -1.7164576 -1.3998147
000350 81 5a 47 bf 82 65 89 be 08 f1 78 be c9 7f c9 be
       -0.77872473 -0.26835257 -0.24310696 -0.39355305
000360 59 5b 19 c0 06 8d a2 be 50 d0 6b 3f 2d b9 94 be
       -2.3962004 -0.31748217 0.92114735 -0.29047528
000370 d9 12 55 be 7c c7 e5 3f de 7b 25 bf 87 1b db bd
       -0.20807971 1.7951503 -0.6464213 -0.1069861
000380 e5 1e d0 bf 2d 38 81 be bb ff d0 bc 2d 9f 0c be
       -1.6259428 -0.2523817 -0.025512567 -0.13732596
000390 40 30 f9 be 64 a6 77 bc 79 18 f4 bc d6 2d 96 bf
       -0.48669624 -0.015115354 -0.029796826 -1.1732738
0003a0 c3 34 c5 be c5 18 fc bd 21 80 9e be 24 24 11 40
       -0.38516816 -0.12309412 -0.3095713 2.2678308
0003b0 c8 35 b4 bf 35 6c ff 3f d8 98 a0 be aa b6 a2 bf
       -1.4078913 1.9954897 -0.3136661 -1.2711995
0003c0 44 fb ce bf c4 9f 87 bf 5d 33 61 3f 49 ec fe be
       -1.617043 -1.0595632 0.87969 -0.49789646
0003d0 11 e5 c9 bf 5a 90 1d bc 5f 36 c7 be e4 d2 fd bd
       -1.577303 -0.009616936 -0.3890867 -0.1239374
0003e0 3b 32 fb bf 7b 3c fd be dc 68 8a 3e 9a 53 d9 bf
       -1.9624704 -0.49460205 0.27033126 -1.6978638
0003f0 c9 bb 14 bf 98 de 84 3e bf f5 38 3e ae 56 cb bf
       -0.5809904 0.25951076 0.18062495 -1.5885828

dist.fc_logstd.bias f4 [4]
000000 14 b6 e2 be c4 72 16 c0 d8 b5 a8 bf ca 52 04 bf
       -0.4427954 -2.3507547 -1.3180494 -0.51688826

exp_avg f4 [128, 15]
000000 db 61 1b be ce 36 4e be 95 cc 7a bd 6b 2b f6 3c
       -0.15174048 -0.20138094 -0.06123026 0.03005
000010 1a 41 17 bd 54 0a cd 3b 32 53 e9 3c b3 44 df 3d
       -0.03692732 0.0062573347 0.028482053 0.10901775
000020 c1 6f 6b 3e 80 1f 67 bc 2a f1 02 3e a9 22 b0 3c
       0.2299185 -0.014106631 0.1278731 0.021500902
000030 00 00 00 00 00 00 00 00 21 b7 c5 3d b6 25 55 3c
       0.0 0.0 0.0965407 0.013009479
000040 44 18 aa 3d 0b ab c2 bd 9d 21 ca bb ab 8d fa 3c
       0.083054096 -0.0950528 -0.006168558 0.03058513
000050 b4 90 a2 3d 09 a0 83 3a 6f 05 6f bc 46 9f 7b bd
       0.07937756 0.0010042201 -0.014588698 -0.06143119
000060 31 6b 13 bc c4 a5 1c bc 2d 54 b9 bc 00 00 00 00
       -0.008997724 -0.009561006 -0.022623146 0.0
000070 00 00 00 00 6e 74 b7 3d 58 94 0a bc 81 f5 24 3c
       0.0 0.08957754 -0.0084582195 0.010068298
000080 65 aa 39 3e 7d bb a4 3d 07 ed 15 bd 48 e2 3e 3d
       0.18131407 0.08043573 -0.036603 0.046602517
000090 ab b2 12 bc 3b dc a6 bd 16 b0 08 3e c4 91 50 3c
       -0.008953731 -0.081474744 0.13348421 0.012730066
0000a0 bd 5b 63 3c c5 08 96 3e 00 00 00 00 00 00 00 00
       0.013876853 0.29303566 0.0 0.0
0000b0 14 23 5e 3d 76 6c ad bd 7d 68 0e be c5 de a8 bd
       0.05423267 -0.08467953 -0.13907047 -0.08245615
0000c0 ab 68 75 be 0e cc 3d 3e f5 6b f6 3d 39 93 bf 3d
       -0.23965709 0.18534872 0.1203231 0.09354252
0000d0 84 63 c8 3d 49 bf 54 3e 3b aa a2 3d b4 5e 13 bd
       0.09784606 0.20776094 0.07942625 -0.035978988
0000e0 4d ae c3 3e 00 00 00 00 00 00 00 00 b1 79 7a bf
       0.38218918 0.0 0.0 -0.97841936
0000f0 f3 45 6c bd e7 4a 0c 3e 5e 49 8d be c6 b6 7f bd
       -0.057683896 0.13700448 -0.27595037 -0.062430166
000100 a0 aa d6 3d af 95 ab 3e ed c3 33 3d c8 af 09 3e
       0.10481763 0.33512637 0.04388802 0.13445961
000110 c7 47 d8 bd 2f ce c2 3c 80 59 f3 3d e3 9a 2a be
       -0.105605654 0.023779957 0.11882305 -0.16660647
000120 00 00 00 00 00 00 00 00 67 2d f9 be 62 c7 f4 bd
       0.0 0.0 -0.48667452 -0.11952092
000130 15 15 af 3c d1 5e 5e 3e df 31 1f bc 5e f2 67 bc
       0.021372357 0.21715857 -0.00971648 -0.014156906
000140 ea 51 0a 3c f7 b9 a3 bb 20 b7 7d 3c 0f 6c e6 3d
       0.008442381 -0.004996534 0.015485555 0.11251079
000150 9f f1 95 3b d1 1d 0b 3b 38 62 39 3e 00 00 00 00
       0.0045759226 0.0021227489 0.18103874 0.0
000160 00 00 00 00 2c f6 11 3f 37 87 28 3d 7d 02 67 be
       0.0 0.57016253 0.041144576 -0.22559543
000170 d8 a6 2e bd 26 20 a2 3d d8 2d a8 bd d5 4d 61 bd
       -0.042639583 0.07916288 -0.08211869 -0.055005867
000180 69 36 2e bd 71 7e 91 bd c7 d4 b7 3d 65 cb 1d bd
       -0.04253236 -0.07104195 0.08976131 -0.03852405
000190 11 32 5d bd 8b 63 0d 3e 00 00 00 00 00 00 00 00
       -0.054002825 0.13807504 0.0 0.0
0001a0 c2 a8 19 3e 64 cd de bb 94 64 c7 bc 72 34 3d bd
       0.15005782 -0.006799387 -0.024339952 -0.046192594
0001b0 bc 4b c7 bd db 67 b7 3c 92 8a 0d be 6d 81 3e b9
       -0.09731242 0.02238839 -0.13822392 -0.00018168027
0001c0 67 bb f1 3d 31 47 20 3c 83 31 3d 3c 0e f2 99 3d
       0.11803322 0.009782598 0.011547449 0.075168714
0001d0 38 1e 20 3e 00 00 00 00 00 00 00 00 13 62 49 bd
       0.15636528 0.0 0.0 -0.049165796
0001e0 cc 71 f1 3c cf 08 96 3d f6 cd 2e bd 10 c2 51 3e
       0.029473208 0.07325899 -0.04267689 0.20484185
0001f0 04 48 11 be 35 94 14 3d 58 23 52 bd af 2c 56 be
       -0.14187628 0.036274154 -0.051303238 -0.20915483
000200 d0 76 86 3d 2d 02 1b 3d 2f 9b d6 39 36 58 e5 3d
       0.065656304 0.03784387 0.00040932882 0.111984655
000210 00 00 00 00 00 00 00 00 37 c2 25 bd 9a 55 6e be
       0.0 0.0 -0.04046842 -0.23274842
000220 fd 7f 44 bd cf a3 ae 3d e5 3f 56 be 0b a8 e4 3c
       -0.04797362 0.08527338 -0.20922811 0.02791216
000230 23 b6 f2 bd 12 ce 5d bc 80 f0 af 3d 38 e9 ae bd
       -0.11851146 -0.0135379005 0.085907936 -0.08540577
000240 c2 20 96 bc 1c 3d 9b bb c9 5e 0d be 00 00 00 00
       -0.018326167 -0.0047375094 -0.13805689 0.0
000250 00 00 00 00 89 35 29 3e 79 23 80 3c 43 55 1a 3e
       0.0 0.16524328 0.015641915 0.15071587
000260 a6 ef 0e be e8 6f 9f 3d 14 ba bd bd 86 f7 42 bb
       -0.13958606 0.07785016 -0.09264007 -0.0029749586
000270 7e ec 42 3b c0 51 3a 3d c6 56 b5 bd e7 b0 e5 ba
       0.002974301 0.04548812 -0.08854441 -0.0017524034
000280 6e 7b a3 3d 78 33 89 3d 00 00 00 00 00 00 00 00
       0.07982527 0.0669927 0.0 0.0
000290 e3 38 17 3e 9b 5b 50 3c 7f f9 e2 bd 0f 84 9a bc
       0.14767794 0.012717153 -0.11082744 -0.018861799
0002a0 37 f2 91 bd 26 19 b5 3c 2e 78 d4 3d 94 e8 7a 3c
       -0.07126277 0.022106718 0.10374485 0.01531424
0002b0 b2 3a 62 3c 3a 20 b2 3d 76 69 4b bb 51 d8 1f 3d
       0.013807939 0.08697553 -0.0031038201 0.039024655
0002c0 2c f6 02 3e 00 00 00 00 00 00 00 00 f8 78 d1 bd
       0.1278922 0.0 0.0 -0.10228151
0002d0 50 8a 02 3e 77 71 4e 3d 82 36 72 3c a8 32 d3 bc
       0.12748075 0.050401177 0.0147835035 -0.02578099
0002e0 1a a0 88 3d 34 9b d1 3c 7d 50 d8 3b e4 9f a3 3d
       0.06671162 0.025586702 0.006601392 0.07989481
0002f0 e0 d2 06 be 39 b2 04 bc b5 8d 68 bc 54 ae 4c bd
       -0.1316638 -0.008099132 -0.014193942 -0.04997094
000300 00 00 00 00 00 00 00 00 45 01 b5 bd e3 b7 2e 3e
       0.0 0.0 -0.08838133 0.17062335
000310 e9 d1 6d bc 85 1e 99 3c b5 da ae 3d 78 8b e1 bd
       -0.0145153785 0.01869131 0.08537809 -0.1101293
000320 2e 25 bd bd d8 cd ae bc 95 7b 50 bd 43 6f 08 3d
       -0.09235607 -0.021338388 -0.050899107 0.033309232
000330 81 38 2a 3b b3 3c 73 3d e3 33 5f 3e 00 00 00 00
       0.002597362 0.05938406 0.21797137 0.0
000340 00 00 00 00 d1 6a 95 3e bf 8e cd bd 2b 64 7d bd
       0.0 0.29183057 -0.10036992 -0.061863106
000350 fd 82 46 bc 32 8b 3e be 26 07 19 3d 4a 92 5e 3d
       -0.012116191 -0.18607786 0.037360333 0.05433873
000360 7f aa 3f 3d b6 f3 67 3e 0f 5b e4 3d 1c 5c 34 3d
       0.046793457 0.22651562 0.111501805 0.044033155
000370 a9 0a 0f 3e 25 07 17 bd 00 00 00 00 00 00 00 00
       0.1396891 -0.036872048 0.0 0.0
000380 6e 09 4e be 4a 83 5e bd b8 41 c8 bb 8d 71 8a 3c
       -0.20120785 -0.054324426 -0.00611135 0.016899848
000390 d6 ca 55 3d 3e 9e bd bc a5 5d 46 3b 28 c0 e4 39
       0.052195393 -0.023146745 0.0030268219 0.00043630716
0003a0 23 4d 73 bd e6 c9 55 bb 54 35 67 bc e7 da 7a bc
       -0.059399735 -0.0032621562 -0.0141118355 -0.015310979
0003b0 59 5a 3e 3c 00 00 00 00 00 00 00 00 8e 21 d0 3b
       0.01161822 0.0 0.0 0.0063516563
0003c0 72 0d 37 be cb 93 6a 3c c0 2a 58 3e 48 cc 8b 3d
       -0.17876223 0.014317463 0.21110058 0.06826073
0003d0 34 b9 9c bd 71 19 53 3b 25 74 82 bc 71 e9 13 be
       -0.07652512 0.003221121 -0.015924523 -0.1444452
0003e0 64 e9 29 3e 74 08 b9 bc 5c 99 0b bd 94 6a 9f 3e
       0.16592938 -0.022587039 -0.0340818 0.31136
0003f0 00 00 00 00 00 00 00 00 d2 b4 15 3f 68 22 d0 3d
       0.0 0.0 0.58479035 0.101628125

exp_avg_sq f4 [128, 15]
000000 d1 2c 32 47 ea d7 e7 46 d9 29 ca 45 80 bf 0b 48
       45612.816 29675.957 6469.231 143102.0
000010 e1 15 14 47 fc aa 3e 49 b4 44 70 48 6a 34 1c 48
       37909.88 780975.75 246034.81 159953.66
000020 1a 01 6b 45 5f ca ca 45 de b5 53 43 2d 2e 2d 43
       3760.0688 6489.2964 211.71042 173.18037
000030 00 00 00 00 00 00 00 00 00 95 38 46 c1 cd 6f 3f
       0.0 0.0 11813.25 0.9367333
000040 e4 ce 28 3f 64 c2 8e 3f 2f 58 1c 3f 1b 06 8f 3e
       0.6594069 1.1153073 0.6107206 0.27934346
000050 2c 53 c5 3f c1 bd 71 3d 17 30 e5 3f 6c bd a7 3f
       1.5416007 0.059018854 1.7905301 1.3104682
000060 36 97 58 3d fe a7 2d 3f 21 f7 81 3f 00 00 00 00
       0.05287858 0.6783446 1.0153543 0.0
000070 00 00 00 00 cb 45 4f 40 fd 24 35 42 e6 17 81 41
       0.0 3.2386348 45.28612 16.13667
000080 75 10 94 41 f9 ad 4d 43 87 cb 05 42 13 92 7a 43
       18.508036 205.67958 33.448757 250.5706
000090 92 4b 8b 43 33 4c df 43 04 61 b8 41 3a 2e 32 41
       278.5904 446.5953 23.04737 11.136286
0000a0 9a c7 3b 40 c7 40 d3 40 00 00 00 00 00 00 00 00
       2.9340577 6.6016574 0.0 0.0
0000b0 a8 09 3e 42 e7 e9 1a 4d 83 91 c9 4c 6f c1 af 4b
       47.50943 1.6243877e+08 1.05679896e+08 2.3036638e+07
0000c0 dc 03 f3 4d ee c0 00 4d 1e c8 25 4f 3c e8 50 4e
       5.0963955e+08 1.3500797e+08 2.7813555e+09 8.7622016e+08
0000d0 ed d0 07 4e e2 43 4c 4b ed 51 b0 4b 31 9c 36 49
       5.696541e+08 1.3386722e+07 2.3110618e+07 747971.06
0000e0 7b eb 15 49 00 00 00 00 00 00 00 00 02 69 20 4c
       614071.7 0.0 0.0 4.205057e+07
0000f0 01 97 79 47 31 62 22 47 9d c7 0d 46 33 c4 43 48
       63895.004 41570.19 9073.903 200464.8
000100 10 71 4f 47 b0 8c 85 49 0c 4a a8 48 2a d2 5a 48
       53105.062 1.094038e+06 344656.38 224072.66
000110 74 94 a4 45 98 0a 0e 46 06 73 93 43 8a 48 73 43
       5266.5566 9090.648 294.89862 243.28336
000120 00 00 00 00 00 00 00 00 a9 69 81 46 bf 8a c1 49
       0.0 0.0 16564.83 1.5854959e+06
000130 a3 d4 7b 49 b0 93 5b 48 37 ce 97 4a b3 db a0 49
       1.0314982e+06 224846.75 4.9743635e+06 1.3177504e+06
000140 c5 1e cf 4b dc 7f 02 4b 98 ae a9 4a b2 32 ff 47
       2.7147658e+07 8.552412e+06 5.56014e+06 130661.39
000150 29 49 5c 48 ed 25 e4 45 cf 50 bb 45 00 00 00 00
       225572.64 7300.7407 5994.101 0.0
000160 00 00 00 00 04 68 c8 48 4e ae 8c 3f f7 c4 ec 3f
       0.0 410432.12 1.0990694 1.8497609
000170 8f 00 3c 3f 1d 18 df 3f bf 92 07 3f 2c 0a cf 3e
       0.7343835 1.7429234 0.5295829 0.40437448
000180 71 1b 4a 3d 68 22 d3 3f 18 77 00 40 fa 2a 1a 3e
       0.049342576 1.6494875 2.007269 0.15055457
000190 b9 4f 22 3f 52 19 6e 40 00 00 00 00 00 00 00 00
       0.634029 3.7202954 0.0 0.0
0001a0 40 1f 25 41 6a 70 32 49 e4 2b e8 48 d3 83 ca 47
       10.320129 730886.6 475487.12 103687.65
0001b0 92 f6 0b 4a 10 4e 14 49 ff f2 3e 4b 30 a2 70 4a
       2.2931565e+06 607457.0 1.2514047e+07 3.94254e+06
0001c0 08 76 1c 4a b2 5c 6b 47 25 1b cb 47 98 98 52 45
       2.563458e+06 60252.695 103990.29 3369.537
0001d0 83 f2 2c 45 00 00 00 00 00 00 00 00 c1 d5 38 48
       2767.157 0.0 0.0 189271.02
0001e0 0a 15 ce 41 5e e4 08 41 8e bc 18 41 66 b9 e3 42
       25.760273 8.555754 9.546034 113.86211
0001f0 df 87 93 41 1a 1e 0a 43 c5 4c 1a 43 a9 8d 78 43
       18.441343 138.11758 154.29988 248.55336
000200 45 57 49 41 25 97 c2 40 56 0d 40 40 44 42 a1 3e
       12.583806 6.0809503 3.000814 0.3149587
000210 00 00 00 00 00 00 00 00 82 ee 94 41 6c 9d 58 3f
       0.0 0.0 18.616459 0.84615207
000220 d3 85 8a 3f f7 15 e2 3e ca 03 24 3f 03 2a e1 3e
       1.082209 0.44157383 0.6406828 0.43977365
000230 64 3d d9 3e c0 86 a5 3d 73 03 fe 3e 41 ce 45 3f
       0.4242965 0.08082342 0.49612007 0.77267843
000240 86 a0 32 3d 2d 18 f2 3e a5 1f 34 3f 00 00 00 00
       0.04361012 0.4728407 0.70360786 0.0
000250 00 00 00 00 d2 1e cf 3f ac b8 f5 4b 67 dc 9f 4b
       0.0 1.6181281 3.2207192e+07 2.0953294e+07
000260 50 64 8b 4a 9d bb c0 4c f4 39 cc 4b 96 7a 03 4e
       4.567592e+06 1.0104753e+08 2.676836e+07 5.514623e+08
000270 b3 ae 25 4d 08 6f d7 4c 88 02 22 4a d8 d6 8b 4a
       1.7373061e+08 1.1294931e+08 2.65437e+06 4.582252e+06
000280 da d8 10 48 3a cc ed 47 00 00 00 00 00 00 00 00
       148323.4 121752.45 0.0 0.0
000290 f2 71 fe 4a 11 c2 59 3f 76 78 0d 3f f4 6c cd 3d
       8.337657e+06 0.85061747 0.55261934 0.10030547
0002a0 c3 e5 b0 3e ee 6a 82 3e 6c a9 ce 3d a7 04 f1 3c
       0.34550294 0.25472206 0.100909084 0.029421164
0002b0 69 37 36 3f 08 c9 47 3e b8 b9 b7 3d 37 69 63 3e
       0.711783 0.19510281 0.0897097 0.22208105
0002c0 af 85 b6 3e 00 00 00 00 00 00 00 00 0f 0b 10 3f
       0.35648867 0.0 0.0 0.56266874
0002d0 e7 b2 82 3f 8b 03 13 40 42 4e 37 3f 5e 8e 04 3f
       1.0210847 2.2970912 0.71603787 0.51779735
0002e0 76 cd cb 3e 68 f4 d8 3e 31 2a 80 3d 55 c7 1b 3f
       0.39805192 0.42373967 0.06258047 0.6085103
0002f0 26 ce a0 3f fa 92 07 3d f0 20 33 3f 09 f2 bd 3e
       1.2562912 0.033099152 0.69972134 0.3709872
000300 00 00 00 00 00 00 00 00 b8 84 e3 3f 2a 3f 2e 4c
       0.0 0.0 1.7774878 4.5677736e+07
000310 35 b9 e2 4b 1f b0 c5 4a b2 ab 08 4d 2f d2 10 4c
       2.9717098e+07 6.4778395e+06 1.433096e+08 3.7963964e+07
000320 81 78 3a 4e 70 fa 6a 4d 0c c4 18 4d 99 c1 65 4a
       7.821149e+08 2.4639258e+08 1.6018656e+08 3.7643262e+06
000330 e3 52 c6 4a a2 65 4d 48 a8 a1 28 48 00 00 00 00
       6.4986735e+06 210326.53 172678.62 0.0
000340 00 00 00 00 d0 6d 34 4b 48 9e c1 40 2d 54 5c 40
       0.0 1.1824592e+07 6.0505714 3.4426377
000350 df df 7b 40 a3 d3 f9 3f 4b 65 ce 3f 90 5b 9a 40
       3.935539 1.9517711 1.6124662 4.823677
000360 85 69 7b 3f 86 2d 97 40 ab 5c f0 3f 2b e7 91 3e
       0.98207885 4.724307 1.877828 0.2849668
000370 1a b0 0e 40 f3 41 b4 3f 00 00 00 00 00 00 00 00
       2.2294984 1.4082626 0.0 0.0
000380 9b 5a 01 41 10 2d 84 4a 7d fb 2b 4a 5f f5 15 49
       8.08462 4.331144e+06 2.8177592e+06 614229.94
000390 3d 58 4f 4b e6 b5 5b 4a 00 73 8d 4c 83 3e b2 4b
       1.3588541e+07 3.5997375e+06 7.416013e+07 2.3362822e+07
0003a0 79 c3 67 4b 6a 48 ae 48 97 70 16 49 44 d0 9b 46
       1.5188857e+07 356931.3 616201.44 19944.133
0003b0 ef d3 7f 46 00 00 00 00 00 00 00 00 81 dd 88 49
       16372.983 0.0 0.0 1.1212001e+06
0003c0 be 1e 05 4b 0d 36 ad 4a ed 07 97 49 7d d3 d0 4b
       8.724158e+06 5.6757825e+06 1.2372456e+06 2.7371258e+07
0003d0 6c 47 dd 4a 91 75 0e 4d 47 84 33 4c fb 6a e9 4b
       7.25087e+06 1.4937934e+08 4.7059228e+07 3.059455e+07
0003e0 23 87 2f 49 a9 83 97 49 f8 eb 1c 47 4b d5 00 47
       718962.2 1.2412051e+06 40171.97 32981.293
0003f0 00 00 00 00 00 00 00 00 3e d8 09 4a 49 32 4b 3f
       0.0 0.0 2.2584475e+06 0.79373604
