ppo/models/behavioral_cloning_agents_drone/bc0/ckpts/002728350.pt (torch_old, 406995 bytes, 26 tensors)

fc1.weight f4 [128, 15]
0	0x3d045170	0.032304227
1	0x3db60c12	0.08889021
2	0xbf18c5de	-0.5967692
3	0xbd80a55c	-0.0628154
4	0xbdd0d391	-0.10196603
5	0xbec23e24	-0.37938035
6	0xbeafa8f1	-0.3430858
7	0x3e41ccd0	0.18925786
8	0xbc5e9a33	-0.013586569
9	0xbd25159d	-0.040303815
10	0xbe9313cb	-0.28726038
11	0x3d9a3195	0.07528988
12	0xbe7c970a	-0.24666992
13	0xbe2f1ac2	-0.17100051
14	0x3e0e791b	0.13913386
15	0x3ee9f4fc	0.4569472
16	0x3ec647a6	0.38726538
17	0xbd50f6a1	-0.051016454
18	0xbd86c536	-0.06580584
19	0x3f0510f3	0.5197899
20	0x3ee545e9	0.447799
21	0x3f4c13c6	0.7971767
22	0x3ea46641	0.32109264
23	0x3e2e8637	0.17043386
24	0x3e9127d8	0.2835071
25	0xbddb7486	-0.107155845
26	0xbe5bb42e	-0.21455452
27	0xbe7545a3	-0.23952346
28	0xbe267275	-0.162546
29	0x3e017078	0.1264056
30	0x3e0a77bf	0.13522242
31	0xbcfc41fe	-0.030793186
32	0xbe85d442	-0.26138502
33	0xbcd26a7b	-0.02568554
34	0x3b8c3ca3	0.0042796894
35	0xbf26c56f	-0.6514501
36	0xbf1df919	-0.6170822
37	0x3dc85e55	0.097836174
38	0xbe722697	-0.23647533
39	0x3dc241ca	0.094852045
40	0xbb7932d7	-0.0038024688
41	0xbe988b2d	-0.29793683
42	0x3d32ed40	0.04368329
43	0xbe76dd66	-0.24107894
44	0xbcfa2e47	-0.030539645
45	0x3e3708e7	0.1787449
46	0x3e403ea9	0.18773903
47	0x3e7defd5	0.2479852
48	0xbebbdd3f	-0.36692235
49	0x3d4efa2c	0.05053155
50	0x3ead5d9e	0.33860487
51	0x3ed723cb	0.42019495
52	0x3db8e01b	0.0902712
53	0xbea7aca9	-0.32748917
54	0x3f17284e	0.59045875
55	0xbea403bf	-0.32034108
56	0x3e245cba	0.16050997
57	0xbe4cfcc7	-0.20018302
58	0xbe373fbc	-0.17895406
59	0x3dfa1929	0.1221183
60	0x3eca41da	0.39503366
61	0x3ed398d8	0.41327548
62	0xbe1e7572	-0.1547449
63	0x3e4f5d5b	0.20250456
64	0xbbeeed5f	-0.0072914804
65	0x3e77e6bb	0.2420911
66	0x3e191e05	0.14952858
67	0x3ed75ad1	0.42061475
68	0xbde46e46	-0.111538455
69	0x3eb904f7	0.361366
70	0xbe310a5d	-0.1728911
71	0xbee8e1da	-0.4548481
72	0x3dcfd1fc	0.10147473
73	0x3e5b109a	0.21393052
74	0x3eced4a5	0.4039661
75	0x3f08d71e	0.5345324
76	0x3d17084e	0.036873154
77	0x3cb6ba89	0.022305744
78	0x3d310ea7	0.043226864
79	0xbeefa371	-0.46804383
80	0xbf58ab28	-0.84636164
81	0x3d0fd277	0.035112824
82	0xbccbb50c	-0.024866603
83	0x3e0f00cf	0.13965152
84	0x3d7e3ac9	0.06206778
85	0xbe878421	-0.26467994
86	0xbdc9d2b4	-0.098546416
87	0xbdf20ed0	-0.118192315
88	0x3dcb5998	0.09929198
89	0x3d199193	0.037492346
90	0x3e018f02	0.1265221
91	0xbe20dfe9	-0.15710415
92	0x3e454dfa	0.19268027
93	0x3e83b730	0.25725698
94	0xbe91af9a	-0.28454286
95	0xbe8025a1	-0.2502871
96	0x3ccfc95a	0.025364567
97	0x3c5bbd57	0.013411841
98	0xbddd2f8c	-0.108000845
99	0xbe6304fb	-0.22169869
100	0x3f4f9e0a	0.81100523
101	0xbdc44fa0	-0.095855
102	0xbde690fa	-0.11258121
103	0xbd8516b6	-0.064984724
104	0xbe527d0d	-0.20555516
105	0x3e14f3a2	0.14546064
106	0x3e27f4eb	0.16402023
107	0xbecad111	-0.3961263
108	0xbe613ef5	-0.21996672
109	0x3e400481	0.18751718
110	0xbe18312a	-0.14862505
111	0xbecff9d7	-0.406203
112	0xbecafec7	-0.39647505
113	0x3efab263	0.48964223
114	0x3ed2c872	0.41168553
115	0xbddc62be	-0.10761021
116	0xbdca09fd	-0.09865186
117	0x3c3ee240	0.011650622
118	0x3d1a4d70	0.037671506
119	0x3e2cd14a	0.16876712
120	0x3de7090c	0.112810224
121	0xbe90b0c5	-0.28259864
122	0xbf437ce0	-0.7636242
123	0x3e75208a	0.23938194
124	0xbed7f531	-0.42179254
125	0xbdd1f68e	-0.10252105
126	0xbede6e1f	-0.4344339
127	0x3d846213	0.06464019
128	0xbeee046e	-0.46487755
129	0x3d008e66	0.0313858
130	0xbe0aada9	-0.13542809
131	0xbdbde651	-0.09272445
132	0xbe2c3ea6	-0.16820773
133	0xbc591910	-0.013250604
134	0x3efc81b4	0.49317706
135	0xbe72c97f	-0.23709677
136	0xbad1d49d	-0.0016008798
137	0x3dc2b988	0.095080435
138	0xbea527b4	-0.32256854
139	0x3e0ec947	0.13943969
140	0x3f062242	0.52396023
141	0x3d6ab75a	0.057303764
142	0x3f00ef99	0.50365597
143	0xbe1cf49b	-0.15327685
144	0xbed534a7	-0.41641733
145	0x3dc268ef	0.09492671
146	0xbe3fce45	-0.1873103
147	0xbadb6200	-0.001673758
148	0xbe036aba	-0.12833682
149	0x3d2bb488	0.041920215
150	0xbe3ce284	-0.18445784
151	0xbe294ac6	-0.1653243
152	0x3e0ed7ca	0.13949504
153	0x3e2bc28b	0.16773431
154	0x3dc72983	0.097247146
155	0xbf9f29a4	-1.2434583
156	0x3f03aea0	0.5143833
157	0xbe8ac3c4	-0.27102482
158	0xbebae47f	-0.36502454
159	0xbf074b6d	-0.52849466
160	0x3eb5cd82	0.35508353
161	0xbdabd286	-0.083897635
162	0xbe6d4164	-0.23169476
163	0xbe644a0b	-0.2229387
164	0x3c85d8f1	0.016338797
165	0x37024684	7.765022e-06
166	0xbd51bcea	-0.051205553
167	0xbdba222e	-0.090885505
168	0xbe991d50	-0.29905176
169	0xbd2e4fa6	-0.042556427
170	0x3cacc60b	0.021090528
171	0xbe825b5f	-0.25460336
172	0x3f8e6677	1.112502
173	0x3e43eb6d	0.19132777
174	0xbf7a73d4	-0.9783299
175	0xbec319f7	-0.38105747
176	0xbe16c996	-0.14725336
177	0xbdec0e5a	-0.11526175
178	0x3e536cc4	0.2064696
179	0xbd96e0c5	-0.0736709
180	0x3e4a5ea0	0.19762659
181	0x3bb8680c	0.0056276377
182	0xbacb3579	-0.0015503607
183	0x3de0b546	0.10972075
184	0x3e221bb6	0.15830883
185	0x3dcca0d7	0.09991615
186	0xbe8ad4c8	-0.27115464
187	0xbd23d6e5	-0.03999986
188	0xbe57f975	-0.21091254
189	0xbe7181dd	-0.23584695
190	0x3e02f24b	0.1278774
191	0xbab82ae9	-0.0014050874
192	0xbe3a7fbc	-0.1821279
193	0x3c3cac20	0.011515647
194	0xbd1779ad	-0.036981273
195	0x3d38f891	0.045158926
196	0x3ee87cdb	0.45407757
197	0xbe1df783	-0.1542645
198	0xbea04a81	-0.31306842
199	0xbe999447	-0.2999594
200	0xbec5dcbc	-0.3864497
201	0x3e3f8c90	0.18705964
202	0xbeba64bf	-0.36404988
203	0xbec43a01	-0.38325503
204	0xbf152017	-0.5825209
205	0x3f1e4158	0.61818457
206	0xbef46fee	-0.47741646
207	0x3e5f03c6	0.21778783
208	0x3dbf3704	0.09336665
209	0x3e3469a8	0.1761843
210	0xbd2714be	-0.040791266
211	0x3b4c857d	0.0031207495
212	0xbbf409a7	-0.0074474397
213	0xbdfa7d99	-0.12230987
214	0xbe3c22b7	-0.18372618
215	0xbe2b1423	-0.167069
216	0xbdddc6ab	-0.108289085
217	0xbd367194	-0.04454191
218	0x3e5f90e6	0.21832618
219	0xbf2469fe	-0.6422423
220	0xbe2f10fd	-0.17096324
221	0xbcf937e9	-0.030422168
222	0x3dbf04e0	0.09327102
223	0x3bef8c00	0.0073103905
224	0x3e206411	0.15663172
225	0x3ee055f9	0.43815592
226	0xbe68e21e	-0.22742507
227	0xbe6e4cb6	-0.2327145
228	0xbdaf4615	-0.08558289
229	0x3eab46a8	0.33452344
230	0x3c3331f9	0.010937207
231	0x3ed691d0	0.4190812
232	0x3f28a4cf	0.6587648
233	0x3ea30709	0.31841305
234	0x3f2f9f12	0.686021
235	0xbec7eb75	-0.39046827
236	0x3db24e67	0.0870636
237	0xbe3ae677	-0.18251978
238	0xbde01d74	-0.10943118
239	0x3e9c2c7d	0.30502692
240	0xbd488e71	-0.048963968
241	0x3e246327	0.16053449
242	0xb8b9b59e	-8.855316e-05
243	0xbf094e1b	-0.53634804
244	0x3b8c161b	0.004275096
245	0xbec19b21	-0.37813666
246	0x3e249c69	0.1607529
247	0xbccbfb59	-0.024900125
248	0xbe5378f0	-0.20651603
249	0x3e8c7a97	0.2743728
250	0xbea7f06d	-0.32800618
251	0xbe85ce0d	-0.26133767
252	0x3e5aa23c	0.2135095
253	0xbd9a9376	-0.07547657
254	0xbd9dce5e	-0.07705377
255	0xbd72c8a9	-0.059273396

fc1.bias f4 [128]
0	0xbea64aeb	-0.32479033
1	0xbeac9398	-0.33706355
2	0xbe347624	-0.17623192
3	0xbd5b70ee	-0.053574495
4	0xbe20d9c2	-0.15708068
5	0xbc349e34	-0.011024047
6	0xbd2d553b	-0.04231761
7	0xbce7ebe3	-0.028310722
8	0xbe9946b9	-0.2993677
9	0xbe6e5c1e	-0.23277327
10	0xbe9ad98e	-0.30244106
11	0xbeb8ae00	-0.3607025
12	0xbdfd113d	-0.123568036
13	0xbc809a26	-0.015698504
14	0xbe53e93c	-0.2069444
15	0xbe5f1ccd	-0.2178833
16	0x3d0586b7	0.032599177
17	0xbe3319c5	-0.17490299
18	0xbec84e29	-0.3912213
19	0xbf15e1ae	-0.58547485
20	0xbe8cb8ab	-0.2748464
21	0xbdf5dafe	-0.1200466
22	0xbef4c4df	-0.4780645
23	0xbec35f85	-0.38158813
24	0xbec4a6c9	-0.38408497
25	0x3cd2e5ae	0.025744285
26	0xbdacd2d5	-0.084386505
27	0x3dd8dbab	0.10588773
28	0xbeaa6463	-0.33279714
29	0xbe9269bf	-0.28596303
30	0xbc9d6340	-0.019212365
31	0xbdf14e12	-0.11782469
32	0x3be3b87e	0.0069494834
33	0xbe3a1fce	-0.18176195
34	0xbe8c0a94	-0.2735182
35	0xbe4462e1	-0.19178344
36	0xbe4ae3f8	-0.19813526
37	0xbe059712	-0.1304591
38	0xbd054343	-0.03253485
39	0x3c50fabf	0.012755095
40	0x3d25ab1f	0.040446397
41	0xbce03f91	-0.02737406
42	0xbe4491af	-0.19196199
43	0x3e79dfc7	0.2440177
44	0xbd566173	-0.05233903
45	0xbee1e16c	-0.44117296
46	0xbec06c55	-0.3758265
47	0xbe22e271	-0.15906693
48	0xbea8cadb	-0.32967266
49	0xbe895780	-0.2682457
50	0xbec2e656	-0.38066357
51	0xbe2b481d	-0.16726728
52	0xbd2a9c8b	-0.041653197
53	0xbeae0e78	-0.33995414
54	0xbdaa1501	-0.083047874
55	0xbe9a060c	-0.30082738
56	0xbe1a5820	-0.1507268
57	0xbdb3a896	-0.087723896
58	0xbea47c3a	-0.32126027
59	0xbe668805	-0.22512825
60	0xbee0d8b1	-0.43915322
61	0xbe94574f	-0.2897286
62	0x3ca25187	0.019814266
63	0xbe1aa488	-0.15101826
64	0xbddc057e	-0.10743235
65	0xbb176e2a	-0.0023106434
66	0xbeb97d78	-0.36228538
67	0xbe7e7b17	-0.24851643
68	0xbd1e1851	-0.03859741
69	0x3e5448fd	0.20730968
70	0xbeb53815	-0.3539435
71	0xbdeb7ccc	-0.114984125
72	0xbd9baf1b	-0.07601758
73	0xbdfd14c0	-0.123574734
74	0xbdee0345	-0.11621717
75	0xbd8ebb93	-0.06969371
76	0xbe3c6a46	-0.18399915
77	0x3db089b3	0.08620014
78	0xbeb6dabd	-0.3571376
79	0x3d59cbf3	0.053173017
80	0x3b912be4	0.004430281
81	0xbca137ba	-0.019679893
82	0xbe35d691	-0.17757632
83	0x3dda0584	0.10645583
84	0xbdebcfe6	-0.11514263
85	0xbeb8c296	-0.36085957
86	0xbf1597c6	-0.5843471
87	0x3a95d0bd	0.0011430007
88	0xbe1d01b7	-0.15332685
89	0x3e86cdc2	0.26328856
90	0xbf00fbe8	-0.5038438
91	0x3bb79044	0.0056019146
92	0xbe89c024	-0.26904404
93	0xbde621aa	-0.1123689
94	0x3de256f9	0.11051745
95	0xbb937132	-0.004499578
96	0xbe9f14e3	-0.31070623
97	0xbe021e35	-0.12706836
98	0xbed0eb76	-0.40804642
99	0xbf0b70c3	-0.54468936
100	0xbec3d880	-0.38251114
101	0xbe6f23d7	-0.23353516
102	0x3c15c9cc	0.00914235
103	0xbe41a30d	-0.18909855
104	0xbcf0effe	-0.029411312
105	0xbe276eee	-0.1635091
106	0x3de6c5e8	0.11268216
107	0xbe49b480	-0.19697762
108	0xbec4313b	-0.3831881
109	0xbd5504f1	-0.052006666
110	0xbdb81d9d	-0.08990023
111	0x3da70ecc	0.08157119
112	0xbe0898f0	-0.13339591
113	0xbefecd18	-0.4976585
114	0xbde856d0	-0.11344683
115	0x3b36b5cc	0.0027879355
116	0x3c86c8f0	0.016453236
117	0xbe9ad96b	-0.30244002
118	0x3cab7a27	0.02093227
119	0xbdae6354	-0.08515039
120	0xbe56a3c8	-0.20960915
121	0x3ca7847e	0.02044892
122	0xbe987bc4	-0.29781926
123	0x3e7a6b6f	0.24455045
124	0xbdeb9060	-0.11502147
125	0xbdcb84b1	-0.09937418
126	0xbe788955	-0.24271138
127	0xbed5cb9b	-0.417569

fc2.weight f4 [128, 128]
0	0x3e139ce0	0.14415312
1	0xbc75b401	-0.01499653
2	0xbdf4d696	-0.119549915
3	0xbd56ef6b	-0.05247442
4	0xbd595501	-0.05305958
5	0xbdedfa80	-0.11620045
6	0xbdcd09d3	-0.100116394
7	0xbcebe361	-0.028794946
8	0xbd0ff6b0	-0.03514737
9	0xbcdbedec	-0.026846848
10	0xbe010155	-0.12598164
11	0xbd77b3b7	-0.060474124
12	0xbd7f9878	-0.062401265
13	0x3d60d645	0.054891843
14	0xbdbf0c7d	-0.09328554
15	0xbdbc681f	-0.09199547
16	0xbdc5a5fb	-0.09650799
17	0x3ce652ca	0.028115649
18	0xbcf236e4	-0.02956719
19	0xbda8e7e1	-0.082473524
20	0xbe275733	-0.16341858
21	0x3ce29297	0.02765779
22	0x3b403797	0.002933001
23	0x3e0b30c6	0.13592824
24	0x3c8b1c0a	0.016981144
25	0x3ca5bac0	0.02023065
26	0x3cf54969	0.029942231
27	0xbde2a984	-0.11067489
28	0xbd2b6989	-0.041848693
29	0xbdea46b9	-0.114392705
30	0xbd327602	-0.043569572
31	0xbdf134d8	-0.11777657
32	0x3b51ce0b	0.003201368
33	0xbd9e1b3f	-0.077200405
34	0xbdc7b8af	-0.097520225
35	0xbd1555c7	-0.036458757
36	0xbd33e12d	-0.043915916
37	0xbe5b69f5	-0.21427138
38	0xbe15cf65	-0.14629896
39	0x3db4efa1	0.08834768
40	0xbe14156c	-0.14461297
41	0xbdbd4f99	-0.09243698
42	0xbdf05ffd	-0.11737058
43	0xbe553a71	-0.20823075
44	0x3c62b7bf	0.013837754
45	0xbe0cbc54	-0.13743716
46	0xbdb70a8c	-0.089375585
47	0xbcb6111c	-0.022224955
48	0xbc9b5441	-0.018961074
49	0xbd842ef0	-0.06454265
50	0x3bf22c63	0.007390545
51	0xbc3363fb	-0.01094913
52	0xbe1b3784	-0.15157896
53	0x3e225068	0.15850985
54	0xbd78ebbb	-0.060771685
55	0xbd1e35cc	-0.038625523
56	0x3c470465	0.012147044
57	0x3c960243	0.018311625
58	0xbd2bac54	-0.04191239
59	0xbe00d301	-0.12580492
60	0xbe66eec2	-0.22552016
61	0xbd0f8716	-0.035040937
62	0xbdc93813	-0.098251484
63	0x3c33deec	0.010978442
64	0x3de35305	0.11099819
65	0x3d427d7b	0.04748295
66	0xbd201b11	-0.039088313
67	0x3db25a98	0.08708686
68	0xbdb11772	-0.0864705
69	0xbdaceee8	-0.08444005
70	0xbd15e06f	-0.03659099
71	0x3d4e18ed	0.05031674
72	0xbdfebac5	-0.12437967
73	0xbccec39b	-0.025239756
74	0xbe4581aa	-0.19287744
75	0xbe3b8772	-0.18313387
76	0xbdc555bb	-0.096354924
77	0xbe100698	-0.14065015
78	0xbd515507	-0.05110648
79	0xbd3c25f0	-0.045934618
80	0xbd0d8613	-0.03455169
81	0xbe42e067	-0.19030915
82	0xbe0f3db1	-0.13988377
83	0xbd3eb072	-0.04655499
84	0xbe198362	-0.14991525
85	0x3d1d18bd	0.03835367
86	0x3e356f69	0.17718281
87	0xbce78963	-0.028263753
88	0xbda90405	-0.0825272
89	0xbe072942	-0.13199332
90	0x3df474a3	0.11936309
91	0x3d403818	0.046928495
92	0xbdb67f4e	-0.08911
93	0x3ce93b1a	0.028470565
94	0xbdcfadd0	-0.10140574
95	0xbdc4cf5e	-0.09609865
96	0xbdbdae65	-0.09261779
97	0x3bfd5349	0.0077308756
98	0xbcab12b5	-0.020882944
99	0x3d2b9d48	0.041898042
100	0xbda1cdf6	-0.07900612
101	0xbcd70f06	-0.02625228
102	0xbd99e61f	-0.07514595
103	0xbd568975	-0.052377183
104	0xbd654f8c	-0.055984065
105	0xbdf095c8	-0.117473185
106	0x3cafb627	0.021449162
107	0xbe0a35ab	-0.13497035
108	0x3cf42e86	0.02980734
109	0xbe58e39e	-0.21180579
110	0xbe0f5941	-0.13998891
111	0xbd957403	-0.07297518
112	0x3bc720a9	0.0060768914
113	0x3edb26cd	0.4280304
114	0xbe2f476b	-0.17117088
115	0xbda14f10	-0.07876408
116	0xbe49c6a6	-0.19704685
117	0xbde3e11d	-0.11126921
118	0xbdc76c5b	-0.09737464
119	0xbd8d6f78	-0.069060266
120	0xbd91fa36	-0.07127802
121	0x3bfda7e3	0.007740961
122	0xbe0ed084	-0.1394673
123	0xbe3be960	-0.18350744
124	0xbc848560	-0.01617688
125	0xbe079e55	-0.13243993
126	0xbd25b12d	-0.04045217
127	0x3e07b0ff	0.13251112
128	0xbca2d2f0	-0.019875973
129	0xbd519830	-0.051170528
130	0xbcbd79a0	-0.023129284
131	0xbd4a5133	-0.049393844
132	0x3bdef36b	0.00680392
133	0xbd3a0c28	-0.04542175
134	0x3b134840	0.0022473484
135	0xbd9ab545	-0.07554106
136	0xbe11bbc3	-0.14231782
137	0x3d428b2a	0.047496
138	0xbd12633e	-0.035739176
139	0xbc9ecd4a	-0.019384999
140	0x3b6bf21d	0.0036002465
141	0xbdcf2fc2	-0.10116531
142	0xbcae042b	-0.021242222
143	0x3b1f91a1	0.0024348276
144	0xbd07615c	-0.033051834
145	0xbd134b5b	-0.035960536
146	0x3ce87338	0.028375253
147	0x3c800e94	0.015631951
148	0xbd8c5d60	-0.06853747
149	0xbda2a794	-0.07942119
150	0xbdf36849	-0.11885125
151	0xbe9ac769	-0.30230263
152	0x3d0f643c	0.0350077
153	0xbc661333	-0.014042663
154	0x3d381071	0.044937555
155	0xbd69d11a	-0.05708418
156	0xbe002733	-0.12514953
157	0xbc8d296e	-0.01723167
158	0xbe3b12d2	-0.18268898
159	0xbc8ef5a7	-0.01745112
160	0xbcd9fdf1	-0.026610347
161	0xbdcbed17	-0.09957331
162	0x3ad98b21	0.001659725
163	0xbe045b65	-0.12925489
164	0x3cea3a1b	0.02859216
165	0x3c8bfc1d	0.01708799
166	0x3d8dc4b1	0.069222815
167	0x3b3d5e59	0.0028895347
168	0x3cfc9840	0.030834317
169	0x3d1da727	0.038489487
170	0xbded47ca	-0.11585958
171	0xbe397c90	-0.18113923
172	0x3d48170f	0.048850115
173	0xbd0fdb14	-0.03512104
174	0xbd5221ac	-0.051301643
175	0x3dc3fb95	0.0956947
176	0xbcabe576	-0.020983439
177	0xbde64950	-0.11244452
178	0x3d2e5dfb	0.042570096
179	0xbe06f150	-0.13177991
180	0x3d897005	0.06710819
181	0xbd32f5ad	-0.043691326
182	0xbd86bd0c	-0.065790266
183	0xbd292820	-0.04129803
184	0xbc43fe61	-0.011962504
185	0x3e077844	0.13229471
186	0xbe1487db	-0.1450495
187	0xbcd90b43	-0.026494628
188	0x3d5ba317	0.05362233
189	0xbd726c58	-0.059185356
190	0xbc2e5133	-0.010639477
191	0xbcfed5e2	-0.031107847
192	0x3bb6f785	0.005583706
193	0xbe2a526c	-0.16633004
194	0xbda55c7d	-0.08074281
195	0xbe14f033	-0.14544754
196	0xbd76402c	-0.060119793
197	0x3ca90820	0.020633757
198	0xbd862ba3	-0.06551292
199	0xbda3207f	-0.079651825
200	0x3c343940	0.010999978
201	0xbdcc9321	-0.09989
202	0xbdc61ff2	-0.09674062
203	0x3ccccb79	0.024999367
204	0xbcc6529b	-0.024209311
205	0x3c63f11d	0.013912466
206	0x3dd97969	0.1061886
207	0xbcaf5065	-0.02140064
208	0x3d4717df	0.04860675
209	0xbc5a333a	-0.013317877
210	0xbcb37b34	-0.021909334
211	0x3d2da019	0.04238901
212	0x3b3e87bc	0.0029072603
213	0xbdb15cf3	-0.08660307
214	0x3cf1499b	0.029454043
215	0xbd4d9f54	-0.050200775
216	0xbcec147b	-0.02881836
217	0xbdac6ea4	-0.084195405
218	0x3d612fff	0.054977413
219	0x3c0f18ea	0.008733967
220	0xbcb2c335	-0.021821598
221	0xbddee603	-0.10883715
222	0x3d262e92	0.040571757
223	0xbd8ad4d2	-0.067788735
224	0xba988242	-0.00116355
225	0xbc9eb59d	-0.01937371
226	0x3c6c3ee6	0.014419293
227	0x3c9dfaea	0.019284684
228	0xbe4e53a0	-0.20149088
229	0xbe0c4292	-0.1369727
230	0x3c231172	0.00995289
231	0xbcbe3796	-0.023219865
232	0xbd312a8f	-0.043253478
233	0xbdb047e0	-0.08607459
234	0x3be5c8cd	0.0070124627
235	0xbd2285c0	-0.039678335
236	0xbd3d30e3	-0.0461892
237	0xbd9d77ad	-0.07688842
238	0xbdfadcf8	-0.12249178
239	0x3d2df01a	0.042465307
240	0xbd92e939	-0.0717339
241	0x3dbecf01	0.093168266
242	0xbb50f4d7	-0.0031884217
243	0x3be58fdc	0.0070056748
244	0xbd6ed031	-0.058304016
245	0xbc2d2077	-0.010566822
246	0x3dd70b15	0.105001606
247	0xbcae2d4c	-0.021261834
248	0x3de026f3	0.10944929
249	0xbd71add4	-0.059003666
250	0x3d50c79c	0.050971612
251	0xbe0af2fd	-0.13569255
252	0xbd2b7ea3	-0.041868817
253	0xbde70760	-0.112807035
254	0x3e8ece60	0.27891827
255	0xbdee1844	-0.11625722

fc2.bias f4 [128]
0	0xbc9dc792	-0.019260202
1	0xbdc25aa3	-0.09489944
2	0xbe0d6354	-0.13807422
3	0xbeab3e09	-0.33445767
4	0xbd9c6c80	-0.07637882
5	0xbe0e7d98	-0.13915098
6	0x3da38130	0.07983625
7	0x3b0592ee	0.0020381766
8	0xbce0b7f8	-0.027431473
9	0xbb5f8d9e	-0.003411151
10	0xbd3d7f7c	-0.046264157
11	0xbe2fc0d0	-0.17163396
12	0xbc845ba0	-0.016156971
13	0xbd22e04c	-0.039764687
14	0xbd96fec9	-0.07372815
15	0xbdcb8e5f	-0.099392645
16	0x3e13a34b	0.1441776
17	0xbc930a3f	-0.017949222
18	0xbda973e5	-0.08274058
19	0xbcd44089	-0.025909679
20	0xbdabc76b	-0.08387645
21	0x3d735140	0.059403658
22	0xbd79da63	-0.060999285
23	0x3da6bfb0	0.0814203
24	0x3b832778	0.004002508
25	0xbd594fc9	-0.053054605
26	0xbe4399f5	-0.19101699
27	0xbc746065	-0.01491556
28	0xbdef3f1b	-0.11681958
29	0xbd73f188	-0.059556514
30	0xbd91c532	-0.0711769
31	0xbca4e826	-0.020130228
32	0xbd857ca3	-0.06517913
33	0xbd7d4f2e	-0.06184309
34	0x3eef94f9	0.46793345
35	0xbd141f07	-0.036162402
36	0xbdccd3ea	-0.10001357
37	0xbd53257a	-0.051549412
38	0xbe9ecd18	-0.3101585
39	0xbe9576ac	-0.29192102
40	0x3e1f8143	0.15576653
41	0xbdeca8a8	-0.11555606
42	0x3ea281f8	0.31739783
43	0x3d6d7c21	0.057979707
44	0xbd6105fe	-0.054937355
45	0x3e15fd84	0.1464749
46	0xbe353f55	-0.1769994
47	0x3e2d3bf4	0.16917402
48	0x3edca3c4	0.43093693
49	0xbd22d7a9	-0.03975645
50	0x3e52e4a2	0.20595029
51	0x3c0f976f	0.008764132
52	0x3d9544d9	0.07288522
53	0xbdbc077f	-0.09181117
54	0xbec82868	-0.39093328
55	0xbd9ba065	-0.07598952
56	0xbefcc0ae	-0.49365753
57	0xbcc5f42a	-0.024164278
58	0xbdb33b67	-0.087515645
59	0xbddb9f64	-0.10723761
60	0xbdf11f38	-0.11773533
61	0xbde6d438	-0.11270946
62	0xbd8648b5	-0.065568365
63	0xbd238d98	-0.039929956
64	0xbc25ac63	-0.010111901
65	0xbe27fe46	-0.16405591
66	0xbbd5c2ba	-0.0065234574
67	0xbd2e15f1	-0.042501394
68	0x3ab8def8	0.0014104536
69	0xbe3e3b0e	-0.18577215
70	0xbdd73bc2	-0.10509445
71	0x3dc5bbf4	0.0965499
72	0xbcbb1b94	-0.022840299
73	0xbc85fe33	-0.016356563
74	0xbe935882	-0.28778464
75	0xbc16efdd	-0.009212461
76	0x3ee66857	0.4500148
77	0xbd3b5232	-0.045732684
78	0xbe44d7f3	-0.19223003
79	0xbc57df60	-0.013175815
80	0xbda71d3e	-0.081598744
81	0x3ec5ff3d	0.38671294
82	0x3f230e01	0.63693243
83	0x3e54107c	0.20709413
84	0xbdb378c2	-0.08763267
85	0xbd750265	-0.059816737
86	0x3ca0403a	0.019561876
87	0x3db7c6cf	0.089734666
88	0xbdc33ed9	-0.095334716
89	0x3c71b75f	0.014753192
90	0x3d8c84d4	0.068612725
91	0xbceb80f6	-0.028748017
92	0x3e27260e	0.1632311
93	0xbd39c001	-0.045349125
94	0x3f1a336a	0.602347
95	0xbd3d4d24	-0.046216145
96	0x3deb3604	0.11484912
97	0xbd65c2e9	-0.056094084
98	0x3d557073	0.052109193
99	0xbde27e06	-0.11059193
100	0xbe4c8b45	-0.19975002
101	0xbc3e0e0b	-0.011600028
102	0xbdc32c87	-0.09529977
103	0x3d936157	0.071963005
104	0xbc70233f	-0.014656841
105	0xbcabca29	-0.02097042
106	0xbdbcab46	-0.09212355
107	0xbc0672b5	-0.008206059
108	0xbe0a489e	-0.13504264
109	0xbe590332	-0.21192625
110	0xbd1424e7	-0.036168005
111	0xbd7a017d	-0.061036576
112	0xbae15567	-0.001719159
113	0xbd475af1	-0.048670713
114	0xbdcc7fa8	-0.09985286
115	0x3e2df7f2	0.16989115
116	0xbdacb4eb	-0.08432945
117	0x3ee553c7	0.4479048
118	0xbc119c85	-0.008887415
119	0xbe3d6b06	-0.18497857
120	0x3e2dcb50	0.16972089
121	0xbd038df8	-0.032117814
122	0xbd3a1786	-0.04543259
123	0xbc341cdc	-0.010993209
124	0xbd8c33ba	-0.068458036
125	0xbdc1c689	-0.09461696
126	0x3e41288c	0.18863124
127	0xbea5b140	-0.32361794

dist.fc_mean.weight f4 [4, 128]
0	0xbc06bf48	-0.008224316
1	0x3d62ee06	0.055402778
2	0x3dd028f7	0.101640634
3	0x3f1d4133	0.6142761
4	0xbc5bf445	-0.013424938
5	0xbcc3ad23	-0.023886269
6	0xbd34580d	-0.044029284
7	0xbc1c854c	-0.009553265
8	0xbd9cb50a	-0.07651718
9	0x3d911913	0.07084861
10	0x3d4c8bad	0.049937893
11	0x3d4a6bf0	0.049419343
12	0x3e067228	0.13129485
13	0xbc843889	-0.01614024
14	0x3b241631	0.0025037641
15	0xbdcbecc4	-0.09957269
16	0xbc895562	-0.016764347
17	0xbe87e043	-0.26538286
18	0xbd1855d9	-0.037191246
19	0xbc6b3815	-0.014356633
20	0x3a0b8c68	0.00053233514
21	0xbd460bdb	-0.04835115
22	0x3ddcec61	0.10787273
23	0xbd942151	-0.07232917
24	0xbd46ec01	-0.048564915
25	0xbd085e2d	-0.033292938
26	0x3c98697d	0.018604988
27	0xbdb899dd	-0.09013722
28	0xbd649859	-0.055809353
29	0xbc080785	-0.008302574
30	0x3c0a1a7e	0.008429168
31	0x3ca60f72	0.020271037
32	0xbe2f23ed	-0.17103548
33	0x3d1aab09	0.037760768
34	0xbb23514f	-0.002492029
35	0xbcff4b20	-0.031163752
36	0xc00d2da7	-2.2059114
37	0x3a8a1e5b	0.0010537611
38	0x3c7c89ff	0.01541376
39	0x3bd115cc	0.006380772
40	0x3cb4eaec	0.022084676
41	0xbc3d1564	-0.011540744
42	0xbcd6b6d9	-0.026210235
43	0x3b2800a6	0.0025635152
44	0x3ca13e5d	0.019683057
45	0xbbc7c0c0	-0.0060959756
46	0xbee0ba90	-0.43892336
47	0x3c6ad3a5	0.014332687
48	0xbc0a5269	-0.0084425
49	0xbddd2491	-0.1079799
50	0x3c48113c	0.01221114
51	0xc015776f	-2.3354146
52	0xbd122b40	-0.035685778
53	0xbd86f805	-0.06590275
54	0xbe92d5ce	-0.28678745
55	0xbc8495b0	-0.016184658
56	0xbe1e31b9	-0.15448655
57	0xbc1889d6	-0.009310206
58	0x3ce88604	0.028384216
59	0x3ccbc794	0.02487544
60	0x3fb9ff3d	1.4531018
61	0x3b88d202	0.0041754255
62	0x3d6b4176	0.057435475
63	0xbd151e3a	-0.03640578
64	0x3a0a48cc	0.000527513
65	0x3da8f094	0.08249012
66	0x3df00cb3	0.11721172
67	0x3c09e225	0.008415733
68	0x3e01badb	0.12668936
69	0xbb45b41c	-0.0030167168
70	0xbe15bb25	-0.14622171
71	0xbc535d6c	-0.0129006915
72	0x3c3f8221	0.01168874
73	0xbe0b82c1	-0.13624097
74	0x3d54a672	0.051916547
75	0xbd0cdada	-0.0343884
76	0x3b2aabfb	0.002604245
77	0xbda5fe5a	-0.08105154
78	0xbcc48050	-0.023986965
79	0x3da1661d	0.07880805
80	0xbecfaeb4	-0.40562975
81	0x3cfef786	0.031123888
82	0x3d04d368	0.032428175
83	0xbd0ae001	-0.033905033
84	0xbb16ac3d	-0.0022990846
85	0x3c825b3c	0.015912645
86	0x3bc5baa7	0.0060342136
87	0xbb16f9f5	-0.002303717
88	0x3c0a0532	0.00842409
89	0x3ff038ac	1.8767295
90	0x3997b0d6	0.00028932717
91	0xbc96e46a	-0.018419463
92	0x3c181967	0.0092834
93	0xbcbddb82	-0.023175959
94	0xbc412bc6	-0.011790222
95	0x3e049c7b	0.12950318
96	0x3d06dca4	0.032925263
97	0x3d3237ec	0.043510363
98	0x3cecd17a	0.02890848
99	0x3d750c08	0.059825927
100	0x3c839cad	0.01606592
101	0xbcc70183	-0.024292713
102	0xbd3514b2	-0.04420919
103	0x3f95dafe	1.1707456
104	0x3d40a6a2	0.047033913
105	0xbe0528ec	-0.13003892
106	0xbc0cf3de	-0.008603064
107	0x3fb214ec	1.3912635
108	0xbece7bbc	-0.40328777
109	0x3c969b0d	0.01838448
110	0xbd9b1397	-0.07572096
111	0xbdf4e16f	-0.119570605
112	0x3f5fc248	0.87405825
113	0xbb0de9e8	-0.0021654312
114	0xbd9c19f1	-0.076221354
115	0x3e440811	0.19143702
116	0x3d3d8436	0.046268664
117	0x3d2ff7bb	0.042960864
118	0xbe2e3663	-0.17012934
119	0x3f2eb998	0.68251944
120	0xbce0b546	-0.027430188
121	0x3c2e6b9b	0.010645772
122	0xbd25e5f8	-0.04050252
123	0x3bd9c625	0.006645935
124	0x3d2dd61e	0.042440526
125	0xbd0ef7eb	-0.0349044
126	0x3c9def18	0.019279048
127	0xbd56d3d7	-0.05244812
128	0x3d1359b1	0.03597421
129	0x3aa43e54	0.0012530782
130	0x3de9d928	0.114183724
131	0xbf309019	-0.68969876
132	0xbcd105f5	-0.025515536
133	0xbcc8bcf8	-0.02450417
134	0xbb5352da	-0.0032245428
135	0xba35d4ce	-0.00069363124
136	0xb8215409	-3.8463655e-05
137	0xba4b9de5	-0.00077673636
138	0x3dba340a	0.09091957
139	0xbceefd70	-0.029173583
140	0x3b8149f6	0.0039455844
141	0x3c91a22e	0.017777529
142	0xbc4aa276	-0.012367835
143	0x3dafc46e	0.08582388
144	0x39378c18	0.00017504429
145	0x3cdb20b3	0.02674899
146	0x3d42efd2	0.04759199
147	0xbaf68ad8	-0.0018809689
148	0x3beb0e09	0.007173304
149	0xbbc2d782	-0.0059461007
150	0x3c097be5	0.008391355
151	0x37b06532	2.1027958e-05
152	0xb818d1d5	-3.6435045e-05
153	0xbc3110f6	-0.010807266
154	0x3ab7bd00	0.0014018118
155	0x3beadc56	0.0071673794
156	0xbcfef06c	-0.031120501
157	0xba23c5ae	-0.0006247413
158	0x3b1b7b81	0.0023724737
159	0x3c8d9253	0.017281687
160	0xbc3e6494	-0.011620659
161	0x3b6b75fe	0.0035928483
162	0xb8534d42	-5.0378272e-05
163	0xbca23cb8	-0.019804344
164	0x374ef504	1.2335604e-05
165	0x3d4b296a	0.049600042
166	0xbedf1961	-0.4357405
167	0xbc3abbea	-0.011397341
168	0xb8187bd3	-3.6354944e-05
169	0x3bf6322a	0.0075133042
170	0x3825230c	3.9371705e-05
171	0x3bfb110f	0.0076619457
172	0x394c628a	0.00019491665
173	0xb8b14488	-8.452783e-05
174	0x3b1f5da7	0.0024317296
175	0xb822f3c7	-3.8850845e-05
176	0xb67d3875	-3.77328e-06
177	0xbc9a7087	-0.018852485
178	0xb9519fb8	-0.00019991293
179	0xb9855770	-0.00025432883
180	0x39ac7fdc	0.0003290166
181	0x3a228e8c	0.0006201051
182	0x3a3d0256	0.0007210126
183	0x3c9be636	0.019030672
184	0xbcfcd431	-0.0308629
185	0xbc900085	-0.017578373
186	0xbb090e03	-0.0020912893
187	0xbc815f99	-0.015792655
188	0xbcf8d34c	-0.030374192
189	0xbcead7e1	-0.028667392
190	0xbdb7b675	-0.08970348
191	0x3c94d8d0	0.01816979
192	0xbb02c082	-0.001995117
193	0x3b956aa9	0.004559834
194	0xbc5d69ac	-0.013513964
195	0x3bd6781b	0.0065450794
196	0x3c86439f	0.016389666
197	0xbbf25254	-0.007395068
198	0x3d25a0f6	0.040436707
199	0xb8e7bdc6	-0.000110502864
200	0xb7788e20	-1.4815043e-05
201	0x3cc1a815	0.023639718
202	0xbb94ec5b	-0.0045447773
203	0x3afa55fd	0.0019099113
204	0xb88ea1f8	-6.801257e-05
205	0xbbd84f5a	-0.0066012563
206	0xbc9705e8	-0.018435434
207	0x3c355314	0.011067171
208	0xbcf536f5	-0.029933432
209	0xb90445c9	-0.00012614498
210	0x370cde04	8.396342e-06
211	0x3927ddbc	0.00016008964
212	0xbcb1f663	-0.021723932
213	0xb9a21334	-0.00030913355
214	0xb9e70108	-0.00044060522
215	0x3a7f772c	0.0009745236
216	0x3ccdc893	0.025120055
217	0x3996a62c	0.00028734037
218	0x3a150f85	0.00056862115
219	0x3c9524ae	0.018205967
220	0xb959bda8	-0.00020765385
221	0xbc9b1d51	-0.018934878
222	0xb84391c7	-4.662739e-05
223	0xbc82f364	-0.015985198
224	0x39ab1683	0.00032632434
225	0x3d07f7d0	0.033195317
226	0xba0fee2e	-0.00054905086
227	0xbbe9fff6	-0.0071411086
228	0xbc3481da	-0.011017287
229	0x3b9645a8	0.0045859404
230	0xbd0ef7ab	-0.034904163
231	0x39f99912	0.00047607027
232	0x3bc3bf6f	0.0059737484
233	0xbd32bdb8	-0.04363796
234	0xbc87a9f5	-0.016560534
235	0x3a3d6f40	0.00072263554
236	0xbba2f2ab	-0.004972776
237	0x3c18404e	0.009292675
238	0xbc123db0	-0.00892584
239	0xbd08c792	-0.03339345
240	0xbcafb900	-0.02145052
241	0xbc931760	-0.017955482
242	0x3ccaed4e	0.024771359
243	0xb976a4d1	-0.00023521787
244	0x3930038c	0.0001678599
245	0xb8f721ee	-0.00011784198
246	0xb9e75787	-0.00044124966
247	0x3b84cab5	0.004052485
248	0xb943a7e0	-0.00018659187
249	0xbccce27a	-0.025010336
250	0xbb17c4a0	-0.002315797
251	0xbc31fc1a	-0.010863328
252	0xbc586a44	-0.013208929
253	0xbbdfa6c7	-0.0068253013
254	0xb9b9817e	-0.0003538243
255	0xba317c91	-0.0006770576

dist.fc_mean.bias f4 [4]
0	0xbd006680	-0.03134775
1	0x38947d46	7.080524e-05
2	0xbbe1f72e	-0.006895921
3	0xbd0315c6	-0.032003187

dist.fc_logstd.weight f4 [4, 128]
0	0xbe0db0d1	-0.13836981
1	0x3e42b07a	0.19012633
2	0xbf223322	-0.6335927
3	0xbdc579cf	-0.09642374
4	0x3dcf601b	0.101257525
5	0xbff9e8a0	-1.9524117
6	0xbe892ab5	-0.26790395
7	0x3c73256d	0.014840466
8	0x40c1d462	6.0571756
9	0xbf9e89f8	-1.2385855
10	0xbd72b9cb	-0.059259217
11	0xbf817b09	-1.0115672
12	0x3f92e3f1	1.1475812
13	0xbe1be72f	-0.15224908
14	0xbde24539	-0.110483594
15	0x3ccdeb47	0.025136603
16	0x3e35cea7	0.17754613
17	0x3cadcbbb	0.02121531
18	0xbcb47005	-0.022026071
19	0xc08211c6	-4.0646696
20	0xbe8b864f	-0.27250907
21	0x3f21c4dc	0.6319101
22	0xbd9957f3	-0.07487478
23	0xbf8fffef	-1.124998
24	0x40376634	2.865613
25	0x3eb882f0	0.36037397
26	0xbc1d93e3	-0.0096177785
27	0xbf4aa93b	-0.79164475
28	0x3e0a062a	0.13478914
29	0x3eae6144	0.34058583
30	0xbfb25cad	-1.3934532
31	0xbe1ea590	-0.15492845
32	0x3e523f77	0.20532022
33	0x3b4af4b4	0.0030968608
34	0xbf1f4413	-0.6221325
35	0xbe3a0a64	-0.18168026
36	0x3ee7f9c0	0.45307732
37	0xbf1d1166	-0.6135467
38	0xbfaafab0	-1.3357754
39	0xbf1ff210	-0.62478733
40	0x3f9b8f6a	1.2153141
41	0xbec2afd2	-0.38024765
42	0xbf3f76b4	-0.747905
43	0xc05c01db	-3.4376132
44	0x3c8fe70d	0.017566228
45	0x3f5dc6af	0.8663129
46	0x3fc93163	1.5718197
47	0x40de8661	6.9539037
48	0xc057dcc8	-3.3728504
49	0xbe8e048c	-0.27737844
50	0xbf5f7560	-0.87288475
51	0x40c23040	6.06839
52	0xc00eb745	-2.229936
53	0xbe0cce51	-0.13750578
54	0x3fe97c4b	1.8241056
55	0x3e42dca0	0.19029474
56	0xbf1a8b03	-0.60368365
57	0x3ebfe124	0.37476456
58	0xbc8a6699	-0.016894625
59	0xbfdefa91	-1.7420217
60	0x3fc421c3	1.5322803
61	0xc00603c0	-2.093979
62	0xbd15aaee	-0.036539964
63	0x3eee6d68	0.46567845
64	0xbecdef58	-0.40221667
65	0x3e3a069f	0.18166588
66	0x3e3feacd	0.18741913
67	0xbedecf9c	-0.43517768
68	0xbec70424	-0.38870347
69	0xbfa90ee6	-1.3207672
70	0x3d6266d6	0.055273853
71	0xc08b0e8e	-4.3455267
72	0xbda3d848	-0.08000237
73	0xbe66da35	-0.22544177
74	0xbf269982	-0.65077984
75	0xbdd34762	-0.103163496
76	0xbf5ab47f	-0.85431665
77	0xbe129d9a	-0.14317933
78	0xbfccb69f	-1.5993232
79	0xbee9320c	-0.45545995
80	0xbd9e7220	-0.07736611
81	0x3f86332b	1.0484365
82	0xbfaff103	-1.3745426
83	0xc09527df	-4.661117
84	0xc032d69b	-2.7943485
85	0x3e2b82cb	0.16749112
86	0xbe7dbb56	-0.24778494
87	0xbeb044cb	-0.34427485
88	0xbe50df9c	-0.203978
89	0x40c80c22	6.251481
90	0xbf8736c6	-1.056359
91	0xbfc2917b	-1.5200647
92	0xbfdf838a	-1.7462018
93	0x3e04b59c	0.12959903
94	0x3f4de512	0.8042766
95	0xbd7bf362	-0.061511405
96	0xc08756a9	-4.2293286
97	0xbf43606b	-0.76319
98	0xc067aa2f	-3.6197622
99	0xbf9fdd81	-1.2489473
100	0xc015b0aa	-2.3389077
101	0xbeaeda9a	-0.34151155
102	0x3ba18a08	0.0049297847
103	0x408b24f5	4.3482614
104	0xbef94d4f	-0.48691794
105	0x3c41c8bc	0.011827644
106	0xbf6e84d1	-0.9317141
107	0xbfdfd1c1	-1.7485887
108	0x3f1cf6e8	0.6131425
109	0xbfae5c6c	-1.3621955
110	0x3e8249e8	0.2544701
111	0xbcb090e3	-0.021553462
112	0x3f4446d1	0.7667056
113	0xbced3e73	-0.028960442
114	0x3e7e3a4b	0.24826925
115	0x40be0736	5.9383802
116	0xbec441a8	-0.38331342
117	0xbdd7eb52	-0.10542931
118	0xbfe11b52	-1.7586462
119	0xbd71f2f5	-0.059069593
120	0xc04fb804	-3.2456064
121	0xbf23b257	-0.63944
122	0xbdf4a4c8	-0.11945492
123	0xbeb8e988	-0.3611567
124	0xbf490f38	-0.78538847
125	0x3ca07028	0.01958473
126	0xc05bea7d	-3.436187
127	0xc029a6a1	-2.6507952
128	0xbf4dbaf1	-0.80363375
129	0xbed48a9d	-0.41512004
130	0x3e892c56	0.26791638
131	0x3f253b96	0.64544046
132	0xbf6b02f2	-0.9180137
133	0xbffa30dd	-1.9546162
134	0xbfaa1261	-1.3286859
135	0xbf00b6db	-0.50279015
136	0xbf8d143f	-1.1021804
137	0xc0312fb0	-2.7685356
138	0xbd029b86	-0.0318866
139	0xc02ec073	-2.7304962
140	0xc02b9692	-2.681065
141	0xbef795a6	-0.4835636
142	0xbe9f00d6	-0.31055325
143	0xbd0f758a	-0.035024203
144	0xbfad8a03	-1.3557743
145	0xbd67f13f	-0.056626555
146	0xbdd7a01b	-0.105285846
147	0xbf74daa0	-0.95646095
148	0xbf4d4891	-0.8018885
149	0xc006f363	-2.1086051
150	0xbf879620	-1.059269
151	0xc02de39f	-2.717018
152	0xbfe4e884	-1.7883458
153	0xbedaefbe	-0.42761034
154	0xbf9202e2	-1.140713
155	0xbf802f16	-1.001437
156	0xbd077bd5	-0.03307708
157	0xbdf80424	-0.12110165
158	0xbfe0f510	-1.7574787
159	0xbef5dd55	-0.48020425
160	0xbe51571d	-0.20443387
161	0xc02cf66b	-2.7025402
162	0xbfdefd36	-1.7421024
163	0xbf100013	-0.56250113
164	0xbfe6aefd	-1.8022152
165	0xbf6f2803	-0.9342043
166	0x3e78638d	0.24256726
167	0xbf519d2c	-0.8188045
168	0xbff91198	-1.9458494
169	0xbfd7a5e9	-1.6847507
170	0x3f10d278	0.5657115
171	0x401a4323	2.4103477
172	0x3fe9645b	1.8233751
173	0xbff8a823	-1.9426311
174	0xbf3ae9cb	-0.7301299
175	0xbfc5cf46	-1.545388
176	0xc00ec203	-2.2305915
177	0xbfcbf88e	-1.5935228
178	0xbf605f5a	-0.87645495
179	0xbfcc40eb	-1.5957311
180	0x40446289	3.068514
181	0xbf5100ad	-0.81641656
182	0xc038e021	-2.8886797
183	0xbe9d3845	-0.30706993
184	0xc004e97f	-2.0767515
185	0xbf1c5c70	-0.6107855
186	0xbdf81d88	-0.12115008
187	0xbf8cca9e	-1.0999334
188	0xbfb3d927	-1.4050645
189	0xbfb6da04	-1.4285283
190	0xbe0a0176	-0.1347712
191	0xbf681a96	-0.90665567
192	0xbf372b48	-0.71550417
193	0xbf3d54a1	-0.7395726
194	0xbf25dec1	-0.6479302
195	0xbf83a461	-1.028454
196	0xbee5ceb9	-0.4488428
197	0xbf8f251e	-1.1183202
198	0xbda94b32	-0.082662955
199	0xc02960c0	-2.6465302
200	0xbe883ab8	-0.266073
201	0xbed9b9bb	-0.42524514
202	0x3fbc47fd	1.4709469
203	0xbf0af830	-0.54284954
204	0x3f815422	1.01038
205	0xbe1073b8	-0.14106643
206	0xbd8c5ea6	-0.0685399
207	0xbeeb0180	-0.45899582
208	0xbf1ebf16	-0.62010324
209	0x3f076b20	0.52897835
210	0xbff9acdc	-1.9505877
211	0xbe9d6055	-0.30737558
212	0xbfac1713	-1.3444542
213	0xc0032f7b	-2.049773
214	0xbfe764e2	-1.8077662
215	0x4029c50e	2.6526523
216	0x3d0c2c3f	0.034221884
217	0xbeea0df1	-0.4571376
218	0x404135ff	3.0189207
219	0xbfddd69f	-1.7331122
220	0xbffd55b1	-1.9791776
221	0xbfdb0215	-1.711001
222	0xbff80c6f	-1.9378794
223	0xbf149e28	-0.5805383
224	0xc00324b3	-2.049115
225	0xbee2c195	-0.44288316
226	0xbfa85a30	-1.3152523
227	0xbffe88b2	-1.9885466
228	0xbff57a36	-1.9177921
229	0xc0146a31	-2.3189814
230	0xbd79eeed	-0.061018873
231	0xbf9ce93b	-1.2258676
232	0xbf081066	-0.5315002
233	0xbd27ace1	-0.040936355
234	0xbec9f0ae	-0.39441437
235	0xbfdb4bb0	-1.7132473
236	0xbebe38c7	-0.37152693
237	0xc016d489	-2.356722
238	0xbedc19dd	-0.42988482
239	0xbc31a90f	-0.010843529
240	0xbf4fb543	-0.8113596
241	0xbf2f1011	-0.6838389
242	0xbf8722c1	-1.0557481
243	0xbfb9fef8	-1.4530935
244	0xbef095cd	-0.4698929
245	0xbff6e550	-1.9288731
246	0xc01b1895	-2.4233754
247	0xbf0d00c7	-0.5507931
248	0xbfdf37c0	-1.7438889
249	0xbf2a2079	-0.664558
250	0xbeac6d3c	-0.3367709
251	0xbf0b97fa	-0.5452877
252	0xbf1af446	-0.6052898
253	0xbbff335e	-0.007788106
254	0xbfe3f780	-1.7809906
255	0xbfabaf11	-1.3412801

dist.fc_logstd.bias f4 [4]
0	0xbf29579b	-0.661493
1	0xbfd8ae73	-1.6928238
2	0xc0095770	-2.1459618
3	0xbe9a9af5	-0.30196348

exp_avg f4 [128, 15]
0	0x3c047268	0.008083917
1	0xbd09a63b	-0.033605795
2	0x3e6dd58a	0.2322599
3	0x3db38435	0.08765451
4	0x3cbe26cf	0.023211865
5	0x3d53684d	0.05161314
6	0xbcaf6fb9	-0.021415578
7	0xbdc46add	-0.09590695
8	0xbb749cb9	-0.003732486
9	0x3c7933b1	0.015210078
10	0xbd1c58a9	-0.03817049
11	0xbd182392	-0.037143297
12	0x00000000	0.0
13	0x00000000	0.0
14	0x3ec44e3d	0.3834094
15	0xbbbb3ea3	-0.005714254
16	0xbc04f6b0	-0.0081154555
17	0xbe4cac17	-0.19987522
18	0xbc859793	-0.016307628
19	0xbb9c951a	-0.0047785165
20	0x3c447f68	0.011993267
21	0x3c2f83e9	0.010712602
22	0x3b17646c	0.0023100628
23	0x3d2cf96b	0.04223005
24	0x3cf5d280	0.0300076
25	0xbcdfc208	-0.027314201
26	0xbde356ac	-0.11100516
27	0x00000000	0.0
28	0x00000000	0.0
29	0xbddeab7d	-0.108725525
30	0xbd2044b3	-0.039128017
31	0xbc32bc6b	-0.01090918
32	0xbc1e1ab3	-0.00964992
33	0x3e333e99	0.17504348
34	0xbd3227ed	-0.043495107
35	0x3d9a1113	0.07522788
36	0x3c3e3c56	0.011611065
37	0xbe1d44dc	-0.15358299
38	0x3d97e635	0.074169554
39	0x3cbb0192	0.022827897
40	0xbd0a6e60	-0.033796668
41	0x3db0d1c7	0.08633762
42	0x00000000	0.0
43	0x00000000	0.0
44	0x3e804e78	0.25059867
45	0xbd2ac79a	-0.04169426
46	0x3e4c9b74	0.19981176
47	0xbebe01f1	-0.37110856
48	0x3df14fc6	0.11782794
49	0x3df8d578	0.12150091
50	0xbebaf20c	-0.36512792
51	0xbd9fe0d8	-0.078065574
52	0xbe22beb2	-0.15893057
53	0xbeca4135	-0.39502874
54	0xbda4ccc7	-0.08046871
55	0xbd032c59	-0.032024715
56	0xbf8dc953	-1.1077064
57	0x00000000	0.0
58	0x00000000	0.0
59	0x3f830ca0	1.0238228
60	0xbd021bf6	-0.031764947
61	0x3bf9559f	0.007609084
62	0xbcbf212d	-0.02333125
63	0xbd3595ab	-0.044332188
64	0xbce524d6	-0.027971666
65	0xbca8a9e8	-0.02058883
66	0xbcc399c9	-0.023877041
67	0x3c36ac8b	0.011149536
68	0xbc8bdb22	-0.017072264
69	0xbc04f7d9	-0.008115732
70	0x389f939f	7.6092074e-05
71	0x3b89accb	0.0042015067
72	0x00000000	0.0
73	0x00000000	0.0
74	0x3d423061	0.04740942
75	0xbd56a980	-0.05240774
76	0x3caea01c	0.02131658
77	0xbeb6b2ba	-0.35683233
78	0xbe73efeb	-0.2382199
79	0xbd189f71	-0.03726143
80	0xbba605b7	-0.005066599
81	0x3bf6fbeb	0.007537355
82	0x3e88fbd8	0.26754642
83	0xbe4e2866	-0.20132598
84	0xbd1278f1	-0.03575987
85	0x3d46187a	0.048363186
86	0xbcd5508b	-0.026039382
87	0x00000000	0.0
88	0x00000000	0.0
89	0x3f107a96	0.5643705
90	0xbdfc17e4	-0.12309244
91	0x3e08f0af	0.13373064
92	0xbe0d2c68	-0.13786471
93	0xbe37255b	-0.17885344
94	0xbaac7366	-0.001315695
95	0xbe354053	-0.17700319
96	0x3cc3b555	0.023890177
97	0x3e46c402	0.19410709
98	0xbe3f0367	-0.18653642
99	0x3e17ba44	0.14817148
100	0x3d66ad8b	0.056317847
101	0xbec075cf	-0.3758988
102	0x00000000	0.0
103	0x00000000	0.0
104	0xbf7c1d21	-0.9848195
105	0x3d49054e	0.049077325
106	0xbd65af27	-0.05607524
107	0xbe63c426	-0.22242793
108	0xbe2615d0	-0.16219258
109	0x3dc0c444	0.09412435
110	0x3e2411af	0.16022371
111	0x3d64be7a	0.055845715
112	0x3e21662e	0.15761635
113	0x3e016db9	0.12639512
114	0x3bf39f63	0.007434772
115	0x3d845774	0.06461993
116	0x3e06f308	0.13178647
117	0x00000000	0.0
118	0x00000000	0.0
119	0xbefadf30	-0.48998404
120	0xbc3bae8b	-0.0114551885
121	0xbbd7852f	-0.006577156
122	0x3c8e4a33	0.017369365
123	0xbd49dfc9	-0.049285684
124	0xbbbaa55d	-0.0056959824
125	0x3c4228df	0.011850565
126	0x3ad2e2e2	0.0016089345
127	0x3d326414	0.043552473
128	0xbb1c714a	-0.0023871236
129	0xbb294613	-0.002582912
130	0xbc748f1d	-0.014926699
131	0x3b8e9de9	0.0043523205
132	0x00000000	0.0
133	0x00000000	0.0
134	0x3bbef375	0.005827362
135	0x3df29901	0.118455894
136	0xbca5a224	-0.020218916
137	0xbd87ebae	-0.06636749
138	0xbe8f3408	-0.27969384
139	0x3d647b81	0.055781845
140	0xbd440af7	-0.04786202
141	0x3a194cfd	0.0005847959
142	0x3e7095c7	0.23494636
143	0xbf04090b	-0.515763
144	0x3e064251	0.13111235
145	0x3dd4f473	0.103981875
146	0xbf0b9b7b	-0.5453412
147	0x00000000	0.0
148	0x00000000	0.0
149	0xbf88608d	-1.0654465
150	0xbeb15a18	-0.3463905
151	0x3e698004	0.2280274
152	0xbf40654a	-0.75154555
153	0x3dd0de57	0.10198658
154	0xbdd24a0e	-0.10268031
155	0x3e9ca5ca	0.30595237
156	0x3d4db819	0.050224397
157	0xbe2b0c2b	-0.1670386
158	0x3e6553d5	0.2239526
159	0xbd0a8101	-0.033814434
160	0xbdcb2297	-0.09918707
161	0x3e0b2ace	0.13590547
162	0x00000000	0.0
163	0x00000000	0.0
164	0x3f275c72	0.65375435
165	0xbde2b097	-0.11068838
166	0xbd08aeee	-0.03336995
167	0x3d4f085d	0.050545085
168	0xbdcbd299	-0.09952278
169	0x3c3cba53	0.0115190325
170	0x3e9d35e5	0.3070518
171	0xbbf54194	-0.007484624
172	0x3da954a6	0.082680985
173	0x3f17c36b	0.5928256
174	0x3abf3213	0.0014587067
175	0x3d4192e7	0.047259238
176	0xbe3490ee	-0.17633411
177	0x00000000	0.0
178	0x00000000	0.0
179	0xbf309319	-0.68974453
180	0xbc5b0e45	-0.013370101
181	0x3c61412a	0.0137484465
182	0x3c40a18e	0.011757268
183	0xbc83e652	-0.016101036
184	0xbc6047e7	-0.013689018
185	0xbc51f30e	-0.012814296
186	0xbafe3896	-0.0019395526
187	0x3c9b8740	0.01898539
188	0x3cd986f6	0.026553612
189	0xbae8ab45	-0.0017751238
190	0x3bee508f	0.007272787
191	0xbb8604f3	-0.0040899455
192	0x00000000	0.0
193	0x00000000	0.0
194	0x3d2df419	0.042469118
195	0xbcdc0225	-0.026856491
196	0x3d878591	0.06617273
197	0xbdbc4f9a	-0.0919487
198	0x3cd8cc5e	0.026464637
199	0xbca78bce	-0.020452406
200	0x3cce0214	0.025147475
201	0x3b4a11c3	0.003083334
202	0x3cabd1ca	0.020974059
203	0x3e01fd34	0.12694246
204	0xbce25c91	-0.02763203
205	0xbd215a34	-0.039392665
206	0x3def9aac	0.11699423
207	0x00000000	0.0
208	0x00000000	0.0
209	0x3dcc542c	0.09976992
210	0xbd28671a	-0.04111395
211	0xbc56fe93	-0.013122219
212	0xbe12e95e	-0.14346835
213	0x3da43fcf	0.08019983
214	0xbce102a2	-0.027467076
215	0xbda5901f	-0.080841295
216	0xbb644c4d	-0.0034835518
217	0xbd786067	-0.06063881
218	0xbe1eaea2	-0.15496305
219	0x3ca3218e	0.019913461
220	0x3d076fa3	0.03306545
221	0x3d626b7e	0.055278294
222	0x00000000	0.0
223	0x00000000	0.0
224	0x3de8c5c7	0.11365848
225	0x3c5af672	0.013364421
226	0x3e11af65	0.14227064
227	0x3ea69110	0.3253255
228	0x3d6b72be	0.057482474
229	0x3e1e8f2a	0.154843
230	0xbdf18956	-0.11793773
231	0xbd28f87b	-0.041252594
232	0xbde9ae36	-0.11410181
233	0x3e0bf6dd	0.1366839
234	0xbcbf4175	-0.023346642
235	0xbcb426f5	-0.021991232
236	0xbf84802f	-1.0351619
237	0x00000000	0.0
238	0x00000000	0.0
239	0x3ea47118	0.32117534
240	0xbd6a9b7c	-0.057277188
241	0x3cdc75ee	0.026911702
242	0xbd19be2e	-0.037534885
243	0x3dde832f	0.10864865
244	0xbda01559	-0.07816572
245	0x3e0b388f	0.13595794
246	0xbc6c66e6	-0.01442883
247	0xbe3298ce	-0.17441103
248	0x3e705304	0.23469168
249	0xbda5fc3e	-0.08104752
250	0xbe013531	-0.12617947
251	0x3e587122	0.21136907
252	0x00000000	0.0
253	0x00000000	0.0
254	0x3edf162e	0.4357161
255	0x3d2e88e2	0.04261101

exp_avg_sq f4 [128, 15]
0	0x44a1be64	1293.9497
1	0x44b79c73	1468.889
2	0x438e977a	285.1834
3	0x44b08844	1412.2583
4	0x4582ad1c	4181.6387
5	0x44a8903f	1348.5077
6	0x43dfd22a	447.6419
7	0x44351735	724.3626
8	0x44a06100	1283.0312
9	0x43e050b7	448.63058
10	0x43e589bc	459.07605
11	0x456e8dab	3816.8542
12	0x00000000	0.0
13	0x00000000	0.0
14	0x43fca692	505.30133
15	0x402c799b	2.6949222
16	0x3f8b2798	1.0871458
17	0x4001dd17	2.0291193
18	0x3fd651dc	1.6743731
19	0x40f0b18c	7.521673
20	0x4028c8d6	2.637258
21	0x3f042a2c	0.5162685
22	0x404ed3e1	3.231682
23	0x40e396df	7.112167
24	0x3ed1fb05	0.41011825
25	0x3f45d1d1	0.7727328
26	0x40feadd1	7.958718
27	0x00000000	0.0
28	0x00000000	0.0
29	0x40d1328f	6.5374217
30	0x4318a5ab	152.64714
31	0x42e8acde	116.33763
32	0x423087cf	44.132626
33	0x42e7a835	115.82853
34	0x43dd6bab	442.84116
35	0x4308335e	136.20065
36	0x4263ba7b	56.93211
37	0x4285da7b	66.92672
38	0x42f6b7f5	123.35929
39	0x4236e91e	45.727654
40	0x428cbeac	70.372406
41	0x439cc705	313.55484
42	0x00000000	0.0
43	0x00000000	0.0
44	0x423ffe18	47.99814
45	0x40622d8f	3.5340307
46	0x3fc098bf	1.5046614
47	0x4013c3e2	2.3088307
48	0x4042e579	3.045256
49	0x4008ebad	2.1393845
50	0x407a80f2	3.9141202
51	0x3e4f166d	0.20223399
52	0x406aa1cb	3.666125
53	0x406b36b2	3.6752133
54	0x3f009afa	0.50236475
55	0x3f72a274	0.94779134
56	0x41433b78	12.202019
57	0x00000000	0.0
58	0x00000000	0.0
59	0x418ec1f3	17.844702
60	0x3e991a60	0.29902935
61	0x412ee85e	10.93173
62	0x3ee0a1f6	0.43873566
63	0x410f026c	8.938091
64	0x3fa3a8cb	1.2785887
65	0x3ee9dbc2	0.45675474
66	0x3e361d36	0.1778458
67	0x4013d901	2.3101199
68	0x3ed01142	0.40638167
69	0x3cc53af1	0.024075957
70	0x3d9bb8bb	0.07603594
71	0x3ee112ae	0.43959564
72	0x00000000	0.0
73	0x00000000	0.0
74	0x3f8fc380	1.1231537
75	0x48036f8b	134590.17
76	0x4c6e26c4	6.242997e+07
77	0x4ca9a5fd	8.8944616e+07
78	0x4e9c411b	1.3107562e+09
79	0x4d2e5083	1.82782e+08
80	0x4c85e86f	7.020633e+07
81	0x4c46392b	5.1963052e+07
82	0x4ebcebca	1.5847846e+09
83	0x4a4e209e	3.3771915e+06
84	0x4c95b972	7.84987e+07
85	0x4d27ea2c	1.7607136e+08
86	0x4b9b69e7	2.0370382e+07
87	0x00000000	0.0
88	0x00000000	0.0
89	0x4d5b0579	2.2966056e+08
90	0x4836bf8b	187134.17
91	0x4ca61200	8.706867e+07
92	0x4cec9acd	1.24049e+08
93	0x4ed9ec8f	1.8280795e+09
94	0x4d731bf7	2.5491851e+08
95	0x4cbac1a9	9.7914184e+07
96	0x4c8a3a1f	7.2470776e+07
97	0x4f03bdf5	2.2102643e+09
98	0x4a8fb7f7	4.7093715e+06
99	0x4cd0d133	1.09480344e+08
100	0x4d6a2f6e	2.4556106e+08
101	0x4bd8bbb5	2.8407658e+07
102	0x00000000	0.0
103	0x00000000	0.0
104	0x4d98bb37	3.2030077e+08
105	0x3f3a09a6	0.7267097
106	0x41dfe3ae	27.986172
107	0x40676e95	3.6161244
108	0x41bbce8c	23.475853
109	0x403ff6d3	2.99944
110	0x4047e646	3.1234298
111	0x3f35ecd1	0.7106448
112	0x40ec03ec	7.3754787
113	0x410d983d	8.849668
114	0x3f009837	0.5023226
115	0x3f1d55b8	0.6145892
116	0x3f817a47	1.0115441
117	0x00000000	0.0
118	0x00000000	0.0
119	0x4126a230	10.414597
120	0x488105bd	264237.9
121	0x4cea9649	1.22991176e+08
122	0x4d271c73	1.7522872e+08
123	0x4f19eafd	2.5823142e+09
124	0x4dabb507	3.6009597e+08
125	0x4d03e764	1.3831123e+08
126	0x4cc3424d	1.02371944e+08
127	0x4f3a18c5	3.1221855e+09
128	0x4acb0317	6.6522995e+06
129	0x4d137c88	1.5465075e+08
130	0x4da5678b	3.468783e+08
131	0x4c19136a	4.012791e+07
132	0x00000000	0.0
133	0x00000000	0.0
134	0x4dd7bf0b	4.524527e+08
135	0x436f5511	239.33229
136	0x43f226f5	484.30435
137	0x3fe39604	1.7780156
138	0x43e65049	460.62723
139	0x4479ee2b	999.7214
140	0x43b33de3	358.4835
141	0x427017bd	60.023182
142	0x43576da8	215.42834
143	0x43b9d3b5	371.65396
144	0x42ea2a61	117.08277
145	0x40803d9a	4.0075197
146	0x44aaab81	1365.3595
147	0x00000000	0.0
148	0x00000000	0.0
149	0x432c8689	172.52553
150	0x466bf07f	15100.124
151	0x4ac69d8a	6.508229e+06
152	0x4b0d7c1e	9.27235e+06
153	0x4d024f23	1.3663902e+08
154	0x4b9163c6	1.9056524e+07
155	0x4adf5d94	7.319242e+06
156	0x4aa5525b	5.4172615e+06
157	0x4d1d8d35	1.6520482e+08
158	0x48ac2e22	352625.06
159	0x4af9bc10	8.183304e+06
160	0x4b8c0999	1.8354994e+07
161	0x4a01a7c2	2.1242725e+06
162	0x00000000	0.0
163	0x00000000	0.0
164	0x4bb6a7ba	2.394098e+07
165	0x43a53dbc	330.4823
166	0x43ccebeb	409.8431
167	0x4289fed1	68.99769
168	0x43d2d445	421.65836
169	0x44827e36	1043.9441
170	0x43bd99ba	379.201
171	0x42b2fd9d	89.49534
172	0x43688f1c	232.55902
173	0x43b699be	365.2011
174	0x42e62dc5	115.08939
175	0x4291af67	72.84258
176	0x4490b673	1157.7015
177	0x00000000	0.0
178	0x00000000	0.0
179	0x43a14d69	322.60477
180	0x457073dc	3847.2412
181	0x49cdba48	1.685321e+06
182	0x4a12825b	2.4004068e+06
183	0x4c06f18d	3.5374644e+07
184	0x4a969129	4.9337805e+06
185	0x49e75393	1.8950264e+06
186	0x49ab3158	1.402411e+06
187	0x4c23276a	4.276983e+07
188	0x47b2af68	91486.81
189	0x4a014f37	2.1186058e+06
190	0x4a910313	4.7517535e+06
191	0x49068712	551025.1
192	0x00000000	0.0
193	0x00000000	0.0
194	0x4abd26ef	6.1981355e+06
195	0x4465343c	916.81616
196	0x4497e226	1215.0671
197	0x43173e83	151.24419
198	0x44920409	1168.1261
199	0x45482522	3202.3208
200	0x448513fc	1064.6245
201	0x4393ea50	295.83057
202	0x441286e6	586.1078
203	0x4482ad9d	1045.4254
204	0x43b0f989	353.9495
205	0x4375e384	245.88873
206	0x45532cd3	3378.8015
207	0x00000000	0.0
208	0x00000000	0.0
209	0x43d5c25b	427.5184
210	0x41339488	11.2237625
211	0x420b78ed	34.86809
212	0x40b62227	5.691669
213	0x41e5beb4	28.718117
214	0x41ea9ec7	29.327528
215	0x4108a624	8.540562
216	0x40a048f1	5.008904
217	0x4110fe40	9.062073
218	0x40e944f8	7.289669
219	0x401fedae	2.4988818
220	0x40e04bcb	7.009252
221	0x40e6c218	7.211193
222	0x00000000	0.0
223	0x00000000	0.0
224	0x409918b7	4.784267
225	0x424d8f3c	51.389877
226	0x42d3929d	105.786354
227	0x3f8859d0	1.0652409
228	0x42c70d25	99.52567
229	0x435a0c8e	218.04904
230	0x429bc712	77.88881
231	0x4153a547	13.227851
232	0x423ad3ca	46.706825
233	0x42ab9bff	85.80468
234	0x41cbe9df	25.489195
235	0x3f8453f1	1.0338117
236	0x439a7426	308.9074
237	0x00000000	0.0
238	0x00000000	0.0
239	0x42222ed7	40.545742
240	0x43880195	272.01236
241	0x430c6e95	140.43196
242	0x42c6aa7b	99.33297
243	0x43229b75	162.60725
244	0x4428e526	675.58044
245	0x435ac6c5	218.77644
246	0x42bfe80d	95.953224
247	0x42ead1b1	117.40955
248	0x4335d1d1	181.8196
249	0x428562e1	66.69312
250	0x43060982	134.03714
251	0x43bea5ae	381.29437
252	0x00000000	0.0
253	0x00000000	0.0
254	0x43369b28	182.60608
255	0x416849bc	14.518002
