ppo/models/behavioral_cloning_agents_lunar/bc3/ckpts/001579400.pt (torch_old, 371100 bytes, 26 tensors)

fc1.weight f4 [128, 9]
0	0x3da2bbb4	0.07945958
1	0x3ee43331	0.44570306
2	0xbedd757a	-0.4325369
3	0xbf1ee352	-0.62065613
4	0xbde03ff1	-0.10949696
5	0x3e7029e2	0.23453477
6	0xbd28d468	-0.04121819
7	0x3e99b8e6	0.3002388
8	0x3db161a1	0.08661199
9	0x3e686f0c	0.22698611
10	0xbd3fc363	-0.046817195
11	0x3e4ab44e	0.19795343
12	0xbea6b6b9	-0.3256128
13	0xbe33398f	-0.17502426
14	0xbf107310	-0.5642557
15	0x3d898db3	0.0671648
16	0xbbf1800a	-0.00737
17	0x3ec25327	0.37954065
18	0xbb32e456	-0.0027296743
19	0xbc7ca62c	-0.015420478
20	0x3df30824	0.11866787
21	0x3ecfc2c1	0.40578273
22	0xbe2915fe	-0.16512296
23	0x3db4f8d8	0.08836526
24	0xbd074ef6	-0.033034287
25	0xbcd4aec0	-0.025962234
26	0x3e6d5f30	0.23180842
27	0xbe48b779	-0.1960124
28	0xbead9d61	-0.33909133
29	0x3d958c91	0.073022015
30	0xbc981a8f	-0.018567352
31	0x3ef98f13	0.4874197
32	0xbf118211	-0.5683909
33	0xbee78e36	-0.45225686
34	0xbe0b317d	-0.13593097
35	0xbf0310b1	-0.51197344
36	0xbf09169d	-0.5355013
37	0x3f01d820	0.50720406
38	0x3e7c40ea	0.24634138
39	0x3ea6ccb1	0.32578042
40	0x3cfb7e21	0.030699791
41	0xbe48ab04	-0.19596487
42	0x3dcbf61d	0.09959052
43	0xbd8d2844	-0.06892446
44	0xbbf07e9e	-0.0073393127
45	0xbeb54472	-0.35403782
46	0x3da48d7a	0.08034797
47	0x3e86b98a	0.2631343
48	0xbdaa8826	-0.083267495
49	0x3b29006f	0.0025787612
50	0x3ec703a5	0.38869968
51	0x3d514ffa	0.051101662
52	0x3d91c083	0.07116797
53	0x3d87bb84	0.06627563
54	0x3ecc9d1b	0.39963612
55	0xbe05393f	-0.13010119
56	0x3dabeca4	0.08394745
57	0xbd8b138a	-0.06790836
58	0xbee29ea9	-0.44261673
59	0xbeb3c267	-0.35109255
60	0x3c799778	0.015233867
61	0xbd2ba17c	-0.04190205
62	0xbe88013b	-0.2656344
63	0xbd3c2dd6	-0.04594215
64	0x3e3d12ae	0.18464157
65	0xbda19fdd	-0.078918196
66	0xbe41106b	-0.18853919
67	0x3e9f2cc6	0.31088847
68	0x3e8b6d2d	0.27231732
69	0x3d78191d	0.060570825
70	0xbe97d4d9	-0.29654577
71	0x3dc266e0	0.09492278
72	0x3e07d992	0.1326659
73	0x3f009b8a	0.50237334
74	0x3efe8188	0.497082
75	0x3e8c5888	0.27411294
76	0xbdf740aa	-0.120728806
77	0xbf25d6df	-0.6478099
78	0x3d02e485	0.031956214
79	0xbe4bace9	-0.19890179
80	0xbe933318	-0.2874992
81	0x3f25e75d	0.6480616
82	0x3ee8f1f1	0.45497087
83	0xbf03502e	-0.5129422
84	0x3e0c8f50	0.13726544
85	0xbdc6c573	-0.09705629
86	0xbe1a8144	-0.15088373
87	0xbe0b83ce	-0.13624498
88	0x3e6ee495	0.23329385
89	0xbc06f3e4	-0.008236859
90	0x3de35aeb	0.111013256
91	0x3ddd9567	0.10819512
92	0x3e3bbf97	0.18334804
93	0x3dde1838	0.10844463
94	0xbf5219ba	-0.82070506
95	0xbd5f5121	-0.05452073
96	0xbbca12ec	-0.0061668064
97	0x3c8b3a8c	0.01699569
98	0xbed17263	-0.40907583
99	0xbe27e1c6	-0.1639472
100	0x3df98dab	0.12185224
101	0x3e06377c	0.13107103
102	0xbc046dce	-0.00808282
103	0xbc7dc69a	-0.015489245
104	0xbedec0cc	-0.43506467
105	0x3da8eb44	0.08247998
106	0xbdea0ce9	-0.11428244
107	0xbdb2d658	-0.08732289
108	0x3de52d9f	0.11190342
109	0x3d905904	0.070482284
110	0xbe56baf4	-0.20969754
111	0x3dced23e	0.10098694
112	0xbf33c81e	-0.7022723
113	0x3e84750a	0.25870544
114	0x3cbb6721	0.022876324
115	0xbe366418	-0.1781162
116	0xbd31e1e7	-0.043428328
117	0x3e4f445e	0.20240924
118	0x3d857ab6	0.06517546
119	0xbd6c2c04	-0.057659164
120	0x3ebe069d	0.3711442
121	0xbed0dc2d	-0.4079298
122	0xbe2c41f5	-0.16822036
123	0xbd096c15	-0.03355034
124	0xbdabd579	-0.08390326
125	0xbf20b591	-0.6277705
126	0xbe4584ae	-0.19288895
127	0xbdbede58	-0.093197525
128	0xbe6a2af6	-0.22867951
129	0xbe2d64a9	-0.1693293
130	0xbe36084b	-0.17776601
131	0x3dea5588	0.11442095
132	0xbe21ae55	-0.15789159
133	0xbe506c58	-0.2035383
134	0x3dbb5a56	0.091480896
135	0xbe84c9f5	-0.2593533
136	0x3d74998e	0.059716754
137	0x3e9d570e	0.3073048
138	0xbd1941c7	-0.037416246
139	0x3f85fbce	1.046747
140	0x3efe2a81	0.49641803
141	0x3a452175	0.0007519939
142	0xbd0cdb95	-0.034389097
143	0xbdf12ae6	-0.1177576
144	0xbe955078	-0.29162955
145	0xbe793142	-0.24335197
146	0x3e97ec43	0.2967244
147	0xbb20bdb7	-0.0024527141
148	0xbdb5a232	-0.08868827
149	0xbea3423e	-0.31886476
150	0xbece7250	-0.4032159
151	0xbe140b48	-0.14457428
152	0xbd9ae497	-0.07563131
153	0x3e3fb2b2	0.1872051
154	0x3ee879b7	0.4540536
155	0xbf11f539	-0.57014805
156	0x3e111189	0.14166845
157	0xbf1f8b53	-0.62321967
158	0xbe295a3c	-0.16538328
159	0xbe0401f4	-0.1289137
160	0x3ddc4182	0.10754682
161	0xbe13a8fc	-0.14419931
162	0xbd85df43	-0.065367244
163	0xbee08aca	-0.43855888
164	0xbe95b8a2	-0.29242426
165	0xbce3a535	-0.027788738
166	0xbe0d805f	-0.13818501
167	0x3d85716a	0.06515773
168	0xbe85f4e5	-0.26163402
169	0x3ca3035b	0.019899061
170	0x3efad1dd	0.48988238
171	0xbe84792d	-0.258737
172	0x3e3f71e0	0.18695784
173	0x3e9f3933	0.31098327
174	0xbe496d56	-0.19670615
175	0x3ee58d96	0.44834584
176	0x3d9801e3	0.07422235
177	0xbd93e9e6	-0.07222347
178	0x3da19b73	0.07890978
179	0xbe1f72d1	-0.15571143
180	0x3e02c965	0.12772138
181	0x3d800c2c	0.062523216
182	0x3f0beb2a	0.54655707
183	0xbe543283	-0.20722394
184	0x3ea3a150	0.3195901
185	0x3e84a879	0.25909784
186	0xbe46daf8	-0.19419467
187	0xbdcbc62d	-0.099499084
188	0xbeb464b9	-0.35233095
189	0x3e69c0c4	0.2282744
190	0x3f07185a	0.5277153
191	0x3e8212a7	0.25404856
192	0xbea71501	-0.32633212
193	0x3ea5f63b	0.3241442
194	0xbf5e70cd	-0.8689087
195	0xbebed538	-0.37272048
196	0xbe14127b	-0.14460175
197	0x3e01b6c2	0.12667373
198	0xbed5765e	-0.4169187
199	0x3e235b31	0.15952756
200	0xbe19784a	-0.14987293
201	0x3c00ab57	0.007853351
202	0xbe7c2245	-0.24622448
203	0xbf078a81	-0.52945715
204	0xbd602f66	-0.054732703
205	0x3e89723b	0.26844963
206	0xbcc11078	-0.023567423
207	0x3f58cd1b	0.84687966
208	0x3eaebf43	0.34130296
209	0xbe6d9aca	-0.23203579
210	0xbdb6699c	-0.08906862
211	0xbf0f30ec	-0.55934024
212	0x3e3a50e8	0.18194926
213	0xbdb9e5b2	-0.09077014
214	0x3d953e3f	0.07287263
215	0xbd0abbf7	-0.033870663
216	0xbeef1b05	-0.46700302
217	0xbe4f2720	-0.20229769
218	0x3ebade58	0.3649776
219	0xbeadbbf9	-0.33932474
220	0x3e6731e0	0.2257762
221	0x3e8f9faf	0.28051516
222	0xbd62b1f8	-0.055345505
223	0xbbea88ad	-0.0071574063
224	0xbf08a1a4	-0.53371644
225	0x3eb79360	0.35854626
226	0xbe61757e	-0.22017476
227	0xbe495988	-0.1966306
228	0xbecd6d50	-0.4012246
229	0xbe0a0a8c	-0.13480586
230	0x3de43759	0.11143369
231	0xbd4eeae7	-0.05051699
232	0x3db57836	0.08860819
233	0x3ece4577	0.40287372
234	0x3e92b4b6	0.28653497
235	0xbe5122b7	-0.20423399
236	0x3db875fe	0.0900688
237	0xbe8dadf4	-0.27671778
238	0xbe84c02d	-0.25927868
239	0x3defeda2	0.11715247
240	0xbc9506fa	-0.018191803
241	0x3ce58282	0.028016333
242	0xbe6131f1	-0.21991707
243	0xbd79e588	-0.061009914
244	0x3e292e42	0.16521552
245	0xbef3dd37	-0.4762971
246	0x3dd8d2c1	0.10587073
247	0xbef8a2a4	-0.48561585
248	0xbe3883e8	-0.18019068
249	0xbe610b6b	-0.21977012
250	0xbe63f595	-0.22261651
251	0xbd9ce1e0	-0.0766027
252	0x3e313b80	0.17307854
253	0xbddc48c7	-0.10756069
254	0xbecb94dd	-0.3976201
255	0xbe086253	-0.13318758

fc1.bias f4 [128]
0	0xbf02cdc2	-0.5109521
1	0xbed3516b	-0.41273054
2	0xbe144a25	-0.14481409
3	0xbf0d79d8	-0.55264044
4	0xbf1a7010	-0.60327244
5	0x3d07654d	0.033055592
6	0xbe31a287	-0.17347156
7	0xbd572f93	-0.052535605
8	0xbebb11e9	-0.36537102
9	0xbe686b71	-0.22697236
10	0xbed61491	-0.41812566
11	0x3d77cd14	0.060498312
12	0x3c75370f	0.01496674
13	0xbf2a0e15	-0.6642774
14	0xbcfd6316	-0.030931037
15	0x3d183c52	0.0371669
16	0xbebcba2f	-0.36860797
17	0xbebe152e	-0.37125534
18	0xbe20cb49	-0.15702547
19	0x3e12fa94	0.143534
20	0xbf06d299	-0.52665097
21	0xbe9a2585	-0.3010675
22	0xbe3fee11	-0.18743159
23	0xbedd0c2a	-0.43173343
24	0xbdd95030	-0.10610998
25	0xbe846ab5	-0.2586266
26	0xbe58797a	-0.2114009
27	0xbe23a84c	-0.15982169
28	0xbe5de508	-0.216694
29	0xbec84c29	-0.39120606
30	0x3e15c0fc	0.14624399
31	0xbf0eb541	-0.5574532
32	0xbebfced9	-0.374625
33	0xbea539db	-0.32270703
34	0xbdb08888	-0.08619791
35	0x3e163afc	0.14670938
36	0x3e0434c0	0.12910748
37	0xbf21cf35	-0.632068
38	0xbebe16f3	-0.37126884
39	0x3d86108c	0.06546125
40	0xbe4639c8	-0.1935798
41	0xbea27b95	-0.3173491
42	0xbe326c42	-0.1742411
43	0xbee2c71e	-0.4429254
44	0x3da4ff4e	0.08056508
45	0xbe9f383c	-0.3109759
46	0x3de329d6	0.11091964
47	0xbea6e270	-0.32594633
48	0x3caa46a8	0.020785645
49	0xbda86c07	-0.082237296
50	0xbd4a51cc	-0.049394414
51	0xbf5eca1a	-0.8702713
52	0xbecf4eef	-0.4048991
53	0xbf08fb60	-0.5350857
54	0xbeffdde2	-0.4997397
55	0x3da4e02b	0.08050569
56	0xbdc346ff	-0.09535026
57	0xbefd5641	-0.4947987
58	0xbea999d0	-0.33125162
59	0xbec93e3b	-0.3930529
60	0xbd16db3c	-0.036830172
61	0xbf3b9921	-0.7328053
62	0xbf4e5602	-0.8059999
63	0xbe9b628f	-0.30348632
64	0xbd82a9b6	-0.06380026
65	0xbe03860b	-0.12844102
66	0xbec80ad9	-0.39070776
67	0xbe1e7494	-0.15474159
68	0xbe3dd72d	-0.18539114
69	0xbe00dbb6	-0.12583813
70	0xbd772b72	-0.060344167
71	0x3dc988b7	0.098405294
72	0x3cec125b	0.028817346
73	0x3de464ef	0.11152064
74	0xbe9e83a8	-0.3095982
75	0xbe2296c8	-0.15877831
76	0x3d1c7082	0.038193233
77	0xbe92c62b	-0.28666815
78	0xbd63a13d	-0.05557369
79	0x3df355cb	0.11881598
80	0xbef19ffa	-0.47192365
81	0xbf0d498a	-0.55190337
82	0x3d8cd188	0.068759024
83	0xbf1806e0	-0.5938549
84	0xbd948a7d	-0.07252977
85	0xbdcbf137	-0.099581175
86	0xbda4bd2e	-0.08043896
87	0xbed723d3	-0.4201952
88	0xbf17da34	-0.59317327
89	0x3df1b08c	0.11801252
90	0xbe34f9fc	-0.17673486
91	0xbeba2d53	-0.36362705
92	0xbf2f576f	-0.6849279
93	0xbf26081e	-0.64856136
94	0xbeeecae8	-0.4663918
95	0xbf36e564	-0.7144377
96	0xbdd0dce0	-0.101983786
97	0xbe14611c	-0.1449017
98	0xbeb366bf	-0.35039327
99	0xbb7e031d	-0.003875918
100	0x3d819959	0.06328077
101	0xbee83555	-0.4535319
102	0x3db8253a	0.089914754
103	0xbe46b055	-0.19403203
104	0x3d9b3d36	0.075800344
105	0xbf4190b3	-0.7561142
106	0x3df1efe7	0.11813336
107	0x3ecbcea1	0.39806083
108	0xbef72300	-0.4826889
109	0x3c759bc1	0.014990748
110	0x3c00e0de	0.0078661125
111	0xbf33f922	-0.7030202
112	0xbe7f069e	-0.24904868
113	0xbe09ad42	-0.13444999
114	0x3c81dd26	0.015852522
115	0x3e250929	0.16116776
116	0xbe11ffcb	-0.14257734
117	0x3d160e09	0.03663448
118	0xbe6c67d0	-0.23086476
119	0xbd808d66	-0.062769696
120	0xbf3e98e0	-0.7445202
121	0xbf129653	-0.57260627
122	0xbe3686c7	-0.17824851
123	0xbea0e8d8	-0.31427646
124	0x3d45307b	0.048141938
125	0x3dd05c23	0.10173824
126	0x3d8b0daa	0.067897156
127	0x3bc9112f	0.0061360816

fc2.weight f4 [128, 128]
0	0xbf5b0aa8	-0.85563135
1	0xbff993e0	-1.9498253
2	0xbe0b306a	-0.13592687
3	0x3f078e88	0.5295186
4	0xbe1f29b6	-0.15543255
5	0x3e116499	0.14198531
6	0x3cef34a5	0.029199908
7	0x3e6d8e09	0.23198713
8	0x3e5df7ba	0.21676531
9	0x3e4ab5a2	0.1979585
10	0x3eb9964f	0.3624749
11	0xbdb0c60d	-0.08631525
12	0x3b09924d	0.0020991743
13	0xbf260af5	-0.6486047
14	0xbdd5814a	-0.104250506
15	0xbe6fdbec	-0.23423737
16	0xbe990411	-0.29885915
17	0xbe1314a7	-0.14363347
18	0x3f1330ae	0.57496154
19	0x3d8f25ba	0.06989618
20	0x3eebad26	0.4603054
21	0xbe6c168c	-0.23055476
22	0xbf412cd8	-0.7545905
23	0xbec0ad64	-0.37632287
24	0xbe068622	-0.13137105
25	0xbe8af924	-0.27143204
26	0xbf5ff7e7	-0.87487644
27	0xbe09b81c	-0.13449138
28	0xbefacf26	-0.48986167
29	0xbe12bca4	-0.14329773
30	0x3deca4b7	0.11554854
31	0xbf8a41cd	-1.0801331
32	0xbc55994a	-0.013037035
33	0xbf929ab8	-1.1453466
34	0x3d44bdfc	0.048032746
35	0x3e71e20d	0.23621388
36	0xbbe51671	-0.0069912006
37	0xbc55eb81	-0.013056637
38	0xbe06dfca	-0.13171306
39	0x3cf69bb7	0.030103547
40	0x3e7187cb	0.23586957
41	0x3e4a4417	0.19752537
42	0x3e9d78d3	0.30756244
43	0xbebf66cd	-0.37383118
44	0xbcf70f79	-0.030158745
45	0x3cf28118	0.029602572
46	0x3e2bb9f0	0.16770148
47	0xbd5982fb	-0.05310343
48	0x3da16cfa	0.07882114
49	0xbebe6617	-0.37187263
50	0xbe20f4e6	-0.15718421
51	0x3d371587	0.044698264
52	0x3d9543d1	0.072883256
53	0xbc6a9f01	-0.014320136
54	0xbea90db0	-0.33018255
55	0x3d1e7037	0.038681235
56	0x3d78cf16	0.060744368
57	0x3f0d9825	0.5531028
58	0x3d67007b	0.056396943
59	0x3f0c0684	0.5469744
60	0x3dbfceae	0.09365593
61	0x3e0c5c6f	0.13707136
62	0xbf0138be	-0.50477207
63	0x3db6436d	0.08899579
64	0xbc3ec7d0	-0.011644319
65	0xbe0187ae	-0.12649414
66	0xbe575ec5	-0.21032245
67	0x3de140a2	0.10998656
68	0x3eb24616	0.34819096
69	0x3e6a5cad	0.22886916
70	0xbf274073	-0.65332717
71	0xbe7b8b95	-0.24564965
72	0xbe26fc13	-0.16307096
73	0xbef4157b	-0.47672638
74	0x3d5807f4	0.05274196
75	0x3d6168da	0.055031635
76	0x3c682ca4	0.014170799
77	0xbe71a94d	-0.2359974
78	0x3b57f69d	0.003295339
79	0x3d89bc28	0.06725341
80	0xbd84dcb9	-0.06487412
81	0x3f394d04	0.7238314
82	0xbe1c0111	-0.15234782
83	0x3e0e95bc	0.13924307
84	0x3e5e1456	0.21687445
85	0xbfeaa036	-1.8330142
86	0x3e519be5	0.20469625
87	0xbfc0b65f	-1.5055655
88	0xbe2ea699	-0.1705574
89	0x3e0c044d	0.13673516
90	0x3e55ee2d	0.20891638
91	0x3e99f6f6	0.3007123
92	0x3e016034	0.12634355
93	0x3f4b8b14	0.7950909
94	0x3edc446d	0.43020955
95	0xbe9399fe	-0.28828424
96	0xbea804ef	-0.32816264
97	0xbe9c9a2f	-0.30586383
98	0xbdd11b58	-0.102102935
99	0xbda7c9e5	-0.08192805
100	0x3e927687	0.28606054
101	0xbfb75499	-1.4322692
102	0xbf46efee	-0.77709854
103	0x3d1dfd5d	0.038571704
104	0x3dbb0cdb	0.09133311
105	0x3e4d40d7	0.20044266
106	0xbe5f0f4b	-0.21783178
107	0xbdc906f5	-0.0981578
108	0xbe360c74	-0.17778188
109	0xbd27d1eb	-0.040971678
110	0x3d5c8eff	0.05384731
111	0x3f029a2e	0.5101651
112	0x3d36a908	0.044594795
113	0x3e3d2193	0.18469839
114	0x3e8a7ffe	0.27050775
115	0xbec740ad	-0.3891653
116	0xbde915f1	-0.11381138
117	0x3e1a5252	0.15070465
118	0x3e79d93f	0.24399279
119	0xbe24a865	-0.16079862
120	0xbdd350e5	-0.10318164
121	0xbfa91a51	-1.3211156
122	0xbf97bbb8	-1.1854162
123	0xbeacba68	-0.33735967
124	0x3e9fd43b	0.31216606
125	0xbe55f508	-0.20894253
126	0xbd8322b6	-0.06403105
127	0xbd8d2b99	-0.06893081
128	0x3e418141	0.18896963
129	0xbe217263	-0.15766291
130	0x3e4e76ed	0.20162554
131	0x3d7a01e2	0.06103695
132	0x3eaa0d2d	0.33213177
133	0xbe67b4d5	-0.22627576
134	0xbd7a0b60	-0.061046004
135	0xbee1a34e	-0.44069904
136	0x3ee3d17b	0.44495758
137	0xbe783401	-0.24238588
138	0xbf0c2562	-0.5474454
139	0x3e18e8b9	0.14932527
140	0x3dc2b292	0.09506716
141	0xbea94d31	-0.33066705
142	0x3d66818d	0.056275893
143	0xbf4fbe2f	-0.8114957
144	0xbf280d2f	-0.65645117
145	0xbd93ed09	-0.07222945
146	0x3ea844c2	0.32864958
147	0x3ddf9b49	0.1091829
148	0xbf2dc43f	-0.6787757
149	0xbe76122e	-0.24030373
150	0xbdb9220f	-0.09039699
151	0xbf2086ea	-0.6270586
152	0x3e0c739e	0.1371598
153	0x3ea590ca	0.32337028
154	0xbeb8177f	-0.35955426
155	0xbcc31fe5	-0.02381892
156	0x3ebd323f	0.36952397
157	0xbe9899c4	-0.29804814
158	0x3c5667e9	0.013086298
159	0xbf801a17	-1.0007962
160	0xbeb55064	-0.35412896
161	0xbe300ce5	-0.17192419
162	0x3d1d8636	0.03845807
163	0x3dd6a304	0.104803115
164	0x3c8142bb	0.01577889
165	0xbfd1c2bf	-1.6387557
166	0xbde28049	-0.11059625
167	0x3e5174e1	0.20454742
168	0xbd889617	-0.06669252
169	0xbf03dee7	-0.51511997
170	0xbd10ea8d	-0.035379935
171	0xbe371eb7	-0.1788281
172	0xbe4e87d3	-0.20169
173	0x3d04b3bf	0.03239798
174	0x3e2e6379	0.17030133
175	0xbe3a6cfb	-0.18205635
176	0xbde0cca5	-0.10976533
177	0x3e9163f9	0.28396586
178	0xbe34f28d	-0.17670651
179	0x3c8572d4	0.016290106
180	0xbe3cbe1b	-0.18431894
181	0xbe31c5fe	-0.17360684
182	0x3f008815	0.50207645
183	0x3ba7278f	0.0051011513
184	0xbf24e0f4	-0.6440575
185	0x3e89167d	0.2677497
186	0xbcee3769	-0.029079156
187	0x3ee15ce9	0.44016197
188	0x3e9b5249	0.30336216
189	0x3e170112	0.14746502
190	0x3e22069b	0.15822832
191	0x3d0b5f18	0.034026235
192	0x3e3443f8	0.17604053
193	0x3e1a3ab3	0.15061454
194	0xbdc29687	-0.09501367
195	0x3e29afe2	0.16571
196	0xbdbb62f8	-0.09149736
197	0x3e884449	0.26614597
198	0x3e400748	0.18752778
199	0x3d3c675f	0.04599702
200	0x3e42a792	0.19009236
201	0x3c4819af	0.012213155
202	0xbdaea092	-0.0852672
203	0xbe2c696e	-0.16837093
204	0xbd9e0b25	-0.077169694
205	0x3ef2edf5	0.47447172
206	0xbd3381a1	-0.043824796
207	0x3d97ffae	0.07421814
208	0x3ee97222	0.4559489
209	0xbe4f6a54	-0.20255405
210	0xbe931599	-0.28727415
211	0xbd78d9ad	-0.060754467
212	0x3d89ff84	0.06738189
213	0xbeb0ec53	-0.345553
214	0x3e4c5f18	0.1995815
215	0xbf45fe71	-0.7734137
216	0x3e5d08a4	0.21585327
217	0xbdd1ce54	-0.10244432
218	0xbf2402f1	-0.6406699
219	0x3e3d1ec9	0.18468775
220	0x3d709d71	0.058743898
221	0x3f122481	0.5708695
222	0xbe3e84f8	-0.18605411
223	0x3e4f25c5	0.20229252
224	0xbddd4a03	-0.10805132
225	0x3c889e06	0.016676914
226	0x3cd46173	0.025925374
227	0xbd14b717	-0.03630742
228	0x3df60f89	0.12014682
229	0xbdc3b4ca	-0.09555967
230	0xbef12528	-0.4709866
231	0x3d05ae11	0.032636706
232	0xbeeac31f	-0.4585199
233	0x3d43ddb5	0.04781886
234	0x3d0f663b	0.035009604
235	0x3c6e1533	0.0145314215
236	0xbf1fa1e8	-0.62356424
237	0xbdc0841b	-0.09400197
238	0xbcfca6a4	-0.03084118
239	0xbd0ef3d7	-0.034900513
240	0xbdeb211e	-0.11480926
241	0x3d3fba15	0.04680832
242	0xbdf0cf2f	-0.11758267
243	0xbe004664	-0.12526852
244	0x3e742d33	0.23845367
245	0x3e74c964	0.2390495
246	0xbe4b0903	-0.19827656
247	0xbd28d289	-0.041216407
248	0xbf8e8e53	-1.1137184
249	0xbf1de7ff	-0.6168212
250	0xbe66b84e	-0.22531244
251	0x3d4197e0	0.04726398
252	0x3e212ece	0.15740511
253	0x3d8c1e33	0.068416975
254	0x3d9617e6	0.07328777
255	0x3dc55c13	0.096367024

fc2.bias f4 [128]
0	0x3d236894	0.039894655
1	0x3e1d2845	0.15347393
2	0xbe0000d4	-0.12500316
3	0xbd842b5d	-0.064535834
4	0x3ccace68	0.024756625
5	0xbe2e90b4	-0.17047387
6	0x3c3729ec	0.011179429
7	0x3e46f180	0.19428062
8	0xbde84b61	-0.113425024
9	0xbdce7234	-0.10080376
10	0xbd082acd	-0.033243943
11	0xbd9ad6de	-0.07560514
12	0xba46bb88	-0.0007581045
13	0xbcae9492	-0.021311078
14	0x3de2f1a2	0.11081244
15	0x3de2ee63	0.11080625
16	0x3d690b30	0.056895435
17	0x3e2b6a41	0.16739751
18	0x3d93a703	0.07209589
19	0xbdbd6a52	-0.092487946
20	0x3c43483d	0.011919078
21	0xbdd8c04a	-0.10583551
22	0xbdcd27ef	-0.10017382
23	0x3cf6301f	0.030052243
24	0xbe79d31b	-0.24396937
25	0x3c49419c	0.012283709
26	0xbd08b047	-0.033371236
27	0xbc0aea61	-0.008478732
28	0xbdd6008a	-0.104493216
29	0x3d4b2c4f	0.049602803
30	0x3de66ee1	0.11251617
31	0xbea3e4ec	-0.3201059
32	0x3c952aff	0.018208979
33	0xbd2beb8f	-0.041972693
34	0x3dc3a951	0.09553779
35	0x3e6533c8	0.22383034
36	0xbe020429	-0.126969
37	0x3d59ac73	0.053142976
38	0x3df0c2bf	0.11755895
39	0xbdd1906e	-0.10232626
40	0x3df1c41c	0.11804983
41	0xbd2dc66d	-0.04242556
42	0xbc88c038	-0.01669322
43	0x3a8c6faa	0.0010714431
44	0xbe22573d	-0.15853591
45	0xbe2c993e	-0.16855332
46	0x3deabe1f	0.11462044
47	0xbd4dccf8	-0.0502443
48	0x3e1795a1	0.14803173
49	0xbe6eb50d	-0.23311253
50	0x3d83abec	0.06429276
51	0xbe193249	-0.14960589
52	0xbce5bd1c	-0.028044276
53	0xbe349180	-0.17633629
54	0x3e97c94d	0.29645768
55	0x3e30b6b4	0.17257196
56	0xbf05a220	-0.5220051
57	0xbc451df9	-0.012031072
58	0x3e087f32	0.13329771
59	0xbe49758f	-0.19673751
60	0x3e3fa410	0.18714929
61	0xbc60b3f8	-0.013714783
62	0x3e5f6315	0.2181514
63	0xbde56def	-0.11202609
64	0x3e1f0976	0.15530953
65	0x3d4a425c	0.04937969
66	0x3df6a692	0.120434895
67	0xbd26e489	-0.04074529
68	0xbdc5b091	-0.09652818
69	0x3c65e6c9	0.014032074
70	0x3de5ee21	0.1122706
71	0x3df5be93	0.1199924
72	0xbdf45a53	-0.119312905
73	0xbe901c8f	-0.28146788
74	0xbd999c8d	-0.07500563
75	0x3e71a45f	0.23597859
76	0x3d182c97	0.0371519
77	0xbd223f0c	-0.039610907
78	0x3d4a1716	0.049338423
79	0xbd909030	-0.070587516
80	0xbc262095	-0.010139604
81	0x3e1bcee9	0.15215649
82	0x3db05052	0.0860907
83	0x3d364cff	0.044507023
84	0xbba60d4a	-0.005067502
85	0xbb1fead6	-0.0024401448
86	0xbe262c98	-0.16227949
87	0x3e064cfd	0.13115306
88	0xbe0361ac	-0.12830228
89	0x3db2456d	0.08704648
90	0xbdad72e6	-0.08469181
91	0x3c821097	0.015877051
92	0x3cec6c62	0.028860275
93	0x3c873714	0.016505755
94	0xbd47f92d	-0.048821617
95	0x3dc0a2f5	0.094060816
96	0xbe8ad9b3	-0.27119216
97	0x3d7e5cbb	0.062100153
98	0xbe885af7	-0.266319
99	0xbdae235c	-0.08502838
100	0xbd804e9e	-0.06264995
101	0x3d061214	0.032732084
102	0x3e097306	0.13422784
103	0x3dea288c	0.11433515
104	0xbdadc621	-0.08485056
105	0x3d3b2aa6	0.04569497
106	0x3e2731eb	0.16327636
107	0x3ddd0da4	0.10793617
108	0xbe7cefbf	-0.24700831
109	0x3db399ae	0.087695464
110	0xbb893982	-0.0041877637
111	0x3df8e06a	0.121521786
112	0xbabe1788	-0.0014502862
113	0xbe08b633	-0.13350753
114	0xbce2d748	-0.027690545
115	0xbd3c7779	-0.046012376
116	0xbd95252c	-0.072824806
117	0xbc421b60	-0.011847347
118	0x3df6eef6	0.12057297
119	0xbe418494	-0.18898231
120	0x3dd36363	0.10321691
121	0x3d2eaff7	0.042648282
122	0x3dcec0b2	0.100953475
123	0xbd982ed8	-0.0743081
124	0x3db22e2e	0.08700214
125	0xbc7fa2cb	-0.015602778
126	0x3c62df46	0.013847178
127	0x3d6ae478	0.05734679

dist.fc_mean.weight f4 [2, 128]
0	0xbbddc214	-0.0067675207
1	0xba61466b	-0.0008593562
2	0xbc8d310a	-0.017235298
3	0x3d1156e7	0.035483267
4	0x3e3e6363	0.185926
5	0xbcb15ba3	-0.021650141
6	0x3ca62bd3	0.020284569
7	0x3def45ec	0.116832584
8	0x3b835509	0.0040079397
9	0xbd23ffcf	-0.04003888
10	0xbd135869	-0.035972986
11	0xbcad0380	-0.021119833
12	0xbbe19105	-0.0068837428
13	0x3d12a097	0.03579768
14	0x3d777c1f	0.060421105
15	0xbb916ee1	-0.0044382666
16	0xbda892fb	-0.08231159
17	0xbe49201f	-0.1964116
18	0x3ddd40bb	0.10803362
19	0x3e138141	0.14404775
20	0x3b9bdd04	0.0047565717
21	0xbb6fb294	-0.0036574947
22	0xbddca24d	-0.10773144
23	0x3f308cf3	0.6896507
24	0xbc80a4d1	-0.01570359
25	0xbdf2d782	-0.11857511
26	0xbcc22b80	-0.023702383
27	0x3c8f072d	0.017459476
28	0xbb5cc361	-0.003368579
29	0xbbdaa3f9	-0.006672379
30	0x3e494bd2	0.1965783
31	0x3c41e2c3	0.011833849
32	0x3c40048d	0.011719835
33	0xbb4261ee	-0.0029660421
34	0x3da51647	0.0806089
35	0x3d05f6f9	0.032706235
36	0xbbe0e657	-0.006863396
37	0x3ebcd933	0.3688446
38	0x3d25e59d	0.04050218
39	0x3e3f9f79	0.18713178
40	0x3d9cb0f4	0.07650939
41	0xbd43697a	-0.047708012
42	0xbc8efa75	-0.017453412
43	0x3bd215a1	0.00641127
44	0xbc5bd26f	-0.0134168705
45	0x3d80668d	0.0626956
46	0xbbc95b54	-0.0061449204
47	0x3de4061f	0.1113398
48	0x3f5d848f	0.86530393
49	0xbc652e36	-0.013988068
50	0x3b99eb74	0.0046972577
51	0x3cb4a152	0.02204958
52	0xbd2e3057	-0.04252657
53	0xbc1a77eb	-0.009428005
54	0x3e889d9c	0.26682746
55	0x3c4e5ce6	0.012595391
56	0xbdd84ac9	-0.10561139
57	0xbd391b16	-0.045191847
58	0x3e87d8ec	0.26532686
59	0x3d2e3be4	0.042537585
60	0x3f5d87f4	0.86535573
61	0xbbe47072	-0.0069714123
62	0x3d0d1509	0.03444389
63	0xbb24e41c	-0.0025160378
64	0x3e715d5a	0.23570767
65	0xbb0234ad	-0.0019867823
66	0x3b660c55	0.0035102565
67	0xbc14c978	-0.009081237
68	0x3cdfc10f	0.027313737
69	0x3ba2ab26	0.00496425
70	0xbd796c8d	-0.060894538
71	0xbc891b37	-0.01673661
72	0xbc416f2c	-0.011806291
73	0x3eea1bd5	0.4572436
74	0x3d3cf59e	0.046132676
75	0xbeb292d5	-0.3487765
76	0x3ed944e6	0.42435378
77	0xba4c93c6	-0.00078040024
78	0xbcb6bef1	-0.022307845
79	0x3d743be4	0.05962743
80	0xbd640e41	-0.055677656
81	0xbd048037	-0.032348838
82	0x3cbad3ed	0.022806132
83	0xbbfffc7b	-0.0078120804
84	0x3be8baa2	0.0071023265
85	0x3b08154d	0.002076465
86	0x38f33a5a	0.00011598012
87	0x3e388bc4	0.18022066
88	0xbd6b3b1c	-0.057429418
89	0xbd118891	-0.03553063
90	0x3c276508	0.010216959
91	0xbc09a0a7	-0.008400119
92	0xbb40b19c	-0.0029402738
93	0x3ceaed48	0.028677598
94	0xbc7c552f	-0.015401169
95	0x3c28a441	0.010293067
96	0xbb56009f	-0.0032654179
97	0x3b51e871	0.0032029415
98	0xbe3d1742	-0.18465903
99	0x3cd8dcff	0.026472567
100	0xbcef74c3	-0.029230481
101	0x3cccb9f7	0.024991019
102	0x3e09b738	0.13448799
103	0x3d9913d9	0.07474489
104	0xbd529ecf	-0.051420983
105	0xbccb4be3	-0.024816459
106	0xbbcb9d80	-0.006213844
107	0x3d4cbcd8	0.049984783
108	0xbcf42ff4	-0.029808022
109	0xbc097630	-0.0083899945
110	0x3cda62c2	0.02665842
111	0x3d927072	0.071503535
112	0x3b0869e7	0.0020815076
113	0x3ca1c183	0.019745594
114	0xbbfb703c	-0.0076732915
115	0xbc051e20	-0.008124858
116	0xbcced468	-0.025247768
117	0x3e3662e2	0.17811158
118	0x3e98e83c	0.2986468
119	0xbc8c94d6	-0.017160814
120	0xbe9f9c79	-0.31174067
121	0x3c6e5325	0.01454619
122	0xbb1c5506	-0.002385439
123	0xbdefaa9f	-0.11702465
124	0x3ed54598	0.41654658
125	0xbb760d71	-0.0037544633
126	0xbbd9feea	-0.0066527026
127	0x3e926d4e	0.28599018
128	0x3bd53dd3	0.006507614
129	0xbca778d2	-0.020443354
130	0x3bb9830b	0.0056613735
131	0xbb5e3450	-0.0033905692
132	0x3c26c98f	0.010179891
133	0x3e3fcf8a	0.18731514
134	0x3c0563a1	0.008141429
135	0xbd57bac3	-0.052668344
136	0x3b216561	0.0024627077
137	0x3dafb975	0.08580295
138	0x3c3d0a7f	0.011538147
139	0xbd00505a	-0.03132663
140	0xbcb8fe7f	-0.02258229
141	0x3c068b62	0.008211942
142	0x3d609034	0.054825023
143	0x3c355c60	0.011069387
144	0x3b4f17d4	0.0031599896
145	0xbe98a5b8	-0.29813933
146	0x3c654666	0.013993835
147	0x3dcbd637	0.099529676
148	0xba9cbef2	-0.0011958762
149	0xbacdc2f6	-0.0015698362
150	0xbc9b2898	-0.018940255
151	0x3e91c78d	0.28472558
152	0x3cf3a87c	0.029743426
153	0x3b72797f	0.0036998687
154	0xbd93c50a	-0.072153166
155	0x3d109a68	0.035303503
156	0x3a072c79	0.0005156468
157	0x3bdc30cf	0.0067196856
158	0xbcf3623d	-0.02970993
159	0xbe818c60	-0.2530241
160	0x3bd5b0de	0.0065213284
161	0x3bb78854	0.0056009684
162	0xbb28b7c7	-0.0025744305
163	0xbc69dd42	-0.014273943
164	0xbc32c28c	-0.010910641
165	0x3db5b5e1	0.08872581
166	0x3c53b5d4	0.012921769
167	0xbe53cf0f	-0.20684455
168	0xbe560b3a	-0.2090272
169	0x3d2d743a	0.04234717
170	0xbcba7fb1	-0.022765966
171	0xbb877b9d	-0.004134609
172	0x3b9fe1b1	0.0048791994
173	0x3e5e976b	0.21737449
174	0x3c10c3bb	0.008835728
175	0x3e8b4edb	0.272086
176	0x3e891fe3	0.2678214
177	0xbca32738	-0.019916162
178	0x3b874876	0.004128511
179	0xbd5f8786	-0.054572605
180	0x3c1ae14c	0.009453129
181	0x3bd71f7f	0.006565034
182	0xbc2458a9	-0.010030904
183	0x3de88829	0.113540955
184	0xbe815f6e	-0.2526812
185	0xbc60cbbe	-0.013720451
186	0xbe811510	-0.25211382
187	0x3a2b3ea0	0.0006532464
188	0xbd8dc786	-0.06922822
189	0x39218a5b	0.00015405698
190	0x3e6f63af	0.2337787
191	0xbcc4f843	-0.024044162
192	0x3bfdca90	0.0077450946
193	0xbbf88b17	-0.00758494
194	0xbcdd59cc	-0.027020358
195	0xbae22e1e	-0.0017256176
196	0xbdc1cd97	-0.09463041
197	0x3e8d8945	0.2764379
198	0x3d6245c7	0.055242326
199	0xbbb11a33	-0.0054047345
200	0x3b546609	0.003240945
201	0x3ce71eb4	0.028212883
202	0x3eb880d7	0.36035797
203	0x3d84d088	0.06485087
204	0xbcca774c	-0.024715088
205	0xbcaf5ad3	-0.021405613
206	0x3b573d65	0.003284299
207	0x3bfbc1d7	0.0076830196
208	0xbe0dd23d	-0.13849731
209	0x3e7536c4	0.23946673
210	0xbc9c416e	-0.019074168
211	0x3c1ef196	0.009701153
212	0x3a70cb28	0.0009185546
213	0x3b232dbc	0.0024899086
214	0x3bdb8bc4	0.006700011
215	0xbd9d8700	-0.07691765
216	0xbc290122	-0.0103152115
217	0xbcfca609	-0.03084089
218	0x38d607c4	0.00010205762
219	0xbcf2f3a4	-0.029657193
220	0x3c1a9c00	0.009436607
221	0xbc9cd444	-0.019144185
222	0x3bf778f2	0.0075522596
223	0x3d290421	0.041263703
224	0xbcaad1ad	-0.020851934
225	0x3de6c411	0.112678654
226	0xbe96a500	-0.2942276
227	0x3bca014d	0.006164706
228	0xbac79970	-0.0015228223
229	0xbcadea7b	-0.021229973
230	0xbe07b0de	-0.13251063
231	0x3c0d7a86	0.008635169
232	0x3c7e2463	0.015511605
233	0x3a7992a3	0.0009520447
234	0x3b69ba77	0.003566412
235	0x3b7f9b76	0.0039002574
236	0xbeee0cee	-0.4649424
237	0x3bf42787	0.007451001
238	0xbbbe1b5c	-0.0058016013
239	0x3af7c3f5	0.0018903004
240	0xbca65e0e	-0.02030852
241	0xbca0174d	-0.01954236
242	0xba9ee33f	-0.0012122168
243	0x3ba52a58	0.005040448
244	0x3c9bb1e7	0.019005729
245	0x3cdc0e0e	0.02686217
246	0x3ddd98e9	0.10820181
247	0x3c9a6a3a	0.01884948
248	0x3d399e96	0.045317255
249	0x3a40711a	0.0007341072
250	0xbc5c8ec4	-0.013461772
251	0x3cf5122e	0.029915895
252	0xbcbbf6a6	-0.02294476
253	0x3bb8428d	0.005623168
254	0xbc407182	-0.011745812
255	0x3b328802	0.0027241712

dist.fc_mean.bias f4 [2]
0	0x3c8c8715	0.017154256
1	0x3b34d2e7	0.0027591528

dist.fc_logstd.weight f4 [2, 128]
0	0xc00c5ae7	-2.1930482
1	0x3e829cad	0.2551016
2	0xbfd530b6	-1.665549
3	0xbe5bd3ab	-0.21467464
4	0x3e8e9ca2	0.27853876
5	0xbf1b5c5f	-0.6068782
6	0xbbab4773	-0.0052270233
7	0x3de6467a	0.11243911
8	0xbf86eb2d	-1.054052
9	0xbd05de3c	-0.032682642
10	0xbd076f41	-0.033065084
11	0xbf23cef7	-0.6398768
12	0xbef07215	-0.46962038
13	0x3cb61cbd	0.0222305
14	0xbe7a48be	-0.24441811
15	0xbee8df27	-0.45482752
16	0x3dcbe9ac	0.09956679
17	0xbecae78c	-0.3962978
18	0xbf1d5dcb	-0.6147124
19	0xbe753130	-0.23944545
20	0xbd5da0d8	-0.05410847
21	0xbf22f4a8	-0.63654566
22	0xbfad82bb	-1.3555521
23	0xc00edf26	-2.23237
24	0xbf585a3c	-0.84512687
25	0x3e445528	0.1917311
26	0x3b31d6be	0.0027136053
27	0x3e3d854e	0.18507883
28	0xbfba8bd8	-1.4573927
29	0xbe4f230f	-0.20228218
30	0xbe0b1ca0	-0.13585138
31	0xbee3328e	-0.44374508
32	0x3f973d61	1.1815606
33	0xbc14b053	-0.009075242
34	0x3cecc1d3	0.028901016
35	0xbe7fb6d5	-0.24972089
36	0x3e3bb1d4	0.18329555
37	0xbfb5e8de	-1.421169
38	0xbea7ddd7	-0.32786438
39	0xbf4a4ef8	-0.79026747
40	0x3d963d9e	0.07335971
41	0xbe77e5bc	-0.2420873
42	0xbf3775ab	-0.7166392
43	0x3e99b14d	0.30018082
44	0xbf300212	-0.6875316
45	0xbf529135	-0.8225282
46	0x3ed35dda	0.4128254
47	0xbc6be4f6	-0.01439785
48	0x3f137497	0.57599777
49	0xc0088322	-2.1330037
50	0xbf46e8c8	-0.77698946
51	0xbf59065f	-0.84775347
52	0xbe43c1bd	-0.19116874
53	0xbeb8723e	-0.3602466
54	0x3e4c917d	0.19977374
55	0x3e193dfe	0.14965054
56	0x3d9fa6e0	0.07795501
57	0xbe287d12	-0.1645396
58	0xbe431f29	-0.19054855
59	0x3edfc85d	0.43707553
60	0xbfaa82ce	-1.3321168
61	0xbf623147	-0.8835644
62	0x3c9bd8a1	0.019024195
63	0xbf2b9f36	-0.6703981
64	0x3e97481f	0.29547212
65	0xbf0181ec	-0.5058887
66	0xbd83ba96	-0.06432073
67	0xbfb62480	-1.4229889
68	0xbc820659	-0.015872167
69	0x3e0ff5cf	0.14058612
70	0xbf192838	-0.59826994
71	0xbf959d26	-1.1688583
72	0xbf535ec7	-0.82566494
73	0x3dc2c4a8	0.095101655
74	0xbee59e77	-0.44847462
75	0xbea9f5c2	-0.3319531
76	0x3e96d5b8	0.2945993
77	0xbe2f6a6e	-0.17130443
78	0xbdd6fcb9	-0.10497422
79	0xbd5414a7	-0.051777508
80	0xbf8e1d74	-1.1102738
81	0xbde9ac77	-0.11409848
82	0xbe42c87c	-0.19021791
83	0xbe187394	-0.1488784
84	0xbdcac740	-0.09901285
85	0xbfc83596	-1.5641353
86	0x3fcc3125	1.5952498
87	0xbe89d90a	-0.269234
88	0xbb175793	-0.002309297
89	0x3d0dba50	0.03460151
90	0xbf487233	-0.78299254
91	0xbf036a95	-0.51334506
92	0xbf893ae4	-1.0721097
93	0xbd0ca78d	-0.034339476
94	0xbeeeb5e3	-0.46623144
95	0xbdeba4ec	-0.11506066
96	0xbfaa0909	-1.3284007
97	0xbeec8fb8	-0.462034
98	0xbe998b57	-0.2998912
99	0xbf0395ec	-0.5140064
100	0xbffcd701	-1.9753114
101	0xbc9516e2	-0.018199388
102	0x3f04cb63	0.51872844
103	0x3deb9430	0.11502874
104	0x3e5b85bc	0.21437734
105	0xbe639577	-0.22224985
106	0xbd176d99	-0.036969755
107	0x3e07bd75	0.13255866
108	0xbed082c2	-0.4072476
109	0x3e9afeca	0.30272514
110	0x3bfbf04a	0.007688557
111	0x3eaa9a92	0.33321053
112	0xbeceb6da	-0.4037388
113	0x3e0bb5d9	0.13643588
114	0xbe9a6385	-0.30154052
115	0xc00079a1	-2.0074236
116	0xbede0a15	-0.43367067
117	0xbcf061ea	-0.029343564
118	0xbdad92c9	-0.08475263
119	0xbee41242	-0.4454518
120	0x3f01ac84	0.5065386
121	0xbd450e56	-0.048109375
122	0xbf07b6fa	-0.53013575
123	0x3df36c3b	0.11885878
124	0xbed9fd45	-0.42576042
125	0xbd8bfc12	-0.06835188
126	0xbe773cab	-0.24144237
127	0x3f9a96fc	1.2077327
128	0xbf3a8a1c	-0.7286699
129	0xbf8b709c	-1.0893741
130	0xbfa1627c	-1.260818
131	0xbe24dfbe	-0.16100976
132	0xbec55a04	-0.3854524
133	0x3d807bc8	0.062736094
134	0xbf22430d	-0.6338356
135	0xbe26467a	-0.16237822
136	0xbf002eff	-0.5007171
137	0xbd003dfd	-0.031309117
138	0xbc5747b9	-0.013139659
139	0xbedb1436	-0.42788857
140	0xbf67b979	-0.90517384
141	0xbcea21d4	-0.028580584
142	0x3e3c6f7d	0.18401904
143	0xbdfc28cd	-0.1231247
144	0xbdb57bdb	-0.08861514
145	0x3e8eb66b	0.2787355
146	0xbf001767	-0.5003571
147	0xbe99e7aa	-0.30059558
148	0xbd2e0a61	-0.042490367
149	0xbedd7f6e	-0.43261284
150	0xbf5049ba	-0.813625
151	0xbebef9ab	-0.37299857
152	0xbf3c0293	-0.7344143
153	0xbf7dc545	-0.99129134
154	0xbd115c1f	-0.035488244
155	0xbf3dd20d	-0.7414864
156	0xbf1c90c1	-0.61158377
157	0xbf8a3d7a	-1.0800011
158	0x3e526ce7	0.20549355
159	0x3bfdb765	0.0077428096
160	0xbe2a7de6	-0.16649589
161	0xbd63ff9d	-0.055663694
162	0xbf36c18e	-0.7138909
163	0x3edfebef	0.4373469
164	0xbe9b51d4	-0.30335867
165	0xbf46f2e5	-0.7771438
166	0xbeffe9ac	-0.49982965
167	0xbf443f41	-0.7665902
168	0x3f5d30ae	0.86402404
169	0xba9d79c4	-0.0012014438
170	0xbf9c0623	-1.2189373
171	0xbf7051e0	-0.9387493
172	0xbcdb9892	-0.02680615
173	0xbf078205	-0.5293277
174	0xbf81e402	-1.0147707
175	0x3f12ed8e	0.5739373
176	0x3d3c2652	0.045934983
177	0xbff6c3dc	-1.9278522
178	0xbf96869b	-1.1759828
179	0xbe25a03d	-0.16174407
180	0xbda84753	-0.08216729
181	0xbf478d6d	-0.77950174
182	0x3e3d7c77	0.18504511
183	0xbf6a7da4	-0.9159796
184	0x3e50b656	0.20382056
185	0xbd4d6545	-0.050145406
186	0x3f060068	0.5234437
187	0xbf4d2586	-0.8013538
188	0xbffdebc6	-1.9837577
189	0xbf4b8b5e	-0.7950953
190	0x3e380f35	0.17974551
191	0xbf4433a6	-0.7664131
192	0x3ecc97f8	0.39959693
193	0xbf8c0d1a	-1.0941498
194	0xbf4a92e2	-0.79130375
195	0xbf4dd8d9	-0.8040901
196	0xbcd28539	-0.025698291
197	0x3f02d597	0.5110716
198	0x3e973434	0.29532015
199	0x3f02fbc5	0.5116542
200	0xbfe1d503	-1.7643131
201	0xbe6ad46f	-0.229326
202	0xbec8befb	-0.39208207
203	0x3f44385e	0.7664851
204	0x3d49278e	0.049109988
205	0xbcf8d2de	-0.030373987
206	0xbfa884ec	-1.3165565
207	0xbc6cb7eb	-0.014448146
208	0x3e0533d5	0.13008054
209	0x3f396066	0.7241272
210	0xbef07152	-0.46961457
211	0xbf9732c3	-1.1812366
212	0x3c241fac	0.010017317
213	0xbfac3d75	-1.3456255
214	0x3f48342b	0.782046
215	0xbe73eaf2	-0.23820093
216	0xbc8aa4a2	-0.016924206
217	0x3f02555c	0.509115
218	0xbf014f03	-0.5051119
219	0xbf563689	-0.83676964
220	0xbf91ecb1	-1.1400357
221	0xbcf28af4	-0.029607274
222	0xbe832a4f	-0.25618216
223	0xbee6b65c	-0.45061004
224	0xbc36fb9c	-0.011168387
225	0x3ebcf1e3	0.36903295
226	0xbf2e7384	-0.6814501
227	0xbd46c7ac	-0.048530266
228	0x3ecd2e1c	0.4007424
229	0x3d116319	0.035494898
230	0x3c4dbb11	0.012556807
231	0xbeaf795f	-0.34272286
232	0xbf6793aa	-0.9045969
233	0xbf2666c1	-0.6500054
234	0xbf7ebca2	-0.9950658
235	0xbf231653	-0.6370594
236	0xbe235582	-0.15950587
237	0xbf399143	-0.72487277
238	0xbd7f87ec	-0.062385485
239	0xbde4665a	-0.111523345
240	0xbf2f5833	-0.68493956
241	0xbee26ca0	-0.442235
242	0xbf000695	-0.50010043
243	0xbfced4fe	-1.615875
244	0xbe13fdd2	-0.14452294
245	0xbf2cb5c5	-0.6746486
246	0x3e23df15	0.16003068
247	0xbe9f6457	-0.3113124
248	0x3ea7fffe	0.32812494
249	0xbf134657	-0.57529205
250	0xbf3d5d83	-0.7397081
251	0xbcb5b8e5	-0.022182891
252	0xbef5ff06	-0.4804613
253	0x3c4477e6	0.011991477
254	0xbf400265	-0.75003654
255	0xbec84861	-0.3911772

dist.fc_logstd.bias f4 [2]
0	0xbedeae79	-0.43492487
1	0xbf2ecf87	-0.6828541

exp_avg f4 [128, 9]
0	0x3cb1547a	0.021646727
1	0xbdd126bb	-0.102124654
2	0x3cf695ea	0.030100781
3	0xbd096f54	-0.033553436
4	0x3b87698c	0.004132455
5	0x3cf960a2	0.030441586
6	0x3cbefc07	0.023313535
7	0x3d84de17	0.06487673
8	0xbbd8344b	-0.0065980307
9	0xbe2afe24	-0.1669851
10	0x3d4cb255	0.04997476
11	0xbd7ed2b2	-0.062212653
12	0xbbe501e2	-0.00698875
13	0xbc80e477	-0.01573394
14	0xbcaac1ce	-0.020844366
15	0xbcc99298	-0.024606034
16	0x3ca61598	0.020273969
17	0x3caf4747	0.021396292
18	0x3d43f123	0.047837388
19	0x3d852c14	0.06502548
20	0xbc831a89	-0.016003864
21	0xbbc0772d	-0.005873582
22	0x3ca351bd	0.019936437
23	0xbba97854	-0.005171815
24	0xbcb1c87c	-0.021702044
25	0x3c73e438	0.014885955
26	0xbcc2be50	-0.023772389
27	0xbbd68f8e	-0.006547875
28	0xba90235e	-0.0010996868
29	0xbde239bf	-0.110461704
30	0xbdc22c9f	-0.09481167
31	0x3dcb4c19	0.09926624
32	0x3abb79b4	0.0014303238
33	0xbc9bfb5b	-0.019040754
34	0xbc8feceb	-0.017569026
35	0xbe672c03	-0.22575383
36	0x3d9fd1f2	0.07803716
37	0x3d866f1d	0.06564162
38	0x3c907633	0.017634487
39	0x3c67d5c9	0.014150091
40	0x3c9a9ec1	0.018874528
41	0x3d473f0c	0.04864411
42	0xbb581ad3	-0.0032974973
43	0xbb96556b	-0.0045878193
44	0x3d1c902f	0.03822344
45	0x3b92b8ba	0.0044775875
46	0x3cb997f0	0.022655457
47	0xbd81d4f3	-0.06339445
48	0x3c0c2698	0.008554123
49	0x3d5bcb45	0.05366065
50	0x3b8d68c8	0.0043154694
51	0x3d6dd98f	0.05806881
52	0x3d059c7b	0.032619935
53	0x3dfd10b9	0.12356705
54	0xbe8d0834	-0.2754532
55	0x3cd890c1	0.026436212
56	0x3ebb3b08	0.36568475
57	0x3cc98124	0.024597712
58	0xbea37b49	-0.31929997
59	0x3c94c524	0.01816041
60	0x3dc9ce95	0.098538555
61	0x3cb9c441	0.022676589
62	0x3e310eeb	0.17290847
63	0xbca86f4c	-0.020560883
64	0xbd2fab4c	-0.04288797
65	0x3c9abba8	0.01888831
66	0x3c37ce14	0.011218566
67	0xbce11cf6	-0.02747963
68	0xbc2e1904	-0.010626081
69	0x3df76d40	0.12081385
70	0x3c006279	0.007835978
71	0x3d384d6d	0.044995714
72	0x3d233ba3	0.039851796
73	0x3dbac4f7	0.09119599
74	0xbe31292f	-0.17300867
75	0xbcf3e6a6	-0.029773068
76	0x3e4d1edf	0.20031308
77	0x3de871f4	0.1134986
78	0xbd959241	-0.07303286
79	0x3ca1c936	0.019749265
80	0x3d2cb52e	0.042164974
81	0x3d6fbed5	0.0585316
82	0xbd8e7b8e	-0.0695716
83	0xbddcf3cc	-0.10788688
84	0x3c2b22b1	0.010445283
85	0x3d63b845	0.055595655
86	0xbcac1c6f	-0.021009652
87	0x3e470df4	0.19438916
88	0x3cec478b	0.028842708
89	0xbd3e1606	-0.046407722
90	0x3e03fd63	0.12889628
91	0x3dad83da	0.08472414
92	0x3d918c4e	0.07106839
93	0x3c886149	0.016647952
94	0x3d0dfe48	0.03466633
95	0x3d543773	0.051810693
96	0xbd608545	-0.054814596
97	0xbd51a012	-0.051178046
98	0xbd037ccd	-0.03210144
99	0x3e34dffa	0.17663565
100	0xbde9c900	-0.11415291
101	0x3e77f6f8	0.24215305
102	0x3d61f907	0.05516913
103	0xbdb0aeb9	-0.08627076
104	0xbd1e6582	-0.038671024
105	0x3c38c3a9	0.011277118
106	0xbce58eb3	-0.028022146
107	0xbd9f9d18	-0.07793635
108	0x3d093809	0.033500705
109	0x3dbde7b1	0.09272707
110	0xbcf71425	-0.030160973
111	0x3d6447f6	0.05573269
112	0x3a1b5e53	0.0005926836
113	0xbd8721d5	-0.0659825
114	0x3deaf6c1	0.11472846
115	0x3c18df75	0.00933062
116	0x3d783950	0.060601532
117	0x3e2c694e	0.16837046
118	0xbe03973b	-0.12850659
119	0xbe4a88cd	-0.19778748
120	0xbdb49c1d	-0.08818839
121	0x3e2b29fe	0.16715237
122	0xbca75ac7	-0.020429028
123	0xbde75153	-0.11294808
124	0xbca3eaa0	-0.020009339
125	0xbe84e94f	-0.2595925
126	0x3dcc1295	0.09964482
127	0xbdc6ab5a	-0.097006515
128	0xbe2256ff	-0.15853499
129	0xbcb40ed8	-0.021979734
130	0x3e001dec	0.12511414
131	0xbd11aff9	-0.03556821
132	0x3b43aaa7	0.0029856355
133	0x3b401caa	0.002931396
134	0xbe569dbc	-0.20958608
135	0xbdbbfeec	-0.09179482
136	0x3d9d2690	0.07673371
137	0x3d1669b6	0.036721908
138	0x3d8db910	0.069200635
139	0xbd60dedc	-0.054900035
140	0x3dcd19f0	0.10014713
141	0xbd2ddb4b	-0.042445462
142	0xbc0e336c	-0.008679252
143	0x3d1f3158	0.038865417
144	0x3deff231	0.11716116
145	0xbdae356a	-0.08506282
146	0x3d874d9d	0.066066004
147	0xbcc1b51d	-0.023645932
148	0x3c094c2e	0.008379979
149	0xbbb8801a	-0.0056305053
150	0xbb3d3064	-0.0028867954
151	0xbb39797f	-0.0028301177
152	0xbd70ad35	-0.058758933
153	0xbe05244a	-0.13002124
154	0xbd268b73	-0.040660333
155	0x3cc6d2f2	0.024270508
156	0xbb70e2b0	-0.003675621
157	0xbd74d51d	-0.059773553
158	0xbd6ff267	-0.058580782
159	0x3b6b3166	0.0035887598
160	0xbbf5e19b	-0.007503701
161	0x3dde3317	0.10849588
162	0xbb0e8e9c	-0.0021752482
163	0x3dcca37b	0.09992119
164	0x3c865772	0.016399119
165	0xbd20d134	-0.03926201
166	0x3d3c9771	0.046042863
167	0x3d56ebdc	0.052471027
168	0x3ba04036	0.004890467
169	0x3e2cd927	0.16879712
170	0x3d6ad627	0.057333138
171	0x3da1d444	0.079018146
172	0x3d84a607	0.0647698
173	0xbba2df4b	-0.0049704663
174	0x3cf1b6fa	0.029506195
175	0x3d340c2c	0.04395692
176	0x3ca5b7dc	0.020229273
177	0xba92a64b	-0.0011188475
178	0xbb3503e6	-0.0027620732
179	0x3d1fa8bc	0.038979277
180	0x3d9ac134	0.07556382
181	0x3cec5f56	0.028854053
182	0x3cf57bb7	0.029966218
183	0xbb256819	-0.002523905
184	0x3c26e9a7	0.010187543
185	0x3d049c41	0.032375578
186	0xbc4a8963	-0.012361857
187	0xbc9dcf14	-0.019263782
188	0xbdf23c8d	-0.118279554
189	0x3a96f1ea	0.0011516188
190	0xbc7182bd	-0.014740643
191	0x3ce9e32c	0.028550707
192	0xbca60a3c	-0.020268552
193	0xbd410dd4	-0.04713233
194	0xbc4a1e35	-0.0123363035
195	0xbbddcb75	-0.0067686387
196	0xbb72e77a	-0.003706424
197	0x3d3ef381	0.046618942
198	0x3d968dda	0.07351275
199	0x3e1afd32	0.15135649
200	0x3ca63fc6	0.020294081
201	0xbba7a324	-0.0051158834
202	0x3bd7dc1a	0.0065875174
203	0x3d00c62a	0.031438984
204	0xbbdb518a	-0.00669307
205	0xbd3736d4	-0.044730023
206	0x3d0136e2	0.03154648
207	0x3d52aef9	0.0514364
208	0x3e07bdd1	0.13256003
209	0x3e0bae5d	0.13640733
210	0x3d020fb5	0.03175326
211	0xbdca34ae	-0.09873329
212	0xbd422923	-0.047402512
213	0x3c4e6dd3	0.012599426
214	0xbd740e92	-0.059584208
215	0x3cdeca93	0.027196204
216	0x3cf4d209	0.029885309
217	0x3d94afdb	0.07260104
218	0x3c0c9c49	0.008582183
219	0xbd13cc7a	-0.036083676
220	0xbcebaa29	-0.028767662
221	0xbcc8d871	-0.02451727
222	0x3cd6018f	0.02612379
223	0xbe35699a	-0.17716065
224	0xbd98bf1e	-0.07458328
225	0x3c940e52	0.018073235
226	0x3d59458a	0.053044833
227	0xbd6c88ca	-0.05774764
228	0x3d232ef7	0.03983971
229	0x3c92e355	0.017930666
230	0xbd40d641	-0.04707933
231	0x3da79110	0.08181965
232	0xbc082871	-0.008310423
233	0xbd1ebc14	-0.038753584
234	0xbdae0da0	-0.084986925
235	0x3d599428	0.05311981
236	0x3e4714fe	0.19441602
237	0x3cfe1046	0.03101362
238	0xbe054ff9	-0.13018788
239	0x3d03e88d	0.0322042
240	0x3d2559a4	0.04036869
241	0xbbb1f421	-0.0054307138
242	0x3e040fc9	0.12896647
243	0x3e066bd8	0.13127077
244	0x3dc0dcd1	0.094171174
245	0x3d2f2e7a	0.042768933
246	0x3d187244	0.037218347
247	0x3d869b57	0.065725975
248	0x3d94d6c6	0.07267527
249	0x3cab5303	0.020913607
250	0x3ca830be	0.020531055
251	0x3e0c54af	0.13704179
252	0x3c989299	0.01862459
253	0xbd8132d4	-0.06308523
254	0x3dceaa5c	0.10091087
255	0x3c18dce4	0.009330008

exp_avg_sq f4 [128, 9]
0	0x3d4c7efa	0.04992578
1	0x3f0a066d	0.53916055
2	0x3e13d3f0	0.14436316
3	0x3e5f3691	0.21798159
4	0x3d43c67a	0.047796704
5	0x3d890e42	0.066921726
6	0x3d424504	0.0474291
7	0x3e90dccb	0.28293452
8	0x3f4b02ee	0.79301345
9	0x3d9425c8	0.07233769
10	0x3e79ebda	0.24406376
11	0x3e009056	0.1255506
12	0x3da11509	0.0786534
13	0x3d5c3761	0.05376375
14	0x3d248ddf	0.04017436
15	0x3f7b225f	0.9809932
16	0x3f24cf1a	0.6437851
17	0x3eb2077e	0.3477134
18	0x3d4b9548	0.049702913
19	0x3e123fa5	0.14282091
20	0x3da830dc	0.08212444
21	0x3da9986c	0.08281025
22	0x3cab9be5	0.02094836
23	0x3d5213da	0.051288463
24	0x3e19dd6f	0.15025876
25	0x3d95e1da	0.073184684
26	0x3d9a0e72	0.075222865
27	0x3e2a8531	0.16652371
28	0x3e8b9030	0.27258444
29	0x3e3bd7ac	0.18343991
30	0x3e1e846e	0.15480205
31	0x3dd40762	0.10352971
32	0x3e5eb6da	0.2174944
33	0x3bdf435a	0.006813449
34	0x3eac1454	0.3360926
35	0x3ec2ed9f	0.38071916
36	0x3e0afa35	0.13572009
37	0x3e26ca3a	0.16288081
38	0x3dc58085	0.09643654
39	0x3d7dc1ba	0.06195233
40	0x3d640f30	0.055678546
41	0x3d4ea686	0.050451778
42	0x3ce7d7b9	0.028301107
43	0x3b613ac0	0.0034367293
44	0x3df4faf3	0.11961927
45	0x3d916737	0.07099765
46	0x3e396d5a	0.1810812
47	0x3db93223	0.09042766
48	0x3dc3a971	0.09553803
49	0x3d3a4d0b	0.04548363
50	0x3daa993a	0.08330007
51	0x3f54dce1	0.83149534
52	0x3efbbf46	0.49169368
53	0x3ddf7da4	0.10912636
54	0x3e8664eb	0.2624887
55	0x3ed24e20	0.4107523
56	0x3e71eef3	0.23626308
57	0x3df936dd	0.121686675
58	0x3db0d836	0.08634989
59	0x3f64b702	0.8934175
60	0x3f68de7e	0.90964496
61	0x3ffe7f68	1.9882631
62	0x3e83ae8d	0.2571911
63	0x3da55b48	0.08074051
64	0x3df13886	0.11778359
65	0x3d7b8f6e	0.061416082
66	0x3d417a78	0.047235936
67	0x3c5ccef4	0.013477076
68	0x3d4fe355	0.05075391
69	0x3f9ee40b	1.2413343
70	0x3b83abcc	0.0040182825
71	0x3dde8442	0.1086507
72	0x3e232760	0.15932989
73	0x3ec74787	0.3892176
74	0x3e3f9ca3	0.18712096
75	0x3e1a1273	0.150461
76	0x3da69c4c	0.0813528
77	0x3e0040e0	0.12524748
78	0x3d262d03	0.04057027
79	0x3c19e779	0.009393566
80	0x3ea82171	0.32838014
81	0x3e57d9df	0.21079205
82	0x3ed2add1	0.41148236
83	0x3ebb9c5e	0.36642736
84	0x3de12a17	0.10994356
85	0x3dbf4ad6	0.09340446
86	0x3ea1436b	0.31496748
87	0x403d91a8	2.9620152
88	0x3fb2b793	1.3962272
89	0x3e342107	0.17590724
90	0x3d9e124f	0.07718336
91	0x3e74fd90	0.23924851
92	0x3dd1bed7	0.10241478
93	0x3dc346c7	0.09534984
94	0x3d6eafc5	0.058273096
95	0x3d0b5d5e	0.03402459
96	0x3f8cf6ab	1.1012777
97	0x3f74d6e8	0.9564042
98	0x3de641e2	0.11243035
99	0x3e3a5a99	0.18198623
100	0x3e5e96ef	0.21737264
101	0x3e15bad7	0.14622055
102	0x3daa0171	0.08301056
103	0x3d4c3a2b	0.04986016
104	0x3d4700a3	0.04858459
105	0x4037b10c	2.870181
106	0x3c8790e7	0.016548587
107	0x3de9e3fb	0.11420437
108	0x3ec07278	0.37587333
109	0x3ebed84b	0.37274393
110	0x3e8ff799	0.2811859
111	0x3dc423c3	0.095771335
112	0x3da2fa97	0.079579525
113	0x3ddf0e5c	0.10891411
114	0x3fe5ebf8	1.7962637
115	0x3bfa814e	0.007644809
116	0x3e5eee53	0.21770601
117	0x3e242ca8	0.1603266
118	0x3e8a06bf	0.26958272
119	0x3dd0d8c7	0.10197597
120	0x3df6fe0b	0.120601736
121	0x3d364333	0.04449768
122	0x3e1045dc	0.14089149
123	0x3d014683	0.031561386
124	0x3b9ee687	0.0048492583
125	0x3e8f5832	0.27996975
126	0x3d777100	0.0604105
127	0x3dde4a43	0.10854008
128	0x3dc4c240	0.09607363
129	0x3d81536f	0.06314742
130	0x3d4cd544	0.050008073
131	0x3cfc00ac	0.03076204
132	0x3b9fa3a0	0.0048718005
133	0x3b459363	0.0030147664
134	0x3dddd8e8	0.10832387
135	0x3d8e06c3	0.069348834
136	0x3f8a3bc9	1.0799495
137	0x3e6fc3eb	0.2341458
138	0x3e8f22a1	0.27956107
139	0x3d12af5d	0.03581177
140	0x3d62638e	0.055270724
141	0x3e90d27d	0.2828559
142	0x3e2640ad	0.1623561
143	0x3f3fd6d8	0.749372
144	0x3e0798d6	0.13241896
145	0x3e61f1b3	0.22064857
146	0x3daf30af	0.085542075
147	0x3d8911ca	0.06692846
148	0x3d9164bb	0.07099291
149	0x3d223b6d	0.039607454
150	0x3b815d2e	0.0039478755
151	0x3b7bc1f9	0.0038415177
152	0x3dc22f46	0.09481673
153	0x3e115b26	0.14194927
154	0x3e1b026b	0.15137641
155	0x3e0a4a0a	0.13504806
156	0x3d8f9a40	0.07011843
157	0x3d5a8ec0	0.053358793
158	0x3e029444	0.12751871
159	0x3b803793	0.003912875
160	0x3e9124e9	0.28348473
161	0x3e32fbbf	0.17478846
162	0x3d661c80	0.056179523
163	0x3e6ef898	0.23337018
164	0x3db6f073	0.08932581
165	0x3dc64688	0.096814215
166	0x3d83a29d	0.064275004
167	0x3d7c9917	0.061669435
168	0x3cab5167	0.02091284
169	0x3e2e4fd4	0.1702264
170	0x3e0376dc	0.1283831
171	0x3dc4f064	0.096161634
172	0x3e392a3e	0.1808252
173	0x3db551c2	0.08853485
174	0x3d2e934f	0.042620953
175	0x3ce0031b	0.02734523
176	0x3d6af01c	0.057357892
177	0x3ea91f49	0.3303168
178	0x3f504abb	0.8136403
179	0x3dd81244	0.10550359
180	0x3e3a133f	0.18171404
181	0x3efc82c8	0.49318528
182	0x3e3663d6	0.17811522
183	0x3e3811fb	0.17975609
184	0x3d6e6504	0.058201805
185	0x3d9da38a	0.07697208
186	0x3c88a41f	0.016679822
187	0x3c86f0cf	0.016472248
188	0x3f2b2348	0.6685071
189	0x3d6293b5	0.055316646
190	0x3e636c98	0.22209394
191	0x3da823d7	0.08209961
192	0x3e005c89	0.125353
193	0x3d230eb8	0.03980896
194	0x3d672531	0.056431953
195	0x3beecb1c	0.007287396
196	0x3cedf926	0.029049467
197	0x3e89f29d	0.26942912
198	0x3e2509be	0.16116998
199	0x3eef5591	0.4674497
200	0x3ea9adf6	0.33140534
201	0x3e176da2	0.14787915
202	0x3cc5ca0b	0.024144193
203	0x3ec4ca21	0.38435462
204	0x3ec14ec1	0.37755397
205	0x40191062	2.391625
206	0x3e302919	0.17203178
207	0x3e35a644	0.17739207
208	0x3fd98f08	1.6996775
209	0x3f1034b2	0.56330407
210	0x3f0e34da	0.55549395
211	0x3da24bfc	0.07924649
212	0x3e05c48c	0.13063258
213	0x3e60afa2	0.21941999
214	0x3e76e23a	0.24109736
215	0x3fcd746c	1.6051154
216	0x3ded7ea5	0.11596421
217	0x3e6b5b3d	0.22984023
218	0x3e0d6442	0.13807777
219	0x3dab70f1	0.08371151
220	0x3dafe82f	0.085892074
221	0x3da63539	0.0811562
222	0x3ecfbf11	0.4057546
223	0x3f0d0840	0.55090714
224	0x3e51a64f	0.20473598
225	0x3d978f8f	0.074004285
226	0x3dc3701b	0.09542867
227	0x3dd38127	0.10327368
228	0x3d917efe	0.071043
229	0x3d795391	0.06087071
230	0x3d8eeb8d	0.069785215
231	0x3f411deb	0.75436276
232	0x3e8131ac	0.2523321
233	0x3d904228	0.07043868
234	0x3e19444e	0.14967462
235	0x3e9f3eaf	0.3110251
236	0x3e66e757	0.22549187
237	0x3e1b788b	0.15182702
238	0x3db222c1	0.08698035
239	0x3f915f2d	1.135717
240	0x3eb3b5a8	0.3509953
241	0x40257504	2.585267
242	0x3e3c7671	0.18404557
243	0x3df35f9a	0.11883469
244	0x3dffb1d3	0.12485089
245	0x3da760b0	0.081727386
246	0x3d6dd18b	0.058061164
247	0x3db8ef0a	0.09029968
248	0x3cfa4a3f	0.030552981
249	0x3b47893f	0.0030446795
250	0x3b4051ce	0.0029345634
251	0x3e074f9f	0.13213967
252	0x3e14cff0	0.14532447
253	0x3ea73cc9	0.32663563
254	0x3e5561a1	0.20838024
255	0x3dd1c2ea	0.10242255
