ppo/models/behavioral_cloning_agents_drone/bc5/ckpts/002101950.pt (torch_old, 371466 bytes, 26 tensors)

fc1.weight f4 [128, 15]
00000000: 5105 823e fb82 873e 9201 c3be 901c 7dbe
00000010: b224 293c 2092 603e 9921 97be 2c95 a53e
00000020: d1f3 6a3e 25c8 d23e 8375 a339 32c1 d43d
00000030: 0a97 7cbe c21a 2fbe 5fef ab3d 7da9 a83d
00000040: b55c 823e 81b9 c03d 7928 26bf e873 17be
00000050: b507 f93d 4b5c a13e d143 e8bd c0a6 51bc
00000060: 1720 24be 80f5 12be 9c52 383f a345 75be
00000070: 7572 26be 606a d73d 445b 3bbe 2226 be3e
00000080: 2c04 17be 3f38 03be d46a ebbd 5ca5 e3bc
00000090: 70d1 3e3d 0108 10bd 55a2 b73d 6567 723e
000000a0: 63bd c1bd 6232 25be 40ed 323d 66dd 76be
000000b0: cd45 cfbb 480c 5bbd 5d5f 663e b8eb 453e
000000c0: d2ba 72be a1e5 17be 80fe 153e 3927 4e3e
000000d0: c84d 323d fe6e 813e 8116 963e fb69 6fbe
000000e0: f594 babc c7fc 4cbe bc3f 37be 620d 2dbd
000000f0: fba5 603d c122 da3e 35e9 78be bf89 8f3e
00000100: 23e6 58be 09af b63c 13b0 b53d 7935 cc3e
00000110: bd52 e3bd 8c81 483f c603 26bf 7c56 69be
00000120: fcd1 cf3d 9a10 5b3e e94e 613e f26a 603d
00000130: 7116 9f3e 9d33 adbe 5811 f23d 86a9 adbe
00000140: 2f94 76be 35ec 033d 7eb9 d43d 4bae c3be
00000150: 6ba8 3b3e dd65 adbd 29f7 173d d00e f2bd
00000160: 9859 cb3d 0560 d53d 0fad 873e c990 3f3e
00000170: a930 0abd bfd7 833d d8dd f8be a87c 52bc
00000180: 2d19 953e 8c51 2f3e cea2 b1be a7a7 95be
00000190: 6b8f fc3c c1fe 503e fa90 e6bd b616 85bd
000001a0: 1e3b c1bd 197f a8bd 4716 d3be d385 9bbe
000001b0: 33bd 26bd 157d 1b3e 40b8 043e 1918 1d3e
000001c0: ef7b 3fbe 89d2 f93e 51f1 173f 4a92 14bf
000001d0: 464c e8bc 40e2 3e3c 704d 1a3d b314 4a3e
000001e0: 495c b03e 8d27 13be e141 8fbe 02dc 4c3e
000001f0: 2a57 89be 112a 15be 4813 633e b0d5 5cbd
00000200: 14bb 7cbe c78a a1be abb1 17be 8354 92be
00000210: a63e 2cbe 1019 59bc fc21 703e d9ee d53d
00000220: c5f1 ad3c 5361 ff3c 57d6 f73c 49e0 6f3e
00000230: cecb d93e ca35 1e3e 9f62 ad3e 5725 773c
00000240: 8e01 a5be 873b 84be 41f0 423e 0062 dbba
00000250: ba6a 03be bf3b 803b 2bdc 10be df0d b4be
00000260: 224a 1a3d 7c2f ae3c 4195 b53e 123e 44be
00000270: accb db3e 678d 90bc 4acf 043e f253 83be
00000280: 875d e93d 3af4 41be 6441 6dbe 0b4a 64be
00000290: 736b 173d 279b c93d e05a 963d d73d 613e
000002a0: 599e b2be 5990 7ebe b6f0 053f 6dee 03be
000002b0: a68c 323f 48bf b93d 89df 86be e0c3 09be
000002c0: 433a c4bc 5a0e ecbd c46c 533e 134f 26be
000002d0: 1ba3 df3d 67c5 893e 3cdd 773e 3a19 14be
000002e0: 51f0 a1be b521 593e ab4e b9be 03fa b6bd
000002f0: 7414 b5bc ecb7 013e def7 233e 135f e23e
00000300: bc7f 3abe 20ac 3c3c 0c82 36be f8d5 85be
00000310: 69e2 d8bd d57f a43e 63a5 0abe 8490 f2be
00000320: da92 d0bd ef83 0b3e 0f47 cebe 2000 d1be
00000330: 1eaf 08be fb07 a03e d924 a3bd c603 5f3e
00000340: 0437 bf3d 587d a83e 31a1 fa3d 503e a73d
00000350: 9c4d 693d 8fca 3dbd 7ac3 bd3d 9191 d43e
00000360: acad a9bd 49a7 9bbe 9d01 313e 270f d4bd
00000370: e1fb e13d 8831 903d e004 bf3d 008c ef3b
00000380: 5ddc 7cbc bb13 063e 9d55 a1be f29f cdbd
00000390: db7e 23be 5b33 4abc 21f9 91bd 39b3 a73e
000003a0: 528b f9bb 8319 7abc 3193 633e a172 89be
000003b0: c205 713d 77e6 3abe 741d e0bd a921 833d
000003c0: 3757 acbd 3509 fa3d aee6 9bbe 4166 4cbd
000003d0: 819a adbc d792 f93c d1f5 a63e 9df3 25be
000003e0: 5fa6 aa3d 49fa a4be 011a 93bd 14bc 743d
000003f0: 3ca2 5a3e 7693 9abd cbaa b33d abe7 aabd
0.2539468 0.26467118 -0.38087136 -0.24717927 0.01032369 0.21930742 -0.2951782 0.32340372
0.22944571 0.41168323 0.00031177336 0.103884116 -0.24666992 -0.17100051 0.08395266 0.08235452
0.25461355 0.09410382 -0.64905506 -0.14790308 0.12159673 0.31515726 -0.1134106 -0.012796104
-0.16027866 -0.14351463 0.7200105 -0.23952346 -0.162546 0.10518336 -0.18296534 0.37138468
-0.14747685 -0.12814425 -0.11494985 -0.02778881 0.046586454 -0.035163883 0.08966509 0.23672254
-0.09459951 -0.16132501 0.04368329 -0.24107894 -0.0063254596 -0.05347851 0.22497316 0.19328201
-0.23704079 -0.1483369 0.14647865 0.2013215 0.04353121 0.25279993 0.29314044 -0.23380272
-0.022776106 -0.20018302 -0.17895406 -0.04224909 0.05484579 0.4260464 -0.24307711 0.2803478
-0.2118154 0.02230026 0.08871474 0.39884546 -0.110997654 0.7832267 -0.6484951 -0.22786897
0.10147473 0.21393052 0.22002758 0.05478949 0.3107181 -0.3382844 0.11819714 -0.339184
-0.24079965 0.032207686 0.10386942 -0.38218912 0.18325965 -0.084666945 0.037100945 -0.118192315
0.09929198 0.10418705 0.2649922 0.18707575 -0.033737812 0.06437635 -0.48606753 -0.012847103
0.2912077 0.17120951 -0.34694523 -0.2922947 0.030830106 0.20409681 -0.11258121 -0.064984724
-0.09435104 -0.08227367 -0.41227934 -0.30375537 -0.04070778 0.15184434 0.12960911 0.15341224
-0.1869962 0.48793438 0.59352595 -0.5803572 -0.028356683 0.011650622 0.037671506 0.19734459
0.34445408 -0.14370556 -0.2797995 0.20005801 -0.26824313 -0.14566828 0.22175324 -0.053914726
-0.2468074 -0.3155119 -0.14813869 -0.28580102 -0.16820773 -0.013250604 0.23450464 0.10445947
0.021233449 0.031174337 0.030253572 0.23425402 0.42538303 0.15450206 0.33864304 0.015084586
-0.3222775 -0.25826666 0.19036962 -0.001673758 -0.12833682 0.0039133723 -0.14146487 -0.35166833
0.037668355 0.021262877 0.35465434 -0.19164303 0.42928827 -0.01764555 0.129697 -0.25649983
0.11394792 -0.18940821 -0.23169476 -0.2229387 0.036967706 0.09844046 0.07341552 0.21996246
-0.34886435 -0.24859752 0.5232042 -0.12883921 0.6974586 0.09069687 -0.2634242 -0.13453627
-0.023953563 -0.11526175 0.2064696 -0.16241102 0.10919782 0.2690842 0.24205488 -0.14462748
-0.3162866 0.21204264 -0.3619283 -0.08934405 -0.02210448 0.12667817 0.16012523 0.4421316
-0.1821279 0.011515647 -0.17823046 -0.26139808 -0.10590059 0.32128778 -0.13539653 -0.47375882
-0.1018426 0.13624547 -0.40288588 -0.40820408 -0.13348052 0.3125609 -0.079660125 0.21778783
0.09336665 0.3290813 0.12237776 0.08166182 0.05695878 -0.046335753 0.092658 0.41517308
-0.082850784 -0.30401066 0.17285772 -0.103544526 0.1103437 0.07040697 0.09327102 0.0073103905
-0.015433398 0.13093464 -0.3151063 -0.10040273 -0.1596636 -0.012341346 -0.07127596 0.32753924
-0.007615485 -0.0152648715 0.22224118 -0.26845267 0.05884338 -0.18251978 -0.10943118 0.064029045
-0.084150724 0.12208787 -0.30449432 -0.049902204 -0.021191837 0.030465527 0.32609418 -0.16206212
0.08332514 -0.32222202 -0.07182694 0.059749678 0.2135095 -0.07547657 0.087728105 -0.083449684

fc1.bias f4 [128]
00000000: 350a 8abe aab6 a1be a941 4dbe c0e7 e23d
00000010: 6307 dc3c 852b 9fbd ad36 1dbe a901 69bd
00000020: dab0 26bd 8970 47be 2b6a a5be 7f3e 8bbe
00000030: 05d9 903c a2a4 2cbe 3ddd 0ebd 3b5e bd3c
00000040: ef5a 07be 4f18 a53d 4eae bbbe f3d7 6bbe
00000050: 6bd2 39be 459a b1bd 8024 cdbd 632e 67be
00000060: 3bac 4cbe 3375 a23d 6a1b b1bd 5d4b 543e
00000070: 4f32 89be 222b 56be 4a65 63bd 3189 cabd
00000080: 5be7 f13d 9481 91be e2dd 31be a679 88be
00000090: 5eeb 003e e0aa 223b 7ef3 34be dee9 d2bd
000000a0: da26 143e ad5f 01bd a967 6ebe aa9d 573e
000000b0: 8d5f 1ebd 92ef 6cbe 5d33 82be 40a7 9fbe
000000c0: 3f6b 37be d5b8 83be aac1 ebbe 3572 27be
000000d0: 65ce 66bd 961c a1be 4ad4 b3bd cdbd 39be
000000e0: a1d5 033d 548d 2ebd 295c b9bd f752 c8bd
000000f0: 1b18 b1be d4e2 fabd df23 09bd ad46 4e3c
00000100: 3c80 bc3d 5648 03be d4de 4139 ea0f fbbe
00000110: a666 133d 4079 c63d 9c9a f2be f757 8bbe
00000120: 7eae ddbd dedc b6bd c0ab 8cbe 6338 a3be
00000130: d110 993b 5451 50be dfbd 48be aefe 31bd
00000140: 2ff4 b03c f75c 47bd 4c54 8fbd 48af 94be
00000150: f5fb 683c 72e9 21be 3e3f 00be 81b4 a2bc
00000160: fde3 10be 2959 6c3e a361 cfbe 7b48 63bc
00000170: 8311 9fbe b3ac 69be e702 00be fe5d 92be
00000180: 66db 04be d79a 2bbd 3790 ddbe aa47 adbe
00000190: cf0b 48be 475e 34be 8ae1 1ebd 16e8 cdbe
000001a0: 6fa6 efbd 3a1e e0bd cbac 923d 45ec 2fbe
000001b0: ae89 34be 93d4 273c a9ac 46be 0794 f63d
000001c0: bc7b 02be e676 c6be eb86 49be eafc 443d
000001d0: 2ee2 cd3b 6bad 35be 729a 873d 9162 e1bd
000001e0: 28ae 62be 429f 07bd f86d 42be f15e 623e
000001f0: d842 233e beed 34bd 944f 33bd 7c50 18be
-0.26960912 -0.31584674 -0.20044579 0.11079359 0.026858991 -0.077719726 -0.15352888 -0.05688635
-0.040696003 -0.19476523 -0.32307562 -0.27196118 0.017681608 -0.16859677 -0.034878958 0.023116222
-0.13218282 0.08061277 -0.3665642 -0.23031597 -0.18146674 -0.08672003 -0.100167274 -0.22576289
-0.19987576 0.0793251 -0.08647807 0.20731874 -0.26796195 -0.20914891 -0.05551652 -0.098894484
0.11811706 -0.28419173 -0.17369798 -0.2665531 0.12589785 0.0024821088 -0.1767101 -0.10298513
0.14467946 -0.031585384 -0.2328173 0.21056238 -0.038665343 -0.23138264 -0.25429812 -0.3118229
-0.17912005 -0.25726953 -0.4604619 -0.1635216 -0.056349177 -0.31467122 -0.08780725 -0.1813881
0.032186154 -0.04261525 -0.09050781 -0.09781449 -0.34588704 -0.12250295 -0.033481475 0.012590093
0.09204146 -0.12820563 0.00018488924 -0.4903558 0.035986565 0.09691095 -0.47383583 -0.2721555
-0.10824297 -0.08928846 -0.27474785 -0.31878957 0.004671194 -0.20343524 -0.1960368 -0.043455772
0.02160081 -0.048672643 -0.069985 -0.2903998 0.0142202275 -0.15811709 -0.12524125 -0.019861462
-0.1414947 0.23080887 -0.40504178 -0.013872261 -0.31068048 -0.22819786 -0.12501107 -0.28587335
-0.12974319 -0.041895714 -0.4327409 -0.33843738 -0.19535755 -0.17614089 -0.03878931 -0.4021613
-0.117016666 -0.10943265 0.07161864 -0.17179973 -0.17630646 0.010243553 -0.19401802 0.12039953
-0.12742513 -0.38762587 -0.19680373 0.04809276 0.0062830662 -0.17741935 0.06621255 -0.11005128
-0.22136748 -0.033110864 -0.18987262 0.2210653 0.15943468 -0.04417204 -0.043777063 -0.14874452

fc2.weight f4 [128, 128]
00000000: 36dc 9ebe 38aa b03e 34b4 acbd 2592 5fbd
00000010: 0fc6 c539 aead 973e f12c 05be ef63 05bf
00000020: 45e7 bfbe b18c 3a3e 5ca5 b7be 154a 4d3e
00000030: 44d9 2abe 3ebd 563d 3587 e2be 2671 ccbd
00000040: a46b c1be 22a1 803d 266c 463d 3177 bfbe
00000050: e1d8 b6bd 5f97 93bd a807 e03d d1c3 1fbe
00000060: 374e 83bd 8a89 093b e7af a63d 3d65 34be
00000070: 747f 053e bf20 42bf d4ab dcbd bacf 7cbc
00000080: 5724 ec3d 8a81 63bf 36b6 45bd 9a60 1d3d
00000090: 41a9 c0bc 689c 74be 6277 873d 73b3 99be
000000a0: a20c 7dbd 7d31 83bf 8c13 04bd 1b5c 1ebe
000000b0: 5e90 d8bd b936 09be 0f09 7a3e f2cb c6bc
000000c0: 2cb1 6fbd a968 8fbd e62a 073e 297b 073e
000000d0: 8763 7bbd a9d5 4ebe c236 623e 2037 283e
000000e0: 5cac cbbd 6be7 2f3d e13c 40bf 47d1 44bd
000000f0: 0421 2b3b c111 9d3e e601 6bbd 8032 b9bd
00000100: 2505 25bd a531 8fbd 1186 23bd ee45 833e
00000110: fefe 813d d76b 85be 2d8f a8be 3f63 37be
00000120: cf92 183f c03f 89bc b601 84bd 99ec f2bd
00000130: 6270 2ebe e275 87bf 8b00 9ebe aa7d 31be
00000140: c5f4 c0bd 88d5 3cbe b186 c5bd 78dd 5a3e
00000150: 4b32 893d 8ab3 9f3d 3f7f 81be 54c9 8b3e
00000160: 8b2f 2dbe ce6c 023e 4a3b 29bc 04cf 223f
00000170: 1e30 ad3b 0077 cc3e e888 22be b8e0 e0bc
00000180: 2a0b b13e 6fc8 b0bd b651 263e 0460 323e
00000190: e1fc 85bd fc3c 0e3e 51db 9c3d 3808 b83a
000001a0: f041 603e 0a22 203e 9402 f13e 914d f3be
000001b0: c73b 873d be3e 19be 6aad a2bc 0534 09bf
000001c0: e41f eb3a 8d32 e0bc aab4 423e 6aec babe
000001d0: 259f 0f3e 6002 0bbf cfb9 25be 900f 5c3d
000001e0: 4231 86be 4628 683d 8f8a 163e 3729 073d
000001f0: e212 bf3e 7b5a 833d 9bea 7dbe 507c 41bd
00000200: c67b fa3d 16f5 373d 8d0f d83c 6bb4 c4bd
00000210: 08ae c93d 6a35 b2bd ce1c 9c3e 0021 3d3e
00000220: 2d01 2cbe f9bf b23d 54b4 81bd 915e f13d
00000230: 83ac fabd ffbf ac3e 5352 c6be 9bf4 60bc
00000240: 70da 283d c24f 1b3d cf5a ed3d 89b7 1fbd
00000250: 21fd 493e 1be9 65be 487e 1fbf db92 4d3d
00000260: 36dc 153e 6868 0f3d d931 3dbc 82ea 5ebd
00000270: 4734 93be 1a88 d4bd faa7 c9bd ba35 dd3d
00000280: 278d 9dbe b6d8 76be 2c75 d13b 8756 8d3d
00000290: 3576 9bbd e64c 05bd b4ed 023e 2953 843e
000002a0: 2ede 043d c15c 6cbe 8f58 703d a2ea 063e
000002b0: 5325 e3bd 201c 993c 38f6 9ebc 3e97 683e
000002c0: cc32 c7be de2e 72be 5c56 113d f5cb e0be
000002d0: edf4 333e aa39 853d 5ca3 dd3d 44e8 093d
000002e0: d33b 02bd acf5 6cbe e2fe 0c3d 412b e9bd
000002f0: 0581 6b3e 0936 c1bc 82e2 5bbc ea86 373e
00000300: 1c6b c5be 4bbc 3dbe 899e fdbe 036b f43e
00000310: 8157 b0be 2193 073d 4735 48be 3a92 83bd
00000320: e673 833d fe1f 6dbd ae01 5c3d 9b7a cd3d
00000330: e30c 29bd 882e a3bd e580 15be eb5c 69be
00000340: 9863 713e dc00 433d e536 2dbd 8ae7 00bc
00000350: bed4 14be d5c2 3fbd 8c3f 70be 9d37 2d3e
00000360: 6d96 c8be ff88 84be 5863 dc3e bcf5 29be
00000370: d634 32bd 33b9 e63d cc59 063d 77ba a3bd
00000380: c7f8 bbbe 6b7d 2a3c 164e 40be 86cb cfbd
00000390: a363 273e 5596 95bd d6ea 7a3b ca45 653d
000003a0: 4add 0f3e 26bc 23be 25d0 903d 8ec9 74bd
000003b0: a665 8fbe efbd 2cbe e21a c4be 9624 3cbe
000003c0: 09b3 26be a4e1 abbe 59a6 ea3d d17e 623e
000003d0: 88e4 65bd 034f 3c3d 64ce 383e f41d 433d
000003e0: 0082 df3b 85ce 5bbe 6bfe 5f3d 5302 d5be
000003f0: c389 92be ef6b c73d 0c67 5ebf 1afc fd3d
-0.31027383 0.34504867 -0.084328085 -0.054582734 0.00037722333 0.29624695 -0.13005425 -0.5210561
-0.37481132 0.18217732 -0.35868347 0.20047791 -0.16684443 0.05242657 -0.4424378 -0.09982519
-0.37777436 0.06280734 0.048442982 -0.37395623 -0.08928085 -0.07206606 0.1093896 -0.15602042
-0.06411403 0.002098652 0.081390195 -0.17616744 0.13036901 -0.75831217 -0.10774961 -0.015430385
0.11530369 -0.88869536 -0.048269473 0.038422205 -0.023518207 -0.23887789 0.06614567 -0.3001972
-0.061779626 -1.0249478 -0.032245204 -0.15464823 -0.10574411 -0.13399781 0.24417518 -0.02426717
-0.058518574 -0.07002384 0.13199958 0.13230576 -0.061374214 -0.20198692 0.22091201 0.16427279
-0.09944984 0.042945307 -0.75092894 -0.048051145 0.0026112208 0.30677608 -0.057374857 -0.09042835
-0.04028811 -0.06991891 -0.039922778 0.2563929 0.06347464 -0.26058838 -0.32921734 -0.17908953
0.5959901 -0.016754031 -0.06445639 -0.11861534 -0.17035058 -1.058285 -0.3085979 -0.17333093
-0.09421686 -0.1844083 -0.09644831 0.21373546 0.06699046 0.07797916 -0.25292394 0.2730204
-0.16912667 0.12736818 -0.010329077 0.6359713 0.005285277 0.3993454 -0.15872538 -0.027450904
0.3457883 -0.0863198 0.16242108 0.1741944 -0.065423734 0.13890451 0.07659019 0.0014040535
0.21900153 0.15637985 0.4707228 -0.47520116 0.066031985 -0.1496534 -0.01985808 -0.53595
0.0017938581 -0.027367854 0.1901423 -0.36508495 0.14025553 -0.543005 -0.16184162 0.05372578
-0.26209456 0.056679033 0.14701293 0.03299829 0.37319094 0.06413742 -0.24796526 -0.047237694
0.12230639 0.044911467 0.026374603 -0.096047245 0.09847647 -0.08701594 0.30490726 0.1846962
-0.16797324 0.08728022 -0.06333223 0.11785615 -0.12239935 0.3374023 -0.38734683 -0.0137301935
0.041223943 0.03791786 0.11589586 -0.038993392 0.19725467 -0.22452204 -0.62302065 0.05018888
0.14634785 0.03501168 -0.011547529 -0.054422863 -0.28750822 -0.10377522 -0.09846492 0.10801263
-0.30771753 -0.24106106 0.006392142 0.069012694 -0.075909056 -0.03254404 0.12785989 0.25844696
0.03243845 -0.23082258 0.058678206 0.13175443 -0.110911034 0.018690169 -0.019404516 0.22713944
-0.38905942 -0.23650691 0.03548275 -0.43905607 0.175739 0.06505139 0.10822174 0.03366877
-0.031795334 -0.23140591 0.034422763 -0.11385203 0.22998436 -0.023585336 -0.013420703 0.1792256
-0.3855828 -0.1852886 -0.49535015 0.47737893 -0.3444176 0.033099297 -0.19551574 -0.06424375
0.0641859 -0.05789184 0.05371254 0.10033151 -0.041272055 -0.079678595 -0.1459995 -0.22789352
0.23573148 0.04760824 -0.04228868 -0.007867703 -0.1453428 -0.046816666 -0.23461741 0.16915746
-0.39177266 -0.2588577 0.43044543 -0.16597646 -0.04350742 0.11265793 0.03280048 -0.0799455
-0.3671324 0.010405879 -0.18779787 -0.10146241 0.16346602 -0.07304064 0.0038286946 0.05597476
0.14049259 -0.15989742 0.070709504 -0.05976253 -0.2800724 -0.16869329 -0.3830176 -0.18373331
-0.16279234 -0.33570588 0.114575095 0.22118689 -0.056126148 0.04597379 0.18047482 0.047635987
0.006820917 -0.214655 0.05468599 -0.41603336 -0.2862073 0.097373836 -0.8687599 0.124016

fc2.bias f4 [128]
00000000: 3894 213e 5709 0e3d 5a7a 69be 273b 843e
00000010: 02e5 3dbe c840 a13d 0f68 9c3e ae59 93bc
00000020: 8203 943d 2781 083e 7e0c 8cbd fe4a 383e
00000030: 93a5 7cbc c242 ba3c 7d1a 98ba 5265 853d
00000040: b6be 843c 8a19 023d 79b0 0f3e 0c08 29be
00000050: 5cd7 993e 20a6 3b3e 9770 54be 212e 873e
00000060: fa98 f23c 5668 463d a92e 9bbe c41d 6abe
00000070: 7ad6 a5be 239a ac3d 65cb 20bd 2c5e f8bc
00000080: f5d2 b53d 7a55 643d 61af 8c3d aa6b 86be
00000090: 54f5 f6bc 7a78 083e 6743 88bc db1b 3a3e
000000a0: 35ce 9b3e 3127 bf3c 5305 913e 33c1 0ebe
000000b0: af62 193d a106 41be 74ca 15be 1b1a eebc
000000c0: 8312 8e3e f5be 863d 903b 6dbe b01b 00be
000000d0: 0a54 8a3d d4a5 123d 5eea 8cbe 6abf ca3d
000000e0: 8458 d73c 57e9 1e3d fc25 14be d236 003e
000000f0: f618 3dbe 8362 983d 8c98 6cbd 193a 093d
00000100: 238d 493d 2307 d73c 7c88 863e 3c01 913d
00000110: 6805 0f3e 1d7f a6bd bef2 97be a9fb 093e
00000120: 5cf6 c5bd 6fa8 d0bc 9df4 9bbe 12c9 a0bd
00000130: 8e6c d13c 55f2 6fbe 9ad6 3dbe 2129 f13b
00000140: 8b24 9d3c b671 5fbe bf36 61bd 0e66 353e
00000150: de2a 853d 9e17 b9bd 3ef4 f33d 3655 87bc
00000160: de3b 89bd 13cc a4be 99f0 07bf 736a bb3e
00000170: 6f76 a9bd c973 4ebe c521 bb3d 297f 9f3a
00000180: be3e 24be c77f 503d ce93 a63d ae87 f33d
00000190: 29d6 c1bc 8bfa 88bc bc38 fa3d c5b9 8ebd
000001a0: 472b 44be e2cd 223e 7a5a ad3c 929e a0bb
000001b0: 9045 a33d 6559 903d 1f26 0b3c af55 97bd
000001c0: d7e0 203e 269c 403c 9673 3b3e db4f b4bd
000001d0: 8612 4bbe 46cc 013e fd6a 8a3d c017 75be
000001e0: cb36 9c3d 4bf7 ef3b 3c27 843e 6768 1d3d
000001f0: 8622 4ebe 95da 12bd 240c ad3d ed96 28bb
0.15779197 0.034676876 -0.2280058 0.2582638 -0.18544391 0.07873684 0.3054814 -0.017987099
0.072272316 0.13330518 -0.0683832 0.17997357 -0.015420335 0.02273691 -0.0011604574 0.06513466
0.01620422 0.031762637 0.14032163 -0.16506976 0.3004712 0.1832509 -0.20746075 0.2640238
0.02961396 0.048439346 -0.30309036 -0.22862917 -0.32390195 0.08427837 -0.039256472 -0.030318342
0.088781275 0.05574558 0.06869388 -0.26254016 -0.030146278 0.13327208 -0.016633702 0.18174689
0.3043076 0.023334118 0.28324375 -0.13940887 0.037447628 -0.18850185 -0.14628011 -0.029065182
0.27748498 0.06579391 -0.23167253 -0.12510562 0.067543104 0.035802677 -0.27522558 0.098997906
0.026287325 0.03879675 -0.14467615 0.12520912 -0.18466553 0.074406646 -0.057762668 0.033502672
0.049206864 0.02624852 0.26276004 0.070803136 0.13966906 -0.08129714 -0.29677385 0.13474907
-0.0966613 -0.02547094 -0.30460063 -0.07850851 0.025564458 -0.23432286 -0.18538895 0.0073596393
0.019182464 -0.21820721 -0.05498385 0.17714712 0.06502317 -0.09037708 0.1191182 -0.016520124
-0.06700872 -0.32186946 -0.531015 0.36604652 -0.082745425 -0.20161356 0.091373004 0.0012168634
-0.16039559 0.050903108 0.0813366 0.11891113 -0.02366169 -0.01672103 0.122178525 -0.069690265
-0.19157134 0.1589885 0.021161307 -0.0049017156 0.07972252 0.07048301 0.0084929755 -0.0738939
0.1571077 0.011755979 0.18305811 -0.08804294 -0.19831285 0.1267558 0.06758688 -0.23934841
0.076276384 0.007323181 0.25811183 0.038429644 -0.20130357 -0.035852987 0.08449581 -0.0025724724

dist.fc_mean.weight f4 [4, 128]
00000000: d6e9 a13a e96d 12bb a8b5 09bb 7393 5b3c
00000010: 8bdd 163d cfbb e1ba 7dbe 90bb d54f 5ebc
00000020: aa04 8c3b 710c daba c331 9ebb 749f 50bb
00000030: 9dd1 cc3d 4a75 013b 2e3b 973b c047 80bc
00000040: 3b6d 44bb 45d8 24bf afa8 043b 8049 0a3f
00000050: fb02 15b7 32b4 24bb 8b59 63bc f007 613a
00000060: 55c1 acba ec54 04bb b76a 26ba 345c 2ebb
00000070: d3b1 33bb 84ad 073b 1799 55bc c8df 53bd
00000080: 6c31 5bbc 5afb d0bc 3de2 273b ca30 e3bc
00000090: e1d2 7cbb aeec 773b 9aca f73e caf8 e03a
000000a0: 7189 babb 9804 983a 317b ddb6 2727 debe
000000b0: f72f 8f3a 76ae 17bf ce77 4dbf f673 be3c
000000c0: 313c 63bb 514c 723c 613c 893e 436e 2cbe
000000d0: 773f dcbb 2b82 f0b9 6b5a 5bba 5ab1 f8ba
000000e0: d683 2f3b 7e20 fdbb 6be7 a43d b3b4 a7bb
000000f0: 341e 453e b7c8 743c 9da1 d53b c3e4 0c3c
00000100: 93a5 bcb9 fc27 fdbb 0e3a 143b 0ef4 b83a
00000110: b71c 9d3a b809 b33c bce6 ed3b 304c 65bb
00000120: 65c3 4d3f ba47 ebbc 57ac c83e 6b45 fdbb
00000130: a9d1 e3bc 4890 74be 5636 123b f144 f13a
00000140: 9558 723b bce7 d2bb c259 89ba f3e2 b0bc
00000150: 8d4c 27be 8010 0b3d aaf3 8fba 96cd 9dbb
00000160: 621e 3d3f c6ce 343e 8100 1dbe 68c2 89ba
00000170: 3d1a b9bd a434 d2bd 7b6d e03b 5fd5 6939
00000180: 8946 46bb def8 db3a 3dd1 1e3b 53a5 f6ba
00000190: 2fad b83d 5cc5 28bc 6a43 14bb 91dd 383d
000001a0: f747 3fbc 3c01 29bb ff49 473c 0a22 27ba
000001b0: 74b8 bcbb 3884 953c 62d0 3b3c 88cc 99bd
000001c0: f668 0abc 746f 8cba bbef 72bb c065 89bb
000001d0: ffaa 033d 2bbd 9f3b c278 82b8 b6a0 883e
000001e0: d141 f8ba 2d44 6b3d 04a7 ae39 ec45 b3bb
000001f0: 6a64 0a3d 6c47 afbb 8eb8 40bc 6a02 f339
00000200: a2b8 2839 3124 813b a6c6 71be 5367 7fba
00000210: a846 0b3b 5fc8 d539 8ba1 1cba eb8a 4fbc
00000220: b67f 1d3b b395 2c3a 85cf a0ba b53b 0c3a
00000230: 2e40 4bbb 8f08 ec3a ac01 f8b9 4da9 5e3b
00000240: 0319 42ba a48f 3c3b 13a5 9c38 2ee9 083c
00000250: 3fe8 8039 9b92 85ba c0d7 4c3b 56cf 32ba
00000260: fa35 10ba 9a67 31bb 6a71 3a3a 3322 04be
00000270: da85 2fbc 6995 793a c147 3fbc f3aa cc3c
00000280: 27cd 153b 115e b1bb e8c6 94ba 6192 61be
00000290: e714 2c3a 2293 c83a 4041 a8bb ce09 e7ba
000002a0: b9a9 d63a 4c56 77bb 5897 0b3a d8f2 493c
000002b0: 243d 46bb 0ea9 633a 8b26 1ebe 2902 173d
000002c0: ebf4 b2b9 cfc4 7f3a 48e1 70bd 6dac 5e3b
000002d0: 949b a4ba 8a0c 17bc 7cc5 6abe 43ca bbb9
000002e0: c020 81bb a1d9 95bb 001a 2abc 0032 59bb
000002f0: 55d2 25bc 81a8 933a c875 efbd 3795 503b
00000300: 9087 103b b4b9 b6ba ea67 15b9 1925 8ebe
00000310: 2031 c4b9 15f4 113d e7f3 3b3e 8100 dbba
00000320: 2a59 85ba 610e 563b 7311 37be 6d4c 763d
00000330: d02f 693c a34b c93b 2aaf a0bb ac46 0fbb
00000340: 5fe1 d7ba c824 783b 46c3 633e 1259 2abb
00000350: fe6b 1539 a794 5d3c df80 a43b e52a 383c
00000360: aadb 14bb 7724 a93b 2e57 c43e d47a 25ba
00000370: 44ea ac3c 2ecb efbd f206 e03b 2533 e43b
00000380: 1a30 a63b 87df 9c3a eae9 5a3a f308 913a
00000390: 52e7 c23b c9e2 a6ba 6ca2 3c3b 10f6 20bc
000003a0: 8614 093c e71b 5939 86aa 4a3b ea6c 9abb
000003b0: e76c cdb9 b6fb 7eba 40bf 88bd cf03 eebc
000003c0: 67cc 20bc 7b0c 2abb 79fd 543a ba8f 23bb
000003d0: 680b 49bc 5f1b a639 8b50 2b3c d8e9 19ba
000003e0: 2682 6aba 999f ecbc 3d48 80bb bbe4 403b
000003f0: b39a 503a 133a 28bb c52f 363b db3c 79ba
0.0012353014 -0.0022343344 -0.0021012817 0.013401854 0.036832374 -0.0017222109 -0.004417239 -0.013568838
0.004273017 -0.0016635788 -0.0048277094 -0.0031833323 0.10000918 0.0019753748 0.004615209 -0.015659213
-0.0029972333 -0.643925 0.0020242145 0.540184 -8.881786e-06 -0.002513182 -0.013876329 0.00085842516
-0.0013180176 -0.002019222 -0.0006348299 -0.002660525 -0.0027419224 0.0020702789 -0.013036988 -0.051727086
-0.013378482 -0.025510479 0.0025617026 -0.027733225 -0.0038577842 0.003783028 0.4839676 0.0017163989
-0.005692654 0.0011598049 -6.6006546e-06 -0.43389246 0.0010924329 -0.5925058 -0.8026093 0.023248654
-0.0034673328 0.014788703 0.26803878 -0.16838937 -0.006721433 -0.0004587335 -0.00083676603 -0.0018973753
0.0026781461 -0.0077248206 0.08051952 -0.0051179766 0.19249803 0.014940432 0.00651951 0.008599463
-0.00035981517 -0.007725714 0.002261761 0.001411082 0.0011986707 0.02185522 0.0072601717 -0.0034988038
0.80376273 -0.028720725 0.39193985 -0.0077292225 -0.027809935 -0.23883164 0.0022310219 0.0018407387
0.0036979069 -0.0064363163 -0.001047902 -0.021592593 -0.16337796 0.033951283 -0.0010982652 -0.0048157675
0.73874485 0.17657003 -0.15332223 -0.0010510208 -0.09038208 -0.10263947 0.0068489886 0.00022300098
-0.0030254445 0.0016782542 0.0024233602 -0.0018817581 0.09017407 -0.01030096 -0.002262319 0.045133177
-0.011674873 -0.002578809 0.012163638 -0.00063756166 -0.005759293 0.018251523 0.011463257 -0.07509714
-0.008447876 -0.0010714368 -0.003706916 -0.0041930377 0.032145496 0.0048748455 -6.221376e-05 0.26685113
-0.0018940513 0.057438064 0.00033312303 -0.005470982 0.03378717 -0.0053490903 -0.011762751 0.0004635037
0.0001609051 0.003941082 -0.23610935 -0.00097428745 0.0021251831 0.00040775814 -0.00059749995 -0.012667398
0.002403242 0.0006583586 -0.0012268877 0.0005349473 -0.0031013596 0.0018007922 -0.00047303492 0.0033975423
-0.000740424 0.002877214 7.469407e-05 0.008356376 0.000245871 -0.0010190787 0.0031256527 -0.00068210566
-0.0005501207 -0.0027069808 0.0007112237 -0.12903671 -0.010713065 0.000952086 -0.011674822 0.024983859
0.0022857876 -0.005412825 -0.0011350783 -0.22028495 0.0006564394 0.0015302638 -0.0051347315 -0.0017626823
0.0016377486 -0.0037740646 0.0005324981 0.012325965 -0.0030248845 0.0008684554 -0.1544439 0.036867294
-0.00034133284 0.0009756805 -0.058808595 0.0033977285 -0.0012558573 -0.009219298 -0.22926897 -0.00035818116
-0.0039406717 -0.0045730625 -0.010382175 -0.0033141375 -0.010120948 0.0011265428 -0.11692387 0.003182722
0.0022053458 -0.0013940842 -0.00014248458 -0.27762678 -0.00037420634 0.035633165 0.1835476 -0.0016708524
-0.0010173668 0.003266238 -0.1787775 0.06013148 0.014232591 0.00614305 -0.0049036937 -0.0021862192
-0.0016470364 0.003786372 0.2224246 -0.0025993031 0.00014249978 0.013524211 0.0050202454 0.011240696
-0.0022713938 0.0051618177 0.38347763 -0.00063125533 0.0211078 -0.11708675 0.0068367654 0.0069641047
0.005071652 0.0011968472 0.0008350896 0.0011065289 0.0059479857 -0.0012732382 0.0028783334 -0.009824291
0.00836671 0.00020705127 0.0030924394 -0.0047126906 -0.00039181786 -0.0009726839 -0.06677103 -0.02905455
-0.009814358 -0.002594738 0.00081249286 -0.0024957494 -0.012270786 0.0003168238 0.010456215 -0.0005871332
-0.0008945785 -0.028884696 -0.0039148615 0.002943321 0.00079576223 -0.002566938 0.002779947 -0.00095076644

dist.fc_mean.bias f4 [4]
00000000: 74ec 193b a52d 3e3a 256c 41ba 152e 5a3b
0.0023486884 0.00072547264 -0.00073784805 0.0033291627

dist.fc_logstd.weight f4 [4, 128]
00000000: 5670 3b3e 3cc8 9ebf 9ea3 96bf 3957 7dbf
00000010: 0c4b dabe 5891 02c0 19b9 0bc0 b8b6 3fbe
00000020: e2e8 0a40 da3b 92bf 97f1 f8bf 9914 19bf
00000030: 50c7 a8bf fc0b 873f cdb6 583f ef2f 9abf
00000040: 9c2b 86bf 4895 7f3c 87b5 66bf 307e a13e
00000050: b4bf 763f 7769 c7bf 258d a5bf 6c16 3c3e
00000060: 1490 8fbf 22cb 3a3d 1a46 03bf 6a43 94bd
00000070: 5e94 afbe 627c ce3f ecc4 98bf 61df 83be
00000080: f23f 663e 94f7 a1be 762e 87c0 5f3f 67be
00000090: 3d98 f33d 3ca7 1ec0 47db 923c 9139 40bf
000000a0: 03df 923f 0612 07c0 2c36 963d 1668 f43e
000000b0: 620d 22bf dae6 8e3f cc92 34bf 70ea 45bf
000000c0: c7b9 853f 06e1 ec3f d2e4 753e 2e18 163f
000000d0: 6d89 b1bf 8a15 c53b 0b7d dabc cda6 91bf
000000e0: bdb6 533f a4da d3be faee 04bf 540c 10c0
000000f0: cd31 173d 2933 c33f cf9b 66bd f45c 5dbe
00000100: 7c92 02c0 5faa 0dc0 c8df 11bf 3ee0 71be
00000110: ac7f d4bf 3fbe 1fbe 50e1 4ebe e517 1ec0
00000120: 025e 093e 861c bcbe cea5 24bc 99bd 8e3e
00000130: b277 24bf 405b 363f c556 bdbe 7fd5 9240
00000140: 428d c9bf a663 a2be 96f7 84be 64d1 b9bf
00000150: 5a97 61be 0e1b 7cbe afc8 4dbe 3733 94bf
00000160: 7d5c d03f 0a1e a6be 941e a0bc 3610 8ebf
00000170: a5a4 f8be 88a5 8d3e 3d8d 71bf de2b 8abe
00000180: 00c1 51bf 25b6 15bf bf5e 56c0 8bbe 0ec0
00000190: a001 d03d 990a 52bf c524 15c0 f233 c2be
000001a0: a5a9 573e 3d31 56bf 2e13 893f c258 80be
000001b0: 0c4e 1f3f ed5c f1bd 2420 a5bd 8749 94bc
000001c0: 755f a33e b3dc ddbe 7b39 88bf fac1 91bf
000001d0: 4eb0 d33e d65a 403f 383a abbe c632 b13e
000001e0: de84 dfbf 8058 18be 04eb 6bc0 1425 83c0
000001f0: 4c6c 43be 725a 6e3f 8191 98bf c77e d3be
00000200: eb9b 1ac0 7d4b e63e c821 63be 3d12 1540
00000210: 83c7 afbc 9279 1bbf eba8 adbf 9518 e4bd
00000220: 77cb 99be c3d3 cfbf 605a be3f 218b 1a40
00000230: 8483 f5bf b2a2 a6bf 6efc 69bf 41ee 6fbf
00000240: 1bca 15bf 53e8 cd3e ce87 dcbf d996 46bf
00000250: cca9 3cc0 7f90 90bf cfcc 5c3f a7b4 38bf
00000260: cba4 a0bf 50ff febf 8d80 8bbf d351 643f
00000270: 28c5 babe ea3e 09c0 d981 05bf 26e8 11be
00000280: f9a5 aabf 86eb 7ebe 0624 813f 708b dfbe
00000290: 9772 dcbf 5798 683f fbe8 e83e c689 5dbf
000002a0: 82aa 5dbf e74d 91bf 3b9d 04c0 0284 36bf
000002b0: 1229 ab3f c8a8 17bf 4a34 a8be 1068 d4bd
000002c0: 4c31 0ec0 cf0a bfbf 2ba7 2abf 734d 74bd
000002d0: 6bd8 3fbf 090c 9f3f 815a d3be 201f 5fbf
000002e0: b7e1 38c0 46e2 fdbe 5642 18be f2da c8be
000002f0: 8188 e5be fbae 5bbf 02bd ad3c 734a c5bd
00000300: 8a5f edbf 330b 993e 9b6a 8cbf 3d8d b33f
00000310: 6674 d8bf 5ab8 d4bd 05ec 3dbf df1b 80c0
00000320: 772b b1be 2902 96bf a474 5f3e a2ff 46be
00000330: 76dc 743f c5d7 1b3f 7b0a 7d3e e850 18bf
00000340: ef1d d2be a05b 54bf 9fbf d63e 79d0 98be
00000350: eb09 9cbe a68c 2fbd c7a7 5ebf 83d6 09bf
00000360: 2d3c 86bf aa7c 51be 9826 2f3e 0ee4 2940
00000370: 7550 0c3e 579d 44be adda 3bbf 0a8c 29be
00000380: 79e4 f4be 6f36 6dbf 2b4e 39bf 85bd b6bf
00000390: ac56 1b3e b887 24bf 6d0c dfbf 0d78 3dbf
000003a0: b613 97be 00c2 c8be 9e5c 06c0 aacf 47bf
000003b0: 6652 c0bf 66e4 97bf a86e f13c 040c b0bc
000003c0: 132f 2440 d8c8 d63d c2cd 0ec0 b7dc 8dbf
000003d0: 573b f1be 7524 1dbf 8fe4 d03f c7e6 d5be
000003e0: b9c0 8f3e 1391 183c 7a01 ef3e 5f04 01c0
000003f0: 0d69 41bf 7a60 a2be d1f1 9ebf eb30 8fbf
0.18304572 -1.2404857 -1.1768682 -0.98961216 -0.4263538 -2.040121 -2.1831725 -0.18722045
2.170464 -1.1424515 -1.9448727 -0.59797055 -1.3185825 1.0550532 0.8465393 -1.2045878
-1.0482059 0.015599556 -0.9012074 0.31541586 0.96386266 -1.557906 -1.2933699 0.18367928
-1.1215844 0.04560388 -0.5127884 -0.07239421 -0.34292883 1.6131709 -1.1935096 -0.25756362
0.2248533 -0.316342 -4.2244215 -0.22582768 0.118942715 -2.4789572 0.017926825 -0.7508784
1.1474308 -2.110475 0.07334551 0.4773566 -0.6330167 1.11642 -0.70536494 -0.7731085
1.044732 1.8506172 0.2401307 0.58630645 -1.3870064 0.0060145305 -0.026670953 -1.1379029
0.8270071 -0.41377747 -0.5192715 -2.2507524 0.036912728 1.5249988 -0.056300934 -0.2161749
-2.0401907 -2.2135236 -0.5698209 -0.23620698 -1.6601462 -0.15599917 -0.20203137 -2.4702084
0.13414767 -0.36740512 -0.010049297 0.27879027 -0.6424514 0.71232986 -0.36980262 4.5885615
-1.5746233 -0.3171665 -0.25970143 -1.4517026 -0.22030392 -0.24619696 -0.20096086 -1.157813
1.6278225 -0.32444793 -0.01954583 -1.1098697 -0.48563114 0.27665353 -0.9435614 -0.26986593
-0.8193512 -0.58481055 -3.3495328 -2.2303798 0.1015656 -0.8204742 -2.3303692 -0.37930256
0.21060808 -0.8366888 1.0708978 -0.25067717 0.62228465 -0.11785302 -0.08062771 -0.018101467
0.31908765 -0.43332443 -1.0642542 -1.1387322 0.41345447 0.75138605 -0.33442855 0.3460905
-1.7462423 -0.1487751 -3.6862192 -4.098276 -0.1908428 0.9310676 -1.1919404 -0.4130766
-2.4157665 0.44979468 -0.22180855 2.3292382 -0.02145744 -0.60732377 -1.3567175 -0.11137501
-0.30038044 -1.62365 1.487133 2.4147418 -1.918076 -1.3018401 -0.914008 -0.9372292
-0.58511513 0.40216312 -1.7228944 -0.77573925 -2.9478636 -1.1294097 0.86250013 -0.72150654
-1.2550291 -1.9921665 -1.0898606 0.89187354 -0.36478543 -2.144465 -0.52151257 -0.14248714
-1.3331901 -0.24894533 1.0089118 -0.4366107 -1.722247 0.9085745 0.4549025 -0.8653835
-0.865883 -1.1351899 -2.0720966 -0.7129518 1.3371909 -0.59241915 -0.32852393 -0.10371411
-2.2217588 -1.4925174 -0.6666133 -0.059644174 -0.749396 1.2425548 -0.41279987 -0.8715687
-2.8887765 -0.49586695 -0.14869055 -0.39229542 -0.44830707 -0.85813874 0.02120829 -0.09633341
-1.8544781 0.29891357 -1.0970033 1.4027478 -1.6910522 -0.10386725 -0.7418826 -4.003402
-0.34603474 -1.1719409 0.21821839 -0.19433454 0.95648897 0.60876113 0.24711029 -0.59498453
-0.41038463 -0.8295231 0.4194307 -0.29846552 -0.30476317 -0.042858742 -0.8697476 -0.53842944
-1.0487114 -0.20457712 0.17104566 2.6545444 0.13702567 -0.19200645 -0.7338055 -0.16557327
-0.4783056 -0.92661184 -0.723849 -1.4276587 0.15169781 -0.6426959 -1.7425667 -0.7401131
-0.29507226 -0.3921051 -2.099403 -0.78051245 -1.5025146 -1.1866577 0.02947171 -0.021490104
2.5653732 0.10487527 -2.2313085 -1.1082982 -0.47115585 -0.61383754 1.631975 -0.41777632
0.28076723 0.009311932 0.46680814 -2.0158918 -0.7555092 -0.3171423 -1.2417547 -1.1186804

dist.fc_logstd.bias f4 [4]
00000000: d639 6bbf ed5f 88bf 80ea 90bf 880f 70bf
-0.91885126 -1.0654274 -1.1321564 -0.937737

exp_avg f4 [128, 15]
00000000: 1feb 04be a84e 28bd 47f8 5b3e e56d 013d
00000010: 3656 66bd 1256 b8bc 5357 44bd 56b7 9fbc
00000020: 4982 0abc 9ee7 cabd 66ed bfbd 4eeb c5bc
00000030: 0000 0000 0000 0000 765f e73e 735f 1e3e
00000040: 63ef 27be 3942 7d3d 6885 993d b53f 52be
00000050: 09d6 b3bd 2f63 eebd d6c6 98bd 39c4 0a3e
00000060: 71bb 11be 5193 9e3d eca1 f2bb 0000 0000
00000070: 0000 0000 29e1 f53d 6634 493e a9c1 473e
00000080: faff d73d 6773 423e 3348 8c3d f99a 65be
00000090: 88e4 e0bc 64c5 19be c66e debc 0308 04bb
000000a0: 1724 203c 5b98 cebd 0000 0000 0000 0000
000000b0: 7bf6 3fbd 12ca cb3e 051a 833e c891 2a3e
000000c0: f67e cf3d 36e8 983e 8463 a0bb 2d65 bb3d
000000d0: 62dd 9b3e 48fa 49bd 25f3 543e c7d5 a33e
000000e0: 652c 17be 0000 0000 0000 0000 f0b3 0fbe
000000f0: 62a1 99be 7be7 3fbe b0ad c7be 9215 a6be
00000100: 107b 9fbc b0a0 67bd 3fc7 30be bc5e 06bf
00000110: 914a 9abc 0c95 d0be 4d91 5cbf 6cf3 123e
00000120: 0000 0000 0000 0000 818f 953e 3daf b1bd
00000130: 46e0 d2bd 26dc f3bd 76db 18bd c6fc 0ebe
00000140: d1ef 673d a5ff 3f3b 7a75 9ebb 899e 593e
00000150: b48a 7d3d b15d 7cbd 5d6f e03d 0000 0000
00000160: 0000 0000 6220 143e 154b c03c 2f06 f23d
00000170: 6e51 e2bd 2a2b ed3d 5245 aa3d d665 cb3c
00000180: a97f 503d 1817 5dbd 451c 02be d1ac 073e
00000190: 2644 cd3d 63e1 2ebd 0000 0000 0000 0000
000001a0: de92 93be 65fd 003d b48f b4bc 9d54 b73c
000001b0: f6c6 83bd 5abf 963c 0f55 61bd 5069 8f3d
000001c0: 9839 ea3d dedb 3e3e 1335 053d ff10 b43c
000001d0: 5f3b 7a3e 0000 0000 0000 0000 bb3d 72be
000001e0: 194c 94bd a527 7fbc 72f0 34bb bd57 23bd
000001f0: b674 b73b 4b5a dbbd 3892 d23b 74a8 b93d
00000200: 7cb6 183e 115d 00bc a4c1 44bc a2ce 483e
00000210: 0000 0000 0000 0000 2a71 923e 56d0 8c3d
00000220: 675c 1dbe 88ed e5bd a223 d4bd e493 e6bd
00000230: c583 a83d 1091 b43e 2f02 de3e f637 9d3d
00000240: c409 ae3e a1d3 903e 7c10 2fbe 0000 0000
00000250: 0000 0000 b144 1a3b a177 8cbd 82ba 753e
00000260: e615 3abe 2056 8f3d dcdf 4b3d caa6 7e3d
00000270: 66fd dfbd e787 a53c 0b9f dabd c091 113c
00000280: 3c5e 303d 7839 1ebe 0000 0000 0000 0000
00000290: 6c96 f33d 7ae5 15be 1bf8 763d 029e 28be
000002a0: 275f 2b3d f477 6abb e60a 2a3e a47c ad3d
000002b0: 9011 f3bd c5c7 98bd 4172 6e3e 75fb 03bd
000002c0: f655 1d3c 0000 0000 0000 0000 5534 9dbd
000002d0: bfbd 7a3d e4bb 20bc eb18 95be 0d38 ae3d
000002e0: 4670 483d 403f 98bc aa2a d33d 5536 83bb
000002f0: 00ba b9bd 8571 933e 6c0d 933e 878d 5c3c
00000300: 0000 0000 0000 0000 7987 02bf 2295 b5be
00000310: 0907 64be 8fb9 39be 3378 4cbe 7f1b 02be
00000320: 6d5a c63d 594b 49be 0b8f 67be 9a66 a03b
00000330: de9f 95be ef26 bbbe eaf9 f6bd 0000 0000
00000340: 0000 0000 1bbe 46bd aa0a dcbb 9952 a7b9
00000350: 1937 3b3d ab03 873d 7d77 163d bbcf 88bc
00000360: 72ec 0bbc e350 99bd 1837 dcbc 29cd 12bc
00000370: f26d 2bbc 2b67 1dbe 0000 0000 0000 0000
00000380: 775f f03c 30c3 5abe ddc2 013d 1d53 acbc
00000390: b096 063b 1d66 5ebd c721 0c3e 8377 58be
000003a0: 478b 603d e631 fc3b d9c1 af3d 1c58 c7bd
000003b0: a6cf b73d 0000 0000 0000 0000 0219 a33d
000003c0: 5a5f 37bc ea8e b13c 6fe4 743c 1833 773d
000003d0: a4c7 b3bd 3d7c a63d 5698 1abe eacf 1cbd
000003e0: 166e 2f3d 185b 923d 2895 77bc e388 9a3d
000003f0: 0000 0000 0000 0000 cef8 053e 33a8 d0bd
-0.12980317 -0.041090637 0.21481429 0.031598944 -0.05623456 -0.022501979 -0.04793484 -0.019496601
-0.008453914 -0.09907459 -0.09371452 -0.024160054 0.0 0.0 0.45190018 0.15466098
-0.16399913 0.061830733 0.07496148 -0.20532115 -0.08781058 -0.116400115 -0.074598 0.13551416
-0.1423166 0.07742942 -0.0074045565 0.0 0.0 0.120058365 0.19648895 0.19507469
0.105468705 0.18989335 0.068497084 -0.22422399 -0.027452722 -0.15016705 -0.02715243 -0.0020146377
0.0097742295 -0.10087653 0.0 0.0 -0.04686592 0.39802605 0.2560579 0.16657174
0.10131638 0.29864663 -0.0048946757 0.09150157 0.3044234 -0.049310952 0.20795877 0.31999037
-0.14763029 0.0 0.0 -0.14033484 -0.30005938 -0.18740647 -0.389997 -0.32438332
-0.01946786 -0.056549728 -0.17263506 -0.52488303 -0.018834384 -0.40738714 -0.8615921 0.1435067
0.0 0.0 0.29211047 -0.08676002 -0.10296683 -0.11907224 -0.03731867 -0.13963613
0.05662519 0.0029296663 -0.0048357816 0.21251883 0.061899856 -0.06161279 0.10958741 0.0
0.0 0.14465478 0.023473302 0.11817586 -0.11050688 0.115804985 0.08314003 0.024828833
0.050902996 -0.053977102 -0.12706096 0.13249518 0.10022764 -0.042695414 0.0 0.0
-0.28822988 0.031491656 -0.02204118 0.022379214 -0.06434433 0.01840179 -0.05501276 0.07002509
0.114367664 0.1863856 0.03252132 0.02198076 0.24436711 0.0 0.0 -0.23656361
-0.07241077 -0.015573417 -0.0027609137 -0.039878596 0.00559863 -0.107105814 0.006426122 0.09065333
0.14913362 -0.007834689 -0.012009058 0.19610074 0.0 0.0 0.28601962 0.068756744
-0.1536728 -0.11226946 -0.10358359 -0.11258677 0.08228258 0.35266924 0.4336104 0.07676689
0.33991826 0.2828646 -0.17096132 0.0 0.0 0.0023539478 -0.06858755 0.23996928
-0.18172416 0.06998849 0.049774036 0.06217078 -0.10937004 0.020206405 -0.10674866 0.008884847
0.04305862 -0.1545161 0.0 0.0 0.11893925 -0.1463832 0.060295206 -0.16466525
0.04183879 -0.0035777064 0.1660572 0.08471039 -0.11868584 -0.07459978 0.23285772 -0.03222223
0.009603014 0.0 0.0 -0.07675997 0.061216112 -0.009810422 -0.29120573 0.085067846
0.048935197 -0.018584847 0.10310872 -0.0040042796 -0.0906868 0.28797546 0.28721178 0.013461477
0.0 0.0 -0.50987965 -0.35465342 -0.22268309 -0.18137191 -0.19967727 -0.12705801
0.09685216 -0.19657649 -0.2261316 0.0048950436 -0.2922353 -0.3655314 -0.12059386 0.0
0.0 -0.048521142 -0.0067151384 -0.00031914262 0.045706842 0.065924965 0.036735047 -0.016700616
-0.00854026 -0.07486131 -0.02688174 -0.008960047 -0.010463225 -0.15371387 0.0 0.0
0.029342396 -0.2136352 0.031679977 -0.021035725 0.0020536594 -0.0542966 0.1368476 -0.2113934
0.054820325 0.007696378 0.085818954 -0.097336024 0.08975153 0.0 0.0 0.07963754
-0.011192167 0.021674592 0.014947041 0.06035146 -0.08778313 0.08129165 -0.15097174 -0.03828422
0.042829596 0.07146281 -0.015111245 0.0754564 0.0 0.0 0.13083193 -0.101883315

exp_avg_sq f4 [128, 15]
00000000: d29c 8b3e 6135 323e 57a1 3840 86e4 b43e
00000010: 2d1a 3c3e 277b 363f 20b4 f13d ebb8 133f
00000020: 172c 783e 98a9 a83e b7da f63e 2ed3 443f
00000030: 0000 0000 0000 0000 8e67 cc40 30a6 ff3f
00000040: 9a40 5a3f 114f 2c3f a864 ca3e 5882 433f
00000050: 0177 0240 109f 4c40 a974 263f 2026 253f
00000060: 7136 903f 51cb ed3f 5454 a53f 0000 0000
00000070: 0000 0000 526f d53f 3d30 a23f f8b0 a83f
00000080: 6610 c33e 43ba 223f 85f0 0f40 8208 2f3f
00000090: b068 c53e 56ca 513f 9739 833f 9f2a a93f
000000a0: 6d1d 0040 6ced 1e3f 0000 0000 0000 0000
000000b0: ee8f 593f 5e35 4d40 01b4 3d40 5b75 ee3f
000000c0: bf61 243f 496f c340 75f7 653f 8b56 793f
000000d0: 70e0 943f dd59 4540 7da6 1040 1a38 b240
000000e0: b81b 8b3f 0000 0000 0000 0000 c2a7 9740
000000f0: fcd6 2740 e12a 0c40 3907 5641 a2b7 a73f
00000100: a4ad 9540 190c 6040 a9fb f53f 9143 0f40
00000110: 9ea0 2940 15ef 8e40 c239 a640 f1d0 2f40
00000120: 0000 0000 0000 0000 e570 cd41 7514 9c3e
00000130: f3df 353f 28a1 8440 f6a3 7b3e 7ee6 8840
00000140: b970 c93e 06f9 7641 7d96 8c3e 0705 ef3e
00000150: c7be 3742 fc7a 6a3f 20a7 8e40 0000 0000
00000160: 0000 0000 b21a 6541 2ce7 ec41 f826 d841
00000170: b4e3 8f40 0350 8640 4cfe 6f42 a1b8 2540
00000180: 947a 1a3f dcd0 0641 7c84 ee41 a9d4 cf40
00000190: a6c5 5942 aad4 8340 0000 0000 0000 0000
000001a0: cf71 3441 5a40 c441 abcb b441 033e 8e3f
000001b0: 0819 6640 0b1e 4742 247f e13f 7f35 493f
000001c0: e7c9 e540 1b8e ca41 bd82 d640 6703 3542
000001d0: 43b6 b740 0000 0000 0000 0000 88ef 8740
000001e0: cf51 b33e 61d3 bf3e fbc3 c23e e5b6 a13e
000001f0: 2903 2e3f b425 e23e 6ac6 e73e 1a7d fb3e
00000200: 2e4b 1d3f 0b99 a63e 8224 e23e 3867 ca3f
00000210: 0000 0000 0000 0000 3242 0940 1091 953f
00000220: e0fb 863f 3116 0740 16c1 c03e ebbd 0340
00000230: 1994 483f c082 653e 73ca 223f a40b 933f
00000240: 454a 083f 87a0 0140 905b 1d40 0000 0000
00000250: 0000 0000 6405 8d40 ab54 993e 4ff0 053f
00000260: 3c70 723e 399a ad3e bf70 da3e e157 9d3e
00000270: f0fe bd3e d170 ea3e 9374 8f3e 7c2c f73e
00000280: aa0e c43e de42 4c3f 0000 0000 0000 0000
00000290: fd2b fe3e 8853 9240 5815 7f40 35e1 4340
000002a0: 3a05 9b3f 0409 0741 f543 963f 31aa 823e
000002b0: f926 f53f 7761 8f40 a197 a13f d8dd 0141
000002c0: d09a 2940 0000 0000 0000 0000 b2c7 f040
000002d0: 5d3a 433f a2fb 0a3f 0bcf d340 67d7 5a3f
000002e0: ca41 163f ba7a d63f 5152 a63e 68c6 b33f
000002f0: ef29 f43e 9144 f93e 9a2a 543f 69f1 393f
00000300: 0000 0000 0000 0000 b911 6741 f7ce ef3e
00000310: 7eeb c03e 7794 c63e 77db 953e 5c2d 143e
00000320: 9e4c 303f 712e 8a3e 82e7 bd3e 7e55 a93f
00000330: 87b1 b83e c3df 5f3f a086 f83f 0000 0000
00000340: 0000 0000 946b 763f 0751 fc3d e09f 3a3d
00000350: 66da 5b3f 11a7 073e 4643 c73c bf49 ad3e
00000360: 3c53 f63c 8076 443e a823 e83d 6341 523d
00000370: c7a8 283e 3163 4d3f 0000 0000 0000 0000
00000380: 637d 0040 fb6b cc41 9e91 ba41 571e 873f
00000390: 5562 6840 fe1a 4f42 0f23 de3f 35c8 733f
000003a0: fa4c e840 eb72 cd41 f4f5 c240 f12c 3c42
000003b0: 54b2 5740 0000 0000 0000 0000 c1e9 4940
000003c0: 34bf c33e a35e bc3e a1eb 183f 45ff 1a3e
000003d0: 64bd 433f 9cc3 903e 676e 4f3e 6b3e 5a3e
000003e0: e90b bc3e eff3 6e3e d6aa 403f 2a22 693e
000003f0: 0000 0000 0000 0000 8f8e 903f 1b9b 2442
0.27268082 0.17403175 2.8848474 0.353306 0.1836936 0.71281666 0.11801934 0.5770404
0.24235569 0.3294189 0.4821374 0.76884735 0.0 0.0 6.387641 1.9972591
0.85254824 0.67308146 0.3952992 0.76370764 2.0385134 3.1972084 0.6502176 0.645113
1.1266614 1.8577672 1.291636 0.0 0.0 1.6674597 1.2670971 1.3179007
0.3809845 0.6356546 2.2490551 0.68372357 0.38556433 0.81949365 1.025195 1.3216132
2.001796 0.6208103 0.0 0.0 0.84985244 3.2063823 2.9641116 1.8629564
0.6421165 6.1073346 0.89830714 0.9739768 1.1630993 3.0836098 2.2601616 5.5693483
1.0867834 0.0 0.0 4.7392282 2.6224966 2.1901171 13.376763 1.3102915
4.6774464 3.5007384 1.9217426 2.238499 2.6504283 4.466685 5.1945505 2.7471278
0.0 0.0 25.680124 0.30484357 0.71044844 4.1446724 0.24574265 4.2781363
0.39343813 15.435797 0.27458563 0.46683523 45.936306 0.9159391 4.457901 0.0
0.0 14.319017 29.612877 27.019028 4.496546 4.197267 59.998337 2.5893939
0.6034329 8.425991 29.81469 6.4947095 54.443016 4.11971 0.0 0.0
11.277785 24.531422 22.599447 1.1112674 3.5952778 49.77934 1.7616925 0.78597254
7.1808963 25.319387 6.7034593 45.253323 5.7409987 0.0 0.0 4.2479897
0.35023353 0.37465957 0.38040146 0.3158485 0.6797357 0.4416939 0.45268565 0.49118882
0.6144284 0.32538638 0.44168478 1.581275 0.0 0.0 2.1446652 1.1684895
1.0545616 2.1107295 0.37647313 2.0584667 0.7835098 0.22413158 0.63590163 1.1487927
0.53238326 2.0254228 2.4587135 0.0 0.0 4.406908 0.2994741 0.52319807
0.23675627 0.33906725 0.42664143 0.3073111 0.37108564 0.45789197 0.28018627 0.48276126
0.38292438 0.7978953 0.0 0.0 0.49642935 4.5726967 3.9856777 3.0606205
1.211097 8.439701 1.1739489 0.2552047 1.9152519 4.4806476 1.2624398 8.116661
2.650074 0.0 0.0 7.524377 0.7626093 0.5429021 6.619024 0.8548493
0.58694136 1.6756203 0.32484677 1.4044924 0.47688243 0.48685125 0.82877505 0.7263399
0.0 0.0 14.441827 0.4683759 0.37679666 0.38785145 0.29269 0.14470428
0.6886691 0.26988557 0.3709069 1.3229215 0.36072943 0.8745081 1.9416084 0.0
0.0 0.962579 0.12320142 0.045562625 0.85880125 0.13247325 0.02432407 0.33845326
0.030068986 0.19185829 0.11334926 0.05133189 0.16470633 0.8022948 0.0 0.0
2.007653 25.552725 23.321102 1.0556134 3.6310017 51.77636 1.7354449 0.95227367
7.2593966 25.681112 6.0925236 47.043888 3.3702593 0.0 0.0 3.1548922
0.38231814 0.36790952 0.5973454 0.1513644 0.7646086 0.28274238 0.20256959 0.21312873
0.36727837 0.23335241 0.75260675 0.22766939 0.0 0.0 1.1293505 41.15147

exp_avg f4 [128]
00000000: a6bb b8be bb50 c4bd 6744 193d 8778 e53d
00000010: 18d3 6ebe e088 ecbd e0a6 6b3e 1069 413e
00000020: 46d8 69be 4457 f6ba 457c c2bd e907 7b3d
00000030: 3d6f d03e 27ae 1e3d 2deb bfbc 7d38 82bd
00000040: 93ee d5bd 2474 d4be 0937 1c3f 1d63 013e
00000050: 29b7 023f b634 873e 749e 0f3d 800d 87bd
00000060: 381f af3d fc52 d03e 2530 06be 5637 38bc
00000070: 685c 4c3d 184c bd3e e57a bfbe 9eed 983c
00000080: 535c 773d 22da 0a3d 8036 03bd 6238 b43e
00000090: 039a 0fbf dfce 2a3e b33c 73be af8b 363c
000000a0: a5cb 373e 0c30 efbd 239f abba 9b61 d5be
000000b0: 72b5 0c3f 3f72 b03c 7012 3d3f de40 403d
000000c0: 8cdc df3e f89a 533e 7301 fb3b 64dc 42bd
000000d0: 4dfc 3c3c 33d2 493e 6d15 a23e 0b25 013f
000000e0: d869 64bf 67f8 ad3d 9653 54bd 6be1 0bbf
000000f0: 0774 8cbe d22e 8bbd aeba 8c3e ae74 ae3d
00000100: 998d 1e3f dfe4 f3bc 34d9 333f 8312 ac3e
00000110: 520e 553d 11e2 2a3e 95f2 51be effc 3abd
00000120: 0c38 8abc 9efc b53d c6e8 2d3e 0923 8dbb
00000130: ebf5 893e 32a1 e6bc 3192 bcbd 8927 5ebd
00000140: 7f9c f13d 6993 e33e b045 0a3e 2911 123d
00000150: ffc3 e1bd 07ef f93d 9cc0 603e f4db 18bd
00000160: 7e0c cfbd 6dbc 57bd bfce 6dbe e426 983d
00000170: a6bb d4bd 01a9 0cbe 2a7f d13e b1fc 653d
00000180: 09b4 223f c78c 003e fe6d 02bd 5289 7b3e
00000190: 2c50 243e 3ad1 99be 031e b73c 4fe2 0c3d
000001a0: 3a94 ebbd 3e1a 7d3d f698 e3bc 2fd0 d63d
000001b0: 14ee 143c 5848 c73e a899 5b3d dc98 c9bd
000001c0: 2193 a5be a3f6 b2bd 63a9 2bbe c03d dd3e
000001d0: 1493 273e 22dd d7bd 0b17 89be a0e1 0ebe
000001e0: daba 433f edbc aa3e edd6 cd3b 1f00 d0bd
000001f0: 6ca2 ed3d 9604 24be a7f9 0e3d 28fc 29be
-0.36080664 -0.095857106 0.03741875 0.112046294 -0.23322713 -0.11549544 0.23012877 0.18887734
-0.22836408 -0.0018794318 -0.09496359 0.06128684 0.40709868 0.038740303 -0.02342757 -0.063584305
-0.10445895 -0.41494858 0.61021477 0.12635465 0.5106073 0.26407403 0.035063222 -0.06594372
0.085508764 0.40688312 -0.13104303 -0.011243662 0.049892813 0.36972117 -0.3739845 0.018667992
0.06039078 0.033899434 -0.032034397 0.35199267 -0.5609438 0.16680478 -0.23753624 0.011141702
0.17948778 -0.11679086 -0.0013093691 -0.4167603 0.54964364 0.021538852 0.7385626 0.046936862
0.4372295 0.20664585 0.007660085 -0.047573462 0.011534763 0.19709091 0.31656972 0.5044715
-0.89224005 0.084946446 -0.051837526 -0.54640836 -0.27432272 -0.0679604 0.27486175 0.08518349
0.6193481 -0.02977222 0.702533 0.33607873 0.05201561 0.166878 -0.20502694 -0.045651373
-0.016872428 0.088860735 0.16983327 -0.004307155 0.26945433 -0.028153036 -0.09207571 -0.054236922
0.117974274 0.44448403 0.13503146 0.035660896 -0.110237114 0.12203794 0.21948475 -0.03731914
-0.101098046 -0.05266993 -0.23223399 0.07429293 -0.103873536 -0.13736345 0.4091733 0.05614919
0.6355596 0.12553702 -0.031843178 0.24564102 0.16046208 -0.3004244 0.022353178 0.034395512
-0.11502881 0.061792605 -0.027782898 0.104889266 0.009089965 0.3892238 0.053613335 -0.09843609
-0.32338813 -0.087384485 -0.16763835 0.43211174 0.163647 -0.105402246 -0.26775393 -0.13953257
0.7645699 0.33347264 0.0062817247 -0.10156273 0.11603245 -0.16017374 0.034906056 -0.16600096

exp_avg_sq f4 [128]
00000000: a24d 8240 460f 883f c7b0 0a3f 7f5a 4140
00000010: 9bf6 8241 620c 1241 f30e e640 b74f 2d40
00000020: 8aff ae3f 82cb 3340 6007 a23e d57d 9940
00000030: 084d 1341 4916 1d3f 8fd1 a33f 01b7 0040
00000040: a64d 383f 386e 6a41 2261 be41 28e7 5e41
00000050: 6657 a541 2b2d db3f b1b7 c440 309d 873f
00000060: 487b bc40 3e7f 9541 299c 0141 933a 5c3f
00000070: c347 7e3e 8930 6441 ee0b 0541 9044 ea40
00000080: 3a4c 9f40 9128 2d40 aaa1 a740 9993 d840
00000090: 6ef4 1241 2920 a640 3f65 8640 db20 903e
000000a0: e660 5e41 8f3d 0a41 dec1 0c40 46c1 ca41
000000b0: efde e942 7f46 2141 22a5 cd3f 8e7a 8f3e
000000c0: cdd6 9942 e462 9541 8d25 7c3f 0489 0241
000000d0: 4e96 7b3f c005 ad42 1594 d541 85d1 5e41
000000e0: b9b1 cd40 369a 5940 4e9f 5e40 f134 0e41
000000f0: 3d83 233f bb1b 7d41 832e 5d40 1629 cc40
00000100: cb51 c440 3ff2 d63e 4063 2d40 ab18 1541
00000110: 3ea6 6b40 512b bb40 23ac 8440 f8b4 b840
00000120: d9e7 4241 d117 3d41 3bf4 3941 1036 9a3f
00000130: 7fd4 3c40 88f5 9a41 854d f740 936f b63f
00000140: eed7 8b40 7b8f 8e40 1962 9141 7af4 a340
00000150: bd07 5e40 5bb8 723f 220f 9240 3aa0 2d41
00000160: 6b20 9340 3b85 0b42 4f52 e53f 02ab 2840
00000170: 0e2e 333f 184c 3b3f 798f d33e 9ede 1240
00000180: 3d71 2241 c270 923f 4c27 8a40 bd82 3941
00000190: 8658 6242 f221 eb40 abed 3e40 4a25 1640
000001a0: 3b41 2a40 f3bc 0842 159d 833f 89c6 a63f
000001b0: 95ee 4840 923a 4b40 19f2 c540 1fe7 6640
000001c0: a653 813f 22d4 f43d a470 723d e6e9 a640
000001d0: 3c1e 7f40 a0b0 3e41 87a0 7740 2d59 1540
000001e0: 468a 4642 ce23 143f cc48 393f 370a 0641
000001f0: 0509 2341 e329 9840 5e17 aa40 9f28 9740
4.0719767 1.0629661 0.5417599 3.0211484 16.370413 9.128023 7.189325 2.7079904
1.3671734 2.8092961 0.31646252 4.7966104 9.206306 0.6136213 1.2798327 2.0111697
0.7199348 14.651909 23.797428 13.931435 20.667675 1.7123159 6.1474233 1.0594845
5.890049 18.68713 8.100625 0.8602688 0.24832062 14.261849 8.3154125 7.3208694
4.978055 2.705601 5.2384844 6.7680173 9.184675 5.191426 4.199859 0.28150067
13.898657 8.640029 2.1993327 25.344372 116.93542 10.079711 1.606602 0.2802319
76.91953 18.673286 0.984948 8.158451 0.9827622 86.51123 26.697306 13.926152
6.4279447 3.4000373 3.4784732 8.887925 0.6387213 15.81927 3.4559639 6.3800154
6.1349845 0.41981694 2.7091827 9.318522 3.6820216 5.8490376 4.146013 5.772091
12.181603 11.818315 11.622127 1.2047749 2.9504697 19.369888 7.728213 1.42528
4.3701086 4.4550147 18.1729 5.1235933 3.4692223 0.94812554 4.5643473 10.851618
4.5977073 34.880108 1.7915744 2.6354375 0.6999215 0.73162985 0.41320398 2.2948375
10.152646 1.1440661 4.317297 11.594419 56.58645 7.3478937 2.983256 2.346026
2.6602314 34.18452 1.0282313 1.3029338 3.139562 3.1754498 6.185803 3.6078565
1.0103652 0.119545236 0.059189454 5.216052 3.9862204 11.918121 3.8691728 2.3335679
49.635033 0.57867134 0.72376704 8.377494 10.189702 4.755113 5.3153524 4.7237086
