ppo/models/behavioral_cloning_agents_drone/bc12/ckpts/002901450.pt (torch_old, 416725 bytes, 26 tensors)

fc1.weight f4 [128, 15]
000000 70 c0 3c be 58 e8 e6 3d ba 89 aa be 28 98 d4 3e
       -0.18432784 0.11274785 -0.33308202 0.41522336
000010 3d a7 a7 be c8 4f 9e 3e 61 a3 9d 3d 0c 1f a1 3d
       -0.3274478 0.30920243 0.07697178 0.0786725
000020 6e 9f 58 be bf c9 6c bc c1 df f9 bd c9 97 23 be
       -0.21154568 -0.014452397 -0.12200881 -0.1597587
000030 0a 97 7c be c2 1a 2f be fb d5 0b 3e 52 b0 07 bd
       -0.24666992 -0.17100051 0.13655846 -0.033127137
000040 26 7d cf 3d 01 65 93 3e d2 66 c5 be 91 8b e6 bc
       0.10131292 0.28787997 -0.38555008 -0.028142722
000050 f5 23 e5 3d dc 2e 63 3f f9 43 f4 bb e5 35 66 3d
       0.11188499 0.88743377 -0.007454392 0.05620374
000060 56 38 cc 3d c5 f8 f9 bd 58 00 0c 3f a3 45 75 be
       0.09971683 -0.12205652 0.54688025 -0.23952346
000070 75 72 26 be 34 4e ca 3d e0 81 d8 3d 37 c5 96 3c
       -0.162546 0.09878197 0.10571647 0.018404586
000080 65 9f 93 be 9b 64 9e 3e 8c fa a7 3d 62 8d 2c bf
       -0.28832546 0.3093613 0.08202085 -0.67403233
000090 e3 8d 21 3d fb e2 ad 3d 9f 4e ee 3d c2 3b bf 3d
       0.039441954 0.08490559 0.116360895 0.0933757
0000a0 3e 55 92 3c ec d6 2e be 40 ed 32 3d 66 dd 76 be
       0.017862912 -0.17074174 0.04368329 -0.24107894
0000b0 be 55 c7 bd 73 9e 40 bb f8 a5 5a be 0a 8f 47 3d
       -0.09733151 -0.0029391318 -0.21352375 0.048720397
0000c0 a8 69 19 3e 93 87 65 bc c7 75 13 3d 67 c7 3a 3d
       0.14981711 -0.014009374 0.036000993 0.04560032
0000d0 8b d8 b9 bd be c8 68 3e 3b 15 14 3d 37 79 00 be
       -0.090745054 0.22732827 0.03615306 -0.1254624
0000e0 a5 6e a8 be c7 fc 4c be bc 3f 37 be 9f 02 aa 3e
       -0.32896915 -0.20018302 -0.17895406 0.33205125
0000f0 0d 3b 2d 3c 7a 27 45 3e 20 47 44 be b4 96 17 3d
       0.010573161 0.1925334 -0.19167757 0.037008956
000100 22 73 e3 3d 0e 77 80 3d cb 33 a6 be e2 59 e7 3e
       0.11105944 0.06272708 -0.3246139 0.45185763
000110 a3 88 27 3c b9 c1 70 3f 45 3a ab bf 26 94 60 bd
       0.010225448 0.940456 -1.3377157 -0.054828785
000120 fc d1 cf 3d 9a 10 5b 3e 83 4c 60 3e 24 3b 23 bb
       0.10147473 0.21393052 0.21904187 -0.0024907077
000130 8d 64 c7 bd 8b 62 b2 3c be b0 d0 3e 80 4e 96 be
       -0.097359754 0.021775505 0.40759844 -0.29356766
000140 db b7 f7 be 46 d0 ba bd 0b c7 65 3e 9e 6e 9a bd
       -0.48382458 -0.09121756 0.2243921 -0.0754063
000150 6e 45 00 be 44 3f 8f bd 6a dc 1b be d0 0e f2 bd
       -0.12526485 -0.06994489 -0.152208 -0.118192315
000160 98 59 cb 3d 64 31 75 bd 08 79 63 3e d3 eb 6b 3e
       0.09929198 -0.059861556 0.22214139 0.23039179
000170 bc 26 95 3d 51 2d 3a 3e a8 ba 9a be 9e 90 0f bf
       0.072827786 0.1818135 -0.30220532 -0.56080043
000180 8a dd 89 3e e9 a5 96 be 9e e5 8b bd f7 1e e5 be
       0.26926833 -0.29423454 -0.068309054 -0.44750187
000190 81 f9 49 3c 6f 46 3b be fa 90 e6 bd b6 16 85 bd
       0.012327553 -0.18288587 -0.11258121 -0.064984724
0001a0 d2 d8 41 be 99 12 36 be 04 cf 85 3d 1f 98 91 be
       -0.18930367 -0.17780532 0.06533626 -0.28436372
0001b0 6e 33 87 3d 44 65 a1 3e 4e 71 ee be 62 d0 9d 3e
       0.06601606 0.31522572 -0.4657082 0.30823046
0001c0 a0 12 62 be ad 97 1b 3e 47 34 20 3f 0a 26 9b bf
       -0.22077417 0.15194578 0.6257977 -1.2120984
0001d0 ba 1b e0 3c 40 e2 3e 3c 70 4d 1a 3d 6a e6 8a 3c
       0.027356971 0.011650622 0.037671506 0.016955573
0001e0 56 91 09 3e 8e 9c c2 bd d1 ec b1 be 39 ed ea 3e
       0.13434348 -0.09502517 -0.3475099 0.45884112
0001f0 a3 99 c0 be 35 1d 95 be fe 5f ee be 74 9d 1c bd
       -0.37617216 -0.29123846 -0.4655761 -0.038236097
000200 18 52 f0 bd 65 59 06 bf dd 50 5c 3c 74 a2 27 3e
       -0.11734408 -0.52480155 0.013447014 0.16370565
000210 a6 3e 2c be 10 19 59 bc 23 5f ba 3e be e4 bf bd
       -0.16820773 -0.013250604 0.3640071 -0.09369801
000220 12 c7 3e 3d 21 17 38 3e 45 ec 33 3e c4 33 7c 3e
       0.046576567 0.17977573 0.17570598 0.24629122
000230 a7 98 1f 3e bc 5a 70 3e 3f 36 a6 bd 1c d7 86 be
       0.15585576 0.23472112 -0.08115815 -0.2633599
000240 03 ba de 3c a8 37 77 be 0d fb 80 3e 00 62 db ba
       0.027188307 -0.24142325 0.25191537 -0.001673758
000250 ba 6a 03 be 42 b7 58 3e 1f 41 ef bd a5 c8 35 bf
       -0.12833682 0.21163657 -0.11682343 -0.71009284
000260 fe 3d b2 be 21 cb b6 3d 3c 58 b2 3e f9 89 d4 be
       -0.3481292 0.089254625 0.34832942 -0.41511515
000270 4a ff aa bc e5 f1 ad bd f5 b2 82 bd 01 0e 0f be
       -0.020873684 -0.08493403 -0.063817896 -0.13970186
000280 7d 18 11 bd f1 df a3 be 64 41 6d be 0b 4a 64 be
       -0.035423744 -0.3200679 -0.23169476 -0.2229387
000290 2f 4c 1b bd 19 6e 80 3e e4 cc ca bd 85 e5 b5 bd
       -0.03791445 0.25083998 -0.09902361 -0.08881668
0002a0 7f ec 17 3e d8 3d a2 3a 5c 94 22 3f 68 18 8f be
       0.1483631 0.001237805 0.6350763 -0.27948308
0002b0 ce e5 a2 3e ec 43 55 3d 97 50 44 be ba 5c bf 3d
       0.31815952 0.05206673 -0.19171368 0.09343858
0002c0 00 7d ec bd 5a 0e ec bd c4 6c 53 3e f7 76 6c bd
       -0.11547279 -0.11526175 0.2064696 -0.05773064
0002d0 80 7f a9 bc 2c 29 e7 bc d8 59 0f 3e 8d f5 61 3d
       -0.02069068 -0.028217874 0.13999116 0.055165816
0002e0 d0 70 76 bb e8 fb 68 3e b6 6f c2 3c 02 ee 63 bd
       -0.0037603863 0.22752345 0.023734909 -0.055646904
0002f0 c2 69 14 be 6d cf cd bc 6e 61 9e 3c 39 15 85 3c
       -0.14493468 -0.025123322 0.019333567 0.016245471
000300 bc 7f 3a be 20 ac 3c 3c a1 65 2e 3e d7 d0 77 3c
       -0.1821279 0.011515647 0.17030956 0.015125475
000310 56 4d 88 be 51 aa 17 3d 61 a7 94 be bb 07 08 bf
       -0.26621503 0.03702766 -0.2903395 -0.53136796
000320 9f 66 60 3e c6 8c 4c be 12 68 72 be f0 ca c6 be
       0.21914147 -0.19975576 -0.23672512 -0.38826704
000330 4a af 93 3b d5 f3 9b be e9 f2 5a bf c6 03 5f 3e
       0.00450698 -0.30459467 -0.855269 0.21778783
000340 04 37 bf 3d b3 d4 ec 3d b3 fa bf 3d ac f3 9c be
       0.09336665 0.11564007 0.09373989 -0.30654657
000350 08 03 e5 3e 0b af 93 3e 74 53 33 3c 1f 2f b2 3e
       0.44728875 0.28844485 0.01094519 0.34801576
000360 77 d5 16 be 9d 16 15 be 8b 48 21 3e 25 14 17 bd
       -0.14729868 -0.14559408 0.15750329 -0.036884446
000370 fe 03 63 be 6e 93 3b 3c e0 04 bf 3d 00 8c ef 3b
       -0.22169492 0.011448724 0.09327102 0.0073103905
000380 f3 84 86 bc f7 17 20 3d cb e5 62 be 82 47 d1 3e
       -0.016420817 0.039085355 -0.22157972 0.4087487
000390 8a a0 e1 3a fb 2b 38 3e cd dd 20 bd 97 00 79 3f
       0.0017213982 0.17985527 -0.039274026 0.97266525
0003a0 53 93 9a 3e 6f f2 34 3f d5 38 29 be d9 a9 d3 be
       0.30190524 0.70682424 -0.16525586 -0.4134052
0003b0 17 f7 65 3d 77 e6 3a be 74 1d e0 bd e0 02 45 3e
       0.056143846 -0.18251978 -0.10943118 0.19239378
0003c0 af 3d 45 3d a1 97 23 3e 2d e4 44 be 85 00 04 3e
       0.04815453 0.1597581 -0.19227667 0.12890823
0003d0 e7 70 4f 3e 5e 00 14 be 27 58 4d 3f 54 a1 c9 be
       0.20257913 -0.14453265 0.80212635 -0.39380896
0003e0 8b cf 40 be 0d 3e 61 3e 89 0a 90 be 2b 70 8a 3e
       -0.18829171 0.21996327 -0.28133038 0.27038702
0003f0 3c a2 5a 3e 76 93 9a bd 2a 57 a5 3d c4 02 9d be
       0.2135095 -0.07547657 0.08073266 -0.30666173

fc1.bias f4 [128]
000000 d3 f8 a4 be 68 6f 9e be cc 22 e0 bd 32 ea 86 be
       -0.32221088 -0.3094437 -0.10944137 -0.26350552
000010 71 1b e4 3c 23 cd b0 3d 0a ef 6f bd 9a ef fc 3d
       0.027845116 0.08632877 -0.058577575 0.12350388
000020 79 48 2e be 3f 13 ce be 26 27 7e be 6a d7 c0 be
       -0.17019834 -0.4024906 -0.24819621 -0.37664348
000030 70 66 a9 be 40 b0 37 3d e4 d1 0a bd 19 8d d7 bd
       -0.33085966 0.04484582 -0.033891574 -0.10524959
000040 50 31 00 be f5 ad 2d be a5 c5 cf be a5 22 13 bf
       -0.12518811 -0.1696089 -0.40580478 -0.5747474
000050 b9 c5 58 be d5 3d b4 bd 10 f7 c7 be a2 a6 49 be
       -0.21169175 -0.08800856 -0.3905568 -0.19692472
000060 43 4c e9 be 80 39 24 be 9b 06 d2 bd c6 47 ca bd
       -0.45565996 -0.1603756 -0.10255166 -0.09876971
000070 3b 0d f5 bd c3 2f df be 99 18 9a be 44 96 a0 3d
       -0.11965414 -0.43591127 -0.30096892 0.07841161
000080 7d 34 aa 3c a5 bb 73 bb 7a f5 00 bf 11 a7 72 be
       0.020776981 -0.0037190702 -0.5037457 -0.23696543
000090 9b 76 af bd 9c 6a 10 3d 4c c0 71 be c5 37 09 be
       -0.08567544 0.03525792 -0.23608512 -0.1340018
0000a0 e4 a1 4c 3d e7 a5 8b bd 49 52 6b be 05 99 96 3d
       0.04995908 -0.06818753 -0.22980608 0.07353405
0000b0 bb ca 4b be 6b 8e 29 be 14 92 0d bf f4 52 bb be
       -0.19901554 -0.16558234 -0.5530102 -0.36586726
0000c0 a1 b9 b9 be 53 ac 81 be b6 5a 01 bf e0 f3 c2 be
       -0.36274436 -0.25326785 -0.5052904 -0.38076687
0000d0 1d 75 7d bd cc 0e 1a bf ca a7 64 be 75 7e 9c bd
       -0.061879266 -0.6017883 -0.22329631 -0.07641307
0000e0 f9 15 0a 3e 26 3e 03 3e 66 c2 89 bd af cd 31 be
       0.13484944 0.12816676 -0.06726532 -0.17363618
0000f0 15 53 eb be 99 cd 84 be 64 06 74 bd bb 9f 21 be
       -0.45961824 -0.2593811 -0.059576407 -0.15783589
000100 8f d9 5b be 5b d3 07 bf 3e 44 7a be 17 ef c7 be
       -0.21469711 -0.5305688 -0.24440095 -0.390496
000110 2a af d8 bd 95 2e 5c 3e ce 53 d2 be 2b 2d 92 be
       -0.10580285 0.21502145 -0.41079563 -0.28550085
000120 93 ce f5 bd bc 15 59 be f4 d3 a8 be 0b d8 d0 3d
       -0.120022915 -0.21199697 -0.32974207 0.10197457
000130 df 59 3d 3d b9 a9 18 be 56 90 d3 be 14 86 af 3d
       0.046228286 -0.14908494 -0.41321057 0.08570495
000140 cd c9 54 be d6 2c 38 be c3 4a 7a bd fc 2f a9 bd
       -0.20780106 -0.17985854 -0.061106455 -0.082611054
000150 71 9c 60 3c 8f 11 03 be 5e 6b 7e be a3 38 46 be
       0.013709174 -0.12799667 -0.24845645 -0.19357543
000160 20 5e 06 be f3 47 4c 3d c3 19 86 be 2e c4 47 bd
       -0.13121843 0.049873304 -0.2619153 -0.048771076
000170 38 fb 75 be 48 57 01 be 6a 3d dc 3d d9 f0 76 be
       -0.24021614 -0.12630951 0.10753901 -0.24115314
000180 a8 d2 14 be 83 77 01 3e 55 7c dc be 06 d4 b2 be
       -0.14533484 0.12643246 -0.43063608 -0.34927386
000190 e9 8c 78 be f6 12 2d be ba 0e d3 3d ba 54 45 be
       -0.24272503 -0.16901764 0.10305543 -0.19270602
0001a0 d2 01 aa bd 75 e5 05 be 60 fa fa bd e7 10 99 be
       -0.083011284 -0.13075812 -0.122547865 -0.29895708
0001b0 a5 e7 20 be 45 ec 9a 3c 1e 8c c4 be 9b 5a 5f 3e
       -0.15713365 0.01891149 -0.3838815 0.21811907
0001c0 d1 68 fe bd 23 54 50 be 2d fd 32 be 74 c4 5f bd
       -0.12422336 -0.20344596 -0.17479391 -0.05463071
0001d0 c0 25 fc 3c f1 06 9e be 81 4f 16 3e 4f cd 21 be
       0.03077972 -0.3086467 0.14678766 -0.15800975
0001e0 0e 0f 19 be ae 41 81 be 3a 94 2e bd ee e4 7c 3e
       -0.14947149 -0.25245422 -0.04262183 0.24696705
0001f0 1b c4 89 3d aa 97 6c be 12 58 59 bd d2 0f 3a be
       0.06726857 -0.2310473 -0.053062506 -0.18170097

fc2.weight f4 [128, 128]
000000 aa 71 b5 bd 18 b6 5e 3d 29 cf 71 be e1 c8 fa 3a
       -0.0885957 0.054372877 -0.23614182 0.0019133353
000010 31 6e f5 be bf 6c be be e6 0d 69 b9 6d 6e 25 bf
       -0.47935632 -0.37192342 -0.00022225789 -0.6462162
000020 de d7 9a 3e cf 0a e7 be d0 49 19 bd c7 af 06 3e
       0.3024282 -0.45125434 -0.03742391 0.13152991
000030 80 f7 35 3d cc 83 25 be 81 f0 7c bd 30 36 5f 3e
       0.044425488 -0.16163558 -0.0617528 0.21798015
000040 c3 a0 ae 3e 98 ab 99 3d 3c 9d a3 bf 0f 7a a7 bd
       0.34107026 0.07503432 -1.2782359 -0.08177578
000050 83 bb 70 bf f5 6f 53 be f7 08 8b 3d 53 0c 78 3e
       -0.9403612 -0.20648177 0.06788819 0.24223451
000060 51 2c 87 3e 6c 5e e5 3e 72 d0 a0 be a9 e3 07 3e
       0.26400998 0.447986 -0.3140903 0.13270439
000070 40 02 b5 be 17 17 7e 3d 27 4e e0 bf 58 ca bb bf
       -0.3535328 0.06203374 -1.752385 -1.4671125
000080 d4 1c a9 bf 3b c8 28 bf df ec 9f bd 70 d9 aa 3e
       -1.3211923 -0.6593053 -0.078088515 0.33369017
000090 e9 b5 62 bf 95 a5 52 3d 5a 50 b4 3e 1e 89 a1 be
       -0.8855882 0.051427443 0.35217553 -0.31549925
0000a0 fd 78 08 3e 9e 8c bc 3c d8 bd eb be 18 8c 2f 3d
       0.13327403 0.02301627 -0.46043277 0.042858213
0000b0 2c f3 9e bf 40 70 48 be 95 be 24 be c7 22 38 3f
       -1.241796 -0.1957407 -0.16088326 0.71928066
0000c0 a7 72 dd 3e 34 d7 bb bb 9a c7 ff 3d 9b a0 ce be
       0.43251535 -0.0057324413 0.12489243 -0.40356907
0000d0 0b a0 65 3e 66 1e b0 3d 1f 7b aa 3d 54 44 25 bd
       0.22424333 0.08599548 0.08324265 -0.040348366
0000e0 c4 f4 38 3e 4b bb 5b bc f8 c1 3a be 24 01 e2 3d
       0.1806212 -0.013411353 -0.18238056 0.11035374
0000f0 3f 1c 0f bd 31 c9 36 be 49 da 0d 3d f4 ae 5e bd
       -0.034939047 -0.17850186 0.034632 -0.054366067
000100 c3 59 1d 3d 49 bf 9e 3d 99 2d b1 bd d5 00 92 bd
       0.03841568 0.077513285 -0.08651275 -0.07129065
000110 88 8a 54 3c 36 01 2e be 19 be 4a bc d8 53 95 3e
       0.012972482 -0.1699265 -0.012374424 0.2916553
000120 fe 39 74 3e fb 70 36 3d 59 86 ad b8 62 2b 15 be
       0.23850247 0.04454134 -8.274307e-05 -0.1456733
000130 de 4e d9 3c b3 ab 90 3e e4 77 a2 bb 1c f3 15 3e
       0.026526865 0.28255996 -0.0049581397 0.1464352
000140 f5 29 60 be f1 a6 85 3f 83 62 15 be 94 2d 14 bf
       -0.21891005 1.0441571 -0.1458836 -0.57882047
000150 3f b1 1a 3d 6f 97 c4 bd 24 35 4a 3e 1c 05 d7 bd
       0.03776669 -0.09599196 0.19746834 -0.104990214
000160 9c 2a 79 bc 39 fa a4 3d 6f 92 ac bd fc 78 59 bc
       -0.015207913 0.08055539 -0.084263675 -0.013273474
000170 0a 6e 02 3e 0f 83 c4 3d 5f 60 b8 be c2 43 f4 bd
       0.12737289 0.0959531 -0.36011025 -0.11926986
000180 e3 fa 23 bd fc d9 22 3d 50 10 a5 bc 18 93 80 3d
       -0.040034186 0.039758667 -0.02014938 0.06278056
000190 70 7f 9d bd 86 c5 3b 3e af b0 c3 3d 57 d6 07 be
       -0.076903224 0.18337068 0.09555184 -0.13265358
0001a0 74 db 68 be a6 3d 83 be 01 31 1f 3e 3d 1e 5d 3e
       -0.22739965 -0.25632972 0.15546037 0.21593566
0001b0 f8 69 49 be c4 a8 45 be c0 46 ce bd 17 af a9 bd
       -0.1966933 -0.1930266 -0.10072088 -0.08285349
0001c0 5a dc 99 be 6c 04 f4 3d d2 0d a1 3d 58 91 80 bd
       -0.30050927 0.11914906 0.07863964 -0.06277722
0001d0 c5 56 39 3c 15 92 0f 3f 6f 4a b0 ba 08 a1 41 bd
       0.011312191 0.5608228 -0.0013449917 -0.047272712
0001e0 6b b8 bb be 05 4d 89 3d a0 98 f3 be 8b 9f 05 be
       -0.36664137 0.067041434 -0.4757738 -0.13049142
0001f0 fc da 5a 3e ed 67 df 3d db 72 22 be 8e 20 5a 3c
       0.21372598 0.10908494 -0.15864126 0.013313426
000200 b0 84 38 3d b2 f2 9f bd d8 82 9d bc ae 12 f3 bc
       0.045048416 -0.07809962 -0.01922743 -0.029671993
000210 b3 6c 67 bd 03 14 a5 bc 6f 2b 33 3d 45 f2 37 be
       -0.056500148 -0.020151144 0.043742593 -0.17963512
000220 8b 82 4d bd d1 6f f1 3c bc 97 08 bd 4b 34 ed bb
       -0.050173324 0.029472264 -0.03334783 -0.0072389
000230 f7 e9 a7 b9 19 dd 16 3d 07 cc 79 bd f1 4a fc bc
       -0.0003202704 0.03683195 -0.06098559 -0.030797454
000240 f5 80 ba bc f1 2e 20 be 2d e2 25 be 32 91 ff bc
       -0.02276657 -0.15642907 -0.1619956 -0.031197164
000250 f9 7a 28 bd 14 4d a3 bd 58 30 93 bd 4c 85 5a be
       -0.0411329 -0.07973686 -0.07186955 -0.21339911
000260 36 c6 fe 3c 54 35 0a be b9 30 94 3b 6b 75 2c bd
       0.031100374 -0.13496906 0.0045224098 -0.042104166
000270 c6 2a d6 bc 58 30 66 3d b4 07 9e bd b9 ec 0a bd
       -0.026143443 0.056198448 -0.07716313 -0.033917163
000280 bb 28 0a bd ec d1 4e be 8d 61 37 bd 6c 1a 46 bd
       -0.03373025 -0.20197266 -0.044770766 -0.04836504
000290 e2 aa b2 3c ce bc 0b be 80 22 dc bc 45 bc 88 3d
       0.021809999 -0.13646242 -0.02687192 0.066765346
0002a0 c8 85 77 3d f8 d9 02 be b5 34 35 be 3f c2 58 be
       0.060430318 -0.12778461 -0.17695887 -0.21167849
0002b0 a7 60 3c 3c 52 fa ad bd 2d 71 1c be 53 7e 05 3e
       0.011497653 -0.084950104 -0.15277548 0.1303647
0002c0 31 d0 97 3b 49 f0 ac bd f8 a4 ca 3d 3c d7 c7 bd
       0.0046329726 -0.08444268 0.098947465 -0.097578496
0002d0 4d 84 a1 3d 0d b1 fc bd cb e6 ab bd 70 1c a1 bc
       0.078865625 -0.12338457 -0.0839363 -0.01966688
0002e0 52 21 ed 3b 28 5a b2 bd ae 95 b9 bd 5c 00 9e bc
       0.007236638 -0.08708602 -0.09061752 -0.01928728
0002f0 b1 71 44 3d 15 de 22 bd 2b 75 30 3d b1 1b d6 bd
       0.047959987 -0.039762575 0.04308049 -0.104545005
000300 1c ab 8f bc 94 5e 44 be 6e 53 eb bd d2 2a 1b be
       -0.017537646 -0.19176704 -0.11490522 -0.15153053
000310 9b da 09 be 27 38 cb 3c 64 1d bf bd 67 d8 2f bd
       -0.13462298 0.024807049 -0.09331778 -0.042930987
000320 23 5f 8f ba 03 d0 6a bd dc 35 95 bd 10 f6 69 3d
       -0.0010938387 -0.05732728 -0.072856635 0.05711943
000330 c4 a4 9c 3d f5 39 a3 bc 60 b6 e0 bd ea b0 01 bd
       0.07648614 -0.019925097 -0.10972285 -0.03166286
000340 85 97 c0 3c 8e 7c 7b bd 46 b2 fe bc af 21 81 bd
       0.02350975 -0.06139808 -0.031090867 -0.06305253
000350 74 26 18 bd 71 0e 31 bd 71 be 80 3c 8a 16 c1 bd
       -0.037146047 -0.043226663 0.01571581 -0.09428127
000360 86 c5 db 3b f7 67 13 be 3c 99 be bc 48 0b 1c be
       0.0067068962 -0.14395128 -0.023266427 -0.15238678
000370 59 20 c3 bc 6e 8b ba bd a4 97 8c 3d 40 29 3e 3d
       -0.023819136 -0.09108625 0.06864861 0.046426058
000380 68 a5 e0 3c 7f 4b fa bb 39 e5 e7 bc d0 f5 88 bd
       0.027422622 -0.0076383944 -0.028307544 -0.0668751
000390 32 1e 9a bd 3f 02 da bd 36 e9 b5 bc 47 33 da 3c
       -0.075252905 -0.1064496 -0.02220593 0.026635779
0003a0 b4 66 8f bb 33 ba 82 bd ce 02 60 bd 89 1a 16 bc
       -0.004376257 -0.06383171 -0.054690175 -0.0091616
0003b0 8f ef e8 3c 26 28 a8 bd fd 24 21 be d0 7c 1e 3d
       0.028434543 -0.08210783 -0.15736766 0.03869325
0003c0 a5 e1 b0 bd fe a2 ba bc f6 a9 73 3d 15 94 cc bd
       -0.08636788 -0.022782799 0.05948826 -0.09989182
0003d0 03 2c 5a 3c ce e2 1a bc 9f 95 c4 bd c8 5d 05 be
       0.013316157 -0.0094534885 -0.095988505 -0.13024056
0003e0 09 e1 aa bc cf e5 a6 3c 8c f1 39 3d 2e f4 e7 bd
       -0.020859258 0.020373253 0.045396373 -0.113258705
0003f0 08 f4 eb bd 4f f5 11 be ee 4a f8 bd cb 21 73 3d
       -0.11521155 -0.14253734 -0.12123667 0.0593584

fc2.bias f4 [128]
000000 0c 80 d7 be f5 e6 61 bd 45 65 8e bd ff 26 3f 3e
       -0.4208988 -0.0551519 -0.069529094 0.1866722
000010 bd bd 95 be 29 57 7d 3a de cc 3c bd db 10 c8 bc
       -0.2924632 0.0009664172 -0.046093814 -0.0244221
000020 04 0b 2f 3d 33 f0 25 3e 19 a9 fd bb 0b 6d 53 bd
       0.042735115 0.1620491 -0.0077411053 -0.051617663
000030 23 0a 45 3e 82 da ff bd 3a 31 41 be b5 68 a4 bd
       0.19242148 -0.12492849 -0.18866435 -0.08027784
000040 d1 53 c9 be f8 a4 1d bd 22 4a a1 bc d2 7c bc bd
       -0.3932176 -0.038487405 -0.01968867 -0.09203495
000050 68 cf 17 3e bb 3d 9c bd 70 4c 8c be 08 15 4c bd
       0.14825213 -0.07628962 -0.27402067 -0.049824744
000060 a2 ef 48 3e 56 44 55 3d 99 60 04 3d d3 9f 25 3d
       0.19622663 0.052067123 0.032318685 0.040435623
000070 3e 4b 11 bd 1a a1 ed bc 3a d7 ae bb d9 08 1e bd
       -0.035472147 -0.029007483 -0.0053357156 -0.038582657
000080 f7 97 7e bb 07 f9 2f bd ec 1a b4 3b 01 85 0d bc
       -0.0038847902 -0.0429621 0.0054963734 -0.008637668
000090 60 51 60 3e 83 a0 bf 3c 05 dc f8 be 54 a3 3e 3e
       0.21906042 0.023391968 -0.48605362 0.18616992
0000a0 fd d2 dd be d1 47 0d be 92 c1 79 3d e5 8f d2 3a
       -0.43325034 -0.13796927 0.06097562 0.0016064612
0000b0 af 0e 04 bf ba 3b ee 3d d4 d9 48 bd 19 17 4c bd
       -0.51584905 0.11632486 -0.049035862 -0.049826715
0000c0 41 fe 31 3e 96 de 1d bd e4 a3 4e 3e 93 16 12 3e
       0.17382146 -0.038542353 0.20179707 0.14266424
0000d0 38 e0 0d 3d 8f ed 9a bd a9 e2 71 3e 8f 0a 31 bb
       0.03463766 -0.07564842 0.2362162 -0.002701435
0000e0 d0 33 97 bd 8c 55 27 bd 7b 4e 01 3e 0a 18 90 3c
       -0.07382929 -0.04085307 0.12627594 0.017589588
0000f0 09 a9 07 3d f1 59 1f bc 3f 3a 5b bd 61 7e 99 3c
       0.03312019 -0.009726034 -0.053522345 0.01873702
000100 35 90 88 bd 82 fa 5a bd b7 86 14 3d 34 3b c9 bc
       -0.0666813 -0.05346156 0.036261287 -0.024564363
000110 79 b6 9d 3e 66 74 7b bd a7 0f 9e be 83 90 d5 bc
       0.30803278 -0.061390303 -0.30871317 -0.026069885
000120 9b 1d 01 3e 23 33 7d bd a2 2c 06 bf 32 c8 38 bc
       0.1260895 -0.061816346 -0.52411854 -0.011278199
000130 0c a4 c0 be f3 fc aa 3e 34 7e 2e be be 30 74 3d
       -0.37625158 0.3339611 -0.1704033 0.059616797
000140 88 15 5c 3c 92 7d 46 3d fe 54 62 3d 5d 2f 2b bc
       0.013432868 0.048459597 0.055256836 -0.010448304
000150 22 5e aa ba e7 ed e7 bd e2 ff 15 3e 78 c5 45 be
       -0.0012998024 -0.11324673 0.14648393 -0.1931361
000160 20 21 af bd 05 20 b2 bd d2 bd c4 3d 00 9d ca 3d
       -0.0855124 -0.086975135 0.09606518 0.098932266
000170 2b 75 b0 3d 9b 34 3c be 1c 61 97 bc b0 32 3d bd
       0.08616098 -0.18379442 -0.018478923 -0.046190917
000180 5f 7c 32 3e f5 fd 55 be 4b 0f bd 3b 59 a9 71 bd
       0.17430256 -0.20897658 0.0057696453 -0.058999393
000190 40 48 0a bd 21 d7 de bd dd 28 95 3d bc b0 14 bc
       -0.03376031 -0.10880876 0.07283185 -0.00907534
0001a0 5b 26 c7 3c 59 ef 9b bd fe 17 07 be 97 10 da 3d
       0.024310282 -0.07614011 -0.13192746 0.106476955
0001b0 0d b1 c4 3d bf 8a 8a be 06 42 37 be 9b 88 55 be
       0.09604082 -0.2705898 -0.1789628 -0.20852892
0001c0 b5 2e f1 bb 67 63 8a 3d 6b 12 48 bd 87 d2 f0 bd
       -0.0073603042 0.06757241 -0.04884569 -0.11758905
0001d0 f8 c7 02 bd 91 99 23 3e 33 54 5b be d1 d9 6a bc
       -0.031928986 0.1597655 -0.21418838 -0.014334158
0001e0 3e f2 3d be 72 1b 89 bc 1a fd fe bd 06 e0 92 3b
       -0.1854944 -0.01673672 -0.12450619 0.004482272
0001f0 d0 08 82 3e bd 5d 90 bd 4d ee 21 3e ab 8e d8 bd
       0.25397348 -0.07049129 0.15813561 -0.10574087

dist.fc_mean.weight f4 [4, 128]
000000 6d 7b 2a ba 31 b5 80 bc 01 35 28 3d 7c 8b b1 b6
       -0.0006503377 -0.015711399 0.041066173 -5.291249e-06
000010 5d 84 bf 3d 86 af 52 3c 36 72 81 bb b4 61 5d 3d
       0.09351418 0.012859231 -0.0039503826 0.054048255
000020 de 11 cf bb 37 60 92 3b 89 79 54 bc 9b 35 d7 bc
       -0.0063192686 0.004467036 -0.012968429 -0.026270678
000030 3e e1 03 3b 95 18 45 bb 63 cc 85 3c b4 a2 02 bc
       0.0020123268 -0.0030074466 0.01633281 -0.007973362
000040 d7 e4 97 bc 14 30 3f bd 48 2b e4 bc c0 09 70 3d
       -0.018541737 -0.04667671 -0.02785267 0.05860305
000050 19 2d 13 ba 3c 95 ea bd 71 41 a7 3f 0c c9 45 3b
       -0.0005614325 -0.114542454 1.3066846 0.0030179648
000060 f8 9c 85 3b b3 44 07 bc 22 69 dd ba ba b6 18 ba
       0.00407755 -0.008256125 -0.0016892294 -0.0005825568
000070 32 13 4c 3d 0c c3 f0 3d 71 c9 72 3d 77 91 16 bb
       0.049822994 0.11755952 0.05927414 -0.0022974887
000080 81 58 8e 3d 46 4d 3b 3c c5 8b 1f bd 4b 5d 98 3c
       0.069504745 0.011431998 -0.038951654 0.018599173
000090 36 05 9d bb 39 37 10 3a b5 b4 56 be 7d dc 14 3b
       -0.004791881 0.0005501393 -0.20967372 0.002271443
0000a0 d3 89 4a bc 4a f2 d7 3e 32 5e e0 3a bc 11 ad 3d
       -0.012361961 0.4217704 0.0017117916 0.08450648
0000b0 b3 6c e3 3d bc 5e 96 39 f0 19 26 be 4d c9 fa bc
       0.11104717 0.00028680812 -0.16220832 -0.030613566
0000c0 f5 f6 69 ba 06 41 e1 3c 35 54 c6 bb c3 41 59 b8
       -0.0008925044 0.027496826 -0.0060525187 -5.1798077e-05
0000d0 b7 98 c3 bc bb 38 b5 bc ea 47 a7 ba 54 b5 b5 bd
       -0.023876531 -0.022121778 -0.0012762521 -0.08872476
0000e0 10 2e 03 3e b0 25 82 bd 77 11 ee bb d8 ab 11 bd
       0.1281054 -0.063548446 -0.0072652656 -0.035564274
0000f0 eb 1d 07 bc 96 ba d6 bc 69 e7 9c bb cc 82 1e bd
       -0.008246879 -0.026212018 -0.0047883284 -0.038698956
000100 e6 a6 29 3b 0a 6f 7f bd 6a ac f7 ba 83 2c 28 3c
       0.0025886833 -0.062361754 -0.0018895988 0.010264519
000110 3d f5 9a ba e3 95 29 3c 78 08 c8 3c bf fd 8b 3a
       -0.0011822354 0.010350677 0.0244181 0.0010680481
000120 44 4b ac bb 63 84 d9 3c 31 c0 91 3e e1 af 29 3c
       -0.005257996 0.026552385 0.28466943 0.010356874
000130 95 db 7a bf f2 64 fa 3b 99 bb 81 3c d9 13 50 bc
       -0.97991306 0.007641428 0.015836524 -0.012700045
000140 d0 fe e3 bc cc 5c ef ba 7c ca 7e 3b 00 84 f3 3b
       -0.027831465 -0.0018261909 0.0038878014 0.007431507
000150 7b c2 53 bc b8 9c fa 3b e4 f2 22 bc 85 a4 42 bf
       -0.012924786 0.007648077 -0.009945605 -0.76032287
000160 ae c7 87 bc c1 2a 38 3d af 73 b9 ba eb ef 08 3b
       -0.016574707 0.04496265 -0.0014148856 0.0020894955
000170 88 fc 22 3c 9f bd 82 38 00 84 e9 bc 95 bc b9 3b
       0.009947903 6.234203e-05 -0.028505325 0.0056682327
000180 1c ec b6 39 9c 18 fb b9 0e a9 0d bd 93 76 c8 3d
       0.0003488966 -0.00047892786 -0.03458505 0.09788241
000190 4d 5c d7 3b 87 71 d2 bc 3b 32 91 bb 2a f7 72 be
       0.0065722824 -0.0256889 -0.0044310368 -0.23727098
0001a0 84 f4 90 3a ef e5 3c 3c b6 59 a1 bc 37 6d c2 39
       0.00110592 0.01152943 -0.019696098 0.00037083935
0001b0 1f 55 7a bc f0 2d 77 3d 24 cd 9a ba ba 54 4e bb
       -0.0152790835 0.060346544 -0.0011810404 -0.0031483606
0001c0 f9 46 9d bb ca 4d bb bb 99 0f c3 bd af 89 f2 3d
       -0.0047997204 -0.0057160603 -0.095244594 0.11842667
0001d0 12 10 c9 3c 9e ad d4 3a 2b 0d b6 3f a1 0c 0b 40
       0.024543796 0.0016226058 1.4222769 2.1726458
0001e0 e7 56 97 3b 30 a9 41 3c bd 48 52 bc 0f 90 0f 3d
       0.004618514 0.011820123 -0.012834725 0.035049494
0001f0 83 22 e7 ba c3 2e 8c 3d 12 43 b7 3b 5a 58 e8 b9
       -0.0017634187 0.068448566 0.005592712 -0.00044316315
000200 65 9a 8d be da a5 45 3b 38 e6 0c be a4 ba 54 3c
       -0.27656856 0.003015867 -0.13759696 0.012983952
000210 6c cb 92 bc a9 d7 64 3a 2e ad 39 3e 32 39 b7 bc
       -0.017919265 0.00087296456 0.18132469 -0.02236614
000220 34 d9 df ba ee ae 3a ba f3 81 dc 39 20 30 5a 3c
       -0.0017078281 -0.00071214035 0.0004205849 0.013317138
000230 5d 4f fe b8 a9 27 d1 bb 22 ec a3 bb 9b 26 79 3c
       -0.000121264464 -0.0063829017 -0.0050025145 0.015206958
000240 db 61 e1 3a 7b 6a da 3b 9e d3 ce 3c e4 36 31 3d
       0.0017195301 0.0066655255 0.025247391 0.04326524
000250 19 e1 bf b9 90 4f 1c 3d f9 ab d3 3b a7 68 ae bc
       -0.0003659807 0.038161814 0.0064597097 -0.021290137
000260 81 b5 87 ba 0e 04 81 3c d3 18 b5 bc 0a 58 09 bb
       -0.0010353775 0.015749004 -0.022106564 -0.0020957016
000270 39 71 ef b9 01 9f 4f bc ad 3c 9e bb 85 62 8c bc
       -0.0004566999 -0.012672187 -0.0048290105 -0.017136822
000280 c1 84 1e bc 08 54 53 bd d6 5a 7d bc d3 62 82 3b
       -0.009675206 -0.05159381 -0.0154635515 0.003979066
000290 fc d3 92 3a 3b 21 e5 b9 d1 80 f4 bb 4a 27 6c ba
       0.0011202092 -0.00043703042 -0.007461645 -0.000900854
0002a0 5f 49 0a bc 5d 69 07 bb 61 cb 1b 3a d9 c0 b2 ba
       -0.008440345 -0.0020662167 0.00059430866 -0.0013637795
0002b0 b4 f8 57 3c 0b 61 82 3a c9 04 a1 bb 69 54 43 3c
       0.013181854 0.0009947134 -0.0049139005 0.01192198
0002c0 aa 03 55 b2 94 b8 23 3c b2 d8 1d ba 84 67 51 3a
       -1.2399065e-08 0.009992737 -0.0006021365 0.00079881423
0002d0 d4 8f 9a bb 36 ee a6 3b 80 c7 68 b9 16 fa 9e bd
       -0.0047168527 0.005094315 -0.00022199564 -0.07762544
0002e0 dc ba e4 3c c5 15 0a 3c 6f bc ef b8 22 d6 a4 bb
       0.027921133 0.008428042 -0.000114315066 -0.0050304094
0002f0 1b 44 a2 bb c6 8d 28 bb ef 98 f0 39 26 26 a5 3b
       -0.0049519665 -0.002571927 0.00045890312 0.005039948
000300 34 1b 11 3c be b6 b6 bc 24 ce 74 3b 54 f6 40 3a
       0.008856583 -0.022303935 0.0037354315 0.00073609245
000310 34 0b dc 36 eb 26 7b bc 36 c4 08 be 3b 80 2d 3b
       6.557815e-06 -0.015329103 -0.13356099 0.0026474136
000320 91 ca 95 39 43 d8 69 3c a6 41 22 be c6 8e f3 ba
       0.00028570418 0.014272752 -0.15845355 -0.0018581979
000330 93 ee f2 ba 6b 83 84 3a 46 24 d3 ba 62 37 a9 3a
       -0.0018534235 0.0010109966 -0.0016108833 0.0012910182
000340 d6 c5 1f bc c9 be 02 3b 78 86 88 bb d8 f6 7c bb
       -0.009751758 0.0019950143 -0.0041664205 -0.0038599279
000350 98 6c 26 3c 02 5f 39 bc f8 3d 09 bb f8 77 7e ba
       0.010157727 -0.0113141555 -0.0020941477 -0.0009707208
000360 20 e2 0c 3e 29 0f 8e 3a f6 da 17 ba 66 a1 7d 3a
       0.13758135 0.0010838258 -0.00057928206 0.00096752343
000370 41 3c 95 ba b7 f1 61 3b 88 6c e2 3c b0 04 10 3a
       -0.0011385755 0.0034476349 0.027639642 0.00054938626
000380 01 af ab b9 d0 3a 5b bc e8 4e 4c 3c fd d7 bf bc
       -0.0003274605 -0.013380721 0.012469985 -0.02341842
000390 03 88 1f bc db aa 23 bb 70 20 77 3a 03 65 1f bb
       -0.009737018 -0.0024973664 0.0009427136 -0.0024321682
0003a0 17 0d 0c 3b f5 bc 8b 3b c9 8c 9c 3a 33 38 53 ba
       0.0021370107 0.004264469 0.0011943813 -0.00080573856
0003b0 e1 a5 e2 3a 69 09 18 bd b5 a9 93 3d 2e 9f 21 3c
       0.0017291867 -0.03711835 0.072101034 0.009864612
0003c0 f7 3d 8d bb 5b fd 01 b9 be b1 e5 3c 43 ee 8d bc
       -0.0043103653 -0.00012396781 0.028038856 -0.017325526
0003d0 a6 f9 9f 3b 6c 66 11 b8 b1 58 a2 3c 4d 45 5c 3a
       0.0048820553 -3.466608e-05 0.019817682 0.00084026606
0003e0 01 fc 3a bc 6f 7c b9 3c 24 8e 36 3d 59 b3 c1 3b
       -0.0114126215 0.022642342 0.04456915 0.0059112725
0003f0 e1 69 25 b9 03 a0 9e bc 34 12 1e bb 74 77 31 3a
       -0.00015775069 -0.019363409 -0.0024119737 0.0006769814

dist.fc_mean.bias f4 [4]
000000 e9 3d 92 3a 77 fe 03 3a 7e 41 1e 39 6f e5 37 3b
       0.0011157367 0.00050351716 0.00015092452 0.0028060337

dist.fc_logstd.weight f4 [4, 128]
000000 cb e7 a0 bf 88 c6 86 be 4d 84 9b bc a9 7a f0 bf
       -1.2570738 -0.26323342 -0.018983984 -1.8787433
000010 55 7b 4b bf 74 2c 24 bf b0 d1 17 c0 26 fc af be
       -0.79485065 -0.6413033 -2.3721733 -0.34372061
000020 a0 a9 6e 40 21 5b 86 3e 7d ff 2f 3d cf 1a 87 bd
       3.729103 0.262414 0.042968262 -0.0659691
000030 e4 de a4 be 28 39 09 bf 38 d1 fd be 31 e0 99 bb
       -0.32201302 -0.5360284 -0.49573684 -0.004695915
000040 85 db fe 3e ff 39 b9 3e 33 df 5e 3f 86 4b 12 bc
       0.49776855 0.3617706 0.87059325 -0.008929139
000050 eb 70 40 bf 75 cf de be 33 c1 53 bf ef 09 21 bf
       -0.751723 -0.43517652 -0.82716674 -0.6290578
000060 9d bf 1b bf db b9 8e bf e1 6c 92 bf c2 47 5e bf
       -0.60839254 -1.1150469 -1.1439477 -0.86828244
000070 ae ca 3c bf c9 dc f7 be e9 b6 17 bf 72 3c c8 be
       -0.73746765 -0.48410633 -0.59263474 -0.39108616
000080 fc 95 17 bd bb 2b 8f be a6 f7 d8 be 6b 11 18 bf
       -0.03700827 -0.2796305 -0.4237644 -0.5940158
000090 23 df 7b 40 75 62 5f c0 59 1b 4b 3d e1 a4 60 c0
       3.9354942 -3.4903843 0.049586628 -3.5100634
0000a0 bc e3 96 bf 7d e8 67 bf 59 17 49 40 cb cb a1 bf
       -1.1788249 -0.90589124 3.14205 -1.2640318
0000b0 b6 1f c2 3e 02 5f da 3f 4a 10 5e bd 96 b6 1b bf
       0.3791482 1.7060244 -0.054214753 -0.6082548
0000c0 97 04 4e c0 3e 48 a2 be 5b 44 70 c0 45 5b 3c c0
       -3.2190301 -0.3169574 -3.754172 -2.9430707
0000d0 7f 95 3d c0 56 e0 bf bc fc 2f 51 be 80 4a dd 3d
       -2.9622495 -0.023422401 -0.20428461 0.10805225
0000e0 d5 53 3e 3d df 8a 20 bd 84 90 ea bf 52 a9 39 3d
       0.046466667 -0.039194938 -1.8325353 0.045327492
0000f0 3e f3 45 3f af 00 65 be 7b f0 ac bf 56 5f 28 bf
       0.77324283 -0.22363542 -1.3510889 -0.6577047
000100 96 4e 99 bf 31 f8 d3 bd 5f 0d d8 be 4a 56 16 bf
       -1.1977108 -0.10350073 -0.421977 -0.58725417
000110 27 ff 42 bf 1d 61 cc bd fb 61 19 bf 48 6b 0f be
       -0.7617058 -0.099794604 -0.5991513 -0.14005768
000120 b6 63 37 40 a1 ba eb be a6 83 ad bd e6 28 64 bf
       2.8654609 -0.46040824 -0.084723756 -0.89124906
000130 65 c3 8a be 9d c3 9b bf 95 4c 27 c0 15 fc 31 3f
       -0.271022 -1.2169071 -2.6140492 0.6952527
000140 b1 d5 05 40 d6 7c 29 c0 b6 20 c0 bf 63 d1 1b be
       2.0911677 -2.6482444 -1.5009983 -0.15216593
000150 c1 14 46 bf 90 2d e4 3c 41 a4 67 c0 eb cd 42 3f
       -0.7737542 0.027853757 -3.6194003 0.76095456
000160 0f 5c 99 bb 9c 32 ef bc b5 e8 4c bf f7 be 98 c0
       -0.0046801637 -0.029198937 -0.8004258 -4.773311
000170 94 f1 4d c0 41 d1 13 c0 d3 c3 50 be 29 57 c2 be
       -3.2178698 -2.3096468 -0.20387201 -0.37957123
000180 bf 68 93 3e 1e 77 17 c0 b1 d3 ee bd 08 5b 9d 3e
       0.28790852 -2.3666453 -0.11661471 0.30733514
000190 6c ce 16 bd a5 11 2d 3e 50 0e e7 bf a3 e1 9e 3f
       -0.036817953 0.16901262 -1.8051243 1.2412609
0001a0 35 37 97 3f d2 51 6d bf ae 66 a4 bf 91 42 59 c0
       1.1813723 -0.9270297 -1.2843835 -3.394688
0001b0 1e 21 00 c0 3a 71 95 be f6 09 d3 bf 0c ee db 3e
       -2.0020213 -0.29187948 -1.6487415 0.42955053
0001c0 99 1d fc 3e 56 67 28 bf 1a 1e 3f bf 6f 2a 6b bf
       0.4924133 -0.6578268 -0.74655306 -0.91861624
0001d0 5b 8f ba be d0 24 b2 3e 0b d6 6b be 02 0a 67 40
       -0.36437497 0.3479371 -0.2303087 3.6099858
0001e0 2e 8c ad bf 9e 9f dd bd 69 ff b9 be 4c ea b1 be
       -1.3558404 -0.1082146 -0.36327675 -0.34749067
0001f0 e8 b9 97 3e b1 bf 1b bf b8 60 52 bf 79 f5 00 40
       0.29634023 -0.6083937 -0.8217883 2.0149825
000200 6a 41 49 be 29 49 3c be 74 d6 ca bc 34 69 0f c0
       -0.1965386 -0.18387283 -0.024760462 -2.240796
000210 6d c4 a9 bf 45 97 56 bf 93 06 b2 bf 0b a7 f6 be
       -1.3263069 -0.8382457 -1.3908256 -0.4817432
000220 61 df 2f bf 7e 0f 0e c0 2b c6 c6 bf e3 5c 16 bd
       -0.68700224 -2.2196956 -1.5529226 -0.036709677
000230 35 8e c5 bf bc 2b 66 bf 8b d7 12 bf 17 d6 42 be
       -1.5434023 -0.89910483 -0.5736014 -0.19026981
000240 33 a4 57 c0 7a 52 d4 bf 10 16 59 c0 a1 dc d4 3d
       -3.369397 -1.658767 -3.3919716 0.10393644
000250 37 30 c2 bf cd a7 85 be 31 d7 bd be d9 c3 33 be
       -1.5170964 -0.26104584 -0.3707824 -0.17555179
000260 8e ed 4a c0 5d e9 02 c0 eb 69 31 c0 62 ad 97 bf
       -3.1707492 -2.0454934 -2.7720897 -1.1849787
000270 4d b7 65 bf 59 7c 10 bf 68 fb 2a bf 6f ea 3c be
       -0.8973282 -0.5643974 -0.66789865 -0.18448804
000280 fb 0c 66 bf 37 4c 9f be c4 a1 26 bf 62 08 d4 bf
       -0.89863557 -0.31112835 -0.65090585 -1.6565058
000290 5d d8 ca bf 6b 7a 99 bf 2f c8 85 bf 8c ea 06 c0
       -1.5847279 -1.1990484 -1.0451716 -2.1080656
0002a0 e9 53 4c c0 87 22 a6 bf 05 56 03 c0 c0 df da bf
       -3.1926215 -1.2979287 -2.0521252 -1.7099533
0002b0 e8 8b 79 3c f1 bd 14 bf 1f 03 20 be 89 a5 af be
       0.01523111 -0.5810233 -0.1562619 -0.3430598
0002c0 78 5a aa bf f7 9b 17 bf 99 a3 f5 bf c0 78 72 3e
       -1.3308859 -0.5922236 -1.9190551 0.23678875
0002d0 0d 97 d1 be d2 20 de bd 49 8b d5 bf bb fd 23 bf
       -0.40935555 -0.10846104 -1.6683131 -0.64059037
0002e0 c3 e8 90 bc 76 13 f1 be 38 d9 32 3f 86 ba 23 bf
       -0.017689114 -0.4708516 0.698627 -0.6395649
0002f0 01 6a 1e c0 75 95 c2 be 77 a3 b3 3d 49 68 91 bf
       -2.47522 -0.38004652 0.08771413 -1.135995
000300 8c e2 03 c0 fe 24 16 bd 51 e8 9d bf 6d 73 04 bf
       -2.0607023 -0.036656372 -1.2336522 -0.51738626
000310 b7 e2 e5 bf f0 b7 05 be 12 5e ca be 84 48 03 be
       -1.7959813 -0.13058448 -0.39524895 -0.12820631
000320 40 c7 20 c0 a3 d1 1f bf 58 c4 4b be 97 e4 de be
       -2.5121613 -0.62429255 -0.19899118 -0.43533775
000330 c8 53 88 bd 79 67 22 40 64 5e 30 3f ca e4 3a c0
       -0.06656605 2.5375655 0.6889403 -2.9202142
000340 ec a2 bd bf c2 1c 9f 3e 27 9c 58 3f 3b 99 c9 be
       -1.4815345 0.31076628 0.8461327 -0.39374718
000350 d1 fb e0 be 21 cb 4a be f2 1f b5 bf ae ab e0 bf
       -0.4394212 -0.1980405 -1.4150374 -1.7552392
000360 cb 4e f5 3b 8a 46 f8 bd 9e 9c 0a 40 aa 39 96 bf
       0.0074861995 -0.12122829 2.1658092 -1.1736348
000370 40 8c b0 bf 61 ec a8 3f 88 5f fd be a0 8d 3b be
       -1.3792801 1.3197137 -0.49486947 -0.18315744
000380 e9 6d 13 c0 c1 7c 5c 3f 23 18 31 bf 1b 86 6c be
       -2.3035834 0.8612786 -0.69177455 -0.23098032
000390 2c 45 22 be 81 05 44 c0 2b e5 e0 3f 32 d9 3e bf
       -0.158467 -3.062836 1.7569937 -0.74550164
0003a0 2c 7b 26 c0 26 f1 76 bf 78 9b 08 bf e7 44 d9 bf
       -2.6012678 -0.96461713 -0.53362226 -1.6974152
0003b0 b2 1f 92 bf 62 03 1e 3e 97 6c 20 3f 96 30 b7 bf
       -1.1415923 0.15430978 0.62665695 -1.4311702
0003c0 88 79 e0 bf cd 26 c8 bf 2f c6 b8 bf 41 c5 8a bf
       -1.7537088 -1.5636841 -1.4435481 -1.0841447
0003d0 e9 10 76 be e2 20 d2 bf 0d d1 ea bf 17 6d 0e c0
       -0.24029888 -1.6416285 -1.8345047 -2.2254083
0003e0 41 d7 23 40 67 d7 d2 bf 58 e2 99 be 17 5d d8 be
       2.560013 -1.6471986 -0.300555 -0.42258522
0003f0 13 47 c1 bf 6e 28 6d be 90 e9 50 3f 0b 45 9c bf
       -1.5099815 -0.23159954 0.8160639 -1.220857

dist.fc_logstd.bias f4 [4]
000000 22 dd 5b bf 05 74 93 bf 86 2f 97 bf f0 3e 0e bf
       -0.85884297 -1.1519781 -1.1811378 -0.55564785

exp_avg f4 [128, 15]
000000 b8 60 b9 3c 9d 1e 7f 3d bf 4f c2 3d 20 2c 70 3d
       0.022629127 0.062285054 0.094878666 0.05863583
000010 8b 9e f6 bc 65 77 8f bd b5 51 1c bd 22 62 88 bd
       -0.030104896 -0.070051946 -0.03816386 -0.06659342
000020 82 97 7c 3d a8 2d 06 bd 26 95 58 bd 5b e4 1d 3e
       0.061667927 -0.032758385 -0.052876614 0.15419142
000030 00 00 00 00 00 00 00 00 1f 07 c7 3d 60 54 cd 3d
       0.0 0.0 0.09718155 0.10025859
000040 e0 ef d2 3e 32 a4 ad 3d 80 56 a9 bc f6 94 40 3d
       0.41198635 0.084785834 -0.02067113 0.04701706
000050 c4 aa 2c 3c e3 26 2a 3c 49 4d ba bc 21 81 d3 3d
       0.010538761 0.010385248 -0.02274193 0.10327364
000060 83 a7 54 39 38 38 f0 bb f1 f9 79 be 00 00 00 00
       0.00020280298 -0.0073309205 -0.24411751 0.0
000070 00 00 00 00 a1 39 95 bc 09 4e 24 be cc 07 83 3c
       0.0 -0.018215956 -0.16045393 0.015994929
000080 2a be 09 3f 06 dd 4e 3d 03 25 ba 3d 57 0c 23 be
       0.5380579 0.050503753 0.09089091 -0.15922676
000090 8a b9 77 bc 10 f0 db bd 8e 48 53 be 97 1f 7e bc
       -0.01511992 -0.10739148 -0.20633146 -0.015510461
0000a0 f2 45 fb bd 36 4a 81 bd 00 00 00 00 00 00 00 00
       -0.122692004 -0.06312983 0.0 0.0
0000b0 3e ea 84 3f 63 9c 51 3d a2 a4 1f 3d af dd 21 bc
       1.0383985 0.051174533 0.038975365 -0.009879514
0000c0 95 7e ec bb 3d b2 c4 3c 7b 5c 19 3c e2 61 c4 3b
       -0.007217238 0.024010772 0.009360428 0.005993114
0000d0 12 0e 1e 3d 6d 5e 9c bc 60 ce c5 bb 81 7b a3 3c
       0.038587637 -0.019087994 -0.0060365647 0.019956352
0000e0 fa c2 3c ba 00 00 00 00 00 00 00 00 80 72 f2 3c
       -0.00072006846 0.0 0.0 0.029595613
0000f0 48 8f 96 bd a5 a0 be 3d 4f 29 4d 3e 4e 93 ab 3d
       -0.073515475 0.09307984 0.20035289 0.083777055
000100 8c 9b 58 3e 16 e4 03 bd ea fd a1 bb 6f a2 02 be
       0.21153086 -0.03219994 -0.004943599 -0.12757276
000110 67 75 ab bd 36 e1 01 3d 9d d3 a5 3c ca 81 f6 bd
       -0.08372002 0.03170892 0.020242507 -0.12036474
000120 00 00 00 00 00 00 00 00 e3 3c 11 3e 79 1f b6 3d
       0.0 0.0 0.14183383 0.08892722
000130 54 58 cc bd e1 37 1b bd 4a 2d 4b 3d 1c 5a 99 3d
       -0.09977785 -0.037895087 0.049603738 0.0748789
000140 82 b1 19 bd f9 e2 b2 3c 9e c2 20 bd e7 f5 23 bb
       -0.0375228 0.021836745 -0.0392481 -0.0025018395
000150 76 90 b5 3c 91 8b 61 bd 97 3f 1e 3e 00 00 00 00
       0.02216361 -0.05506474 0.15453945 0.0
000160 00 00 00 00 89 7f c6 3d 6d 45 40 3d 85 db 1f 3e
       0.0 0.09692294 0.04694121 0.15611084
000170 93 c5 b2 bd 11 87 ef bd 3f 9e 7f bd 39 b9 5d 3d
       -0.087290905 -0.11695684 -0.062406775 0.05413172
000180 f8 dc 20 bd c7 6f 95 3d 00 55 03 3e f0 9b 95 bc
       -0.039273232 0.072967105 0.12825394 -0.018262833
000190 42 57 ba bc b1 d3 16 bd 00 00 00 00 00 00 00 00
       -0.022746686 -0.03682298 0.0 0.0
0001a0 30 8b 99 bd 9f e6 04 3c 9f fa 32 3e 3f e6 89 bf
       -0.07497251 0.008111625 0.17478417 -1.077339
0001b0 30 89 d2 be cb 84 57 3e 0d 33 02 3f 99 f8 10 3e
       -0.4112029 0.2104675 0.5085915 0.14157332
0001c0 39 58 46 3e f6 c8 f5 bc ba 48 0f 3e b6 02 fc 3d
       0.19369592 -0.030003052 0.13992587 0.123052046
0001d0 25 7b b4 3e 00 00 00 00 00 00 00 00 8b 71 11 c0
       0.35250202 0.0 0.0 -2.272555
0001e0 e7 23 b4 be 3e 0d 4e bf 24 23 ec bd ee 94 83 be
       -0.3518364 -0.80488956 -0.1153014 -0.25699562
0001f0 8d f2 c5 3d 3d 60 05 be c3 72 de 3d 80 37 30 3f
       0.096654035 -0.13024993 0.10861733 0.68834686
000200 cc e6 5f 3d a8 c5 c6 bb cd d0 74 3e 07 4b b7 be
       0.054663464 -0.006066043 0.23907776 -0.3579943
000210 00 00 00 00 00 00 00 00 60 80 55 3e 7a b6 12 bd
       0.0 0.0 0.20849752 -0.035818554
000220 ff d8 34 bd c2 c9 1c 3a 68 7d ae bc 14 92 0e 3c
       -0.044152256 0.0005980992 -0.021300033 0.00870182
000230 31 a0 71 bc ec ce 5f 3c 81 72 21 3d 1a d6 58 3c
       -0.014747665 0.013660174 0.03941584 0.01323464
000240 0e 57 04 bc aa 5f 56 3c d8 23 c4 bc 00 00 00 00
       -0.008077396 0.0130843315 -0.023942873 0.0
000250 00 00 00 00 8a e0 ce 3c 77 91 46 bc a2 5e b2 bd
       0.0 0.025253553 -0.012119642 -0.08709456
000260 56 b1 2b 3e 6a 57 53 3c 6e 67 cf bd 7c 65 d7 bd
       0.16766867 0.012899259 -0.101271495 -0.105174035
000270 10 e3 f2 bc 19 f3 a8 3b 61 08 f7 bd 0c 24 24 be
       -0.029649287 0.0051559326 -0.12062145 -0.16029376
000280 49 78 ef bc d7 ef 9f 3e 00 00 00 00 00 00 00 00
       -0.029232161 0.3123767 0.0 0.0
000290 65 8c 2a bd 43 20 ff bd ec e1 27 bd 0c 30 5e be
       -0.041637797 -0.12457325 -0.04098694 -0.21698016
0002a0 1f 9c 12 3d d9 de 36 bc f8 7b 04 3d ce d1 09 3d
       0.03579342 -0.011161529 0.03234479 0.03364735
0002b0 38 af 46 bd 2f 18 42 bd 5c 46 97 bd 5d c9 33 bd
       -0.048506945 -0.047386345 -0.07386467 -0.043893207
0002c0 09 83 21 3e 00 00 00 00 00 00 00 00 dc 2e 6f be
       0.15772642 0.0 0.0 -0.23357719
0002d0 04 00 00 80 04 00 00 80 04 00 00 00 04 00 00 80
       -6e-45 -6e-45 6e-45 -6e-45
0002e0 04 00 00 00 04 00 00 80 04 00 00 00 04 00 00 80
       6e-45 -6e-45 6e-45 -6e-45
0002f0 04 00 00 00 04 00 00 80 04 00 00 00 04 00 00 00
       6e-45 -6e-45 6e-45 6e-45
000300 00 00 00 00 00 00 00 00 04 00 00 80 b3 63 84 3e
       0.0 0.0 -6e-45 0.25857314
000310 bc ec dc 3e 6d 68 27 3f ee 18 ae 3e e9 ce 03 bd
       0.43149364 0.65393716 0.34003395 -0.032179747
000320 c0 94 77 be 5d e2 1a be 61 aa e2 be 8c 20 a1 3e
       -0.24177837 -0.15125413 -0.44270614 0.31470144
000330 3e ca 6b bd cb 89 45 bd a6 f7 97 3e 00 00 00 00
       -0.05756592 -0.048227113 0.29681128 0.0
000340 00 00 00 00 fc ac a2 3f 4b a5 3b 3e 10 01 0a 3e
       0.0 1.2709041 0.18324773 0.13476968
000350 9e bd 74 3d 74 ec 9d bb e5 90 cc 3b df 0e 8a 3c
       0.059751146 -0.004819447 0.0062428587 0.016852794
000360 ff 20 f6 b9 73 40 e7 3c 6f df 3e bd 45 aa c4 bc
       -0.0004694536 0.028228974 -0.0465998 -0.024006972
000370 89 1c 07 3d 80 70 aa 3d 00 00 00 00 00 00 00 00
       0.032986198 0.08322239 0.0 0.0
000380 87 92 58 bc a5 11 b3 3d 07 2d c3 3d 16 f6 e8 bd
       -0.013218529 0.087436 0.09530073 -0.11375062
000390 bf ca a4 bd ad 60 b0 bd 01 bb 8f 3d e5 07 15 3c
       -0.08046483 -0.086121894 0.0701809 0.0090961205
0003a0 2f 05 06 3d 0b 66 89 3e 6f 5d a2 bc d7 57 61 bd
       0.032719787 0.26835665 -0.019819943 -0.05501541
0003b0 35 5b 2b 3d 00 00 00 00 00 00 00 00 65 76 cf be
       0.04183503 0.0 0.0 -0.40520015
0003c0 e4 3c e3 bd bc f3 6a be 3d 9a 2f 3d c3 2d 1a bb
       -0.11095598 -0.2294454 0.042871702 -0.0023525811
0003d0 ac 38 5d bd e4 ef 2e bd 1d ae 71 bc d2 8b cc 3d
       -0.054009125 -0.042709246 -0.0147509845 0.09987606
0003e0 19 91 4d 3e 33 1e 83 bd 90 81 83 3c 9e 6e d8 3d
       0.20074882 -0.064022444 0.016052991 0.105679736
0003f0 00 00 00 00 00 00 00 00 9c c2 59 3e 21 3f d2 3d
       0.0 0.0 0.21265644 0.10265947

exp_avg_sq f4 [128, 15]
000000 7a 60 a7 3f 13 ca cf 40 aa 8f 11 42 9d 3c d4 40
       1.3076317 6.4934173 36.390297 6.632399
000010 9d 63 14 41 1f 14 51 41 1a 9f 75 40 45 1e c0 40
       9.27432 13.067412 3.8378358 6.003695
000020 a3 67 b8 40 00 34 cb 3f 97 7c a1 41 cd 5c 65 41
       5.762651 1.5875244 20.185835 14.335156
000030 00 00 00 00 00 00 00 00 df 71 7b 42 4f e8 ba 40
       0.0 0.0 62.861202 5.840858
000040 c3 43 37 41 7f 48 99 3f dd 61 28 40 71 fa 06 40
       11.454043 1.1975249 2.630973 2.1090357
000050 79 87 5c 3f 62 3d eb 3e b9 e3 cb 3f 53 80 70 40
       0.86144215 0.4594527 1.592887 3.7578323
000060 3b 95 c3 3e 43 f1 1b 3f 28 ec a6 3f 00 00 00 00
       0.3819979 0.6091501 1.3040819 0.0
000070 00 00 00 00 6a b0 bd 40 ad 3c 0d 40 48 e4 a0 40
       0.0 5.927785 2.2068284 5.0278664
000080 38 2a 81 41 c3 e8 94 41 c7 ca 0d 41 3b 4f b9 40
       16.145615 18.613653 8.862006 5.7909217
000090 ab be c3 40 61 93 49 41 08 16 93 40 71 f0 0a 40
       6.117025 12.598481 4.5964394 2.1709254
0000a0 14 91 58 40 d0 89 3a 40 00 00 00 00 00 00 00 00
       3.3838549 2.9146614 0.0 0.0
0000b0 3d 43 1e 42 cd a0 de 40 49 08 02 41 02 0e 58 3f
       39.565662 6.957129 8.127023 0.84396374
0000c0 13 55 8f 42 4e af ff 40 d2 29 f5 41 6e 6b f2 41
       71.66616 7.9901495 30.64542 30.302456
0000d0 f9 65 3b 42 98 23 78 3f ad e9 19 3f 54 cf 0d 41
       46.849583 0.9692931 0.60122186 8.863117
0000e0 19 d2 7b 40 00 00 00 00 00 00 00 00 5e 3c d6 40
       3.9346983 0.0 0.0 6.694869
0000f0 04 65 81 41 6e 35 39 42 90 0e 8b 41 5b 05 ba 41
       16.174324 46.302177 17.38211 23.252615
000100 36 b5 ab 41 85 7a a8 41 d2 86 43 41 85 0c 87 41
       21.463482 21.059824 12.220415 16.881113
000110 00 82 16 42 d1 55 5a 40 12 7a 16 42 24 8a 01 42
       37.626953 3.4114878 37.61921 32.384903
000120 00 00 00 00 00 00 00 00 7e 2b 68 42 2d a5 eb 3f
       0.0 0.0 58.042473 1.8409783
000130 80 c7 12 41 75 9a 53 40 0d f9 24 41 01 73 58 41
       9.173706 3.3063023 10.310803 13.528077
000140 08 41 ae 40 44 f4 da 40 af ae 00 41 32 d3 f2 40
       5.4454384 6.8423176 8.042647 7.5882807
000150 e0 c2 81 40 1c d3 de 41 d3 1b 9e 41 00 00 00 00
       4.0550385 27.85308 19.763586 0.0
000160 00 00 00 00 38 c8 d3 40 cf b3 a3 40 a8 e7 d6 40
       0.0 6.618191 5.1156993 6.7157784
000170 ac cf 19 40 72 5e 6d 41 90 1b 9a 40 1e 13 bb 40
       2.4033003 14.835558 4.8158646 5.8460836
000180 75 15 95 40 50 ac 78 41 28 c4 a1 40 01 2f 63 3f
       4.6588693 15.5420685 5.055195 0.887436
000190 9b d5 27 40 02 d4 a6 40 00 00 00 00 00 00 00 00
       2.6224124 5.21338 0.0 0.0
0001a0 e4 fd 89 41 4e 9f 0d 42 0b 4c 24 42 5d 72 64 42
       17.24897 35.40557 41.07426 57.111683
0001b0 b5 f2 f1 42 d9 09 8e 42 a6 61 53 42 a8 31 1c 42
       120.97404 71.01923 52.84536 39.048492
0001c0 91 0d 0f 43 70 f1 ef 41 4b d3 d1 40 61 da aa 42
       143.053 29.99289 6.5570426 85.42652
0001d0 9f 5e d2 42 00 00 00 00 00 00 00 00 29 37 66 43
       105.18481 0.0 0.0 230.21547
0001e0 2f 88 61 40 ba 2d 89 42 f7 90 50 41 37 6d 91 42
       3.523937 68.58931 13.035392 72.71331
0001f0 72 ee da 42 a3 9b 13 42 a0 39 4d 42 11 c3 72 42
       109.46571 36.90199 51.306274 60.690495
000200 0f e7 6b 42 b2 38 96 41 ac 31 69 43 69 77 21 43
       58.975643 18.777683 233.19403 161.46645
000210 00 00 00 00 00 00 00 00 f7 be d5 41 c8 5e 03 3e
       0.0 0.0 26.718245 0.12829125
000220 82 ea 2c 3e c7 dd 51 3e d0 b7 92 41 de 7f 03 40
       0.16886333 0.20494758 18.339752 2.0546794
000230 27 32 ff 40 f3 03 00 41 29 1b 37 41 72 ef 05 3e
       7.974872 8.000964 11.444131 0.13079622
000240 88 ea 04 3e 5a c3 0a 40 46 3e 84 3f 00 00 00 00
       0.12980092 2.1681733 1.0331504 0.0
000250 00 00 00 00 0a c1 b9 3f 22 e0 64 40 a4 fa 58 40
       0.0 1.4512036 3.57618 3.390298
000260 be e8 59 41 9b 1f b1 41 49 2b 6a 40 f9 13 50 41
       13.619322 22.140432 3.658892 13.004876
000270 b5 87 11 41 df 9b 66 41 ec 60 10 40 c6 dc 91 3f
       9.095632 14.413054 2.2559156 1.13955
000280 ce a9 53 40 e5 93 36 41 00 00 00 00 00 00 00 00
       3.307239 11.411107 0.0 0.0
000290 90 23 c9 41 69 d5 e8 40 3c 6e 46 42 12 3c dc 42
       25.142365 7.276051 49.60765 110.117325
0002a0 69 12 c7 41 c2 51 2c 42 8d fe 2f 42 cc dd 8b 41
       24.88399 43.07984 43.998585 17.4833
0002b0 41 06 b0 41 27 9e 0d 42 82 57 e3 40 33 a0 bb 42
       22.003054 35.404446 7.104432 93.81289
0002c0 5a 49 88 42 00 00 00 00 00 00 00 00 51 65 43 43
       68.143265 0.0 0.0 195.39577
0002d0 a4 7f ed 18 fe 2c 9a 18 81 c3 2e 17 48 10 4e 17
       6.139195e-24 3.9853497e-24 5.6469193e-25 6.658274e-25
0002e0 c9 c1 13 18 55 70 4b 17 4b c3 fd 16 a7 d3 14 18
       1.9097141e-24 6.573462e-25 4.0997602e-25 1.9235409e-24
0002f0 ab 92 06 16 bb bd 3b 18 6d 7a bd 17 10 54 5b 16
       1.0870714e-25 2.4264973e-24 1.2244743e-24 1.7717205e-25
000300 00 00 00 00 00 00 00 00 60 91 89 17 31 41 0f 41
       0.0 0.0 8.890115e-25 8.953416
000310 fe a1 0a 41 37 46 4d 43 39 e6 2e 41 53 ae 1b 40
       8.664549 205.27428 10.931207 2.432515
000320 90 8e 6e 42 7e e9 5d 3f 8e d9 34 41 ed 98 ed 40
       59.63922 0.86684406 11.303114 7.4249177
000330 65 87 a4 3f aa 5c a7 40 5b 0b de 40 00 00 00 00
       1.2853819 5.2300615 6.938886 0.0
000340 00 00 00 00 9a 38 ba 43 a4 6f 4d 40 37 3e 45 41
       0.0 372.4422 3.209939 12.327689
000350 7f 16 49 40 98 4d 5a 41 63 47 8e 41 d9 29 c8 40
       3.141998 13.643944 17.784857 6.2551084
000360 87 1d ea 40 51 1d 73 41 34 61 27 41 0f 44 36 40
       7.3161044 15.194657 10.461231 2.847904
000370 d5 f8 0c 42 b3 eb cf 41 00 00 00 00 00 00 00 00
       35.243 25.990088 0.0 0.0
000380 2d 81 5a 41 9a c3 74 42 12 88 fd 42 9a 54 e5 40
       13.656537 61.191017 126.76576 7.1665773
000390 64 0e aa 41 01 86 cc 41 87 4f 36 41 95 05 f2 40
       21.257027 25.565432 11.394416 7.5631814
0003a0 5f 9e 7c 41 e6 a0 43 42 eb 6f 90 40 9d 2a 0d 42
       15.788665 48.907127 4.513662 35.291615
0003b0 7b 10 d5 41 00 00 00 00 00 00 00 00 b1 86 48 42
       26.633047 0.0 0.0 50.131535
0003c0 6b 03 8f 41 7c 79 26 42 1c 91 b7 41 d5 ec b0 41
       17.876669 41.618637 22.945854 22.11564
0003d0 d1 e4 4d 41 a2 c1 41 41 f2 fa 9b 40 40 56 f3 41
       12.868363 12.109774 4.874383 30.417114
0003e0 e7 e9 91 41 06 43 49 3f 24 ea 96 40 85 01 d7 41
       18.23921 0.78617895 4.7160816 26.875742
0003f0 00 00 00 00 00 00 00 00 1b cc 91 42 0f 0f 8b 41
       0.0 0.0 72.89864 17.382353
