ppo/models/behavioral_cloning_agents_lunar/bc0/ckpts/001747200.pt (torch_old, 385416 bytes, 26 tensors)

fc1.weight f4 [128, 9]
000000 99 86 b8 bd 68 54 ae 3e 75 5b f7 be 3f 83 14 bf
       -0.090100475 0.34048772 -0.48311964 -0.58012766
000010 d2 c8 55 3c 38 fe c5 3d 1f cc c0 bc 79 eb 84 3e
       0.013048368 0.09667629 -0.023534833 0.259609
000020 7c 10 f0 bd 98 b7 8d 3c 51 ac ff bd 8b 79 90 3d
       -0.11721894 0.017299458 -0.124840386 0.070544325
000030 be cf 9a be 41 6e 0a be 54 49 54 be 81 2c 92 3c
       -0.3023662 -0.13518621 -0.20731097 0.017843487
000040 2d 67 33 bd 99 89 9e 3e a0 2d 24 bd 47 64 97 bd
       -0.043799568 0.30964354 -0.040082574 -0.07392173
000050 50 d9 9b 3d 20 8b 7c 3e 4b d8 52 be a0 c3 cd 3e
       0.076098084 0.24662447 -0.20590322 0.40188313
000060 ac fc f1 bd 97 1f 0c bd e9 4c df 3d 0b 28 1f bf
       -0.118157715 -0.034209814 0.10903341 -0.62170476
000070 a3 63 a8 be 7e 18 09 be 9b 0d 24 be d8 45 f4 3d
       -0.32888517 -0.1338825 -0.16020815 0.11927384
000080 66 ce e1 bd d5 46 78 be 33 ba 9b be 59 a0 81 be
       -0.110256955 -0.2424577 -0.30415496 -0.25317648
000090 dc 25 8b be e2 ad 04 3f df 3b 9e 3d 68 6a 7f 3d
       -0.27177322 0.51827824 0.07726263 0.062357336
0000a0 00 4d 07 3f 39 52 79 be 88 69 46 bc 6e 5d c3 bd
       0.5285187 -0.24347772 -0.012110122 -0.09539305
0000b0 bc 30 aa be fc d4 98 be 32 4d d3 3d 49 27 36 3e
       -0.33240306 -0.29849994 0.10317458 0.17788424
0000c0 41 35 a5 3a d8 84 1f be 8f ff e4 3e a1 8c 5f 3e
       0.0012604372 -0.1557802 0.44726226 0.2183099
0000d0 4f 4e df bc 31 3a 62 bc b4 1e 04 3f 6e e4 64 bd
       -0.02725902 -0.013807819 0.5160935 -0.05588191
0000e0 5b de 02 3e 31 89 93 be 5a 9d 55 bf 84 13 92 be
       0.12780134 -0.28815606 -0.83443224 -0.28530514
0000f0 39 40 81 bc 72 a5 f9 3d eb 73 14 bf f3 e9 96 3e
       -0.015777694 0.12189759 -0.57989377 0.29475364
000100 b8 91 b0 3e fd 7b b5 bd ed f3 9e be 55 01 5f 3e
       0.34486175 -0.088615395 -0.31045476 0.21777852
000110 b8 17 e6 3e 3e 3e 4a 3e 14 1c 73 be e9 a5 c0 bd
       0.4493997 0.19750306 -0.2374118 -0.09406645
000120 c8 99 65 3e 21 c6 a2 3e a4 57 a9 3e 3e f1 b8 3e
       0.22421944 0.31791785 0.33074677 0.36121553
000130 ea ab 47 3e d3 71 21 bf 8c 22 0a 3d a6 22 8b be
       0.19499174 -0.63064307 0.033724353 -0.27174872
000140 1d a1 73 be 50 30 ae 3e 73 5f 12 3f 85 e6 12 bf
       -0.23791929 0.34021235 0.57176894 -0.57382995
000150 83 a0 2b be 3b 5d a1 be 7f b4 12 be 73 3a 2f be
       -0.16760449 -0.31516442 -0.14326666 -0.1711214
000160 41 40 0d 3e 5f d6 42 be b3 2d cd 3d 97 64 b8 3e
       0.13794042 -0.19027089 0.10018482 0.36014244
000170 bd ca 0c 3e df 97 b7 bd 49 f6 42 bf 8e 73 08 be
       0.13749214 -0.08964514 -0.7615705 -0.1332533
000180 bf 9e 4e 3e b5 c9 84 3b 2c 5d d6 be 90 1f da bc
       0.20177744 0.0040523657 -0.4186796 -0.026626378
000190 8e 2d 04 3d ba d5 00 3d d4 62 32 be 4f a7 96 bd
       0.032270007 0.031453826 -0.17420512 -0.0735613
0001a0 2b 56 d3 bc df 89 8b bd 2f e5 8d 3a 27 c8 a6 bd
       -0.025797924 -0.06813406 0.0010825748 -0.08143645
0001b0 9b 22 71 3d 77 7f 4d bc 75 70 dc bd 31 0f e7 3d
       0.058870893 -0.012542597 -0.10763637 0.112821944
0001c0 ac bb 01 bf e4 f0 4d 3f 70 0f 07 3e 1c c8 55 be
       -0.5067699 0.80445695 0.13189483 -0.20877117
0001d0 52 f6 a9 bb 6c 69 88 3d 64 2d d2 3d 19 23 e6 bd
       -0.0051868344 0.066607326 0.10262564 -0.11237163
0001e0 1e 33 94 3e 47 6f d0 3e 81 4b f8 be bf 8e 28 3e
       0.2894525 0.40709898 -0.48495105 0.16460703
0001f0 30 a4 23 be 29 65 fe be 3d a3 c1 bd cb 36 8d bd
       -0.15980601 -0.49686554 -0.09454963 -0.068952166
000200 8e 1f 17 3d 39 c3 bc be 48 b9 54 3d df 5d 81 3e
       0.036895327 -0.36867693 0.05193451 0.2526693
000210 6d b1 60 be 1c d1 04 be dd ae 65 3e 6a a5 fa bd
       -0.21942683 -0.12970394 0.22429986 -0.122385815
000220 d5 b0 0d bd 78 8e 69 3b cc 0b 23 3e 0e d6 e4 3e
       -0.03459247 0.0035637897 0.15922469 0.4469456
000230 3b c2 f2 3e 42 cd 27 3d 1c 08 db 3d 4e 04 01 3e
       0.4741381 0.040967233 0.10694906 0.12599298
000240 6c 07 a6 be 27 be ec bb b8 b7 94 3e d4 96 0f 3d
       -0.32427537 -0.0072248164 0.29046416 0.03505595
000250 1a 40 12 bf 8b e8 d9 be e6 06 b3 be a2 9e 65 be
       -0.5712906 -0.4256023 -0.349662 -0.22423795
000260 2f c9 02 be c0 10 98 3e 24 05 d3 3d 38 33 9c be
       -0.12772058 0.2970028 0.10303715 -0.30507827
000270 64 13 92 3e e5 9b d4 be c3 a8 89 bd d9 5c 4b be
       0.2853042 -0.41525188 -0.06721642 -0.19859637
000280 bd 30 e9 bd d6 aa e8 3b 20 ba 8f be 9d af ea be
       -0.11386249 0.0071004434 -0.2807169 -0.45837107
000290 5f bd 14 be a2 fb 21 be 05 eb fd bd 1d de a9 3e
       -0.14525364 -0.15818647 -0.12398342 0.3317727
0002a0 cd 2d c9 be 8b 92 25 3d fc c0 a3 3e 96 3e 07 be
       -0.39292756 0.040422957 0.31983173 -0.13207468
0002b0 e2 5b b9 3e b3 03 41 3d d7 17 9f be 1e d9 d2 3e
       0.36202914 0.04712267 -0.31072876 0.41181272
0002c0 85 40 4a be 98 bf 19 be 07 67 17 3e 18 10 9a be
       -0.19751175 -0.15014493 0.14785396 -0.30090404
0002d0 c6 c5 8c bd 1c ad 66 bd f0 cd 11 3f 5c 16 92 bd
       -0.0687366 -0.056317434 0.5695486 -0.07133171
0002e0 80 ef 11 3e 35 a1 00 3e 61 e7 b6 3b ba ea 25 3c
       0.14251518 0.12561496 0.0055817817 0.010126764
0002f0 c3 a5 2f bf 6e 64 0b 3c 97 67 08 3f f8 2b d9 3e
       -0.6861231 0.008507831 0.53283066 0.42416358
000300 7a d4 11 bf b4 19 0f 3e 3a 33 f1 be 69 9e a8 bc
       -0.5696484 0.13974649 -0.47109395 -0.020583348
000310 e2 e5 ea bd 04 a3 1c 3c db 9c 1b be 46 db c3 3c
       -0.11469628 0.00956035 -0.15196554 0.023908269
000320 0c 70 0b be 9c 0b 8a 3c cc 6a 75 bf c5 45 ff be
       -0.13616961 0.016851239 -0.95866084 -0.49857917
000330 4f fe 67 be 49 41 95 3e 9e 97 35 bd 3a cb 73 3f
       -0.22655605 0.2915137 -0.044334047 0.95231974
000340 0f a5 40 3d 8f 24 13 be b3 dd 06 be c1 53 57 bf
       0.047032412 -0.14369415 -0.13170509 -0.84112173
000350 d1 2d 19 3f 79 a1 9f bd 36 64 a2 bc fd c3 1f 3d
       0.59835535 -0.0779447 -0.019823175 0.03900527
000360 c7 ef 9e be 13 1f 07 be ea aa 9c 3e f0 95 4c be
       -0.3104231 -0.13195448 0.30599147 -0.19979072
000370 14 33 88 be d7 89 17 3f db e8 78 3c 83 5a 11 bc
       -0.2660147 0.591947 0.015192236 -0.008871677
000380 6d 49 b2 be e6 d9 34 3e 68 fe c5 be 50 3c a4 bd
       -0.34821644 0.17661247 -0.3867066 -0.08019316
000390 3a 2b bf bd c6 cc de bd 6c 6e 53 3e 71 80 87 3c
       -0.09334417 -0.10878901 0.20647591 0.016540738
0003a0 70 88 73 be 0b 8d 1b 3f 67 f7 e3 3e a4 ea 08 bf
       -0.23782516 0.6076209 0.4452469 -0.53483033
0003b0 4b 76 eb 3e bd d0 af be e0 c1 9e be 5e d9 ed bc
       0.45988688 -0.34338942 -0.3100729 -0.029034313
0003c0 cd 87 ca bd 6d 05 88 3d 2f d8 2f bf 9c 41 8d bc
       -0.09889183 0.0664166 -0.68689245 -0.017243199
0003d0 e4 28 88 3e d1 06 1e bf dd a1 7b 3e 71 ec fa be
       0.26593697 -0.6172915 0.24573465 -0.49008515
0003e0 55 2a 93 3e 3c 12 b9 3c c4 fd ae be ca d4 22 3c
       0.28743234 0.022591703 -0.34177983 0.009938428
0003f0 f1 05 bf 3e 4c 52 45 be fd 04 d0 be 0a eb 52 be
       0.3730922 -0.19269675 -0.40628806 -0.20597473

fc1.bias f4 [128]
000000 19 29 c8 be e6 1c 24 be 56 fe f6 bd 8a df 18 bf
       -0.39093855 -0.16026649 -0.120602295 -0.59716094
000010 77 59 ba be c1 e6 e8 3d 7c db b9 be 86 b6 42 be
       -0.3639638 0.11372138 -0.36300266 -0.1901494
000020 71 e4 bd be e2 26 75 be 1f e9 b6 be 12 9f 9d bc
       -0.3708835 -0.23940614 -0.35724732 -0.01924089
000030 07 ae d7 3d c7 b3 1c bf 21 3c c2 bd d1 52 e2 3b
       0.1053124 -0.6121182 -0.09484125 0.006906845
000040 49 ec 8d be da 11 29 be 77 2c bd be 8a b6 8c 3d
       -0.27719334 -0.16510716 -0.36947986 0.06870754
000050 41 f2 2e bf 74 b3 e8 be c6 3c 45 be 65 53 f5 bd
       -0.683384 -0.45449412 -0.19261464 -0.11978797
000060 37 9a 99 be c3 b3 1c bf 56 9d e4 be 6a 4a ac be
       -0.3000047 -0.61211795 -0.44651288 -0.33650523
000070 53 4d de bd 91 26 b3 be 5a a1 54 3e cc 17 6d bf
       -0.10854592 -0.3499036 0.20764676 -0.92614436
000080 c0 3e e4 be 04 ef ce be 39 fd 88 bd 59 ab ce 3d
       -0.44579124 -0.4041673 -0.066889234 0.10091276
000090 c0 97 95 3d 0e bd 3d be 29 95 24 be 3d 03 32 bd
       0.07304335 -0.1852915 -0.16072525 -0.04346012
0000a0 fe b7 64 be d2 c0 aa bd 30 75 38 bd 09 7c d4 be
       -0.22335812 -0.08337559 -0.045033634 -0.4150088
0000b0 0d 3e ab 3d c9 32 82 be 2f 65 54 bd e7 32 97 be
       0.083614446 -0.2542937 -0.05185431 -0.29531023
0000c0 90 60 12 3e f1 ed 59 3c d0 15 ff 3d 35 c0 0b bf
       0.14294648 0.013301359 0.12455332 -0.5459016
0000d0 d3 98 96 be f4 b1 1c bf fb d2 02 be 90 22 36 3d
       -0.2941347 -0.61209035 -0.12775795 0.044466555
0000e0 66 af 90 bd ef 4e c2 be 05 ef a0 be 7d 34 dd be
       -0.070647046 -0.37950847 -0.31432357 -0.43204108
0000f0 0c ed 9f bb a9 91 43 be af fb 61 bf 0d 4a ab be
       -0.004880553 -0.19098534 -0.88274664 -0.33454934
000100 59 5f 82 bd a3 70 87 bd 75 be c6 be f6 66 00 3e
       -0.06365842 -0.066132806 -0.38817182 0.12539276
000110 ab 05 2c 3d 7d 86 ff bc bc 84 f2 bd c3 c1 14 be
       0.041997593 -0.031192059 -0.11841723 -0.14527039
000120 39 8e 85 3c 01 65 8d 3c 93 4f c0 be ec 08 3d 3e
       0.016303169 0.017260076 -0.3756071 0.18460435
000130 f6 68 a5 bc 20 48 81 be 4c f4 8a be 2f 35 ed bc
       -0.02019165 -0.2525034 -0.2713951 -0.028956024
000140 fa 1d e6 be 7c c5 eb be 2b 05 bc 3c be da 28 bf
       -0.44944745 -0.46049106 0.022951683 -0.65958774
000150 f2 5b b0 be d9 3d db bd 56 bf 9b bd f0 3f f0 be
       -0.3444515 -0.10705156 -0.07604854 -0.4692378
000160 92 2d 8c be ab 60 18 3c bd 0d a0 bd 79 30 cc be
       -0.27378517 0.009300391 -0.0781512 -0.39880732
000170 27 15 3e bf 2d 4c 53 bf 13 5a 2f bf aa 8b 6c be
       -0.74251026 -0.8253811 -0.6849682 -0.23100153
000180 a8 2d 1c 3d 7d 0d 6c bc bb 13 f4 bd 8c b8 a2 3c
       0.03812948 -0.014407513 -0.11917826 0.01986339
000190 5a 95 2d 3e 4f bf 43 bf 48 9c 13 3d 70 a5 1f be
       0.16951504 -0.7646379 0.036037713 -0.15590453
0001a0 6c a1 09 3e 2f 2a 2e bf 4d 75 92 3d 94 62 a9 3e
       0.13440484 -0.6803312 0.071512796 0.33083022
0001b0 ed d1 0d bf 0c e9 83 3d 8e cc 51 bd 3c 2e 82 be
       -0.55398446 0.064409345 -0.05122047 -0.254259
0001c0 cd 44 58 bd 55 ad 17 be 0e ee 08 bd f4 db 51 3c
       -0.05279999 -0.14812215 -0.03343015 0.012808789
0001d0 30 e3 7e 3e c1 d6 43 3c ef 1d b8 be 03 03 b4 3d
       0.24891353 0.011953057 -0.35960338 0.08789637
0001e0 52 ee 37 bf 21 6c ac be 58 5f 31 be 44 2e 9a be
       -0.7184802 -0.33676246 -0.17321527 -0.30113423
0001f0 e3 70 91 3d 73 cd 48 bd 1d 24 07 3e c1 96 db 3d
       0.071016096 -0.049024057 0.1319737 0.107221134

fc2.weight f4 [128, 128]
000000 5f cc aa be 6a f5 6a 3d 09 60 ad 3d 76 f6 5a bd
       -0.33359048 0.05736295 0.08465583 -0.0534577
000010 ce 87 b8 bc e7 e5 99 bd e4 fc c0 bc 59 20 0c 3e
       -0.022525694 -0.075145535 -0.023558088 0.13684215
000020 52 ae a6 bc 9d 5d 78 be ba 69 9e 3d 6a a2 35 3e
       -0.020346794 -0.2425446 0.077350095 0.17737737
000030 d5 3d 6d 3e b8 71 d3 3d 6a 42 84 bd ac a6 32 bf
       0.23168118 0.103244245 -0.0645798 -0.6978557
000040 ea c9 09 bd e5 91 7e 3d f4 c3 28 be d7 d5 24 3e
       -0.033639826 0.062150855 -0.16481 0.16097198
000050 9f 0b 44 3d 95 2b 8b 3e eb b3 c5 bd 59 75 0c bf
       0.047862645 0.27181688 -0.09653457 -0.5486656
000060 74 c9 46 3e 8d b1 38 bd fc e6 82 be ed 2c fd 3d
       0.19412786 -0.0450912 -0.25566852 0.123620845
000070 5e 39 56 bd d6 69 ad 3b c7 12 9f 3e 78 c2 70 be
       -0.052300803 0.0052921576 0.31069013 -0.23511684
000080 59 8c 94 bd 05 c8 29 be 82 03 a8 bd 31 f3 74 3e
       -0.07253332 -0.16580208 -0.08203794 0.23920895
000090 1a 81 7e bd cc fe 63 bf a6 e1 0c bf a3 8b 76 be
       -0.06213484 -0.89060664 -0.5503181 -0.24076705
0000a0 0b 59 93 bd 18 64 36 be 2e 31 48 c0 00 97 1d 3e
       -0.07194718 -0.1781162 -3.1280017 0.15389633
0000b0 a6 b1 de bd 86 d3 49 bd 7b 01 02 be 51 aa 04 3e
       -0.108737275 -0.04927399 -0.12695877 0.12955596
0000c0 1a 30 2d 3e 54 cb 1b 3c 1d ec 5c be d9 cb 81 3d
       0.1691288 0.009508926 -0.21574445 0.06337709
0000d0 98 e8 f9 bd 33 f2 d1 3b ac 5f a6 be 9f ae b7 bc
       -0.12202567 0.006407046 -0.32494867 -0.022422133
0000e0 7c 1b 03 3e 25 52 9e 3e 49 0c 82 bd 19 78 12 3d
       0.12803453 0.30922046 -0.063499995 0.035759065
0000f0 d7 cc d9 3d 53 ff 41 3e 6e 17 de bf af dc 9f 3e
       0.10634773 0.18945055 -1.73509 0.31223056
000100 72 af 03 3e 29 65 f1 3d 4d 3b 7a be f3 63 10 3e
       0.12859896 0.11786873 -0.24436684 0.14100628
000110 20 56 ea 3d 32 58 8e bc a4 f7 f6 be 05 6a 3a 3e
       0.11442208 -0.01737604 -0.4823581 0.18204506
000120 98 88 fb 3b cd 43 32 3e 87 2d 8d bd 28 bd 42 bf
       0.0076761954 0.17408676 -0.06893449 -0.7606988
000130 1d 7b c3 be 06 f8 92 3b ae f7 82 3d 19 0f 22 3e
       -0.38179865 0.004485133 0.063948974 0.15826072
000140 26 e8 9b 3e 51 4e 12 bd ad 91 10 be a7 52 a2 bc
       0.30450553 -0.03571922 -0.14118071 -0.019814802
000150 65 5c 54 bd 51 7b 4d bd e1 fd 95 3d a9 f5 f5 bd
       -0.051845927 -0.05016643 0.07323814 -0.120097466
000160 99 e4 04 3e eb 3c b6 3e 99 63 70 be 2f d2 5a 3e
       0.12977828 0.35593352 -0.23475493 0.21369241
000170 c7 f3 04 be 8b fb a4 be cf 4c 57 bf 95 a8 25 bd
       -0.12983619 -0.32223162 -0.84101576 -0.040443975
000180 ec 16 32 3e 2b f4 91 bd 63 1b 6e 3c b2 10 2b be
       0.17391557 -0.071266495 0.014532897 -0.16705588
000190 c1 3b e6 be 05 eb fa bd d5 a2 55 3d 29 6c 66 be
       -0.44967464 -0.12251858 0.05215724 -0.22502197
0001a0 97 45 22 3e ec 01 31 3e 3b 82 7e be a3 fd 53 3d
       0.15846859 0.1728589 -0.24854366 0.05175556
0001b0 c4 2a cd be 02 e7 29 3e 93 71 89 3e a5 57 75 3e
       -0.4007169 0.16592029 0.26844463 0.23959215
0001c0 ca 80 23 be 8b 3b 58 3d 0e 2b e8 bc ee b6 29 bb
       -0.15967098 0.05279116 -0.028340843 -0.0025896388
0001d0 0a 7a de 3d 08 3a a0 bd 8a 6c f7 3c f5 b4 3c 3c
       0.10863121 -0.078235686 0.030203123 0.011517753
0001e0 61 c2 86 be 4a 48 f6 3d 73 16 40 be f8 17 ee 3d
       -0.26320174 0.12025507 -0.18758564 0.116256654
0001f0 83 b3 31 3e ce e9 14 3e 76 d2 3e bd c4 51 00 3e
       0.17353635 0.14542314 -0.04658743 0.12531191
000200 8c ec 1d 3e 7b 68 92 bd 28 15 03 bc 5e 4e 9f 3c
       0.15422267 -0.07148834 -0.0080006495 0.019446548
000210 46 15 ae 3e 03 0f dc 3e 75 00 2e be 1e cc 44 be
       0.34000605 0.42980203 -0.16992362 -0.1921849
000220 83 18 91 3e 4e ef f7 bd 8b b4 56 be 3c 4a 8d 3d
       0.28339013 -0.121061906 -0.20967309 0.06898925
000230 8f b1 78 3e 2e 96 42 3f 36 ec a6 3d 0a 51 37 3d
       0.24286483 0.76010406 0.081505224 0.04475502
000240 2d 3a 23 3e 69 db 24 bd 75 a6 46 be 2e c0 cd bd
       0.15940161 -0.04024831 -0.19399436 -0.10046421
000250 7d 6e 58 be e2 ae c4 3d c2 ce 17 3e 7f 4f 07 bf
       -0.21135898 0.09603669 0.14824966 -0.52855676
000260 d6 cf 66 bd 5d f5 8f be a6 bf c7 3c 1f 92 d0 bc
       -0.05635055 -0.28116885 0.024383377 -0.025460301
000270 62 bc 28 bf a0 5f 9a 3d 56 ad 57 be 61 e0 26 3e
       -0.6591245 0.0753777 -0.21062216 0.16296531
000280 c0 8d 23 bf 20 a4 39 bf 90 d8 b9 bc f8 30 a0 bc
       -0.6388817 -0.7251606 -0.022686273 -0.0195546
000290 bd 46 56 3c 8b 0d 7b bd 35 9f 81 be 7c 94 b8 3d
       0.013078389 -0.061292212 -0.25316778 0.09012696
0002a0 a6 f5 1f be 68 b7 0a 3d 55 13 87 3e ad b9 99 3e
       -0.15621051 0.033866316 0.26381937 0.30024472
0002b0 f3 43 3c 3e b2 11 23 3e 2e ab 2b 3d 7a ac 23 3f
       0.18385296 0.15924719 0.041911297 0.63935053
0002c0 43 54 62 bd 1f 60 a5 3d dc c3 65 bd df 4b 64 bf
       -0.05525614 0.08074974 -0.05609499 -0.8917827
0002d0 28 22 89 be f6 7d a6 be d7 ad 01 3e 68 1d 83 bd
       -0.26783872 -0.32517976 0.12663971 -0.06402093
0002e0 66 b1 0a bf ab d0 21 be 8d 84 81 3e f6 5a 5c 3e
       -0.5417694 -0.15802257 0.2529644 0.21519074
0002f0 65 bc f0 3e 38 fc 4b c0 05 6c 23 bc 41 43 78 3e
       0.47018734 -3.1872692 -0.009974484 0.24244405
000300 09 c6 a4 3e 36 1d f3 3d ba 6d 2b be f8 f9 5d bf
       0.3218234 0.11870806 -0.16741076 -0.8670955
000310 d1 00 69 bd 19 8d a8 3e e2 31 22 3d 18 c8 5c 3c
       -0.056885544 0.3292015 0.039598353 0.01347544
000320 c8 5c 0a 3e 51 76 27 3e da 98 0a bd 03 38 f1 3d
       0.13511956 0.16353728 -0.033837177 0.117782615
000330 41 7b 96 3e a0 6e d6 bd 03 3e 71 3e 62 f8 6e be
       0.2939091 -0.10470319 0.23558812 -0.23336938
000340 95 c5 08 3e ca dd 2d 3f 18 f4 d6 3d 12 03 41 3e
       0.13356622 0.6791655 0.10495776 0.18848827
000350 4d 91 c5 bc d2 6d 9c be f3 dd 4f 3e fa 94 94 bf
       -0.024117136 -0.30552536 0.2029951 -1.1607964
000360 b1 88 9d be fa 61 98 bd a5 eb 4b 3e ab 60 4b be
       -0.3076835 -0.074405625 0.1991411 -0.19861095
000370 9b 69 7e be 41 e9 e8 be 99 b0 ad bd 24 54 8a be
       -0.24844973 -0.4549046 -0.08480949 -0.2701732
000380 56 0f f7 be f4 16 bc bd b7 a0 3e ba be 7a 60 3d
       -0.48253888 -0.091840655 -0.0007271873 0.054804556
000390 af a1 74 3d b7 32 ef bd 23 08 8b bd 53 77 87 be
       0.059724506 -0.11679595 -0.06788661 -0.26458225
0003a0 b0 04 bb bd 54 b3 a5 3d 96 66 13 bd 21 34 d4 bd
       -0.091317534 0.08090845 -0.035986505 -0.10361505
0003b0 b0 d8 ba be f4 a8 8b be 1a 59 cb bd c9 70 9d be
       -0.36493444 -0.27277339 -0.09929104 -0.3075011
0003c0 77 08 92 3d 74 99 e0 3e f3 ee 1f be 36 5b 6a 3e
       0.07130521 0.43867075 -0.15618496 0.22886357
0003d0 dc 23 02 3e 9b 58 8d 3e f4 71 8b 3e 83 02 6e bd
       0.12708992 0.27606663 0.27235377 -0.058107864
0003e0 41 34 40 bf ef ca 7a be c1 46 eb bd 33 43 27 bf
       -0.75079733 -0.24491476 -0.114881046 -0.6533691
0003f0 c3 0e bf be f8 64 9a be ff 5f 72 be 5f ef 4e bd
       -0.3731595 -0.30155158 -0.23669432 -0.05052125

fc2.bias f4 [128]
000000 28 8d 3a 3e f1 00 60 3e 52 a9 2a be 23 31 23 bd
       0.1821791 0.21875359 -0.16666153 -0.039841782
000010 91 6c 57 bd 5d 6b b8 3d 16 83 44 3e 26 97 ae 3d
       -0.05259377 0.09004853 0.1919063 0.08524923
000020 a2 ee 38 3d c5 90 a5 bd ec 0b 3b bd 57 15 46 3b
       0.045149453 -0.08084253 -0.045665666 0.0030225122
000030 48 38 af 3d dd b1 04 bd d3 e0 d5 bd 8d a4 a6 3e
       0.08555657 -0.032396186 -0.104432724 0.32547417
000040 5d 90 4f bd d2 37 76 3c a2 7b 00 3e e0 8d fe bd
       -0.050674785 0.015027957 0.12547162 -0.12429404
000050 85 4b 12 bd 5c 73 f9 bd fe c1 9f 3d 21 a4 07 3d
       -0.035716552 -0.12180206 0.07800673 0.03311551
000060 90 e8 5b 3d 1e 40 f8 3c 40 04 d7 bc c4 c1 22 3e
       0.053688586 0.030304011 -0.026247144 0.15894228
000070 3d 1e 6d bb 08 cb 36 3e ee 7e d4 bd 81 e7 ac 3d
       -0.0036181353 0.17850888 -0.103757724 0.08442593
000080 07 c9 27 3d 24 a8 ca 3d ec b3 00 3e 94 73 75 3d
       0.0409632 0.098953515 0.12568635 0.059924677
000090 92 05 a9 bd 81 15 0d 3e ff da 3e 3d f7 1f 6a bd
       -0.082530156 0.13777734 0.04659557 -0.05715939
0000a0 19 5d 8f 3d 3c 39 e0 3d aa 93 23 3e c0 39 00 be
       0.07000179 0.109484166 0.15974298 -0.1252203
0000b0 a2 e7 3f 3d 15 f7 17 3e b7 dc f5 3d 6b 25 fb bc
       0.04685176 0.14840348 0.12004989 -0.03065749
0000c0 0a 45 3d 3e 34 92 03 be b1 50 22 3e 8a f8 2e 3d
       0.18483368 -0.12848741 0.15851094 0.042717494
0000d0 b1 57 55 3e 25 28 94 3d b3 ed 20 3e d9 cb 1f 3e
       0.20834233 0.072342195 0.15715675 0.15605105
0000e0 5e 73 93 be b0 fb df 3c d4 4b 0b bb 80 f4 35 bd
       -0.28798956 0.027341694 -0.0021254914 -0.044422626
0000f0 f8 2f 61 3e 3b 6f 93 3c f0 e6 52 3a 8a 68 62 be
       0.21990955 0.017997375 0.00080452766 -0.22110191
000100 e1 40 14 3d 87 cd 83 3d db 6f fd 3d c2 32 f7 3d
       0.036194686 0.064356856 0.1237485 0.12070228
000110 60 a2 35 be cf 98 dc 3d d3 a4 3c 3e 31 78 30 3e
       -0.17737722 0.107713334 0.1842225 0.1723335
000120 b3 c5 55 be f7 b3 ef bd 3c 40 60 bd ea 4d 03 bd
       -0.20876198 -0.117042474 -0.05474876 -0.032056727
000130 7b a3 8d bd 55 67 85 3e 01 a9 79 3e 90 84 49 bc
       -0.06915947 0.260554 0.24380876 -0.012299672
000140 4f ab 6c bd 81 11 02 3c 84 f0 0d bc a8 12 31 bd
       -0.05778056 0.007938744 -0.0086633 -0.043230683
000150 29 a9 84 3e 0d d6 00 3e 39 24 f1 bd 35 e4 5e 3e
       0.2591031 0.12581654 -0.11774487 0.21766742
000160 2b 2d a4 3a 57 36 00 be 0b d5 90 3d b9 54 18 3e
       0.0012525668 -0.12520729 0.07071885 0.14876069
000170 0a 92 72 bd c1 7d 3e 3e 73 ba 15 3e 9a 8d b3 bd
       -0.059221305 0.18602659 0.14621906 -0.08767243
000180 ff d0 f3 bc 2f e7 df bd a3 0e d5 bd 78 d8 82 bd
       -0.029762743 -0.10932767 -0.10403182 -0.063889444
000190 b0 00 0d be 64 2d 9e 3d c6 85 05 3e 5f 13 93 3d
       -0.13769794 0.07723501 0.13039312 0.07181429
0001a0 ec 01 31 3e c9 b1 5c 3d dc 89 22 3e 01 3d dd be
       0.1728589 0.053880487 0.15872902 -0.43210605
0001b0 e2 fa 81 3c a6 18 4d 3e e9 48 e7 3c b3 17 50 3e
       0.0158667 0.20028934 0.028233008 0.2032154
0001c0 3d b9 9a 3d e7 3b 6d be ff d6 46 bd c9 1c 9b 3d
       0.07554863 -0.23167382 -0.04854488 0.0757385
0001d0 5e 5a e2 3c bc be 89 3d 2f 1d 1d ba 7e db 1b 3e
       0.027630981 0.06725833 -0.00059934234 0.15220448
0001e0 07 9c 30 be 45 36 89 be 4d b3 2b 3e 97 75 ad bd
       -0.1724702 -0.26799217 0.16767617 -0.08469694
0001f0 fa cf 35 3e bc af dc bd f4 09 c1 3d 6d ce 2a 3e
       0.17755118 -0.10775706 0.094257265 0.16680308

dist.fc_mean.weight f4 [2, 128]
000000 01 1e 3d be 3d 0a ed bd 68 1c cb bd d0 fd 01 3b
       -0.18468477 -0.115742184 -0.099175274 0.0019835122
000010 0b 2e 71 3e 96 46 61 3c 61 fd 8a 3d 0b 21 50 3f
       0.2355272 0.013749739 0.067866094 0.8130042
000020 d5 5e 6c bc fe e0 ef bb c5 50 6f bc 9e 2e e9 3d
       -0.014426907 -0.0073205223 -0.014606659 0.11385845
000030 08 6f b2 bc 41 d7 3e be 56 12 d1 3d e7 8d b6 3e
       -0.02178146 -0.186368 0.102085754 0.35655138
000040 02 a7 39 bd 50 b7 12 be d6 17 be 3d 1c a4 9a 3d
       -0.045325287 -0.1432774 0.0928189 0.07550833
000050 2d bb f3 3c 56 84 f4 bd 2a b7 b3 bd d5 9a 5b bc
       0.029752338 -0.119393036 -0.0877517 -0.013403614
000060 83 3f 2f be ee cd 5e be 34 06 74 3d 2e ae 98 bd
       -0.17114072 -0.21758243 0.05957623 -0.07455097
000070 53 84 b7 3d dc 8d 54 3d 50 fd f5 3d 26 85 ea 3b
       0.08960786 0.0518931 0.12011206 0.007156986
000080 2a a1 19 3e 86 69 ce bd c0 de f6 3e 3d 2b 81 3e
       0.15002885 -0.10078721 0.4821682 0.252283
000090 f6 68 80 3e 4b 30 02 3d 71 f6 f4 3d 2a 92 96 3d
       0.2508008 0.031784337 0.119610675 0.07352097
0000a0 d1 2b 7d be 07 d7 40 bd 12 81 08 3f e1 3b 1c bd
       -0.24723746 -0.047080066 0.53321946 -0.038143042
0000b0 b8 9b c5 bd 06 44 e2 bd 11 9b a6 3e c3 90 26 3c
       -0.096488416 -0.11048131 0.3254018 0.01016635
0000c0 2c c6 43 3f c5 77 85 3c 6b 53 82 3d e9 7e 9d 3d
       0.7647426 0.016292462 0.06363567 0.07690222
0000d0 a5 f8 ed 3c e7 db c9 bc 8b 49 ae 3e eb 61 10 3d
       0.029049227 -0.02464099 0.34040484 0.03524963
0000e0 51 9a e9 3c d5 86 bc bc f4 cb a0 3e 68 f1 40 3d
       0.028515967 -0.023013512 0.31405604 0.047105223
0000f0 a3 9a 00 3d af 98 ac bd da 40 5d bb d8 78 4c 3c
       0.031397473 -0.084275596 -0.0033760578 0.012479983
000100 18 e3 b4 3d 8f 83 91 bd 76 30 f6 bc 5f 0f 90 be
       0.08832377 -0.07105171 -0.030052405 -0.28136727
000110 e8 4d 84 3d 40 79 86 be 8b 70 33 3e 22 a6 04 3e
       0.06460172 -0.2626438 0.175234 0.12954
000120 64 a1 2a be ca 25 98 ba 85 6e 68 3e 50 6a 78 be
       -0.16663128 -0.0011607942 0.2269841 -0.24259305
000130 b2 61 81 bc f3 c3 80 3e a7 4d b3 bd db e1 07 3c
       -0.015793655 0.25149497 -0.087550454 0.008293594
000140 b6 a6 86 3c 09 87 19 bd 2e 6b b6 3d bf c1 01 be
       0.016436916 -0.037482295 0.08907162 -0.12671565
000150 ed 4c 2b 3e 30 d8 50 be 9d 80 2b 3b 88 20 8c 3e
       0.16728564 -0.20394969 0.0026169189 0.2736857
000160 23 71 3b 3d 5f 04 84 bc 0b bb ac bd 25 01 39 3d
       0.045762192 -0.016115366 -0.08434113 0.045167107
000170 15 15 47 bd 5e 43 16 3e 32 6a 0d 3e ab 8d e7 3c
       -0.04860409 0.14674136 0.13810042 0.028265795
000180 2f 6b 5a be be ab 1a 3e e3 be a2 be 77 03 4a bd
       -0.2132995 0.15104577 -0.3178626 -0.04931971
000190 f1 df ba 3c 2b 58 87 3e f4 5c 92 3e 44 27 b0 3c
       0.022811862 0.26434454 0.28586543 0.021503098
0001a0 67 a2 30 3b d5 fa 88 bc 48 df fb ba 71 90 91 bc
       0.0026952268 -0.016721169 -0.0019216323 -0.01776907
0001b0 bc 2b d2 bb 90 5c 41 3e 2c 57 eb bd 1a 46 0e 3e
       -0.006413905 0.18882966 -0.11491236 0.13893929
0001c0 0d 29 32 3d 26 20 a8 3c ae ef 89 bc e9 3c c7 be
       0.04349618 0.020523142 -0.016837921 -0.38913658
0001d0 79 f1 36 be c4 cc af 3d ca 43 42 3e 1c 63 eb ba
       -0.17865552 0.08583978 0.18971172 -0.0017958614
0001e0 10 2c c7 3b ec cf f3 bc 02 56 9a 3d 81 c6 74 bc
       0.0060782507 -0.02976223 0.07535936 -0.014939905
0001f0 b6 eb 6c bf 65 5d 1d 3e 9a eb 34 be f6 5d 91 bc
       -0.92547166 0.15367658 -0.17668 -0.017745
000200 af 3f 9b 3c 04 5c 90 3b 8a e6 6f 3b 38 0c 6d bb
       0.018951265 0.0044055004 0.0036605918 -0.0036170613
000210 71 3a 08 3b 1c d8 e2 3b f6 0e 45 39 0d 6f ca 3b
       0.0020786787 0.006922735 0.00018792957 0.006177789
000220 01 ae fc 3d 92 fb db 3d 40 8f 3f bc 0e 76 7f 3b
       0.12337876 0.107413426 -0.011691868 0.0038980278
000230 95 ca 83 3e 78 15 2b 3b c2 4c ff 3d 53 25 59 bb
       0.25740495 0.0026105326 0.12465812 -0.003313382
000240 cc 36 a1 be 71 7a 64 3c 80 d9 c2 be 8a b9 29 3b
       -0.3148712 0.013945208 -0.38056564 0.0025897943
000250 a7 76 3d bd b5 2d 0c 3e 71 f8 c3 be f3 93 4f 3c
       -0.046255734 0.13689311 -0.38275483 0.012669551
000260 0d 80 79 3e bf e9 0b bf 83 ae 5f be c0 25 f7 3b
       0.24365254 -0.54653543 -0.21843915 0.007542342
000270 a1 e8 06 3b c6 ea 17 bb 54 a1 7e be ac ab ce be
       0.0020585435 -0.0023180707 -0.2486623 -0.4036535
000280 16 2b 88 bb 15 e5 74 3e 47 76 8c 3a df d4 0d 3e
       -0.004155527 0.23915513 0.0010716402 0.13850735
000290 04 43 c7 bc 8a 9e 06 39 84 60 7d bb 10 fe 75 be
       -0.024323948 0.00012838296 -0.0038662264 -0.24022698
0002a0 13 94 8b 3d 4a 06 b9 3b 97 99 e3 3a 04 10 2d bd
       0.06815352 0.0056465017 0.0017364499 -0.0422516
0002b0 11 7c 93 3b 7b df 86 3b 42 80 50 3a f0 21 a6 3b
       0.004500874 0.0041159964 0.0007953682 0.0050699636
0002c0 55 47 d9 39 f8 7f 98 bd bf 57 dd 3a d6 54 3c bd
       0.00041442612 -0.07446283 0.0016887112 -0.045979343
0002d0 84 04 45 3b 89 40 d8 3e b0 fc 75 bb a4 db 65 bb
       0.0030062506 0.42236736 -0.0037534647 -0.0035073543
0002e0 70 ad 6f be d8 45 ce bb fb 09 5d 3c 83 d3 77 3e
       -0.23406005 -0.006294947 0.013491149 0.24201779
0002f0 ac d1 ba 3b ae 25 f4 3e b9 73 14 3e 0f e7 69 3c
       0.0057012644 0.47684997 0.1449727 0.01427628
000300 d9 b4 b7 bb be ed f6 bb 96 da 94 be d1 4e 90 3f
       -0.0056062755 -0.0075356653 -0.29073018 1.1274053
000310 a2 1f d6 bd a6 a9 26 3f 46 a6 10 3b 14 eb 0d bb
       -0.10455252 0.6510261 0.0022071763 -0.002165501
000320 a3 b9 89 ba c3 f5 3c 3d 7a 15 c8 3c a8 5e 80 bb
       -0.0010507595 0.046132814 0.024424303 -0.003917534
000330 88 68 29 bc 1a 4c b5 3a 77 0d f9 3a ca 6a 43 3d
       -0.010339864 0.0013831884 0.0019001205 0.047709264
000340 a6 ed f4 3c 3f 42 9d bb f7 da 3b 3b 7d 31 a1 3a
       0.029898476 -0.004799157 0.0028664449 0.0012298074
000350 a2 9c 15 bb a9 f9 41 bb 81 a3 1c bd 39 1a 43 bb
       -0.0022828956 -0.0029598272 -0.038241867 -0.0029770269
000360 d0 07 a9 3a 7c f5 12 bb ef 2d cc 39 9b d0 22 bb
       0.0012896005 -0.0022424152 0.00038944135 -0.0024843577
000370 ee a7 27 bc 22 2d 1c 3a 20 b2 53 3a fd ec 8a be
       -0.010232909 0.0005957653 0.0008075554 -0.27133933
000380 22 2a db ba fe 2b 8b 3e 87 2a c4 be bb 00 26 3e
       -0.001672093 0.27182 -0.38313696 0.16211216
000390 9f 54 a2 ba f5 10 8a ba 7c bc b1 be ab 54 8f 3d
       -0.0012384838 -0.0010533618 -0.34714115 0.06998571
0003a0 7c 64 0f 3c 82 0d 1c bb df 23 75 3b 67 cb 89 3c
       0.008751985 -0.0023811762 0.0037405414 0.016820623
0003b0 ab 29 9d be bb 1c 0f 3b 03 68 b2 3b c6 d9 b8 ba
       -0.30695853 0.0021837193 0.005444528 -0.0014102987
0003c0 5f a2 c5 ba b7 8d 28 bc 6c 81 0a bf ab 22 0d be
       -0.0015078298 -0.010287694 -0.5410373 -0.13782756
0003d0 c7 cf 93 bd 22 9a 80 bb 40 32 dd 3b 71 6f 1a bc
       -0.07217365 -0.003924624 0.006750375 -0.009425984
0003e0 7a d8 03 bb 7c 53 ec bd a7 e2 35 3a f8 f1 77 3d
       -0.0020118044 -0.11539361 0.0006938376 0.060533494
0003f0 30 68 72 3b ab 73 6c bc 17 54 16 be 12 ef ef 39
       0.003698837 -0.014431874 -0.14680515 0.00045763754

dist.fc_mean.bias f4 [2]
000000 a6 ce 21 3e 41 21 f3 ba
       0.15801486 -0.0018549339

dist.fc_logstd.weight f4 [2, 128]
000000 bb 31 6b 3d 44 43 50 bf ee 1d c3 bf 45 c2 18 bf
       0.057420474 -0.8135264 -1.5243509 -0.5967143
000010 55 2a a1 be ce 8b a3 bd 14 f4 3e 3e c9 57 b0 bf
       -0.3147761 -0.0798565 0.18647796 -1.377679
000020 ee 8f 49 be 94 e6 ee bb 3b 09 d3 3e 00 5e d1 bd
       -0.19683811 -0.0072906706 0.4121798 -0.10223007
000030 da 28 67 bd 69 a1 59 be 94 f3 3a bd 51 f0 8a 3e
       -0.056435443 -0.2125298 -0.04564245 0.27136472
000040 87 de c3 3d 91 58 b6 3c 9a f6 17 be b8 53 d8 bf
       0.09563928 0.022259029 -0.14840165 -1.6900549
000050 ad 20 cf bd e9 fb 84 be d4 75 90 bd 0a c6 82 bd
       -0.10113654 -0.25973442 -0.07053724 -0.06385429
000060 e0 b6 f2 be 3b d3 29 bf 5b 38 70 bd 76 55 02 bf
       -0.47405148 -0.6633794 -0.058647495 -0.50911653
000070 02 58 75 bf 14 5c 5a 3e bb 14 28 3e 79 ce 8f 3e
       -0.95837414 0.21324188 0.16414158 0.28087214
000080 e8 c4 1a 3f 3b d2 19 bf dd 14 99 3d f6 a7 8f 3d
       0.60456705 -0.6008641 0.074746825 0.07014458
000090 8f 50 9f 3f c7 f0 77 bf c4 d3 82 bf 6b 7d cf be
       1.244646 -0.9685177 -1.0220876 -0.40525374
0000a0 66 14 ed 3e 91 27 fe be fe 87 a9 3e 93 14 1e bf
       0.46304625 -0.49639562 0.33111566 -0.61750144
0000b0 ce 64 2f bf 21 5e e8 3f 90 0b e5 bd 92 68 c1 3c
       -0.6851319 1.8153726 -0.11183846 0.023609433
0000c0 d6 57 db bd b5 18 26 bd e2 a9 14 3f bc ce 0c be
       -0.10710113 -0.040550906 0.5807172 -0.13750738
0000d0 0e e8 6f bf 21 57 bf bd 9d 64 83 be f6 d7 7b be
       -0.9371346 -0.093427904 -0.256627 -0.24594101
0000e0 47 8a 7f be b8 df 36 bf c3 c7 04 3e e3 6f 32 3e
       -0.24955092 -0.7143512 0.12966828 0.17425494
0000f0 4a 65 75 bf 31 0c f3 be 32 27 28 3c 47 ea 4e bf
       -0.9585768 -0.4747024 0.010263251 -0.8082623
000100 23 f2 d0 3d dc 66 4a 3e 5b eb 0d bd 03 79 5d bf
       0.10202434 0.197658 -0.03464828 -0.86512774
000110 3e 49 48 3e d2 f2 97 be ae 2b a2 3e 62 c3 68 bf
       0.1955919 -0.29677445 0.3167395 -0.9092313
000120 e5 a2 16 c0 5a a1 e0 bb 84 e9 50 ba bb 64 a8 3d
       -2.3536923 -0.006855172 -0.0007969367 0.08222338
000130 5a 5a 89 3d e4 d2 ae 3d 32 55 7b bf 03 89 76 be
       0.06706686 0.08536318 -0.9817687 -0.24075703
000140 ad 03 50 3f 1f 40 d4 bc 8b b6 a7 bf 0c 41 a8 be
       0.8125561 -0.025909482 -1.3102583 -0.32862127
000150 95 b9 2f 3f 80 e0 b2 be 1e d3 20 bf 0a 2a 5d bf
       0.6864255 -0.34936905 -0.6282214 -0.8639227
000160 65 9b 5d bf be 4a ed be 0e 7e bb 3d f9 a9 11 bf
       -0.8656524 -0.46346086 0.091549024 -0.5689998
000170 fc d5 57 be 70 74 85 bf 72 9f 3b be de 2b 80 be
       -0.21077722 -1.0426159 -0.18322542 -0.25033468
000180 7d 76 a3 bd df 38 85 3d 36 70 28 3e f9 44 64 bc
       -0.07981584 0.06504988 0.16449055 -0.01393246
000190 65 cc 99 3e b3 75 3e bf 11 06 0e bf 26 f3 14 be
       0.30038753 -0.74398345 -0.55478007 -0.14545879
0001a0 f7 6f 9b be 56 e2 bb bd 5a 59 dc be af 15 88 be
       -0.3035886 -0.091740295 -0.4303692 -0.26579043
0001b0 6c 39 e6 3d 92 e2 16 3f 6c 68 03 bf 95 00 b0 3e
       0.11241421 0.5893947 -0.5133121 0.34375444
0001c0 4b da f5 be a3 0b cd be b8 81 88 be 0b 31 2f 3e
       -0.48018107 -0.4004794 -0.26661468 0.17108552
0001d0 ca 6c 24 bd e5 80 1f bd 39 ef 0c 3f c5 11 9f bf
       -0.04014281 -0.038941283 0.55052525 -1.2427298
0001e0 c8 f4 6d bf 63 ad 37 3d 77 24 36 bf 15 66 dc bc
       -0.9295163 0.04484309 -0.7114939 -0.026904145
0001f0 f2 28 a3 bf 95 89 78 be 2d 65 c5 be a5 e4 d6 3d
       -1.274687 -0.24271233 -0.38553753 0.10492829
000200 cf 72 0b 3d 91 76 8b bf 77 7f 38 bf 36 99 8a bf
       0.034045037 -1.0895559 -0.72069496 -1.0828006
000210 32 9f f7 bd 83 24 e1 be 4c 47 09 bf cb 4a 0e bf
       -0.12090911 -0.4397317 -0.53624415 -0.55582875
000220 75 24 9d 3f 6e 08 d4 bb 19 70 b5 be 70 76 5f 3d
       1.2276751 -0.0064707315 -0.35437086 0.05455631
000230 7a 88 2c 3e f0 59 c9 be 77 9c a9 3d 60 7e 65 bd
       0.16848937 -0.3932643 0.082817964 -0.056028724
000240 85 c5 a8 be 13 57 25 bd 35 04 5c 3f f6 12 fa bf
       -0.32963195 -0.040366244 0.8594392 -1.9537036
000250 d6 71 88 bc fd b8 de bd 94 2a 2a be 05 93 8a bd
       -0.016655844 -0.108751275 -0.16617805 -0.06766323
000260 6d af db 3c 3f 47 16 bf 2e 37 a0 be 8d c2 e9 bf
       0.026817048 -0.5870246 -0.312921 -1.8262497
000270 5e 18 4e bf 2b 50 9e bf 3d ec d1 3d 83 97 fa bd
       -0.8050593 -1.2368215 0.10250137 -0.1223593
000280 3d 6c 42 bf ea 9a 38 be 24 76 10 bf ef 04 1d be
       -0.7594641 -0.18027845 -0.5643027 -0.15333913
000290 59 41 95 be 1d 8b e5 be 5f 41 fa be 00 58 0b bd
       -0.2915142 -0.44832698 -0.48878 -0.03401947
0002a0 74 b5 d4 be 50 7a 40 bf 98 83 00 c0 89 44 51 bf
       -0.41544688 -0.75186634 -2.0080318 -0.817452
0002b0 63 a4 fd 3e 35 63 c8 be be a7 87 3b 17 e9 9f bf
       0.4953948 -0.3913819 0.0041398695 -1.2493008
0002c0 f2 2a c2 bf 33 3d 00 bd de fb 8f bf d3 21 22 3f
       -1.5169356 -0.031308364 -1.1248739 0.6333286
0002d0 5d d6 e1 bf b3 7c e6 3e 4f 48 92 bf d4 76 12 bf
       -1.7643543 0.45017013 -1.1428317 -0.5721257
0002e0 ec 15 0d 3e 8b 84 74 3e 00 2f 32 bf ab 82 c7 be
       0.13777894 0.23878686 -0.69602966 -0.3896688
0002f0 ce 20 79 3d e4 92 54 3e 0b 4f a8 3e 02 6d 68 bf
       0.0608223 0.2075916 0.32872805 -0.9079133
000300 19 89 26 be 50 18 68 bf ef 8c 35 3d 47 e1 4a 3f
       -0.16263236 -0.906621 0.044323858 0.79249996
000310 60 61 9e 3d f0 bb 4d 3f 86 d8 b8 bd 45 d0 30 bf
       0.077334166 0.80364895 -0.090256736 -0.69067794
000320 79 52 cd bf 18 67 ca 3a 35 bb 51 bd 5c 0e c9 bc
       -1.6040794 0.0015442101 -0.051203925 -0.02454298
000330 97 f8 e0 3b 47 7b 52 3f 22 b0 13 3d 49 f0 83 be
       0.0068655717 0.82219356 0.036056645 -0.2576926
000340 d7 b6 42 be fe 5c 2a bf 08 14 07 bf 21 7b b6 bf
       -0.1901506 -0.66548145 -0.5276494 -1.4256326
000350 02 c4 fe bf a6 91 41 3e 34 41 11 3e 84 ed 94 bf
       -1.9903567 0.18903217 0.1418503 -1.1634984
000360 9f 5c 0f bf f9 14 1e bf e4 29 bd bf 5f e6 ee be
       -0.56000704 -0.6175075 -1.4778409 -0.46660134
000370 59 11 7b bf b8 dd c7 3e d9 33 2a bd a9 bd 4d bf
       -0.98073345 0.39036345 -0.041553352 -0.80367523
000380 cb 1b 06 bd 6a 51 34 bd 62 8f c7 3e d5 47 41 3d
       -0.03274135 -0.044022955 0.3897658 0.047187645
000390 2b a4 83 bf 3c 89 28 be f1 a6 0d bf 39 79 ac be
       -1.0284475 -0.16458601 -0.5533286 -0.33686236
0003a0 22 7f d9 be 9c 64 90 bf 14 30 18 3e 76 99 a4 be
       -0.42479807 -1.1280704 0.1486209 -0.3214833
0003b0 dd 32 aa 3d 81 59 8a bf af bd 1e bf e4 10 25 3d
       0.08310483 -1.0808564 -0.62008184 0.04029931
0003c0 54 c9 e3 be 19 55 e8 be 9c 3a 75 3f a6 8f ea 3e
       -0.4448954 -0.45377424 0.95792556 0.4581272
0003d0 af 05 e5 3e 5b 96 99 bf e0 80 c7 be 07 af 38 3d
       0.447309 -1.199901 -0.3896551 0.045088794
0003e0 a5 c5 dc bd 34 2e 80 3e ac 0d 75 bf 87 21 84 bd
       -0.10779885 0.2503525 -0.95723987 -0.06451707
0003f0 00 32 93 bf 24 db ec be fb 5a 0a 3f aa 3e 8c bf
       -1.1499634 -0.4626094 0.54045075 -1.0956624

dist.fc_logstd.bias f4 [2]
000000 b8 87 0d bf 1d 6e 0b bf
       -0.55285215 -0.54464895

exp_avg f4 [128, 9]
000000 d0 aa 83 3c af cb ea bc ff c1 32 bd 65 59 8a bb
       0.01607266 -0.028661577 -0.04364204 -0.0042220824
000010 c4 81 2c bc 79 2d 21 bb 5e fc 15 3d 6b 5f 7b bc
       -0.010528985 -0.0024593754 0.03661763 -0.015342574
000020 b3 ff 00 bd 15 3a 35 bc 45 46 0c 3c 25 50 b1 bd
       -0.031493854 -0.011061211 0.008561675 -0.086578645
000030 c6 ad 1d bd 58 12 87 3d 77 a2 0e bc 14 9b 76 3b
       -0.0384958 0.06595296 -0.008705727 0.0037629055
000040 72 d7 e3 3c 00 e1 70 bc 4d a4 d0 bc 7c ac 73 3d
       0.027812693 -0.014702082 -0.02546897 0.059490666
000050 9a f7 08 3d 47 8a b9 3c a9 d4 71 bd f2 32 e7 ba
       0.033439256 0.022648944 -0.0590407 -0.0017639084
000060 69 e8 da 3c 03 62 83 3c 19 58 77 3c 07 db f1 3d
       0.02672215 0.016037947 0.015096688 0.11809354
000070 1c 10 e8 3c 86 4f 52 3e f2 a1 88 bc f4 27 59 bd
       0.028327994 0.20538148 -0.016678784 -0.053016618
000080 3d 8b d3 3d 78 1c b1 3c b0 e4 ad 3c e7 cc 8c bd
       0.10329292 0.02162002 0.02122721 -0.068750195
000090 55 fc 1e bd fe 63 84 bc 64 96 be bb 1d 4e 02 3c
       -0.03881486 -0.016160961 -0.005816268 0.007953194
0000a0 4d 1d f2 bc 61 36 81 bb da 0a 89 3b 1f 89 86 3b
       -0.029554987 -0.00394325 0.004182202 0.0041057016
0000b0 f8 7c b6 3c 78 d3 c9 bc 39 3f ee bd cc 51 2e 3d
       0.022276387 -0.024636969 -0.116331525 0.042558476
0000c0 42 3e 2f bd 77 89 52 3a 87 2f 40 3d ef 13 46 bc
       -0.042783983 0.0008031348 0.046920326 -0.0120897135
0000d0 88 13 b3 bc 58 06 4e bd ed 5a c4 bd 89 f7 d8 bd
       -0.0218599 -0.05029902 -0.09587655 -0.105940886
0000e0 c7 96 e9 bc 90 de d5 3c 2e 23 90 bd 92 ea c5 bd
       -0.028514279 0.026107103 -0.0703796 -0.09663881
0000f0 5d f6 a6 bc 6f 7f 64 bc 08 76 02 be 4d cb a8 bb
       -0.020381147 -0.013946398 -0.12740338 -0.0051511885
000100 e5 f6 08 3d 37 79 c7 3c e0 9f a9 3c 0d f0 32 bd
       0.033438582 0.024349792 0.020706117 -0.04368596
000110 50 8d e6 bc 81 b3 54 3c 7b 6c e2 bb 43 43 3b 3b
       -0.028143555 0.01298225 -0.0069099045 0.0028574027
000120 95 7f 24 3d d3 28 47 bb 40 20 b1 3d 9e 4f 2a bc
       0.040160734 -0.0030389323 0.08648729 -0.010394959
000130 1e 61 65 bc 71 a0 bc 3c 75 fa 70 3d 4f 42 80 ba
       -0.014000205 0.023025723 0.058832604 -0.0009785387
000140 8e 72 38 3e 85 57 48 bc b3 7a 59 bd 2e 34 bf 3b
       0.18012449 -0.0122278975 -0.05309553 0.0058350777
000150 4f e4 ac bd 70 31 cb bc dd ce 53 bc 09 71 45 3c
       -0.08441984 -0.024803847 -0.012927738 0.012050875
000160 7c 45 03 be a7 45 f4 3c 62 ab 1b be c2 5f bb bd
       -0.12819475 0.02981837 -0.15202096 -0.09149124
000170 f9 43 90 3d 16 9d 82 bd e1 61 ca bd c8 4f 22 bd
       0.07044215 -0.06377618 -0.0988195 -0.039626867
000180 9b 5e 07 3d 10 13 9b bb 9c 44 d0 3d d8 82 19 bd
       0.033049207 -0.004732497 0.10169336 -0.037478298
000190 d6 80 99 3b 62 00 06 3d 7e b3 97 3b 7a d1 c4 bc
       0.004684548 0.03271521 0.0046295514 -0.024025667
0001a0 b9 d5 ca 3c 35 64 8b bb 61 38 9b bb 6b 3b 6a 3c
       0.024760114 -0.004253889 -0.0047369455 0.014296393
0001b0 83 69 c5 be 36 49 b5 bd 5a 74 43 be 29 95 77 bd
       -0.38557062 -0.088518545 -0.19087353 -0.060444985
0001c0 d0 8f 40 bc 2a db 96 bd b9 96 3f 3a 10 5c 93 3b
       -0.011753038 -0.07366021 0.0007308531 0.0044970587
0001d0 37 9e fe 3c 1b f5 22 3d f1 38 99 bc da 9e b5 bc
       0.031081302 0.039784532 -0.01870391 -0.022170473
0001e0 9e 97 93 bd 1d 6d 74 3b f0 8e af bd 16 90 8c 3b
       -0.07206653 0.0037296482 -0.08572185 0.0042896373
0001f0 44 af 31 bc cf 86 31 bd 1c 35 cb bd 24 7c 56 3d
       -0.010845009 -0.043341454 -0.09922239 0.052364483
000200 18 d6 c4 bc 6c 52 09 bd 6c 54 63 bc 30 f8 59 bd
       -0.02402787 -0.03352587 -0.013875108 -0.053215206
000210 c7 9b a7 3b 4b c7 a4 3b a7 50 f0 bc 5c 6a a3 bd
       0.0051150057 0.0050286404 -0.029335333 -0.07979271
000220 04 09 8d bd 9a aa 33 3c 40 ba 6a bd f3 15 87 3d
       -0.06886485 0.010965968 -0.057306528 0.06595983
000230 dc c9 01 3d 93 31 fd 3a de 81 70 bc 53 18 f0 bc
       0.03168665 0.0019317142 -0.0146794 -0.029308474
000240 27 9b 94 bd db e2 db bd d1 4b 09 bd 3d 68 02 be
       -0.072561555 -0.107366286 -0.03351957 -0.12735076
000250 81 3a fd 3a ee 8c 6d 3d 91 0e f3 ba 8b 02 90 bb
       0.0019319804 0.05799573 -0.001854377 -0.0043948344
000260 61 a0 1b be b6 de 49 bc 12 bc 15 3d 4f a6 46 3b
       -0.15197898 -0.012321165 0.03655631 0.003031153
000270 07 fd 3c 3c 96 b8 c1 bb 26 21 c7 3d aa 24 62 3c
       0.011534936 -0.005911897 0.097231194 0.013802687
000280 6e 7e 42 3c 04 0c ec bd 26 57 a6 3c e5 0a 18 3d
       0.0118709635 -0.11525729 0.020305227 0.037119765
000290 34 bd 19 3c 4c e3 24 3d 73 bc 86 3d 13 b9 81 3d
       0.009383488 0.04025583 0.065789126 0.06334128
0002a0 1c 84 54 3b fb a1 af bd 3c d9 04 bd 40 ef 20 3d
       0.0032427376 -0.08575817 -0.032433733 0.039290667
0002b0 e1 67 b1 3d 4d 24 e2 3d c0 f4 64 bd 61 34 ce bc
       0.086623915 0.1104208 -0.055897474 -0.02517146
0002c0 5d c6 36 3d 00 55 23 3b c6 67 e2 bd 86 2a b9 3d
       0.044622768 0.002492249 -0.110549495 0.09041314
0002d0 c5 32 34 bd 83 cb 6c 3d 40 04 a4 bd de 51 19 bc
       -0.04399373 0.05781127 -0.08008623 -0.009357898
0002e0 5b 37 2c bc 80 2c 9a bd cb fe 23 3d 2c 4e db 3b
       -0.010511245 -0.07528019 0.04003791 0.0066926684
0002f0 5b 5e d9 3d a9 47 09 bd 79 9a b7 bd e5 21 89 bd
       0.106137 -0.033515606 -0.0896501 -0.06695918
000300 04 74 01 bd 52 51 b8 3c 8b e6 18 3d ed 6e 7a 3c
       -0.03160478 0.022499714 0.037329238 0.015285236
000310 1a dc 76 3c f3 dc 9d 3d 2e 3d 23 bc 99 23 e3 3d
       0.015067125 0.07708158 -0.009963317 0.11090774
000320 78 a4 32 3d 6b ee 2c 3d 9b 0b 35 bd 31 b6 64 bd
       0.04361388 0.04221956 -0.04420052 -0.055837814
000330 40 a9 41 bc f3 83 c5 bd 20 28 b2 bd f1 64 b0 3d
       -0.0118201375 -0.09644308 -0.086990595 0.08613003
000340 90 86 70 3d 4e df 60 bc 09 4b a7 3d bb 52 21 3d
       0.05872208 -0.013725115 0.08168609 0.03938554
000350 19 71 c9 3c ad 98 df bc 25 6e a1 bd b9 00 69 3d
       0.024590062 -0.027294481 -0.078823365 0.056885455
000360 79 c5 82 3d ec 21 94 3d c1 8c 36 3d 5c b7 e6 bc
       0.06385321 0.072330326 0.044567827 -0.028163604
000370 b9 f8 d3 3a fd 02 27 bc 65 ba c4 3c 8e e0 35 bd
       0.0016172148 -0.010193584 0.024014661 -0.044403605
000380 97 28 b2 3d a1 5a 98 bd d0 cc 3e bb ae ef d8 bc
       0.08699148 -0.07439161 -0.0029113777 -0.026481476
000390 d0 06 f0 ba f0 ff 38 bd 79 7b d7 bc 22 fd c5 bb
       -0.0018312577 -0.045165956 -0.026303994 -0.0060421387
0003a0 cf bc 0a bd a1 99 07 bd 46 fa 05 3d f3 e1 cb 3c
       -0.03387147 -0.033105496 0.032709382 0.024888014
0003b0 e8 43 51 bd c3 2c ac 3a 3a 00 2d 3d fb b4 81 bc
       -0.05109015 0.0013135899 0.042236544 -0.015833369
0003c0 78 00 a6 3b b7 83 7d 3d a2 9f ad bb 85 08 4d be
       0.005065974 0.06189319 -0.0052985707 -0.20022781
0003d0 28 3a a2 bd 3e 3d 8c bd 0d c5 ac 3d 98 90 4b 3c
       -0.07921249 -0.068476185 0.08436022 0.012424611
0003e0 fa a5 c7 3c 83 0d 80 3d 8f 16 6b bc 89 0f e3 bc
       0.024371136 0.06252577 -0.01434864 -0.027717369
0003f0 98 01 b0 3d 70 a0 22 bd 78 ee 01 3d d7 16 74 bd
       0.08594054 -0.039703786 0.031721562 -0.059592094

exp_avg_sq f4 [128, 9]
000000 bd 48 f4 3d 16 0e 15 3e c7 5d 74 3e 3d e7 99 3d
       0.11927936 0.14556155 0.23863898 0.07514808
000010 a7 9c 97 3e 98 f9 7b 3e e0 9b 29 3e 65 23 e5 3e
       0.29611704 0.24606931 0.16563368 0.44753566
000020 e2 28 0d 3e b3 6f cb 3d a6 60 1a 3e d8 21 db 3d
       0.13785127 0.09933414 0.15075931 0.106998146
000030 a1 bf 9c 3d 9c 70 54 3d af 4c 46 3d 50 5a 1a 3d
       0.07653738 0.051865205 0.048412975 0.037683785
000040 14 27 df 3c de 9d 7d 3e 3a d9 6d 3d 41 25 8f 3d
       0.027240314 0.24767253 0.05806849 0.069895275
000050 0a d0 56 3d 9d 22 2e 3d b2 37 11 3d 61 99 14 3d
       0.052444495 0.04251348 0.035453506 0.036279086
000060 f8 5b f5 3b fc 72 96 3c a4 02 93 3d ec 50 72 3e
       0.00748777 0.018365376 0.07178238 0.23663682
000070 ec f1 d2 3d 61 a4 21 3e 8b 7e b2 3d 3e 67 65 3d
       0.10300049 0.15785362 0.087155424 0.056006663
000080 8d 1e a3 3d d3 54 8c 3b b0 04 80 3b 66 01 03 3e
       0.079648115 0.004282573 0.003906809 0.12793502
000090 e1 ba 37 3e 98 ae 02 3f 0b e7 e0 3e 30 fe 76 3e
       0.17942382 0.5104766 0.43926272 0.24120402
0000a0 53 f2 50 3e 8e 5a 1f 3e 02 f2 4e 3c c4 33 43 3c
       0.2040494 0.15561888 0.012630941 0.011914197
0000b0 ae 1b 7b 3e a8 b1 97 3e bf 80 37 3e af 6c 33 3e
       0.24522278 0.29627728 0.17920206 0.17521928
0000c0 f0 00 1f 3e 09 ab 02 3e f5 1c d7 3d 06 2c 55 3d
       0.15527701 0.12760557 0.1050357 0.052043937
0000d0 97 e1 07 3d 79 c9 88 3e 52 09 5b 3e 14 6f 0c 3e
       0.033174124 0.2671621 0.21390274 0.13714248
0000e0 ef b0 0a 3e bb 5a 94 3d 21 6b b0 3d 36 d4 b9 3d
       0.13544057 0.07243868 0.08614183 0.09073679
0000f0 a3 20 b7 3d c0 e5 b3 3d bd 61 36 3e 45 5c dd 3d
       0.08941772 0.08784056 0.17810722 0.10808615
000100 1b f6 f7 3d 95 55 b4 3d af 4e 3a 3d 95 fe 4f 3d
       0.12107488 0.08805386 0.045485195 0.050779898
000110 fd 44 22 3d 33 b9 53 3d 98 4c ae 3b aa 49 06 3e
       0.039616574 0.05169029 0.0053191893 0.13114038
000120 48 a9 c4 3d 21 98 c4 3e ac 2c 19 3e 16 cb 8d 3e
       0.096026 0.38397315 0.14958447 0.27694005
000130 e1 33 36 3d 4e e0 6a 3d 05 86 c5 3c 82 cc 06 3c
       0.04448307 0.05734282 0.024111757 0.008227469
000140 64 5b 7d 3e d7 ef 3c 3e c8 4c 93 3e 4f 53 7d 3e
       0.24741894 0.18450867 0.28769517 0.24738811
000150 b8 2d f9 3d 8f 5a 5f 3d 36 86 76 3d 99 60 1f 3c
       0.12166923 0.054529723 0.060186587 0.0097276205
000160 8f 16 a8 3d 8f 41 ea 3e f2 7c 22 3e a3 cb 1c 3e
       0.08207428 0.45753142 0.15867975 0.15312056
000170 c7 c7 1b 3e 42 ba af 3d cd f2 a1 3d 85 33 92 3d
       0.15212928 0.08580448 0.07907639 0.07138733
000180 89 55 e0 3d 4f 85 25 3d aa 3e 58 3e 48 70 f9 3c
       0.109538145 0.040410336 0.21117654 0.030449048
000190 21 db 15 3d 25 ca 10 3d e4 24 09 3d 78 2e 2a 3c
       0.03658593 0.03534903 0.033482447 0.010387056
0001a0 2e 4c 4a 3c 37 8d c0 3a 5e ec 80 3b ee 46 19 3d
       0.012347264 0.0014690523 0.003934427 0.03742116
0001b0 bc 4d ad 3e 66 9e f6 3e ca 52 7d 3e 4f ab 5f 3e
       0.3384837 0.48167723 0.24738613 0.21842693
0001c0 ea 78 93 3d 11 2f a1 3d 3d 76 85 3d de 18 57 3d
       0.07200797 0.07870305 0.06516693 0.05251395
0001d0 e9 db e9 3e 60 54 31 3e f0 4a 8b 3e 29 40 92 3e
       0.4567559 0.17317343 0.2720561 0.28564575
0001e0 8d 3d 07 3e 82 01 65 3d 9a 3d b1 3d 37 8a c4 3d
       0.13207074 0.05590964 0.08654328 0.09596675
0001f0 e5 a4 ad 3c e5 31 e0 3e a9 9b 06 3e 42 ca 00 3e
       0.021196792 0.43788067 0.13145317 0.12577155
000200 bb fc d1 3d 00 32 77 3d 79 82 2f 3d 6f 75 63 3d
       0.10253283 0.060350418 0.042849038 0.055531915
000210 64 e4 9a 3b e0 7e c0 3c 7c 9d 38 3e f7 c9 20 3e
       0.0047269333 0.023497999 0.18028826 0.15702043
000220 4b 09 65 3e 5a 7c 6c 3e b4 9b 25 3e cd 75 68 3d
       0.22366826 0.23094311 0.16172677 0.05675297
000230 fc cb 68 3d 8c 67 84 3d e7 fb b8 3d c5 97 86 3e
       0.05683516 0.064650625 0.090324216 0.26287666
000240 ec f2 30 3e 01 3f 17 3f 00 10 b0 3e e2 b4 d3 3e
       0.17280167 0.5908051 0.34387207 0.4134894
000250 fb 4e 14 3d 81 ab c0 3d b2 e0 b0 3c 22 59 49 3c
       0.036208134 0.09407712 0.021591518 0.012289317
000260 0b 15 cc 3e 69 79 30 3e 51 05 2f 3e 5d 5e 1c 3e
       0.39859805 0.17233814 0.17091872 0.15270372
000270 2e 66 e7 3d 6f 0f 20 3d 4a 3e 49 3d 31 4f 9b 3b
       0.11298786 0.03907722 0.04913167 0.004739665
000280 d8 d3 94 3b e4 38 44 3e 13 8d 20 3e 79 13 fc 3d
       0.0045418553 0.19162327 0.15678816 0.123084016
000290 d9 5b f9 3d 1d 97 d7 3d 37 ff 69 3d 8e 95 91 3d
       0.12175722 0.105268694 0.057128157 0.071086034
0002a0 12 8f 7a 3b 23 a9 6c 3d 18 be 1c 3e e7 29 43 3e
       0.003823225 0.05777849 0.1530689 0.19058953
0002b0 a3 36 50 3e 34 f9 46 3e bd 6c c9 3d f3 a2 07 3e
       0.20333342 0.19431001 0.09835193 0.13245754
0002c0 e5 eb d1 3d 2b 89 3b 3c c7 94 4d 3e f9 90 6b 3e
       0.102500714 0.011446278 0.20076285 0.23004521
0002d0 6a 72 4f 3e 86 18 57 3e 7c 60 04 3e ce 94 96 3d
       0.20258489 0.21005449 0.12927431 0.07352601
0002e0 cc 4d 53 3d 55 fd 0e 3e b3 fb 6e 3d 37 ba 03 3e
       0.051587865 0.13963826 0.058345508 0.12864004
0002f0 84 a9 6f 3e 9e 58 8f 3d c0 0d fb 3e 74 80 84 3e
       0.23404509 0.06999324 0.49033928 0.25879252
000300 2b 3b 26 3e a5 51 71 3d 18 3a 55 3d b6 22 73 3c
       0.16233508 0.058915753 0.052057356 0.014839819
000310 9f ee 6f 3c e0 79 dd 3e 48 9a 7a 3e 7a 87 1f 3f
       0.014644294 0.43257046 0.24472916 0.62316096
000320 29 b0 f1 3e 45 7e 9c 3e 98 1c 97 3d a8 d9 e4 3d
       0.47204712 0.30565086 0.07378501 0.11174327
000330 c9 16 91 3d c7 6d 12 3e e5 71 21 3f e3 ca b3 3e
       0.07084424 0.14299689 0.63064414 0.35115728
000340 46 fd 01 40 73 67 d9 3f db 72 3a 3f e8 10 0f 3e
       2.0310836 1.6984695 0.72831506 0.13971293
000350 5f 89 71 3e 06 06 04 3e 54 45 ba 3d 2e 52 f9 3f
       0.23587559 0.12892923 0.090952545 1.9478204
000360 27 f6 19 3e 07 a0 e3 3d 91 a7 e4 3d 5d d8 98 3d
       0.15035306 0.11114507 0.11164773 0.07463143
000370 f5 5e 46 3d e4 14 92 3d 69 46 3d 3d 69 58 95 3d
       0.0484304 0.07132891 0.046209726 0.072922535
000380 6c 59 24 3e 6c d7 f3 3d 19 4b d9 3d ea 32 0d 3e
       0.16049737 0.11906323 0.10610027 0.13788953
000390 58 35 94 3d 5d 55 b5 3d 63 e9 93 3d 93 d7 03 3d
       0.07236737 0.088541724 0.07222249 0.03218801
0003a0 ad e2 8e 3c db 9e 86 3e 0e db 2c 3e 4c 2c 0b 3e
       0.017442072 0.26293072 0.16880438 0.13591117
0003b0 89 d3 28 3e 54 96 78 3d ea 40 4d 3d b7 bc a4 3d
       0.16486944 0.06069024 0.050110735 0.08043807
0003c0 22 55 42 3d 80 25 d4 3d 0c 7e 10 3e d6 3e 3d 3e
       0.04744447 0.10358715 0.14110583 0.18481001
0003d0 18 64 c1 3e cc 50 d9 3e 8f 73 4b 3e 6c 8e a3 3d
       0.37771678 0.42444456 0.19868301 0.07986149
0003e0 b4 89 9c 3e eb ff a7 3d 21 4d 8f 3e aa f9 b0 3e
       0.3057381 0.08203109 0.27988532 0.3456548
0003f0 25 b2 4b 3e 9e 90 84 3e 26 8d 72 3e d0 03 0a 3e
       0.19892175 0.25891584 0.23686656 0.13478017
