ppo/models/behavioral_cloning_agents_drone/bc6/ckpts/001462650.pt (torch_old, 335214 bytes, 26 tensors)

fc1.weight f4 [128, 15]
0	0x3e2aee82	0.16692546
1	0x3e299442	0.16560462
2	0xbda19819	-0.078903385
3	0x3c2df8cf	0.010618403
4	0x3ddbad9a	0.10726471
5	0x3e28d818	0.16488683
6	0x3e72e0ec	0.23718613
7	0x3e392bad	0.18083067
8	0xbca67ad6	-0.020322245
9	0xbcfb5ea5	-0.030684778
10	0xbee8eae8	-0.4549172
11	0x3e6967e8	0.22793543
12	0xbe7c970a	-0.24666992
13	0xbe2f1ac2	-0.17100051
14	0xbd967921	-0.07347322
15	0x3e4e1d38	0.20128334
16	0xbd6215c5	-0.055196542
17	0x3e46af27	0.19402753
18	0xbe926f57	-0.2860057
19	0xbe2f5a0a	-0.17124191
20	0x3e96ea8e	0.29475826
21	0x3eee17d2	0.46502548
22	0x3e20a3ae	0.15687439
23	0x3de5786a	0.11204608
24	0xbdb7333f	-0.08945321
25	0x3d34e085	0.04415943
26	0x3ba477a7	0.0050191465
27	0xbe7545a3	-0.23952346
28	0xbe267275	-0.162546
29	0xbba85cef	-0.0051380317
30	0xbc4dcd1f	-0.012561112
31	0x3de932b7	0.11386626
32	0xbe2987b2	-0.1655567
33	0x3c8bc773	0.017062878
34	0xbd3e2291	-0.046419684
35	0xbe378a53	-0.1792386
36	0xbe72ea52	-0.23722199
37	0x3f08b7c6	0.53405416
38	0x3e934ab4	0.2876793
39	0x3e13be6d	0.1442811
40	0xbd489984	-0.04897453
41	0xbe517519	-0.20454825
42	0x3d32ed40	0.04368329
43	0xbe76dd66	-0.24107894
44	0xbdc5a099	-0.09649772
45	0x3ddd324f	0.10800611
46	0x3e2e91c6	0.17047796
47	0x3dab12d9	0.08353204
48	0x3da20ec6	0.07912974
49	0xbe660214	-0.2246173
50	0x3e159dae	0.14610931
51	0x3f11dabd	0.56974393
52	0xbb90b68d	-0.004416293
53	0x3dcc9b29	0.09990532
54	0x3d88d9fb	0.066822015
55	0xbe66f5a6	-0.22554645
56	0x3e3acd7c	0.18242449
57	0xbe4cfcc7	-0.20018302
58	0xbe373fbc	-0.17895406
59	0xbcb021f1	-0.02150056
60	0x3e7fe74f	0.24990581
61	0x3dcc6c5f	0.09981608
62	0xbeed78fc	-0.46381366
63	0xba20d7e6	-0.0006135687
64	0x3f0f5831	0.55993944
65	0xbdfba6b9	-0.12287659
66	0x3e166922	0.14688542
67	0x3e5c04f6	0.21486267
68	0x3dc9529e	0.09830211
69	0x3e86e019	0.26342848
70	0xbecfae6a	-0.40562755
71	0xbf05f912	-0.52333176
72	0x3dcfd1fc	0.10147473
73	0x3e5b109a	0.21393052
74	0x3efed828	0.4977429
75	0x3ea5a074	0.3234898
76	0x3e2cb7d1	0.16866995
77	0xbdc2a6d4	-0.09504476
78	0x3b97f710	0.0046376064
79	0xbe865975	-0.26240125
80	0xbe1f8192	-0.15576771
81	0x3e8c3851	0.27386716
82	0x3e4d0f4c	0.20025367
83	0xbe26f5c1	-0.16304685
84	0xbdeaad40	-0.11458826
85	0xbe101789	-0.14071478
86	0x3d7d610f	0.06186014
87	0xbdf20ed0	-0.118192315
88	0x3dcb5998	0.09929198
89	0x3d8e14ef	0.069375865
90	0xbd1c07a0	-0.03809321
91	0x3db9e467	0.090767674
92	0x3dfff74a	0.124983385
93	0x3e4c4b3e	0.19950578
94	0xbe9cfee6	-0.30663222
95	0xbdb27cb4	-0.087151915
96	0x3e4d8e31	0.20073773
97	0xbdbb8ee1	-0.09158111
98	0xbe067d6a	-0.13133779
99	0xbda0fe87	-0.07861047
100	0x3e866626	0.26249808
101	0xbe24cda5	-0.16094072
102	0xbde690fa	-0.11258121
103	0xbd8516b6	-0.064984724
104	0xbe0fb308	-0.14033139
105	0x3e17d837	0.14828573
106	0xbd9f03f9	-0.077644296
107	0xbf08622b	-0.5327479
108	0x3dcfad30	0.10140455
109	0x3eb00380	0.3437767
110	0xbe017c01	-0.1264496
111	0x3e8d91c5	0.27650276
112	0xbe6e21ec	-0.23255128
113	0x3e6d1c3b	0.231553
114	0x3e9ae618	0.30253673
115	0xbe9c87f1	-0.30572465
116	0xbd080a3a	-0.033212878
117	0x3c3ee240	0.011650622
118	0x3d1a4d70	0.037671506
119	0x3e671b4b	0.22569005
120	0x3e050b5d	0.12992616
121	0xbb9f0da8	-0.004853923
122	0x3e814947	0.2525122
123	0x3ed16731	0.4089904
124	0xbf2765ca	-0.6538969
125	0xbde150c6	-0.110017344
126	0xbea1855c	-0.31547058
127	0xbe2ed59b	-0.17073672
128	0xbec42b24	-0.38314164
129	0xbee02803	-0.43780527
130	0xbd6db90e	-0.05803781
131	0x3d83041b	0.063972674
132	0xbe2c3ea6	-0.16820773
133	0xbc591910	-0.013250604
134	0x3e9f979f	0.31170365
135	0x3e172a97	0.1476234
136	0xbe40ede3	-0.18840747
137	0xbddf3eca	-0.10900648
138	0x3c87be08	0.016570106
139	0x3ec26605	0.3796846
140	0x3dc3d1d7	0.09561508
141	0x3eee5740	0.4655094
142	0x3eb42838	0.35186934
143	0xbe079ad6	-0.13242659
144	0xbed10761	-0.40825942
145	0xbe2ce686	-0.16884813
146	0x3ebf2986	0.37336367
147	0xbadb6200	-0.001673758
148	0xbe036aba	-0.12833682
149	0xbd8fed68	-0.070277035
150	0xbece1140	-0.40247536
151	0xbec4d41a	-0.3844307
152	0xbde3b077	-0.111176424
153	0x3d9c52fc	0.076330155
154	0x3eb36aec	0.35042512
155	0xbe76bfe3	-0.24096636
156	0x3e94da3e	0.29072756
157	0xbe68c4c6	-0.22731313
158	0xbeee397e	-0.46528238
159	0xbe9bf70a	-0.30461913
160	0xbe820dbf	-0.25401112
161	0xbf1eaeaa	-0.61985266
162	0xbe6d4164	-0.23169476
163	0xbe644a0b	-0.2229387
164	0x3d50abde	0.050945155
165	0x3e05cb12	0.13065746
166	0xbe2c7260	-0.16840506
167	0x3e73b2b8	0.23798645
168	0x3e259c0e	0.16172811
169	0x3d2138e2	0.03936089
170	0x3e3176f6	0.17330536
171	0x3e86f740	0.26360512
172	0x3ed87105	0.42273727
173	0xbeadf973	-0.33979377
174	0xbd86dcb5	-0.06585065
175	0x3d2003e1	0.0390662
176	0x3c168706	0.0091874655
177	0xbdec0e5a	-0.11526175
178	0x3e536cc4	0.2064696
179	0xbe102a62	-0.14078668
180	0x3deb2507	0.11481672
181	0xbdc37fa4	-0.0954583
182	0x3e7e69ec	0.24845093
183	0x3e2b8d2b	0.1675307
184	0x3e137959	0.14401759
185	0x3e808817	0.25103828
186	0xbd9e5b31	-0.07732237
187	0xbe438c28	-0.19096434
188	0xbe36da3d	-0.17856689
189	0x3d301e3d	0.042997587
190	0x3f04c8fe	0.5186919
191	0x3e1ee4f8	0.15517032
192	0xbe3a7fbc	-0.1821279
193	0x3c3cac20	0.011515647
194	0xbe428a18	-0.18997991
195	0xbe9c7577	-0.3055837
196	0xbd95ba4a	-0.073109224
197	0x3d769d0b	0.06020836
198	0xbdb1ba67	-0.086781316
199	0xbdc10124	-0.09424046
200	0x3d9eff7e	0.07763575
201	0x3eeedf10	0.46654558
202	0xbf05129b	-0.51981515
203	0xbdf5c7f2	-0.12001027
204	0xbed52d78	-0.41636252
205	0x3f0986b4	0.53721166
206	0x3d27dff0	0.040985048
207	0x3e5f03c6	0.21778783
208	0x3dbf3704	0.09336665
209	0x3d93c71b	0.07215711
210	0x3af92177	0.0019007166
211	0xbe0c2b0d	-0.13688298
212	0xbdd5973f	-0.104292385
213	0xbdcbf0a2	-0.099580064
214	0xbd1ca253	-0.038240742
215	0x3ce0d459	0.027445005
216	0x3dde4f3a	0.10854955
217	0xbe78b821	-0.2428899
218	0xbb669629	-0.0035184717
219	0xbd78308f	-0.060593184
220	0x3daa200c	0.08306894
221	0x3e1ffc08	0.15623486
222	0x3dbf04e0	0.09327102
223	0x3bef8c00	0.0073103905
224	0x3e2c223b	0.16809933
225	0x3e31aa2f	0.17350076
226	0xbea263cc	-0.31716764
227	0xbe36c58f	-0.178488
228	0xbe8df6d7	-0.27727386
229	0x3e94f4a9	0.2909291
230	0x3ea9e765	0.33184353
231	0x3edc8723	0.4307185
232	0x3de47cad	0.111565925
233	0x3eeda1fb	0.46412644
234	0x3dfe404e	0.12414609
235	0xbf1140c5	-0.56739455
236	0x3ee1d8ec	0.4411081
237	0xbe3ae677	-0.18251978
238	0xbde01d74	-0.10943118
239	0x3d900e02	0.07033922
240	0xbdd9e873	-0.10640039
241	0x3e96e176	0.29468888
242	0xbe993894	-0.29925978
243	0x3d35058c	0.044194743
244	0x3eb8e7d7	0.3611438
245	0xbe48362e	-0.19551918
246	0x3eac367b	0.33635315
247	0xbead6782	-0.33868033
248	0xbd96d955	-0.073656715
249	0xbe4a5555	-0.19759114
250	0xbd9cbfff	-0.07653808
251	0x3ed2b3ef	0.41152903
252	0x3e5aa23c	0.2135095
253	0xbd9a9376	-0.07547657
254	0x3a10b700	0.0005520433
255	0xbe2eb514	-0.17061263

fc1.bias f4 [128]
0	0xbde5c05f	-0.112183325
1	0xbe52742f	-0.20552133
2	0xbde1d7cd	-0.11027489
3	0x3db868f2	0.09004392
4	0xbe807059	-0.25085714
5	0xbd2fc144	-0.04290892
6	0xbddc419f	-0.10754704
7	0xbdae8d22	-0.08523013
8	0xbdf1718a	-0.11789234
9	0xbdf6efd8	-0.12057465
10	0xbeac9217	-0.33705208
11	0xbe965192	-0.29359108
12	0x3cf11b26	0.02943189
13	0x3db4e5c6	0.08832888
14	0xbe5fa721	-0.21841098
15	0x3c89ad20	0.016806185
16	0xbd385934	-0.045006946
17	0xbd2083d5	-0.039188225
18	0xbe957c62	-0.2919646
19	0xbe3cc800	-0.18435669
20	0xbe6855ec	-0.22689027
21	0xbdb08dcd	-0.08620796
22	0xbe0606f5	-0.13088591
23	0xbda8a8db	-0.082353316
24	0xbe9132e2	-0.28359133
25	0x3d98a41a	0.07453175
26	0xbda6cbaa	-0.081443146
27	0x3e8f5b92	0.2799955
28	0x3d41b64f	0.047293004
29	0xbea12616	-0.3147437
30	0xbd61ea16	-0.055154882
31	0xbd79109a	-0.060806848
32	0x3e57ba2e	0.21067116
33	0xbea92f29	-0.33043793
34	0xbe36e411	-0.17860438
35	0xbdad85c5	-0.0847278
36	0x3e20ea2e	0.15714332
37	0xbe7e3aea	-0.24827161
38	0xbd59c7d9	-0.053169105
39	0x3e00b65d	0.12569566
40	0x3dac0324	0.083990365
41	0xbe098d5b	-0.13432829
42	0xbe2643ac	-0.16236752
43	0x3e0d2846	0.13784894
44	0xbd3930a8	-0.045212418
45	0xbe83a5fe	-0.2571258
46	0xbe3e247b	-0.18568604
47	0xbe17d9d6	-0.14829192
48	0xbe8eb1bc	-0.27869976
49	0xbe9a2e24	-0.30113328
50	0xbec7b607	-0.39006063
51	0xbe20d25e	-0.15705249
52	0xbd6e930c	-0.058245704
53	0xbe9978d6	-0.29975003
54	0xbae91fcb	-0.0017785964
55	0xbe16aea3	-0.14715056
56	0x3c8f5d1a	0.017500449
57	0x3e5e509b	0.21710436
58	0xbda7d2e5	-0.08194522
59	0xbe6a1db8	-0.228629
60	0xbe0e0574	-0.13869268
61	0xbeb477c1	-0.35247615
62	0x3d7a6808	0.06113437
63	0xbd967d83	-0.07348158
64	0x3d9092fc	0.07059285
65	0xbec260ab	-0.37964377
66	0xbe056d33	-0.13029937
67	0xbe682451	-0.22670104
68	0xbd9aa68f	-0.075513
69	0x3e2853b0	0.16438174
70	0xbe0f32c3	-0.13984208
71	0xbe2cabe3	-0.16862445
72	0x3d9d1d4c	0.076716036
73	0xbe8b9c9b	-0.27267918
74	0xbebfe92c	-0.37482584
75	0xbd031552	-0.032002755
76	0x3d90e6b8	0.07075256
77	0x3bc26fd2	0.00593374
78	0xbe52a647	-0.20571242
79	0x3da41d97	0.08013456
80	0x3a875f2d	0.0010328047
81	0xbd223ce6	-0.03960886
82	0xbcd4767a	-0.0259354
83	0xbdc6de87	-0.097104125
84	0x3df9c007	0.121948294
85	0xbe8bdddd	-0.27317706
86	0xbe3af67e	-0.18258092
87	0x3cf7f1ad	0.030266607
88	0xbe11b8d6	-0.14230666
89	0x3de2df39	0.110777326
90	0xbea8ba83	-0.32954797
91	0x3ca72f65	0.020408342
92	0xbdecd6d2	-0.11564411
93	0xbe29af00	-0.16570663
94	0x3aa2d0b9	0.0012421823
95	0xbe0b2eec	-0.13592118
96	0xbd353063	-0.0442356
97	0xbd09c69d	-0.033636678
98	0xbf1a0e3e	-0.6017798
99	0xbe528e9a	-0.2056221
100	0xbe2dad79	-0.16960706
101	0xbe02ff7a	-0.12792769
102	0xbc8bde8f	-0.017073898
103	0xbe9688ee	-0.29401344
104	0xbdc8a4f7	-0.097970895
105	0xbde7799f	-0.11302494
106	0x3e2bcf10	0.16778207
107	0xbe8c22d2	-0.27370316
108	0xbe569368	-0.20954669
109	0x3da9175f	0.08256411
110	0xbcbb2768	-0.022845939
111	0x3e0c80f1	0.13721062
112	0xbeb47eb1	-0.35252908
113	0x3dd53da6	0.10412149
114	0x3bcb0739	0.0061959294
115	0x3e0e4e00	0.13896942
116	0xbd22ccea	-0.039746203
117	0xbe1be806	-0.15225229
118	0x3de0842e	0.10962711
119	0xbd9c84c0	-0.076425076
120	0xbdce1276	-0.10062115
121	0x3d282e4a	0.04105977
122	0xbd95a451	-0.073067315
123	0x3e4cf93f	0.20016955
124	0x3d92c148	0.07165772
125	0x3ca328df	0.01991695
126	0x3dd60000	0.10449219
127	0xbdcd7694	-0.100323826

fc2.weight f4 [128, 128]
0	0xbdd0fb54	-0.10204187
1	0xbec93c43	-0.3930379
2	0xbd117bc6	-0.03551843
3	0x3e0bd60f	0.13655876
4	0x3e256557	0.1615194
5	0x3df29d78	0.11846441
6	0xbbb407ad	-0.005494079
7	0xbeb22129	-0.34790924
8	0x3f24a75e	0.6431788
9	0x3dc0a756	0.09406917
10	0x3e14c82e	0.14529487
11	0xbdd0af79	-0.10189719
12	0xbd810c75	-0.06301204
13	0xbd8e646b	-0.06952747
14	0xbe2650d5	-0.16241772
15	0x3df373e7	0.11887341
16	0xbd40ffaa	-0.04711882
17	0xbe1dd5d5	-0.15413602
18	0xbf28d0bd	-0.6594351
19	0x3c9fb81d	0.019496972
20	0xbe01eaf0	-0.12687278
21	0xbea45ff9	-0.3210447
22	0x3e22978d	0.15878125
23	0x3dc74d30	0.09731519
24	0x3edd5bd9	0.43234137
25	0xbdc2ece2	-0.09517838
26	0x3e60ecc5	0.2196532
27	0xbdbeae62	-0.09310605
28	0x3c1f6f5f	0.009731143
29	0xbd2cff0e	-0.042235427
30	0x3f298505	0.66218597
31	0xbd968285	-0.073491134
32	0xbe6c06a5	-0.2304941
33	0xbd945dff	-0.07244491
34	0xbcc1183b	-0.023571124
35	0x3e97602f	0.2956557
36	0x3d4b983a	0.04970572
37	0xbe9698a5	-0.29413334
38	0xbe435935	-0.19076999
39	0xbed31a11	-0.41230825
40	0x3f04cf26	0.51878583
41	0xbd3a27df	-0.04544818
42	0xbec56b3f	-0.38558385
43	0xbd4afbef	-0.04955667
44	0x3e3985be	0.18117425
45	0xbf46112d	-0.7736996
46	0xbe7a17aa	-0.2442309
47	0xbe1f651c	-0.15565914
48	0x3e022348	0.12708771
49	0x3eed2ccd	0.46323243
50	0xbca98593	-0.020693576
51	0xbd77894c	-0.06043367
52	0x3df2d7a1	0.11857534
53	0xbe2dd363	-0.16975169
54	0xbe03ebb3	-0.12882881
55	0x3e252beb	0.16130035
56	0x3d4384b1	0.047733966
57	0x3d8d2e14	0.06893554
58	0x3cf766ad	0.030200327
59	0x3d876325	0.06610707
60	0xbe2274af	-0.15864824
61	0xbeda7875	-0.42670026
62	0x3e8ee0d8	0.27905917
63	0xbe47bd68	-0.19505847
64	0x3c9588a1	0.018253626
65	0x3c4493f1	0.011998163
66	0x3dab8417	0.083748035
67	0xbf05f360	-0.52324486
68	0x3e3e3898	0.18576276
69	0xbc4d968e	-0.012548102
70	0x3e9078c3	0.28217134
71	0xbe1f9b43	-0.15586571
72	0x3cc7caa0	0.024388611
73	0xbcab0e7c	-0.02088093
74	0xbd81ae01	-0.06332017
75	0x3e026144	0.12732416
76	0xbd43bef3	-0.047789525
77	0xbd942867	-0.07234269
78	0x3db48ad8	0.08815545
79	0x3e65f5b1	0.22457005
80	0xbdd42ac1	-0.10359717
81	0xbde3f00b	-0.11129769
82	0xbd035de0	-0.032071948
83	0xbde26fa4	-0.1105645
84	0xbe2b0237	-0.16700064
85	0xbe565f10	-0.20934701
86	0xbf7748aa	-0.9659525
87	0x3c3aea3e	0.011408387
88	0x3f16ec0a	0.5895392
89	0xbe1d39ea	-0.15354124
90	0xbea459a2	-0.32099634
91	0x3e4645c8	0.19362557
92	0xbeed21df	-0.46314904
93	0x3e6e12d3	0.23249368
94	0x3e24b123	0.16083197
95	0xbe7b0667	-0.24514161
96	0x3e86dd78	0.26340842
97	0xbf2a60ba	-0.66553843
98	0xbd58238a	-0.052768268
99	0xbd8b42c3	-0.06799843
100	0xbfa63f4a	-1.2988064
101	0xbed6f7ce	-0.41985935
102	0x3d08cac4	0.033396497
103	0x3e81c128	0.2534268
104	0xbd0e93f4	-0.034809068
105	0xbea5ae68	-0.32359624
106	0xbe1c3e3e	-0.15258119
107	0xbea60ee7	-0.32433245
108	0x3eb3189b	0.3497971
109	0xbeb08046	-0.34472865
110	0x3e0b7923	0.13620429
111	0x3cc444a3	0.02395851
112	0x3e24ac9b	0.16081469
113	0xbea1893e	-0.3155002
114	0x3d3d859b	0.046269994
115	0x3efcde62	0.49388415
116	0xbeab7a03	-0.33491525
117	0xbdfdbf95	-0.12390057
118	0xbed318af	-0.4122977
119	0x3d1ab635	0.037771422
120	0xbf83cdd0	-1.0297184
121	0xbd938681	-0.07203389
122	0xbcb1541a	-0.021646548
123	0x3de0108d	0.10940657
124	0x3e2743ce	0.16334459
125	0xbd4fbc1e	-0.050716512
126	0xbdfa1c33	-0.1221241
127	0x3dd962b4	0.10614529
128	0x3ce42b7e	0.02785277
129	0xbe30fc64	-0.1728378
130	0xbdf94e09	-0.12173087
131	0x3d5cee96	0.05393847
132	0x3c446cd5	0.011988838
133	0xbdad4b95	-0.08461682
134	0xbd2e0322	-0.042483456
135	0xbe0f1e7d	-0.13976474
136	0x3dda786e	0.106675014
137	0xbc85a19e	-0.016312417
138	0xbdfb34fd	-0.12265966
139	0xbde11a6a	-0.10991366
140	0x3dd9283c	0.10603377
141	0xbe0e2f96	-0.1388534
142	0x3cc73cc3	0.024320966
143	0x3c95a3ee	0.018266644
144	0xbd52c714	-0.051459387
145	0xbe67344e	-0.22578546
146	0xbdf8c164	-0.12146261
147	0x3da70a45	0.08156256
148	0xbda65ba9	-0.081229515
149	0xbd68258b	-0.05667643
150	0xbd8e1653	-0.06937852
151	0xbd307871	-0.043083612
152	0x3d0ed67d	0.03487252
153	0xbccae979	-0.024769532
154	0x3db0c7f0	0.08631885
155	0xbdb1ae04	-0.08675769
156	0xbe3a22d0	-0.18177342
157	0x3dbfa12f	0.09356915
158	0xbea01693	-0.31267223
159	0xbcca6529	-0.02470644
160	0xbe38bf82	-0.18041804
161	0xbe0393af	-0.12849306
162	0xbd764867	-0.060127642
163	0xbd256326	-0.04037776
164	0x3cc22ebe	0.023703929
165	0xbd84afed	-0.06478868
166	0x3d9c25d3	0.07624402
167	0x3d9ff0d8	0.07809609
168	0x3cf20a0e	0.02954581
169	0xbd11abac	-0.03556411
170	0xbdd36e5d	-0.103237845
171	0xbe04bb24	-0.12962013
172	0x3e69f1c6	0.22846135
173	0xbe00bedf	-0.12572812
174	0xbd9c11a7	-0.076205544
175	0xba903ad7	-0.0011003864
176	0xbc73491f	-0.014848976
177	0xbe77f3bc	-0.24214071
178	0x3db73ad6	0.08946769
179	0xbe023f19	-0.12719382
180	0x3d7ca753	0.06168301
181	0xbd7328be	-0.059365027
182	0xbe191b0a	-0.14951721
183	0xbe1ed3a8	-0.15510428
184	0x3c739318	0.014866613
185	0xbdb9647a	-0.090523675
186	0xbe16c8c6	-0.14725026
187	0x3c6f4fbe	0.014606414
188	0xbdcdb50e	-0.10044299
189	0xbe7be60b	-0.24599473
190	0x3dc1eae2	0.094686285
191	0xbdefd55f	-0.11710619
192	0xbd891a10	-0.06694424
193	0xbe829a69	-0.2550843
194	0xbe13c9fc	-0.1443252
195	0xbd0b290f	-0.033974703
196	0x3d5e6c6a	0.05430261
197	0x3bd8d309	0.006616954
198	0xbd5c4431	-0.05377597
199	0x3d074bcb	0.033031266
200	0xbe01da05	-0.12680824
201	0xbcc91391	-0.024545463
202	0xbe3acb9b	-0.18241732
203	0x3da02130	0.0781883
204	0xbd3bdf17	-0.045867052
205	0xbdd19965	-0.10234336
206	0xbe22884c	-0.15872306
207	0xbd8a3486	-0.06748299
208	0xbd9ae3b2	-0.07562961
209	0xbde5be84	-0.112179786
210	0xbe032b0c	-0.1280939
211	0x3e99cfae	0.3004126
212	0xbe01a52e	-0.12660667
213	0xbdaeefed	-0.08541856
214	0x3ce41fef	0.027847258
215	0xbb19ee8b	-0.002348813
216	0x3cee67bb	0.029102197
217	0xbe1ab8ea	-0.15109602
218	0xbdc2ae39	-0.095058866
219	0xbbc116ec	-0.005892625
220	0x3d7aae05	0.061201114
221	0x3d557ec9	0.052122865
222	0x3dcc9b79	0.099905916
223	0xbe09b287	-0.13447009
224	0x3e804689	0.25053814
225	0xbd3890f9	-0.04506013
226	0xbe8b81d2	-0.27247483
227	0xbd29dffc	-0.041473374
228	0xbc6a1ad9	-0.014288628
229	0xbde80a83	-0.1133013
230	0x3c543ae5	0.012953495
231	0x3c134f6d	0.008991105
232	0xbe32a1fc	-0.17444605
233	0xbcea9ff3	-0.028640723
234	0xbbdc6e11	-0.006726988
235	0xbe494753	-0.19656114
236	0x3dfaf1b3	0.12253132
237	0xbe3bc1ae	-0.18335602
238	0x3d0ef77b	0.034903985
239	0x3b696fcc	0.0035619615
240	0xbdb66f93	-0.08908
241	0xbd4e22c1	-0.050326113
242	0xbcc9402b	-0.02456673
243	0x3c8721a3	0.016495531
244	0xbc9d1bf8	-0.019178376
245	0xbe6eded3	-0.23327188
246	0xbdf1a8de	-0.11799787
247	0x3b6334ff	0.003466904
248	0xbebe53a2	-0.37173182
249	0xbd59c0c6	-0.05316236
250	0xbc1146c9	-0.008866974
251	0xbd98e366	-0.07465248
252	0xbdd1540a	-0.10221107
253	0xbbf32ae8	-0.0074208863
254	0xbd4fbfdf	-0.050720092
255	0xbd9fc8fc	-0.078020066

fc2.bias f4 [128]
0	0x3d4136bf	0.04717135
1	0xbdd3822b	-0.10327562
2	0xbdc0e61e	-0.09418891
3	0x3ed01077	0.40637562
4	0xbda929cc	-0.08259925
5	0x3d8d0dc8	0.06887394
6	0x3e19da72	0.15024737
7	0xbd5466a2	-0.05185569
8	0xbdc790c9	-0.097444125
9	0xbd847675	-0.064679064
10	0x3df965ef	0.121776454
11	0xbcb6b388	-0.022302404
12	0x3bbb3454	0.005713025
13	0x3dbed6d5	0.0931832
14	0xbe7707de	-0.24124095
15	0xbb802e37	-0.0039117592
16	0xbdc075c8	-0.09397465
17	0xbe16663e	-0.1468744
18	0x3d7097b1	0.058738414
19	0x3e860fe6	0.26184005
20	0xbde5801f	-0.11206078
21	0xbd532253	-0.051546406
22	0xbde5c204	-0.11218646
23	0x3cec6577	0.028856976
24	0xbd896d40	-0.06710291
25	0x3d16bd56	0.03680166
26	0x3d230162	0.03979624
27	0x3de0c6dd	0.1097543
28	0xbd965491	-0.073403485
29	0x3c29450f	0.010331406
30	0xbd5fb920	-0.05461991
31	0xbdad3c3c	-0.084587544
32	0x3d15a715	0.036536295
33	0xbd61da81	-0.055140022
34	0x3e394c77	0.18095575
35	0x3e6cdfc1	0.2313223
36	0xbd1cc11c	-0.0382701
37	0xbdcce8de	-0.100053534
38	0xbe34351c	-0.17598385
39	0xbe2c5808	-0.16830456
40	0x3da4ef58	0.08053464
41	0xbe2eeafd	-0.17081828
42	0x3e319022	0.17340139
43	0xbdc31636	-0.09525721
44	0x3e175d1e	0.14781615
45	0x3c8e449f	0.017366705
46	0xbe17b004	-0.14813238
47	0x3e09aaaf	0.13444017
48	0x3e90e0ce	0.28296512
49	0x3d4118b8	0.047142714
50	0xbe1a20be	-0.15051553
51	0xbd8eefce	-0.06979333
52	0x3e15829c	0.14600605
53	0xbdba7d0c	-0.09105882
54	0xbe23b8b1	-0.15988423
55	0xbea5ce12	-0.32383782
56	0xbca47c8b	-0.020078918
57	0x3e1d5bd8	0.15367067
58	0xbdabe347	-0.08392959
59	0x3e1e1715	0.15438493
60	0xbd9bd7cf	-0.076095216
61	0xbd8e3b4e	-0.06944905
62	0xbcb2aef4	-0.02181194
63	0xbc56e9a1	-0.013117225
64	0x3d15d47d	0.036579598
65	0xbdd5bb65	-0.10436133
66	0x3e25f04b	0.16204946
67	0x3caca522	0.021074835
68	0x3e6cba7e	0.23118016
69	0x3c3cc2bb	0.011521037
70	0x3b05c5c4	0.0020412067
71	0xbd663f12	-0.056212492
72	0xbcb7f258	-0.022454426
73	0x3e27b685	0.1637822
74	0xbea928c8	-0.33038926
75	0x3dccac51	0.09993804
76	0xbe19e749	-0.15029635
77	0xbd3b1a10	-0.045679152
78	0x3de2f98e	0.11082755
79	0xbc7a9d3f	-0.015296279
80	0xbe832bcd	-0.25619355
81	0xbd1e7b3e	-0.03869175
82	0xbcfce568	-0.030871108
83	0x3c33d85f	0.01097688
84	0x3de64f8b	0.1124564
85	0xbddf3157	-0.10898083
86	0x3e6adb2a	0.22935167
87	0xbe1680a2	-0.14697507
88	0x3e9edabc	0.31026256
89	0xbdea630f	-0.11444675
90	0x3d882a62	0.06648709
91	0xbdd36a40	-0.10323
92	0xbe180ebb	-0.14849369
93	0xbdb493d8	-0.088172615
94	0xbdd26fd3	-0.10275235
95	0x3d97778b	0.07395848
96	0xbd133346	-0.03593757
97	0xbe87033b	-0.26369652
98	0xbd326192	-0.04355008
99	0xbd1d1d76	-0.038358174
100	0xbcf59702	-0.029979233
101	0x3e74733d	0.23872085
102	0xbe2181f1	-0.15772225
103	0xbd81ebd2	-0.06343807
104	0xbaf730d6	-0.0018859159
105	0xbcb12d6e	-0.021628108
106	0x3c82c33d	0.015962237
107	0xbdb380c6	-0.08764796
108	0x3e2cf0f7	0.16888796
109	0xbb3cbe9a	-0.002880013
110	0xbdb27961	-0.087145574
111	0x3e252ff1	0.1613157
112	0x3dffe07c	0.12493989
113	0xbc3a8bdc	-0.011385884
114	0x3e6728cd	0.22574158
115	0xbded8af1	-0.115987666
116	0xbdf88e73	-0.12136545
117	0x3d1f0019	0.038818453
118	0x3dcee904	0.10103038
119	0x3dc43bcd	0.095817186
120	0x3dedcc3d	0.11611221
121	0xbd14a487	-0.036289718
122	0xbe3711c1	-0.17877866
123	0xbdcbec32	-0.0995716
124	0x3e9872f5	0.29775205
125	0xbceb0d81	-0.028692963
126	0x3e864858	0.2622707
127	0xbd931876	-0.071824

dist.fc_mean.weight f4 [4, 128]
0	0xbb097232	-0.0020972607
1	0x3d00de3a	0.03146193
2	0xbc866766	-0.016406726
3	0x3aa5ab97	0.0012639639
4	0x3e407473	0.18794422
5	0xbc5e5a1c	-0.013571288
6	0x377295c3	1.4459193e-05
7	0x3c27ad90	0.010234252
8	0xbda668cc	-0.08125457
9	0xbc572b66	-0.013132906
10	0x3b33a86c	0.002741362
11	0xbdcc859d	-0.09986422
12	0x3d536988	0.051614314
13	0x3b12b165	0.0022383567
14	0x3bed28ac	0.0072375145
15	0xba59e7f3	-0.0008312456
16	0x3bc81eb7	0.006107177
17	0xbf1ca119	-0.61183316
18	0x3a8df43b	0.0010830233
19	0x3b379a33	0.0028015494
20	0x3bfa9ed2	0.0076483274
21	0xbea600a7	-0.32422373
22	0x3d601245	0.054704923
23	0xbb237c70	-0.0024945997
24	0xbc1f038d	-0.009705436
25	0x3acd16a0	0.0015647002
26	0xba96e4da	-0.0011512295
27	0x3ae3276d	0.0017330475
28	0xbeb543de	-0.3540334
29	0x3f4e8b13	0.8068096
30	0xbde36b92	-0.11104502
31	0x398b952d	0.0002662329
32	0x3c449c07	0.01200009
33	0x3aa9f902	0.0012967887
34	0xbb872c0c	-0.004125124
35	0xbaaa2a09	-0.0012982498
36	0xbb454dae	-0.0030106115
37	0x3c14a838	0.00907331
38	0x3e724b17	0.23661457
39	0xbcb5e800	-0.022205353
40	0xbc044c03	-0.008074763
41	0x3ce5c733	0.028049087
42	0x3b2db6b4	0.0026506605
43	0x3ca5322f	0.020165531
44	0x3b0e38ca	0.002170133
45	0xbf5d1409	-0.86358696
46	0x3d88c95f	0.066790335
47	0x39194145	0.00014615532
48	0x3af9843e	0.0019036604
49	0xb9a0dd68	-0.0003068254
50	0x3ef5f838	0.48040938
51	0xbdf92887	-0.12165933
52	0xbc84663f	-0.016162036
53	0xbc201800	-0.009771347
54	0x3d14515a	0.036210395
55	0x3beeabc2	0.0072836587
56	0x3b23b0c1	0.002497718
57	0x3bcc617b	0.0062372065
58	0xbbaf592d	-0.0053512068
59	0x3ae482dd	0.001743402
60	0x3c804e37	0.015662296
61	0x3cbee4e6	0.023302507
62	0x3be95a22	0.0071213404
63	0x3cba929b	0.022774985
64	0xbcab525f	-0.020913301
65	0xbbf319f3	-0.007418865
66	0x3acd61df	0.0015669427
67	0x3be13ace	0.006873465
68	0x3abe7908	0.001453192
69	0xbc096663	-0.008386227
70	0x3b058bb7	0.0020377466
71	0x3bec719f	0.007215693
72	0x3c56b716	0.0131051745
73	0xb99773e1	-0.000288873
74	0xbb0f2765	-0.002184355
75	0x3a599503	0.00083000975
76	0xbf2f5d26	-0.6850151
77	0xbcd64c7a	-0.026159514
78	0xbae71aac	-0.001763185
79	0xbab7d441	-0.0014025049
80	0xbd4351f8	-0.047685593
81	0xbc24df07	-0.0100629395
82	0x3d38fc11	0.045162264
83	0x3a385331	0.00070314395
84	0xbc136254	-0.008995611
85	0xbb82c5e4	-0.0039908756
86	0x3b429dee	0.0029696184
87	0xbc49638f	-0.012291803
88	0xb96c486e	-0.00022533696
89	0x3cc4f213	0.024041211
90	0x3b98f866	0.0046682833
91	0x39065653	0.00012811394
92	0xbd607c47	-0.05480602
93	0xbd60f38e	-0.05491977
94	0xbf79ab26	-0.97526777
95	0x3a4ff05a	0.00079322385
96	0xbdb37ddd	-0.08764241
97	0xbada1591	-0.0016638507
98	0x392c97b3	0.0001645971
99	0x3c3dac6a	0.011576751
100	0x3a6faa51	0.00091425056
101	0xb906bc82	-0.0001284946
102	0x3cf706e0	0.030154645
103	0x3e30f4fd	0.17280956
104	0xbce02979	-0.027363526
105	0xbc4f1eec	-0.01264165
106	0x3bb87b24	0.005629914
107	0x3cce30b8	0.025169715
108	0x3b023054	0.0019865232
109	0x3c514073	0.012771714
110	0xbd7381bb	-0.059449892
111	0xba49ae38	-0.0007693502
112	0x3b4ea847	0.0031533407
113	0xbc4a2bea	-0.0123395715
114	0x3c0ba9e6	0.008524394
115	0x3d579e39	0.052641127
116	0x3c3459cd	0.011007738
117	0x3a2c2b11	0.00065676967
118	0x3ab8ada9	0.0014089841
119	0xbad6de8e	-0.0016393231
120	0x3a529423	0.00080329383
121	0x39af5f5a	0.00033449644
122	0xbf2456df	-0.64195055
123	0xbb3aa61e	-0.0028480361
124	0x3aba44ea	0.0014211212
125	0x39a97c14	0.00032326637
126	0x3a91a474	0.0011111633
127	0x3a561b7a	0.00081675465
128	0xbedf4000	-0.43603516
129	0xbcda5dfb	-0.026656142
130	0xbe4b6dd6	-0.19866118
131	0x3a984af7	0.0011619021
132	0xbc30c1b1	-0.010788367
133	0x38c98bcf	9.610468e-05
134	0xbd970007	-0.07373052
135	0x3ab1fc8c	0.0013579293
136	0x3d0af5ec	0.033925936
137	0xbb1bbe02	-0.0023764377
138	0x3b47d5a3	0.0030492328
139	0xbc885c10	-0.016645461
140	0x3c37e742	0.01122457
141	0xbb7f41ff	-0.003894925
142	0x3afcb909	0.0019281219
143	0x3f37999a	0.7171875
144	0x3dc87502	0.097879425
145	0x3c5b1a0a	0.013372907
146	0x3a020fa6	0.0004961438
147	0xb9623ec9	-0.00021576429
148	0x3d9f961d	0.07792304
149	0x3c18ebd5	0.0093335705
150	0x3d7856e2	0.060629733
151	0xba3aa83f	-0.00071204075
152	0xbd0516f3	-0.03249259
153	0x3adc6f87	0.0016817906
154	0xbb9867e7	-0.004651058
155	0x3a996d62	0.0011705572
156	0xbe1354ac	-0.14387769
157	0xb94a61cb	-0.00019300652
158	0x3b5520ff	0.0032520888
159	0x3df685b5	0.12037221
160	0x39ef0b2d	0.0004559396
161	0xbcb254a5	-0.021768877
162	0x3c64c0e3	0.013962003
163	0xbb243542	-0.0025056158
164	0x3b8a1717	0.0042141783
165	0xbec2321a	-0.3792885
166	0xbd85e380	-0.06537533
167	0x3e21a817	0.15786777
168	0x3d394c48	0.045238763
169	0x3b2c878d	0.0026325912
170	0xbb8b136d	-0.004244259
171	0xbc4e8a20	-0.012606174
172	0xbb47d2b9	-0.003049059
173	0x3a645030	0.00087094586
174	0x3b8fae31	0.004384779
175	0xbaa9ffb3	-0.0012969881
176	0x3a1a4c78	0.00058860285
177	0x3f62c4d0	0.8858156
178	0xbe098072	-0.13427904
179	0xbbb5038e	-0.0055241054
180	0x3b3df0da	0.002898267
181	0xbc3198c9	-0.0108396495
182	0x3b5319e2	0.0032211472
183	0x3c800c90	0.01563099
184	0x3c9ac581	0.018893005
185	0xbae6c046	-0.0017604909
186	0x3c81719e	0.015801247
187	0x3c3b41a0	0.01142922
188	0xb955d378	-0.00020392041
189	0xbdb0020e	-0.08594142
190	0xbdc5ca43	-0.09657719
191	0xbdce2d54	-0.100672394
192	0xbc115b99	-0.008871936
193	0x3bd91dd2	0.0066258693
194	0xbb1df2a3	-0.0024100922
195	0xbebc587a	-0.36786252
196	0xb9722bf6	-0.00023095295
197	0x3d7222ed	0.05911534
198	0x3eae4081	0.34033588
199	0x3a97f425	0.0011593146
200	0xbc7a0a46	-0.015261238
201	0xba4008d2	-0.0007325533
202	0xbe1ac88a	-0.15115562
203	0xbbd90163	-0.0066224798
204	0x3a37c9a2	0.00070109416
205	0xbc368c9c	-0.011141922
206	0x3a809683	0.0009810481
207	0xb98b0c1a	-0.00026521162
208	0xbbfa91df	-0.0076467837
209	0xbcd72fa2	-0.02626783
210	0xbce34df8	-0.02774714
211	0xbc1b2cd7	-0.00947114
212	0x3ea6f15d	0.3260602
213	0xbaa2d160	-0.0012422018
214	0x3bf28612	0.0074012363
215	0xbd5ba54d	-0.05362444
216	0xbac4b74f	-0.0015008243
217	0x3c26639f	0.010155587
218	0x3b13b8c1	0.0022540542
219	0xba8b0908	-0.001060755
220	0x3ac24bcd	0.0014823616
221	0xbd44ccb6	-0.04804679
222	0xbbf998af	-0.0076170783
223	0xbc17de11	-0.009269253
224	0xbcdbd799	-0.026836203
225	0x3de4d702	0.11173822
226	0xbbc04657	-0.00586776
227	0x3a8ac5a8	0.0010587471
228	0xbb95688e	-0.004559583
229	0x37b87029	2.1986738e-05
230	0x3c09a839	0.008401924
231	0x3a9bbc4f	0.0011881682
232	0xbb8189e9	-0.0039532077
233	0x3cb6b0a0	0.022301018
234	0x3c58edb9	0.013240271
235	0xbcecf92e	-0.028927412
236	0x3b53ec0a	0.0032336735
237	0x3ae72749	0.0017635609
238	0x3ac2a088	0.0014848867
239	0xb9223e31	-0.00015472692
240	0xbc06f2df	-0.008236616
241	0x3c8e2f4b	0.017356535
242	0x3bdb6ca8	0.0066963024
243	0x3b17279c	0.002306438
244	0xbb6ba71f	-0.0035957766
245	0x3aa5339b	0.0012603881
246	0x3c052334	0.008126069
247	0xbf607b8b	-0.8768851
248	0xbb1ab407	-0.002360584
249	0xb931d9e4	-0.00016961206
250	0x3b05a92e	0.0020395028
251	0x3d9fee2b	0.07809099
252	0x39770918	0.00023559143
253	0x3bd7f1e7	0.0065901163
254	0xb8d65fd3	-0.00010222164
255	0xbe4b4102	-0.19849017

dist.fc_mean.bias f4 [4]
0	0xbabd569f	-0.0014445371
1	0x3a0a9a66	0.00052872894
2	0x3a9b49e0	0.0011847578
3	0x3a07f6b9	0.0005186606

dist.fc_logstd.weight f4 [4, 128]
0	0xbca2187f	-0.019787071
1	0xbdb06137	-0.08612292
2	0xbcd441b9	-0.025910245
3	0xbfbede3d	-1.4911572
4	0xbe89f6a8	-0.26945996
5	0xbfd94d2a	-1.6976674
6	0xbf744b4c	-0.95427394
7	0x3c318627	0.010835207
8	0xbaf4f279	-0.0018687985
9	0xbd1e2fe4	-0.03861989
10	0x3da13957	0.07872265
11	0xbd97ae8d	-0.0740634
12	0xbbe243be	-0.006905048
13	0xc05a4bab	-3.4108684
14	0x3f881e8b	1.0634321
15	0x3ede3889	0.43402508
16	0xbd313d8f	-0.043271597
17	0x4002cb74	2.0436678
18	0xbfd00a66	-1.6253173
19	0xbfd5934e	-1.6685579
20	0xbf397a4f	-0.72452253
21	0xbe297d9f	-0.16551827
22	0xbd63516d	-0.055497576
23	0xbf1fc48e	-0.62409294
24	0xbc0650a9	-0.008197942
25	0xbf9cfdec	-1.2264991
26	0x3fc7b4c0	1.5602036
27	0x3fe014be	1.750633
28	0xbefc7865	-0.49310604
29	0x3f2e0b0f	0.67985624
30	0xbc111b52	-0.008856611
31	0xbf6253c4	-0.88409066
32	0xbd936255	-0.0719649
33	0xbd021000	-0.03175354
34	0xc01c0597	-2.4378412
35	0xc00187a1	-2.0239031
36	0xbce6bb08	-0.028165355
37	0xbeb5b671	-0.35490754
38	0x3ea6742e	0.32510513
39	0x3da62de7	0.08114224
40	0xbfa2d170	-1.2720165
41	0x3e05c74e	0.1306431
42	0xc01127c1	-2.2680514
43	0xbf07f9c8	-0.5311551
44	0xc03a432c	-2.9103498
45	0xbf7af729	-0.98033386
46	0xbe75a2de	-0.2398791
47	0x3ec1369d	0.3773698
48	0xc00e1552	-2.2200513
49	0xbe7142f9	-0.23560704
50	0xbf2382a9	-0.63871247
51	0xbc8eafa3	-0.017417734
52	0x3f236c86	0.6383747
53	0xbd57d9d9	-0.05269799
54	0xbca425f8	-0.020037636
55	0xbe9301bc	-0.2871226
56	0xbf7a26e8	-0.97715616
57	0x3f6deda6	0.9294075
58	0xbf2a635a	-0.6655785
59	0xbfd9f8a7	-1.7029008
60	0x3e04055c	0.1289267
61	0xbeba6293	-0.3640333
62	0x3c8f0411	0.017457994
63	0xbecbbb81	-0.39791492
64	0xbc9fd3e4	-0.019510217
65	0xbcb6f51f	-0.02233368
66	0xbfe1a744	-1.762917
67	0xbf1807f7	-0.59387153
68	0xbfce92b0	-1.6138515
69	0xbf899d30	-1.0751095
70	0xbe9edad9	-0.31026343
71	0xbc869af7	-0.016431315
72	0xbf31a8b9	-0.69398075
73	0xbfbaab89	-1.4583598
74	0xbf2ae7d5	-0.6676
75	0xbe109de4	-0.1412273
76	0xbe37a948	-0.1793567
77	0xbfc8febe	-1.5702741
78	0xbefc5b66	-0.4928848
79	0x3e4f2a3f	0.2023096
80	0x3d8d9542	0.06913234
81	0x3ba05a4b	0.0048935763
82	0x3cae3c33	0.02126894
83	0xbf146ea6	-0.57981336
84	0x3e06a6b1	0.13149525
85	0xbe3b14da	-0.18269673
86	0x3f9f7a99	1.2459289
87	0x3d64b3b5	0.055835444
88	0xbf1de14f	-0.6167192
89	0xbda22a02	-0.079181686
90	0x4005c7eb	2.090327
91	0x3dc5f63e	0.096661076
92	0x3e6ea62a	0.23305574
93	0x3c5d548e	0.013508929
94	0x3e829fb4	0.2551247
95	0x3d434f6c	0.047683164
96	0xbcf235d0	-0.029566675
97	0xbf87f0f4	-1.0620408
98	0x3ed5008e	0.41601986
99	0xbe531b2a	-0.20615831
100	0x3f37f30f	0.71855253
101	0x3e988dd5	0.2979571
102	0xbbd3e1fe	-0.0064661494
103	0xbec11a31	-0.37715295
104	0xbea6c3db	-0.325713
105	0xbd55350a	-0.052052535
106	0xbec43010	-0.3831792
107	0x3d808146	0.06274657
108	0xc0438c2d	-3.0554307
109	0xbf012378	-0.50444746
110	0x3f949251	1.1607152
111	0x3f8271e5	1.0191008
112	0x3fd11e85	1.6337439
113	0xbc57bd63	-0.013167712
114	0xc030df79	-2.7636397
115	0x3e811c43	0.25216874
116	0xbf74e9f9	-0.95669514
117	0x3f300d16	0.6876997
118	0xbf9f3456	-1.2437847
119	0x3e094e50	0.1340878
120	0xc021410f	-2.5195959
121	0xbda4a040	-0.08038378
122	0x3d668639	0.05628035
123	0xbea30a8c	-0.31843984
124	0xbdacd8dd	-0.08439801
125	0xbefc0e19	-0.49229506
126	0xbf055391	-0.5208064
127	0x3e86daeb	0.26338896
128	0x3ffd9de2	1.9813807
129	0x3e0e4b18	0.13895833
130	0xbd3fd8a4	-0.046837464
131	0x3e59d18e	0.21271345
132	0xbf3b4bb8	-0.7316241
133	0x3dc67b62	0.09691502
134	0x3f44c65f	0.7686519
135	0xbef029c0	-0.46906853
136	0x3d165975	0.036706407
137	0xbd145663	-0.036215197
138	0x3f4d891b	0.8028733
139	0xbcf7e0e0	-0.030258596
140	0xbcb231b5	-0.021752218
141	0xbebb173b	-0.3654116
142	0xc01d7c39	-2.460707
143	0x3e279620	0.16365862
144	0xbdc3f87b	-0.09568878
145	0xbf5e2d05	-0.86787444
146	0xbf1f1b24	-0.6215079
147	0x4063867a	3.5550828
148	0xbe3d1eae	-0.18468735
149	0xbe8927b2	-0.26788098
150	0xbcc9b82d	-0.024623955
151	0x3b359eb7	0.002771301
152	0x3bea01e5	0.007141339
153	0xbead3ceb	-0.3383554
154	0xbf3ec145	-0.74513656
155	0xc0058038	-2.0859509
156	0xbe8a7804	-0.2704469
157	0xbe4327c1	-0.19058134
158	0xbcb4e56c	-0.022082053
159	0x3e20a67c	0.15688509
160	0x3f6fc127	0.936541
161	0xbe9b840a	-0.30374175
162	0x3e7dc64b	0.24782674
163	0xbea8ea6d	-0.32991353
164	0xbcce69a9	-0.025196867
165	0x3db397af	0.08769166
166	0xbf8df5e1	-1.1090661
167	0xbdafb2b0	-0.08579004
168	0x3f268322	0.6504384
169	0x3d78d158	0.06074652
170	0x3f70d4df	0.94074816
171	0x3f2bfa4e	0.6717881
172	0x3f90e269	1.1319095
173	0xbf69639d	-0.9116762
174	0xbf3b70a5	-0.73218757
175	0xbf9dca21	-1.232731
176	0x4076c69e	3.8558726
177	0x3f3a1bd2	0.726987
178	0xbe600fbe	-0.21881005
179	0xbd831d12	-0.06402029
180	0x3f588cb8	0.8458972
181	0xbdde72d2	-0.10861744
182	0xbd96a657	-0.073559456
183	0xbfbe598d	-1.4871079
184	0xc0351910	-2.8296547
185	0xc04c8fa9	-3.1962683
186	0x3e20f98d	0.15720196
187	0xbfe860fd	-1.8154598
188	0xbe3192a1	-0.1734109
189	0xbd953d0c	-0.072870344
190	0xbd4d11c4	-0.05006577
191	0xbf0347f2	-0.51281655
192	0xbe503dae	-0.20336029
193	0xbccde2ac	-0.0251325
194	0xc033dc67	-2.8103273
195	0xbf12be13	-0.5732128
196	0xbf2ef916	-0.68348825
197	0x3fd2bba3	1.6463512
198	0xbf0a239f	-0.53960603
199	0xbca275c7	-0.019831551
200	0xbf161bde	-0.5863627
201	0xbf4a1835	-0.78943187
202	0x3e4e3a9e	0.20139548
203	0xc0162d2c	-2.346507
204	0xbe972031	-0.29516748
205	0xbeee9ef9	-0.46605662
206	0x3e4b80a4	0.19873291
207	0xbdf55a04	-0.1198006
208	0x3e64be31	0.22338177
209	0x3b661b3f	0.0035111455
210	0x3b2d9b36	0.0026490218
211	0x3f0e115d	0.55495244
212	0x3efb9b6e	0.4914202
213	0xbd9c7d17	-0.076410465
214	0x3e61ae42	0.2203913
215	0xbd867ef3	-0.065671824
216	0xbfb5846e	-1.4181039
217	0xbe26209b	-0.16223375
218	0xbf9d502c	-1.2290092
219	0xbf645728	-0.8919549
220	0xbef27c43	-0.4736043
221	0xbc709a96	-0.014685294
222	0xbfada71e	-1.3566625
223	0x3f60b9cb	0.877835
224	0xbb99c613	-0.0046928017
225	0xbf0a5717	-0.5403914
226	0x3e979c08	0.2961123
227	0xbdac92d2	-0.08426441
228	0xbfa35d48	-1.2762842
229	0xbfc00cba	-1.5003884
230	0xbd8f7870	-0.070053935
231	0x3cfec25d	0.031098539
232	0xbf8ea7cf	-1.1144961
233	0xbea0adbb	-0.31382546
234	0x3fa7e058	1.3115339
235	0xbdce57cd	-0.100753404
236	0xbf163221	-0.5867024
237	0xbf468966	-0.77553403
238	0xbf1e0889	-0.61731774
239	0xbfb5851a	-1.4181244
240	0xbd3ccbf9	-0.04609296
241	0xbca004e8	-0.01953359
242	0x3e7e8e1b	0.24858896
243	0xbeecd46f	-0.46255824
244	0xbf634b4a	-0.88786757
245	0xbf868ef5	-1.0512377
246	0x3f8f39a4	1.1189466
247	0xbf2aa401	-0.666565
248	0xbe9e86a8	-0.3096211
249	0xbe0387d4	-0.12844783
250	0xbf82fb9c	-1.0233035
251	0xbd97d56d	-0.074137546
252	0xbed8956e	-0.42301506
253	0xbf023d7f	-0.50875086
254	0xbff8801b	-1.9414095
255	0x3e6ee83b	0.23330776

dist.fc_logstd.bias f4 [4]
0	0xbf547338	-0.8298831
1	0xbf358e07	-0.7091984
2	0xbf7bef69	-0.98412186
3	0xbf427dd8	-0.7597327

exp_avg f4 [128, 15]
0	0x3c548e77	0.012973419
1	0x3cf4fb72	0.029905055
2	0xbe200953	-0.15628557
3	0x3c4efc60	0.012633413
4	0x3c3d5e86	0.011558181
5	0xbb33201d	-0.0027332373
6	0x3b8e9565	0.0043513053
7	0x3c8d397a	0.017239321
8	0xbb1a81cb	-0.0023575898
9	0x3be331ac	0.0069334116
10	0x3d2e9636	0.04262372
11	0xbb839497	-0.004015516
12	0x00000000	0.0
13	0x00000000	0.0
14	0xbde8301b	-0.113373004
15	0x3e02731e	0.12739226
16	0xbe4e71dd	-0.20160623
17	0xbe352894	-0.1769126
18	0xbc0a3d9e	-0.008437542
19	0xbd282741	-0.04105306
20	0xbd887ae9	-0.06664068
21	0x3e4fe5de	0.20302531
22	0x3d63769b	0.055533033
23	0x38ed23a8	0.00011307682
24	0x3e8078aa	0.2509206
25	0x3d3e3d45	0.04644515
26	0x3dad1140	0.08450556
27	0x00000000	0.0
28	0x00000000	0.0
29	0xbe8250b6	-0.25452203
30	0x3d487b83	0.048945915
31	0x3ef8c614	0.48588622
32	0xbeb9f10d	-0.3631672
33	0x3e34820d	0.17627735
34	0x3ea9e669	0.33183601
35	0x3f3b49b9	0.73159367
36	0xbeb6e2e4	-0.3571998
37	0xbdfd644a	-0.12372644
38	0xbe95c15f	-0.29249093
39	0xbe19eb70	-0.15031219
40	0x3e031694	0.12801582
41	0xbf165c35	-0.58734447
42	0x00000000	0.0
43	0x00000000	0.0
44	0xbe98c649	-0.2983878
45	0xbcf24d6b	-0.029577931
46	0xbdd4ab0f	-0.10384189
47	0xbdcd9865	-0.100388326
48	0xbdb8746f	-0.09006583
49	0xbdc6561e	-0.09684394
50	0xbdb6cafd	-0.08925436
51	0x3bb06c7a	0.005384025
52	0x3df4ec77	0.119591646
53	0xbbb86d34	-0.0056282524
54	0x3cc09b7c	0.02351164
55	0x3d5b5e5d	0.05355679
56	0x3d031dbf	0.03201079
57	0x00000000	0.0
58	0x00000000	0.0
59	0xbe7ab152	-0.24481705
60	0xbc854848	-0.016269818
61	0x3bd34c4d	0.0064483047
62	0x3df79936	0.120897695
63	0x3d80352f	0.06260144
64	0xbc8d46c7	-0.017245663
65	0xbe100118	-0.14062917
66	0xbbde2094	-0.006778786
67	0xbdc3859a	-0.09546967
68	0x3cddd449	0.027078765
69	0xbe308095	-0.1723655
70	0xbdcb2d49	-0.09920747
71	0x3d26c1aa	0.040712036
72	0x00000000	0.0
73	0x00000000	0.0
74	0x3ddef2ec	0.108861774
75	0xbc84c707	-0.016208185
76	0x3d0157d3	0.031577896
77	0x3c96e6d3	0.018420612
78	0x3b9e084f	0.004822768
79	0x3c7272ba	0.014797861
80	0xbd814f4a	-0.06313951
81	0x3c0c0cd9	0.008547985
82	0x3c387df7	0.011260501
83	0x3d1446cb	0.036200326
84	0xbd62ac1f	-0.05533993
85	0xbdde8c74	-0.10866633
86	0x3d351d07	0.044217136
87	0x00000000	0.0
88	0x00000000	0.0
89	0xbdfb4851	-0.12269653
90	0xbca6f2ac	-0.020379387
91	0x3cc46d5d	0.02397793
92	0xbcd082bd	-0.025452966
93	0xba9e8dec	-0.0012096739
94	0x3d170613	0.036871027
95	0x3d89fdea	0.067378834
96	0x3ca2e149	0.019882815
97	0xbc88501f	-0.016639767
98	0x3cf6597b	0.030071964
99	0x3c9a6634	0.018847562
100	0x3b19d60c	0.002347353
101	0x3bbebaee	0.0058206236
102	0x00000000	0.0
103	0x00000000	0.0
104	0x3db96793	0.09052958
105	0xbba6c4e8	-0.005089391
106	0x3d34f68d	0.04418044
107	0x3dc9296a	0.09822352
108	0x3d841e0f	0.06451046
109	0xbd4413f1	-0.04787058
110	0x3e1d6391	0.15370013
111	0xbe045ce1	-0.12926055
112	0x3c2ea7d9	0.010660135
113	0x3cba57c3	0.022746926
114	0xbdf84ad8	-0.1212365
115	0x3d72b2c1	0.059252504
116	0xbca4a059	-0.020095991
117	0x00000000	0.0
118	0x00000000	0.0
119	0x3e90d00b	0.28283724
120	0x3bfceb2b	0.007718464
121	0xbcb60c84	-0.022222765
122	0xbd819e04	-0.06328967
123	0x3dbba93a	0.09163137
124	0x3c043e78	0.008071534
125	0xbc7e1f26	-0.015510356
126	0x3d1e2d55	0.03861745
127	0xbe6e9125	-0.23297556
128	0x3c3b9c4b	0.011450837
129	0x3bf1e69d	0.0073822276
130	0xbe75fe41	-0.24022771
131	0x3c831545	0.016001353
132	0x00000000	0.0
133	0x00000000	0.0
134	0xbda76b09	-0.08174712
135	0x3e2919c6	0.16513738
136	0x3e5f6d5d	0.21819063
137	0xbe725bb3	-0.23667793
138	0x3cab171d	0.020885045
139	0x3d6024a2	0.054722436
140	0x3e6ace2d	0.22930212
141	0xbe24edfd	-0.1610641
142	0x3d250e1f	0.04029667
143	0xbcb25db2	-0.021773193
144	0xbde4e0df	-0.11175703
145	0x3c44d762	0.012014242
146	0xbe287c55	-0.16453679
147	0x00000000	0.0
148	0x00000000	0.0
149	0xbeabcc89	-0.33554485
150	0xbddb0605	-0.106945075
151	0xbd295b9e	-0.04134714
152	0x3e43e0e9	0.19128765
153	0xbd9f055e	-0.077646956
154	0x3c20b352	0.009808378
155	0xbe6b945c	-0.23005813
156	0x3e26823b	0.16260616
157	0xbe0c56ee	-0.13705036
158	0xbd90f614	-0.07078186
159	0x3eee6b71	0.46566346
160	0xbe206e7b	-0.15667145
161	0xbdf9b2da	-0.12192316
162	0x00000000	0.0
163	0x00000000	0.0
164	0xbda99888	-0.08281046
165	0x3dc17b7b	0.0944738
166	0xbd837b5b	-0.064200126
167	0xbd324135	-0.043519218
168	0xbde8d53e	-0.11368798
169	0xbd080b10	-0.033213675
170	0x3cbfb91c	0.023403697
171	0xbd23fb55	-0.04003461
172	0x3d7a6f9d	0.0611416
173	0x3d3e6024	0.046478406
174	0x3df90f47	0.12161117
175	0x3e67f9f2	0.2265394
176	0x3d9ec3df	0.07752203
177	0x00000000	0.0
178	0x00000000	0.0
179	0x3d86d2bb	0.065831624
180	0xbcb84c81	-0.022497417
181	0xbe08c4cc	-0.13356322
182	0xbd01e804	-0.031715408
183	0x3db4a8a3	0.088212274
184	0xbd12b31f	-0.035815354
185	0x3cdca621	0.026934685
186	0x3d56837e	0.052371494
187	0xbdb548fa	-0.0885181
188	0x3d1bbad2	0.038019963
189	0xbe1cea28	-0.15323699
190	0xbe2ca177	-0.16858469
191	0x3ce842c5	0.02835215
192	0x00000000	0.0
193	0x00000000	0.0
194	0x3ef3050b	0.47464785
195	0xbe560c9a	-0.20903245
196	0x3ed73254	0.42030585
197	0x3e8ab9bb	0.27094826
198	0x3d594b19	0.053050134
199	0x3e807418	0.25088573
200	0x3e254c2d	0.1614234
201	0xbdab7975	-0.083727755
202	0xbc660acf	-0.014040663
203	0xbbb2b961	-0.005454228
204	0xbcad08a4	-0.021122284
205	0x3e0be39c	0.13661045
206	0xbdd34495	-0.10315815
207	0x00000000	0.0
208	0x00000000	0.0
209	0xbeec7c1b	-0.46188435
210	0x3c6db8d8	0.014509402
211	0x3d78434c	0.060611054
212	0xbbea6569	-0.0071532023
213	0x3d516339	0.051120017
214	0x3cc011d0	0.023445994
215	0x3d8d35bb	0.06895014
216	0xbd0a0737	-0.033698287
217	0xbd1579f0	-0.03649324
218	0xbc369736	-0.01114445
219	0xbc7d78f9	-0.015470737
220	0xbbbfafe7	-0.0058498266
221	0xbd2c1aa5	-0.042017598
222	0x00000000	0.0
223	0x00000000	0.0
224	0x3c55a663	0.013040158
225	0xbdb1408a	-0.08654888
226	0x3e011d06	0.12608728
227	0xbe356a02	-0.1771622
228	0xbd872e94	-0.06600681
229	0xbdbbcb10	-0.091695905
230	0x3e1141bd	0.14185233
231	0xbe51f91b	-0.20505182
232	0x3e28abb0	0.16471744
233	0x3e096a8b	0.13419549
234	0xbe4198d5	-0.18905957
235	0x3dfd1189	0.1235686
236	0x3d8044a6	0.06263094
237	0x00000000	0.0
238	0x00000000	0.0
239	0xbeb2f64e	-0.3495354
240	0x3d11c8cd	0.03559189
241	0xbd4a1264	-0.049333945
242	0x3da18c6d	0.07888112
243	0xbc937651	-0.018000754
244	0xbd3fe8f2	-0.046853013
245	0x3d538cd1	0.051647965
246	0xbdd5babf	-0.104360096
247	0x3e3949ce	0.1809456
248	0xbc2656b6	-0.010152509
249	0xbe755acd	-0.23960419
250	0x3e84a442	0.2590657
251	0xbcea642f	-0.028612224
252	0x00000000	0.0
253	0x00000000	0.0
254	0x3e84ce61	0.25938705
255	0xbda13602	-0.07871629

exp_avg_sq f4 [128, 15]
0	0x3f29addf	0.6628093
1	0x3dc0ca32	0.09413566
2	0x4005adc0	2.0887299
3	0x3f1d6889	0.61487633
4	0x3e0b61a6	0.13611469
5	0x3ef4b7f1	0.47796586
6	0x3e7b2f0f	0.2452967
7	0x3f6d74c8	0.9275632
8	0x3e5a3ba7	0.21311818
9	0x3f633748	0.8875623
10	0x3e9672a5	0.29384342
11	0x3e476466	0.19471893
12	0x00000000	0.0
13	0x00000000	0.0
14	0x40a9aa21	5.3020177
15	0x3f558126	0.8340019
16	0x3eb704da	0.3574589
17	0x3efb28a0	0.49054432
18	0x3ecd2738	0.40068984
19	0x3ee0b7f2	0.4389034
20	0x3ec3e911	0.38263753
21	0x3e340d59	0.17583217
22	0x3ee1975a	0.44060785
23	0x3ea4252f	0.3205962
24	0x3f464594	0.7744992
25	0x3ea0632d	0.31325665
26	0x3e8c1118	0.27356791
27	0x00000000	0.0
28	0x00000000	0.0
29	0x3f52cb2f	0.82341284
30	0x40d8d6e8	6.7762337
31	0x3fff4cbc	1.9945292
32	0x409d8c9f	4.9234157
33	0x400ed821	2.2319415
34	0x40176080	2.365265
35	0x4081e5c8	4.0592995
36	0x3f808a82	1.0042269
37	0x3fc823a2	1.5635874
38	0x3fd6b1e9	1.6773044
39	0x4084934f	4.142982
40	0x3fa0e39b	1.256946
41	0x4028f518	2.6399593
42	0x00000000	0.0
43	0x00000000	0.0
44	0x4128abe7	10.541968
45	0x3eb37e0a	0.35057098
46	0x3e313509	0.17305388
47	0x3f9d7d2b	1.2303823
48	0x3e9a4976	0.3013417
49	0x3e895c76	0.26828355
50	0x3eeae5bc	0.45878398
51	0x3e1096a4	0.14119965
52	0x3efce994	0.49396956
53	0x3e90636f	0.28200862
54	0x3f111717	0.5667586
55	0x3e986da8	0.2977116
56	0x3ec4323d	0.3831958
57	0x00000000	0.0
58	0x00000000	0.0
59	0x40411334	3.016797
60	0x3dcf1d53	0.10113015
61	0x3e85307a	0.26013547
62	0x3e6a965e	0.22908923
63	0x3d949861	0.072556265
64	0x3efef9eb	0.49800047
65	0x3f0b0227	0.5430016
66	0x3e9a03c7	0.30081007
67	0x3f0e7cba	0.5565907
68	0x3d1c49f0	0.03815645
69	0x3f3719a9	0.7152353
70	0x3f359f7a	0.70946467
71	0x3e6a3acf	0.22873996
72	0x00000000	0.0
73	0x00000000	0.0
74	0x3f183b89	0.59465843
75	0x3e20f0e0	0.15716887
76	0x3dd953d3	0.10611691
77	0x3e0d8942	0.13821891
78	0x3de3e29f	0.11127209
79	0x3e4549ab	0.19266383
80	0x3e500403	0.2031403
81	0x3e2d1ce3	0.1690555
82	0x3e88af27	0.2669613
83	0x3d824553	0.06360879
84	0x3ef6bdb2	0.481916
85	0x3ef83e45	0.48485008
86	0x3db13303	0.08652308
87	0x00000000	0.0
88	0x00000000	0.0
89	0x3f1119c2	0.5667993
90	0x3e8ead07	0.27866384
91	0x3eb1fb41	0.34762004
92	0x3ed3c9c0	0.4136486
93	0x3e569ce1	0.20958282
94	0x3ed7091f	0.41999146
95	0x3f25013e	0.6445502
96	0x3eb803b1	0.35940316
97	0x3f0d0768	0.55089426
98	0x3d9425d1	0.072337754
99	0x3f40a5e6	0.7525314
100	0x3f0c01de	0.5469035
101	0x3e8ae505	0.27127853
102	0x00000000	0.0
103	0x00000000	0.0
104	0x3fde9b4c	1.7391143
105	0x3db85ca6	0.09002046
106	0x3e0379c6	0.12839422
107	0x409c2bf7	4.880367
108	0x3e8c31ad	0.2738165
109	0x3e810e8a	0.25206405
110	0x3f91f7c3	1.1403736
111	0x3e800ecb	0.25011286
112	0x3f1c3bc7	0.61028713
113	0x3e0f7ad7	0.14011703
114	0x3f567e11	0.8378611
115	0x3edaf5a6	0.4276554
116	0x3e30ef95	0.17278893
117	0x00000000	0.0
118	0x00000000	0.0
119	0x411c5475	9.770619
120	0x3f66468a	0.89951384
121	0x3eac2c5a	0.33627588
122	0x3e53838b	0.20655648
123	0x3f20d220	0.62820625
124	0x3e83ce31	0.2574325
125	0x3f78c512	0.97175705
126	0x3f6822d4	0.90678144
127	0x3fd29872	1.6452773
128	0x3df82593	0.12116542
129	0x3f49edb5	0.7887834
130	0x403d7e54	2.9608355
131	0x3e1bd4c1	0.15217878
132	0x00000000	0.0
133	0x00000000	0.0
134	0x3ef412fd	0.47670737
135	0x3eda2949	0.42609623
136	0x3e929b40	0.2863407
137	0x406d6978	3.7095623
138	0x3ed83339	0.4222658
139	0x3e9eb12e	0.30994552
140	0x3f63e3f4	0.89019704
141	0x3e84eba5	0.25961033
142	0x3f36e19b	0.71437997
143	0x3eaf417f	0.34229657
144	0x3f1b0b86	0.6056446
145	0x3f25550e	0.6458291
146	0x3e9ee855	0.3103663
147	0x00000000	0.0
148	0x00000000	0.0
149	0x410f5dce	8.960402
150	0x3ec41fa7	0.383054
151	0x3e9f9f64	0.31176293
152	0x3f7af77c	0.9803388
153	0x3ee18048	0.44043183
154	0x3f07afe3	0.53002757
155	0x3f204093	0.6259853
156	0x3ebc53f7	0.3678281
157	0x3f66dac2	0.9017755
158	0x3e3bd109	0.1834146
159	0x3fdca837	1.7238835
160	0x3f88cdae	1.0687768
161	0x3f247c15	0.64251834
162	0x00000000	0.0
163	0x00000000	0.0
164	0x40438177	3.054777
165	0x3fa437af	1.2829493
166	0x3f231abb	0.6371266
167	0x3f3f14e1	0.74641234
168	0x3ec01f73	0.37523994
169	0x3f48442f	0.7822904
170	0x3f4f6f1e	0.81028926
171	0x3f2ec6a3	0.68271846
172	0x3f3f295c	0.74672484
173	0x3e75a7cd	0.23989792
174	0x3f927b63	1.1443905
175	0x4050ee21	3.2645342
176	0x3f10fbb7	0.56634086
177	0x00000000	0.0
178	0x00000000	0.0
179	0x3faf005a	1.3671982
180	0x3f7a0335	0.97661144
181	0x3f283cc2	0.6571771
182	0x407bd175	3.9346592
183	0x3f12541b	0.57159585
184	0x3f51869d	0.8184603
185	0x3feab13f	1.8335341
186	0x3f583e6c	0.8447025
187	0x3f9d978c	1.2311873
188	0x3ed0b782	0.40765005
189	0x3ff51b05	1.9148871
190	0x4002f506	2.046205
191	0x3f0d04ba	0.5508534
192	0x00000000	0.0
193	0x00000000	0.0
194	0x4110a10c	9.039318
195	0x3f970bff	1.1800536
196	0x3f9bfce6	1.2186553
197	0x40a8c287	5.273746
198	0x3f9d6fc6	1.2299736
199	0x3f8ce5fa	1.1007683
200	0x3fcb0deb	1.5863622
201	0x3f8a3960	1.079876
202	0x40275e32	2.6151242
203	0x3f152bc0	0.5826988
204	0x401d910c	2.461978
205	0x40088841	2.1333163
206	0x3f3bca03	0.7335512
207	0x00000000	0.0
208	0x00000000	0.0
209	0x411844af	9.516768
210	0x3ba694d6	0.0050836606
211	0x3c314125	0.010818754
212	0x3ac2aaba	0.0014851906
213	0x3c56aabe	0.013102232
214	0x3b02a796	0.0019936315
215	0x3c55c317	0.013047001
216	0x3b940134	0.004516745
217	0x3c8f34b1	0.01748118
218	0x39dfedb9	0.00042710992
219	0x3b776ae7	0.0037752928
220	0x3c93afac	0.018028103
221	0x3b71c873	0.0036893159
222	0x00000000	0.0
223	0x00000000	0.0
224	0x3b1c774a	0.0023874813
225	0x3ee66d1e	0.45005125
226	0x3e800af7	0.25008366
227	0x4122abcf	10.166945
228	0x3f433cda	0.7626473
229	0x3e841217	0.2579505
230	0x3fbce9dc	1.4758868
231	0x3e65a875	0.22427543
232	0x3faa569c	1.3307681
233	0x3efa8775	0.4893147
234	0x3f35f230	0.71072674
235	0x3f987b37	1.1912602
236	0x3eb434f1	0.3519664
237	0x00000000	0.0
238	0x00000000	0.0
239	0x4197ac8f	18.959257
240	0x3e4c13dd	0.19929452
241	0x3e90b67e	0.2826423
242	0x40995413	4.791513
243	0x3edcc6b3	0.43120345
244	0x3eafc77e	0.34331888
245	0x4012b94c	2.2925596
246	0x3e62e4dd	0.22157617
247	0x3f7f07f3	0.99621505
248	0x3ed5f10a	0.4178546
249	0x3f94d2bf	1.1626815
250	0x3f84dba4	1.0379529
251	0x3ec1373e	0.3773746
252	0x00000000	0.0
253	0x00000000	0.0
254	0x417c0077	15.7501135
255	0x3f0867ff	0.53283685

exp_avg f4 [128]
0	0x3db9623e	0.09051941
1	0x3e5017c5	0.20321567
2	0x3e73f4f6	0.23823914
3	0x3e482885	0.19546707
4	0xbdb201d0	-0.08691752
5	0x3dc8a113	0.097963475
6	0xbd9407eb	-0.07228073
7	0xbe673e30	-0.22582316
8	0x3d85ab8d	0.06526861
9	0x3e892afc	0.26790607
10	0x3d8768a7	0.06611758
11	0xbd574a94	-0.052561358
12	0xbec20835	-0.37896886
13	0x3ebcd07d	0.36877814
14	0xbc2a9527	-0.010411537
15	0x3e8ee31b	0.27907643
16	0xbe541207	-0.20710002
17	0x3d23c61d	0.039983857
18	0x3dfc2d75	0.12313358
19	0x3d298f4e	0.04139643
20	0x3d76ec27	0.060283806
21	0xbe8c66c4	-0.27422154
22	0xbe3f1aa4	-0.18662506
23	0x3ee2f570	0.4432788
24	0xbeb3b604	-0.35099804
25	0x3eaa2fc8	0.3323958
26	0xbf0902a0	-0.5351963
27	0xbe0816be	-0.13289925
28	0xbe093415	-0.13398774
29	0xbecdb221	-0.40174964
30	0x3df76f36	0.12081759
31	0x3debcab8	0.11513275
32	0xbe2ece3f	-0.17070864
33	0x3e03996f	0.12851499
34	0xbd81ff93	-0.06347575
35	0x3de3c0be	0.11120747
36	0x3e71689a	0.23575059
37	0x3db39eec	0.08770546
38	0x3e8bc736	0.27300423
39	0x3eecd0f1	0.4625316
40	0xbdca5e71	-0.098812945
41	0x3cf3c8f9	0.029758917
42	0x3efda47b	0.4953955
43	0x3e9727c6	0.29522532
44	0x3f4b67df	0.7945537
45	0x3cb2924d	0.021798277
46	0x3d73d5d5	0.059530098
47	0xbdc49875	-0.09599391
48	0x3d97868b	0.07398709
49	0xbde575a2	-0.11204077
50	0x3dbb7e36	0.09154932
51	0x3c861730	0.016368479
52	0xbdb3b30d	-0.087743856
53	0xbef1b966	-0.4721176
54	0x3e079e58	0.13243997
55	0x3f362f08	0.71165514
56	0x3e905891	0.2819257
57	0xbea160b6	-0.31519097
58	0xbc747c96	-0.014922282
59	0xbdcd903a	-0.10037275
60	0xbd719409	-0.058979068
61	0x3d9ea4cb	0.077462755
62	0xbe6a7e5a	-0.22899762
63	0xbe1f0148	-0.15527833
64	0xbe25dad4	-0.16196758
65	0x3d98cd93	0.07461085
66	0x3b26715e	0.0025397162
67	0x3deac762	0.114638105
68	0x3f575633	0.84115905
69	0xbf8f303b	-1.1186594
70	0x3f17a5b8	0.5923724
71	0x3cbb4c89	0.022863643
72	0x3d43c63c	0.047796473
73	0xbf48dd8a	-0.7846304
74	0x3fb93090	1.4467945
75	0xbda731e1	-0.081638105
76	0xbdf7bb4f	-0.12096273
77	0xbe4e5c11	-0.20152308
78	0x3d8b23f4	0.06793967
79	0xbd22a6e6	-0.039709948
80	0xbe869e6b	-0.26292738
81	0xbe0dd8bd	-0.1385221
82	0xbeff4362	-0.49856097
83	0xbdf0f5fa	-0.11765666
84	0xbdb19feb	-0.0867308
85	0x3c8f7260	0.017510593
86	0xbda4e795	-0.08051983
87	0xbe5cc745	-0.2156039
88	0xbed277f0	-0.4110713
89	0xbf1e0fc9	-0.61742836
90	0xbdb845d5	-0.089976944
91	0xbe00413c	-0.12524885
92	0x3e158c14	0.14604217
93	0xbc8770aa	-0.016533215
94	0xbe3bc86c	-0.18338174
95	0xbbb8ab13	-0.005635628
96	0x3b8ef305	0.0043624663
97	0xbe8541ab	-0.26026663
98	0x3b5dd54a	0.0033849054
99	0x3e94e9c2	0.29084593
100	0x3df9bd55	0.12194315
101	0xbed6ba05	-0.41938797
102	0x3dfb22ab	0.12262472
103	0xbdd9d74e	-0.10636769
104	0xbcc2e6c0	-0.02379167
105	0xbe9f0c13	-0.310639
106	0x3d541664	0.051779166
107	0x3da09563	0.07840993
108	0xbe1d00d7	-0.15332352
109	0xbe601958	-0.21884668
110	0x3f11fac4	0.5702326
111	0x3e7e05bb	0.24806874
112	0x3dce38e3	0.10069444
113	0x3fc132da	1.5093644
114	0x3b5e3c4e	0.0033910456
115	0x3c54bb33	0.012984085
116	0x3c241c9c	0.010016587
117	0xbe84b1bf	-0.2591686
118	0xbf1679e1	-0.5877972
119	0x3dab1441	0.083534725
120	0x3e0f58ab	0.13998668
121	0x3e2d840f	0.16944908
122	0x3da9f9ea	0.082996204
123	0xbdcf8437	-0.1013264
124	0x3e21d1c9	0.15802683
125	0xbe958d45	-0.29209343
126	0x3bc24a6a	0.005929281
127	0x3f011b6a	0.50432456
