ppo/models/behavioral_cloning_agents_lunar/bc7/ckpts/001122700.pt (torch_old, 332261 bytes, 26 tensors)

fc1.weight f4 [128, 9]
-0.19852526 0.3872501 -0.5606508 -0.43446192 -0.01995324 0.01811257 0.18906534 0.36836687
0.1284279 0.13075005 0.011114396 -0.22603154 -0.39550883 -0.21985552 -0.11887663 -0.010301979
0.07923564 0.14747202 -0.29574728 -0.13842334 0.14653689 0.27890962 -0.31718415 0.28944787
-0.07273855 0.028206324 0.29353783 -0.4910371 -0.34689564 -0.011889879 0.02396665 0.45782351
-0.31510296 -0.264807 -0.40022838 -0.32229152 -0.14051172 0.21794425 0.16451734 0.1831622
0.033454873 -0.2926108 -0.046292964 -0.3898099 -0.23544462 -0.30856586 0.03991211 0.20482828
-0.012310493 -0.19244745 0.22727862 0.27025864 0.1950684 0.04143168 0.38013956 -0.3039895
0.066034175 -0.14092068 -0.26299912 -0.1336959 0.108248025 0.15757047 -0.17509882 -0.10946101
0.10373583 0.020467984 -0.055665005 -0.06517547 0.30414957 0.23621877 -0.14353812 -0.12703256
0.18714425 0.33771423 0.41299948 0.289885 0.25961778 -0.2378519 0.12529583 -0.051003363
-0.28076905 0.3376924 0.27779725 -0.35494828 0.06488082 0.1260082 -0.20210575 -0.1259715
0.19481723 -0.12833658 0.022012422 0.28909433 0.22933368 0.092728145 -0.42163184 -0.15122956
0.11285511 0.063848585 -0.1270502 -0.066940404 0.099806726 0.10380297 -0.06237876 -0.013632162
-0.13925314 -0.07858481 -0.057237457 -0.07663484 -0.10218116 -0.078087635 -0.11592032 0.19244207
-0.20091142 0.4487792 0.21138193 -0.35414392 0.027243655 0.058476415 0.23522162 0.065000184
0.26386598 0.14848177 -0.33765674 0.2026472 -0.2721999 -0.33003455 -0.15100457 -0.11485257
-0.2065191 -0.18634537 0.017450586 -0.028502787 -0.23245333 -0.030179027 0.20536451 -0.13222533
0.06542144 -0.03649422 0.30794865 0.5599809 0.392862 0.14954777 0.2792446 0.078831166
-0.6532563 -0.037338708 0.43169478 0.13705209 -0.055861723 -0.21860008 -0.23175073 0.0365319
0.2251532 0.23931211 0.24652562 -0.6259531 0.12629728 -0.3385167 -0.007838188 -0.05603055
0.068864375 -0.24049005 -0.46418312 -0.5191007 -0.03865095 0.0063979486 -0.07280665 -0.004224847
-0.21250132 -0.07980271 0.65446424 -0.18166463 0.2293604 0.1953292 -0.18485105 0.23175287
0.012526353 -0.14256494 0.12344142 -0.09307661 0.055604536 -0.25185406 0.24495547 0.20345661
0.35267106 0.14607489 -0.08853914 -0.043295328 -0.4768011 0.10489019 0.52461255 0.17465967
-0.3377485 0.086598836 -0.06000518 -0.074497044 -0.05472605 -0.025702484 -0.2450659 -0.03892095
0.13462879 0.3723032 -0.32314044 -0.29290435 -0.3721306 0.16659196 -0.14627248 0.5200945
0.27496114 -0.023232898 -0.10121335 -0.09589729 -0.07201094 0.1781709 0.17945178 -0.052029453
-0.47157255 -0.057949852 0.6371719 -0.1395432 -0.22516641 0.3727156 0.07791763 -0.13975027
-0.23421971 0.11927599 -0.23288824 -0.15128566 -0.070253484 -0.008299319 0.14508836 0.20179762
0.087465815 0.61587834 -0.025476018 -0.14942835 0.22457673 -0.21031284 -0.1960459 0.1045599
0.02526926 0.12837824 -0.09938886 0.08283629 0.3366911 -0.5081563 0.1072764 -0.47906354
0.16291079 -0.09690732 -0.21579254 0.16123323 0.28377968 -0.13254523 -0.4342419 0.025407484
00000000: 354a 4bbe a545 c63e d086 0fbf cb71 debe
00000010: fa74 a3bc d060 943c 589a 413e 959a bc3e
00000020: 9a82 033e 57e3 053e 2819 363c d074 67be
00000030: 2280 cabe ce21 61be 9775 f3bd a2c9 28bc
00000040: 4c46 a23d e802 173e 306c 97be d9be 0dbe
00000050: c40d 163e 3ecd 8e3e f665 a2be 8332 943e
00000060: f3f7 94bd f310 e73c 974a 963e 3769 fbbe
00000070: 4e9c b1be c4cd 42bc b555 c43c d867 ea3e
00000080: 2d55 a1be c894 87be bcea ccbe 6503 a5be
00000090: 4ee2 0fbe c72c 5f3e 3c77 283e df8e 3b3e
000000a0: fa07 093d 15d1 95be b19d 3dbd 2a95 c7be
000000b0: 6518 71be 58fc 9dbe e17a 233d 81be 513e
000000c0: f3b1 49bc f210 45be babb 683e 575f 8a3e
000000d0: 03c0 473e 44b4 293d a7a1 c23e 83a4 9bbe
000000e0: ed3c 873d 834d 10be d2a7 86be 94e7 08be
000000f0: 24b1 dd3d 275a 213e 1b4d 33be 182d e0bd
00000100: 7373 d43d 79ac a73c fd00 64bd b87a 85bd
00000110: 7eb9 9b3e 55e3 713e a8fb 12be d314 02be
00000120: bea2 3f3e e1e8 ac3e ab74 d33e cf6b 943e
00000130: 9fec 843e 738f 73be 8d4d 003e e7e8 50bd
00000140: f6c0 8fbe 05e6 ac3e 713b 8e3e c8bb b5be
00000150: 3ce0 843d 4b08 013e cff4 4ebe acfe 00be
00000160: 2b7e 473e aa6a 03be 6553 b43c 2c04 943e
00000170: 73d6 6a3e 41e8 bd3d 21e0 d7be ecdb 1abe
00000180: 9420 e73d 0cc3 823d 7319 02be 0d18 89bd
00000190: 7867 cc3d a796 d43d df80 7fbd 6e59 5fbc
000001a0: 6098 0ebe 13f1 a0bd d371 6abd baf2 9cbd
000001b0: 5b44 d1bd 69ec 9fbd a267 edbd 890f 453e
000001c0: b9bb 4dbe 63c6 e53e 8174 583e 5a52 b5be
000001d0: 162e df3c f784 6f3d f0dd 703e d11e 853d
000001e0: 7119 873e 9b0b 183e 58e1 acbe bf82 4f3e
000001f0: c95d 8bbe 4afa a8be f1a0 1abe d337 ebbd
00000200: be79 53be 52d1 3ebe 88f4 8e3c ad7e e9bc
00000210: 3f08 6ebe 023a f7bc 134b 523e 1466 07be
00000220: adfb 853d f77a 15bd 72ab 9d3e e95a 0f3f
00000230: 3525 c93e 0d23 193e 26f9 8e3e 3c72 a13d
00000240: ce3b 27bf 79f0 18bd 1907 dd3e 6257 0c3e
00000250: 43cf 64bd b3d8 5fbe 1050 6dbe 79a2 153d
00000260: 8f8e 663e 3c0e 753e 3671 7c3e 763e 20bf
00000270: 1354 013e 1052 adbe be6b 00bc 4a80 65bd
00000280: c408 8d3d 0643 76be 69a9 edbe c9e3 04bf
00000290: 7550 1ebd e2a5 d13b a71b 95bd 9670 8abb
000002a0: f299 59be 9a6f a3bd f88a 273f 4b06 3abe
000002b0: 74dd 6a3e 6104 483e 9849 3dbe a050 6d3e
000002c0: 553b 4d3c 8bfc 11be dbce fc3d f39e bebd
000002d0: 95c1 633d 04f3 80be 9bd5 7a3e ee56 503e
000002e0: 4d91 b43e a894 153e 0254 b5bd 7156 31bd
000002f0: 461f f4be abd0 d63d 024d 063f fcd9 323e
00000300: 5fed acbe bb5a b13d fec7 75bd e891 98bd
00000310: 6c28 60bd 048e d2bc 8ef2 7abe 936b 1fbd
00000320: 21dc 093e 869e be3e aa72 a5be 8ff7 95be
00000330: e787 bebe 1597 2a3e 74c8 15be ea24 053f
00000340: b5c7 8c3e eb52 bebc f248 cfbd cc65 c4bd
00000350: 797a 93bd 6f72 363e 35c2 373e d61c 55bd
00000360: f571 f1be d35c 6dbd b31d 233f 6ae4 0ebe
00000370: 0692 66be 94d4 be3e 4793 9f3d b21a 0fbe
00000380: 4bd7 6fbe f846 f43d 417a 6ebe a1ea 1abe
00000390: 0fe1 8fbd def9 07bc 0b92 143e 09a4 4e3e
000003a0: 4721 b33d 34aa 1d3f 15b3 d0bc bf03 19be
000003b0: 71f7 653e 405c 57be 42c0 48be 8023 d63d
000003c0: 7b01 cf3c 9675 033e 638c cbbd 13a6 a93d
000003d0: c762 ac3e 8816 02bf bbb3 db3d d147 f5be
000003e0: 16d2 263e 5877 c6bd b8f8 5cbe 531a 253e
000003f0: 924b 913e f0b9 07be f454 debe 5b23 d03c

fc1.bias f4 [128]
-0.5515888 -0.26690856 0.3886185 -0.32746112 -0.070110396 0.15303639 -0.083230704 -0.16841264
-0.69351095 -0.23571283 -0.1965553 0.093511984 0.15851842 -0.30412838 0.06904317 -0.09345568
-0.404705 -0.40234452 -0.2961886 -0.022320747 -0.48064065 -0.36391535 -0.27207637 -0.42533955
0.0044643106 -0.20376275 -0.16717374 -0.16188242 -0.048679136 -0.36958975 0.11654336 -0.6413239
-0.16782337 -0.3754014 -0.20563404 0.295615 -0.11761975 -0.4869594 0.004547567 -0.08014599
0.0927698 0.025481986 -0.28384483 -0.31390688 0.1390167 -0.27804238 0.09595692 -0.14337273
0.04902206 -0.002920477 0.047623996 -0.75130635 -0.2830809 -0.39200425 -0.31693923 0.34530333
-0.16457872 -0.3773656 -0.2724929 -0.22487661 0.065835655 -0.44511175 -0.4347583 -0.4906077
0.38023007 0.07813578 -0.34505895 0.11121514 0.15063134 0.02007354 -0.19905972 -0.041077305
-0.14249723 0.024429133 -0.29129264 0.049455203 0.029863033 -0.2651707 0.14200261 0.09233668
-0.56677765 -0.25166413 0.02167895 -0.46779692 0.09551412 -0.07011299 0.0058966684 -0.6572759
-0.3126255 -0.035651956 -0.0913614 -0.46499902 -0.5935331 -0.65419304 -0.23542868 -0.5315345
-0.040910356 -0.13502787 0.02791617 -0.087475844 -0.052870706 -0.549701 0.061953217 -0.131252
-0.009787033 -0.4757604 0.0012533437 0.12642576 -0.35933614 -0.04906226 -0.17783426 -0.6829564
-0.028371243 0.08432851 0.021554003 0.21062368 0.09613087 0.228948 -0.2884513 0.09498913
-0.15756923 -0.28272125 -0.19265953 -0.08336475 0.17884038 -0.039278526 0.16218992 0.05419252
00000000: ec34 0dbf 3da8 88be 01f9 c63e fca8 a7be
00000010: 0a96 8fbd 92b5 1c3e dc74 aabd 5d74 2cbe
00000020: ef89 31bf b45e 71be cb45 49be 3683 bf3d
00000030: a752 223e b7b6 9bbe 8166 8d3d b165 bfbd
00000040: 7e35 cfbe 1a00 cebe 08a6 97be 00da b6bc
00000050: 8816 f6be 1d53 babe 984d 8bbe 1bc6 d9be
00000060: 5a49 923b 2fa7 50be 982f 2bbe 81c4 25be
00000070: c663 47bd de3a bdbe 49ae ee3d ce2d 24bf
00000080: e4d9 2bbe 9d34 c0be bb91 52be d95a 973e
00000090: a0e2 f0bd be52 f9be c203 953b 9523 a4bd
000000a0: 18fe bd3d 99bf d03c 1c54 91be 67b8 a0be
000000b0: 655a 0e3e 925b 8ebe 1085 c43d 4dd0 12be
000000c0: 5bcb 483d 7965 3fbb 6111 433d 9d55 40bf
000000d0: fbef 90be c8b4 c8be dc45 a2be 99cb b03e
000000e0: 5387 28be 1036 c1be 3084 8bbe 0e46 66be
000000f0: d8d4 863d b0e5 e3be a498 debe ef30 fbbe
00000100: 84ad c23e a705 a03d 91ab b0be c3c4 e33d
00000110: 1a3f 1a3e 4471 a43c 50d6 4bbe ad40 28bd
00000120: cbea 11be 9b1f c83c 4f24 95be 8a91 4a3d
00000130: 52a3 f43c 74c4 87be 2269 113e 031b bd3d
00000140: 5718 11bf 1fda 80be 0e98 b13c 1483 efbe
00000150: e89c c33d 6697 8fbd d738 c13b 3c43 28bf
00000160: 7310 a0be c907 12bd b01b bbbd 5a14 eebe
00000170: c9f1 17bf 3279 27bf 3714 71be a512 08bf
00000180: 9e91 27bd bf44 0abe 74b0 e43c 8926 b3bd
00000190: f48e 58bd 34b9 0cbf a8c2 7d3d ed66 06be
000001a0: cb59 20bc de96 f3be 3c47 a43a c175 013e
000001b0: e8fa b7be 82f5 48bd 2f1a 36be 3bd6 2ebf
000001c0: cf6a e8bc 6db4 ac3d 0592 b03c bcad 573e
000001d0: 43e0 c43d 5871 6a3e e4af 93be a989 c23d
000001e0: d459 21be d7c0 90be 8a48 45be 23bb aabd
000001f0: ef21 373e 85e2 20bd 1d15 263e faf8 5d3d

fc2.weight f4 [128, 128]
-0.47161925 0.072825976 -0.06831942 -0.26385084 0.16895409 -0.068061545 -0.08586769 0.041431487
-0.38622844 -0.20243052 -0.042142875 0.113497086 -0.03481906 -0.06384221 -0.15156913 -0.13676147
-0.18726294 0.080595575 0.15518957 -0.4454594 0.042843133 -0.043605864 0.03307349 0.10851234
-0.0059744273 0.13809016 0.030025853 0.029707223 0.046355847 -0.28245446 0.06928307 0.05818684
0.064345986 -0.60942984 -0.13644679 0.1441976 0.02131042 -0.0768512 0.11828802 -0.014413672
-0.05783134 0.18627238 -0.16625398 -0.22786926 0.0002250435 0.0279037 -0.042236593 -0.10696416
0.023491897 -0.086649634 0.09192239 -0.85908455 0.0578511 0.08619163 -0.0037732327 0.07381421
-0.0595981 -0.04819842 0.18520194 -0.0294524 -0.19563596 0.17803831 0.3600347 -0.33269778
0.11260249 0.15927687 0.23044129 0.027791677 -0.035233412 0.052639645 -0.04390036 0.186301
-0.15593772 0.075107485 0.06015016 0.041697383 -0.08839631 0.18394893 -0.24866933 -0.20412275
0.24096118 0.0049345107 -0.14335263 -0.552991 -0.72084427 0.19872054 0.22188848 -0.20547314
-0.054113235 -0.2404356 0.052926783 -0.0008371201 -0.4267838 0.010041871 -0.19703154 -0.35543203
0.008357892 0.09206682 -0.0051004305 0.07092334 0.029637469 -0.47808874 -0.16734241 -0.04595751
0.16076007 -0.1691402 0.10811418 -0.0337648 -0.12507455 0.043067377 -0.21781857 -0.2603425
0.27864245 0.18718389 -0.24827412 -0.107343756 0.0057059904 -0.008349447 -0.2714167 0.28759873
0.05567906 -0.40282547 0.050898634 -0.060920276 0.07350489 0.0047397283 0.22683708 0.14764228
0.22709002 -0.08205055 -0.01998858 -0.15509173 0.2318809 -0.1151621 0.10260085 -0.29473853
0.11756095 -0.5004006 -0.13759226 -0.013256826 -0.24668594 -0.15659212 -0.07913617 -0.75823295
-0.38984436 -0.65369445 0.23709908 0.052128673 -0.20128034 -0.3612677 -0.19694163 -0.30580392
0.34060073 0.1131409 0.15606771 0.19227998 -0.114610024 0.22975393 -0.1230504 0.1726031
0.033132594 0.18153833 -0.071183324 -0.30964094 -0.022095464 -0.45952713 -0.34579784 -0.34126157
0.06108123 -0.053821806 0.18875027 0.2045246 0.25388867 0.17312136 0.0944853 -0.06890041
-0.07079759 0.12828602 -0.059099037 -1.5257671 0.14689893 0.029931257 0.094445065 -0.080633745
-0.038807057 -0.25564274 0.21598984 0.065517105 -0.23896946 0.055863414 0.026756104 0.14707078
0.06627073 0.12503031 -0.1246595 -0.91962034 0.056450628 -0.6245053 -0.050354198 0.021761551
0.16591708 0.0407215 -0.0144624775 -0.6183689 0.031551585 -0.25595096 0.022577535 -0.26711324
-0.0074839103 0.32665518 -0.021943068 -0.21815914 -0.04646488 -0.0045194253 0.04862168 -0.0954267
-0.39945364 -0.4593128 -0.003832167 0.2230866 -0.32778397 0.03975182 0.23606476 -0.43963858
-0.23842566 -0.04128867 -0.03371214 0.08484253 0.044007856 -0.4577274 -0.083487876 -0.049352087
0.039489627 -0.17193832 0.09411487 -0.5926717 -0.14464621 0.075989895 -0.35516635 -0.60750145
0.28163305 0.3681558 -0.020842422 -0.08159303 0.017167019 0.168394 0.023128815 -0.016881531
0.22439885 0.08370689 0.2435132 0.02036389 0.23423909 -0.09421166 0.09446823 -0.5161328
00000000: 1478 f1be c925 953d 0deb 8bbd 7517 87be
00000010: 4d02 2d3e da63 8bbd 66db afbd 10b4 293d
00000020: bcbf c5be f249 4fbe 029e 2cbd 2971 e83d
00000030: 6e9e 0ebd b4bf 82bd f034 1bbe 330b 0cbe
00000040: dbc1 3fbe 4b0f a53d 04ea 1e3e 4113 e4be
00000050: 487c 2f3d 109c 32bd 1178 073d b83b de3d
00000060: 21c5 c3bb 8267 0d3e c7f8 f53c 905c f33c
00000070: a1df 3d3d df9d 90be 48e4 8d3d 5355 6e3d
00000080: d4c7 833d 9803 1cbf b5b8 0bbe 89a8 133e
00000090: 3193 ae3c 2964 9dbd fd40 f23d 5227 6cbc
000000a0: 8ee0 6cbd 30be 3e3e 7c3e 2abe 8f56 69be
000000b0: a8f9 6b39 4d96 e43c 4700 2dbd 0710 dbbd
000000c0: 1472 c03c 5d75 b1bd ce41 bc3d f7ec 5bbf
000000d0: 46f5 6c3d 3d85 b03d 5748 77bb e82b 973d
000000e0: 231d 74bd b56b 45bd 94a5 3d3e 2946 f1bc
000000f0: cb54 48be ad4f 363e 7856 b83e 5d57 aabe
00000100: 229c e63d 7a19 233e cdf8 6b3e 5fab e33c
00000110: e950 10bd ab9c 573d ddd0 33bd b0c5 3e3e
00000120: 23ae 1fbe f4d1 993d 0460 763d e0ca 2a3d
00000130: 2009 b5bd 1c5d 3c3e 2ca3 7ebe 8e05 51be
00000140: 87be 763e adb1 a13b 08cb 12be d190 0dbf
00000150: 4089 38bf 667d 4b3e bc36 633e 8d67 52be
00000160: d7a5 5dbd c034 76be c1c9 583d 2e72 5bba
00000170: 6883 dabe a986 243c a3c2 49be 30fb b5be
00000180: 8aef 083c 878d bc3d 8321 a7bb 4240 913d
00000190: 47ca f23c 0cc8 f4be cf5b 2bbe f13d 3cbd
000001a0: 4a9e 243e 1733 2dbe f86a dd3d f54c 0abd
000001b0: 8b13 00be 6b67 303d d50b 5fbe 9d4b 85be
000001c0: 39aa 8e3e 22ad 3f3e 923b 7ebe 0bd7 dbbd
000001d0: 51f9 ba3b 1ecc 08bc 21f7 8abe 2440 933e
000001e0: ba0f 643d 243f cebe 167b 503d 8a87 79bd
000001f0: bb89 963d b94f 9b3b fb47 683e 8a2f 173e
00000200: 498a 683e 1e0a a8bd 17bf a3bc 5ed0 1ebe
00000210: 3072 6d3e 1bda ebbd 6520 d23d f8e7 96be
00000220: ccc3 f03d 411a 00bf fce4 0cbe 2933 59bc
00000230: 3d9b 7cbe af59 20be 2512 a2bd 8e1b 42bf
00000240: ae99 c7be 8558 27bf 1aca 723e e084 553d
00000250: 6f1c 4ebe 14f8 b8be 11ab 49be 5592 9cbe
00000260: 3863 ae3e 6bb6 e73d 37d0 1f3e 0be5 443e
00000270: a9b8 eabd 9d44 6b3e d901 fcbd debe 303e
00000280: 0bb6 073d 2fe5 393e 90c8 91bd 4289 9ebe
00000290: 8c01 b5bc 2447 ebbe 6a0c b1be d6b9 aebe
000002a0: 5030 7a3d 4174 5cbd c047 413e e66e 513e
000002b0: b2fd 813e ba46 313e 8281 c13d a81b 8dbd
000002c0: 54fe 90bd 695d 033e d511 72bd 564c c3bf
000002d0: ac6c 163e 6532 f53c 6a6c c13d 4e23 a5bd
000002e0: 26f4 1ebd 9be3 82be 712c 5d3e d52d 863d
000002f0: 69b4 74be 09d1 643d 9e2f db3c b999 163e
00000300: f3b8 873d f207 003e 7b4d ffbd 3d6c 6bbf
00000310: c638 673d 94df 1fbf 3440 4ebd 4845 b23c
00000320: 2be6 293e 96cb 263d 07f4 6cbc 6d4d 1ebf
00000330: 3c3c 013d 010c 83be 86f4 b83c 11c3 88be
00000340: 973b f5bb 593f a73e f3c1 b3bc 1c65 5fbe
00000350: f551 3ebd b017 94bb 8727 473d 136f c3bd
00000360: 3085 ccbe 0c2b ebbe 1825 7bbb d070 643e
00000370: 4dd3 a7be ced2 223d f6ba 713e 4f18 e1be
00000380: db25 74be 4f1e 29bd be15 0abd ecc1 ad3d
00000390: 9541 343d 3f5b eabe b1fb aabd 6a25 4abd
000003a0: e0bf 213d 9910 30be 4cbf c03d 55b9 17bf
000003b0: 231e 14be 97a0 9b3d 5dd8 b5be 3785 1bbf
000003c0: 3532 903e eb7e bc3e babd aabc 3f1a a7bd
000003d0: d9a1 8c3c 7a6f 2c3e a478 bd3c 234b 8abc
000003e0: d0c8 653e 856e ab3d 865b 793e 2cd2 a63c
000003f0: 5fdc 6f3e 0bf2 c0bd 8f78 c13d 4721 04bf

fc2.bias f4 [128]
0.12525707 0.12633727 0.1766738 0.13822946 -0.18015507 0.25203088 0.2871587 -0.12953076
0.12143391 0.05381875 0.045772962 0.14984673 0.11338262 0.08451702 0.22125317 0.27427566
-0.08517289 0.024429595 0.06544939 -0.04328555 0.28703025 0.0074200616 0.15744008 0.056519214
0.09654819 -0.04743441 0.1137871 0.20469022 0.15002517 0.14656962 0.12282801 -0.15529458
0.16142614 0.26133355 -0.10102442 0.08311149 0.11989311 0.25391483 0.24603596 -0.14483793
0.11665217 0.26054 -0.05056311 0.1908913 0.0007935992 0.21578495 -0.013589597 -0.03207107
0.12396383 -0.12660119 0.21300298 -0.12982154 0.102175154 0.10908868 0.09660133 0.14752337
-0.032174263 0.053245585 0.049118333 0.216539 0.2323098 0.013806355 0.20253155 0.0008850017
-0.035811964 0.16032483 0.15226251 0.109814584 -0.05664825 -0.05937778 0.23245005 0.124047
0.104717754 -0.12567417 0.07454441 0.09168643 0.03414258 0.08351993 0.20655015 -0.066923305
0.1046359 0.120093875 0.07688063 -0.0011052893 0.06144597 0.1266783 0.14377828 0.14566508
-0.039850928 0.0069246064 0.054638453 0.24627042 0.103806615 0.19273715 0.111446075 0.07918155
-0.058817774 -0.043768033 0.019205965 0.042374235 -0.14579007 0.026954157 -0.055103544 0.23466653
0.10614595 0.15700029 0.19668266 0.1814852 0.11865186 0.17528088 0.1710763 0.17183761
0.067496255 0.16420364 0.05516877 0.05419177 0.080951154 0.11893715 0.0563776 0.1959073
0.059285183 0.12994717 0.12514035 -0.14569479 0.18168251 0.20944682 -0.01341296 0.06330335
00000000: 6443 003e 8f5e 013e fae9 343e 068c 0d3e
00000010: 927a 38be 310a 813e 7706 933e b6a3 04be
00000020: 58b2 f83d 0d71 5c3d 6e7c 3b3d 6c71 193e
00000030: 2635 e83d 4217 ad3d 3190 623e dc6d 8c3e
00000040: 206f aebd 9320 c83c 540a 863d 304c 31bd
00000050: a1f5 923e fd23 f33b f937 213e b180 673d
00000060: 0fbb c53d 954a 42bd 3609 e93d 509a 513e
00000070: 33a0 193e 5916 163e 408d fb3d 8b05 1fbe
00000080: e54c 253e 83cd 853e e4e5 cebd 5b36 aa3d
00000090: 858a f53d 2001 823e daf0 7b3e 6550 14be
000000a0: 55e7 ee3d 8065 853e 431b 4fbd 0279 433e
000000b0: 8a09 503a bbf6 5c3e e7a6 5ebc f45c 03bd
000000c0: c0e0 fd3d bea3 01be 741d 5a3e f0ef 04be
000000d0: 3541 d13d e369 df3d ebd6 c53d 5e10 173e
000000e0: 29c9 03bd 0b18 5a3d 4e30 493d 66bc 5d3e
000000f0: 9fe2 6d3e 0d34 623c 6e64 4f3e 75ff 673a
00000100: 91af 12bd 312c 243e b4ea 1b3e 78e6 e03d
00000110: ff07 68bd 1d36 73bd 6307 6e3e 5b0c fe3d
00000120: 4376 d63d bbb0 00be bdaa 983d 18c6 bb3d
00000130: 17d9 0b3d 7f0c ab3d e281 533e 160f 89bd
00000140: 594b d63d c7f3 f53d 9773 9d3d 5bdf 90ba
00000150: c5ae 7b3d f5b7 013e 9d3a 133e 3a29 153e
00000160: ba3a 23bd cfe7 e23b 92cc 5f3d 502e 7c3e
00000170: 9098 d43d e35c 453e d73d e43d f029 a23d
00000180: e8ea 70bd 1c46 33bd d455 9d3c 9b90 2d3d
00000190: fe49 15be f7ce dc3c 41b4 61bd 6c4c 703e
000001a0: 0c63 d93d afc4 203e 2e67 493e 42d7 393e
000001b0: bfff f23d d57c 333e a02e 2f3e 33f6 2f3e
000001c0: 7a3b 8a3d 0025 283e a6f8 613d 30f8 5d3d
000001d0: b8c9 a53d 5295 f33d 33ec 663d ec9b 483e
000001e0: 05d5 723d df10 053e cb24 003e 0431 15be
000001f0: fb0a 3a3e 3a79 563e 08c2 5bbc 30a5 813d

dist.fc_mean.weight f4 [2, 128]
-0.11246748 -0.0037141016 0.014070358 0.09485853 0.17837928 -0.0072418884 0.22947383 0.06299107
-0.023012461 0.0351644 0.010008909 0.017092561 -0.0074088797 -0.004380873 0.060244963 -0.030428836
-0.2743507 -0.16511032 0.06999795 0.019038633 0.0029160313 -0.07411235 -0.07977095 0.015224195
-0.036354832 -0.09165779 0.036902297 -0.017043749 -0.00160008 -0.0013576299 0.041199576 -0.0057991133
-0.0016805329 -0.026859598 0.28583145 -0.02434695 0.10715897 -0.012633512 0.03986414 0.10187272
-0.006306502 0.08621975 0.08689631 0.0078772865 -0.06728248 -0.03757849 0.006318854 -0.0023113254
0.28791282 0.07680352 -0.15701553 0.019701388 -0.00571441 0.14252438 0.065347314 0.013220077
-0.054232486 -0.041530166 0.21869592 0.019844484 0.26332298 -0.08070638 0.015425353 0.003444995
0.049271476 -0.04999228 0.00018550653 0.013450619 0.0234622 -0.04579712 -0.01058884 0.03266401
-0.015399012 -0.038995355 0.1469584 -0.0630906 0.020725682 0.048934 0.017306274 0.04666238
0.027742794 0.027647953 0.14284526 0.0215782 0.011793172 -0.04087275 -0.03086636 -0.008895106
-0.021055426 -0.15108202 -0.02333012 0.023691598 -0.18352634 0.02481663 0.025721023 -0.1362137
-0.02024359 0.09446658 -0.046451308 -0.018687163 -0.02561694 0.010606617 0.09148893 0.07641266
-0.05786051 -0.06507077 0.035099957 -0.04050789 0.024091493 0.05892439 -0.012560587 0.033636957
-0.009495653 -0.08194809 -0.037042864 0.0040267822 -0.044783078 0.03235306 0.02387848 -0.1270324
0.021129668 -0.0048036394 -0.036586188 -0.021288069 -0.009837998 -0.0030755415 -0.10371321 -0.007154035
-0.04755197 -0.026972814 -0.0042095073 0.042121988 -0.008992268 0.04916957 -0.008725771 -0.01352544
-0.04365957 0.051150233 -0.0024556557 -0.060015175 0.0037537727 -0.020442847 0.16929562 -0.35371643
0.4550611 0.0030237096 -0.08828861 0.037367593 -0.0042543123 0.40097937 -0.62232995 -0.048527446
0.07696375 -0.4413443 -0.41061002 0.06166205 0.036766466 -0.08816402 -0.11852308 -0.26995096
-0.0010151488 0.018550143 0.013972073 0.005864053 0.051581796 -0.011787197 0.034129262 -0.18038602
0.026128685 0.12009576 0.011974173 0.013502999 0.10027336 -0.035991818 0.0064114137 0.016675746
0.007869391 -0.05931372 0.106681906 -0.00642907 -0.23749372 0.10836943 -0.037529532 -0.0035259156
-0.0059248367 0.09762369 -0.035927672 0.1206349 -0.12510265 0.2846335 0.14956796 -0.0070993653
0.010149103 0.3232449 -0.06364634 0.041704495 -0.14042462 0.10169572 -0.0052763624 -0.024140071
0.017720558 0.012832288 0.23558597 0.024037188 0.13660648 -0.024768231 0.005614429 0.04054508
-0.02329557 0.2854536 0.026109716 -0.005911048 -0.007885086 -0.010480224 0.108670376 -0.08668054
-0.24973339 -0.11585851 0.0056801187 -0.0055252947 0.022833137 -0.13134994 6.2234736e-05 -0.025852531
-0.037620477 0.05034412 -0.1689193 0.087942064 0.18586798 -0.005308294 -0.118967324 0.10284394
0.093954675 0.044075668 -0.046854142 0.10935433 -0.6026627 0.01472202 -0.17368174 -0.0049289237
0.009715294 -0.014746698 -0.07852417 0.0034488237 -0.0959406 0.023161305 -0.013184361 -0.061268345
0.3753579 -0.13392137 -0.033418365 0.22687662 -0.21679302 0.0347227 -0.04896579 -0.012964854
00000000: 5a55 e6bd 4968 73bb 5c87 663c 3045 c23d
00000010: 0fa9 363e 5d4d edbb 30fb 6a3e 7601 813d
00000020: a184 bcbc 8c08 103d 68fc 233c b305 8c3c
00000030: 30c6 f2bb 6d8d 8fbb 6cc3 763d e545 f9bc
00000040: b277 8cbe ae12 29be 165b 8f3d e8f6 9b3c
00000050: e31a 3f3b 37c8 97bd f45e a3bd e76e 793c
00000060: cee8 14bd 14b7 bbbd dd26 173d 559f 8bbc
00000070: c7b9 d1ba 80f2 b1ba e3c0 283d 7d06 bebb
00000080: 5445 dcba a908 dcbc 8058 923e 4173 c7bc
00000090: 2976 db3d cafc 4ebc 9548 233d a5a2 d03d
000000a0: c6a6 cebb fb93 b03d b1f6 b13d bc0f 013c
000000b0: 66cb 89bd e7eb 19bd 640e cf3b 9b79 17bb
000000c0: 4f69 933e 2a4b 9d3d aec8 20be ce64 a13c
000000d0: f23f bbbb e9f1 113e d0d4 853d 0699 583c
000000e0: e222 5ebd 891b 2abd d3f1 5f3e e690 a23c
000000f0: 45d2 863e 6349 a5bd 9fba 7c3c 6dc5 613b
00000100: e3d0 493d b4c4 4cbd 8884 4239 fc5f 5c3c
00000110: cd33 c03c c395 3bbd d07c 2dbc b2ca 053d
00000120: 234c 7cbc 98b9 1fbd 437c 163e a535 81bd
00000130: e8c8 a93c 056f 483d e3c5 8d3c 0d21 3f3d
00000140: db44 e33c f67d e23c 0746 123e c4c4 b03c
00000150: 2638 413c 2f6a 27bd 73db fcbc c7bc 11bc
00000160: 6e7c acbc 3fb5 1abe cf1e bfbc e214 c23c
00000170: 54ee 3bbe 3f4c cb3c e5b4 d23c 9b7b 0bbe
00000180: e3d5 a5bc b277 c13d ba43 3ebd d215 99bc
00000190: 9eda d1bc 60c7 2d3c 8c5e bb3d 3e7e 9c3d
000001a0: 24ff 6cbd d343 85bd f9c4 0f3d 9aeb 25bd
000001b0: 865b c53c b35a 713d ecca 4dbc e8c6 093d
000001c0: a893 1bbc 66d4 a7bd 42ba 17bd 19f3 833b
000001d0: 766e 37bd a484 043d cd9c c33c c814 02be
000001e0: 2018 ad3c d967 9dbb 66db 15bd 5164 aebc
000001f0: 8e2f 21bc 068f 49bb 9767 d4bd 656c eabb
00000200: dbc5 42bd 17f6 dcbc e8ef 89bb 1b88 2c3d
00000210: 4e54 13bc 0866 493d 89f6 0ebc cf99 5dbc
00000220: 61d4 32bd e882 513d 11ef 20bb 79d2 75bd
00000230: db01 763b c277 a7bc d55b 2d3e 521a b5be
00000240: c5fd e83e 6e29 463b a9d0 b4bd c30e 193d
00000250: c267 8bbb 2b4d cd3e 0451 1fbf b7c4 46bd
00000260: 2c9f 9d3d e1f7 e1be 7a3b d2be 5991 7c3d
00000270: 6f98 163d 568f b4bd 3bbc f2bd 0337 8abe
00000280: be0e 85ba 78f6 973c 1feb 643c 3e27 c03b
00000290: 6f47 533d 161f 41bc 20cb 0b3d 1db7 38be
000002a0: d30b d63c c4f4 f53d 522f 443c af3b 5d3c
000002b0: 1f5c cd3d 286c 13bd d616 d23b 939b 883c
000002c0: 9eee 003c f1f2 72bd 0b7c da3d f3aa d2bb
000002d0: 8e31 73be cbf0 dd3d 91b8 19bd 0c13 67bb
000002e0: 2225 c2bb eeee c73d e528 13bd 6e0f f73d
000002f0: e91a 00be 7bbb 913e 5828 193e cba1 e8bb
00000300: 6c48 263c 5b80 a53e 0359 82bd 55d2 2a3d
00000310: 79cb 0fbe d845 d03d 56e5 acbb 66c1 c5bc
00000320: b42a 913c 843e 523c 733d 713e a3e9 c43c
00000330: 92e2 0b3e bfe6 cabc 3ef9 b73b 9912 263d
00000340: 5ad6 bebc f926 923e 0be4 d53c 77b1 c1bb
00000350: 7330 01bc 3fb5 2bbc 938e de3d 9185 b1bd
00000360: 1cba 7fbe 3a47 edbd 4a20 ba3b 880d b5bb
00000370: 8f0c bb3c 9980 06be 0584 8238 b0c8 d3bc
00000380: ee17 1abd a335 4e3d 2ef9 2cbe f81a b43d
00000390: 2d54 3e3e 33f1 adbb 24a5 f3bd d89f d23d
000003a0: 4f6b c03d b088 343d 21ea 3fbd 2af5 df3d
000003b0: 1a48 1abf a134 713c a0d9 31be cf82 a1bb
000003c0: e62c 1f3c 229c 71bc 48d1 a0bd a905 623b
000003d0: 817c c4bd c7bc bd3c 3803 58bc 84f4 7abd
000003e0: e92e c03e af22 09be b2e1 08bd 5852 683e
000003f0: fdfe 5dbe 6439 0e3d 5a90 48bd 8a6a 54bc

dist.fc_mean.bias f4 [2]
0.10961468 0.06274581
00000000: a97d e03d e080 803d

dist.fc_logstd.weight f4 [2, 128]
-0.40975812 -0.45341182 -0.9883143 0.34292367 0.1658204 -0.15830857 0.31170067 0.057430167
-0.57373184 1.2112627 0.000464548 -0.18145248 -0.68865675 -0.6866989 0.8006481 -0.36978015
-0.18207541 -0.011143049 0.043713175 -0.18495722 -0.20386775 0.0021801821 -0.31655842 -0.86016643
-0.03242637 -0.6213543 0.19683458 -0.30663636 -1.0436685 -0.23796232 -0.113248 0.49673113
-0.43700847 -0.68920386 0.03611674 -0.21646525 0.18359813 -1.0750908 -0.25622752 -0.28700808
-0.02803225 -0.31103778 -0.7048694 -0.40637678 -0.8493946 0.61387646 -0.07253733 -0.09761965
0.4109245 -0.032599803 0.16453032 0.08929172 -0.4002711 0.43584687 0.6034656 -0.1697141
-0.32251146 -0.26829907 -0.14274493 -1.1040915 0.004791959 0.010038788 0.08771742 -0.30686316
-0.04497311 -0.14608139 -0.13975915 -0.9295205 -0.0067242817 -0.106866635 -0.34797424 -0.6397536
-0.6357316 -0.025345609 -0.14733516 -0.1755068 0.2817263 -0.45204264 -1.2145799 0.023151569
-1.2276772 0.24731451 -1.034069 -0.794826 -0.49555403 -0.35826617 -0.3899083 -0.70996183
-0.11912731 -0.15277545 -0.80935305 -0.9268102 0.15735601 -0.0038546415 -0.21427102 -0.17061125
-0.18840073 0.37526205 -0.8226957 -0.4913607 0.64519054 -0.1570245 0.6036765 -0.035487834
-0.24601291 0.14008857 0.4288772 -1.2646511 -0.69540155 0.96751463 -0.86049193 0.08727758
-0.038663566 -1.3211823 -0.27995297 -0.59277105 -0.26551193 0.1516725 -1.2855018 -0.7431205
-0.07252994 0.046519488 -0.07361367 -0.6674263 0.14412683 -0.8313225 -0.7013314 -0.27328303
0.10931676 -0.89499706 0.1571131 -1.0494492 -0.39665642 -0.23094042 -0.4654624 -0.43956774
0.3462963 -1.0544118 -0.56626576 0.055822913 -0.23645724 -0.51533943 -0.31295145 0.2105953
1.0931902 -0.015803447 -0.12003849 0.019360041 -0.50607556 -0.0680153 0.801525 -0.7054124
-0.015631367 0.03649452 0.2883519 0.019499963 -0.2853947 -1.4705323 -0.40097344 -0.24903037
0.25458118 -0.7254455 -0.36631894 -0.07598821 -0.2525073 0.2600593 -0.45793855 -0.1809936
-1.1195172 0.74681866 -0.14849146 -0.17088813 -0.36233303 -1.1545336 -0.16193305 -0.18019903
0.23678493 -0.02119522 -0.4859672 0.124670684 1.8766688 0.1018742 0.096196815 -0.35038927
0.42347687 -0.049900502 -0.22889832 -0.3056192 -0.50030494 0.6154027 -0.057070814 -0.9402537
-0.18525854 0.08681466 -0.3319464 0.09980662 -0.00071261876 0.4055294 -0.67321527 -0.16056068
0.08631608 0.015316549 -0.1911437 -0.033180397 -0.12796956 -0.24405323 -1.3527033 -0.038186077
0.54640895 -0.8320772 -0.669112 -0.5343382 -0.19398525 0.20666364 -0.13962358 0.11675303
0.8566437 0.118851416 -0.6705859 0.023985168 -0.0693432 -1.4699906 -0.17478183 -1.2178657
0.4506283 -0.26884043 -1.1225383 -0.059766687 0.42740092 0.019955022 0.16623439 -0.9259558
0.042422403 -0.32975352 -0.74161786 0.020413144 -0.27225533 -0.38820946 0.80783856 -0.54885626
-0.53441465 0.32338515 -0.22881328 0.50513256 -0.02534657 0.070560694 -0.25800285 -0.100488335
1.0071938 -0.03354597 -0.7316725 -0.35373122 0.082553655 0.14936002 -0.03324469 -1.0054333
00000000: d1cb d1be 9825 e8be 2a02 7dbf b193 af3e
00000010: d3cc 293e a41b 22be 3b97 9f3e e53b 6b3d
00000020: 17e0 12bf a80a 9b3f 948e f339 aece 39be
00000030: cf4b 30bf 80cb 2fbf 46f7 4c3f d353 bdbe
00000040: fa71 3abe 5691 36bc 960c 333d 6d65 3dbe
00000050: b5c2 50be 63e1 0e3b f213 a2be de33 5cbf
00000060: 83d1 04bd 1311 1fbf 018f 493e 71ff 9cbe
00000070: ee96 85bf 65ac 73be 91ee e7bd 8b53 fe3e
00000080: 93bf dfbe aa6f 30bf 26ef 133d 11a9 5dbe
00000090: 2601 3c3e 939c 89bf 4130 83be b9f2 92be
000000a0: e4a3 e5bc 5840 9fbe 5272 34bf 9e10 d0be
000000b0: ed71 59bf 0227 1d3f 748e 94bd d0ec c7bd
000000c0: b264 d23e 5f87 05bd a37a 283e 94de b63d
000000d0: 55f0 ccbe 5227 df3e b97c 1a3f 88c9 2dbe
000000e0: 3920 a5be 7f5e 89be ba2b 12be df52 8dbf
000000f0: de05 9d3b bb79 243c 31a5 b33d 2b1d 9dbe
00000100: b935 38bd 5c96 15be 061d 0fbe 0ef5 6dbf
00000110: 5d57 dcbb e5dc dabd ae29 b2be e4c6 23bf
00000120: 4ebf 22bf 98a1 cfbc 07df 16be 0eb8 33be
00000130: 6e3e 903e 2272 e7be 5b77 9bbf 5ca8 bd3c
00000140: 8724 9dbf 0440 7d3e 5f5c 84bf b779 4bbf
00000150: 42b9 fdbe aa6e b7be 10a2 c7be 0fc0 35bf
00000160: 05f9 f3bd 2b71 1cbe c331 4fbf 6f43 6dbf
00000170: ef21 213e 279e 7cbb dd69 5bbe b7b4 2ebe
00000180: 1fec 40be 5922 c03e 2f9c 52bf a193 fbbe
00000190: 352b 253f 08cb 20be 8b8a 1a3f b15b 11bd
000001a0: cfea 7bbe 6173 0f3e cb95 db3e 16e0 a1bf
000001b0: d605 32bf 0aaf 773f 3349 5cbf 96be b23d
000001c0: b05d 1ebd 801c a9bf ff55 8fbe d8bf 17bf
000001d0: 2ef1 87be 0950 1b3e 538b a4bf 253d 3ebf
000001e0: 948a 94bd 388b 3e3d c4c2 96bd 73dc 2abf
000001f0: fc95 133e 8dd1 54bf 748a 33bf c1eb 8bbe
00000200: 77e1 df3d 871e 65bf 42e2 203e 5a54 86bf
00000210: 8d16 cbbe a57b 6cbe 1651 eebe 060f e1be
00000220: c04d b13e f7f6 86bf cbf6 10bf 91a6 643d
00000230: d921 72be 49ed 03bf 2c3b a0be 4ba6 573e
00000240: a8ed 8b3f 3b76 81bc bdd6 f5bd f398 9e3c
00000250: 2b8e 01bf 9b4b 8bbd be30 4d3f e895 34bf
00000260: 5a0d 80bc 477b 153d dca2 933e 63be 9f3c
00000270: 411f 92be 673a bcbf 644c cdbe d101 7fbe
00000280: 7758 823e ccb6 39bf 288e bbbe b59f 9bbd
00000290: a348 81be 7e26 853e ec76 eabe 6356 39be
000002a0: 574c 8fbf 822f 3f3f 250e 18be 4cfd 2ebe
000002b0: b783 b9be c2c7 93bf c7d1 25be 1886 38be
000002c0: c077 723e 99a1 adbc b1d0 f8be 5853 ff3d
000002d0: af36 f03f 6ca3 d03d d602 c53d 3966 b3be
000002e0: f6d1 d83e 7864 4cbd 5264 6abe 1f7a 9cbe
000002f0: fc13 00bf 088b 1d3f 16c3 69bd 77b4 70bf
00000300: 6ab4 3dbe e2cb b13d e1f4 a9be 6a67 cc3d
00000310: 09cf 3aba 8da1 cf3e d657 2cbf 056a 24be
00000320: 7cc6 b03d 43f2 7a3c 2dbb 43be 2be8 07bd
00000330: 740a 03be 17e9 79be 6225 adbf 0169 1cbd
00000340: 75e1 0b3f 0303 55bf ed4a 2bbf 63ca 08bf
00000350: 12a4 46be a29f 533e 7cf9 0ebe 361c ef3d
00000360: 004d 5b3f 5f68 f33d 84ab 2bbf 8b7c c43c
00000370: cf03 8ebd a728 bcbf 02fa 32be 06e3 9bbf
00000380: c1b8 e63e 74a5 89be 56af 8fbf eacd 74bd
00000390: 4bd4 da3e b778 a33c 5939 2a3e 700b 6dbf
000003a0: 1dc3 2d3d 74d5 a8be abda 3dbf 7739 a73c
000003b0: 0d65 8bbe 64c3 c6be 82ce 4e3f d881 0cbf
000003c0: 66cf 08bf bd92 a53e 074e 6abe 5e50 013f
000003d0: 9ca3 cfbc 2082 903d f318 84be d4cc cdbd
000003e0: baeb 803f 8067 09bd e44e 3bbf 421c b5be
000003f0: e411 a93d d5f1 183e 962b 08bd 0ab2 80bf

dist.fc_logstd.bias f4 [2]
-0.4400425 -0.28802046
00000000: 404d e1be 6b77 93be

exp_avg f4 [128, 9]
-0.0713872 0.053172093 -0.11508556 -0.157692 -0.021577222 -0.1592555 -0.029576223 0.124543265
-0.17333266 0.052843902 0.13197194 0.05171725 0.049005527 -0.0072784238 0.02207249 0.0051314123
0.057754908 -0.096763685 -0.21290569 -0.23373662 -0.16040502 -0.31741968 -0.027791508 -0.1376882
-0.015986826 -0.07525028 -0.13262017 0.14046425 0.15132473 0.0616883 0.0716393 0.098151445
0.17268306 0.032556742 0.032407396 0.059247248 0.002936034 -0.045317963 -0.023305397 -0.0703365
-0.054055206 0.046839837 0.008816532 0.0055186646 0.010839205 -0.0033233468 -0.07466131 0.10411417
-0.2503255 -0.057370212 -0.16583839 0.011582006 -0.0077981832 -0.025736371 -0.09396223 0.016551806
0.06175898 -0.09522426 -0.13743009 -0.20952426 -0.02218884 -0.030846965 0.2244398 0.020186426
0.078394376 0.02089584 0.030990293 0.009351671 0.036928393 -0.029469302 -0.016281057 -0.02468361
-0.109703675 -0.111601315 -0.11517728 -0.11297264 0.045686908 -0.01876084 0.016663037 0.01275575
0.0315194 -0.074519806 -0.045970086 -0.07188618 -0.01960645 0.016656412 -0.027471475 0.0041448646
-0.012296322 0.038672738 -0.072163686 0.1013134 -0.025858296 0.048530743 0.043294523 0.021193348
-0.0013677785 -0.00054887217 -0.115671486 0.13920948 -0.032752573 0.17154102 -0.023019578 0.01491641
0.0669653 0.026901685 0.027286958 -0.09522161 -0.15238348 -0.038837183 -0.17012163 -0.10273161
0.020504843 -0.07349172 1.9427098e-05 -0.0048364857 -0.11108674 -0.021172553 -0.104318656 0.02131102
-0.14450026 0.10190536 7.493045e-05 -0.0036793116 0.0016757768 -0.14246096 0.14647211 -0.027007164
0.04246455 -0.08636701 0.07629543 0.21562475 -0.0036893939 -0.07529519 -0.21185865 -0.048626438
-0.027469981 -0.033733536 -0.017625216 -0.0091798315 -0.07227213 0.014204758 0.08618472 -0.02584969
-0.036816817 -0.19432218 -0.011867461 -0.19371404 -0.07514522 -0.10643925 0.0075054485 0.011143459
-0.15119925 -0.16640249 0.06693038 -0.19669104 0.0073237075 -0.0227959 -0.04672893 -0.012865713
-0.03160507 -0.0972804 0.11277861 0.07249951 0.20661266 -0.062340777 -0.17064622 -0.15917127
0.019360438 0.0147098005 -0.011725969 0.052789964 -0.010208612 0.06762689 0.025727864 -3.7959653e-05
0.044508424 0.012921073 0.011829197 0.08998277 -0.0022744914 0.0075172447 0.03389818 0.023379946
-0.0039283577 -0.013622007 0.016620306 0.024826342 0.032454245 -0.049776465 -0.008333262 -0.05999714
-0.15499407 0.027059773 0.06249721 -0.001767041 -0.0017347189 -0.03904373 0.038790207 -0.063741274
0.1920661 -0.07914832 -0.050051514 -0.08263193 -0.0024393026 -0.019048274 -0.12021874 0.014257398
0.031343263 0.031106569 -0.095015354 -0.041086614 -0.081188105 -0.0013018359 -0.0069530364 -0.0591985
-0.033958603 0.20515552 -0.024084939 0.053066455 -0.009146394 -0.045974553 0.0038556093 -0.00070680847
-0.14056309 0.038238693 -0.10290621 0.09420376 -0.29507706 -0.06107344 0.035788976 0.0047140373
-0.020550044 -0.043936532 -0.07764103 -0.07014799 -0.06630434 0.037917696 -0.027258964 -0.082071185
0.0057194284 -0.03011183 0.023976272 -0.02031836 -0.06978522 -0.035306726 -0.16746604 -0.08394248
-0.013311504 -0.005119164 -0.0050255232 -0.023360323 -0.26352152 -0.08725065 -0.008966861 -0.052835397
00000000: 7433 92bd fbca 593d fab1 ebbd 037a 21be
00000010: b7c2 b0bc e013 23be d649 f2bc 8a10 ff3d
00000020: 1e7e 31be d972 583d a723 073e 78d5 533d
00000030: 05ba 483d d87f eebb 5ed1 b43c 6825 a83b
00000040: 6990 6c3d 0a2c c6bd f303 5abe a758 6fbe
00000050: 3741 24be d584 a2be 04ab e3bc 23fe 0cbe
00000060: cef6 82bc d21c 9abd 95cd 07be dcd5 0f3e
00000070: dff4 1a3e dfac 7c3d a0b7 923d a003 c93d
00000080: d4d3 303e 385a 053d 9ebd 043d 3ead 723d
00000090: 7a6a 403b 549f 39bd f6ea bebc 950c 90bd
000000a0: fe68 5dbd 21db 3f3d 3773 103c ead5 b43b
000000b0: ec96 313c 82cc 59bb 07e8 98bd cf39 d53d
000000c0: aa2a 80be 07fd 6abd 8ad1 29be 74c2 3d3c
000000d0: e787 ffbb 15d5 d2bc 456f c0bd a797 873c
000000e0: fcf6 7c3d f004 c3bd 79ba 0cbe 878d 56be
000000f0: 5fc5 b5bc c6b2 fcbc 8cd3 653e 015e a53c
00000100: 3b8d a03d c12d ab3c 5bdf fd3c c037 193c
00000110: 3a42 173d 9b69 f1bc da5f 85bc 4835 cabc
00000120: 52ac e0bd 3b8f e4bd 11e2 ebbd 335e e7bd
00000130: 3222 3b3d 55b0 99bc ec80 883c 7efd 503c
00000140: 7d1a 013d d79d 98bd 214b 3cbd 1039 93bd
00000150: b59d a0bc 0773 883c dc0b e1bc a5d1 873b
00000160: 8376 49bc 4e67 1e3d 8eca 93bd 667d cf3d
00000170: c7d4 d3bc 2cc8 463d 9955 313d ac9d ad3c
00000180: 0847 b3ba 30e2 0fba 2ce5 ecbd ee8c 0e3e
00000190: 9027 06bd 73a8 2f3e 8e93 bcbc f563 743c
000001a0: 1a25 893d ec60 dc3c e688 df3c 8c03 c3bd
000001b0: 6a0a 1cbe bd13 1fbd 5d34 2ebe f364 d2bd
000001c0: c6f9 a73c d482 96bd 60f7 a237 627b 9ebb
000001d0: 7281 e3bd 1072 adbc 05a5 d5bd 7394 ae3c
000001e0: e0f7 13be c2b3 d03d fb23 9d38 9b20 71bb
000001f0: bda5 db3a 49e1 11be c9fc 153e 213e ddbc
00000200: 4fef 2d3d 30e1 b0bd c740 9c3d bccc 5c3e
00000210: c2c9 71bb 5d34 9abd 79f1 58be 842c 47bd
00000220: ba08 e1bc 2d2c 0abd c262 90bc 0167 16bc
00000230: 6903 94bd 13bb 683c 9d81 b03d bbc2 d3bc
00000240: 3bcd 16bd 65fc 46be bd6f 42bc f95c 46be
00000250: bde5 99bd d2fc d9bd 44f0 f53b 0e93 363c
00000260: fad3 1abe 6a65 2abe cc12 893d 6069 49be
00000270: b6fb ef3b 78be babc d666 3fbd b6ca 52bc
00000280: 5174 01bd f23a c7bd 79f8 e63d a07a 943d
00000290: 4592 533e 0b59 7fbd e2bd 2ebe cbfd 22be
000002a0: c899 9e3c 6001 713c 471e 40bc 4a3a 583d
000002b0: 0642 27bc f87f 8a3d 3ec3 d23c de36 1fb8
000002c0: 774e 363d e8b2 533c 40cf 413c e348 b83d
000002d0: a20f 15bb 3853 f63b d1d8 0a3d 4d87 bf3c
000002e0: 74b9 80bb d72e 5fbc 4f27 883c 9d60 cb3c
000002f0: beee 043d 68e2 4bbd 3c88 08bc 90bf 75bd
00000300: c4b6 1ebe 75ac dd3c 13fd 7f3d 0f9c e7ba
00000310: 825f e3ba 51ec 1fbd 7be2 1e3d c98a 82bd
00000320: faac 443e 8418 a2bd d102 4dbd ee3a a9bd
00000330: b5dc 1fbb 200b 9cbc 3e35 f6bd dd97 693c
00000340: cb61 003d 34d3 fe3c 6997 c2bd 704a 28bd
00000350: f345 a6bd 5da2 aaba 4cd6 e3bb 207a 72bd
00000360: 2d18 0bbd 4a14 523e c74d c5bc 365c 593d
00000370: c2da 15bc d04f 3cbd 64ae 7c3b 1d49 39ba
00000380: c5ef 0fbe 2da0 1c3d 7ec0 d2bd e7ed c03d
00000390: 5714 97be 2528 7abd 7697 123d 3678 9a3b
000003a0: 9158 a8bc cbf6 33bd 4302 9fbd c0a9 8fbd
000003b0: 92ca 87bd 964f 1b3d 314e dfbc f014 a8bd
000003c0: 0b6a bb3b 16ad f6bc e369 c43c b072 a6bc
000003d0: 8eeb 8ebd c99d 10bd 387c 2bbe 09ea abbd
000003e0: 7f18 5abc a9be a7bb 25ad a4bb 265e bfbc
000003f0: 4bec 86be 78b0 b2bd bee9 12bc ee69 58bd

exp_avg_sq f4 [128, 9]
0.45677766 0.39617965 0.45543918 0.69284844 0.28500798 0.5890318 0.05403465 0.08489402
0.526418 0.17447653 0.09644129 0.16261485 0.23082456 0.11702804 0.17160532 0.039344337
0.015179247 0.096767366 0.73309594 1.8312097 1.0174905 1.3284322 0.40447262 0.58463067
0.08318657 0.063785166 1.0337126 0.17880239 0.57686746 0.19812107 0.5154797 0.084756374
0.17417482 0.019154971 0.018209094 0.86241776 0.24676001 0.31858823 0.27701446 0.276088
0.2387134 0.4432961 0.019858012 0.01070326 0.3061723 0.13946678 0.23641267 0.17865555
0.21589836 0.062969975 0.1257018 0.018983053 0.02083014 0.24733913 0.32922694 0.3413397
0.32661724 0.50080657 0.22432964 0.39620826 0.060342055 0.064037904 0.42468828 0.049200565
0.12384561 0.06074823 0.13334402 0.07679383 0.047920823 0.01924154 0.009112865 0.1986483
0.29047906 0.61292493 0.2993721 0.2809569 0.06140382 0.09427878 0.05764177 0.019188737
0.29965064 0.09604097 0.32595465 0.10415128 0.1585887 0.11497995 0.08815106 0.011725167
0.031961095 0.13413803 0.29424006 0.2904117 0.44004485 0.19361493 0.1555892 0.15440388
0.032369703 0.016042085 0.3298753 0.23281045 0.20598374 0.2539273 0.42001733 0.20592839
0.16301507 0.009282515 0.008638467 0.27432236 0.39331055 0.6008057 0.3764532 0.4171031
0.072961375 0.20034458 0.04891583 0.015982771 0.47683474 0.30914074 0.83207446 0.3961066
0.5264027 0.11866855 0.314661 0.08240541 0.01737111 0.6178864 0.15083398 0.33168292
0.18233256 0.3346856 0.1586618 0.19542995 0.012004378 0.022280583 0.40978563 0.1374667
0.26999167 0.17208107 0.21177955 0.08340349 0.106121294 0.03338661 0.032762576 0.3069043
0.15448342 0.2756417 0.18574557 0.24050139 0.080798015 0.16138181 0.01302319 0.03035335
0.3326661 0.19857413 0.38535318 0.28117603 0.34470084 0.07574142 0.16946675 0.012896014
0.027775424 0.5244794 0.28236553 0.2600152 0.35179594 0.42250082 0.24131599 0.3352448
0.024369776 0.017841676 0.51504886 0.19425339 0.1625926 0.15766375 0.19193676 0.05465656
0.14365374 0.006315773 0.013280205 0.16777323 0.3394875 0.19033039 0.3316917 0.20690258
0.33826378 0.1631872 0.018616533 0.018943649 0.34947908 0.15824066 0.24540955 0.14789924
0.30086437 0.5613144 0.2813846 0.0071622096 0.007569967 0.22076398 0.10944116 0.38853693
0.16246092 0.28631455 0.090542085 0.19868678 0.009296023 0.021711066 0.22989237 0.2518244
0.2578244 0.38699442 0.24627112 0.28164053 0.25145498 0.03855943 0.031181708 0.35226375
0.32788265 0.787952 0.44687352 0.61132246 0.2920421 0.242621 0.031078272 0.023000037
0.6665993 0.43055096 0.25141135 0.38351724 0.3511425 0.1611931 0.2189187 0.044627074
0.034913454 0.47409904 0.1309486 0.11092845 0.11018277 0.13874485 0.07021297 0.12869605
0.022309393 0.053065863 0.14106677 0.27026677 0.5000689 0.32284635 0.3529635 0.18398261
0.26941964 0.011323109 0.010912659 0.2479537 1.2850282 2.0256536 1.512998 1.7711
00000000: c3de e93e 0fd8 ca3e 532f e93e 845e 313f
00000010: 91ec 913e caca 163f 7053 5d3d eadc ad3d
00000020: 54c3 063f faa9 323e 0383 c53d 8284 263e
00000030: 465d 6c3e 66ac ef3d 4eb9 2f3e 8727 213d
00000040: 60b2 783c f82d c63d 2dac 3b3f 1465 ea3f
00000050: 213d 823f 110a aa3f 0917 cf3e 5baa 153f
00000060: b85d aa3d cca1 823d b250 843f f917 373e
00000070: 96ad 133f 40e0 4a3e 7af6 033f c094 ad3d
00000080: e25a 323e e3ea 9c3c 3d2b 953c 69c7 5c3f
00000090: a8ae 7c3e ff1d a33e d7d4 8d3e 685b 8d3e
000000a0: 4971 743e b5f7 e23e 45ad a23c ba5c 2f3c
000000b0: 9ec2 9c3e 61d0 0e3e 2a16 723e 7bf1 363e
000000c0: 7614 5d3e 67f6 803d f9b7 003e 5982 9b3c
000000d0: f8a3 aa3c 7846 7d3e 6f90 a83e 14c4 ae3e
000000e0: 603a a73e dc34 003f abb6 653e cfdb ca3e
000000f0: 3b29 773d 4e26 833d be70 d93e 8886 493d
00000100: c4a2 fd3d 23d3 783d 568b 083e 1546 9d3d
00000110: a048 443d 6fa0 9d3c 204e 153c 766a 4b3e
00000120: acb9 943e a6e8 1c3f 4d47 993e 95d9 8f3e
00000130: 9282 7b3d 3c15 c13d c719 6c3d b331 9d3c
00000140: cf6b 993e 21b1 c43d 87e3 a63e 444d d53d
00000150: 1465 223e 9c7a eb3d 8b88 b43d ea1a 403c
00000160: a3e9 023d 7b5b 093e a2a6 963e d8b0 943e
00000170: 8f4d e13e fe42 463e c652 1f3e 0d1c 1e3e
00000180: 1896 043d b16a 833c 6ae5 a83e dd65 6e3e
00000190: 67ed 523e c202 823e 830c d73e e4de 523e
000001a0: 6ced 263e b115 183c 5b88 0d3c fb73 8c3e
000001b0: 0060 c93e 67ce 193f 79be c03e 8a8e d53e
000001c0: c66c 953d 2127 4d3e f75b 483d 4dee 823c
000001d0: af23 f43e b247 9e3e d502 553f 7cce ca3e
000001e0: 54c2 063f 7f08 f33d 3f1b a13e 2bc4 a83d
000001f0: dc4d 8e3c ce2d 1e3f 3974 1a3e 58d2 a93e
00000200: 63b5 3a3e e95b ab3e 3d78 223e ca1e 483e
00000210: 03ae 443c c585 b63c 6ccf d13e 12c4 0c3e
00000220: 593c 8a3e 0536 303e bddc 583e 73cf aa3d
00000230: 1f56 d93d 66c0 083d 0d32 063d 8f22 9d3e
00000240: e730 1e3e e920 8d3e 1634 3e3e ff45 763e
00000250: 6e79 a53d 4641 253e 385f 553c 97a7 f83c
00000260: 3653 aa3e 0457 4b3e 034d c53e 4ef6 8f3e
00000270: a17c b03e 511e 9b3d b188 2d3e ce49 533c
00000280: 4989 e33c 4844 063f 3792 903e b620 853e
00000290: 991e b43e 0752 d83e 8a1b 773e 35a5 ab3e
000002a0: 20a3 c73c b528 923c 3eda 033f 5cea 463e
000002b0: ad7e 263e 9b72 213e 128b 443e 8fdf 5f3d
000002c0: f719 133e 8bf4 ce3b 3895 593c bfcc 2b3e
000002d0: 4ed1 ad3e f8e5 423e 7fd3 a93e 45de 533e
000002e0: e930 ad3e 8c1a 273e b381 983c b62f 9b3c
000002f0: ecee b23e d709 223e a44c 7b3e e672 173e
00000300: e50a 9a3e 4db2 0f3f a411 903e f8b0 ea3b
00000310: 7c0d f83b f40f 623e b022 e03d 50ee c63e
00000320: 285c 263e d297 923e 216e b93d 8c74 4b3e
00000330: 594e 183c 68db b13c e868 6b3e 21ef 803e
00000340: 8f01 843e 2224 c63e 7f2e 7c3e 3033 903e
00000350: b5be 803e 7ef0 1d3d c870 ff3c ea5b b43e
00000360: 3ce0 a73e 39b7 493f 9bcc e43e a17f 1c3f
00000370: 8b86 953e a471 783e dc97 fe3c 936a bc3c
00000380: 40a6 2a3f 2d71 dc3e fdb8 803e 5f5c c43e
00000390: f3c8 b33e ce0f 253e 392c 603e e1ca 363d
000003a0: 6901 0f3d 1cbd f23e 6417 063e 752e e33d
000003b0: 81a7 e13d 2113 0e3e d1cb 8f3d e6c8 033e
000003c0: 30c2 b63c 975b 593d cf73 103e 6860 8a3e
000003d0: 8404 003f 1e4c a53e a2b7 b43e f065 3c3e
000003e0: 5ff1 893e 9084 393c 02cb 323c 93e7 7d3e
000003f0: ce7b a43f 4fa4 0140 eba9 c13f 68b3 e23f

exp_avg f4 [128]
0.1822442 0.063216455 -0.022924157 -0.214645 -0.036551893 -0.08477563 0.059164118 0.058779463
-0.09364057 -0.032417804 -0.032654736 -0.18086433 -0.0024843612 -0.0110542765 0.023989053 -0.004226903
-0.04440966 0.17506409 -0.0685097 -0.084014915 0.0035518187 0.0114896195 0.016628174 0.048077323
-0.015144364 0.10737385 -0.05394832 0.03328564 -0.23220313 0.07485052 0.08573687 -0.045131724
0.07824023 -0.18304022 0.047397133 0.15855718 -0.00023489707 0.009739257 0.014015335 0.023613533
-0.07578051 -0.061983958 0.21020992 -0.10471896 0.036745947 0.14121248 0.11636318 -0.10205388
0.13324133 -0.06841623 -0.11646594 0.048967317 0.21606956 0.11543746 0.02172727 -0.16715164
0.025146902 -0.13950889 -0.11310015 0.029116703 0.08790818 -0.0010499574 0.07450829 -0.085436255
0.0059858453 -0.1242476 -0.04207328 0.04386192 0.14147519 -0.25288817 0.0018602281 0.1004518
0.08011732 -0.1157734 -0.20206681 -0.020481462 -0.22322151 0.05307712 0.065376505 0.025285695
-0.031222502 -0.19735807 -0.20989722 0.020001044 -0.09007864 0.025588699 -0.08665864 0.025366027
0.2938657 0.09779302 0.06141218 0.1730156 0.094484255 -0.082260475 -0.09568781 0.17947957
0.030893834 0.02950957 0.015366004 0.030638548 -0.034105197 -0.09512774 -0.12436421 -0.028630625
0.03488042 -0.068959884 -0.17592792 0.10995959 0.040683884 0.08810948 0.00067623856 -0.09268223
0.07765944 0.016715663 -0.06653864 0.006862158 -0.080625616 -0.020291867 0.21876629 -0.12573028
0.017923757 0.111217745 -0.045595247 -0.0831505 -0.05691775 0.0038588317 0.13537554 -0.058601737
00000000: 399e 3a3e a177 813d 71cb bbbc e6cb 5bbe
00000010: 70b7 15bd d89e adbd 1356 723d bcc2 703d
00000020: a1c6 bfbd 88c8 04bd f9c0 05bd 8034 39be
00000030: aad0 22bb ff1c 35bc b184 c43c d581 8abb
00000040: e7e6 35bd 0044 333e d04e 8cbd 0310 acbd
00000050: a1c5 683b f53e 3c3c cf37 883c baec 443d
00000060: 1120 78bc d2e6 db3d eaf8 5cbd 8656 083d
00000070: a8c6 6dbe 3b4b 993d d096 af3d 0bdc 38bd
00000080: 6a3c a03d e56e 3bbe 7f23 423d d05c 223e
00000090: b44e 76b9 6891 1f3c 93a0 653c 2b71 c13c
000000a0: d032 9bbd e4e2 7dbd 4541 573e e576 d6bd
000000b0: eb82 163d 019a 103e d24f ee3d a001 d1bd
000000c0: 6a70 083e cf1d 8cbd b285 eebd f491 483d
000000d0: 5741 5d3e 7a6a ec3d 63fd b13c cd29 2bbe
000000e0: e000 ce3c 6bdb 0ebe 0da1 e7bd 2786 ee3c
000000f0: 3409 b43d b99e 89ba cd97 983d 34f9 aebd
00000100: e924 c43b 8775 febd 0855 2cbd 8ea8 333d
00000110: dfde 103e 8f7a 81be e6d2 f33a acb9 cd3d
00000120: 8d14 a43d 9b1a edbd 9aea 4ebe bdc8 a7bc
00000130: 2e94 64be 6567 593d 1ee4 853d f223 cf3c
00000140: 55c6 ffbc 3c18 4abe 4cef 56be 3bd9 a33c
00000150: 267b b8bd 649f d13c 167a b1bd 6acc cf3c
00000160: 9175 963e b547 c83d 578b 7b3d 002b 313e
00000170: f680 c13d 2e78 a8bd f8f7 c3bd 7ec9 373e
00000180: 1115 fd3c 0ebe f13c b1c1 7b3c b1fd fa3c
00000190: e4b1 0bbd 55d2 c2bd aab2 febd c68a eabc
000001a0: c5de 0e3d d73a 8dbd 7326 34be 7e32 e13d
000001b0: 25a4 263d be72 b43d 9a45 313a 2ed0 bdbd
000001c0: ea0b 9f3d 49ef 883c 6945 88bd f4db e03b
000001d0: 0b1f a5bd 213b a6bc 4504 603e 70bf 00be
000001e0: d8d4 923c 21c6 e33d 15c2 3abd cf4a aabd
000001f0: 9622 69bd 74e4 7c3b e39f 0a3e 6008 70bd

exp_avg_sq f4 [128]
0.6488692 0.19910078 2.1638155 0.7901779 0.4695347 0.3103149 0.63287574 0.14936562
0.37502038 0.22090217 0.47979498 0.37279683 0.660896 0.7368797 0.5075226 0.28826988
0.22794029 0.40111706 0.44153893 0.2647872 0.26043114 0.30248314 0.32018366 0.32471058
0.7946595 0.4510343 0.14636378 0.4787198 3.5772693 0.2354347 0.30185524 0.26397815
0.28678194 0.33907476 0.3110665 1.1649294 0.0011390949 0.05816966 0.7087873 0.06446249
0.24628851 0.085754395 0.31726846 0.227458 0.4718449 1.2104344 0.236283 1.1847719
0.45067367 0.09440287 0.5793701 0.15099946 0.80169874 0.44474328 0.36369145 0.9550575
0.22828475 0.25930268 0.5981563 0.5423269 0.77272445 0.24327898 0.813353 1.157768
1.5183101 0.48889711 0.3851405 1.209523 0.40938792 0.6282257 0.16082685 0.2616679
1.8135273 1.1165437 1.275641 0.22275747 0.31843388 0.6662636 0.2814617 0.42732185
0.11150962 0.29468036 0.6500456 0.33476326 0.359028 0.124212354 0.25903624 0.057053767
0.32330248 0.16573113 0.22355115 0.45161453 0.6018981 0.18159568 1.7966917 0.26919657
0.041770563 0.3522094 0.36034468 0.026852978 0.25034645 0.595282 0.30859062 0.16561171
0.065205805 0.39192572 0.30205327 0.8016324 1.2438279 0.6350038 0.02154226 0.4206614
0.52073973 0.48208204 0.2964346 0.5665187 0.4250058 0.58360875 0.57798713 0.4601175
0.46622354 1.226421 0.266233 0.27925992 0.4230374 0.26157853 0.8540597 0.2437503
00000000: 4b1c 263f 13e1 4b3e f47b 0a40 1949 4a3f
00000010: da66 f03e 98e1 9e3e 2504 223f 4df3 183e
00000020: ac02 c03e 2e34 623e b0a7 f53e 3adf be3e
00000030: 7b30 293f 26a4 3c3f 00ed 013f 1c98 933e
00000040: 2e69 693e 375f cd3e 6411 e23e 3092 873e
00000050: 3b57 853e 12df 9a3e 1def a33e 7740 a63e
00000060: ce6e 4b3f f8ed e63e 63e0 153e c31a f53e
00000070: fbf1 6440 cb15 713e c58c 9a3e 2528 873e
00000080: 15d5 923e 359b ad3e 1c44 9f3e 681c 953f
00000090: af4d 953a 4f43 6e3d 1673 353f e904 843d
000000a0: 0e33 7c3e 00a0 af3d 0371 a23e c0ea 683e
000000b0: a895 f13e 84ef 9a3f 2cf4 713e 9ba6 973f
000000c0: b3be e63e 4b56 c13d 9951 143f 9a9f 1a3e
000000d0: 213c 4d3f 64b5 e33e c435 ba3e a67e 743f
000000e0: 7ac3 693e 52c3 843e c520 193f f0d5 0a3f
000000f0: 45d1 453f 201e 793e e737 503f be31 943f
00000100: fc57 c23f b950 fa3e 2331 c53e a6d1 9a3f
00000110: 4b9b d13e 66d3 203f cbaf 243e 56f9 853e
00000120: aa21 e83f e7ea 8e3f 3448 a33f 891a 643e
00000130: c409 a33e 4090 2a3f bf1b 903e eec9 da3e
00000140: 285f e43d 58e0 963e 6369 263f 1766 ab3e
00000150: 85d2 b73e 0c63 fe3d 66a0 843e 36b1 693d
00000160: e787 a53e 6cb5 293e 98ea 643e 053a e73e
00000170: fe15 1a3f 38f4 393e fef9 e53f 22d4 893e
00000180: 9c17 2b3d ca54 b43e 197f b83e c7fa db3c
00000190: 692d 803e 6764 183f 97ff 9d3e 1e96 293e
000001a0: 9f8a 853d 7daa c83e baa6 9a3e c837 4d3f
000001b0: c135 9f3f 9c8f 223f 6579 b03c ee60 d73e
000001c0: 334f 053f 75d3 f63e 47c6 973e 5f07 113f
000001d0: 5c9a d93e 6267 153f f7f6 133f 8594 eb3e
000001e0: dab4 ee3e 5dfb 9c3f b14f 883e 28fb 8e3e
000001f0: 5c98 d83e 9fed 853e a8a3 5a3f ae99 793e
