ppo/models/behavioral_cloning_agents_drone/bc10/ckpts/002958900.pt (torch_old, 420024 bytes, 26 tensors)

fc1.weight f4 [128, 15]
0	0x3efd32de	0.4945287
1	0xbe33e595	-0.17568047
2	0xbee783cc	-0.4521774
3	0xbeb14d24	-0.34629166
4	0xbe096d37	-0.13420568
5	0xbdaa0b5c	-0.08302948
6	0xbebe60ec	-0.3718332
7	0x3d60cdad	0.054883648
8	0x3e066f22	0.13128331
9	0xbf0a9162	-0.54128087
10	0xbea4cf49	-0.32189396
11	0x3e219e82	0.15783122
12	0xbe7c970a	-0.24666992
13	0xbe2f1ac2	-0.17100051
14	0x3db058e1	0.08610702
15	0x3bcf3246	0.0063231317
16	0xbef5fcee	-0.48044533
17	0x3ead28f9	0.33820322
18	0xbeadd2d8	-0.33949924
19	0xbe8b8b56	-0.27254742
20	0xbe1019b4	-0.14072305
21	0x3e54582d	0.20736761
22	0x3d38d475	0.04512449
23	0x3e601bb1	0.21885563
24	0xbf47dd79	-0.78072315
25	0x3f194df8	0.59884596
26	0x3ec65e53	0.3874384
27	0xbe7545a3	-0.23952346
28	0xbe267275	-0.162546
29	0x3cae84b6	0.021303516
30	0x3da2d83c	0.079514
31	0x3da781e1	0.08179069
32	0xbe4bcbb5	-0.19901927
33	0xbdfd4304	-0.12366298
34	0xbe472841	-0.1944895
35	0xbf5b16ea	-0.8558184
36	0x3e30cb88	0.17265141
37	0x3e8686c8	0.26274705
38	0x3ea6153c	0.32438076
39	0x3e8ad502	0.27115637
40	0x3e6332a7	0.22187291
41	0xbe458fa0	-0.1929307
42	0x3d32ed40	0.04368329
43	0xbe76dd66	-0.24107894
44	0xbd60502a	-0.05476395
45	0x3d41185a	0.047142364
46	0xbd0fe83a	-0.035133578
47	0xbdd2fea8	-0.10302478
48	0xbca6885a	-0.02032869
49	0xbe426b8f	-0.18986343
50	0x3d0e74ff	0.034779545
51	0xbcdbecad	-0.026846254
52	0x3c78798c	0.015165698
53	0xbd06b95f	-0.032891627
54	0xbe34a261	-0.17640068
55	0xbde445a5	-0.11146096
56	0xbd3cb097	-0.046066847
57	0xbe4cfcc7	-0.20018302
58	0xbe373fbc	-0.17895406
59	0x3e1dee36	0.15422902
60	0x3ec735ce	0.38908237
61	0x3e8fa109	0.28052548
62	0xbeb8b576	-0.36075944
63	0xbe42c99a	-0.19022217
64	0xbe98ca15	-0.29841676
65	0xbf054af0	-0.5206747
66	0xbed44bd5	-0.41464105
67	0x3ebaedcf	0.3650956
68	0x3da147d1	0.07875026
69	0x3f6ec3d1	0.9326754
70	0x3e2a60f9	0.16638555
71	0xbd6330e9	-0.055466566
72	0x3dcfd1fc	0.10147473
73	0x3e5b109a	0.21393052
74	0x3e8a8dde	0.2706136
75	0x3dac0091	0.083985455
76	0xbcca6e78	-0.024710879
77	0xbe595a92	-0.21225956
78	0x3e77fe1d	0.2421803
79	0xbf16fe5c	-0.5898187
80	0xbe6b17bf	-0.22958277
81	0xbdc925c0	-0.09821653
82	0xbe908e42	-0.28233534
83	0xbd0f3fb7	-0.034972873
84	0x3e39a797	0.18130337
85	0xbe076f3e	-0.1322603
86	0xbdb37510	-0.08762562
87	0xbdf20ed0	-0.118192315
88	0x3dcb5998	0.09929198
89	0x3da280d7	0.079347305
90	0xbe0330f2	-0.1281164
91	0xbe9dab33	-0.30794677
92	0x3e37e9ff	0.17960356
93	0xbdd2a254	-0.10284868
94	0xbf138df5	-0.57638484
95	0xbeddfe12	-0.43357903
96	0xbe80b903	-0.25141153
97	0xbe2bd1e2	-0.16779283
98	0xbe305858	-0.172212
99	0x3e4f38b0	0.20236468
100	0x3f856692	1.0421927
101	0xbe5999fd	-0.21250148
102	0xbde690fa	-0.11258121
103	0xbd8516b6	-0.064984724
104	0xbe318a1c	-0.17337841
105	0x3d9590d1	0.07303012
106	0xbe25656f	-0.16151975
107	0xbeaf143c	-0.34195125
108	0x3bfc150c	0.0076929387
109	0xbe5cc233	-0.21558456
110	0xbecd043f	-0.40042302
111	0xbe1614d8	-0.14656389
112	0xbe8aee7d	-0.27135077
113	0x3e7c1c85	0.24620254
114	0x3fbc76b8	1.472373
115	0xbc01c452	-0.007920342
116	0x3c67f829	0.014158287
117	0x3c3ee240	0.011650622
118	0x3d1a4d70	0.037671506
119	0x3e13175c	0.1436438
120	0x3deca4cb	0.11554869
121	0xbdea4f2a	-0.114408806
122	0xbe6a76dd	-0.22896905
123	0x3eeeb3d5	0.46621576
124	0xbf20d9f1	-0.6283255
125	0xbed0f957	-0.4081523
126	0xbe43fc8b	-0.19139306
127	0xbe921488	-0.2853129
128	0xbc2d145d	-0.010563937
129	0x3d6b2a0d	0.05741315
130	0xbe8293eb	-0.25503477
131	0xbd10d2e5	-0.035357375
132	0xbe2c3ea6	-0.16820773
133	0xbc591910	-0.013250604
134	0x3ee5bc39	0.44870165
135	0x3db19a0f	0.086719625
136	0x3c26ceb8	0.0101811215
137	0xbe4401d9	-0.1914133
138	0x3db2e05e	0.08734201
139	0x3e140a02	0.14456943
140	0x3dacdc2f	0.08440434
141	0xbd25294f	-0.040322598
142	0x3d879348	0.066198885
143	0xbe823f43	-0.2543889
144	0xbf822d7f	-1.0170134
145	0xbf002fcd	-0.5007294
146	0x3e4b4841	0.19851781
147	0xbadb6200	-0.001673758
148	0xbe036aba	-0.12833682
149	0xbdda914a	-0.10672243
150	0xbf09a154	-0.5376179
151	0x3e3dcf37	0.18536077
152	0xbdf22356	-0.11823146
153	0xbc95450f	-0.018221406
154	0x3df7dcc2	0.12102653
155	0xbf2b0c3a	-0.6681553
156	0xbd0d75ff	-0.034536358
157	0x3c8f068a	0.017459173
158	0xbe1c570e	-0.15267584
159	0x3e4fc6c4	0.20290667
160	0x3ec3f069	0.38269356
161	0x3d635be0	0.05550754
162	0xbe6d4164	-0.23169476
163	0xbe644a0b	-0.2229387
164	0x3de3f9e4	0.11131647
165	0x3ed65765	0.41863552
166	0xbeadc858	-0.33941913
167	0xbd4b672d	-0.049658943
168	0xbefaf1f2	-0.49012715
169	0xbf369133	-0.71315306
170	0x3ed5e8b3	0.41779098
171	0xbf319f85	-0.6938403
172	0x3e68a442	0.2271891
173	0xbdb377e5	-0.087631024
174	0xbf677ecd	-0.9042786
175	0x3e225d15	0.1585582
176	0xbe050283	-0.1298924
177	0xbdec0e5a	-0.11526175
178	0x3e536cc4	0.2064696
179	0xbdde1ba7	-0.10845118
180	0x3e8acc57	0.27109024
181	0x3e5720ce	0.21008608
182	0x3e6ffda6	0.23436603
183	0x3d5f8168	0.05456677
184	0xbcfba55d	-0.0307185
185	0x3d44e1c6	0.048066877
186	0xbf23c00f	-0.63964933
187	0x3e77b226	0.24189052
188	0xbe914f49	-0.28380802
189	0xbddad5cc	-0.1068531
190	0x3ea992d4	0.33119833
191	0x3efc1dd2	0.492415
192	0xbe3a7fbc	-0.1821279
193	0x3c3cac20	0.011515647
194	0xbde43aa8	-0.11144
195	0xbd956624	-0.072948724
196	0xbe072a19	-0.13199653
197	0x3e3fd45e	0.18733355
198	0xbf5bcfc0	-0.85863876
199	0xbe6ddb91	-0.23228289
200	0xbe5306c1	-0.20608045
201	0x3f27c5e6	0.65536344
202	0xbc71be84	-0.014754895
203	0xbeb3acd4	-0.35092795
204	0xbdf2b8e5	-0.11851672
205	0x3d48eea5	0.049055714
206	0xbe7a33a1	-0.24433757
207	0x3e5f03c6	0.21778783
208	0x3dbf3704	0.09336665
209	0x3dd49eac	0.10381827
210	0xbe6d7e4a	-0.23192707
211	0xbeae9b11	-0.3410268
212	0xbec49492	-0.383946
213	0xbd2338af	-0.03984898
214	0xbe85bbb6	-0.26119775
215	0xbebf7ad0	-0.37398386
216	0xbe95d067	-0.2926056
217	0xbe6809c8	-0.22659981
218	0x3e94235c	0.28933227
219	0xbf0ddf0a	-0.55418456
220	0xbefc5c9f	-0.49289414
221	0x3e8008d1	0.25006726
222	0x3dbf04e0	0.09327102
223	0x3bef8c00	0.0073103905
224	0x3c83ad88	0.016073957
225	0x3e3252dc	0.17414421
226	0xbec27323	-0.37978467
227	0xbe7e8ef4	-0.2485922
228	0xbf338923	-0.7013113
229	0xbeedee0a	-0.46470672
230	0x3e77a46f	0.2418382
231	0xbe8ed8ee	-0.2789988
232	0x3e8ba262	0.27272326
233	0x3d848e33	0.06472435
234	0x3f5c4fef	0.8605947
235	0xbf5c4663	-0.860449
236	0x3e03bc65	0.12864836
237	0xbe3ae677	-0.18251978
238	0xbde01d74	-0.10943118
239	0x3e08a4df	0.13344143
240	0xbe13b015	-0.14422639
241	0xbd7be8af	-0.0615012
242	0xbdcb361e	-0.099224314
243	0xbeb5224a	-0.35377723
244	0xbe1b455c	-0.15163177
245	0xbf4efeaa	-0.80857337
246	0x3eef9002	0.46789557
247	0xbe7d8cdb	-0.24760763
248	0x3e6c00da	0.230472
249	0xbf458d0b	-0.7716834
250	0x3c7fa711	0.015603797
251	0xbe5d0ff6	-0.2158812
252	0x3e5aa23c	0.2135095
253	0xbd9a9376	-0.07547657
254	0xbd64094a	-0.05567292
255	0xbea57d58	-0.32322192

fc1.bias f4 [128]
0	0xbe8b24f2	-0.27176625
1	0xbe6d880f	-0.23196433
2	0xbe1ba882	-0.15201
3	0xbdaf7c3f	-0.0856862
4	0xbcc25f58	-0.023727104
5	0xbd58981b	-0.052879434
6	0xbd9893af	-0.074500434
7	0xbb50c069	-0.0031852967
8	0xbe82810a	-0.25489074
9	0xbdac4bfd	-0.08412931
10	0xbecb7bbf	-0.39742848
11	0xbea6dfb0	-0.32592535
12	0xbd4927c3	-0.049110185
13	0x3d681b59	0.056666706
14	0xbd87f502	-0.066385284
15	0xbd3da15e	-0.04629647
16	0x3c37cee6	0.011218762
17	0xbd0f0dff	-0.034925457
18	0xbe8977a4	-0.2684909
19	0xbebbaaa4	-0.36653626
20	0xbe954557	-0.29154465
21	0xbe4884f9	-0.19581975
22	0xbe45205d	-0.19250627
23	0xbe29a16e	-0.16565487
24	0xbea9c0dd	-0.33154956
25	0xbdaead5f	-0.08529162
26	0xbe907b99	-0.28219298
27	0x3de766cc	0.11298904
28	0xbdcfd9c1	-0.10148955
29	0xbe33d0cb	-0.17560117
30	0xbe07e017	-0.13269077
31	0xbd8fa000	-0.070129395
32	0x3e629ae0	0.22129393
33	0xbe1a4042	-0.15063575
34	0xbea126b6	-0.31474847
35	0xbe1fac84	-0.15593153
36	0x3c5d4cdd	0.013507095
37	0xbce140e8	-0.02749677
38	0xbe91c84b	-0.28473124
39	0xbdc08859	-0.09401006
40	0x3def8e3b	0.1169705
41	0xbce73f4e	-0.028228428
42	0xbe4fdf08	-0.20299923
43	0x3ddfa936	0.10920946
44	0xbd850d9d	-0.06496737
45	0xbe2d718f	-0.1693785
46	0xbe86201c	-0.26196373
47	0xbeea45cf	-0.45756385
48	0xbe825650	-0.25456476
49	0xbe5cfb80	-0.21580315
50	0xbef0fe33	-0.4706894
51	0xbe8564b5	-0.26053396
52	0xbd44191c	-0.04787551
53	0xbe38b5a4	-0.1803804
54	0xbe942b5b	-0.28939328
55	0xbe2df4d1	-0.16987921
56	0x3d8c1b71	0.068411715
57	0x3c114006	0.008865362
58	0xbdbfa66f	-0.093579166
59	0xbe729808	-0.23690808
60	0xbeaafb22	-0.33394724
61	0xbea5710d	-0.32312813
62	0xbe0602d0	-0.1308701
63	0xbcd651d3	-0.026162064
64	0xbd04dd18	-0.032437414
65	0xbe11862e	-0.14211342
66	0xbe60f323	-0.2196775
67	0xbe7e8ccc	-0.24858397
68	0x3bdb19f7	0.006686445
69	0x3e68153f	0.22664355
70	0xbee4bb4e	-0.44674152
71	0xbe95925c	-0.29213226
72	0xbcb7ab1d	-0.02242046
73	0xbe1287c2	-0.143096
74	0xbe4773af	-0.19477724
75	0xbdde874b	-0.10865649
76	0xbe8cdfa9	-0.2751439
77	0xbe52da1b	-0.20591013
78	0xbe356149	-0.17712893
79	0x3d2524e8	0.0403184
80	0xbd89616a	-0.067080334
81	0xbdcd1b8c	-0.1001502
82	0xbd4b5851	-0.049644772
83	0xbd9b35db	-0.075786315
84	0x3e090ccf	0.13383792
85	0xbe8a2e15	-0.26988283
86	0xbd9761e0	-0.07391715
87	0xbd8e9bda	-0.0696332
88	0xbe3ac690	-0.18239808
89	0x3d292f96	0.041305147
90	0xbec40444	-0.38284504
91	0xbd133152	-0.035935707
92	0xbec3402d	-0.381349
93	0xbd9fa2fe	-0.0779476
94	0xbda443e8	-0.080207646
95	0x3dd2e593	0.10297694
96	0xbebad034	-0.3648697
97	0xbb2a81e2	-0.0026017358
98	0xbf0f91c7	-0.56081814
99	0xbe99936c	-0.29995286
100	0xbea8e135	-0.3298432
101	0xbdf9383d	-0.1216893
102	0xbe388faa	-0.18023553
103	0xbedc0862	-0.42975146
104	0xbde333ba	-0.110938504
105	0xbe78770c	-0.24264163
106	0xbe13df2d	-0.14440604
107	0xbea2bdd3	-0.3178545
108	0xbe457235	-0.19281848
109	0xbdb9c139	-0.090700574
110	0xbe25301b	-0.16131632
111	0xbcbc1fd4	-0.022964396
112	0xbe66b407	-0.22529612
113	0x3d0accbe	0.033886664
114	0xbe2b2d38	-0.16716468
115	0x3d90eb26	0.07076101
116	0x3cf8f76a	0.030391414
117	0xbe9ca482	-0.3059426
118	0x3b4808aa	0.0030522742
119	0xbc27ab01	-0.010233642
120	0xbdb5ce99	-0.08877296
121	0xbe30a7d5	-0.17251523
122	0x3d0e01bc	0.034669623
123	0x3d90267c	0.0703859
124	0x3d4312a6	0.047625206
125	0xbe9abaf6	-0.30220765
126	0x3d9a1eaf	0.07525384
127	0xbdeb76df	-0.11497282

fc2.weight f4 [128, 128]
0	0xbf5504b8	-0.83210325
1	0xbf502d3f	-0.8131904
2	0xbeee7a3a	-0.46577626
3	0xbc16e460	-0.009209722
4	0xbf523a44	-0.82120156
5	0x3d4166ed	0.0472173
6	0xbe0a7315	-0.13520463
7	0xc007e376	-2.123258
8	0xbcdb105b	-0.026741197
9	0x3f382067	0.7192444
10	0xbea2be0e	-0.31785625
11	0x3f3ade73	0.7299568
12	0xbdb057e6	-0.08610515
13	0xbdbd3aab	-0.09239706
14	0x3c2cce97	0.010547302
15	0x3eb558f8	0.3541944
16	0xbf9c39f2	-1.2205184
17	0x3f509aed	0.814864
18	0xbf03a12b	-0.514178
19	0x3df8e990	0.121539235
20	0xbf3cebcb	-0.7379729
21	0xbee2f923	-0.443307
22	0x3ed4b9bd	0.41547957
23	0xbe533b6f	-0.20628141
24	0xbf87c756	-1.0607708
25	0xbf433fb1	-0.7626906
26	0xbf81e343	-1.014748
27	0x3d3034ed	0.043019224
28	0xbf71091c	-0.94154525
29	0xbedb6d16	-0.42856663
30	0xbfb0a1e7	-1.3799409
31	0xc01b26fa	-2.424254
32	0x3ef666af	0.48125216
33	0xbf3c27c5	-0.73498183
34	0xbf3d80ea	-0.7402483
35	0xbf0703e4	-0.5274031
36	0xbe4f0bbb	-0.20219319
37	0x3ea53a0c	0.3227085
38	0xbf78b274	-0.971473
39	0xbd01cb66	-0.031688116
40	0xc0344354	-2.8166094
41	0x3e9b6e20	0.30357456
42	0x3ec7d8eb	0.39032683
43	0xbd0e9e73	-0.034819078
44	0x3bc9d0c5	0.0061589205
45	0x3f321773	0.6956703
46	0x3f401e91	0.7504664
47	0xbe58d5f3	-0.21175365
48	0xc022d99f	-2.5445325
49	0xbfd700d6	-1.679713
50	0xbec8c8e3	-0.39215764
51	0x3ed32d76	0.4124562
52	0xbf46b5b1	-0.7762099
53	0x3e7b4ce4	0.2454105
54	0xbda62785	-0.081130065
55	0xc01ff270	-2.4991722
56	0xbe1ebccd	-0.1550171
57	0xbfbd3e5f	-1.4784659
58	0xbe88d8c0	-0.26727867
59	0xbf94c05e	-1.1621206
60	0x3f082255	0.53177387
61	0xbf284a93	-0.6573879
62	0xbf858949	-1.0432521
63	0xc019e2ab	-2.4044597
64	0xc0110809	-2.2661154
65	0xbf9b88e3	-1.215115
66	0xbe59c78c	-0.21267527
67	0xc00a8e77	-2.1649454
68	0xbf363664	-0.71176744
69	0xbfc7f0cf	-1.5620364
70	0xc00276ad	-2.0384934
71	0xbfd58919	-1.6682464
72	0xc010c4bd	-2.262008
73	0xbf09d026	-0.53833234
74	0x3e74a13d	0.23889633
75	0xbf92b0c0	-1.146019
76	0xbeb69e1d	-0.35667506
77	0xbf67c032	-0.9052764
78	0xbeff2cef	-0.4983897
79	0xbe2d5867	-0.16928254
80	0x3df89ffe	0.12139891
81	0xbf015fe6	-0.50536954
82	0xbd5ad6cd	-0.053427506
83	0xbf1d5458	-0.61456823
84	0xbd351295	-0.044207174
85	0xbeb87666	-0.3602783
86	0xbf4ae817	-0.7926039
87	0xbeced7be	-0.40398973
88	0x3ea011d0	0.3126359
89	0x3c1149bb	0.008867676
90	0xbd027d19	-0.031857584
91	0xbf6ae8d7	-0.91761535
92	0xbea52a42	-0.32258803
93	0xbf979674	-1.184279
94	0xbe729ca6	-0.23692569
95	0xbdaa487a	-0.08314605
96	0xbf01d0c2	-0.50709164
97	0xbf5e6cb5	-0.86884624
98	0xbcbd340d	-0.023096109
99	0xbfaf456a	-1.3693058
100	0xbef8e799	-0.48614195
101	0x3df1fd28	0.11815864
102	0x3f673bb2	0.9032546
103	0x3d92a029	0.071594544
104	0x3ec18f9b	0.37804875
105	0x3e10b7c7	0.14132605
106	0xbf1cb1fb	-0.61209077
107	0xbed1dc84	-0.40988553
108	0x3e0998b2	0.13437155
109	0x3e1bea51	0.15226103
110	0xbdcebc7e	-0.10094546
111	0xbf36ccca	-0.71406233
112	0xbe35f862	-0.17770532
113	0xbd8b890b	-0.06813248
114	0xbf6b241b	-0.9185197
115	0x3ee424c6	0.44559306
116	0xbfa301ec	-1.2734962
117	0x3f20d7a4	0.6282904
118	0xbf43c5a8	-0.76473475
119	0xbeb38068	-0.35058904
120	0xc000a7df	-2.010246
121	0xbee38b7c	-0.44442356
122	0x3e8438b5	0.25824514
123	0xbf4a66f6	-0.79063356
124	0x3de9c496	0.11414449
125	0x3d2f071a	0.042731382
126	0x3e406d09	0.18791594
127	0xbeb11240	-0.34584236
128	0x3d880c78	0.06643003
129	0xbd61ca46	-0.055124544
130	0x3bec636b	0.007214
131	0xbcc4bfc9	-0.024017232
132	0xbe078332	-0.13233641
133	0x3d00c9ba	0.03144238
134	0x3dc3c0a3	0.09558227
135	0xbdb9b577	-0.09067815
136	0x3c8c74ba	0.017145503
137	0x3acbfd12	0.0015563092
138	0xbe8cd8f8	-0.27509284
139	0xbd68cd29	-0.05683628
140	0x3c5895a3	0.01321927
141	0xbcded7b3	-0.027202463
142	0xbd89bde9	-0.067256756
143	0x3d082afa	0.03324411
144	0xbd8fb956	-0.07017772
145	0xbded0aa3	-0.115742944
146	0xbe643eea	-0.22289625
147	0xbe05d055	-0.13067754
148	0xbdc3b27e	-0.09555529
149	0xbd95834c	-0.073004335
150	0xbdab1357	-0.08353298
151	0xbde4e45a	-0.11176367
152	0x3c93581a	0.017986346
153	0xbd9815e9	-0.07426054
154	0x3df55b18	0.119802654
155	0xbc703dc1	-0.014663161
156	0xbda7d9a0	-0.081958055
157	0x3dac8871	0.08424462
158	0xbd80636e	-0.06268965
159	0xbdf02d60	-0.117274046
160	0xbde4c2b7	-0.111699514
161	0xbdef892e	-0.11696087
162	0xbd3f6704	-0.046729103
163	0xbdb94f11	-0.09048284
164	0x3d4b5a2f	0.049646553
165	0xbe9c9293	-0.30580577
166	0x3c9fe66c	0.019519053
167	0x3dc30572	0.09522523
168	0xbd306be1	-0.04307163
169	0xbd14ba9c	-0.036310777
170	0xbdd673c6	-0.10471301
171	0xbdeeb8fa	-0.11656375
172	0xbd5cbbe7	-0.053890135
173	0xbda86909	-0.08223159
174	0xbd969900	-0.07353401
175	0xbe702df6	-0.23455033
176	0xbce382b6	-0.027772289
177	0xbd72436d	-0.059146333
178	0xbc7a06ba	-0.015260393
179	0xbdde50b7	-0.10855239
180	0x3d9ebfbf	0.077514164
181	0xbd450bd1	-0.048106972
182	0xbd527c2d	-0.051387955
183	0xbc01453a	-0.00789004
184	0x3c0fc664	0.008775327
185	0xbd7e8637	-0.062139716
186	0xbe260162	-0.16211465
187	0xbd488c6b	-0.048962038
188	0xbdaea9ff	-0.08528518
189	0xbe503c52	-0.2033551
190	0x3cbae85f	0.022815881
191	0x3c670475	0.014100184
192	0xbcfe5352	-0.03104559
193	0xbe2702e2	-0.16309693
194	0xbdb1dd15	-0.08684746
195	0xbdd87f01	-0.10571099
196	0xbcd94206	-0.02652074
197	0x3cec2c17	0.028829617
198	0xbd809673	-0.06278696
199	0xbe087947	-0.13327514
200	0xbd666723	-0.056250703
201	0xbd803f56	-0.0626208
202	0x3c9814ce	0.018564608
203	0x3c4a1e6f	0.0123363575
204	0x3dc6c9a3	0.09706428
205	0xbd8c9d7a	-0.06865974
206	0xbae4ed49	-0.0017465736
207	0xbdb08d8d	-0.08620749
208	0x3d08ebbc	0.03342794
209	0xbd70039e	-0.0585972
210	0xbb777392	-0.0037758094
211	0x3d1bd9af	0.038049396
212	0xbd580adc	-0.05274473
213	0xbcaba7af	-0.020953981
214	0xbd9237cb	-0.07139548
215	0xbd2216a5	-0.039572377
216	0xbc62ffed	-0.013854963
217	0xbd929e95	-0.07159153
218	0x3cae9bc2	0.021314505
219	0x3d9bdee5	0.07610873
220	0xbe18e2ee	-0.14930317
221	0xbdc63547	-0.096781306
222	0x3ca96d3b	0.020681968
223	0xbdaef3b7	-0.08542579
224	0xbc8420fa	-0.016129006
225	0xbd243a8d	-0.0400949
226	0xbdcdf6f7	-0.100568704
227	0xbd33dc88	-0.043911487
228	0xbe9d2ae8	-0.30696797
229	0x3c1ff22f	0.009762331
230	0xbb905877	-0.004405077
231	0xbd0d5dd7	-0.03451332
232	0x3ce35a76	0.027753096
233	0xbd7e931c	-0.062152013
234	0xbd1bd681	-0.038046364
235	0xbe0dd656	-0.13851294
236	0xbc7f50f7	-0.015583268
237	0xbd76e4c6	-0.06027677
238	0xbcf3f6a3	-0.029780691
239	0xbd1e7383	-0.03868438
240	0xbe19964d	-0.14998741
241	0xbda77ed0	-0.081784844
242	0x3c0e384e	0.008680416
243	0x3db39703	0.087690376
244	0xbd316855	-0.04331239
245	0x3dd08ba7	0.101828866
246	0xbc827f5c	-0.01592987
247	0xbd39b8bd	-0.045342196
248	0xbd28cc2c	-0.04121034
249	0xbe01463d	-0.1262445
250	0x3cad4735	0.021152118
251	0xbe25d108	-0.1619302
252	0xbd6fe672	-0.05856938
253	0xbc8b5c33	-0.017011737
254	0xbd89ba69	-0.06725008
255	0x3d97c45d	0.074105

fc2.bias f4 [128]
0	0x3e2a77ed	0.1664731
1	0xbdba8b09	-0.0910855
2	0xbe530b35	-0.20609744
3	0xbe12cf6f	-0.14336942
4	0xbcd26b2d	-0.025685871
5	0xbe9e7138	-0.30945754
6	0xbd5c3d52	-0.053769417
7	0x3b9ef7d2	0.00485132
8	0xbde1cc20	-0.11025262
9	0xbe6330f1	-0.22186638
10	0x3f5a4538	0.8526187
11	0xbd0c27fb	-0.034217816
12	0x3d8ee501	0.06977273
13	0xbd8d8e7c	-0.06911942
14	0xbd24c5f0	-0.04022783
15	0xbe20a142	-0.15686515
16	0xbeb23b9f	-0.34811112
17	0x3d03df11	0.032195155
18	0x3e5d5b0a	0.2161676
19	0xbe3b6304	-0.1829949
20	0xbd787767	-0.060660746
21	0xbd648937	-0.05579492
22	0x3ded5db1	0.11590136
23	0xbc8d4fd2	-0.017249975
24	0xbd37e8be	-0.044899695
25	0xbe22fb12	-0.15916088
26	0xbcf4a210	-0.029862434
27	0xbd532156	-0.051545464
28	0xbd55da26	-0.052209996
29	0xbab6af4b	-0.001393774
30	0x3bb464cd	0.0055051805
31	0xbd63eb41	-0.055644277
32	0xbc0efe63	-0.008727643
33	0x3df5685f	0.11982798
34	0xbd9d46d7	-0.07679527
35	0xbd1a1937	-0.037621703
36	0xbe36c5f9	-0.17848958
37	0xbb7cf612	-0.0038598818
38	0xbd6aa185	-0.057282943
39	0xbd667538	-0.056264132
40	0xbdd03d33	-0.10167923
41	0x3edc18de	0.42987722
42	0xbd15dc13	-0.036586832
43	0x3d9d04d5	0.07666937
44	0x3e4d1d8d	0.20030804
45	0xbe011ce3	-0.12608676
46	0xbd635970	-0.055505216
47	0xbd0a1959	-0.03371558
48	0xbe3d5a33	-0.1849144
49	0xbe0444a3	-0.12916808
50	0x3f0f988c	0.56092143
51	0xbe942eab	-0.28941855
52	0xbe8ac848	-0.27105927
53	0xbe17da18	-0.1482929
54	0xbd6dfb2a	-0.058100857
55	0xbe1dab52	-0.15397385
56	0xbd9f23f4	-0.077705294
57	0xbd4b20c3	-0.04959179
58	0xbe684062	-0.2268081
59	0x3dda3de8	0.10656339
60	0xbdf8c1ce	-0.1214634
61	0xbdf8b140	-0.12143183
62	0xbd635a69	-0.055506144
63	0x3c4464a8	0.011986889
64	0xbc3b2de5	-0.011424516
65	0xbdc64ebe	-0.09682988
66	0xbe34e339	-0.17664804
67	0xbca5985b	-0.02021425
68	0xbd691d59	-0.056912754
69	0xbcc007fc	-0.023441307
70	0xbd52d5eb	-0.05147354
71	0xbcfba7af	-0.030719606
72	0xbdc6b1d2	-0.09701885
73	0xbca4140e	-0.020029094
74	0xbe6d7b1b	-0.23191492
75	0xbdaf94d0	-0.085733056
76	0xbd0e6b0a	-0.03477005
77	0xbda6f116	-0.08151452
78	0xbf0c8149	-0.54884773
79	0xbcd4457a	-0.025912035
80	0xbdfd78a7	-0.12376528
81	0xbf0a0fda	-0.5393044
82	0xbd99a943	-0.07502987
83	0xbe117322	-0.14204076
84	0xbc3ed8f8	-0.011648409
85	0xbd9524a5	-0.0728238
86	0x3d9c1e92	0.07623018
87	0xbd9acbee	-0.07558428
88	0xbe88fbf2	-0.2675472
89	0xbeada67f	-0.3391609
90	0xbdcaea29	-0.09907944
91	0x3e1553ba	0.1458272
92	0xbe5664bb	-0.20936863
93	0xbe6af471	-0.2294481
94	0x3ebcfea4	0.36913025
95	0xbd4feedc	-0.050764903
96	0xbc5cb627	-0.013471163
97	0x3eb04423	0.34426984
98	0x3e3f133a	0.18659678
99	0x3d31d2b1	0.04341382
100	0xbea30c80	-0.31845474
101	0x3c3b4783	0.011430624
102	0xbdf40ae6	-0.11916141
103	0xbd3a4afe	-0.045481674
104	0x3def03ee	0.116706714
105	0x3db53de6	0.08849697
106	0xbd7e01c2	-0.062013395
107	0xbe63bd8c	-0.22240275
108	0xbe06171f	-0.13094757
109	0x3df7a690	0.12092316
110	0xbdccc7b8	-0.09999031
111	0xbdca310e	-0.09872638
112	0x3e5b5b58	0.21421564
113	0x3dbf6144	0.09344724
114	0xbd9e5d32	-0.07732619
115	0xbe063ac8	-0.13108361
116	0xbdd055fb	-0.101726495
117	0x3e774313	0.2414668
118	0xbd08ef08	-0.033431083
119	0xbdd1feb5	-0.1025366
120	0x3e503516	0.2033275
121	0x3de2556f	0.110514514
122	0xbcbc9986	-0.023022424
123	0xbb8aad80	-0.0042321086
124	0xbe8a17d4	-0.26971304
125	0x3d323e01	0.043516163
126	0x3d2b82a0	0.04187262
127	0xbdde3212	-0.10849394

dist.fc_mean.weight f4 [4, 128]
0	0x3c74c130	0.014938638
1	0x3cb169b9	0.021656858
2	0x3f0a4660	0.54013634
3	0xbb0dacf6	-0.0021617985
4	0x3c8b0ae9	0.016972976
5	0x3eb15872	0.3463779
6	0x3cb4263d	0.02199089
7	0xbb9ba921	-0.0047503863
8	0xbb53ea8f	-0.0032335853
9	0xba83c765	-0.0010053931
10	0xba9df85c	-0.0012052166
11	0xbd79fc35	-0.06103154
12	0x3bc99f06	0.0061529903
13	0x3cd51ae6	0.026013803
14	0xba12f836	-0.00056064443
15	0x3be0c361	0.0068592285
16	0xbf2e4135	-0.6806825
17	0x3d82f99f	0.06395268
18	0xbb2bc206	-0.0026208176
19	0x3cd479f9	0.025937067
20	0xbdd4d45c	-0.10392067
21	0x3c4edfe2	0.01262662
22	0x39bf7ef1	0.00036524938
23	0xbd08ed1d	-0.033429254
24	0x3bdb4760	0.006691858
25	0xbdf0bc5e	-0.11754678
26	0x3cfa1027	0.03052528
27	0x3c952c64	0.018209644
28	0xbb61e324	-0.0034467662
29	0xbc6db43a	-0.014508301
30	0x3b1a2bb6	0.002352459
31	0xbd09efd5	-0.033675987
32	0xbae04c2f	-0.0017112548
33	0xbbb33c90	-0.005469866
34	0x3d02f5cf	0.031972703
35	0x3cb59c9c	0.022169404
36	0x3c81825e	0.015809234
37	0xbc89ce20	-0.01682192
38	0x3ec914de	0.39273733
39	0xbbac7b35	-0.005263711
40	0x3f1a0444	0.6016276
41	0xbbffa3df	-0.0078015174
42	0x3c051d4f	0.0081246635
43	0x3bc5b024	0.0060329605
44	0x3c198227	0.00936941
45	0x3bc20f59	0.0059222397
46	0xbdd111c9	-0.102084704
47	0x3c0f4c28	0.008746184
48	0x3b085a4f	0.0020805781
49	0x3cc2a371	0.023759576
50	0x3ad472a6	0.0016208484
51	0xbfea01ed	-1.8281838
52	0x3f51106c	0.8166568
53	0xbcc058a2	-0.023479763
54	0xba986741	-0.0011627452
55	0xbc3c5ca8	-0.0114967
56	0x3e036edc	0.12835258
57	0xbc9a57c3	-0.018840676
58	0x3fad4a24	1.3538251
59	0x3a667bca	0.000879225
60	0x3e798898	0.24368513
61	0xbd35475d	-0.04425751
62	0x3c5da286	0.013527518
63	0x3b53725e	0.0032264213
64	0x3d239fe6	0.039947413
65	0xbcb5f775	-0.022212723
66	0xba95e779	-0.0011436782
67	0xbc15a7a2	-0.009134205
68	0x3cf93a6c	0.030423366
69	0xbcd7ae4f	-0.026328234
70	0x3a46b393	0.0007579859
71	0xbb4e84f6	-0.0031512356
72	0x3a841de8	0.0010079714
73	0xbb09c5f2	-0.0021022526
74	0xbb898cc7	-0.00419769
75	0xb98e5b6f	-0.00027152474
76	0x3ab19136	0.0013547305
77	0xbd2550d7	-0.040360298
78	0x3b472cb9	0.0030391647
79	0x3b3c3a31	0.0028721208
80	0xbc6f9998	-0.014624022
81	0xbc0b3246	-0.008495873
82	0xb91dde10	-0.00015055411
83	0xbb09fb2a	-0.0021054246
84	0x3ca2adde	0.019858297
85	0x3d20defa	0.039275147
86	0x3b038d9f	0.0020073426
87	0x3a8140e1	0.0009861254
88	0x3cc55aaf	0.024091093
89	0x3fb61208	1.4224253
90	0xbd1e4255	-0.038637478
91	0x3c20e624	0.009820495
92	0xbcddad8d	-0.027060295
93	0x3f05214a	0.5200392
94	0xb97b8161	-0.00023985423
95	0xb9f5f97d	-0.00046915925
96	0xbaa3949d	-0.0012480203
97	0x39c95bcf	0.0003840611
98	0x38cf8b2f	9.896454e-05
99	0x3b6118ba	0.0034347014
100	0xbed7046e	-0.41995567
101	0x3b9a1d1f	0.0047031785
102	0x3c5b9aeb	0.013403635
103	0xbbdeae0d	-0.006795651
104	0x3b3f88a1	0.0029225724
105	0x386f03be	5.6985526e-05
106	0x3d1cbea5	0.03826775
107	0x3f0cddb8	0.55025816
108	0xbec1d60f	-0.37858626
109	0xba99d2d5	-0.0011735806
110	0xbd802241	-0.062565334
111	0xbdb7cca0	-0.08974576
112	0xba1f9a93	-0.0006088402
113	0xbbd3fa3c	-0.0064690392
114	0x3a47f50b	0.0007627762
115	0xbc4b30b7	-0.012401751
116	0x3d1c676e	0.038184576
117	0xb97b8a14	-0.00023988663
118	0xbd5882de	-0.05285918
119	0xbbecbb20	-0.0072244555
120	0xbbffdfb4	-0.00780865
121	0xbace1526	-0.0015722855
122	0x3c6d7faa	0.0144957695
123	0x3b57db30	0.0032937042
124	0xbaa74261	-0.0012760871
125	0x3be91503	0.0071131005
126	0xbb003482	-0.0019562547
127	0xbcafda71	-0.021466466
128	0x39ee858d	0.000454944
129	0xbbfe6f87	-0.00776476
130	0xbc428170	-0.011871681
131	0x3cc2d253	0.023781931
132	0xb896d59a	-7.192344e-05
133	0x3b981b50	0.004641928
134	0x3beb65b1	0.0071837534
135	0xb817d34b	-3.6197987e-05
136	0x3a0ae054	0.000529771
137	0x39aa378b	0.0003246631
138	0x384cbfbd	4.881596e-05
139	0x3d37e11f	0.044892427
140	0x3a980b71	0.001160009
141	0x3d0ba61f	0.034093972
142	0xb6b53ef8	-5.401551e-06
143	0xbb98452f	-0.004646919
144	0xba3dcc99	-0.0007240265
145	0xb9ac9eab	-0.00032924613
146	0xbaa4d402	-0.001257539
147	0xbbbe09b2	-0.0057994956
148	0x3d93c1aa	0.07214673
149	0xbb50340a	-0.00317693
150	0x3aa82305	0.001282782
151	0x3b9563ef	0.004559032
152	0x3bee17d2	0.007266023
153	0x3d0f082c	0.034919903
154	0xbd01bc00	-0.03167343
155	0x3ccbd80e	0.024883296
156	0x3b90adbf	0.0044152434
157	0x3ba07423	0.004896657
158	0xbb7f37ab	-0.0038943093
159	0x3b9914b6	0.0046716584
160	0x3bd19a70	0.006396584
161	0x3aaeae1f	0.0013327039
162	0x3c6bac63	0.014384362
163	0xbd0a623e	-0.033785097
164	0xbb8baff5	-0.004262919
165	0xbb883075	-0.004156167
166	0xbb019478	-0.0019772332
167	0xbb0a34be	-0.0021088566
168	0xbd9e8c6f	-0.07741629
169	0x3a2614ef	0.0006335517
170	0x3adbf381	0.0016780944
171	0xb986f84f	-0.00025743476
172	0xb9f70019	-0.00047111584
173	0x3c1e722f	0.009670778
174	0x3c5bd6f4	0.013417948
175	0x3b53cc64	0.0032317871
176	0xb9cba04b	-0.00038838605
177	0xbb94b858	-0.004538577
178	0xb9bb45ec	-0.00035719515
179	0x3a93be3d	0.0011271905
180	0x38a3e8b5	7.815791e-05
181	0x3c99177e	0.01868796
182	0xbb6c9b30	-0.003610324
183	0x3c326854	0.010889132
184	0x3cc6cfcf	0.024269013
185	0xbc05b890	-0.008161679
186	0xba99e195	-0.0011740202
187	0xba74e23a	-0.0009341572
188	0xbc9f4844	-0.019443639
189	0xbc8a196d	-0.016857827
190	0xbde51ba6	-0.11186914
191	0x3d1a5f26	0.037688397
192	0xbbf9ec01	-0.007627011
193	0x3c2aed36	0.010432532
194	0x3cae7fdc	0.021301202
195	0x3b35d0c1	0.0027742835
196	0x3c8b39d0	0.01699534
197	0xba8a7d30	-0.0010565873
198	0xbaaddba9	-0.0013264316
199	0x3d426b8c	0.047465846
200	0xbb9fe10f	-0.004879124
201	0x3c007b51	0.007841901
202	0xbd1149e5	-0.035470862
203	0xbcb80edc	-0.022468023
204	0xba0fd2b3	-0.0005486414
205	0x3bd9d668	0.0066478737
206	0xbd001070	-0.031265676
207	0x3c087fbd	0.008331236
208	0x3c10758b	0.008817087
209	0xba0f2ce8	-0.00054617086
210	0x3d342237	0.043977942
211	0x3ca3810b	0.019958993
212	0x3b6875bf	0.0035470573
213	0xbc4135f0	-0.011792645
214	0x39b07a10	0.0003366028
215	0xb9d38f37	-0.0004035176
216	0x3ea9adf1	0.3314052
217	0x3a5fef6f	0.0008542453
218	0x3e083252	0.13300446
219	0x3a6bde15	0.00089976314
220	0x3a63b6e5	0.0008686616
221	0x3c251a30	0.010077044
222	0x38b7925a	8.75338e-05
223	0x3aac2a02	0.0013135078
224	0xbc07ff5b	-0.008300628
225	0xb951ed98	-0.00020020304
226	0xb9906b87	-0.00027545934
227	0x3b89cc26	0.0042052446
228	0x3b9040a4	0.004402237
229	0xb84ca248	-4.8788526e-05
230	0x3cf156a3	0.029460257
231	0xbc12cfa8	-0.008960642
232	0xba033fcc	-0.000500676
233	0xbabcb0fa	-0.0014396005
234	0x3a413838	0.0007370743
235	0xbc2e4207	-0.010635859
236	0xbc1d2c3c	-0.009593066
237	0xb7c78447	-2.3784245e-05
238	0xbc090ce4	-0.00836489
239	0xbc42ecca	-0.011897275
240	0xb9d2b869	-0.00040191718
241	0x3b047b65	0.002021515
242	0xbc81862b	-0.015811047
243	0xbb390796	-0.0028233281
244	0xbbbec1fa	-0.0058214637
245	0xba8fa296	-0.0010958489
246	0xbcb5bf48	-0.022185937
247	0x3c572068	0.013130285
248	0xbaf64d0f	-0.0018791276
249	0x3ba56aac	0.0050481167
250	0xbc0cc9ad	-0.008593005
251	0x3c03b90a	0.008039722
252	0xba2aa45a	-0.00065094756
253	0x3bd2918c	0.006426042
254	0xbc7e4544	-0.015519444
255	0xbb7133b6	-0.0036804504

dist.fc_mean.bias f4 [4]
0	0x3ab462a8	0.0013762312
1	0x399936d1	0.00029223275
2	0xb9a7993c	-0.0003196689
3	0x3d65f9d6	0.056146465

dist.fc_logstd.weight f4 [4, 128]
0	0x3ff2aa01	1.8958131
1	0xbf379ec0	-0.7172661
2	0x3dab2ba9	0.08357937
3	0xbfdec9af	-1.7405299
4	0x3fa37bc1	1.2772142
5	0xbeeb320c	-0.4593662
6	0xbf5afcd8	-0.8554206
7	0xbf02d0b2	-0.51099694
8	0x3cb835ad	0.022486532
9	0xbf43e960	-0.76527977
10	0xbde8a8c2	-0.11360313
11	0xbd139435	-0.036030013
12	0x4057431c	3.363471
13	0xbed4a554	-0.41532385
14	0xc04a544c	-3.161395
15	0xbf9ce93f	-1.2258681
16	0xbe5ea8e4	-0.21744114
17	0x400c5c6a	2.1931405
18	0xc07cd14f	-3.9502752
19	0x3e6f24f2	0.23353937
20	0xbd91d62f	-0.071209304
21	0xbf2b846c	-0.66998935
22	0xc08d338c	-4.4125423
23	0xbda56fae	-0.08077942
24	0xbde7e3fb	-0.11322781
25	0xbdc338fe	-0.09532355
26	0xbf14f772	-0.5819007
27	0xbe653ce5	-0.2238651
28	0xbe1162e8	-0.14197886
29	0xbe1143c2	-0.14186004
30	0xbfade615	-1.358584
31	0xbea9d06a	-0.3316682
32	0xbf822f14	-1.0170617
33	0xc09c925b	-4.8928657
34	0xbf0ab461	-0.54181486
35	0xbf28d0dc	-0.65943694
36	0xc090dc32	-4.5268793
37	0xbec9a4dd	-0.39383593
38	0x3f849df0	1.0360699
39	0x3f020b83	0.50798815
40	0xbddbbdcc	-0.1072956
41	0xbe6b6324	-0.22987038
42	0xc03f1ee6	-2.986261
43	0xbfc93108	-1.5718088
44	0x409ae057	4.839885
45	0xbe992063	-0.29907522
46	0xbeb230f5	-0.34802976
47	0xbf08d8b0	-0.5345564
48	0xc003bb99	-2.058325
49	0xbf8f85be	-1.121269
50	0xbfade1d3	-1.3584541
51	0xbdcce7b9	-0.10005135
52	0x3e64d55b	0.22347014
53	0xbee0e183	-0.43922052
54	0xc028803b	-2.6328266
55	0xbe111a5c	-0.14170212
56	0x3d8b6f2b	0.06808313
57	0xbe5b813f	-0.21436022
58	0xbfae9e38	-1.3642035
59	0xbe267528	-0.16255629
60	0xbd934c8a	-0.07192333
61	0xbf1dea92	-0.6168605
62	0xbd6b043c	-0.057377085
63	0xbf128384	-0.57231927
64	0xbdb415e1	-0.087932356
65	0xbeb716cd	-0.35759583
66	0xbf46a39c	-0.775934
67	0xbeb7e5b5	-0.3591744
68	0xbe31b713	-0.17354994
69	0xbd2f7ac6	-0.042841695
70	0xbf0e74e2	-0.556471
71	0xbe1e9cbd	-0.15489478
72	0xbf27cf43	-0.6555063
73	0xbef93e81	-0.486805
74	0xbff1f5ab	-1.8903097
75	0xbe9d72b4	-0.30751574
76	0xc0286aae	-2.6315112
77	0xbe20cf5f	-0.15704106
78	0x3e995b3e	0.29952425
79	0xbe08001d	-0.13281293
80	0xbefd9c29	-0.49533203
81	0xc029f159	-2.6553557
82	0xbe0726ec	-0.13198441
83	0xbfebbc03	-1.8416752
84	0xbf08c82a	-0.53430426
85	0xbe4df687	-0.20113574
86	0xc082c610	-4.0866776
87	0xbedfd6e6	-0.43718642
88	0xbfa44e11	-1.2836324
89	0xbf70e4d5	-0.9409917
90	0xbcbb80ba	-0.02288853
91	0xbfb07fd8	-1.3789015
92	0x3ea02ae7	0.31282732
93	0xbf20c79f	-0.628046
94	0xbfe31744	-1.7741475
95	0xbf3f8899	-0.74817806
96	0xbeba91fc	-0.36439502
97	0xbff4f690	-1.9137745
98	0xc0aa9f5c	-5.331953
99	0x3fa76817	1.3078641
100	0x3fbb2958	1.4621992
101	0x405129f4	3.2681856
102	0x3dbcdbb0	0.092215896
103	0xbe6028e8	-0.21890604
104	0xc0306bf0	-2.756588
105	0xc088fddf	-4.28099
106	0xbd8d8ed2	-0.069120064
107	0xbfc1a14a	-1.5127347
108	0x3eea79b8	0.4579599
109	0x3e03be12	0.12865475
110	0xbea65dd9	-0.32493475
111	0xbe4a7333	-0.19770508
112	0xc07885aa	-3.8831582
113	0xbfa9041c	-1.3204379
114	0xbfe5c720	-1.7951393
115	0xbfad1c3e	-1.3524244
116	0x3ead1a01	0.33808902
117	0x4081c762	4.0555887
118	0xbf30967f	-0.6897964
119	0x3e468c8f	0.19389556
120	0xc04fe71c	-3.2484808
121	0xc00a17be	-2.157699
122	0xbf089773	-0.53356093
123	0xbf02eeb6	-0.51145494
124	0xc0158836	-2.3364387
125	0xbea30f4f	-0.31847617
126	0xbf464c1c	-0.77459884
127	0xbfb16725	-1.3859602
128	0xbfd75096	-1.6821468
129	0xbe79e125	-0.24402292
130	0xbfa5580a	-1.2917492
131	0xbfd2007e	-1.64064
132	0xc018fa97	-2.3902948
133	0xbf923aef	-1.1424235
134	0xbf1bdeac	-0.60886645
135	0xbebd453b	-0.3696688
136	0xbea407e0	-0.32037258
137	0xc037172f	-2.86079
138	0xc02f54c6	-2.7395492
139	0xbc9f430b	-0.019441148
140	0xc051a198	-3.275488
141	0xbe8989ba	-0.2686289
142	0xbf5fdf3f	-0.8745002
143	0xbf2a3bf8	-0.66497755
144	0xc0105e6e	-2.2557635
145	0xbfb79a15	-1.4343897
146	0xc0385c55	-2.8806355
147	0xc01b7fd1	-2.4296763
148	0xbd352cc1	-0.044232134
149	0xbf05d385	-0.5227588
150	0xbfce28de	-1.6106222
151	0xbe93a78c	-0.28838766
152	0xbe494dd4	-0.19658595
153	0xbf11e20e	-0.5698556
154	0xbf8cc70e	-1.0998247
155	0xbea9925f	-0.33119485
156	0xbd9277fc	-0.071517915
157	0xbef1f124	-0.47254288
158	0xc034a0c1	-2.8223116
159	0xbeb7da23	-0.35908613
160	0xbff5bb98	-1.9197874
161	0xbf9f4db1	-1.2445585
162	0xbf932703	-1.149628
163	0xbf83bf5e	-1.0292776
164	0xbff1322b	-1.8843435
165	0xbdd792ce	-0.10526048
166	0xbf2c3b60	-0.672781
167	0xbeaa0155	-0.3320414
168	0x3eb11289	0.34584454
169	0xbe5fb192	-0.21845081
170	0xc0360e69	-2.8446295
171	0x4009ada0	2.1512222
172	0xc00ff433	-2.2492797
173	0xbffe327c	-1.9859157
174	0xbeca563e	-0.39518923
175	0x3d9b5451	0.075844415
176	0xc01a360a	-2.4095483
177	0xc029426f	-2.6446798
178	0x3fa09fe1	1.2548791
179	0xc0699758	-3.6498623
180	0xc0735f53	-3.8026931
181	0xbf3e85d2	-0.74422944
182	0xbe8c2e3f	-0.27379033
183	0xbec6a6b0	-0.38799047
184	0xbe5609b9	-0.20902146
185	0xbf5bde02	-0.8588563
186	0xbfdc113c	-1.719276
187	0xbf39dad5	-0.72599536
188	0xbe8dbafa	-0.27681714
189	0xc02a8a47	-2.6646898
190	0xbd60bd2a	-0.0548679
191	0xbf24b918	-0.6434493
192	0xbf365683	-0.71225756
193	0xbe80e03f	-0.25171086
194	0xbfc78443	-1.5587238
195	0x3d76dd3a	0.06026957
196	0xbfcd586e	-1.6042612
197	0xbf0f9aa5	-0.56095344
198	0x4043ffa7	3.0624788
199	0xbe3e1538	-0.18562782
200	0x4021ee36	2.5301642
201	0xbf919247	-1.1372765
202	0x40176a02	2.3658452
203	0xbf0bfde0	-0.5468426
204	0xbf56ed91	-0.8395625
205	0xbe8a1359	-0.26967886
206	0xbfd91dab	-1.6962179
207	0xbdbf4da2	-0.09340979
208	0xbf08ec59	-0.5348564
209	0xbf943aae	-1.1580408
210	0xbe08bf08	-0.13354123
211	0xc001565c	-2.020896
212	0xbf8e6a29	-1.1126148
213	0xbecfda70	-0.40596342
214	0x3f5a1c1e	0.85199153
215	0xbe527889	-0.20553793
216	0xbe95257b	-0.29130158
217	0xbfab145b	-1.3365587
218	0xbcd80179	-0.02636789
219	0xc0072cdd	-2.1121132
220	0xc01b1a90	-2.4234962
221	0xbf4264e8	-0.7593522
222	0xbf627fd5	-0.88476306
223	0xbeb6b500	-0.35684967
224	0xbfc9f73b	-1.5778574
225	0xc020450b	-2.504214
226	0xc0022530	-2.0335197
227	0xbd0e8582	-0.03479529
228	0xbfe58d88	-1.7933817
229	0xbfcf272d	-1.618383
230	0xbdb6afba	-0.08920236
231	0xbf780094	-0.9687588
232	0xc0137a9e	-2.304359
233	0xbfabb2b7	-1.3413914
234	0xbe70eabf	-0.23527049
235	0x3e27d7a7	0.16390859
236	0xbf1964b7	-0.59919304
237	0xc02a51b6	-2.6612372
238	0xbeead210	-0.4586339
239	0xbe8ba665	-0.27275386
240	0xbfb210cd	-1.3911377
241	0xc04cc2a2	-3.1993794
242	0xbfd2e68a	-1.6476605
243	0xbf8df529	-1.1090442
244	0xbf22ed58	-0.6364341
245	0xbf45dc1c	-0.77288985
246	0xbf8624ac	-1.0479941
247	0xbe9ec9ef	-0.31013438
248	0xbe84a69b	-0.2590836
249	0x40a219ac	5.065634
250	0xbe2506e8	-0.16115916
251	0xbeec3162	-0.46131426
252	0x4021069d	2.5160286
253	0x3e2a26af	0.16616319
254	0xbffe9c73	-1.9891495
255	0xbf82e545	-1.0226218

dist.fc_logstd.bias f4 [4]
0	0xbf543436	-0.8289217
1	0xbfc94074	-1.5722795
2	0xbfc37837	-1.5271062
3	0xbf065334	-0.5247071

exp_avg f4 [128, 15]
0	0x3e370810	0.1787417
1	0xbd1acb17	-0.037791338
2	0x3cc01dd1	0.023451718
3	0x3c5d0279	0.013489359
4	0xbdf3dea5	-0.119077004
5	0x3df88cbd	0.12136219
6	0xbd13ca72	-0.03608174
7	0xbd8025ac	-0.06257185
8	0x3eab515d	0.33460513
9	0x3d4842c0	0.048891783
10	0xbccd7ccf	-0.025083927
11	0x3e28ebcf	0.16496204
12	0x00000000	0.0
13	0x00000000	0.0
14	0xbea37c6f	-0.31930873
15	0xbe9a71a9	-0.3016484
16	0x3d858755	0.06519953
17	0xbdc711ee	-0.09720217
18	0x3df19834	0.117966086
19	0xbd35c0a3	-0.044373166
20	0xbe34d70b	-0.17660157
21	0x3c0ff4b1	0.008786366
22	0xbc8a6d2f	-0.016897766
23	0xbee76db4	-0.45200884
24	0x3d879e41	0.066219814
25	0x3d30e223	0.04318441
26	0xbc77d016	-0.015125295
27	0x00000000	0.0
28	0x00000000	0.0
29	0x3f1a4f33	0.602771
30	0x3d88098d	0.06642447
31	0xbc8eca2b	-0.017430386
32	0xbe32f5a2	-0.17476514
33	0xbdcf4d64	-0.10122183
34	0x3dc39f70	0.09551895
35	0xbcf86f53	-0.030326521
36	0x3d75044a	0.059818543
37	0x3d579e2f	0.05264109
38	0xbd678723	-0.05652536
39	0x3d2bdbca	0.041957654
40	0xbbb4da22	-0.0055191675
41	0xbd205857	-0.039146747
42	0x00000000	0.0
43	0x00000000	0.0
44	0xbeb2da2b	-0.34932074
45	0x80000004	-6e-45
46	0x80000004	-6e-45
47	0x00000004	6e-45
48	0x80000004	-6e-45
49	0x80000004	-6e-45
50	0x80000004	-6e-45
51	0x00000004	6e-45
52	0x80000004	-6e-45
53	0x00000004	6e-45
54	0x00000004	6e-45
55	0x80000004	-6e-45
56	0x00000004	6e-45
57	0x00000000	0.0
58	0x00000000	0.0
59	0x80000004	-6e-45
60	0x3c3b3d04	0.0114281215
61	0x3c90c37e	0.017671343
62	0x3ed50f1e	0.41613096
63	0x3d339262	0.043840773
64	0x3ccbcad9	0.024876999
65	0xbda19b19	-0.07890911
66	0x3c6f8fa2	0.014621647
67	0xbd1a3248	-0.03764561
68	0xbc91bcd1	-0.01779023
69	0x3c504e95	0.012714048
70	0xbd6abb24	-0.057307377
71	0xbd4a2036	-0.049347125
72	0x00000000	0.0
73	0x00000000	0.0
74	0x3ee06bb4	0.4383217
75	0x3c88f9ff	0.01672077
76	0x3eb5fa49	0.35542515
77	0xbdbc5edc	-0.091977805
78	0x3efbe052	0.4919458
79	0x3daa68fc	0.083208054
80	0x3e6ee862	0.23330835
81	0x3d9b7c77	0.07592099
82	0xbe71569d	-0.23568197
83	0x3d2bc8a7	0.041939404
84	0xbb963300	-0.0045837164
85	0xbdbc098a	-0.09181507
86	0xbe18bb4f	-0.14915203
87	0x00000000	0.0
88	0x00000000	0.0
89	0xbe4b04f7	-0.19826113
90	0x3d8d0bf3	0.06887045
91	0xbd3d73f7	-0.04625317
92	0x3e5c0cf2	0.21489313
93	0xbc3b5c22	-0.01143554
94	0xbc8caae1	-0.017171325
95	0xbd8c36f9	-0.06846423
96	0x3b7c19da	0.0038467557
97	0x3a9635da	0.0011460141
98	0x3e362592	0.1778777
99	0xbd0d3255	-0.03447183
100	0xbbc1ef42	-0.0059184143
101	0x3d8e5504	0.06949809
102	0x00000000	0.0
103	0x00000000	0.0
104	0xbcd45430	-0.02591905
105	0x3d15ee75	0.036604363
106	0x3d943ad9	0.07237787
107	0x3e71dc3d	0.2361917
108	0xbd5b0b54	-0.0534776
109	0x3cde548a	0.02713992
110	0xbe039cc8	-0.12852776
111	0x3d517b2d	0.05114286
112	0x3d53dc95	0.051724035
113	0x3c8880c2	0.016662959
114	0x3d0a8507	0.03381827
115	0xbd27042e	-0.04077547
116	0xbd02a920	-0.03189957
117	0x00000000	0.0
118	0x00000000	0.0
119	0x3e4a31bc	0.19745535
120	0x3ca44a1d	0.020054871
121	0xbc9a298f	-0.018818645
122	0x3cc8139a	0.02442341
123	0xbbc1b53a	-0.0059114965
124	0xbb841f4a	-0.0040320503
125	0xbd203d09	-0.039120708
126	0x3c4f5751	0.012655095
127	0xbc83400b	-0.016021749
128	0x3be90f62	0.0071124295
129	0x3be0a113	0.006855139
130	0xbc00c2d5	-0.007858952
131	0x3a1cb342	0.0005977639
132	0x00000000	0.0
133	0x00000000	0.0
134	0xbcebebb5	-0.028798917
135	0x3e1a3a8f	0.15061401
136	0x3d7962e4	0.060885325
137	0xbe5af150	-0.21381116
138	0xbd1943bc	-0.037418112
139	0x3ccfb73a	0.025355924
140	0x3cc2ad40	0.023764253
141	0x3d0bd107	0.03413489
142	0x3ca933bb	0.02065455
143	0x3b715979	0.0036827011
144	0x3d462b7f	0.048381325
145	0xbb663ad4	-0.003513028
146	0xbd284906	-0.041085266
147	0x00000000	0.0
148	0x00000000	0.0
149	0xbe8895b1	-0.26676705
150	0x3e8700ff	0.26367947
151	0xbe711d23	-0.23546271
152	0xbc93f6e0	-0.018062055
153	0xbdcffa4e	-0.10155164
154	0xbeaf0bb4	-0.34188616
155	0xbdbd0483	-0.09229376
156	0x3d48d101	0.049027447
157	0xbe09d601	-0.13460542
158	0x3e1dde32	0.15416792
159	0xbc8951d7	-0.016762657
160	0xbd79d2c3	-0.060992014
161	0x3f4a4c59	0.7902275
162	0x00000000	0.0
163	0x00000000	0.0
164	0x3e037693	0.12838201
165	0xbdb49d62	-0.08819081
166	0x3d43adf9	0.047773335
167	0xbd38069a	-0.04492817
168	0xbc9ef6d4	-0.019404806
169	0xbd2c301f	-0.04203808
170	0x3a9d0599	0.0011979818
171	0x3c48d49a	0.012257719
172	0x3d42f889	0.047600303
173	0xbd43d737	-0.047812667
174	0x3c99e6af	0.018786756
175	0x3bcd59bd	0.006266801
176	0xbd526734	-0.051367953
177	0x00000000	0.0
178	0x00000000	0.0
179	0xbb8dbce2	-0.004325495
180	0x3da06c4f	0.07833158
181	0x3cfcabb4	0.030843593
182	0x3e94cbc2	0.29061705
183	0xbd60eb67	-0.054911997
184	0x3c47ad9d	0.012187389
185	0xbe0ff62a	-0.14058748
186	0xbc5da23b	-0.013527448
187	0x3d08b227	0.033373024
188	0x3dca9da4	0.09893349
189	0xbc9e807d	-0.019348377
190	0xbd5a5888	-0.053307086
191	0xbe4f0c47	-0.20219527
192	0x00000000	0.0
193	0x00000000	0.0
194	0x3efe3193	0.49647197
195	0x3ee260a7	0.44214365
196	0xbd812ebe	-0.063077435
197	0xbe760bfa	-0.24028006
198	0x3dca560c	0.098796934
199	0x3f1719f9	0.59024006
200	0x3e44bd02	0.19212726
201	0x3eb086b3	0.34477767
202	0xbe6bc976	-0.2302607
203	0xbf23cb45	-0.6398204
204	0x3cf60a7a	0.030034292
205	0xbe022110	-0.12707925
206	0xbf08a041	-0.5336953
207	0x00000000	0.0
208	0x00000000	0.0
209	0xbf5bada8	-0.85811853
210	0x3dd92c4c	0.10604152
211	0xbca8636b	-0.020555219
212	0x3dc5fb5f	0.09667086
213	0xbd85e8e7	-0.06538563
214	0xbcdf87f9	-0.027286517
215	0xbd3d077d	-0.04614972
216	0xbb63ca8f	-0.0034758186
217	0x3d4bf565	0.049794573
218	0xbc28bfba	-0.010299617
219	0x3ae0da1a	0.0017154843
220	0x3c1b2697	0.00946965
221	0x3e185506	0.14876184
222	0x00000000	0.0
223	0x00000000	0.0
224	0x3dc744cf	0.09729921
225	0x3f913e0d	1.1347061
226	0xbd628a25	-0.055307526
227	0x3fa0156e	1.250654
228	0x3dd3d96a	0.10344203
229	0x3e77c5ca	0.24196544
230	0x3ba1acb5	0.0049339184
231	0xbdd82668	-0.105542004
232	0xbeeb869b	-0.46001133
233	0x3f8f97d4	1.1218209
234	0xbe3f86c3	-0.18703751
235	0xbea98ac4	-0.33113682
236	0xbf05411b	-0.5205247
237	0x00000000	0.0
238	0x00000000	0.0
239	0x3f337c60	0.70111656
240	0xbe8002c1	-0.250021
241	0x3d65768a	0.05602125
242	0xbf7dbbaa	-0.9911448
243	0xbe207d2d	-0.15672751
244	0x3bf30a51	0.0074170013
245	0x3e2d0acc	0.1689865
246	0x3d1a412a	0.0376598
247	0x3e79b7e8	0.24386561
248	0xbe7f93e9	-0.24958767
249	0x3d83bb41	0.064322
250	0x3e667725	0.22506388
251	0xbd8bb688	-0.068219244
252	0x00000000	0.0
253	0x00000000	0.0
254	0xbf8e806e	-1.1132944
255	0x3dbda97d	0.09260843

exp_avg_sq f4 [128, 15]
0	0x3fd3017f	1.6484832
1	0x3fe51c66	1.7899292
2	0x404af44a	3.1711602
3	0x3f954ee3	1.1664699
4	0x3f8b906e	1.0903451
5	0x3f45d41f	0.77276796
6	0x3d3e94f4	0.04652877
7	0x3f0148db	0.50501794
8	0x3ffdb8cf	1.9822024
9	0x3e8d9aaf	0.27657077
10	0x3e5dfb57	0.2167791
11	0x40064e95	2.0985463
12	0x00000000	0.0
13	0x00000000	0.0
14	0x40fd6651	7.91874
15	0x442a7baa	681.93225
16	0x43fe1ebb	508.24008
17	0x450ad00c	2221.003
18	0x4219b8f1	38.430607
19	0x41429b14	12.162861
20	0x4470ce46	963.223
21	0x421c7d5e	39.12243
22	0x428fa9b9	71.83149
23	0x42b3ae51	89.84046
24	0x4131b140	11.105774
25	0x42e9c56b	116.88558
26	0x416590ce	14.347853
27	0x00000000	0.0
28	0x00000000	0.0
29	0x432dfca9	173.98695
30	0x40b4b2d6	5.6468306
31	0x409eb0fd	4.959105
32	0x41a96465	21.17402
33	0x3fdc6bd5	1.7220408
34	0x402c6379	2.6935713
35	0x411534c5	9.325383
36	0x400d7b18	2.210638
37	0x3fdc2717	1.7199429
38	0x406e59ae	3.7242236
39	0x3f92e006	1.1474617
40	0x3ff8b835	1.9431216
41	0x40b5b447	5.6782565
42	0x00000000	0.0
43	0x00000000	0.0
44	0x42292c86	42.29348
45	0x0f278793	8.259846e-30
46	0x0fa6f502	1.6463237e-29
47	0x0f278049	8.2584425e-30
48	0x0f153015	7.3555274e-30
49	0x0eaf894c	4.3273043e-30
50	0x0e1729db	1.863234e-30
51	0x0eb9a360	4.5763345e-30
52	0x0eb60f51	4.4881213e-30
53	0x0e1394af	1.8190737e-30
54	0x0ef873b8	6.1248153e-30
55	0x0ef6fde7	6.088818e-30
56	0x0e9286ac	3.6121463e-30
57	0x00000000	0.0
58	0x00000000	0.0
59	0x0f20dc56	7.931044e-30
60	0x42dea772	111.32704
61	0x42a87cbf	84.243645
62	0x43b9850a	371.03937
63	0x41005c73	8.022571
64	0x40a0b310	5.021858
65	0x431dfb84	157.98248
66	0x417b2c77	15.698356
67	0x416595f8	14.349113
68	0x41b2c267	22.344923
69	0x41cb94f9	25.44774
70	0x419df398	19.743942
71	0x40c1b141	6.0528874
72	0x00000000	0.0
73	0x00000000	0.0
74	0x424216ff	48.522457
75	0x3f838758	1.0275679
76	0x3f2ff192	0.6872798
77	0x3ecc5604	0.39909375
78	0x40013b48	2.0192432
79	0x3e5f3d88	0.21800816
80	0x3e89d805	0.26922622
81	0x3d855acc	0.06511459
82	0x3fc04d46	1.5023582
83	0x3f0841bf	0.5322532
84	0x3e9c2f9e	0.3050508
85	0x3e0cf66f	0.13765882
86	0x3e915b1b	0.2838982
87	0x00000000	0.0
88	0x00000000	0.0
89	0x3fffce3d	1.9984814
90	0x42b6e513	91.44741
91	0x428a447e	69.13377
92	0x439cf8e7	313.94455
93	0x40d1c4c3	6.555269
94	0x40577385	3.3664258
95	0x43063e74	134.24396
96	0x40a7f524	5.2486744
97	0x412abdeb	10.671367
98	0x42320cf5	44.512653
99	0x3fe02f93	1.7514518
100	0x417af59c	15.684963
101	0x409b3696	4.8504133
102	0x00000000	0.0
103	0x00000000	0.0
104	0x42cd94ce	102.790634
105	0x3ec0cafc	0.37654865
106	0x3f823c9e	1.0174749
107	0x4049ce5e	3.1532207
108	0x3f17ceeb	0.59300107
109	0x409b054b	4.844396
110	0x3e1838a4	0.14865357
111	0x4136281e	11.384794
112	0x3fc33401	1.5250245
113	0x3f3ae9f5	0.7301324
114	0x41d69365	26.82197
115	0x3e8ad785	0.27117553
116	0x40d71b91	6.722115
117	0x00000000	0.0
118	0x00000000	0.0
119	0x41b26045	22.297007
120	0x3f7e17e4	0.99255204
121	0x3f8f46fe	1.119354
122	0x3edfe9d6	0.4373309
123	0x40402884	3.0024729
124	0x3f7fe3f3	0.999572
125	0x3f2b0b7c	0.668144
126	0x3eddafd3	0.43298206
127	0x401a2992	2.4087873
128	0x3ecda340	0.40163612
129	0x3e4b2af7	0.19840609
130	0x3eb939c0	0.36176872
131	0x3f4b2264	0.7934935
132	0x00000000	0.0
133	0x00000000	0.0
134	0x3fdcadb9	1.7240516
135	0x3fb76637	1.4328068
136	0x400e87fe	2.2270503
137	0x40cf805c	6.484419
138	0x3fc0e891	1.5070974
139	0x406ad6ca	3.6693597
140	0x400acde3	2.1688163
141	0x3f98d46f	1.193983
142	0x3f965cd7	1.1747082
143	0x403fcf64	2.997033
144	0x3e5feba0	0.21867228
145	0x3f5675af	0.8377332
146	0x409a5ae2	4.823594
147	0x00000000	0.0
148	0x00000000	0.0
149	0x41fc9809	31.574236
150	0x4496199e	1200.8005
151	0x445ef1ba	891.777
152	0x4573bf4f	3899.9568
153	0x427839c9	62.05643
154	0x411be7c9	9.744088
155	0x44d303ff	1688.1249
156	0x42802c4f	64.08654
157	0x42f28139	121.25239
158	0x42c753eb	99.6639
159	0x41989e2e	19.077236
160	0x434d2d3a	205.17667
161	0x3f079cb1	0.5297347
162	0x00000000	0.0
163	0x00000000	0.0
164	0x42ac9888	86.29791
165	0x3f4604a6	0.7735084
166	0x3fd1ae5c	1.6381335
167	0x41d7451f	26.90875
168	0x408b8146	4.3595304
169	0x3f9fb03d	1.2475659
170	0x4109ecba	8.620295
171	0x3e3886da	0.18020192
172	0x409392c0	4.611664
173	0x42493d01	50.309574
174	0x3e868b99	0.2627838
175	0x3f1024fb	0.5630643
176	0x3ff51414	1.9146752
177	0x00000000	0.0
178	0x00000000	0.0
179	0x42c6d2c1	99.41163
180	0x4231be4a	44.43583
181	0x420948da	34.321144
182	0x431b7e0e	155.4924
183	0x40db3189	6.849797
184	0x3fcbc2ee	1.5918863
185	0x4281efc4	64.96829
186	0x402cbbe3	2.6989677
187	0x4103a3c5	8.227483
188	0x41a94970	21.160858
189	0x3f89d0af	1.076681
190	0x4105327b	8.324824
191	0x40712dc8	3.7684193
192	0x00000000	0.0
193	0x00000000	0.0
194	0x42789ae4	62.15126
195	0x420d3814	35.304764
196	0x4200aace	32.1668
197	0x4311ca0d	145.78926
198	0x4132f5b8	11.18499
199	0x40c8b543	6.2721267
200	0x428b1ea2	69.55983
201	0x40afa5a0	5.488968
202	0x41847b62	16.560246
203	0x411bad62	9.72983
204	0x4092d8b7	4.5889544
205	0x4103d268	8.238869
206	0x4183f7a0	16.49591
207	0x00000000	0.0
208	0x00000000	0.0
209	0x42fc8f25	126.27958
210	0x3fd9d4e8	1.7018099
211	0x3eaafdc7	0.33396742
212	0x4201b82c	32.429855
213	0x404b8ecf	3.1805913
214	0x3e4dcc47	0.20097457
215	0x3f57ae07	0.8424992
216	0x3de689ad	0.11256728
217	0x40532b51	3.2995188
218	0x3f97b052	1.1850684
219	0x3f20e897	0.62854904
220	0x3fad41f5	1.3535753
221	0x3fbc53bf	1.4713057
222	0x00000000	0.0
223	0x00000000	0.0
224	0x42964414	75.132965
225	0x40da4177	6.8204913
226	0x4012f641	2.2962801
227	0x4183e727	16.487867
228	0x407da012	3.962895
229	0x40b0ecd2	5.5289087
230	0x406b9543	3.6809852
231	0x41338c6a	11.221781
232	0x4091ff58	4.56242
233	0x41c7a1c2	24.953983
234	0x41db1255	27.383951
235	0x3f62a5dc	0.8853433
236	0x4150f90a	13.060801
237	0x00000000	0.0
238	0x00000000	0.0
239	0x42a62aae	83.08336
240	0x454123c4	3090.2354
241	0x450f51a8	2293.1035
242	0x461cd26b	10036.6045
243	0x432759e6	167.35117
244	0x41efe066	29.98457
245	0x45875915	4331.1353
246	0x4324eb3b	164.91887
247	0x439fe2e0	319.77246
248	0x4383ecd2	263.85016
249	0x4249902d	50.390797
250	0x44023a8e	520.9149
251	0x4105fbcd	8.373975
252	0x00000000	0.0
253	0x00000000	0.0
254	0x43ab1004	342.12512
255	0x4409aafb	550.6716

exp_avg f4 [128]
0	0x3e8287dd	0.2549428
1	0xbef66863	-0.48126516
2	0x3e8ecca4	0.27890503
3	0x00000004	6e-45
4	0xbeb32ea6	-0.34996527
5	0x3e221850	0.15829587
6	0x3ca98702	0.02069426
7	0xbe216fa5	-0.15765245
8	0x3cbc5d37	0.022993667
9	0x3e5a1ab3	0.21299247
10	0xbdd1ed09	-0.10250289
11	0x3b625540	0.0034535676
12	0xbecaf41b	-0.39639363
13	0x3f2f6552	0.6851398
14	0xbd9f19b2	-0.07768573
15	0xbf0f4e26	-0.5597862
16	0x3f638d73	0.8888771
17	0x3e54b591	0.20772387
18	0xbe75a8ee	-0.23990223
19	0x3cd283a4	0.025697537
20	0xbd6c98d7	-0.057762947
21	0xbdcb981d	-0.09941123
22	0x3ee69144	0.45032704
23	0xbdc28866	-0.09498672
24	0xbd815981	-0.063159
25	0x3defac91	0.11702836
26	0xbd8a05c3	-0.0673938
27	0x3e86f8db	0.26361737
28	0x3c8bf1aa	0.017083008
29	0xbdeae298	-0.114690006
30	0xbeac56dd	-0.3366002
31	0xbeadb8f2	-0.33930165
32	0xbd51691d	-0.051125634
33	0xbd9aaddf	-0.075526945
34	0xbd34173a	-0.043967463
35	0x3f39be63	0.7255613
36	0x3ee41d94	0.44553816
37	0x3e98402c	0.2973646
38	0xbbd3a198	-0.0064584725
39	0xbe8aee0a	-0.27134734
40	0x3e294ac1	0.16532423
41	0xbed37839	-0.4130266
42	0xbee67e65	-0.45018306
43	0xbcbb8840	-0.022892118
44	0x3f87ee4c	1.0619597
45	0xbd23f213	-0.04002578
46	0x3e29a665	0.1656738
47	0x3ae8ffb2	0.0017776398
48	0xbefa4aff	-0.48885342
49	0xbf00052b	-0.50007886
50	0xbd604559	-0.054753635
51	0x3f09990a	0.53749144
52	0x3e350534	0.17677766
53	0xbf28e12f	-0.659686
54	0x00000004	6e-45
55	0x3e2e21b0	0.17005038
56	0xbdcffd9d	-0.10155795
57	0x3da5a5b5	0.08088247
58	0x3f409073	0.7522041
59	0xbea579bf	-0.32319447
60	0xbc22d719	-0.009938979
61	0x3d65eedf	0.05613601
62	0x3e254ce7	0.16142617
63	0x3e216c98	0.15764081
64	0x3db8bc8a	0.09020336
65	0x3dc6ce77	0.09707349
66	0x3c2c4e44	0.010516707
67	0xbf543797	-0.82897323
68	0xbebfa4e2	-0.37430483
69	0xbeabc168	-0.33545995
70	0x3c23ec2f	0.010005041
71	0xbe3479f4	-0.17624646
72	0xbddea4a2	-0.10871245
73	0xbe9d8278	-0.30763602
74	0xbf0156a8	-0.5052285
75	0x3d9bd16e	0.07608305
76	0xbda161c3	-0.07879975
77	0xbf1268fa	-0.5719143
78	0xbe7dbe34	-0.24779588
79	0x3b907fc6	0.004409763
80	0xbe633bb2	-0.2219074
81	0xb99b62d2	-0.0002963753
82	0xbf15ce0d	-0.58517534
83	0x3e45154b	0.19246404
84	0x3e80768a	0.25090438
85	0xbea32551	-0.31864408
86	0x3e9fa60d	0.31181374
87	0x3e234316	0.1594356
88	0x3d83f9dc	0.06444141
89	0xbeca24fc	-0.39481342
90	0x3e84e00f	0.25952193
91	0xbfa4b8a9	-1.2868854
92	0x3d81214c	0.06305179
93	0x3f85aa5f	1.0442618
94	0x3ed2a209	0.41139248
95	0x3f91e8c1	1.1399156
96	0xbbc163f0	-0.005901806
97	0xbf25cd73	-0.64766616
98	0x3dd36130	0.103212714
99	0xbd6bf801	-0.05760956
100	0xbd3fe2f8	-0.046847314
101	0x3db8ca15	0.09022919
102	0x3e187470	0.14888167
103	0xbd905eb8	-0.07049316
104	0xbdcbd9d0	-0.09953654
105	0xbbe3977e	-0.0069455495
106	0xbea91573	-0.33024177
107	0x3e81af97	0.25329277
108	0x3ec16383	0.37771234
109	0xbd91e798	-0.07124251
110	0xbe8b770e	-0.2723927
111	0xbeb086d5	-0.3447787
112	0x3ea3aaea	0.31966335
113	0x3f115b9f	0.5678043
114	0xbf04d87a	-0.5189282
115	0x3e3bac7e	0.1832752
116	0xbd915682	-0.07096578
117	0xbe9e67c6	-0.30938548
118	0x3eab2dac	0.33433282
119	0x3d39e0d7	0.04538044
120	0x3da3556d	0.07975278
121	0x3e08948a	0.13337913
122	0x3e67fe37	0.22655569
123	0x3de36253	0.11102738
124	0x3e44f9ac	0.19235867
125	0xbcdb18c7	-0.026745213
126	0x3e0c0159	0.13672389
127	0x3f1046aa	0.56357825
