ppo/models/behavioral_cloning_agents_lunar/bc1/ckpts/001272700.pt (torch_old, 345007 bytes, 26 tensors)

fc1.weight f4 [128, 9]
-0.09589492 0.04170089 -0.3339388 -0.45952502 -0.24748018 0.41610613 -0.21043116 0.003036605
-0.06525674 0.15635796 0.110293165 -0.17596555 -0.43046764 -0.1686728 -0.05701743 0.02323446
0.065320395 0.29232135 -0.15272796 -0.21742569 0.21321131 0.016394557 -0.21422674 0.24805193
-0.040204063 -0.11858857 0.08101089 -0.43034235 -0.20190586 -0.1263702 -0.081635356 0.55452245
-0.29091296 -0.22890249 -0.28260365 -0.4036465 -0.2831416 0.35128272 0.40299895 0.18956564
0.05931517 -0.19800016 0.0407979 -0.06406644 -0.12545416 -0.19704495 0.15830234 0.18701893
-0.022243788 -0.17559324 0.2582433 0.32750425 0.012222625 -0.012842524 0.20091923 -0.22324952
-0.14449443 -0.20087048 -0.506221 -0.0010521432 -0.02106501 -0.0022974734 -0.06308836 0.20701362
0.08180528 -0.08327703 0.023753265 -0.061431147 0.27905196 0.3690136 -0.36420426 0.012567143
0.33701792 0.3239517 0.21328162 0.16054043 0.24895117 -0.15331815 -0.086628176 -0.05843294
-0.3872946 0.36626217 0.33754885 -0.3258485 -0.13076214 0.004078946 -0.36133435 -0.11370863
0.088394776 -0.12346789 0.43268782 0.1506773 0.5479637 0.17175488 -0.3791964 -0.029175688
0.012446602 0.14955933 -0.42855084 -0.09955697 0.05525162 0.09307781 -0.12976784 0.13003288
-0.03436338 0.058689255 -0.040915124 0.00080147467 -0.14550015 0.061760183 -0.027440794 -0.024621584
-0.32110095 0.30737835 0.3017046 -0.25664255 -0.029143011 0.11328983 0.30701527 0.09051752
-0.0072610388 0.1363396 -0.49824873 0.058416385 -0.15871929 -0.23327816 0.0019097965 -0.10082439
-0.17417473 -0.41590425 -0.07802366 0.09800645 -0.14628156 -0.13632919 0.035253264 -0.09005901
-0.0076373424 -0.12354626 0.34895414 0.8313521 0.5845092 0.21061048 -0.014441319 0.20536764
-0.43575 -0.20489506 0.42946985 0.20048936 -0.11843251 -0.40066355 -0.53898937 -0.29451323
0.029046066 -0.015682269 0.1820767 -0.39229876 0.08138348 -0.51791215 -0.11900196 -0.13932468
-0.035257936 0.06378019 -0.3986195 -0.39797089 0.11198721 -0.18955746 0.15695004 0.017200883
-0.0382924 -0.038855758 0.6227906 -0.053499915 0.07705945 0.11419077 -0.24485815 0.29435948
-0.13333671 -0.10158493 0.070642166 -0.1018972 0.03234841 -0.19272935 0.2645965 0.023160186
0.27730402 0.02601011 0.16355774 0.0595964 -0.66606134 0.30042917 0.43467525 0.27132723
-0.34507868 0.022041522 -0.1634363 -0.07696874 0.04899928 0.019456008 -0.3294947 0.07763629
0.19188184 0.18952985 -0.38245964 -0.21289456 -0.061311457 0.10217629 -0.11049726 0.5185751
0.36119026 -0.19696791 -0.19725688 -0.42615703 0.12702978 0.07807451 -0.0025031727 -0.005614518
-0.3341141 -0.295743 0.2602083 -0.10539268 -0.025798712 0.35159758 0.008400305 -0.0013154063
-0.34610268 0.17700236 -0.19076423 -0.19487585 -0.09528841 -0.060970686 -0.05952418 0.11805035
-0.06350328 0.30839127 0.23312035 -0.28008 0.12680762 -0.2638046 -0.41838807 0.15000378
0.08510387 0.16890323 -0.21574172 0.15972255 0.20559578 -0.5139269 0.20037416 -0.2000598
-0.2493282 0.043863494 -0.08863342 0.02607872 0.36481515 -0.055919968 -0.29643822 -0.033026688
00000000: 8e64 c4bd 8dce 2a3d 07fa aabe dd46 ebbe
00000010: 726b 7dbe dd0b d53e 447b 57be c701 473b
00000020: 53a5 85bd 4d1c 203e 62e1 e13d 5030 34be
00000030: 4166 dcbe 90b8 2cbe 1c8b 69bd 3256 be3c
00000040: b3c6 853d 25ab 953e b864 1cbe d7a4 5ebe
00000050: 1154 5a3e e14d 863c 415e 5bbe 5301 7e3e
00000060: 04ad 24bd 90de f2bd 0ae9 a53d d555 dcbe
00000070: 69c0 4ebe 3167 01be 7030 a7bd 2ff5 0d3f
00000080: 8bf2 94be 6a65 6abe 6db1 90be c1aa cebe
00000090: f0f7 90be 54db b33e e155 ce3e 7f1d 423e
000000a0: 77f4 723d 8ec0 4abe b31b 273d 4435 83bd
000000b0: 0e77 00be 27c6 49be 021a 223e e481 3f3e
000000c0: 9b38 b6bc b7ce 33be 7738 843e a3ae a73e
000000d0: 6841 483c 7369 52bc c5bd 4d3e 869b 64be
000000e0: 59f6 13be feb0 4dbe b397 01bf 11e8 89ba
000000f0: 8790 acbc 3591 16bb 7834 81bd 61fb 533e
00000100: 8789 a73d 268d aabd 3596 c23c 3a9f 7bbd
00000110: e6df 8e3e 5aef bc3e fb78 babe 6be6 4d3c
00000120: 9d8d ac3e ffdc a53e 7f66 5a3e b664 243e
00000130: 0eed 7e3e 6fff 1cbe 1d6a b1bd 6157 6fbd
00000140: 7a4b c6be b786 bb3e 34d3 ac3e 9dd5 a6be
00000150: 83e6 05be aea8 853b d100 b9be 12e0 e8bd
00000160: 5208 b53d bcdc fcbd 4289 dd3e 264b 1a3e
00000170: 5947 0c3f 83e0 2f3e 0826 c2be da01 efbc
00000180: d5ec 4b3c 1526 193e 046b dbbe 86e4 cbbd
00000190: 864f 623d 949f be3d dce1 04be 5727 053e
000001a0: 9ec0 0cbd 2564 703d 9e96 27bd 0e1a 523a
000001b0: fefd 14be 3ff8 7c3d 84cb e0bc 34b3 c9bc
000001c0: 5867 a4be b260 9d3e 0679 9a3e a766 83be
000001d0: 53bd eebc 8004 e83d 1b31 9d3e 4061 b93d
000001e0: 02ee edbb 9c9c 0b3e 751a ffbe 0546 6f3d
000001f0: 4f87 22be 78e0 6ebe 2352 fa3a 057d cebd
00000200: dc5a 32be 67f1 d4be deca 9fbd 9bb7 c83d
00000210: d5ca 15be e199 0bbe ba65 103d dc70 b8bd
00000220: ac42 fabb d205 fdbd 1eaa b23e 7ed3 543f
00000230: 65a2 153f 46aa 573e 489b 6cbc e54b 523e
00000240: a01a dfbe 03d0 51be 79e3 db3e 154d 4d3e
00000250: be8c f2bd c623 cdbe 35fb 09bf 70ca 96be
00000260: 04f2 ed3c 1a78 80bc 5072 3a3e 62db c8be
00000270: 62ac a63d e495 04bf 4db7 f3bd 21ab 0ebe
00000280: a06a 10bd 309f 823d db17 ccbe d7c2 cbbe
00000290: 8d59 e53d 5a1b 42be 83b7 203e dee8 8c3c
000002a0: 7ed8 1cbd 3727 1fbd 346f 1f3f ba22 5bbd
000002b0: 58d1 9d3d dadc e93d 18bc 7abe 49b6 963e
000002c0: 6b89 08be c30b d0bd d7ac 903d 7baf d0bd
000002d0: c47f 043d d85a 45be 3179 873e 6eba bd3c
000002e0: cbfa 8d3e 2713 d53c ae7b 273e 5b1b 743d
000002f0: ff82 2abf dad1 993e c18d de3e 67eb 8a3e
00000300: 27ae b0be 6c90 b43c d85b 27be c9a1 9dbd
00000310: 78b3 483d 3562 9f3c 88b3 a8be c6ff 9e3d
00000320: ac7c 443e 1d14 423e c0d1 c3be 0801 5abe
00000330: b921 7bbd cd41 d13d 634c e2bd 56c1 043f
00000340: eeed b83e f5b1 49be b5fd 49be 4131 dabe
00000350: 1814 023e 87e5 9f3d 450c 24bb fef9 b7bb
00000360: 0111 abbe a06b 97be 063a 853e 1ed8 d7bd
00000370: d257 d3bc 9904 b43e 6fa1 093c b669 acba
00000380: 5f34 b1be 1b40 353e b357 43be 898d 47be
00000390: 9226 c3bd 66bc 79bd a0cf 73bd 62c4 f13d
000003a0: 020e 82bd 76e5 9d3e 1ab7 6e3e a566 8fbe
000003b0: dbd9 013e 6611 87be f636 d6be 979a 193e
000003c0: f04a ae3d f8f4 2c3e 66eb 5cbe 4f8e 233e
000003d0: b387 523e b790 03bf e22e 4d3e 7adc 4cbe
000003e0: e44f 7fbe 35aa 333d 7085 b5bd 0aa3 d53c
000003f0: 0dc9 ba3e 560c 65bd c0c6 97be fe46 07bd

fc1.bias f4 [128]
-0.49861923 -0.34021407 0.16286482 -0.2775288 -0.39585125 0.20091301 -0.06373886 -0.04056428
-0.43007407 -0.06477137 -0.49407408 -0.12095785 0.03332219 -0.42185462 -0.009850784 -0.37669984
-0.123780735 -0.23768394 -0.43792135 0.16846526 -0.6290249 -0.5560829 -0.32391948 -0.16531341
0.007548127 -0.009304164 -0.38403106 -0.3803486 -0.06985541 -0.17736293 0.026085714 -0.3396976
-0.3918712 -0.589437 -0.3556624 0.22205189 -0.013411059 -0.47019407 -0.19614483 -0.20610651
-0.057772543 -0.014123143 -0.45108986 -0.5130365 0.20882563 -0.32512432 -0.005863068 -0.4223375
0.024800494 0.035997473 0.09917883 -0.5583248 -0.48399448 -0.23154165 -0.5270411 0.15769705
-0.10873342 -0.3253672 -0.51267767 -0.22324494 0.12425163 -0.441267 -0.55106527 -0.30926597
0.111736976 -0.07769208 -0.31019488 -0.14213328 0.0946031 -0.00823396 -0.016521785 -0.12827194
-0.12461051 0.02519601 -0.3283608 0.055587646 0.04169316 -0.3243306 0.14141482 0.0084703555
-0.33678252 -0.48150373 0.092772424 -0.4483646 -0.05006627 -0.082843155 0.041713044 -0.53559434
-0.5310864 0.12708102 -0.036245625 -0.4401038 -0.28506404 -0.7795462 -0.38728714 -0.096920416
0.1710677 -0.31977192 -0.06622925 -0.012435491 0.045459103 -0.4631679 0.016143624 -0.17577937
-0.1487815 -0.6404216 0.047095373 -0.031164467 -0.43439385 0.026380058 0.013784432 -0.57556874
-0.27064416 -0.056005497 0.041333165 0.024336947 0.056325704 0.09386357 -0.113883786 0.006703468
-0.6328183 -0.25481844 -0.34348202 -0.1803243 0.03823457 -0.017048435 -0.047815837 0.04869303
00000000: 054b ffbe 8a30 aebe 09c6 263e 4118 8ebe
00000010: 04ad cabe 24bc 4d3e 8589 82bd bb26 26bd
00000020: ab32 dcbe daa6 84bd 47f7 fcbe c0b8 f7bd
00000030: d97c 083d 54fd d7be 2f65 21bc cdde c0be
00000040: c180 fdbd 6b63 73be 3a37 e0be 2882 2c3e
00000050: c707 21bf 735b 0ebf c6d8 a5be eb47 29be
00000060: 4756 f73b 7e70 18bc b89f c4be 0dbd c2be
00000070: 5a10 8fbd a19e 35be b5b1 d53c d8ec adbe
00000080: 58a3 c8be 58e5 16bf 6219 b6be 9261 633e
00000090: 0fba 5bbc 47bd f0be 31da 48be 960d 53be
000000a0: e7a2 6cbd c164 67bc 40f5 e6be 5c56 03bf
000000b0: 63d6 553e b276 a6be fb1e c0bb 9f3c d8be
000000c0: 682a cb3c 1672 133d 451e cb3d 60ee 0ebf
000000d0: 20ce f7be 4119 6dbe 2aec 06bf 567b 213e
000000e0: a1af debd 8896 a6be d83e 03bf 529a 64be
000000f0: a377 fe3d c0ed e1be 9d12 0dbf 1c58 9ebe
00000100: 5bd6 e43d 061d 9fbd ddd1 9ebe 638b 11be
00000110: 45bf c13d bbe7 06bc b258 87bc b859 03be
00000120: cc33 ffbd dd67 ce3c e81e a8be dfaf 633d
00000130: 72c6 2a3d a90e a6be 0ccf 103e 3fc7 0a3c
00000140: c26e acbe a887 f6be 78ff bd3d 0b90 e5be
00000150: 4a12 4dbd aca9 a9bd 4cdb 2a3d b61c 09bf
00000160: 47f5 07bf 8721 023e 4b76 14bd 4955 e1be
00000170: eaf3 91be 5790 47bf 804a c6be 367e c6bd
00000180: 5f2c 2f3e 25b9 a3be 33a3 87bd 3bbe 4bbc
00000190: 5333 3a3d 5824 edbe a23f 843c 82ff 33be
000001a0: 2d5a 18be acf2 23bf 14e7 403d a04c ffbc
000001b0: df68 debe fe1a d83c 19d8 613c 7958 13bf
000001c0: df91 8abe 0566 65bd f74c 293d 475e c73c
000001d0: c8b5 663d 8b3b c03d e73b e9bd c4a8 db3b
000001e0: 6100 22bf 9077 82be e0dc afbe efa6 38be
000001f0: da9b 1c3d 29a9 8bbc 8ada 43bd 5872 473d

fc2.weight f4 [128, 128]
-0.30432984 0.4969798 -0.098073095 0.26510322 0.106569275 -0.1545545 -0.04529369 -0.033648342
-0.5861365 -0.025348583 -0.51798546 -0.07490916 -0.083462566 -0.020341568 -0.2590683 -0.08930294
0.02556595 -0.07859013 -0.7523276 -0.04380789 -0.020650601 -0.457001 -0.23511356 0.030591965
-0.12153272 0.059210975 0.051877588 -0.053546935 -0.06821514 0.16521119 0.11228497 -0.76278085
-0.9333799 0.07426248 -0.1011381 -0.13398296 0.059411593 0.009275474 0.18993883 0.65006804
0.08867522 -0.1902277 -0.40359667 0.37725437 -0.055409204 -0.076138355 0.046248462 -0.17007975
0.08033662 -0.30795315 -0.3023898 0.051259045 -0.21426952 -0.38710606 -0.117774345 0.014555228
-0.21664566 -0.024890777 0.04769928 0.26567405 0.09915631 0.117261775 -0.031202175 0.2922822
0.044837043 0.1384129 0.08363932 -0.26744878 -0.1674818 0.2925303 -0.29111964 0.109151416
-0.01720008 -0.32470542 -0.08664815 -0.14998113 -0.020524006 0.011965216 0.12978001 -0.17074144
-0.022581218 -0.01667749 -1.6441208 0.5813115 0.08242845 -0.14496179 0.062672466 -0.049524292
-0.4784503 0.1479921 -0.38606688 -0.101202756 -1.306345 0.041812964 -0.25828096 0.027288208
-0.08364627 -0.37529576 -0.013881979 -0.16096573 0.27509055 -0.01544595 -0.18991618 -0.013297205
0.084587984 0.106857836 0.25358644 -0.23413624 -0.058577355 0.09352919 -0.22615664 0.20368254
-1.0411885 -0.06177138 -0.13143443 -0.09487278 -0.06339463 -0.05327909 0.2740624 -0.021676341
-0.063056156 -0.1581789 0.20554477 0.07379998 0.1051106 -0.20992623 0.09184279 0.04807743
-0.2672421 -0.10447802 0.0703507 -0.03556042 0.309466 -0.013393155 0.06224951 -0.13092263
0.2643531 -0.35767937 -0.5973668 0.07731218 0.075691536 0.030492902 0.17778662 -0.736931
-0.19421771 -0.27240714 -0.011249422 -0.12709974 0.6376632 -0.18115923 -0.11703726 0.13675986
0.16762461 0.17906904 -0.14591178 -0.24927105 -0.011326076 -0.7856163 -0.019425778 -0.17403737
0.27286103 -0.5493803 -0.35808587 -0.17603916 0.022474125 -0.32844093 -0.24853525 0.2058024
-0.06349084 -0.19429655 0.17046899 -0.022384698 -0.04266358 -0.23712903 0.020687932 -0.18867032
-0.2559004 -0.17344595 0.30267218 0.31804135 -0.057672974 -0.65698564 -0.20433824 -0.19132313
-0.10900898 -0.19248986 0.47306892 0.1110033 0.06271941 -0.20551413 0.23113118 0.004235887
0.10792886 0.18908904 -0.25302708 -0.13359699 -0.054124143 -0.17403983 0.24611065 -0.19731419
0.042057853 0.14248395 0.10376544 -0.07460828 0.21397485 0.22824158 -0.058145713 -0.14155719
0.20565237 -0.20358169 0.12376354 -0.12822078 -0.062237952 -0.29188985 -0.08636777 0.14124516
-0.4111964 -0.24294825 0.15235291 -0.05410036 -0.18112881 0.14357159 -0.3507929 -0.032145776
0.011140258 0.0056465883 -0.11623975 0.06310305 0.23508191 -0.24127285 -0.13096902 -0.3959602
-0.010430773 -0.11817713 -0.046467885 0.058370396 -0.5530813 -0.1891619 -0.082003035 -0.37558463
-0.1203241 0.42921376 -0.14901541 -0.080574945 -0.09141762 0.16930142 -0.41584557 -0.38874537
-0.095456064 -0.04506114 0.025364958 0.035110097 0.26909176 -0.15270878 0.049581587 0.05258708
00000000: 1fd1 9bbe 2374 fe3e 8cda c8bd 9cbb 873e
00000010: fe40 da3d 8943 1ebe e085 39bd d8d2 09bd
00000020: 0b0d 16bf d5a7 cfbc b29a 04bf f969 99bd
00000030: 6cee aabd 5ca3 a6bc 9aa4 84be 76e4 b6bd
00000040: af6f d13c ddf3 a0bd 8b98 40bf e76f 33bd
00000050: 732b a9bc 09fc e9be 9cc1 70be 009c fa3c
00000060: 26e6 f8bd 3587 723d 987d 543d 0854 5bbd
00000070: 61b4 8bbd 1f2d 293e aaf5 e53d 9b45 43bf
00000080: fcf1 6ebf ed16 983d 7e21 cfbd d432 09be
00000090: 9259 733d 28f8 173c 537f 423e dc6a 263f
000000a0: 5b9b b53d 0dcb 42be 39a4 cebe 7c27 c13e
000000b0: c3f4 62bd 6dee 9bbd 076f 3d3d 6329 2ebe
000000c0: 8787 a43d 09ac 9dbe d6d2 9abe 01f5 513d
000000d0: 7869 5bbe c432 c6be ad33 f1bd 0d79 6e3c
000000e0: 5cd8 5dbe bee7 cbbc 5260 433d 6e06 883e
000000f0: 7712 cb3d f126 f03d b49b ffbc 03a6 953e
00000100: 0ca7 373d 1cbc 0d3e 184b ab3d 0cef 88be
00000110: 5980 2bbe 88c6 953e a20d 95be c78a df3d
00000120: 2fe7 8cbc ca3f a6be 9674 b1bd a794 19be
00000130: f621 a8bc c109 443c 0de5 043e d8d6 2ebe
00000140: 3ffc b8bc 3b9f 88bc 8d72 d2bf d5d0 143f
00000150: 3fd0 a83d dd70 14be 6c5a 803d fcd9 4abd
00000160: 70f7 f4be 3e8b 173e 8faa c5be 6443 cfbd
00000170: 5036 a7bf 1244 2b3d 673d 84be 858b df3c
00000180: bc4e abbd c426 c0be 3d71 63bc 33d4 24be
00000190: abd8 8c3e 0311 7dbc 6379 42be 85dc 59bc
000001a0: 773c ad3d 48d8 da3d 15d6 813e 69c1 6fbe
000001b0: cfee 6fbd 3b8c bf3d 9b95 67be 2892 503e
000001c0: aa45 85bf fd03 7dbd bf96 06be a94c c2bd
000001d0: 0bd5 81bd 2d3b 5abd e851 8c3e 9592 b1bc
000001e0: 9623 81bd a6f9 21be 547a 523e 7224 973d
000001f0: 3a44 d73d e7f6 56be 1318 bc3d d7ec 443d
00000200: f5d3 88be 92f8 d5bd 0714 903d cea7 11bd
00000210: 5472 9e3e f76e 5bbc 58f9 7e3d 9510 06be
00000220: 4a59 873e c021 b7be 08ed 18bf d955 9e3d
00000230: 2a04 9b3d 40cc f93c b20d 363e 83a7 3cbf
00000240: 02e1 46be f378 8bbe 7f4f 38bc 6f26 02be
00000250: e53d 233f ce81 39be 3bb1 efbd c70a 0c3e
00000260: c9a5 2b3e e05d 373e e669 15be e940 7fbe
00000270: 0291 39bc 261e 49bf cf22 9fbc da36 32be
00000280: 71b4 8b3e 30a4 0cbf 0857 b7be 9c43 34be
00000290: a81b b83c 6929 a8be 0680 7ebe ddbd 523e
000002a0: 7c07 82bd adf5 46be 6c8f 2e3e 1d60 b7bc
000002b0: 02c0 2ebd f4d1 72be bd79 a93c cb32 41be
000002c0: 6105 83be d19b 31be d9f7 9a3e 51d6 a23e
000002d0: 7f3a 6cbd 3630 28bf 0b3e 51be 36ea 43be
000002e0: 1a40 dfbd 101c 45be 1736 f23e b355 e33d
000002f0: 0973 803d 4c72 52be a7ad 6c3e 32cd 8a3b
00000300: ce09 dd3d 8fa0 413e c48c 81be a6cd 08be
00000310: 47b1 5dbd 7f37 32be 6e04 7c3e bb0c 4abe
00000320: db44 2c3d 50e7 113e fa82 d43d 3acc 98bd
00000330: 391c 5b3e 29b8 693e 332a 6ebd 5ef4 10be
00000340: 8996 523e b877 50be bd77 fd3d 4f4c 03be
00000350: 39ed 7ebd 9672 95be 96e1 b0bd 92a2 103e
00000360: 5688 d2be 6dc7 78be 6702 1c3e 5798 5dbd
00000370: d579 39be 6e04 133e 219b b3be 4aab 03bd
00000380: a185 363c 0407 b93b 1b0f eebd 2c3c 813d
00000390: 50b9 703e 3b10 77be be1c 06be 4cbb cabe
000003a0: d5e5 2abc da06 f2bd 1c55 3ebd cc15 6f3d
000003b0: bc96 0dbf a8b3 41be 35f1 a7bd a14c c0be
000003c0: 7b6c f6bd e8c1 db3e 7f97 18be 7a04 a5bd
000003d0: 2939 bbbd 5a5d 2d3e b6e9 d4be a209 c7be
000003e0: 787e c3bd 0892 38bd 2cca cf3c 9bcf 0f3d
000003f0: 65c6 893e b15f 1cbe 1016 4b3d 8d65 573d

fc2.bias f4 [128]
0.1263074 0.1822298 -0.0076748487 0.08459998 -0.1440303 0.04124193 0.20836629 0.05230299
0.0056992923 0.06939926 -0.023380853 0.13366741 -0.030289313 0.07181053 0.056740828 0.036986735
-0.10614432 0.032198157 0.15803713 -0.0883613 0.108799845 0.0041523967 -0.09767738 0.1728637
0.07028715 -0.054315522 -0.058598235 0.18465392 0.081281155 0.1418913 -0.02695255 0.06677032
0.05819672 0.12002947 0.18749014 0.07279046 0.030220818 0.06655856 -0.045696784 -0.026262475
0.12025225 -0.005584482 -0.09615139 0.09335325 -0.0018723507 -0.018043645 0.19845116 -0.006205019
0.19025956 0.020103958 0.06607608 -0.10540746 0.12864347 0.03113644 -0.015340502 0.18444537
-0.2556886 -0.123056896 0.077443086 -0.010383633 0.11221009 0.1450045 0.09469281 0.045513134
0.0035747187 -0.060357194 0.21416356 -0.06336369 -0.08976577 -0.18074675 0.067314394 0.007985714
-0.06485076 0.06734289 0.061608583 0.09990903 -0.04905632 0.12598297 0.1837996 -0.074667305
0.2618728 -0.0008902593 0.22629406 -0.007443337 -0.022277655 -0.14493105 0.15645586 0.1541969
-0.09830387 0.0070582977 -0.1299975 0.16104448 0.106292404 0.24145098 0.13885348 0.022524778
-0.030743899 -0.027680254 -0.09457798 -0.059047982 -0.056578524 0.11601999 0.009399251 0.20190236
0.13777642 0.024387838 0.14017442 0.07439244 -0.15715799 -0.018776352 0.14565614 0.06506846
-0.027109224 -0.35911167 0.13986889 -0.029176226 0.09424889 -0.16865529 0.20013826 -0.084267415
-0.06685894 -0.2223684 -0.110485986 -0.20178536 -0.0033264926 0.10252853 -0.057235625 0.1199279
00000000: ba56 013e 739a 3a3e 4c7d fbbb c142 ad3d
00000010: ae7c 13be 4ced 283d f95d 553e a93b 563d
00000020: 21c1 ba3b 3321 8e3d 3489 bfbc 1ce0 083e
00000030: 4b21 f8bc 6611 933d 1269 683d 677f 173d
00000040: 3162 d9bd 37e2 033d 7cd4 213e c5f6 b4bd
00000050: 74d2 de3d d410 883b 140b c8bd 2f03 313e
00000060: b6f2 8f3d f479 5ebd b404 70bd eb15 3d3e
00000070: bc76 a63d f44b 113e 98cb dcbc e1be 883d
00000080: af5f 6e3d 03d2 f53d 6afd 3f3e 2a13 953d
00000090: a691 f73c db4f 883d 8d2c 3bbd 6724 d7bc
000000a0: d046 f63d 08fe b6bb 05eb c4bd fd2f bf3d
000000b0: aa69 f5ba 44d0 93bc c836 4b3e 7953 cbbb
000000c0: 67d3 423e 0eb1 a43c e552 873d dedf d7bd
000000d0: 1dbb 033e d911 ff3c bb56 7bbc 3fdf 3c3e
000000e0: 9ee9 82be 4105 fcbd 7b9a 9e3d 1d20 2abc
000000f0: 67ce e53d 0f7c 143e 4eee c13d fb6b 3a3d
00000100: d445 6a3b 1b39 77bd b14d 5b3e d3c4 81bd
00000110: 1ed7 b7bd ad15 39be 21dc 893d 83d6 023c
00000120: 7ad0 84bd 12eb 893d 4859 7c3d 1b9d cc3d
00000130: 48ef 48bd ae01 013e f635 3c3e 2ceb 98bd
00000140: 3114 863e 4a60 69ba a1b9 673e 3ce7 f3bb
00000150: a17f b6bc ce68 14be f735 203e cbe5 1d3e
00000160: 8a53 c9bd 4b49 e73b 111e 05be d8e8 243e
00000170: d5af d93d ed3e 773e 9b2f 0e3e e285 b83c
00000180: a1da fbbc b3c1 e2bc 1ab2 c1bd 4cdc 71bd
00000190: e2be 67bd e39b ed3d 51ff 193c 7ebf 4e3e
000001a0: 4315 0d3e 01c9 c73c e289 0f3e 105b 983d
000001b0: 06ee 20be ddd0 99bc e226 153e 9d42 853d
000001c0: 2a14 debc 7cdd b7be ca39 0f3e fb02 efbc
000001d0: 9005 c13d f9b3 2cbe 0bf1 4c3e 6594 acbd
000001e0: 57ed 88bd 8bb4 63be 7a46 e2bd d2a0 4ebe
000001f0: 4901 5abb 7afa d13d e76f 6abd c29c f53d

dist.fc_mean.weight f4 [2, 128]
-0.015229228 0.0478183 -0.012349865 0.040361293 0.29671732 0.0016623519 0.4512996 0.014596256
-0.0024147532 -0.042491693 -0.0045865974 0.034405775 0.027513476 -0.013576038 0.039069097 0.2728068
-0.090979226 -0.14498995 0.017177975 0.0027940546 0.3958289 -0.034560535 -0.010411351 -0.0046963375
0.01012166 -0.033277184 -0.14593102 -0.047111664 0.0007440777 -0.00030124068 0.0022736427 0.02143808
0.05793957 0.36899298 0.05018305 -0.0039749197 -0.010567232 -0.008529001 0.0060137385 0.0009762147
0.009538699 0.034366194 -0.007999689 -0.5738108 -0.009195219 -0.042196874 -0.0014507233 0.12630503
0.46392837 0.01366526 0.0059138746 0.030570285 -0.005868148 0.09735124 0.07982233 0.014584441
-0.09253454 0.017746741 -0.009015461 0.69128835 -0.9599748 -0.056483284 0.83267397 0.0031606979
0.10567066 -0.008516585 -0.025185382 -0.033540484 -0.012530137 -0.10928253 0.05160252 0.000152578
-0.107043974 0.0011506926 0.024363818 -0.036459237 0.11218252 0.36471754 0.122324936 0.032153703
-0.0033116285 0.017290985 -0.0022540006 -0.0028736377 -0.00040296908 -0.18436232 -0.004569811 0.0073227366
0.02091251 0.0074063893 -0.03215687 -0.002997694 -0.03457185 0.06987574 0.0066032773 0.0012503894
-0.021147257 0.08878981 0.009861785 0.054371513 0.004545804 0.1033853 0.112395704 -0.042338874
-0.016420076 -0.0018956 0.022616642 -0.012905301 -0.011698771 0.024848731 0.00015722206 0.3729243
0.0035039394 0.15900224 -9.895681e-05 -0.01354072 -0.0122047 -0.0471099 -0.036604457 -0.015828626
0.013476638 -0.005985174 -0.014059667 -0.03323835 0.030315885 -0.24505834 0.04793163 -0.0033561147
0.0013830543 0.029805928 -0.0020492636 -0.0106987255 0.052506357 0.006619175 0.027419442 0.002539235
0.004203764 0.078486726 -0.0126361055 -0.0049254503 -0.007239708 -0.012597468 0.0126512535 -0.036300898
-0.09538963 0.0037494353 -0.008249863 0.0028648383 0.24697971 0.2572019 -0.14789939 0.008562938
0.0009776234 0.0005198912 -0.09881191 0.018426552 0.0060461997 0.0021925003 -0.010004986 -0.039113212
0.008220864 0.059205413 -0.023750963 -0.0053445986 0.6486009 0.029259706 -0.04378991 -0.341515
-0.020679709 0.007896609 0.021052359 -0.24743414 -0.008887231 -0.004495263 0.005973556 0.15774295
0.008099686 -0.007342702 -0.0038568876 0.02733477 -0.25468692 0.13577193 -0.026919898 -0.00196708
-0.13066812 0.05278017 -0.0025326288 -0.003625177 -0.5878446 0.025383176 0.00034115746 -0.0017326792
0.0127813285 0.04680915 -0.1730712 0.0072189798 -0.12383814 0.0053546657 -0.0066617583 -0.006483661
-0.031614654 -3.676093e-05 0.2107288 0.0019153787 0.04810349 -0.033438023 0.0072130496 -0.0024191737
-0.0040216753 0.9003956 0.001066622 -0.00065544376 0.0013369712 -0.017682608 0.001855613 0.0035393797
-0.018780187 -0.03150198 -0.06797347 -0.0010999809 -0.0044161305 -0.0031604907 0.0039015657 -0.0007987895
-0.05507749 -0.013921857 0.0077088065 0.042803153 0.014756659 -0.016508104 -0.018679406 0.15927646
0.0019612228 0.0061163497 -0.0043204636 0.002455598 -0.48154253 0.05884329 0.0020647992 -0.10470989
-0.002740478 -0.04193151 -0.023527421 -0.62981534 -0.016071867 0.20417048 -0.15753566 0.035802655
0.0035829535 -0.008960085 -0.005138502 0.2569414 0.00944546 -0.18162481 0.011739255 0.0024767336
00000000: 0384 79bc 1fdd 433d 1757 4abc e251 253d
00000010: 55eb 973e 46e3 d93a be10 e73e 2325 6f3c
00000020: d640 1ebb c50b 2ebd 2b4b 96bb 12ed 0c3d
00000030: f163 e13c 086e 5ebc eb06 203d 55ad 8b3e
00000040: 5153 babd 3f78 14be d3b8 8c3c 751c 373b
00000050: 16aa ca3e 598f 0dbd 5f94 2abc bce3 99bb
00000060: 52d5 253c a84d 08bd f16e 15be 29f8 40bd
00000070: 360e 433a d7ef 9db9 6501 153b ea9e af3c
00000080: 0b52 6d3d a6ec bc3e be8c 4d3d 0b40 82bb
00000090: 2f22 2dbc 39bd 0bbc e50e c53b a9e8 7f3a
000000a0: 3448 1c3c 91c3 0c3d 2111 03bc 44e5 12bf
000000b0: 8ba7 16bc a1d6 2cbd 3226 beba 1b56 013e
000000c0: 0588 ed3e 41e4 5f3c 2dc9 c13b 896e fa3c
000000d0: 9849 c0bb 1660 c73d e479 a33d 94f3 6e3c
000000e0: c082 bdbd 9d61 913c 96b5 13bc 46f8 303f
000000f0: e9c0 75bf 045b 67bd 1f2a 553f b623 4f3b
00000100: dc69 d83d 2689 0bbc 9351 cebc bf61 09bd
00000110: 344b 4dbc 85cf dfbd 2a5d 533d 58fd 1f39
00000120: df39 dbbd d6d2 963a a196 c73c 4856 15bd
00000130: f3bf e53d 42bc ba3e 7f85 fa3d 9ab3 033d
00000140: e807 59bb d3a5 8d3c dbb7 13bb a453 3cbb
00000150: 9845 d3b9 7ac9 3cbe 5abe 95bb 91f3 ef3b
00000160: b650 ab3c 4cb1 f23b ecb6 03bd f674 44bb
00000170: 369b 0dbd 031b 8f3d 4e60 d83b 1be4 a33a
00000180: 033d adbc 6fd7 b53d 5393 213c aab4 5e3d
00000190: f8f4 943b acbb d33d b82f e63d 876b 2dbd
000001a0: 6583 86bc c875 f8ba 8946 b93c c170 53bc
000001b0: 34ac 3fbc 918f cb3c fadb 2439 efef be3e
000001c0: 59a2 653b 7cd1 223e 0887 cfb8 e5d9 5dbc
000001d0: 39f6 47bc 4ff6 40bd 8eee 15bd 09ab 81bc
000001e0: 1ecd 5c3c 471f c4bb 845a 66bc f024 08bd
000001f0: 0559 f83c 93f0 7abe f553 443d 43f2 5bbb
00000200: 9a47 b53a 902b f43c f04c 06bb b549 2fbc
00000210: e810 573d aae5 d83b bd9e e03c 4b69 263b
00000220: babf 893b a6bd a03d ab07 4fbc ac65 a1bb
00000230: 133b edbb 9c65 4ebc 3447 4f3c 40b0 14bd
00000240: a35b c3bd 16b9 753b 6f2a 07bc 03c0 3b3b
00000250: 40e8 7c3e f8af 833e f072 17be 914b 0c3c
00000260: 9923 803a 4f49 083a e65d cabd 48f3 963c
00000270: 331f c63b 0db0 0f3b f4eb 23bc 2d35 20bd
00000280: ceb0 063c 6081 723d 6191 c2bc be21 afbb
00000290: b50a 263f 0db2 ef3c 0c5d 33bd 0edb aebe
000002a0: 7e68 a9bc c760 013c ff75 ac3c 605f 7dbe
000002b0: c09b 11bc 004d 93bb d2bd c33b 5e87 213e
000002c0: 8cb4 043c 0c9b f0bb d6c3 7cbb 2bed df3c
000002d0: 5366 82be cc07 0b3e 1e87 dcbc 20ea 00bb
000002e0: ddcd 05be 0530 583d 76fa 25bb 6194 6dbb
000002f0: fc7c 16bf 61f0 cf3c 61dd b239 111b e3ba
00000300: c768 513c f4ba 3f3d 9439 31be 318d ec3b
00000310: da9e fdbd 3176 af3b e14a dabb e474 d4bb
00000320: 5e7e 01bd bf2f 1ab8 4ac9 573e 720d fb3a
00000330: 2a08 453d 4ff6 08bd 725b ec3b 008b 1ebb
00000340: 42c8 83bb 5380 663f e5cd 8b3a 16d2 2bba
00000350: 4f3d af3a 1edb 90bc 0a38 f33a f0f4 673b
00000360: e8d8 99bc 3808 01bd ad35 8bbd 3c2d 90ba
00000370: 30b5 90bb 3c20 4fbb 69b1 7f3b db65 51ba
00000380: ef98 61bd 8018 64bc 289a fc3b 5c52 2f3d
00000390: eac5 713c 013c 87bc 8e05 99bc 5e19 233e
000003a0: dc87 003b a96b c83b ad92 8dbb 19ee 203b
000003b0: be8c f6be a905 713d 9551 073b 2472 d6bd
000003c0: 9799 33bb 60c0 2bbd 94bc c0bc 943b 21bf
000003d0: 26a9 83bc 1112 513e 0751 21be cea5 123d
000003e0: fccf 6a3b 52cd 12bc e160 a8bb d38d 833e
000003f0: 21c1 1a3c dbfb 39be 0156 403c b250 223b

dist.fc_mean.bias f4 [2]
0.011830974 0.013666554
00000000: b4d6 413c afe9 5f3c

dist.fc_logstd.weight f4 [2, 128]
-1.5330462 -0.7657048 -1.2077568 0.28458232 0.57539433 -0.085060164 0.65810037 0.037833277
-0.58897537 0.013373737 -0.045819238 0.31491187 -0.37501243 -1.4894913 0.13265762 0.13916284
-0.063558966 -0.02165048 -0.16586973 -0.052184265 -0.80572325 -0.5098374 -0.13034987 0.10949272
-0.063288264 -0.9206486 -0.6772246 -0.38679108 -0.59716827 -0.63732046 0.33436477 0.0021690296
1.2823359 -0.6803777 0.3064557 0.01163133 -0.2114607 -1.0421505 -0.33423316 -0.3645149
0.06396148 -0.111094624 -0.099333085 -0.40312964 -1.3093482 -0.060970005 -0.23044975 -0.3541135
-0.26000345 -0.21678431 -1.3095424 0.020258922 -0.024225859 0.17926763 0.32242808 -0.83690083
-0.08781814 -0.26744998 -0.5726761 -0.13306375 -0.5893102 -0.5488235 1.3035388 -1.5765569
0.19104546 -0.21452142 -0.5787758 -1.2178868 -0.051029515 -0.38241217 1.7822163 -0.017456526
-0.43229437 -1.1045164 0.11003977 -0.50941974 0.17286985 -1.3605578 -0.5557977 -0.028592767
-1.2925296 -0.14415684 0.36821327 -1.4873422 -0.033591803 0.8966824 -1.0224136 -1.8971702
0.01777555 -0.09526675 -0.5399578 1.4533725 -0.57043475 2.0397325 -0.87800866 -0.061105847
-0.11667206 -0.083554216 -0.10132686 -0.8512798 -0.017945645 -1.0671253 0.3689411 -0.17256014
-0.46796486 -0.22116014 -0.43073362 -0.8192828 -0.051950034 0.4257496 -0.94076556 -0.7972298
-0.9299343 -0.06822869 -0.27798998 -0.33938077 -0.6887864 -0.13565789 -0.5910856 -0.053987626
-0.42993107 0.0748217 -1.3739716 -0.2278815 -0.051947903 -0.6330846 -0.38844126 -1.5366089
-0.8205117 -0.22533365 -0.7527404 0.036960386 -0.37107766 -0.15521826 0.46794495 -0.42592236
-0.5814914 0.18121256 0.003372595 -0.46981502 -0.65946233 -0.63064533 0.074242614 0.51541185
-0.0330916 -0.040767256 -0.92141217 -0.005646863 -0.6906064 -0.71255517 -0.5564388 -1.0852875
-0.7927132 -1.2668635 0.74918914 0.12712325 -0.7640443 -0.73558384 -0.0039821053 -0.4370239
-0.3881926 -0.60588986 0.18952847 0.0125806825 -0.23707397 -0.15314563 -0.6364988 -0.024575325
0.17968 -0.018577332 -0.010785841 -0.8393834 -0.78636956 -0.12279341 -1.107189 -0.7813314
-0.87383693 -1.2383732 -1.4972372 0.010098401 -0.81991196 -0.39632338 -0.20802973 0.43255988
-0.37279123 -0.25313714 0.1439172 -0.6401677 0.5178409 -0.3215595 -1.8012166 -1.1928314
0.022101056 0.093698755 -0.11153536 -0.14426118 -0.017475553 -0.3822395 -1.2408947 -0.030206777
0.08830664 -1.1761441 0.11305995 0.34287688 0.062478714 -0.96154624 0.20971519 0.006251558
-0.38911146 0.053819153 -0.89899313 0.6861941 -0.06384824 0.14849086 0.26334316 0.9998467
-0.013150641 -0.08642256 0.4208824 -1.1442854 -0.665848 -0.46057063 -0.7291409 -0.06949464
0.28462732 0.01987353 -0.12697741 1.4553324 -0.116139755 1.8701026 0.40233245 -0.22223912
-1.1321478 -0.50233424 -0.95631987 -1.1889918 -0.2038079 -0.3051742 -0.6150376 -0.65088975
-1.2280755 -0.13858674 -0.33951026 0.0082663875 0.085067615 -0.1486781 2.4494054 -0.15254623
1.232033 -2.5496213 -1.9582932 0.28342882 0.09716134 -0.85313433 -0.45299262 -0.38923162
00000000: dc3a c4bf 3b05 44bf c697 9abf c6b4 913e
00000010: 0b4d 133f 0634 aebd 4479 283f 11f7 1a3d
00000020: 17c7 16bf 851d 5b3c f4ac 3bbd 213c a13e
00000030: a101 c0be a7a7 bebf 66d7 073e b480 0e3e
00000040: 342b 82bd 595c b1bc c1d9 29be 2bbf 55bd
00000050: e143 4ebf b484 02bf 707a 05be b83d e03d
00000060: 479d 81bd a0af 6bbf 975e 2dbf 7b09 c6be
00000070: 05e0 18bf 6f27 23bf dc31 ab3e 4726 0e3b
00000080: 9523 a43f 3c2d 2ebf c3e7 9c3e 5591 3e3c
00000090: 2789 58be 3065 85bf 9c20 abbe b2a1 babe
000000a0: 3dfe 823d 9485 e3bd 256f cbbd 0267 cebe
000000b0: b998 a7bf afbb 79bd 05fb 6bbe 5d4e b5be
000000c0: 2c1f 85be b5fc 5dbe 169f a7bf 0af6 a53c
000000d0: 4f75 c6bc ef91 373e 4b15 a53e 223f 56bf
000000e0: ffd9 b3bd 34ef 88be e79a 12bf dd41 08be
000000f0: 09dd 16bf b27f 0cbf 5cda a63f 9ecc c9bf
00000100: 6ca1 433e 81ab 5bbe a72a 14bf b7e3 9bbf
00000110: 5304 51bd 87cb c3be aa1f e43f fd00 8fbc
00000120: b055 ddbe cb60 8dbf 885c e13d 5569 02bf
00000130: cb04 313e c226 aebf c248 0ebf 613b eabc
00000140: 9c71 a5bf da9d 13be 7386 bc3e 3b61 bebf
00000150: 8f97 09bd fa8c 653f 73de 82bf 79d6 f2bf
00000160: 089e 913c 371b c3bd ad3a 0abf 1c08 ba3f
00000170: 0308 12bf fa8a 0240 2dc5 60bf 204a 7abd
00000180: c3f1 eebd 791e abbd 7584 cfbd 79ed 59bf
00000190: bf02 93bc 9097 88bf d9e5 bc3e 9bb3 30be
000001a0: 1799 efbe ce77 62be 1e89 dcbe 85bc 51bf
000001b0: 8fc9 54bd dafb d93e 03d6 70bf 4117 4cbf
000001c0: 2d10 6ebf 7cbb 8bbd b454 8ebe 51c3 adbe
000001d0: 4e54 30bf e7e9 0abe 6351 17bf 2122 5dbd
000001e0: ed1f dcbe 1f3c 993d 4dde afbf c559 69be
000001f0: 53c7 54bd d511 22bf c6e1 c6be 9aaf c4bf
00000200: 0e0d 52bf ddbd 66be 98b3 40bf c663 173d
00000210: e4fd bdbe 89f1 1ebe 7b96 ef3e 7f12 dabe
00000220: 9fdc 14bf c98f 393e c106 5d3b 988b f0be
00000230: 86d2 28bf f971 21bf 830c 983d 08f2 033f
00000240: 0f8b 07bd 91fb 26bd abe1 6bbf 5209 b9bb
00000250: 95cb 30bf 046a 36bf c672 0ebf b3ea 8abf
00000260: 41ef 4abf 9528 a2bf dcca 3f3f 992c 023e
00000270: 6898 43bf 394f 3cbf 527c 82bb 99c1 dfbe
00000280: 2ec1 c6be 991b 1bbf c013 423e 351f 4e3c
00000290: 85c3 72be 35d2 1cbe 96f1 22bf 3152 c9bc
000002a0: 09fe 373e 7d2f 98bc 19b7 30bc d5e1 56bf
000002b0: 844f 49bf 1d7b fbbd 5fb8 8dbf 5605 48bf
000002c0: c7b3 5fbf 0383 9ebf 78a5 bfbf c473 253c
000002d0: c0e5 51bf e6ea cabe bf05 55be 7d78 dd3e
000002e0: 7ede bebe 319b 81be 085f 133e 08e2 23bf
000002f0: 3991 043f 72a3 a4be 448e e6bf b3ae 98bf
00000300: 460d b53c 22e5 bf3d a76c e4bd 34b9 13be
00000310: e428 8fbc e5b4 c3be a3d5 9ebf 3474 f7bc
00000320: 1dda b43d e48b 96bf fa8b e73d 8f8d af3e
00000330: aee9 7f3d e527 76bf 94bf 563e dfd9 cc3b
00000340: 9e39 c7be 7971 5c3d 6a24 66bf 6baa 2f3f
00000350: dec2 82bd fd0d 183e ead4 863e f4f5 7f3f
00000360: c975 57bc 50fe b0bd e67d d73e f277 92bf
00000370: 0475 2abf eacf ebbe faa8 3abf 3553 8ebd
00000380: acba 913e d0cd a23c 5e06 02be 5548 ba3f
00000390: aeda edbd 865f ef3f 85fe cd3e a792 63be
000003a0: 38ea 90bf fa98 00bf 61d1 74bf e230 98bf
000003b0: 05b3 50be cb3f 9cbe 1b73 1dbf b6a0 26bf
000003c0: 9431 9dbf afe9 0dbe 4ad4 adbe be6f 073c
000003d0: ee37 ae3d 123f 18be 0fc3 1c40 1435 1cbe
000003e0: 42b3 9d3f ff2c 23c0 5aa9 fabf 951d 913e
000003f0: 86fc c63d 0367 5abf a6ee e7be 5e49 c7be

dist.fc_logstd.bias f4 [2]
-0.37071452 -0.21252936
00000000: 4bce bdbe 4ca1 59be

exp_avg f4 [128, 9]
0.018446082 -0.039510358 0.075263225 -0.026342804 -0.04423447 -0.024696274 0.0066994242 0.008332278
0.031802922 -0.111039534 0.08218205 -0.02113313 0.17260312 -0.04972698 -0.11559389 0.028692013
0.058004167 -0.08782803 0.06814917 -0.011393773 0.1530226 -0.054430135 -0.14691314 -0.031551603
-0.0017888705 -0.004171709 0.11706689 -0.039344728 0.15406522 -0.06913237 0.0861565 0.0071640685
-0.011963159 0.011448983 -0.020197568 -0.13505664 -0.002796803 -0.075851575 -0.009643699 -0.06698055
0.017548805 -0.018675998 0.0058178753 0.008121783 0.08475546 -0.11970507 0.058999408 -0.08280074
0.020518022 0.0032466024 -0.0058123376 0.107701175 0.03374376 -0.0812806 0.094992675 -0.056157127
0.11030911 -0.34015694 0.01231008 0.12060179 0.014468186 -0.023829374 0.14739786 -0.087409966
0.11312261 -0.09943645 -0.07848108 0.030573813 -0.021461712 0.011927643 -0.00043904939 -0.10757842
-0.0008376393 -0.2096586 -0.054892965 0.07067203 0.013910731 -0.008655706 -0.008674671 -0.008380472
-0.067710966 0.22131932 0.02128049 0.16542767 0.043334305 -0.06349651 0.084287964 0.014082053
-0.032187656 0.14849785 -0.24833591 0.34004655 -0.22582516 0.1903576 0.10505141 0.027012004
0.0024651447 -0.034282893 -0.15588377 -0.04194658 -0.034571502 -0.020228663 -0.110704035 0.0038182903
0.012379477 0.02268541 -0.010819434 0.026382884 -0.0756548 0.110311106 -0.06238679 0.060481396
0.022623884 -0.0022600214 0.06224977 0.014494973 0.019076189 -0.10865813 -0.13620262 -0.12873596
-0.047865685 0.022677628 -0.047711033 0.015665546 0.01287743 0.07451976 -0.046867073 -0.06847604
-0.051815595 -0.081653595 0.013806283 -0.0385234 -0.0023463832 -0.0029725006 -0.07312208 -0.063555
0.18693955 -0.077249005 0.19189225 -0.0044598454 -0.028718267 -0.09631459 -0.03525146 0.10546766
-0.0029394752 -0.0039735823 0.2102828 -0.42546293 -0.23974846 -0.14205313 0.015681429 0.01735048
0.6271025 -0.054613546 -0.062286533 0.03384577 -0.030516341 -0.043394864 -0.018218707 -0.00046194618
-0.0005653086 0.13614179 0.25784963 -0.32719448 0.23688555 -0.349439 -0.11100221 0.16881831
0.08185736 -0.10651297 0.20072812 0.20185749 -0.16660461 0.12439101 -0.07103824 0.008153483
-0.007523161 -0.010823814 0.03882271 -0.0009215239 -0.03156424 -0.107042976 -0.08753643 -0.10868198
0.05783958 -0.026242236 -0.20634446 0.07730737 0.7362376 -0.19414952 -0.0912467 -0.19997586
0.30455875 0.09036224 0.030799465 0.06351171 0.045888852 -0.003588959 -0.09315069 0.062156145
-0.15408446 0.17866336 0.16534184 0.08129342 -0.027680324 -0.01389363 -0.17890885 0.028670073
-0.12981804 0.24053359 0.04235916 0.059599698 -0.038615048 0.10596137 0.078764506 -0.0089816805
0.06586925 0.24401116 0.020826848 -0.059714794 -0.01137899 0.023828885 -0.03628224 0.019504197
-0.3858634 -0.02301837 -0.051933724 -0.030157395 -0.1885953 0.048484005 0.073342465 0.009735608
-0.032193266 0.13128337 -0.121672995 0.33574226 -0.15502001 0.23669976 0.09274968 -0.10153689
-0.21331587 0.013509335 0.06589199 0.05842461 -0.020537902 0.009292455 0.03287432 0.06653985
0.06443269 0.001168533 0.0029233305 0.19597213 0.07669034 -0.16664751 0.061725475 -0.18869936
00000000: 3d1c 973c 9dd5 21bd 9b23 9a3d ddcc d7bc
00000010: 342f 35bd d74f cabc d886 db3b 1b84 083c
00000020: c843 023d b268 e3bd 104f a83d 631f adbc
00000030: dfbe 303e 85ae 4bbd 7dbc ecbd 830b eb3c
00000040: c795 6d3d 2fdf b3bd cb91 8b3d f3ac 3abc
00000050: f5b1 1c3e 22f2 5ebd 6670 16be 413c 01bd
00000060: 8978 eaba d5b2 88bb c4c0 ef3d f027 21bd
00000070: 46c3 1d3e 4695 8dbd d272 b03d 90c0 ea3b
00000080: 2001 44bc 8494 3b3c 5f75 a5bc 4a4c 0abe
00000090: 914a 37bb 1258 9bbd 9b00 1ebc 192d 89bd
000000a0: 83c2 8f3c 68fe 98bc e0a3 be3b 3a11 053c
000000b0: 4594 ad3d ef27 f5bd 5da9 713d 6f93 a9bd
000000c0: 6915 a83c f3c4 543b 6c75 bebb 6f92 dc3d
000000d0: e636 0a3d 7176 a6bd 858b c23d 0405 66bd
000000e0: bee9 e13d 0d29 aebe 38b0 493c 12fe f63d
000000f0: f80b 6d3c d235 c3bc 77ef 163e ff03 b3bd
00000100: d4ac e73d 56a5 cbbd b0ba a0bd ef75 fa3c
00000110: 79d0 afbc 296c 433c 3630 e6b9 1352 dcbd
00000120: 0695 5bba beb0 56be 72d7 60bd 7fbc 903d
00000130: d6e9 633c aad0 0dbc 3520 0ebc 3f4e 09bc
00000140: 0cac 8abd 88a1 623e 6c54 ae3c df65 293e
00000150: 507f 313d 750a 82bd 2b9f ac3d 69b8 663c
00000160: 34d7 03bd d20f 183e c54b 7ebe 951a ae3e
00000170: b63e 67be 1aed 423e 3225 d73d 4748 dd3c
00000180: 448e 213b 386c 0cbd ff9f 1fbe 2dd0 2bbd
00000190: d99a 0dbd 95b6 a5bc ccb8 e2bd 483c 7a3b
000001a0: 4ad3 4a3c c1d6 b93c ff43 31bc eb20 d83c
000001b0: e7f0 9abd caea e13d 4a89 7fbd 57bb 773d
000001c0: b955 b93c de1c 14bb 9df9 7e3d 537c 6d3c
000001d0: ab45 9c3c 2788 debd b378 0bbe 5cd3 03be
000001e0: cf0e 44bd 6fc6 b93c a56c 43bd 0855 803c
000001f0: dbfb 523c d19d 983d b0f7 3fbd 2b3d 8cbd
00000200: 973c 54bd 003a a7bd bf33 623c b6ca 1dbd
00000210: c7c5 19bb 49ce 42bb 07c1 95bd 2029 82bd
00000220: 156d 3f3e ba34 9ebd 677f 443e e523 92bb
00000230: 9242 ebbc 9540 c5bd d663 10bd 6eff d73d
00000240: 36a4 40bb d334 82bb 6054 573e 47d6 d9be
00000250: 9f80 75be 6076 11be 5776 803c 9822 8e3c
00000260: ca89 203f 74b2 5fbd 2a20 7fbd dda1 0a3d
00000270: 68fd f9bc d0be 31bd 663f 95bc 5e31 f2b9
00000280: 3831 14ba c168 0b3e de04 843e 0986 a7be
00000290: 2092 723e abe9 b2be 2055 e3bd b5de 2c3e
000002a0: d5a4 a73d 7923 dabd ac8b 4d3e bbb3 4e3e
000002b0: 669a 2abe b7c0 fe3d 7f7c 91bd 3096 053c
000002c0: d984 f6bb 5e56 31bc 9004 1f3d 6c92 71ba
000002d0: 8149 01bd 5939 dbbd 4d46 b3bd a894 debd
000002e0: 32e9 6c3d f5f9 d6bc f64b 53be 5453 9e3d
000002f0: 117a 3c3f 22cf 46be 8ddf babd 79c6 4cbe
00000300: 20ef 9b3e d70f b93d 294f fc3c 6d12 823d
00000310: f3f5 3b3d be34 6bbb cac5 bebd 7197 7e3d
00000320: 51c8 1dbe 87f3 363e 5f4f 293e 2a7d a63d
00000330: d9c1 e2bc 1ca2 63bc e233 37be 80dd ea3c
00000340: 05ef 04be 704e 763e cc80 2d3d d01e 743d
00000350: d02a 1ebd 4602 d93d 494f a13d e627 13bc
00000360: 75e6 863d 10de 793e 119d aa3c 8097 74bd
00000370: f16e 3abc cb34 c33c b09c 14bd 44c7 9f3c
00000380: e38f c5be 0591 bcbc 75b8 54bd a40c f7bc
00000390: 201f 41be 2a97 463d 9334 963d 1982 1f3c
000003a0: 16dd 03bd 266f 063e b12f f9bd 69e6 ab3e
000003b0: 91bd 1ebe 6c61 723e 8bf3 bd3d 93f2 cfbd
000003c0: 7a6f 5abe 4256 5d3c 61f2 863d a54e 6f3d
000003d0: 1a3f a8bc 623f 183c 39a7 063d 0b46 883d
000003e0: 49f5 833d 7629 993a 5995 3f3b ebac 483e
000003f0: d30f 9d3d a5a5 2abe dad3 7c3d 683a 41be

exp_avg_sq f4 [128, 9]
0.1374308 0.103522435 0.13850348 0.14332327 0.06522339 0.033955816 0.0034901642 0.0061049936
0.15301098 0.13322034 0.1561288 0.16829062 0.19792503 0.057495177 0.0632101 0.025826687
0.023254316 0.24579033 0.19493517 0.29000288 0.21861787 0.21943651 0.054640565 0.07349225
0.054542217 0.05118333 0.36580002 0.17999634 0.23989668 0.14417453 0.14144577 0.04838886
0.116444185 0.032181848 0.007440513 0.43369249 0.13845567 0.5234714 0.18370399 0.39023498
0.089732155 0.13703376 0.17504545 0.010590784 0.4518078 0.29478356 0.38166738 0.3727178
0.2708456 0.0857923 0.07821518 0.09318075 0.049654413 0.6218412 0.26444778 0.39073497
0.22559689 0.4050287 0.08316178 0.121935725 0.05856981 0.046154432 0.6064119 0.31505302
0.54778874 0.37975833 0.20430315 0.06316449 0.045973394 0.060912587 0.018009951 0.54417956
0.35774127 0.3833333 0.37392294 0.2418474 0.04733354 0.12868059 0.015985345 0.011817059
0.65735364 0.4266809 0.33519572 0.4328084 0.45622623 0.08985093 0.21599886 0.039586794
0.05626099 0.5330941 0.53526664 0.80149055 0.5833244 0.507324 0.16491279 0.1951199
0.12123446 0.11630062 1.1373249 0.06346306 0.031202516 0.050303545 0.049033012 0.0099569475
0.039366234 0.008967864 0.0013051917 0.048426256 0.13883053 0.21846929 0.15745334 0.18795842
0.054500923 0.06667985 0.0529809 0.018079527 0.35411263 0.43818697 0.2599039 0.44791713
0.24140723 0.11621263 0.22182766 0.111371785 0.010817705 0.6098365 0.27246076 0.27563816
0.25819188 0.211933 0.1037497 0.12349508 0.011344431 0.011066172 0.38146403 0.22226934
0.62969875 0.31262502 0.6565734 0.047754698 0.05129643 0.06676867 0.058316477 0.38716692
0.5258763 0.8252118 0.71586543 0.48205593 0.23537709 0.28551704 0.031024 0.027487462
1.0208774 0.18323214 0.34926146 0.20431514 0.19440714 0.119426325 0.148297 0.008966473
0.008867204 0.30823085 0.71302336 0.6389828 0.57453656 0.59767854 0.26174864 0.31073287
0.0964217 0.0625092 0.6565882 0.53204733 0.49581042 0.38190725 0.32712245 0.18805343
0.22677225 0.018900035 0.08125865 0.6986472 0.28307718 0.5679452 0.33766332 0.29777315
0.05583394 0.09725601 0.26766577 0.12924866 1.6156772 0.37364796 0.39601207 0.5648309
0.3903407 0.08510223 0.09445884 0.02210662 0.016522164 0.60758007 0.119415574 0.2598659
0.30247462 0.24701153 0.1882509 0.1200732 0.03971821 0.057255313 0.2571577 0.579388
3.0674582 1.5147003 1.8727919 0.124377064 0.22442329 0.2145321 0.15006569 3.7250004
0.3167244 0.5096236 0.35421887 0.25907382 0.17257081 0.1087819 0.07469005 0.08187846
0.782565 0.23234238 0.4600347 0.23673221 0.29344612 0.08529198 0.15593272 0.049812037
0.034872748 0.5119678 0.3998836 0.5875956 0.25365594 0.36024332 0.13406463 0.12664872
0.18196826 0.123799376 0.62711155 0.32416642 0.30076814 0.2973343 0.2289453 0.047612336
0.17320305 0.18824093 0.007918227 0.2810997 0.29626966 0.52820015 0.39354575 0.47282553
00000000: a9ba 0c3e 9203 d43d dbd3 0d3e 56c3 123e
00000010: d793 853d 4115 0b3d 3dbb 643b 660c c83b
00000020: e9ae 1c3e ea6a 083e 3ae0 1f3e 6054 2c3e
00000030: dcac 4a3e 1080 6b3d 4c74 813d 7d92 d33c
00000040: d67f be3c 76b0 7b3e 169d 473e 427b 943e
00000050: 5ddd 5f3e f7b3 603e c9ce 5f3d 1b83 963d
00000060: a967 5f3d 9da5 513d 244a bb3e f650 383e
00000070: 7aa7 753e 7da2 133e 29d7 103e 6633 463d
00000080: 4a7a ee3d 1dd1 033d 8ccf f33b f10c de3e
00000090: 53c7 0d3e 3902 063f e61c 3c3e e1cc c73e
000000a0: 7ec5 b73d 9452 0c3e 1d3f 333e f884 2d3c
000000b0: 5a53 e73e dfed 963e e869 c33e ded4 be3e
000000c0: 46ac 8a3e e0b3 af3d 482f a03d 8dd5 be3d
000000d0: 6d62 4b3d fc30 1f3f b365 873e 6a0e c83e
000000e0: df02 673e ec5f cf3e b950 aa3d 70b9 f93d
000000f0: e6e6 6f3d 6e0c 3d3d cf3d 1b3f a14e a13e
00000100: e23b 0c3f af6f c23e d834 513e 625c 813d
00000110: 994e 3c3d 7a7f 793d 9b89 933c 5a4f 0b3f
00000120: dd29 b73e 4344 c43e d472 bf3e d8a6 773e
00000130: d0e0 413d d8c4 033e b3f3 823c 569c 413c
00000140: 5448 283f eb75 da3e c69e ab3e 1099 dd3e
00000150: 7c96 e93e c403 b83d ce2e 5d3e c325 223d
00000160: ed71 663d db78 083f 3c07 093f 7c2e 4d3f
00000170: bf54 153f fcdf 013f e6de 283e 83cd 473e
00000180: c649 f83d 052f ee3d dd93 913f ecf8 813d
00000190: 6b9c ff3c 170b 4e3d d7d6 483d 7722 233c
000001a0: 7d3e 213d f3ed 123c f712 ab3a 9c5a 463d
000001b0: 9729 0e3e 6ab6 5f3e 733b 213e 2c78 403e
000001c0: 5c3c 5f3d 728f 883d 8002 593d 841b 943c
000001d0: 404e b53e 0b5a e03e 2012 853e 6555 e53e
000001e0: 7533 773e e300 ee3d ca26 633e e416 e43d
000001f0: be3c 313c 3f1e 1c3f fa7f 8b3e 7220 8d3e
00000200: ba31 843e f704 593e b97a d43d fdea fc3d
00000210: fedd 393c e44e 353c 414f c33e 939a 633e
00000220: f033 213f 6310 a03e 3215 283f 6e9a 433d
00000230: 351c 523d 03be 883d 42dd 6e3d be3a c63e
00000240: d49f 063f 1541 533f f542 373f 09d0 f63e
00000250: b106 713e 4a2f 923e 0b26 fe3c 632d e13c
00000260: 1cac 823f 35a1 3b3e 66d2 b23e fd37 513e
00000270: aa12 473e ca95 f43d 2bdb 173e 1de8 123c
00000280: c047 113c 6fd0 9d3e b388 363f 6094 233f
00000290: d414 133f 7601 193f eb03 863e 6118 9f3e
000002a0: be78 c53d d304 803d 2a16 283f 4134 083f
000002b0: ddda fd3e 5989 c33e 987c a73e 1491 403e
000002c0: fc36 683e 3fd4 9a3c ef6a a63d 8bda 323f
000002d0: 7eef 903e db64 113f 35e2 ac3e b975 983e
000002e0: 21b2 643d 292e c73d 7d0b 893e c359 043e
000002f0: 83ce ce3f c94e bf3e 18c2 ca3e c298 103f
00000300: bcda c73e 144a ae3d a373 c13d f118 b53c
00000310: 7d59 873c 5e8a 1b3f 2790 f43d 250d 853e
00000320: f4dd 9a3e 97f0 7c3e d8c4 403e f0e8 f53d
00000330: 90af 223d 8c84 6a3d 2daa 833e c652 143f
00000340: 3c51 4440 b3e1 c13f a5b7 ef3f 67b9 fe3d
00000350: 38cf 653e 4eae 5b3e d2aa 193e 6866 6e40
00000360: b329 a23e b176 023f 2d5c b53e 53a5 843e
00000370: 67b6 303e 0bc9 de3d 19f7 983d e5af a73d
00000380: 2e56 483f 29eb 6d3e ab89 eb3e ee69 723e
00000390: 923e 963e 90ad ae3d d4ac 1f3e b507 4c3d
000003a0: bad6 0e3d 5210 033f 8bbd cc3e aa6c 163f
000003b0: 31df 813e d071 b83e 3d48 093e 34b0 013e
000003c0: e355 3a3e 878a fd3d 628a 203f 24f9 a53e
000003d0: 48fe 993e 343c 983e a370 6a3e 2705 433d
000003e0: 245c 313e 3bc2 403e 74bb 013c 4dec 8f3e
000003f0: a8b0 973e 2038 073f d47e c93e 3016 f23e

exp_avg f4 [128]
-0.04356076 -0.06735788 0.05052478 0.116989784 -0.05379314 0.09151785 0.003794028 0.009432289
0.055506516 -0.09767688 -0.070773125 0.07359275 0.07904139 -0.0852913 0.017945211 0.24737471
-0.11491773 0.0030471997 0.2717484 0.10394089 -0.51786226 -0.27825886 -0.011406219 -0.50565344
0.24136515 -0.003547742 -0.28428867 -0.019362165 0.10751983 0.08964621 0.036134314 -0.1620268
0.18039207 -0.11792821 -0.09100035 0.42243248 -0.030843517 -0.0248178 -0.09205058 0.02936329
0.028323416 0.024450699 -0.056255154 -0.086903185 -0.035065334 -0.44271067 -0.022595564 -0.17407002
0.3267505 0.07028789 -0.00620646 -0.075813696 -0.2372788 0.09290023 0.055503737 -0.027818441
-0.10249651 -0.1373333 -0.098608136 -0.032490868 0.14221302 -0.045685727 0.05631441 -0.2671371
-0.066217996 0.014790042 -0.17508423 0.22810186 -0.16083588 0.10297105 -0.4862986 0.25841704
0.54052967 -0.036977593 -0.14094661 0.08044189 -0.0549978 0.020321995 0.38558528 0.18994713
-0.13608988 -0.09559234 0.16815023 -0.12629394 -0.21377823 0.092652224 -0.051147375 0.050650083
-0.120187685 -0.12096097 -0.093041845 -0.055582453 0.08590674 0.026277654 -0.028605746 0.16186997
0.11816955 -0.18961401 0.12139904 0.02481923 -0.19688351 -0.17068367 0.0944532 0.104363374
0.0031921642 -0.07525419 -0.13081858 -0.019761696 -0.011074748 -0.00965524 0.10659983 0.09851884
0.15786237 0.035759095 0.34951916 0.14734815 0.2439749 -0.048778113 0.16058372 -0.041112937
-0.033831075 0.28830683 -0.24544857 -0.11816495 0.29009566 -0.17221619 0.0023041037 0.022311809
00000000: c46c 32bd eef2 89bd 12f3 4e3d 5798 ef3d
00000010: 3256 5cbd b66d bb3d 3aa5 783b e389 1a3c
00000020: cd5a 633d d10a c8bd 80f1 90bd ccb7 963d
00000030: 74e0 a13d 35ad aebd d601 933c cc4f 7d3e
00000040: fd59 ebbd 87b3 473b 9b22 8b3e f6de d43d
00000050: 9f92 04bf f277 8ebe 26e1 3abc 8172 01bf
00000060: 6d28 773e 3c81 68bb 498e 91be 679d 9ebc
00000070: 5b33 dc3d 6f98 b73d 9301 143d 5aea 25be
00000080: b3b8 383e 5884 f1bd 645e babd 1249 d83e
00000090: 8bab fcbc b34e cbbc 0485 bcbd 488b f03c
000000a0: 8206 e83c d54c c83c ce6b 66bd 4cfa b1bd
000000b0: aba0 0fbd f9aa e2be 551a b9bc 693f 32be
000000c0: d74b a73e 19f3 8f3d 8f5f cbbb 3644 9bbd
000000d0: 37f9 72be 7a42 be3d e357 633d 80e3 e3bc
000000e0: b1e9 d1bd 1aa1 0cbe 10f3 c9bd 2515 05bd
000000f0: 4aa0 113e f520 3bbd f0a9 663d 32c6 88be
00000100: 4d9d 87bd ef51 723c 4849 33be 8993 693e
00000110: 29b2 24be 7ce2 d23d 21fc f8be 3d4f 843e
00000120: 2760 0a3f d175 17bd 4f54 10be b8be a43d
00000130: 6045 61bd 507a a63c 6f6b c53e 8081 423e
00000140: 255b 0bbe ebc5 c3bd 932f 2c3e 3353 01be
00000150: aee8 5abe 73c0 bd3d e97f 51bd 7676 4f3d
00000160: f624 f6bd 63ba f7bd b98c bebd 6daa 63bd
00000170: dfef af3d 3c44 d73c 9956 eabc 3ec1 253e
00000180: e102 f23d 2d2a 42be 0fa0 f83d b351 cb3c
00000190: d59b 49be b3c7 2ebe ae70 c13d 77bc d53d
000001a0: a133 513b de1e 9abd 4ef5 05be 48e3 a1bc
000001b0: dc72 35bc 0331 1ebc 0351 da3d 3fc4 c93d
000001c0: aca6 213e 2178 123d 2df4 b23e 6fe2 163e
000001d0: 8ed4 793e 8fcb 47bd 0f70 243e 0a66 28bd
000001e0: 7492 0abd f49c 933e df56 7bbe 7700 f2bd
000001f0: 6b87 943e 7159 30be 7200 173b 41c7 b63c

exp_avg_sq f4 [128]
0.1354073 0.2726153 0.49286678 0.31968486 0.46459973 0.71809816 0.77892417 0.6442613
0.50771326 0.6957611 0.996592 0.044573877 0.3228041 0.4673027 0.46657968 0.59627426
1.2058296 0.37713426 0.6859802 0.6615795 0.80753225 0.6640085 0.27203602 3.839603
0.61161226 0.6606296 0.5622446 0.339626 0.8624209 0.50381386 0.113007344 0.3291321
0.5025542 0.27386332 0.79409105 1.7684584 0.2317243 0.36508656 0.6140107 0.28983048
0.5909906 0.13760725 0.5300549 0.5850618 0.93393606 5.237077 0.09501889 2.453457
1.1109726 0.64642876 0.4808492 0.3090932 0.5318773 0.42888623 0.77139866 0.4548472
1.0971754 0.53404385 0.8405646 0.5296982 0.5880648 0.72899413 0.20207615 0.80259943
0.34706908 0.011319519 0.29751796 0.49562255 0.34700122 1.0728515 1.2456795 0.6833127
2.1836646 0.3891529 0.9112968 0.9623451 0.5557929 0.8001191 0.47938973 0.37316173
0.33534646 0.43794027 0.5191966 0.2917117 0.42849314 0.42870504 0.80956197 0.3611022
0.3701301 1.4815676 0.2692893 1.1243317 0.6743481 0.03011851 0.83520234 0.41157126
0.5206876 0.2329345 0.45368835 0.39737126 0.7076788 0.38240153 0.43221056 0.44144648
0.13461137 0.5658536 0.5126045 0.83746 0.43662432 0.66669756 0.45772532 0.74202013
0.68874246 0.28425267 0.8110313 0.22137229 0.59734726 0.26201406 0.5509245 0.19699064
0.3986651 0.68376577 0.8199542 0.7801563 0.27349374 0.4573793 0.23113094 0.6847752
00000000: 36a8 0a3e 3c94 8b3e 0959 fc3e bcad a33e
00000010: 04e0 ed3e 48d5 373f 9367 473f 4fee 243f
00000020: 7ff9 013f 661d 323f a720 7f3f 1993 363d
00000030: 9446 a53e 4d42 ef3e 88e3 ee3e 6ea5 183f
00000040: a058 9a3f be17 c13e 669c 2f3f 465d 293f
00000050: 6fba 4e3f 76fc 293f 4e48 8b3e 0ebc 7540
00000060: 9f92 1c3f 051f 293f 43ef 0f3f 76e3 ad3e
00000070: 9ec7 5c3f f2f9 003f 6570 e73d 0184 a83e
00000080: 64a7 003f d037 8c3e 8d49 4b3f d85c e23f
00000090: 2349 6d3e a0ec ba3e ce2f 1d3f a964 943e
000000a0: 294b 173f eae8 0c3e aeb1 073f 9cc6 153f
000000b0: 6f16 6f3f 2396 a740 4499 c23d 7105 1d40
000000c0: 5a34 8e3f 5b7c 253f de31 f63e 7741 9e3e
000000d0: 1c29 083f fa96 db3e 627a 453f bbe1 e83e
000000e0: 3e70 8c3f 19b7 083f 3e2f 573f 4d9a 073f
000000f0: 6a8b 163f 5c9f 3a3f 0ded 4e3e 2877 4d3f
00000100: 0ab3 b13e 8175 393c 4654 983e 3dc2 fd3e
00000110: 25aa b13e 3353 893f 6d72 9f3f 95ed 2e3f
00000120: 29c1 0b40 0d3f c73e bf4a 693f 405c 763f
00000130: 7248 0e3f 9bd4 4c3f 9272 f53e 0e0f bf3e
00000140: 88b2 ab3e b539 e03e 12ea 043f 3c5b 953e
00000150: 7463 db3e 3a7f db3e 743f 4f3f 63e2 b83e
00000160: b181 bd3e 02a4 bd3f 4ae0 893e 1aea 8f3f
00000170: 14a2 2c3f 18bb f63c d2cf 553f 78b9 d23e
00000180: c84b 053f 6286 6e3e d749 e83e 3f74 cb3e
00000190: 702a 353f 22ca c33e b44a dd3e 4605 e23e
000001a0: 90d7 093e c8db 103f 0c3a 033f c763 563f
000001b0: 398d df3e b1ac 2a3f f95a ea3e 08f5 3d3f
000001c0: 6d51 303f 9189 913e bf9f 4f3f 6baf 623e
000001d0: c0eb 183f b526 863e 6309 0d3f eab7 493e
000001e0: d51d cc3e 460b 2f3f 85e8 513f 53b8 473f
000001f0: 5f07 8c3e 9f2d ea3e 97ad 6c3e 6d4d 2f3f
