ppo/models/behavioral_cloning_agents_drone/bc4/ckpts/002935500.pt (torch_old, 418635 bytes, 26 tensors)

fc1.weight f4 [128, 15]
00000000: 3e45 debd 887b 8f3e 6476 b2be ec6e e7be
00000010: 0c63 b1be b67c babc 9fe9 24bf 0fdb a3be
00000020: cbd5 993e a8c1 0f3d d0c9 633e 4a5c a7be
00000030: 0a97 7cbe c21a 2fbe 6641 ea3c 14cd 4abe
00000040: 746f ac3d 079b a93d fa14 20bf fbc1 6bbe
00000050: 4f31 fcbd de17 653e 6f29 84be be58 193e
00000060: 9852 903e c5d4 203e 13f9 863e a345 75be
00000070: 7572 26be a0ad 9a3b 392b d93d b190 1e3e
00000080: bd47 56be e90a 78be 8c49 36be a13b debe
00000090: dab9 6ebf 2adc 0ebd c761 67be 16bf 0d3e
000000a0: 322d 873c b399 493e 40ed 323d 66dd 76be
000000b0: 55e7 b13c a822 d03d 8b15 403e 215f 033f
000000c0: 11fc 08bf b86c 11bf a893 2b3e da73 683e
000000d0: c2b0 ed3e 278d b9be 5b13 303d 5596 bebe
000000e0: d005 823e c7fc 4cbe bc3f 37be 2855 513e
000000f0: f029 563e 6324 933e 40a6 0ebf c192 283d
00000100: 04c4 173e 2ad5 053e 366d 97be 97f7 223e
00000110: 3ba1 293e 8ae2 fd3e 1872 9fbe 8c6e 2fbd
00000120: fcd1 cf3d 9a10 5b3e c4da b63e 7254 873e
00000130: b543 053e aab4 19be caa2 8d3e dd3c 90be
00000140: d94f 4dbe 3074 d83e 1d39 78bd 4499 41bd
00000150: fe9e 80bc 3d24 1ebd de68 b33d d00e f2bd
00000160: 9859 cb3d 57fb 433d ac63 d73d 1f4b 113d
00000170: 7d22 a83c b2c2 0ebe 9dc0 0cbf 3b17 06bf
00000180: 1342 99bc 6d09 cdbc 093e debe c107 a9be
00000190: c33a 033f 36fc ba3e fa90 e6bd b616 85bd
000001a0: f967 babd 2fac 9f3e 92ea 07be a5d3 39bf
000001b0: fef5 3bbe 5505 7fbe 9e72 0abf 6753 d43e
000001c0: 6325 2fbe c072 763e 930c 213f c17c 83be
000001d0: be2c 213e 40e2 3e3c 704d 1a3d 5a17 893e
000001e0: 5f4f 4e3d 9f45 04be d7ac 99be b131 e3bb
000001f0: 0257 e1be 119e 7fbe 0413 1abe de31 82be
00000200: d09e ddbe 88db 26bf b29b 853d da5f ae3e
00000210: a63e 2cbe 1019 59bc 559c 3c3e 1439 3e3d
00000220: 8e2d 963e 7f33 cbbd a66b 983d a0d8 073e
00000230: 58cd 873d dfb5 f23d b7b5 b63e b58a 3f3c
00000240: 9b37 b13d 49e9 77be e02d f23c 0062 dbba
00000250: ba6a 03be 818c debb 2e4e eebe b56b 53be
00000260: 0a25 abbb 288f 7ebe ad68 46be 0421 9dbe
00000270: a0a7 22be 9a58 f7be 9c21 c23c f472 6abe
00000280: fab7 8f3e 662d ecbe 6441 6dbe 0b4a 64be
00000290: d9c6 93bd f5fb aabe 345a a23d e4ea 013e
000002a0: 488c 4ebe 52bb bf3c a8e5 a6bd 2e4a df3e
000002b0: 88cb 28bd 961b bb3e c240 d9bd 5644 473f
000002c0: 2a7a c0be 5a0e ecbd c46c 533e 8b3e 3abe
000002d0: 1ada 8f3b 7d77 18be 23c2 cf3e fdc3 223e
000002e0: e8ee cb3d bd45 bfbe 25e5 d3bb 89aa 1cbd
000002f0: 33aa c7bd 373d 0c3f 4485 273f a377 093e
00000300: bc7f 3abe 20ac 3c3c 058b 3bbe 90ec 05bd
00000310: eb37 82be 434e 95bb 243d d9be e121 88be
00000320: aeca a93e ac0c 083f 864a d4be 2a66 6bbe
00000330: c050 abbe c034 443f 5e76 3b3e c603 5f3e
00000340: 0437 bf3d b7c7 243e b0fb 39be f8ec 4fbe
00000350: 68f0 333e 5af9 9dbb b848 333d ccb3 18bf
00000360: e9a6 23bf 4b1d cebc 8d95 d4bc 063b 19be
00000370: e638 973e 04fb 6f3e e004 bf3d 008c ef3b
00000380: bb23 e7bd b6c9 983e a164 ddbe 1bdf 5bbd
00000390: 34e3 27be 469f 1abf 0236 063f 432a 293f
000003a0: 1e0a 0c3f 00cb b63e 7fa0 ce3e 43ee dbbe
000003b0: c0fd 25bd 77e6 3abe 741d e0bd cbd5 6e3e
000003c0: 311b 26be c4e8 0e3e 4e53 6bbe b627 53be
000003d0: d6c4 f9be 363e 58be 765d 593e fae2 ebbd
000003e0: 0940 c1bd 14f0 37be c6ff 9cbb 3a63 253e
000003f0: 3ca2 5a3e 7693 9abd a7c6 493e 8a2c c0bd
-0.10853051 0.28023934 -0.3485595 -0.45201814 -0.3464588 -0.022764545 -0.6441898 -0.32003066
0.30045924 0.035096794 0.22244954 -0.32687598 -0.24666992 -0.17100051 0.028595638 -0.19804794
0.084196955 0.08281522 -0.6253201 -0.23023216 -0.12314092 0.22372386 -0.2581286 0.14975259
0.28188014 0.15706165 0.26361904 -0.23952346 -0.162546 0.0047204047 0.10603947 0.15484883
-0.20925803 -0.24222912 -0.17801493 -0.43404868 -0.93252337 -0.034877934 -0.22595893 0.13842425
0.016501043 0.19687538 0.04368329 -0.24107894 0.021716753 0.1016286 0.18758218 0.5131703
-0.5350962 -0.56806517 0.16755545 0.22700444 0.46423918 -0.36240503 0.04298721 -0.3722407
0.2539506 -0.20018302 -0.17895406 0.20442641 0.20914435 0.28738698 -0.5572243 0.04115558
0.14820868 0.13069597 -0.2957551 0.1591476 0.16565411 0.49586898 -0.31141734 -0.042830035
0.10147473 0.21393052 0.3571378 0.26431614 0.1301411 -0.15010324 0.2766326 -0.28171435
-0.2004999 0.42276144 -0.060601342 -0.047265306 -0.015700813 -0.03860878 0.08760236 -0.118192315
0.09929198 0.04784712 0.10517058 0.03547203 0.020524258 -0.13941458 -0.54981405 -0.52379197
-0.018708264 -0.025028909 -0.43406704 -0.33013728 0.5126154 0.36520547 -0.11258121 -0.064984724
-0.091018625 0.31186053 -0.13273075 -0.7258857 -0.18355557 -0.24904378 -0.5408114 0.4146988
-0.17104106 0.24067211 0.6290981 -0.25681117 0.15739724 0.011650622 0.037671506 0.26775628
0.050368663 -0.12917183 -0.3001468 -0.006933414 -0.44011694 -0.24962641 -0.15046316 -0.2542867
-0.43285227 -0.6517873 0.06523837 0.34057504 -0.16820773 -0.013250604 0.18419011 0.046441153
0.2933163 -0.099219315 0.07442407 0.1326623 0.06630963 0.118510954 0.35685512 0.011690785
0.08653184 -0.24210085 0.02956289 -0.001673758 -0.12833682 -0.0067916517 -0.4654402 -0.20646556
-0.0052229213 -0.24859297 -0.19375868 -0.3068925 -0.15884256 -0.48309785 0.023697667 -0.22895414
0.2807005 -0.46128386 -0.23169476 -0.2229387 -0.072156616 -0.33395353 0.07927361 0.1268726
-0.201707 0.023404751 -0.08149272 0.43611282 -0.041209728 0.36544484 -0.10608055 0.7783865
-0.37593204 -0.11526175 0.2064696 -0.18187921 0.0043900134 -0.14889331 0.40577802 0.15895076
0.09957677 -0.37357894 -0.006466525 -0.038248572 -0.0974926 0.54780906 0.6543772 0.13424544
-0.1821279 0.011515647 -0.1831475 -0.032696307 -0.25433287 -0.0045564487 -0.4242946 -0.26588348
0.33162445 0.53144336 -0.41463107 -0.22988191 -0.33460045 0.7664299 0.18306872 0.21778783
0.09336665 0.1609181 -0.18162417 -0.2030524 0.17572176 -0.004820985 0.043770522 -0.5964935
-0.6392656 -0.025160452 -0.025950218 -0.14963922 0.29535598 0.23435599 0.09327102 0.0073103905
-0.11286112 0.29841393 -0.43240836 -0.053679567 -0.16395265 -0.6039928 0.5242616 0.6608011
0.5470294 0.35701752 0.40356824 -0.42955217 -0.040525198 -0.18251978 -0.10943118 0.23323743
-0.1622131 0.1395598 -0.22980997 -0.20620617 -0.48782986 -0.21117482 0.21227059 -0.11517902
-0.09436042 -0.17962676 -0.0047912328 0.16151133 0.2135095 -0.07547657 0.19704686 -0.09383495

fc1.bias f4 [128]
00000000: af64 5bbe 9f8c 5cbe 65f8 69be 9524 0bbe
00000010: 0ccd e1bd f824 afbc fe9f 20be b059 02be
00000020: 009c 1d3c 747a 3cbe 7f16 5bbe 1147 81be
00000030: 4120 b93c 1c11 e2b9 501a 803d f398 15be
00000040: 334c 77be 1f91 ff3c d629 bbbe f2c6 3bbe
00000050: 28e9 bfbd 6c9c 28bd 92ba 6ebe 3307 afbd
00000060: 1e4d e0be d0ef 513d 65ca 01bd 328a ae3e
00000070: 9811 813d e030 84be 6e52 61be 756f 5e3d
00000080: 4b80 323e 0dbb cdbd ea7a 51be 69cc 9abe
00000090: 6cac 9c3d 6987 45be 5614 b2bd 3c1a 1a3c
000000a0: 53de d23d 6035 27be 328c a5be 01e2 093e
000000b0: abae 29be e828 6fbe 8048 e4be 5b19 bdbe
000000c0: c8d3 70be c359 94be 53ba 99be 354d 59be
000000d0: e923 6d3d bba0 c3be 57b8 9fbd 6ef9 96be
000000e0: 32e7 0f3e 6bba b13c 1056 1cbe 9970 75be
000000f0: a1c4 d8be 6cce 99be fcf6 c83c 5cae a23b
00000100: aa79 dabd 529c 2bbe 2756 ecbd 0a6d b2be
00000110: cfd5 9fbd 0ff0 1f3e 9661 ddbe d158 35be
00000120: 25d4 dabd f977 08be b689 40be a90f 3abd
00000130: 60e0 9f3d 209e 5abd 51fe bfbe 1563 d33d
00000140: 7407 f73b f46e 17be 04dd 35be fd3d b3bd
00000150: 807c 95bb c550 59be 3d54 0ebe 5815 13bd
00000160: 3a1f 39be 1a56 7a3e 584a a7be 387c 9fbd
00000170: 9f18 5cbe e794 21be 1fea 9b3d dd89 333e
00000180: 824d d5bb 04ed a0bd 5455 e2be 1635 8dbe
00000190: b6d1 e2be 3739 a4be c201 41bd 7532 08bf
000001a0: e066 33bd 6856 a5bd cb28 36be 41f7 6bbd
000001b0: 3e41 99be fd41 78bd 3243 0cbe 9a10 113e
000001c0: 9e02 03be dbe2 a23d 464f 4fbe d8f9 31bc
000001d0: 7feb 773d 713a 7ebe fa79 0dbd 6726 6abe
000001e0: 22c8 41be 8d20 d13d 9957 f8b9 f28a 153e
000001f0: 2ade 89be 941d 4dbe a62b ef3d de2f 3ebe
-0.21425126 -0.21538018 -0.22848661 -0.13588174 -0.11025438 -0.021379933 -0.15686032 -0.12729526
0.009619713 -0.18406087 -0.213953 -0.25249532 0.022598388 -0.00043118827 0.06255019 -0.14609127
-0.24150161 0.031197129 -0.36555356 -0.1833761 -0.09370643 -0.0411648 -0.23313358 -0.08546295
-0.43808836 0.051254094 -0.03168716 0.3408981 0.06302184 -0.2581854 -0.220041 0.054305512
0.17431752 -0.10045443 -0.20457044 -0.30234078 0.07650074 -0.19289936 -0.08695285 0.009405669
0.10296311 -0.16328955 -0.32333523 0.1346512 -0.16570537 -0.23355448 -0.44586563 -0.36933407
-0.23518288 -0.28974733 -0.30024967 -0.21220858 0.057895575 -0.38208565 -0.07798832 -0.29487175
0.14053038 0.021695336 -0.15267205 -0.23968734 -0.42337516 -0.300403 0.024531834 0.004964633
-0.10667737 -0.1675885 -0.1153987 -0.34848815 -0.07804453 0.15618919 -0.43238515 -0.17709662
-0.106849946 -0.13327016 -0.18802533 -0.04542509 0.07806468 -0.053373456 -0.37498716 0.10321633
0.0075387303 -0.14788419 -0.17760092 -0.08752058 -0.0045619607 -0.21222217 -0.13899322 -0.035909027
-0.18078318 0.24446908 -0.32673907 -0.07787365 -0.21493767 -0.15779458 0.076130144 0.1753306
-0.006509484 -0.07857707 -0.44205725 -0.27579564 -0.44300622 -0.320749 -0.047120817 -0.5320199
-0.04379928 -0.08073121 -0.17788999 -0.057608847 -0.29932588 -0.060609806 -0.13697508 0.14166489
-0.12793967 0.079534255 -0.20245084 -0.01086279 0.06052732 -0.24826981 -0.034540154 -0.22866212
-0.18924001 0.10211287 -0.0004736751 0.14603785 -0.2692731 -0.20030814 0.11678247 -0.18572947

fc2.weight f4 [128, 128]
00000000: e101 8ebe 93b0 633d 2134 85bc a071 2c3e
00000010: 73a9 98be 2d54 4fbe bbdf 463e d6a2 84bf
00000020: c2d2 81bf edcb 853c 869c c3be 69ad d43c
00000030: 8d38 3e3d 4c08 233f e2b7 fbbd 3a7e c4bf
00000040: 5fe1 1e3e e5a9 0ebf 1fe9 e0bf c064 233e
00000050: 25e1 7ebd 91ad a03e 2aad 983e e89d 953d
00000060: ba83 81be 182b 61be 244e df3d 67f0 9a3c
00000070: 2447 503e 58aa 68bd cf76 f53c ccf8 00be
00000080: 8b7e cabe c45f 74be 205b 1cbf 3906 173e
00000090: cf14 62bd 4216 353d 8af3 9abf a61c c53d
000000a0: 3bb3 e03c 92ab 7e3e 353b 41be eb4d db3d
000000b0: 5915 973e 385c 53bf 5a41 5ebd eb0c e33c
000000c0: 14ce e0bd 6052 12bf 9fc5 afbd 5a8b 0b3c
000000d0: ce99 eabe 52ce 853d 575e 4fbf a71f 193f
000000e0: f528 933d a881 d23e 090d 2d3e a0b5 2f3e
000000f0: 370c 863d 2c1d 2bbf 11af 33bc 3953 73bf
00000100: ed2a 99bc 44b6 6c3e 5656 ca3e 7b56 e8be
00000110: 23a7 093e 95e9 753e ddc5 243f 7790 6bbf
00000120: 0302 553e 64f0 3b3f 556a f8be 33f7 96be
00000130: e0f9 ba3d 568e b0bc 4354 ecbe 86ec f1bb
00000140: 51af 073c a46d 57be 3fe8 fbbd 6718 ee3e
00000150: 0fcb 363c 563f 483d a5a0 40be 3033 56bd
00000160: aa26 2f3d b854 40be 1bdc 5b3b 54c5 553d
00000170: 046c c23e 7174 8d3e 722c 2cbe 6df4 55bd
00000180: 08b0 f2be 7fba d13e cb3c 493e 9c18 753e
00000190: 4f48 083f 647e 543f db94 853d 545d e1bd
000001a0: 6fa8 4f3d 4072 b2be 8e75 fcbd 38a6 523d
000001b0: bdee 493e d088 dc3c 2d48 163e c8b5 79bd
000001c0: c54d b13d cf72 30be 5a9f 5dbd 92e6 6cbe
000001d0: f844 21be 9d0b 833d f706 43be 86fd bbbd
000001e0: 4ddd a1bf d9c2 383d 0d3f c33d 922d c93d
000001f0: 3fb0 ecbd e7ce 4cbf e8df 1dbf 15df d3be
00000200: 6648 8dbe a85b 6838 92c2 bc3c ec4d c8bd
00000210: 544b 22bf bc66 17be d9cb 223e f3af 42bd
00000220: 3cd4 61bd 0f9f 88be 1600 ba3d 876c 9fbd
00000230: 6ae5 7fbd ac2f bbbd 8d16 59bd fe7d 87be
00000240: 1d54 823d 907f 02be 55e7 29be b719 fb3d
00000250: 2632 b0bd f78f b2be 455e 8dbf ab2e e5bd
00000260: 2440 053d 9854 40bd 1a86 36bf 80ab 07be
00000270: 4e52 c8bd d49b 4bbd 4eaa a3bd b50c d3bd
00000280: c289 183d aae0 d1bc d7fb e0bd 18a8 89bd
00000290: 47b9 993d ad27 7bbe 0b5b 073d 2e7d 79bd
000002a0: e9e0 28bc b121 dbbc 1c81 1fbd 9ed8 dcbe
000002b0: 0ce8 a4bc 141e e3bd 1dd4 e43c d8a3 013e
000002c0: 0b2a f53c b761 843d eebd 1f3e f02a 07bf
000002d0: 835b e83c 3db3 5b3e dbbc f0bd 619c de3d
000002e0: f476 b9bc 0d9d ddbe 2321 d6be 565a 833d
000002f0: a979 773d 7000 01be 2af3 12be 248b e2bc
00000300: 580a ce3d 59a1 cfbe 00a1 dbbd 6bb1 d6be
00000310: 0329 36bf c65f 44be eee3 08be 5f7c 68be
00000320: ddcb f43d b416 f6bd dbb6 5fbd ae94 c5bc
00000330: fb66 a33d 4db5 133c 721c a0be 08c6 c5bd
00000340: 7198 68be 2aa0 14be d3b8 293d 5d91 ab3d
00000350: 79d2 9c3d 5b74 ecbd a9e2 8c3e 034c 483e
00000360: bb97 39bd 06da cbbd 066f 8ebd e010 473d
00000370: 49c4 58be 8650 00bd a2f5 bdbc 1686 aebe
00000380: 6fe1 e8bc c963 8c3d 06d4 d53d 8efe 92bb
00000390: 1f9f 373d f72a 6fbb 43b2 f53d cb7f efbd
000003a0: c2fa 96bc 0485 33be 4986 4cbd 0ec1 733e
000003b0: 3a4b ebbd 5bad 12be 5658 60bd 8317 1bbd
000003c0: 7c0c 98bd 5ad3 85bf 53ae 2f3f 04cf 2ebe
000003d0: 9aaf 443d f6db 75bf c1e3 61be eeff 113e
000003e0: dc2e 8a3c e5da 7ebe fa54 873d 420c 18be
000003f0: fcea 863d 8898 03bf afb0 633c b932 a3bf
-0.27735808 0.055588316 -0.016260209 0.1684022 -0.2981678 -0.20246954 0.19421284 -1.0362194
-1.0142443 0.016332591 -0.38205355 0.025961595 0.04644065 0.63684535 -0.12290932 -1.5351021
0.1551566 -0.5572799 -1.7571143 0.15956402 -0.062226433 0.3138242 0.29819614 0.07305509
-0.25295812 -0.21989095 0.10903576 0.01891346 0.20339638 -0.056803077 0.029963879 -0.12594908
-0.3954967 -0.23864657 -0.61076546 0.14748468 -0.055195626 0.04421068 -1.2105572 0.09624605
0.027429214 0.24870136 -0.18870242 0.10708221 0.29508474 -0.8256259 -0.054261543 0.02771612
-0.10976806 -0.57156944 -0.08582615 0.008517111 -0.4582047 0.06533493 -0.81003326 0.5981392
0.07185546 0.41114545 0.16899504 0.17159128 0.065452985 -0.6684139 -0.010967032 -0.9504886
-0.018697226 0.23116404 0.39518994 -0.4537848 0.13442664 0.24014886 0.64364415 -0.9201731
0.20801549 0.7341368 -0.48518625 -0.29485473 0.09129691 -0.021552246 -0.46158037 -0.007382932
0.008281545 -0.21037918 -0.12300157 0.46502993 0.011156811 0.048888527 -0.18811281 -0.05229491
0.042761482 -0.18782318 0.003354794 0.05219014 0.37973034 0.276279 -0.1681383 -0.052235056
-0.47399926 0.40962598 0.19652097 0.23935169 0.53235334 0.83005357 0.065225326 -0.11004129
0.05069774 -0.3485279 -0.12327109 0.05142805 0.19719978 0.026920706 0.1467597 -0.060964376
0.086574115 -0.17231296 -0.054107048 -0.2313483 -0.15748966 0.063986994 -0.19045626 -0.09179215
-1.2645661 0.045107696 0.0953351 0.09823145 -0.11557054 -0.8000321 -0.6166978 -0.41381136
-0.27594298 5.5398472e-05 0.023041997 -0.097804874 -0.6339619 -0.14785284 0.15898074 -0.04753108
-0.055134043 -0.26683852 0.09082048 -0.07784372 -0.062474646 -0.09139952 -0.05300002 -0.26463312
0.063636996 -0.12743974 -0.16592152 0.12260764 -0.08603315 -0.3487546 -1.1044394 -0.11190542
0.032531872 -0.046955675 -0.7129837 -0.13249016 -0.097813234 -0.049709156 -0.079914674 -0.10305158
0.03724075 -0.025619823 -0.10985535 -0.067215145 0.07506042 -0.24526854 0.03304581 -0.060910396
-0.010307529 -0.026749464 -0.038941488 -0.43134016 -0.02013018 -0.11089721 0.027933175 0.12660158
0.029927274 0.0646395 0.15599796 -0.5279989 0.028363949 0.21455093 -0.11754771 0.10869671
-0.02263973 -0.43283883 -0.41822156 0.064137146 0.06041876 -0.12597823 -0.14350572 -0.027654238
0.10060567 -0.40552786 -0.10724068 -0.41932234 -0.7115633 -0.1917716 -0.13368198 -0.22703694
0.11952946 -0.12016049 -0.054617744 -0.024118748 0.07978626 0.009015393 -0.31271702 -0.09656912
-0.22714402 -0.14514223 0.041436028 0.08377335 0.07657332 -0.115456305 0.27516678 0.19560246
-0.045310717 -0.09953694 -0.0695477 0.048600078 -0.21168627 -0.031326793 -0.023188416 -0.34086674
-0.028427808 0.0685497 0.10440831 -0.0044859117 0.044829484 -0.0036494115 0.11996891 -0.116942964
-0.018430118 -0.1753121 -0.04993275 0.23804113 -0.11488958 -0.14323942 -0.054771744 -0.03786422
-0.07424256 -1.0455124 0.6862537 -0.17071158 0.04801903 -0.9603876 -0.22059537 0.14257786
0.016868047 -0.24888189 0.06608005 -0.14848426 0.065877885 -0.5140462 0.013897105 -1.2749854

fc2.bias f4 [128]
00000000: 8e47 dcbe b79e 71be 73d0 afbd 1974 c4bd
00000010: 3dd2 5dbd a795 8d3e 449d cebc 403a abbb
00000020: 1b61 d63d ca53 9b3e 3f4b 883e 263b dc3d
00000030: 3754 1e3c 6110 dabe 0e8f 58be a887 88be
00000040: 88b2 053e 721f 4dbd 7c2b d83d bb4e e6be
00000050: 7ec9 8e3e 6498 cfba 0c53 6fbd 4cb8 fa3d
00000060: ad27 31be 7726 38bf 6246 0a3e bfc3 89bb
00000070: 9257 c6bd c080 2e3d c1bb 263d f390 443d
00000080: 211f e63d 26c2 44bd 36b7 853b d075 3b3d
00000090: ecd3 90bd 6ab4 4b3e 5cca 243e 50fa 9dbd
000000a0: 75fb 3b3e 39d2 a8bd 335a 0b3e 859c 94be
000000b0: 0337 e5bd 16aa bc3d 2d20 babe 5751 00bd
000000c0: f388 5d3e 9456 71bd a547 61bd 72ba 423c
000000d0: 5550 0a3e fe0b 68be 298d 803e 4250 6dbd
000000e0: 6f80 c2bd c851 2c3e a015 853d 5e59 323e
000000f0: 6d65 bcbc ac33 243c af43 a73e c81b 0bbd
00000100: ac1f ac3b b066 63be 2c67 3fbd 6313 78be
00000110: 8627 033e 9938 1e3d 1af2 2abe 4e74 5abe
00000120: 381e 09be 6fb9 8cba e909 e1be 3d0d ce3a
00000130: cac1 b63d 1a53 7e3d a71d 86be b355 e23b
00000140: 3e99 05be c495 f23c 10a8 87be fd7a f2bc
00000150: a6ef 433e 1694 2fbe 3965 943e e60d 4fbe
00000160: 5ae1 34be ead6 f1bd 04b5 2abe a286 16be
00000170: 5d54 6e3e 6680 123e e8de 623e 5358 2cbe
00000180: 878e d63c 7a19 9cbd 10fa a13d 27f2 3abe
00000190: ae55 663d 4363 15be 15aa 80bd f435 46bc
000001a0: 2396 12bc fa9e 163e 7373 c9bd d427 97bd
000001b0: 512d 0c3e 41dc 2d3e 0526 aebe 60ed 99be
000001c0: c53f 1e3e 128b 2f3c 6809 a13d 7346 8dbd
000001d0: b54c cabd be03 383d 491c fabc 99aa 8e3e
000001e0: 00e0 5d3e 7f22 c6bc 4df0 24be 47c1 5dbc
000001f0: af7d b23d 9d7d d83d e320 82bd 40be 29be
-0.43023342 -0.23595701 -0.085846804 -0.09592456 -0.054155577 0.27653238 -0.025221474 -0.00522545
0.1046774 0.30337363 0.26619908 0.10753469 0.009663633 -0.4259062 -0.21148321 -0.26665998
0.13056386 -0.050078817 0.10555169 -0.44981942 0.278881 -0.0015838263 -0.05842881 0.12242183
-0.17300291 -0.7193369 0.13503411 -0.004204243 -0.096846715 0.042603254 0.0407064 0.047989797
0.11236406 -0.048036717 0.0040806783 0.04576665 -0.07071671 0.19893041 0.16092819 -0.07713759
0.18357642 -0.08243222 0.13608627 -0.29025665 -0.11192133 0.09212129 -0.36352673 -0.03132757
0.21634273 -0.058920458 -0.054999966 0.011885272 0.13507207 -0.22660825 0.25107697 -0.057937868
-0.09497153 0.16828072 0.06498265 0.17416903 -0.022997582 0.010022085 0.32668826 -0.03396204
0.005252799 -0.22207141 -0.04672925 -0.24226145 0.12808046 0.038628194 -0.16693917 -0.21333429
-0.13390434 -0.0010736416 -0.43952873 0.0015720498 0.08923681 0.06209097 -0.26194498 0.006907189
-0.13046739 0.02961243 -0.2649541 -0.029599661 0.19134387 -0.17146334 0.28983477 -0.20220146
-0.1766409 -0.1180857 -0.16670614 -0.14699796 0.2327437 0.14306793 0.22155344 -0.16830568
0.02619101 -0.07622047 0.07909024 -0.18256436 0.056234054 -0.14588647 -0.062824406 -0.012097824
-0.008946928 0.14709082 -0.09836473 -0.073806435 0.13689162 0.16978551 -0.34013382 -0.30063915
0.15454014 0.010714309 0.07863122 -0.06898203 -0.09877912 0.044925444 -0.030531066 0.2786453
0.2166748 -0.02418637 -0.16107292 -0.01353485 0.087153785 0.10570834 -0.06353929 -0.16576481

dist.fc_mean.weight f4 [4, 128]
00000000: 457f b03c 5449 5abc af31 ae3c 6026 613c
00000010: d146 023c ad93 a3bb 8e1b 4a3f ebdb eab9
00000020: 77ab 0d3b 5cfb 5ebb c0c7 0c3c 62e8 d7ba
00000030: 19bc 5fbb 7ce5 763d c154 323f 678f 6ebb
00000040: a18f ac3a bc8d 183b f231 04bb a191 9d3f
00000050: 2dbb 9fbb a8e6 9aba 8404 cfba a6f6 c1ba
00000060: 202a 91be 43f2 74be 7c48 33bb e2fe 79bb
00000070: d02d b53a fcb0 413a 1010 d43c a23d 183c
00000080: 252f 5cbb 83bc 1bbb 56d2 c63b ed4c 0ebc
00000090: 1abf 5fbc 3daa 68bc 9fbd 303f 9812 c7bc
000000a0: d695 cbbb 3d2d 7d39 02fd b23b 524e 21be
000000b0: b75e 40bb 126d adbc d364 36bc 02d9 0cbc
000000c0: 6e18 303c 5945 973c 00c6 563d 066d 303d
000000d0: 588a e1bb 88e0 39bb 275a cdbb 317c 15bc
000000e0: d02b 6c3e b5ac 89bb d608 9cbb ac75 74bb
000000f0: 4adf 623c 675a bf3c d1a4 eeba c992 99bc
00000100: 5b50 b2bb ec90 d2bb 1a8c a5bb 1c17 9b3c
00000110: 17e0 0e3d 0a75 c6bb e7cc 95ba a4c4 3c3c
00000120: 9912 14bb d206 a1bb c547 4a3e 5206 d13b
00000130: 0823 b8b9 9303 eebb 2030 82bc ec3a 4fbb
00000140: caf4 c3bd a522 283f 9921 1a3a 04fc d03b
00000150: 5d90 23bc 0c61 83bc 3774 33bb a8cb 933c
00000160: 9b7b 2dbb 6b48 d7bc ca6e d0bc c207 b73a
00000170: f18a 003b 0512 d63c 065f 673b 0a47 4a3b
00000180: e9c1 33bb 737d 7c3e ec52 e738 2f3e 07bc
00000190: 8b59 803a 6715 b13b f060 5e3d 52f9 91bc
000001a0: 18e2 91bb d06b 84bb d30d 7c3b 1e2c 1abb
000001b0: fbb4 cbb9 05d0 1ebc 091d 1abe ffb1 4abe
000001c0: 6c23 7bbb 6549 e13a d5e2 913a 87d8 663e
000001d0: c6b7 92bd 97f1 cdbb 1fe3 82bc 185f adba
000001e0: 7e61 a7bb 8dc2 5d3e 73ca 4d3c 7b17 703c
000001f0: f035 adbb a934 3cbd 32d7 083e edc6 083c
00000200: 8c8c 3e3a 1723 d2bc 7e4a 78bd 6a0e 84b9
00000210: 5b1a be3c 775f c538 e7d3 823c 16fc 9e3a
00000220: 5ef4 e1ba b295 b7ba f2f7 273b 93c9 b4b9
00000230: d6b6 a63c 71d5 b63b 9d0e 323c 5b1a 53bb
00000240: 494e 7bbb 9c1c 4ebc 0c52 953a d8f3 023a
00000250: dd27 f6b9 3d53 7b3c 40d1 833a 7ca2 6fb9
00000260: d50e 8d3c 6d1d a4bb f698 a93a 1994 b23c
00000270: 5463 58bb 804e 2ebc 1af4 0dbc 8231 e43a
00000280: fe3b 2d3b 9cd3 9b3c 029c e8ba a175 49bb
00000290: 55a6 6f3a 5f53 35bb 280f 8d3b bb43 573f
000002a0: 2cd6 f339 0667 8f3b 5008 95ba c23c 28be
000002b0: f81f 3a3b 06e7 18ba 36da 57bd 23b8 513c
000002c0: 6ac4 6bba 5f75 c03c 55d6 00bd c942 173c
000002d0: ea4d 8e39 d032 42be 2f7c aa38 23d1 6fbc
000002e0: fe73 943c 8f1a 1c39 f49f d1ba 4eb3 c639
000002f0: f110 0f3b 726b 38ba 2f4e d1b8 5314 1bbb
00000300: 89e2 14ba a94b cfbb c36c ff3c b836 63bd
00000310: d601 053b cf9c 783b e11c 123f b319 91ba
00000320: a419 0fbb 5f57 5f3c 26d6 13bf 1948 5e3b
00000330: fa9b 52bb 58d2 8bba 48e2 8d3d 5015 31ba
00000340: 105a 7ebc a8b1 4fba b401 d1bb d346 fdba
00000350: d9b8 113a 7e25 533c 16fe 743b 97f8 5e3c
00000360: a528 db3e 5c51 34bc 8b89 b93a e26e 2dbc
00000370: 7df6 c3b9 092e e43a 9f38 c339 1505 0dbc
00000380: 3444 43bf 3e20 963c 2f6e 71bb a31a 1ebc
00000390: c9a4 03bc 92d7 4e3d 6238 92bc 8a40 c4bc
000003a0: 6c54 a2ba 4764 f339 0fd5 c0bb 30b7 263b
000003b0: c9e3 ec39 5ab7 f5ba 758f 073d aceb efba
000003c0: acce ba3a 39ae 21bc de62 f73a b019 d7bd
000003d0: 3473 74bc a981 913a 8558 7d3c 04e5 8dbb
000003e0: ee5f 943a afff 9f39 e673 ed3d c436 0c3c
000003f0: 060b bcbb b797 94bb 9454 d5bb 84f9 8b3c
0.021545062 -0.013323147 0.021263925 0.0137420595 0.007951454 -0.0049919696 0.78948295 -0.0004479581
0.0021617094 -0.0034024334 0.008592546 -0.0016472454 -0.0034139215 0.060277447 0.69660574 -0.0036401392
0.0013165363 0.002327784 -0.0020171371 1.2310067 -0.004874608 -0.0011818008 -0.0015794192 -0.0014798238
-0.2835245 -0.2392054 -0.0027356436 -0.0038146307 0.0013822857 0.00073887384 0.025886565 0.009292038
-0.0033597436 -0.0023763485 0.0060675545 -0.008685333 -0.013656402 -0.014200744 0.6903934 -0.024300858
-0.00621293 0.00024144813 0.00546229 -0.15752533 -0.002935333 -0.021170173 -0.011132437 -0.008596661
0.010748012 0.018465685 0.05243492 0.043072723 -0.006882947 -0.002836259 -0.0062668505 -0.009123848
0.23063588 -0.0042014965 -0.0047617955 -0.0037301583 0.013847182 0.023358537 -0.0018207078 -0.01874675
-0.005441708 -0.0064259674 -0.005052102 0.018931918 0.034881677 -0.0060564326 -0.0011428864 0.011521492
-0.0022594093 -0.004914143 0.1975394 0.0063789273 -0.00035121315 -0.0072636097 -0.015892088 -0.0031620814
-0.09568174 0.65677863 0.000587964 0.006377699 -0.009983149 -0.016037486 -0.0027382502 0.018041447
-0.002647138 -0.026279649 -0.025443453 0.0013964104 0.0019614066 0.02613164 0.003530444 0.0030865096
-0.0027428812 0.2465723 0.00011030384 -0.008254572 0.0009792311 0.0054041627 0.054291666 -0.01781908
-0.0044520013 -0.0040411726 0.0038460388 -0.002352483 -0.00038854018 -0.00969315 -0.15050139 -0.19794463
-0.0038320674 0.0017188011 0.0011130223 0.22543536 -0.07163958 -0.0062849033 -0.01597744 -0.0013227193
-0.0051080575 0.21656246 0.012560475 0.014654036 -0.005285971 -0.04594866 0.1336334 0.008348209
0.0007268868 -0.025651498 -0.060617916 -0.0002518774 0.023205927 9.411474e-05 0.015970184 0.0012129571
-0.0017238965 -0.0014006405 0.0025629965 -0.0003448246 0.020350855 0.0055796434 0.010867742 -0.0032211754
-0.0038346222 -0.012580063 0.001139225 0.0004995442 -0.00046950477 0.01533967 0.0010056868 -0.00022853346
0.017218987 -0.0050083906 0.0012939263 0.021799134 -0.0033018189 -0.010638833 -0.008664155 0.0017409774
0.0026433463 0.019021802 -0.0017746689 -0.0030740278 0.0009141912 -0.0027668101 0.0043047853 0.84087723
0.00046508142 0.004376295 -0.0011370275 -0.16429427 0.0028400403 -0.0005832765 -0.052698337 0.012800249
-0.00089938066 0.023493467 -0.031454403 0.009232231 0.000271424 -0.18964696 8.129363e-05 -0.014637264
0.018121716 0.00014887213 -0.0015993104 0.00037899095 0.0021830166 -0.00070350536 -9.9804594e-05 -0.0023663237
-0.00056795083 -0.006326158 0.031179791 -0.055472106 0.0020295284 0.0037935262 0.57075316 -0.0011070281
-0.0021835351 0.013631671 -0.5774864 0.0033917485 -0.0032136426 -0.0010667546 0.06927925 -0.000675519
-0.015524402 -0.0007922896 -0.006378377 -0.0019323475 0.00055588555 0.012887357 0.0037382892 0.013609073
0.42804447 -0.011005726 0.0014155371 -0.010585519 -0.00037376946 0.0017408739 0.00037235484 -0.008607169
-0.76275945 0.018325921 -0.0036839356 -0.009649905 -0.008034893 0.050498553 -0.017849151 -0.023956556
-0.0012384779 0.00046423284 -0.0058847736 0.0025438778 0.0004518314 -0.001874666 0.033095796 -0.0018304489
0.0014252267 -0.009868198 0.0018874069 -0.105029464 -0.014920045 0.0011101264 0.015462999 -0.0043302793
0.0011320093 0.00030517342 0.115943715 0.008557979 -0.005738619 -0.0045346874 -0.0065103266 0.017086752

dist.fc_mean.bias f4 [4]
00000000: fa94 873b c04f cb39 e111 47b6 f6eb 463b
0.0041376324 0.00038778596 -2.9663718e-06 0.0030353046

dist.fc_logstd.weight f4 [4, 128]
00000000: bba9 13c0 974b 65bf ae8f 0fbd 598a d63f
00000010: e61f 2940 2ebb 5ebf a6f4 1cbf 4fe3 4ac0
00000020: 9927 1cc0 6d67 4a3f 3ae1 09c0 147f 333f
00000030: 973e 76bf fb3d 29be 0d1c a03f 602f 9bbe
00000040: 1fb5 90bf eda2 08c0 ff2c 52c0 ae95 5e3e
00000050: 64cc 3bc0 0e5b 8cbe da1f 80c0 3981 72bc
00000060: 7e21 003f 1e14 0c3f cfb4 c0bf acc6 00bd
00000070: 199c 5bc0 dde0 a9be 9585 2a3f 3838 813f
00000080: 34d8 37bf c0e4 c0bf b8d9 dfbf 1ad4 a8c0
00000090: 4bd4 48c0 9364 0ec0 236e 8a3f 0277 793f
000000a0: 45ac 76bf 8caa 38c0 34fd d03f 533c 64be
000000b0: 0828 0fc0 8ec0 51bf 9d34 573e d3b0 e3bf
000000c0: b610 62bf 2f0e 00bf 4499 273f 2856 30bd
000000d0: 4d6a e2bd a7f9 50bf 4eef 99bf f762 cfbe
000000e0: 9633 d53f 7717 0840 af65 d9bf 90be 9cc0
000000f0: d4d0 4140 aec6 c9bd 9b2a 4abf 554d 8fbe
00000100: 1967 76be 0cf5 80be 5d68 87bf 6f01 913e
00000110: f359 7a3f dc35 16c0 508d 813e 41e2 14c0
00000120: a752 663e f96d c3be 8bd7 343f b9c1 29be
00000130: 2491 27c0 b783 7cbe 4aa3 2bbf f769 83be
00000140: bd78 14bc aa5c 053f c5f8 053f a8f2 86be
00000150: c892 7b40 4528 adbd 0de4 60bf 1ce6 cf3d
00000160: df1a 89be d7f5 03be ef73 5f3e d5f6 bcbf
00000170: f852 fabd e63c 1bbf 13e2 c6bf 57e8 a3bf
00000180: 5ee4 dabf 3533 213b 292b 59be b714 d6bf
00000190: cce8 683d 8b1a 88bd 0edc a13d 8dbe 0ebe
000001a0: b3ba 96c0 2dfc 6b40 f3bc 28bf f194 eabf
000001b0: 53b8 2fc0 c30b f53f c304 2c3d 5256 7540
000001c0: 162f 06bf e4b7 4abf 586c 72c0 d0af 54bf
000001d0: e130 c63d 91fb 6840 303b c3be 4f0c fbbe
000001e0: d5c2 c9be 2ce3 a33f 1a31 5cbf 8bd2 3cbf
000001f0: d072 08c0 fe64 1f40 d637 67bf d768 6fbe
00000200: 869f e63e 7d54 7abf a174 0dbd d01b 1cc0
00000210: 9d8c 87bf 59be fabf e3b4 68bf d0d5 16bf
00000220: 85ae 22c0 6c23 9fbf 1ca1 d13f 47a6 16c0
00000230: b743 b4bf 5842 6cbf 9646 5dbf b7b8 c2bf
00000240: 6ba7 8cbe 14fb 63bf beba ddbe 122d f0bf
00000250: 4d4d eebf b992 0dbe 1070 9abf 4a6a 11c0
00000260: cbcb 75bf 68b1 e33e c16d 90be c0d3 d8bf
00000270: 6f6f e3be dc39 97be 9a8d 10c0 f2dd 37c0
00000280: 1cca 27c0 c5be 15c0 aa14 e9bf e500 0fc0
00000290: d174 e1bf f259 fb3e 20ad 93bf 21c6 943f
000002a0: 4062 90bf cc94 6ebf 50e2 23c0 5d91 843e
000002b0: 14ec c53e b53c d8bf 0239 c83e c966 6ebf
000002c0: e9dc 70bf 6c65 59bf 3ed3 87bf 12dc afbe
000002d0: 0912 18c0 be82 99be 578a 0b40 2faf 1fbf
000002e0: 8b0e 80bf b24b ccbf 1fa7 b4be e919 debe
000002f0: 3180 11c0 48a5 b7be a3c1 00c0 2d31 24be
00000300: 2db3 1fbf f1c1 c0bf 6bf7 6bc0 973b a2be
00000310: c392 03c0 54d8 59c0 4403 2e3e fc09 8ebd
00000320: 378e d8bf 2c0c 09bf d9d3 01be 2e65 50be
00000330: f868 303f 55f8 8ebf 643d 593e a32c 42c0
00000340: 6e2f 12bf ac39 56bf 65ce 1d3f 7581 76bf
00000350: 9272 00c0 9d43 37bf 397f 0640 54ae 223f
00000360: 37b9 1a3f cb28 a5be e535 8bbf 292e d9bf
00000370: b3e6 11c0 80ca bd3f 142c 07c0 6952 623f
00000380: 496e 4f3e 6b1a 02bf 589f c4bf 7673 e3bf
00000390: c821 18c0 df96 9abd 83ad 0bc0 5988 d8bf
000003a0: e52f d0bf d4a1 1dc0 2391 dfbf 0f95 00be
000003b0: 6fe8 e2bf 3d53 3e3e 85b4 193e 416d 8b3f
000003c0: a40d 9c3e e155 90bf dca9 ecbf 8697 b53d
000003d0: 693a 9fbf 1422 48bf b6ac 05bf 9862 42be
000003e0: 4794 1f40 7532 973c 2b74 f4be 10c5 e6bf
000003f0: b70f 6abe dd3f 9bbf 6d38 17c0 8665 c8bf
-2.3072345 -0.89568466 -0.035049133 1.676097 2.642572 -0.87004364 -0.61310804 -3.1701238
-2.4399168 0.79064065 -2.1543717 0.7011578 -0.96189255 -0.1652755 1.250856 -0.30309582
-1.1305274 -2.1349442 -3.2839963 0.21736786 -2.93435 -0.2741322 -4.003888 -0.014801317
0.50051105 0.54718196 -1.5055178 -0.03143947 -3.4314024 -0.3317937 0.6661008 1.0095282
-0.71814275 -1.5069809 -1.7488317 -5.2758913 -3.1379573 -2.2248886 1.0814861 0.97447217
-0.9635661 -2.8854094 1.6327271 -0.22288637 -2.2368183 -0.8193444 0.21016164 -1.7788337
-0.8830675 -0.5002164 0.6546824 -0.043050915 -0.110554315 -0.8163094 -1.2026155 -0.40505192
1.6656368 2.1264322 -1.6984156 -4.898262 3.0283709 -0.09852348 -0.7897126 -0.27988687
-0.24062766 -0.25186956 -1.0578724 0.28321406 0.977935 -2.3470373 0.25303125 -2.3263094
0.22492467 -0.3816984 0.7064139 -0.16577806 -2.6182337 -0.2465962 -0.67046034 -0.25666782
-0.009061989 0.5209452 0.5233272 -0.26357007 3.9308338 -0.084549464 -0.8784798 0.10151312
-0.26778314 -0.12886749 0.21821569 -1.4762827 -0.12222856 -0.606398 -1.5537742 -1.280528
-1.7100942 0.0024597172 -0.2120787 -1.6725072 0.056862637 -0.06645688 0.079033 -0.13939877
-4.7102904 3.6872666 -0.65913314 -1.8326703 -2.7456253 1.9144214 0.04199673 3.8333936
-0.524156 -0.79186845 -3.7878628 -0.8308077 0.09677292 3.6403544 -0.38131094 -0.49032828
-0.39406458 1.2803702 -0.86012423 -0.73758763 -2.1320076 2.490539 -0.90319574 -0.23379837
0.45043582 -0.9778517 -0.034535054 -2.4391975 -1.0589787 -1.958934 -0.9090101 -0.5892
-2.5419018 -1.2432685 1.6377292 -2.3538988 -1.4083165 -0.9228873 -0.8643583 -1.521262
-0.2747148 -0.8905499 -0.43306535 -1.8763754 -1.861734 -0.13825502 -1.2065449 -2.2721124
-0.9601409 0.44471288 -0.28208736 -1.6939621 -0.44420955 -0.2953633 -2.2586427 -2.8729215
-2.6217108 -2.3397686 -1.8209431 -2.2344296 -1.7613775 0.4909206 -1.1537209 1.1622964
-1.1279984 -0.93195796 -2.560688 0.25892153 0.38656676 -1.6893526 0.39105994 -0.9312559
-0.9408708 -0.8492038 -1.0611341 -0.34347588 -2.3761008 -0.2998256 2.1803186 -0.62376684
-1.0004438 -1.59606 -0.35283753 -0.43379143 -2.2734492 -0.35868287 -2.0118186 -0.16034384
-0.62382776 -1.5059186 -3.6869762 -0.31686088 -2.0558326 -3.4038286 0.16993433 -0.06935498
-1.69184 -0.535342 -0.1267847 -0.20351097 0.6891017 -1.1169535 0.21214825 -3.0339744
-0.5710362 -0.8368175 0.6164306 -0.96291286 -2.0069928 -0.71587545 2.101515 0.63547254
0.60438865 -0.32257685 -1.0875822 -1.6967212 -2.2797058 1.4827423 -2.1120653 0.88407
0.20256914 -0.5082156 -1.5361128 -1.7769611 -2.3770618 -0.075483076 -2.1824653 -1.691661
-1.6264616 -2.4630022 -1.7466167 -0.12556861 -1.7727183 0.1858644 0.15010269 1.0892717
0.30479157 -1.1276208 -1.8489337 0.088667914 -1.24397 -0.78177 -0.5221666 -0.18982923
2.4934251 0.018456677 -0.4774488 -1.8028889 -0.22857557 -1.2128865 -2.362819 -1.5655982

dist.fc_logstd.bias f4 [4]
00000000: ee00 68bf c95f a5bf 7496 89bf e574 fdbe
-0.9062642 -1.2919856 -1.074904 -0.49503246

exp_avg f4 [128, 15]
00000000: f200 a53d 7743 3bbe c15b 243f b7dd 4fbe
00000010: e6b9 2f3d b8c9 adbe dc90 c53b f72d 973e
00000020: 6768 0cbe 3105 a0bd 781d 4f3e e3e5 f3bc
00000030: 0000 0000 0000 0000 3db8 8d3f 45ad b73c
00000040: 3256 053c 4ee2 7d3e b64e 573d 753c 8bbd
00000050: b4c9 debd 00e2 0ebd a6a7 9cbd 35f3 2e3c
00000060: d0ee 49be 55c7 2ebe 5f4b e8bd 0000 0000
00000070: 0000 0000 6d5f 803e b7cb e93c f9c8 d1bc
00000080: 91ab cb3b f58e 8fbc 1762 16bd 2e18 c63b
00000090: 5c54 3e3b ab50 f43c 08ef e43c 6a10 3cbc
000000a0: 2beb efba 98d2 4f3b 0000 0000 0000 0000
000000b0: 8148 063c 1028 b8bd 92c7 fcbd 6b1c 4c3f
000000c0: 0dd1 e23e 27bf 703d 59b4 333e 130f 103e
000000d0: feea 8d3e ae8a e43e 62c6 cfbd b772 a93e
000000e0: 8433 eb3e 0000 0000 0000 0000 7092 46be
000000f0: 6794 40be 5140 27be 01d2 6abe e3b0 a3bd
00000100: 534b 0f3e 9874 763d 08b0 c63d fc9d 0b3e
00000110: e049 2dbe 26ab ad3e c6e9 a73e 4fb6 45be
00000120: 0000 0000 0000 0000 c505 8cbd 1789 893d
00000130: fdfc 05be 077b 7b3c a857 e8be 58ac 033e
00000140: 1c16 cbbd a6a7 9c3d e522 2c3f 4823 a1be
00000150: a1dd 52bb 825f d83e cd4f e3bd 0000 0000
00000160: 0000 0000 55d1 b33e 4f36 af3d f91f 5fbc
00000170: 406e 77bd 712a fe3c 1a1a 20bd 701b 35be
00000180: 2715 babc 4752 0abe ca96 573f c088 aebc
00000190: 8574 20be 6923 8d3e 0000 0000 0000 0000
000001a0: b043 0c3f d67d d1bb 3b2b d53d 528c f13f
000001b0: 048f 983e 7a29 cdbd 09a4 40bf 3897 15be
000001c0: 6428 21be 2901 b23d 1571 dfbc 5b31 1c3f
000001d0: c616 683e 0000 0000 0000 0000 ec62 3c40
000001e0: 7609 6cbd 8834 0cbd c483 f13b 7135 9e3d
000001f0: cbdb a5bc 82d9 9cbe 3771 c7bb da80 2bbd
00000200: 01aa 863f a066 91bc 3edb 94bd 98eb 103d
00000210: 0000 0000 0000 0000 306c 833f aa05 79bd
00000220: 45f6 4bbd ad13 d2bd 8c33 dc3b f737 a43b
00000230: f3d9 acbb 18b6 9bba 311c 4bb8 9ad8 a9bd
00000240: 94c0 83bd f0f7 893b 5c9f 28bd 0000 0000
00000250: 0000 0000 d226 60bc 02ac a6bd 2d80 98bd
00000260: d871 833d 885e 99bc 0c4f 9a3d 682d 383c
00000270: 97d0 ea3c 21d8 bebc e5f4 45bd 1e1b aa3c
00000280: 8990 f7bc f5ff a8bd 0000 0000 0000 0000
00000290: 0585 81be 2858 2f3e 9637 5f3d 7f65 dcbe
000002a0: 0541 16be bffa c0bd 1808 53be 6a6e 28bd
000002b0: 7ce6 9bbe 4938 563e ae5a 8fbd 6718 c3be
000002c0: b237 9abe 0000 0000 0000 0000 1bd0 623e
000002d0: fa0b e13c de53 51bc 9a9c be3d b7c8 373e
000002e0: 1f23 4b3c d6bb b63c b198 b83c cb09 21be
000002f0: 5687 15be 2fea 8fbc b589 60bc f5c0 9f3d
00000300: 0000 0000 0000 0000 4e43 793e 883c 0d3e
00000310: 814b c33d 83bc 08bf 306a 0cbe 18ff febd
00000320: e291 03bf be2c 31be d507 adbe 95cc 933f
00000330: c176 04be 441f bfbe 2705 26be 0000 0000
00000340: 0000 0000 79ee a93f aea3 fbbd add6 bfbd
00000350: a4df f33e fd5e 573e b617 043e 699c 3a3e
00000360: e7ad c73d 75fc 223e c4aa 35bd 8564 eb3b
00000370: 6b38 173e b1b2 1a3e 0000 0000 0000 0000
00000380: 0c1d e2be 747d 1fbe 9080 a83d 2c9f 86bc
00000390: 0475 a2bd 9121 1ebd ef06 bf3d e65e 2ebd
000003a0: 2bdf b53c 0e43 dd3c 8b50 35be c5f3 b3bd
000003b0: 73da cf3d 0000 0000 0000 0000 bd09 14be
000003c0: c40e bc3d cfb0 9c3d cced 863c 7e4a 93bc
000003d0: 7792 c9bd 0bc3 583c 98b2 bc3a 44e6 853c
000003e0: a208 df3d 33bf 983b 9372 60bd 754f ce3d
000003f0: 0000 0000 0000 0000 e6f5 92bd 3048 94bc
0.08056821 -0.18287455 0.64202505 -0.20299421 0.042901896 -0.33942962 0.0060292315 0.29527256
-0.13711701 -0.0781349 0.20226085 -0.029772704 0.0 0.0 1.107185 0.022421489
0.008138226 0.2479336 0.0525653 -0.06798641 -0.108783156 -0.0348835 -0.07649164 0.010678102
-0.19720006 -0.17068227 -0.11342501 0.0 0.0 0.25072804 0.028539522 -0.025608527
0.0062155207 -0.017524222 -0.03671464 0.006045363 0.0029041981 0.029823622 0.02794601 -0.011478523
-0.0018304338 0.0031711217 0.0 0.0 0.008195997 -0.08992016 -0.123427525 0.7973086
0.44300118 0.058776047 0.17549266 0.1406825 0.27718347 0.44637054 -0.101452604 0.33095333
0.4593774 0.0 0.0 -0.19391799 -0.18806611 -0.16333129 -0.22931673 -0.07992723
0.13993578 0.060169786 0.09701544 0.13634485 -0.16922712 0.33919638 0.32795542 -0.19307826
0.0 0.0 -0.06837038 0.06715601 -0.13084789 0.015349156 -0.45379376 0.12858713
-0.099163264 0.07649164 0.67240745 -0.3147223 -0.0032175558 0.42260367 -0.11099205 0.0
0.0 0.35120645 0.085552804 -0.013618463 -0.060407877 0.031026097 -0.039087392 -0.17686248
-0.022715164 -0.13507949 0.8421446 -0.021305442 -0.15669449 0.27566078 0.0 0.0
0.5479078 -0.0063931746 0.10408636 1.8870947 0.29796612 -0.10017677 -0.752503 -0.14608467
-0.15738064 0.086916275 -0.027275601 0.6101281 0.22664937 0.0 0.0 2.9435377
-0.05762621 -0.034229785 0.007370444 0.07725037 -0.020246407 -0.30634695 -0.0060864943 -0.04187093
1.0520631 -0.01774913 -0.0726838 0.03538093 0.0 0.0 1.0267391 -0.060796417
-0.049795408 -0.10257659 0.006720012 0.0050115543 -0.005275005 -0.001187983 -4.8425227e-05 -0.082932666
-0.06433216 0.0042104647 -0.041167602 0.0 0.0 -0.0136811305 -0.08138277 -0.074463226
0.06418198 -0.018721834 0.07534608 0.011241294 0.028663917 -0.023296418 -0.048329253 0.020764884
-0.030220287 -0.08251945 0.0 0.0 -0.25296798 0.17123473 0.05449637 -0.43046185
-0.1467324 -0.09422826 -0.20608556 -0.041120924 -0.30449283 0.20919909 -0.06999718 -0.38104555
-0.30120617 0.0 0.0 0.22149698 0.027471531 -0.012776343 0.09307213 0.1794766
0.01239851 0.022306364 0.022533746 -0.15726392 -0.14602408 -0.017567722 -0.013704707 0.078004755
0.0 0.0 0.24342081 0.13792622 0.095358856 -0.53412646 -0.13712382 -0.12450999
-0.51394475 -0.17302224 -0.33795038 1.1546808 -0.12935926 -0.3732854 -0.16212903 0.0
0.0 1.3275901 -0.12287079 -0.09367118 0.47631562 0.21032329 0.1289967 0.18223728
0.09749966 0.15916617 -0.044352308 0.0071836137 0.14767615 0.15107228 0.0 0.0
-0.44162786 -0.155752 0.08227646 -0.016433321 -0.07932475 -0.03860623 0.09327494 -0.04257097
0.022201141 0.027009513 -0.17706506 -0.0878673 0.10149088 0.0 0.0 -0.1445684
0.09182504 0.07650911 0.016470812 -0.017979857 -0.09842389 0.013230096 0.0014396487 0.01634515
0.108903185 0.0046614646 -0.054796766 0.10073749 0.0 0.0 -0.07175808 -0.018100828

exp_avg_sq f4 [128, 15]
00000000: 171c 5940 abff ab41 f986 3f40 1b33 4542
00000010: 93c2 143f a41d be40 4bff 4b3e d1de d041
00000020: 1a48 833f 2031 443f ca93 7541 1401 c840
00000030: 0000 0000 0000 0000 a83c 4e41 0172 853d
00000040: a314 483e d9e0 4c3f c462 183e 7620 233e
00000050: 7366 893e 4696 ab3c 4cb2 ee3d 3798 8f3f
00000060: 3772 463e a96e e33d 2c79 b63f 0000 0000
00000070: 0000 0000 a50f 6c40 3272 d53f 4837 1f41
00000080: e12c ea3e 9319 bc41 e4e4 d43e c8d5 3840
00000090: f8cd 443e 1a2f 4941 676b ec3e 16c8 cc3e
000000a0: 23e7 ea40 2d8e 4240 0000 0000 0000 0000
000000b0: 55fa 7b40 d856 9f3f 5f48 4c3f 2c80 593f
000000c0: e8a6 2e3f 5bfe 773f 92f9 2a3f 288c 023d
000000d0: e007 2e3f a3f5 9540 6965 273e 3e02 ae3e
000000e0: da4c ab3f 0000 0000 0000 0000 beed 9640
000000f0: 8efe 433f 5aa1 383f 7d01 e442 00c6 cd40
00000100: 329b 303f 6718 7240 f10e 1e3f b686 d140
00000110: dd43 6340 df22 913f 7a86 4c40 a72e 4a40
00000120: 0000 0000 0000 0000 f129 8743 163f b83e
00000130: 2fe6 6e3e 46a2 1d3e 1dbc 9a3f 2b76 093e
00000140: a571 b93d e4dc 3c3d eaa0 1540 7d85 083f
00000150: 474a 3f3d ba19 343f a28b 2a3e 0000 0000
00000160: 0000 0000 13fc 9c3f 31d6 3e41 2f05 8c42
00000170: f999 dd42 56bb 2243 8b2f 3a41 dae3 b141
00000180: f48b 853f 5c42 b142 ca91 a341 2e82 7c40
00000190: 150e 5042 e018 c141 0000 0000 0000 0000
000001a0: 652b a743 f294 563f 1417 ed3f 7108 a740
000001b0: f0de 7840 7e9d 163f ce40 863f 89b5 783e
000001c0: 57db 5a40 6254 9a3f 790b 1c3f ea09 3640
000001d0: 391c a53f 0000 0000 0000 0000 a605 7341
000001e0: 95b4 8d40 4eb1 6841 b700 e93e 0f09 4241
000001f0: 9fc8 3542 3c20 4640 40b3 473e fae3 da40
00000200: c799 e041 d4c1 9440 0da3 7840 9430 aa40
00000210: 0000 0000 0000 0000 9f46 9540 81f1 7d3f
00000220: ba4e f23e ddef ec3e 7c87 b03e 08b4 f23f
00000230: 28c4 fd3d 8f29 d33c 210e 883e 8ad9 7e3f
00000240: 188d 763e 8a38 9b3e 5800 c43e 0000 0000
00000250: 0000 0000 b8fa 703f f2e3 5941 86b7 ab42
00000260: 7b6c 5d40 8292 4743 da4c 3641 4e06 bb41
00000270: c546 383f 98d7 e342 a5ba 5d41 00b2 6540
00000280: 5c12 7b42 7497 cd41 0000 0000 0000 0000
00000290: 6b3f 3c42 6b68 2641 8af8 7442 0f16 2242
000002a0: f9fc 0d43 f9b6 0941 d6d6 9241 0e14 1c3f
000002b0: 55af 9a42 a143 4b41 96df 2f40 d7c2 3542
000002c0: 01c5 9d41 0000 0000 0000 0000 d0ad f242
000002d0: b13a 6f41 8256 a742 f277 a140 e044 2c43
000002e0: a07f 3842 8838 ad41 7ace 3a3f e28f b442
000002f0: 90b4 1342 82b1 da40 bab7 5842 a2a4 cb41
00000300: 0000 0000 0000 0000 bb7e 1442 076f 073f
00000310: 68fe 0d40 63ac 2d40 076e 3a40 233e 6241
00000320: f521 1640 8d07 f93d f70e 7c3f 4385 8640
00000330: 420b be3f 9298 933e 0fc1 3640 0000 0000
00000340: 0000 0000 d7fd 2241 1cbc 1140 a218 0841
00000350: 0c2f 2e40 b133 4841 3fe6 8941 6d31 0e40
00000360: 9ca3 523e 428b 0241 f0f3 3e41 fe27 f03f
00000370: 0d97 8640 8322 5d40 0000 0000 0000 0000
00000380: 739d 2541 f783 a13f 65f4 aa3f 50a6 6b3f
00000390: 99d6 133f a42b 903f 7aac 7d3f 33ed ce3d
000003a0: 4d3c 033f 30a0 5940 90bc 193f 98df 523f
000003b0: fa69 5b3f 0000 0000 0000 0000 275b ea40
000003c0: c4b9 653e 0f00 ea3d c759 cf3c e771 163e
000003d0: 5083 2c3e ae7a 5c3d 1f3e a63c 448d 7b3d
000003e0: 7f03 133e 7a81 0a3d d611 603d 7a6d 023e
000003f0: 0000 0000 0000 0000 bf4c 313e 6b5c 6f3f
3.3923395 21.499838 2.992613 49.299908 0.58109397 5.9411182 0.19921605 26.108797
1.0256379 0.7663746 15.348581 6.2501316 0.0 0.0 12.889809 0.06515885
0.19539122 0.8003059 0.14881426 0.15930352 0.26835975 0.02094568 0.11655101 1.1218327
0.19379507 0.11105091 1.4255729 0.0 0.0 3.6884549 1.6675475 9.950996
0.45737365 23.512487 0.4158088 2.8880482 0.19219196 12.573999 0.4617569 0.39996403
7.340715 3.0399277 0.0 0.0 3.937154 1.2448378 0.7979793 0.849612
0.6822343 0.9687249 0.66787064 0.031871945 0.67980766 4.686235 0.16347279 0.33986086
1.3382828 0.0 0.0 4.7165213 0.76560295 0.721212 114.00291 6.43042
0.6898681 3.7827394 0.6174155 6.547694 3.551017 1.1338767 3.1957078 3.1590974
0.0 0.0 270.32767 0.3598563 0.23329996 0.15393934 1.2088658 0.13423984
0.09054879 0.046109095 2.3379464 0.53328687 0.046701696 0.70351756 0.16654828 0.0
0.0 1.2264427 11.927293 70.010124 110.80073 162.73178 11.636607 22.236256
1.0433335 88.62961 20.446186 3.9454455 52.013752 24.137146 0.0 0.0
334.33902 0.8382102 1.8522668 5.2197804 3.888607 0.58834064 1.0488527 0.24288
3.4196374 1.2057002 0.60955006 2.844355 1.2899238 0.0 0.0 15.188879
4.4282937 14.543287 0.45508358 12.127212 45.44592 3.0957174 0.19501972 6.840329
28.075087 4.6486607 3.8849518 5.31843 0.0 0.0 4.6648707 0.9919663
0.4732569 0.4627675 0.34478366 1.8961191 0.123909295 0.025776653 0.2657328 0.9955069
0.2407726 0.30316573 0.38281512 0.0 0.0 0.94132566 13.618151 85.858444
3.4597461 199.5723 11.393763 23.378078 0.71982986 113.92108 13.8580675 3.5889893
62.76793 25.698952 0.0 0.0 47.06193 10.400493 61.242714 40.52154
141.98817 8.607171 18.3549 0.609681 77.342445 12.704011 2.7480216 45.440273
19.721193 0.0 0.0 121.33948 14.951829 83.66896 5.045892 172.26904
46.124634 21.652603 0.7297131 90.28102 36.92633 6.8341684 54.17942 25.455387
0.0 0.0 37.12376 0.5290379 2.2186527 2.7136467 2.9129655 14.14017
2.3458226 0.12159643 0.98460335 4.2037673 1.4847186 0.2882734 2.8555334 0.0
0.0 10.186973 2.2771063 8.506014 2.7216215 12.51262 17.237425 2.2217667
0.20570225 8.1589985 11.934555 1.8762205 4.205939 3.4552314 0.0 0.0
10.35094 1.2618397 1.3355833 0.9205065 0.57749325 1.1263318 0.99091303 0.10103836
0.51263887 3.400402 0.6005335 0.82372427 0.8570858 0.0 0.0 7.323627
0.22434145 0.114257924 0.025311364 0.14691888 0.16846967 0.053827934 0.020293294 0.06141402
0.14356802 0.033814885 0.05470451 0.12737074 0.0 0.0 0.17314433 0.93500394

exp_avg f4 [128]
00000000: cd4d 62bf b3fd 4cbe ed6d d6bb 4a8b 1e3e
00000010: ff97 5f3d fd91 8fbe e7fa dfbe 6469 16c0
00000020: 73dc 51bf 90f7 323c 85d2 4e3e 9617 35be
00000030: 4904 47be 4aad 87bf a388 b43e a964 ec3d
00000040: 37ac 6a3d c5b0 e93c 08fe 61be c6aa b93c
00000050: cbdc 30bf fb8f 123d 2b7d b0be b700 2cbd
00000060: 6893 123d 57b2 89be a593 0e3f a5be 073f
00000070: f885 bebd 8d65 fa3e 2a56 d93d 180b 203f
00000080: 6427 383f 43a1 683e ff4b fc3d 057b b73e
00000090: bda8 b73f 8582 5e3d 9eac 45be 400b 1e3f
000000a0: fb0d ac3d 4ae6 893f 1380 3fbf 5886 d33f
000000b0: e7ee 833f 68c9 873d 2f9e 233f d130 f1bb
000000c0: aa0a 60bd 79f5 d43d e910 d5be ba77 3340
000000d0: 1935 dc3d 076e 303e fa62 8abe 3d83 d2bf
000000e0: efcb f7be 7c35 4b40 c484 3d3f 262b c53d
000000f0: 3d72 6abe 4362 a3be 966c 89be f564 85bf
00000100: a58e 27bf 7a21 c13e 12c7 14bd 0368 b4bd
00000110: 9c21 b93e ef6c 353f 3f7d c8be c22e aa3f
00000120: 7108 0dbf 9acf 44bf bad4 04bf 701a 2d3e
00000130: 906e 65bf c551 84bd a3eb d1bd 13b6 26bd
00000140: 34a5 2d3e 4c0f 3a3e 8091 0ebe 738d 84bf
00000150: 63b8 0a3f 9931 1e3d 850e 12be b77d 34bd
00000160: 8580 9abe 703e 4cbf 72b8 053f 4c81 0f3c
00000170: cf06 243d be87 7cbe 600c f7be 501d 0d40
00000180: 061b 8cbf 482b 23bf e9fe cb3e 27c9 0b3e
00000190: afcd 37bd 4172 2fbd fd48 0ebf 0400 0000
000001a0: 4563 003f 80c0 bfbe 9150 e43a 554b 6dbf
000001b0: f554 dabe 144b 06bd 95b6 22bf 1d99 26bf
000001c0: dde4 413f 7fd2 5740 82d3 f2be ff26 2abe
000001d0: 2820 18bf a41a f33d 143a 173f 9561 123e
000001e0: 2978 2a3f 2725 d33f 41a5 0abd 67a7 3f3e
000001f0: 40fd 81bd b2d8 ce3d 5275 1cbe e1f3 663e
-0.88399965 -0.20018654 -0.006543866 0.15482822 0.054588314 -0.28041068 -0.4374611 -2.3501825
-0.81977004 0.010923281 0.20197494 -0.17684779 -0.19435228 -1.0599759 0.35260496 0.11542637
0.057293143 0.028526673 -0.22069561 0.022664439 -0.69086903 0.03578184 -0.34470496 -0.04199287
0.03578511 -0.26893875 0.5569404 0.53025275 -0.09302896 0.48905602 0.106121376 0.6251693
0.71935105 0.22717766 0.123191826 0.35836044 1.434837 0.054323692 -0.1930413 0.61735916
0.08401104 1.0773404 -0.748048 1.6525373 1.0307282 0.06630212 0.63913244 -0.0073605557
-0.05469767 0.10398383 -0.41614464 2.8041825 0.10752315 0.17229472 -0.27028638 -1.6446301
-0.48397776 3.1751394 0.7403071 0.096273705 -0.22895141 -0.31910905 -0.26840657 -1.0421435
-0.65452033 0.37720853 -0.03632266 -0.08808901 0.36158454 0.70869344 -0.39158055 1.3295519
-0.55091006 -0.76879275 -0.51887095 0.16904616 -0.8962183 -0.06460909 -0.10250022 -0.040700983
0.16957551 0.18169898 -0.13922691 -1.0355667 0.541876 0.03862152 -0.14263351 -0.044065204
-0.30176178 -0.7978277 0.52234566 0.008758854 0.040045556 -0.24661157 -0.4825163 2.204914
-1.0945747 -0.63737917 0.3984292 0.13650952 -0.04487389 -0.04283357 -0.5558012 6e-45
0.50151473 -0.37451553 0.001741903 -0.9269307 -0.42642942 -0.032786444 -0.6355985 -0.6507738
0.7573984 3.3722227 -0.47426993 -0.16616438 -0.59424067 0.11870316 0.59072995 0.14295037
0.665896 1.6495713 -0.033849005 0.18716203 -0.06347132 0.10099925 -0.15279129 0.2255397

exp_avg_sq f4 [128]
00000000: 9f78 0341 b77b 1640 2ca1 2040 4e6d 4040
00000010: d753 2c43 db25 483f 1922 5543 bbeb 1a41
00000020: 9d51 3e40 579e 193f b701 f041 bcb3 9a42
00000030: f652 bd41 7dce cf40 c726 d340 7a65 9540
00000040: 870c e23d e95f 6540 f20a a341 637f 6440
00000050: 9b2d ed41 a283 5741 81bb 0b40 8a3b 9042
00000060: cbd5 a23e c09f cf40 8ec8 9640 5c20 5542
00000070: 1d3a 0541 e0b2 e241 3389 de3f 6c6e a341
00000080: e64e 8641 ecf0 ae41 34e8 5d3f 6629 1042
00000090: dd92 0f41 ab74 3a42 0b64 9640 035d df40
000000a0: 086b d440 2cb9 1541 d248 a440 3002 5441
000000b0: 7314 3041 611d c040 1536 7141 5e65 443f
000000c0: 340a 9040 7b25 9941 7657 e53f d003 8341
000000d0: 66fd b641 7888 413f d955 0942 541d 0b40
000000e0: 7ae0 1f42 e413 bb40 a309 2d41 2c34 c142
000000f0: df13 7840 aedc 5340 e2f7 9b41 d13a 2841
00000100: 651c ae40 b2aa 8740 f92a e43f d0ff a140
00000110: 4c7a 913f 647b fe41 6151 8340 e8a4 d542
00000120: cefe 0540 25db 9f41 100c a341 b75b c041
00000130: 4d6d 3642 cfe0 a240 8ee9 ac3f 4688 8941
00000140: 8318 a740 f08c f340 4754 9a3f ce3b c040
00000150: 95a4 0440 96f6 0c42 0d43 2742 41f2 c63e
00000160: 6784 4641 e1bd 4841 5514 8940 c6d2 8b41
00000170: 8d3c 2640 0e2d 3242 fd28 ce41 6c0b 5c43
00000180: ce0d d642 66c8 e43f bfe5 e13f 83fe 0e43
00000190: ca0a 183f 8d74 7c42 0fbf 1e42 c58b 7925
000001a0: 5127 1f42 eb32 8541 f904 263e 136c 2a41
000001b0: cdfb 0941 7584 b93f 1a68 4542 01cd 8b40
000001c0: 048a 0c43 89d4 1142 4082 8043 aa4b 2341
000001d0: 19e2 cb42 fccd 3740 b3fe 4f42 0c3d 6741
000001e0: 55ba 0241 b31f 5d43 6378 0641 4ea0 c240
000001f0: 8c97 8241 7ae0 2f3f 166c 4540 ea13 0841
8.2169485 2.351301 2.5098372 3.0066714 172.3275 0.7818276 213.1332 9.682551
2.9737313 0.6000723 30.000837 77.35104 23.665508 6.493956 6.5984836 4.6686373
0.11037546 3.583979 20.380344 3.570275 29.647268 13.469637 2.1833193 72.11629
0.31803736 6.4882507 4.711982 53.2816 8.326688 28.337341 1.738562 20.428917
16.788525 21.867638 0.8668244 36.04043 8.973355 46.613934 4.6997123 6.980104
6.6380653 9.357708 5.133889 13.250534 11.0049925 6.0035863 15.075704 0.76717174
4.5012455 19.143301 1.7917316 16.376862 22.87373 0.7559886 34.333836 2.173665
39.969215 5.846178 10.814853 96.6019 3.8762128 3.3103442 19.496037 10.514359
5.440966 4.239587 1.7825614 5.062477 1.1365447 31.81025 4.103684 106.82208
2.093677 19.982004 20.38089 24.044783 45.60674 5.0899425 1.3508775 17.19154
5.221742 7.6109543 1.205697 6.0073004 2.0725453 35.240807 41.81548 0.388567
12.407325 12.546357 4.283732 17.477917 2.5974457 44.544 25.770014 220.04462
107.02696 1.7873657 1.7648238 142.99419 0.5939146 63.11382 39.68658 2.1644663e-16
39.788395 16.649862 0.16212834 10.651385 8.623975 1.4493548 49.35166 4.368775
140.53912 36.457554 257.01758 10.205973 101.9416 2.8719473 51.99873 14.452404
8.170491 221.12383 8.404391 6.0820684 16.323997 0.687019 3.084722 8.504862
