ppo/models/behavioral_cloning_agents_lunar/bc5/ckpts/000993600.pt (torch_old, 321280 bytes, 26 tensors)

fc1.weight f4 [128, 9]
0.066994 0.41834387 -0.3131808 -0.40672436 -0.13377129 -0.049597465 -0.1720415 0.2252924
-0.25031406 0.06431956 0.026028952 -0.0963165 -0.51665664 -0.22066343 -0.16704091 -0.0065212324
0.2730708 0.27640438 -0.58043116 -0.16893809 0.24928112 0.18407506 -0.25927764 0.33478767
-0.08679649 -0.04660895 0.24705993 -0.26365566 -0.3210233 -0.28989717 0.019563481 0.6290201
-0.16941065 -0.17057091 -0.020462582 -0.22929539 -0.31478438 0.26132774 0.16853943 0.024107289
-0.028809862 -0.14844231 -0.015171998 -0.096981496 -0.33860436 -0.3876603 0.2826653 0.33088845
-0.068200774 -0.2044857 0.38901225 0.45423454 0.12878181 0.041019823 0.22778128 -0.37752
-0.037422642 -0.3053575 -0.2951874 -0.24415275 0.12956205 0.24997196 -0.15868786 0.02565241
0.4352681 0.078090675 -0.13112636 -0.09870371 0.2330316 0.40010244 -0.11215755 0.013069368
0.12751713 0.12997411 0.27892846 0.3013314 0.085891455 -0.36772826 -0.07476659 -0.0060851425
-0.37496915 0.5041059 0.24400178 -0.36850336 -0.041775376 0.13102904 -0.34365693 -0.17945696
0.06741572 -0.09143298 0.26703727 0.19809534 0.07335422 0.1366549 -0.48545146 -0.17467453
0.14253105 0.07472363 -0.12458987 -0.14120379 0.036959916 0.11017367 -0.0113410195 0.020448094
-0.09082845 -0.0038771494 0.039757144 -0.041730862 -0.09823042 0.038029727 -0.071290635 0.07869074
-0.19360135 0.27199024 0.06575133 -0.25479707 0.067325436 0.14140317 0.30545706 0.028847303
-0.08386863 0.06509951 -0.36247846 0.18352585 -0.098388895 -0.4118612 -0.2760168 -0.060146123
-0.03534416 -0.27678636 -0.05890978 0.035053443 -0.092342 -0.05654924 0.51979816 0.07562361
-0.09609366 0.059029903 -0.027703969 0.10250708 0.40063137 0.09681521 0.3621005 -0.11725813
-0.33281898 -0.060426176 0.2642438 -0.1294139 -0.30052978 -0.416576 -0.09548953 -0.0051433924
-0.41335693 0.4046869 0.10917992 -0.33459854 0.25576723 -0.28463757 -0.21863528 -0.07021917
0.01277341 -0.120953865 -0.6629871 -0.33643383 0.11233973 -0.15641208 -0.4242548 0.20987026
-0.017103586 -0.08494929 0.6176258 -0.094339035 0.090602316 0.115216754 -0.11238157 0.17432575
-0.032543138 -0.11144286 0.24006529 -0.08166482 -0.08249755 -0.19235113 0.5185592 0.3252917
0.30844003 -0.012141001 0.092964925 0.08986795 -0.24874651 0.08497937 0.30350313 0.30921113
-0.3157637 0.05952879 -0.16348253 -0.1592955 -0.19602314 0.06665183 -0.48252624 0.086852394
-0.093762405 0.26925868 -0.15908489 -0.5707185 0.029624384 0.26144847 -0.08989334 0.792156
-0.049127527 -0.008507285 0.101259395 0.15717827 0.11624753 0.049375415 0.12811516 0.33249512
-0.37550488 -0.022287617 0.48848173 -0.16851729 -0.27334255 0.4000167 0.07632501 0.0929822
-0.11049365 0.19015554 -0.72027534 -0.07387786 -0.031800054 -0.062025823 -0.1425525 0.20248473
0.23192827 0.3153864 0.35995492 -0.4631766 0.2890348 -0.2274145 -0.1438016 0.14152415
0.14300983 0.23455791 -0.4064264 -0.1086465 -0.016983591 -0.286957 0.14366733 -0.45408934
0.25603718 -0.1542681 -0.2628311 0.085919924 0.3114923 -0.2628667 -0.3637726 -0.0964388
00000000: 2634 893d 2b31 d63e 3c59 a0be 2d3e d0be
00000010: 57fb 08be b626 4bbd a62b 30be 0db3 663e
00000020: 2a29 80be f9b9 833d ab3a d53c 9641 c5bd
00000030: 9c43 04bf 98f5 61be c60c 2bbe 10b0 d5bb
00000040: f0cf 8b3e e084 8d3e 2397 14bf 1bfe 2cbe
00000050: 8d43 7f3e 2c7e 3c3e 0ac0 84be 4a69 ab3e
00000060: 5cc2 b1bd 07e9 3ebd 47fd 7c3e e0fd 86be
00000070: 2a5d a4be 676d 94be 9843 a03c 7607 213f
00000080: fc79 2dbe 24aa 2ebe 25a1 a7bc 69cc 6abe
00000090: 6b2b a1be c0cc 853e 9a95 2c3e a67c c53c
000000a0: a902 ecbc 4301 18be f993 78bc 3c9e c6bd
000000b0: 8d5d adbe 697b c6be 82b9 903e 366a a93e
000000c0: d9ac 8bbd b364 51be 9d2c c73e 6e91 e83e
000000d0: 61df 033e 6704 283d 7f3f 693e 4d4a c1be
000000e0: 7c48 19bd d157 9cbe ce22 97be 2e03 7abe
000000f0: eaab 043e a6f8 7f3e 127f 22be 0125 d23c
00000100: 76db de3e 01ee 9f3d fd45 06be 2c25 cabd
00000110: d69f 6e3e 3ada cc3e dcb2 e5bd e720 563c
00000120: da93 023e ef17 053e b6cf 8e3e 1c48 9a3e
00000130: dce7 af3d e146 bcbe 3a1f 99bd e065 c7bb
00000140: f5fb bfbe 160d 013f 9adb 793e 79ac bcbe
00000150: a81c 2bbd 7a2c 063e cdf3 afbe 91c3 37be
00000160: 4111 8a3d 3741 bbbd 1cb9 883e 81d9 4a3e
00000170: bd3a 963d 43ef 0b3e 188d f8be e1dd 32be
00000180: a9f3 113e b408 993d f928 ffbd ba97 10be
00000190: 4863 173d bca2 e13d afcf 39bc c382 a73c
000001a0: 4404 babd c617 7ebb 63d8 223d fbed 2abd
000001b0: 082d c9bd 0fc5 1b3d d300 92bd 9c28 a13d
000001c0: 6f3f 46be 4e42 8b3e a2a8 863d c374 82be
000001d0: ebe1 893d fecb 103e de64 9c3e 2e51 ec3c
000001e0: 51c3 abbd e452 853d c796 b9be 33ee 3b3e
000001f0: 1e80 c9bd 79df d2be 1352 8dbe c85b 76bd
00000200: 0ac5 10bd f1b6 8dbe 624b 71bd 3394 0f3d
00000210: cd1d bdbd 2da0 67bd 7e11 053f 8de0 9a3d
00000220: c1cc c4bd 57c9 713d 6ff3 e2bc 3bef d13d
00000230: 8e1f cd3e 0e47 c63d 3d65 b93e 0825 f0bd
00000240: 4067 aabe 7081 77bd f74a 873e 1485 04be
00000250: 0adf 99be 7349 d5be 0490 c3bd e789 a8bb
00000260: 85a3 d3be 1f33 cf3e b999 df3d 8050 abbe
00000270: ecf3 823e 04bc 91be ede1 5fbe 11cf 8fbd
00000280: 9147 513c a9b6 f7bd 86b9 29bf 0e41 acbe
00000290: 5f12 e63d 7d2a 20be ed37 d9be 3be8 563e
000002a0: d21c 8cbc e5f9 adbd b91c 1e3f d334 c1bd
000002b0: b58d b93d c3f6 eb3d 4f28 e6bd 7382 323e
000002c0: f44b 05bd 273c e4bd add3 753e e33f a7bd
000002d0: 7af4 a8bd b2f7 44be 4cc0 043f a28c a63e
000002e0: daeb 9d3e 0deb 46bc 6564 be3d b00c b83d
000002f0: 68b7 7ebe aa09 ae3d c364 9b3e ec50 9e3e
00000300: c8ab a1be 76d4 733d f767 27be 5c1e 23be
00000310: 4aba 48be c180 883d ae0d f7be abdf b13d
00000320: 8106 c0bd 46dc 893e 26e7 22be 9c1a 12bf
00000330: d6ae f23c 93dc 853e 001a b8bd bcca 4a3f
00000340: f239 49bd 2462 0bbc 1661 cf3d 57f3 203e
00000350: 2f13 ee3d e03d 4a3d 9f30 033e cd3c aa3e
00000360: 2d42 c0be 8594 b6bc 471a fa3e cc8f 2cbe
00000370: 8ef3 8bbe fdce cc3e 4950 9c3d 746d be3d
00000380: 7f4a e2bd 22b8 423e f763 38bf 474d 97bd
00000390: c640 02bd ca0e 7ebd 48f9 11be 2858 4f3e
000003a0: 9b7e 6d3e 547a a13e 034c b83e 7c25 edbe
000003b0: 5ffc 933e 59df 68be ba40 13be b5eb 103e
000003c0: 2b71 123e f32f 703e 1f17 d0be 0e82 debd
000003d0: 2c21 8bbc 07ec 92be 871d 133e 667e e8be
000003e0: 4e17 833e 75f8 1dbe cc91 86be c9f6 af3d
000003f0: eb7b 9f3e 7796 86be 6740 babe b581 c5bd

fc1.bias f4 [128]
-0.33410513 -0.293927 0.29490295 -0.4730185 -0.36293715 0.04629193 -0.25734788 -0.15590888
-0.5255173 -0.090641975 -0.20356674 -0.037142508 0.011187771 -0.6054807 -0.050276306 -0.15560468
-0.48701578 -0.31359985 -0.32653648 0.017808566 -0.44679466 -0.24759379 -0.37228113 -0.19729225
-0.056851838 -0.19263227 -0.50172967 -0.1148417 -0.019658515 -0.6622738 0.3227327 -0.666883
-0.2506087 -0.4129941 -0.48478436 0.27613106 0.102390505 -0.44870377 -0.13674429 0.2027901
-0.11086268 0.1055566 -0.18329242 -0.4088889 0.05472195 -0.22434719 0.08758615 -0.26336613
0.065575495 0.031060861 0.07003067 -0.49478737 -0.44038573 -0.36967 -0.6032298 0.2944505
0.036836334 -0.34801012 -0.5556324 -0.16079196 0.04496422 -0.38470066 -0.39170396 -0.70871174
0.19729581 0.1631905 -0.37554094 0.06136777 0.24954872 0.030079992 -0.04728958 0.0952038
0.034954563 0.023281958 -0.21727157 0.123261094 -0.09486072 -0.1333967 0.14917016 0.27024183
-0.44770604 -0.23394701 0.30062371 -0.7085212 -0.055370975 -0.2474855 0.02978858 -0.46136525
-0.43987337 -0.14181507 0.008074978 -0.43947747 -0.4908382 -0.6091096 -0.62452537 -0.5167854
0.19415453 -0.09100121 -0.010760165 -0.02306956 -0.016240366 -0.523009 0.21252279 -0.025716225
0.1098345 -0.10813559 0.054015193 0.52408326 -0.6433069 -0.18610007 -0.11443691 -0.4541592
-0.07275411 0.068020076 -0.27750626 0.43083686 0.16130632 0.46617383 -0.16034475 0.111597136
-0.5400974 -0.17948136 -0.050808024 -0.11411893 0.2919604 0.24751657 0.22809392 0.11006122
00000000: d40f abbe 9a7d 96be 85fd 963e 7b2f f2be
00000010: e6d2 b9be 9b9c 3d3d 1ac3 83be 94a6 1fbe
00000020: 4d88 06bf 80a2 b9bd cd73 50be be22 18bd
00000030: ea4c 373c c800 1bbf 87ee 4dbd d556 1fbe
00000040: 225a f9be 2990 a0be ca2f a7be 45e3 913c
00000050: 45c2 e4be 3a89 7dbe a29b bebe fb06 4abe
00000060: 79dd 68bd 6541 45be 5b71 00bf 2032 ebbd
00000070: e50a a1bc c78a 29bf 383d a53e d8b8 2abf
00000080: c94f 80be f673 d3be a835 f8be 0d61 8d3e
00000090: 1db2 d13d 80bc e5be b206 0cbe 35a8 4f3e
000000a0: f90b e3bd 0f2e d83d 02b1 3bbe e359 d1be
000000b0: 2024 603d 45bb 65be 5e60 b33d edd7 86be
000000c0: 724c 863d 5973 fe3c 3d6c 8f3d c554 fdbe
000000d0: 3d7a e1be 6345 bdbe 456d 1abf 37c2 963e
000000e0: b2e1 163d 622e b2be ed3d 0ebf a6a6 24be
000000f0: 672c 383d 7cf7 c4be 6c8d c8be 226e 35bf
00000100: ea07 4a3e 691b 273e e746 c0be c55c 7b3d
00000110: b389 7f3e 516a f63c b8b2 41bd 36fa c23d
00000120: 842c 0f3d ceb9 be3c 707c 5ebe 5070 fc3d
00000130: 5646 c2bd 2599 08be 10c0 183e 235d 8a3e
00000140: ba39 e5be ce8f 6fbe 5aeb 993e a561 35bf
00000150: adcc 62bd d76c 7dbe 2e07 f43c 1138 ecbe
00000160: 1537 e1be f837 11be ea4c 043c 3103 e1be
00000170: 254f fbbe 9bee 1bbf e5e0 1fbf 0c4c 04bf
00000180: 72d0 463e d85e babd 674b 30bc 60fc bcbc
00000190: 840a 85bc ebe3 05bf 939f 593e d5aa d2bc
000001a0: e9f0 e03d 3176 ddbd 093f 5d3d 522a 063f
000001b0: c3af 24bf 0491 3ebe e65d eabd 8e87 e8be
000001c0: 1b00 95bd 1c4e 8b3d 4d15 8ebe a696 dc3e
000001d0: 7c2d 253e 56ae ee3e 6a31 24be 0a8d e43d
000001e0: d343 0abf f6c9 37be 131c 50bd 30b7 e9bd
000001f0: d57b 953e fc74 7d3e 7491 693e c767 e13d

fc2.weight f4 [128, 128]
-0.15834005 0.15458545 -0.23326524 -0.40095335 -0.33016708 -0.23383182 -0.14840926 -0.026614187
-0.22738549 -0.121876724 -0.06658343 0.013615402 0.049753398 -0.3488875 -0.0081134215 -0.3600985
-0.120773315 0.0903602 0.123157986 0.00064014556 -0.1451992 0.00631965 -0.5953762 0.10914364
0.41530135 -0.0038518847 -1.1610618 0.046572648 -0.98942107 -0.14497966 0.029619772 -0.69536215
-0.006257831 -0.37194207 0.021905698 0.046138305 -0.05839479 -0.35990062 0.1167231 -0.08784917
-1.1683171 -0.068215095 0.04434438 0.14159876 -0.2868819 0.17845127 -0.13690816 0.40351182
-0.0840603 0.4362774 -0.42419842 -0.28256658 -0.17420198 0.030514553 -0.1454631 0.033789575
0.2175462 -0.1915567 0.31475642 0.23880419 -0.020427447 0.7163046 -1.1644303 0.10637921
-0.40625829 -0.023506755 0.2288421 0.09920463 -0.24647082 -0.030167434 -0.036788702 -0.039151154
0.5275321 -0.09457707 -0.10600628 0.32113856 0.04660814 0.29491898 0.17783034 0.050838333
0.014809034 0.39806724 -0.8481485 -0.7441181 0.041979242 -0.08079804 0.25074652 -0.31649563
-0.1677248 0.26094776 -0.44674495 0.077524304 -0.34379005 0.40644154 0.24050565 -0.21689975
0.024979293 0.0037830467 -0.18957116 0.011482725 0.048612166 -0.51299375 -0.19922744 -0.0043589096
0.2661162 0.32431948 0.16243263 -0.555504 -0.20685521 -0.1558152 0.027205113 0.2805927
0.22874583 0.27067736 0.20964839 -0.28110054 -0.2706587 -0.45718044 0.013077906 -0.13166822
-0.05251922 0.04343233 -0.42013946 -0.25064573 0.16355985 -0.16755657 0.09488021 0.09711204
0.083776996 0.18389705 0.053817842 -0.28718105 -0.026214821 0.17395389 -0.19175726 0.056538045
-0.31627283 -0.12412234 -0.014428115 0.07135699 0.09408222 -0.3562935 -0.08240272 -0.073818415
-0.2933104 -0.35326895 0.39739236 0.09426471 0.014305662 -0.092430145 0.060659397 -0.31814775
0.16190796 -1.2370154 -0.16624354 0.055309262 0.38671425 -0.2570365 -0.13444619 0.020191526
0.09660628 -0.19924946 0.1611576 -0.25834602 0.05372936 0.023753634 -0.052882854 -0.058783133
-0.059799455 -0.35064778 0.23935361 0.5803606 -0.1718822 -0.06938306 0.14860241 -0.056660715
-0.06749568 -0.08192171 -0.05949961 -0.325469 -0.44534913 -0.551735 -0.13406377 -0.21188
-0.23451565 -0.07343442 0.17689086 0.15937199 0.15664232 -0.80619097 0.24208474 0.089040376
-0.0021860148 0.27140468 -0.042691648 -0.11860472 -0.387965 -0.04852207 0.14514473 -0.18575929
-0.82209605 0.10297779 0.052051146 -0.2197183 0.11198411 -0.046588942 0.106673256 -0.15269084
-0.03188786 0.37047035 -1.5662398 0.11810357 0.15716028 0.12912832 0.008581412 0.1302717
0.050825797 0.09632298 0.124861725 -0.29792553 0.40864643 -0.25032064 0.056562666 -0.1176807
0.34633684 -0.17146368 -0.17672609 0.07342329 0.0075209257 -0.01591371 0.14232342 0.23392859
0.010620647 -0.16248563 0.066966355 -0.80865395 -0.1994893 0.08228081 0.07601492 -0.4551428
0.08507591 -0.29860988 -0.17532383 -0.46598035 -0.02855735 -0.22088288 0.008200177 0.078988194
0.060593154 -0.083266824 0.18128505 0.04443571 0.17641982 -0.6547216 -0.74236137 0.047846083
00000000: e523 22be a64b 1e3e 15dd 6ebe c249 cdbe
00000010: a90b a9be 9c71 6fbe 99f8 17be ff05 dabc
00000020: bed7 68be 819a f9bd e55c 88bd 2313 5f3c
00000030: 38ca 4b3d 62a1 b2be 28ee 04bc d55e b8be
00000040: 0058 f7bd c50e b93d 413a fc3d 71cf 273a
00000050: 19af 14be 1115 cf3b 936a 18bf b386 df3d
00000060: 61a2 d43e e76f 7cbb ac9d 94bf f6c2 3e3d
00000070: b34a 7dbf 8c75 14be 2aa5 f23c 4103 32bf
00000080: 7e0e cdbb 316f bebe 9473 b33c 85fb 3c3d
00000090: 602f 6fbd e544 b8be 850c ef3d 44ea b3bd
000000a0: 6a8b 95bf 5bb4 8bbd 74a2 353d 44ff 103e
000000b0: 2fe2 92be eebb 363e a731 0cbe 1a99 ce3e
000000c0: ce27 acbd c05f df3e 8930 d9be 91ac 90be
000000d0: 0162 32be a8f9 f93c 47f4 14be f066 0a3d
000000e0: 6ec4 5e3e 7127 44be c127 a13e 1689 743e
000000f0: 7657 a7bc bd5f 373f 0d0c 95bf 58dd d93d
00000100: 1601 d0be 3d91 c0bc 9555 6a3e cc2b cb3d
00000110: d962 7cbe b221 f7bc c0af 16bd f65c 20bd
00000120: 580c 073f 9fb1 c1bd d219 d9bd 466c a43e
00000130: 2de8 3e3d 9fff 963e 2819 363e db3b 503d
00000140: 97a1 723c 78cf cb3e 4320 59bf 867e 3ebf
00000150: 6df2 2b3d 7179 a5bd d961 803e b70b a2be
00000160: 0dc0 2bbe f29a 853e c1bb e4be 10c5 9e3d
00000170: 4005 b0be 1b19 d03e 1d47 763e f81a 5ebe
00000180: 60a1 cc3c feec 773b f11e 42be 0a22 3c3c
00000190: 8d1d 473d 8f53 03bf 4702 4cbe 2fd5 8ebb
000001a0: 6240 883e 340d a63e bd54 263e 8335 0ebf
000001b0: dad1 53be 058e 1fbe 42dd de3c d9a9 8f3e
000001c0: 593c 6a3e 3996 8a3e 11ae 563e 69ec 8fbe
000001d0: c793 8abe 8e13 eabe b744 563c 09d4 06be
000001e0: 651e 57bd 19e6 313d 851c d7be a354 80be
000001f0: 3c7c 273e f393 2bbe 8e50 c23d ade2 c63d
00000200: 4693 ab3d 824f 3c3e 1970 5c3d 6509 93be
00000210: 77c0 d6bc f820 323e 045c 44be 7094 673d
00000220: 83ee a1be da33 febd e763 6cbc 9d23 923d
00000230: 2eae c03d 1a6c b6be c2c2 a8bd 1c2e 97bd
00000240: c82c 96be abdf b4be 0377 cb3e db0d c13d
00000250: 4c62 6a3c 044c bdbd fd75 783d 43e4 a2be
00000260: 33cb 253e 8556 9ebf bf3b 2abe f78b 623d
00000270: 69ff c53e 4a9a 83be 43ac 09be b368 a53c
00000280: 83d9 c53d 0d08 4cbe 7f06 253e ee45 84be
00000290: 5113 5c3d fb96 c23c b19b 58bd 95c6 70bd
000002a0: 46f0 74bd 1b88 b3be 1d19 753e 8392 143f
000002b0: e301 30be b518 8ebd 3b2b 183e 1115 68bd
000002c0: 2d3b 8abd 92c6 a7bd ddb5 73bd dfa3 a6be
000002d0: cd04 e4be 813e 0dbf 0348 09be 12f7 58be
000002e0: df24 70be c964 96bd e122 353e 6932 233e
000002f0: d866 203e 8862 4ebf 10e5 773e cd5a b63d
00000300: 3e43 0fbb 8ef5 8a3e 70dd 2ebd 08e7 f2bd
00000310: 59a3 c6be 14bf 46bd d2a0 143e af37 3ebe
00000320: e374 52bf 05e6 d23d 9533 553d d6fd 60be
00000330: ed57 e53d 0cd4 3ebd 8277 da3d fd5a 1cbe
00000340: d89c 02bd 4aae bd3e 8c7a c8bf 49e0 f13d
00000350: a0ee 203e 373a 043e 0d99 0c3c f265 053e
00000360: b62e 503d fc44 c53d 81b7 ff3d b289 98be
00000370: 1b3a d13e 072a 80be 41ae 673d 9402 f1bd
00000380: 1053 b13e 2d94 2fbe aff7 34be f35e 963d
00000390: 1972 f63b 785d 82bc 3bbd 113e fa8a 6f3e
000003a0: 3902 2e3c a262 26be a825 893d f203 4fbf
000003b0: ec46 4cbe d782 a83d b6ad 9b3d 7a08 e9be
000003c0: 473c ae3d 65e3 98be 1788 33be fa94 eebe
000003d0: 1bf1 e9bc 1f2f 62be 095a 063c 90c4 a13d
000003e0: 8730 783d cc87 aabd caa2 393e 3802 363d
000003f0: 66a7 343e d69b 27bf 650b 3ebf 41fa 433d

fc2.bias f4 [128]
0.10078411 0.24746594 0.16873448 0.16592914 -0.11719368 0.2769563 0.30219284 -0.15741916
0.121509805 0.10065677 0.117090516 0.13524942 0.18762887 0.15984307 0.14082867 0.22477207
-0.07020061 0.01929219 -0.00050050084 0.01727916 0.036758013 -0.1552677 0.23230822 0.11418361
0.15163502 -0.1817324 -0.09712667 0.22880983 0.19240464 0.21056105 0.06832014 -0.24435236
0.16861326 0.07519913 -0.029644344 0.021650959 0.12747937 0.19139606 0.012339498 -0.07151284
0.121932924 0.15799403 0.1857563 0.100623585 0.06776064 0.20126331 0.057633016 0.10589519
0.124183506 0.091352746 0.16822816 -0.028771857 0.1267175 -0.12727435 0.10454128 0.017168706
0.11959394 0.12310385 0.030413277 0.15957163 0.21621314 0.14437471 0.27612016 -0.06269065
-0.10704437 0.09860474 0.25236458 0.06760518 -0.019749153 0.14613245 0.04276465 0.08951275
0.07153758 -0.11929246 0.13378161 -0.031175608 0.068095334 0.052365985 0.20170747 -0.07237699
0.12022259 0.16391943 0.15593962 -0.005906634 0.17227235 0.16270329 0.1271973 0.039922647
0.11308719 0.06842525 0.20824814 0.17490168 0.1091263 0.23660906 0.148915 0.044331416
-0.042225733 0.17287032 -0.01348176 0.046123344 0.12772167 0.23485126 0.03598367 0.21293958
0.03266794 0.12566805 0.29358456 0.27194685 0.103264794 -0.09130164 0.15368046 0.16058224
0.14206843 0.15503047 0.10141037 0.16581954 0.058968283 0.17207415 0.029054679 0.1818848
0.0627074 0.12041027 0.115896314 -0.07544174 0.1069824 0.1607146 0.029666847 0.12231725
00000000: e667 ce3d b667 7d3e bbc8 2c3e 54e9 293e
00000010: 3d03 f0bd 37cd 8d3e 05b9 9a3e 7d32 21be
00000020: 22da f83d 2325 ce3d 27cd ef3d d37e 0a3e
00000030: c821 403e e7ad 233e 6435 103e a62a 663e
00000040: 56c5 8fbd a80a 9e3c 0b34 03ba 068d 8d3c
00000050: 928f 163d 7ffe 1ebe 35e2 6d3e 19d9 e93d
00000060: 3646 1b3e 0f18 3abe 59ea c6bd 204d 6a3e
00000070: b905 453e 519d 573e 6eeb 8b3d 8137 7abe
00000080: f4a8 2c3e 0002 9a3d b2d8 f2bc 5a5d b13c
00000090: f489 023e 54fd 433e 9b2b 4a3c 5375 92bd
000000a0: f8b7 f93d 30c9 213e e636 3e3e bd13 ce3d
000000b0: 17c6 8a3d f817 4e3e 9910 6c3d 94df d83d
000000c0: ec53 fe3d 2617 bb3d 0144 2c3e f5b2 ebbc
000000d0: 3bc2 013e 3554 02be bd19 d63d 63a5 8c3c
000000e0: abed f43d df1d fc3d 4425 f93c bf66 233e
000000f0: fa66 5d3e f7d6 133e 9f5f 8d3e f563 80bd
00000100: 143a dbbd 48f1 c93d ee35 813e 9674 8a3d
00000110: fac8 a1bc bfa3 153e fc29 2f3d 7652 b73d
00000120: 4b82 923d 9b4f f4bd 0cfe 083e fd63 ffbc
00000130: 9175 8b3d b77d 563d 678c 4e3e 633a 94bd
00000140: 4337 f63d 7fda 273e a3ae 1f3e 708c c1bb
00000150: 2a68 303e b19b 263e 0240 023e ee85 233d
00000160: 429a e73d 8a22 8c3d 003f 553e 6d19 333e
00000170: 9c7d df3d a549 723e 2c7d 183e dc94 353d
00000180: e4f4 2cbd eb04 313e 9ae2 5cbc d5eb 3c3d
00000190: 78c9 023e d97c 703e 9d63 133d d50c 5a3e
000001a0: d1ce 053d 20af 003e b750 963e 9e3c 8b3e
000001b0: 7e7c d33d 5bfc babd 695e 1d3e ac6f 243e
000001c0: 637a 113e 4fc0 1e3e 3db0 cf3d 99cc 293e
000001d0: ba88 713d 3534 303e 1404 ee3c 0240 3a3e
000001e0: bd6c 803d a999 f63d 0c5b ed3d 3381 9abd
000001f0: 9719 db3d 5e92 243e e307 f33c 7781 fa3d

dist.fc_mean.weight f4 [2, 128]
-0.0022850307 -0.0034574813 -0.013137592 0.004319516 0.021080414 0.009054597 0.7643547 0.13353296
-0.13779429 0.014541078 0.011730153 0.016327042 0.01502818 -0.026559994 0.019999618 0.0031718165
-0.010767902 -0.14968845 0.0072846124 -0.0011263131 -0.029345395 -0.045823902 -0.004802534 0.047564298
-0.0046916157 0.026133578 -0.18756711 -0.025977561 -0.041498225 -0.005922322 0.062369574 0.060202457
0.012266672 -0.25131333 0.16842525 0.013379824 -0.0031482866 0.004300111 -0.0040943203 0.008229063
0.032214448 -0.0001777155 -0.0047446224 -0.014001509 -0.02107236 -0.004999802 0.013215289 0.010289542
0.002689737 0.003582204 0.023956673 0.0027654301 0.08174332 0.0074516907 0.36254257 0.4565448
0.011851872 0.006580876 0.036867883 -0.0129304575 0.71885234 -0.3287411 -0.0072622374 -0.0058329315
0.15355667 -0.017011302 -0.026241332 0.020160245 0.0635536 -0.038202375 0.015250803 -0.0063881045
-0.020474572 -0.0022576116 0.027386336 -0.008200408 0.0142575 0.018422313 -0.04264123 0.028579729
-0.007610194 0.027350789 0.018912522 -0.004689908 -0.023667257 -0.039275102 -0.013677104 0.067578495
-0.05861676 -0.030763052 0.013323584 -0.030988133 0.0071246075 0.017982984 -0.0022943565 0.030817311
-0.07926667 0.4040643 -0.0023887616 -0.008651947 0.008630475 0.7167131 0.38919267 0.03228261
-0.04888342 -0.009311591 -0.0033577695 -0.00045779548 0.0029882372 0.0058575557 -0.026900759 0.026959786
0.010884591 -0.0010187527 -0.0048896414 -0.0014598586 -0.06824072 0.039989367 0.3515936 -0.011254956
0.014460234 0.03340012 -0.01908976 -0.017160967 0.020266723 0.000965435 -0.044737566 0.0065999147
0.021314355 -0.05535784 -0.009304844 -0.039737627 0.0112666255 0.11420242 0.06882877 -0.0076153483
0.06974276 0.20951745 0.031483166 -0.14905761 -0.011017486 -0.20989086 0.023345254 -0.011409201
-0.17005554 0.0003528417 -0.06395113 -0.012568685 -0.0012197786 0.3046773 -0.057887767 0.04711277
0.015582719 -0.017687691 -0.20283665 0.13546592 -0.0045818062 0.015943829 -0.12663372 -0.08009988
0.011654629 0.22034378 -0.045553654 0.09737032 0.014697965 0.02604909 0.01407685 -0.0058328616
-0.12941325 -0.0021042584 -0.0346433 0.062878 0.20721099 -0.048830036 -0.017865365 0.108908966
-0.01680748 -0.025705418 0.09329873 -0.036355764 -0.32192513 0.33271185 -0.060750443 0.061599173
-0.035266165 0.14926521 -0.007509504 0.24991311 -0.4151608 0.029898103 0.2882165 0.0022234255
0.020609597 0.09278329 -0.26783255 0.08489233 -0.19211015 0.08537083 -0.0021780734 -0.17933087
-0.013474772 0.011357588 0.04233421 -0.017594583 0.036911193 -0.0776838 -0.06375048 0.017283514
0.016147109 0.14410065 0.030895023 0.04417117 -0.022081267 -0.074358106 0.03192849 0.0022689647
-0.042805392 -0.10879073 -0.020112041 -0.054308005 0.010395026 0.04660544 -0.07047885 -0.01286327
-0.11477946 0.011046988 -0.19458228 0.0996223 0.08715956 0.17601666 0.02363768 0.0633172
-0.02743261 -0.0028899135 0.10266177 0.0059830663 -0.2561655 -0.011241101 0.051727038 0.021568744
0.011347307 -0.00805651 -0.1136709 -0.019561796 -0.36363295 0.08913754 0.041877124 -0.01138959
0.010403484 -0.17847769 -0.004155581 0.08998173 -0.04429274 0.021422284 -0.029365296 0.0070639234
00000000: 74c0 15bb e996 62bb 0e3f 57bc ba8a 8d3b
00000010: d5b0 ac3c bb59 143c c0ac 433f ddbc 083e
00000020: f219 0dbe b43d 6e3c d42f 403c 4ac0 853c
00000030: c138 763c 5894 d9bc 3dd6 a33c 40de 4f3b
00000040: db6b 30bc ee47 19be c2b3 ee3b cca0 93ba
00000050: c165 f0bc d8b1 3bbd 935e 9dbb c8d2 423d
00000060: 20bc 99bb 1616 d63c 9811 40be e5ce d4bc
00000070: 0bfa 29bd 0a10 c2bb 3d77 7f3d da96 763d
00000080: 27fa 483c 24ac 80be ab77 2c3e 0d37 5b3c
00000090: 7c53 4ebb f2e7 8c3b a629 86bb 31d3 063c
000000a0: 4cf3 033d 2459 3ab9 c778 9bbb 9666 65bc
000000b0: f19f acbc 61d5 a3bb f184 583c 7895 283c
000000c0: 4c46 303b 69c3 6a3b c940 c43c 383c 353b
000000d0: 0b69 a73d 502d f43b 2e9f b93e 3dc0 e93e
000000e0: 5b2e 423c 64a4 d73b c702 173d 45da 53bc
000000f0: b506 383f c150 a8be 10f8 edbb 2d22 bfbb
00000100: f63d 1d3e 495b 8bbc 10f8 d6bc 1927 a53c
00000110: 6428 823d 187a 1cbd 81de 793c 4e53 d1bb
00000120: 4aba a7bc 70f4 13bb 4f59 e03c 015b 06bc
00000130: 4a98 693c 64ea 963c 92a8 2ebd 0920 ea3c
00000140: ef5e f9bb c30e e03c 6fee 9a3c cdad 99bb
00000150: d6e1 c1bc eede 20bd ef15 60bc 9866 8a3d
00000160: 2118 70bd cc02 fcbc 294b 5a3c d3da fdbc
00000170: 8a75 e93b 0d51 933c ea5c 16bb 9674 fc3c
00000180: 9056 a2bd 84e1 ce3e c58c 1cbb e5c0 0dbc
00000190: d666 0d3c 827a 373f 4344 c73e c53a 043d
000001a0: fb39 48bd a58f 18bc 060e 5cbb 4504 f0b9
000001b0: 4dd6 433b bdf0 bf3b fb5e dcbc c5da dc3c
000001c0: 4955 323c ab87 85ba 4939 a0bb ba58 bfba
000001d0: cac1 8bbd e4cb 233d 1404 b43e b566 38bc
000001e0: 9eea 6c3c 90ce 083d 2162 9cbc 2895 8cbc
000001f0: 6606 a63c 3f15 7d3a bd3e 37bd 1944 d83b
00000200: 719b ae3c e7be 62bd 5873 18bc ecc3 22bd
00000210: a797 383c f5e2 e93d 19f6 8c3d 2c8a f9bb
00000220: 4bd5 8e3d be8b 563e 7ef4 003d 8fa2 18be
00000230: b082 34bc a1ed 56be 8c3e bf3c a8ed 3abc
00000240: 0a23 2ebe 9cfd b839 cff8 82bd e3ec 4dbc
00000250: fae0 9fba aafe 9b3e b91b 6dbd 52f9 403d
00000260: a94e 7f3c c7e5 90bc 69b4 4fbe 94b7 0a3e
00000270: fa22 96bb a29c 823c 45ac 01be 680b a4bd
00000280: 0ff3 3e3c cda1 613e 7896 3abd 176a c73d
00000290: bccf 703c e764 d53c 97a2 663c 9721 bfbb
000002a0: e884 04be 99e7 09bb 22e6 0dbd 2ec6 803d
000002b0: 1e2f 543e 0102 48bd 635a 92bc aa0b df3d
000002c0: d7af 89bc 2b94 d2bc 6813 bf3d c8e9 14bd
000002d0: 5fd3 a4be 3559 aa3e 75d5 78bd 6a4f 7c3d
000002e0: 4173 10bd fbd8 183e 4912 f6bb 39e9 7f3e
000002f0: f58f d4be deec f43c 1d91 933e e4b6 113b
00000300: 75d5 a83c 2a05 be3d 5921 89be 08dc ad3d
00000310: 86b8 44be e7d6 ae3d 02be 0ebb 83a2 37be
00000320: 4ac5 5cbc 2d15 3a3c a366 2d3d 8422 90bc
00000330: 3130 173d af18 9fbd 9d8f 82bd 2896 8d3c
00000340: f146 843c 1f8f 133e 8f17 fd3c d4ec 343d
00000350: c6e3 b4bc 1049 98bd 73c7 023d e9b2 143b
00000360: b554 2fbd adcd debd 02c2 a4bc 1272 5ebd
00000370: e64f 2a3c 59e5 3e3d 3757 90bd 77c0 52bc
00000380: 7e11 ebbd 6dfe 343c 9440 47be c706 cc3d
00000390: b680 b23d b63d 343e cfa3 c13c 73ac 813d
000003a0: 5aba e0bc b464 3dbb 5640 d23d 990d c43b
000003b0: 2028 83be 982c 38bc bbdf 533d efb0 b03c
000003c0: 0eea 393c 74ff 03bc 4acc e8bd 0f40 a0bc
000003d0: 192e babe be8d b63d 5987 2b3d 679b 3abc
000003e0: 6073 2a3c dbc2 36be 8a2b 88bb 5748 b83d
000003f0: 4e6c 35bd c97d af3c 7d8f f0bc 7c78 e73b

dist.fc_mean.bias f4 [2]
-0.00096359133 0.11361953
00000000: 8599 7cba 5bb1 e83d

dist.fc_logstd.weight f4 [2, 128]
-1.5773946 -1.1245713 -1.1751875 0.7202919 1.3822744 -1.093761 -0.24699141 -0.030516822
-0.36881003 0.6866319 -0.72620577 0.15840687 -1.0617416 0.114687525 0.09036546 0.6839589
-0.14503196 -0.03746885 -0.0013187221 -0.27499375 -0.09943937 0.23613255 -0.45097727 0.049256302
-0.056453735 -0.15287553 -0.20457806 -0.19132774 -1.4072945 -0.6653516 0.1930205 0.14595567
0.082909256 0.2686371 0.215491 0.064301796 0.92873985 1.0733904 -0.07082049 -0.018127127
-0.30272475 -0.107580595 1.3334697 0.39711404 -0.12788479 -2.041868 0.44421357 -0.46485245
-0.88285697 0.49328747 0.8856915 0.058836937 0.29903927 -0.80603224 0.12660295 -0.41006157
1.0569222 -0.7933112 0.08008343 0.16660696 1.5063885 -0.6345324 0.0008313123 -0.4693843
-0.03745044 0.06759839 -0.12329167 -0.5841299 -0.5935599 -0.9441014 -1.0091878 -0.83861434
-1.0962958 0.7636102 0.13114296 -0.41688836 0.03029009 0.66009325 -0.8246034 -0.0115362955
0.39496192 -0.15775937 -1.1112788 -0.46519887 -1.1615335 -0.27328032 -1.1362478 -0.8267969
0.23465982 -0.4909841 -1.1136948 -0.6378406 -0.39371678 -0.8223411 -0.60235465 -0.28537184
-0.032874472 -0.7123389 -0.1974567 -0.11194033 0.2246875 -1.9407946 -0.95218325 0.07899533
-0.00883694 -0.3943109 -1.3850664 0.13825078 -0.031641405 0.21461704 -0.29279536 0.5935946
-0.31312987 -0.7385814 -0.5479463 -1.2484201 -1.0979415 0.11939233 -0.22860043 -0.755366
-0.638656 -0.26940808 0.6437509 -0.0058044195 -0.16053225 -0.63086593 -1.1510437 -0.548264
-0.90317106 -0.19007082 -0.05910012 -0.4622661 0.41620806 -0.31494972 -0.67916566 -0.099413574
-0.31939465 0.3853271 -1.3731276 0.16649055 -0.24505746 0.38731205 -0.17955093 0.24428968
-0.21105579 0.03882503 -0.17758304 0.8372661 -0.16517629 -0.22537278 -0.57529694 -0.39056146
-0.7156897 0.37531093 0.5169851 -0.06222461 -0.63087195 -0.4775149 0.24150403 0.36046916
-0.517042 1.1777749 -0.25162807 0.026919005 -0.31588602 -0.65211654 -0.822191 -0.038232543
0.13484289 -0.4453027 -0.25876588 -0.37383264 -0.11805326 -1.8071609 0.4034275 0.2593563
0.23597963 -0.39165407 -0.29714325 -0.7055057 0.28187063 0.00083337387 -0.25039396 0.3737528
1.3747568 0.38982618 -0.5202766 -7.543223e-05 -0.042607542 0.5035492 -0.22980954 -0.53441757
0.10082132 -0.36529875 0.32731396 -0.7156292 -0.2890678 -0.16972564 -0.9001732 1.6495395
-0.50734085 0.3963019 -0.24232434 -0.15800938 0.00072683365 -0.34149587 -0.5005062 -0.0011919347
-0.49973792 0.016905846 -1.1269346 -0.9623772 -1.329564 0.12142253 -0.018103594 -0.45075533
-0.5335069 -0.28509918 -0.77140284 0.25120145 -0.35827556 -0.22695121 -1.1052121 -0.31796727
0.04225558 -0.84102476 -0.1403895 -0.08490388 1.3570869 -0.882522 -0.7519911 -0.34276745
-0.0047344663 -0.3055578 -0.34047994 -1.1362561 -0.6724398 0.028330402 -0.0148209175 0.22149839
-0.0758546 -0.49765286 -0.18302833 -1.1077656 -0.079719394 -0.22618106 -0.26820588 -0.5956398
0.24994786 0.07858074 -0.8142192 -0.01589949 -0.42654985 0.60426927 0.089873545 -1.3097364
00000000: 11e8 c9bf f4f1 8fbf 8b6c 96bf 0d65 383f
00000010: 5eee b03f 5c00 8cbf 51eb 7cbe 6afe f9bc
00000020: abd4 bcbe 1cc7 2f3f 9fe8 39bf 6935 223e
00000030: 26e7 87bf 4be1 ea3d 8711 b93d ee17 2f3f
00000040: 4283 14be f078 19bd f9d8 acba fbcb 8cbe
00000050: dea6 cbbd bbcc 713e 7ee6 e6be fac0 493d
00000060: 083c 67bd 678b 1cbe e97c 51be 6beb 43be
00000070: 3a22 b4bf 7c54 2abf 2aa7 453e 6775 153e
00000080: 54cc a93d cd8a 893e aca9 5c3e a9b0 833d
00000090: e5c1 6d3f db64 893f 550a 91bd 577f 94bc
000000a0: bdfe 9abe 3753 dcbd 23af aa3f 8852 cb3e
000000b0: 3bf4 02be f7ad 02c0 f66f e33e 2401 eebe
000000c0: ea02 62bf 2d90 fc3e aebc 623f 00ff 703d
000000d0: ad1b 993e 2158 4ebf 34a4 013e 97f3 d1be
000000e0: 3a49 873f 7116 4bbf c802 a43d 049b 2a3e
000000f0: 57d1 c03f b770 22bf 6dec 593a 2453 f0be
00000100: a265 19bd 0671 8a3d 5880 fcbd 8a89 15bf
00000110: 8bf3 17bf a1b0 71bf 112d 81bf 6eaf 56bf
00000120: 6c53 8cbf f57b 433f 574a 063e 6472 d5be
00000130: ec22 f83c dffb 283f 3519 53bf bb02 3dbc
00000140: 7338 ca3e ac8b 21be 623e 8ebf 8c2e eebe
00000150: 21ad 94bf 66eb 8bbe 9170 91bf f6a8 53bf
00000160: aa4a 703e 4562 fbbe 8d8d 8ebf 8649 23bf
00000170: 3f95 c9be f284 52bf ea33 1abf 421c 92be
00000180: 62a7 06bd d85b 36bf 1732 4abe f940 e5bd
00000190: 7b14 663e f56b f8bf 48c2 73bf 4ec8 a13d
000001a0: d0c8 10bc 1ee3 c9be db49 b1bf 9d91 0d3e
000001b0: 6b9a 01bd 92c4 5b3e 46e9 95be d1f5 173f
000001c0: 8f52 a0be ac13 3dbf 3546 0cbf 3bcc 9fbf
000001d0: 5989 8cbf f783 f43d 3b16 6abe ab5f 41bf
000001e0: f67e 23bf dbef 89be dccc 243f 0033 bebb
000001f0: 9162 24be 6e80 21bf 6655 93bf 085b 0cbf
00000200: 3836 67bf eda1 42be f812 72bd 24ae ecbe
00000210: 3919 d53e 1741 a1be cddd 2dbf 5899 cbbd
00000220: b287 a3be 9849 c53e a5c2 afbf 807c 2a3e
00000230: 58f0 7abe c44d c63e 33dc 37be 1327 7a3e
00000240: 021f 58be ff06 1f3d 54d8 35be 1257 563f
00000250: f923 29be 1fc8 66be a946 13bf acf7 c7be
00000260: 7137 37bf c128 c03e 2359 043f 3cdf 7ebd
00000270: d380 21bf d57c f4be d54c 773e 6a8f b83e
00000280: dd5c 04bf 54c1 963f 65d5 80be 3f85 dc3c
00000290: d0bb a1be 1cf1 26bf 1c7b 52bf ba99 1cbd
000002a0: 4114 0a3e b7fe e3be f67c 84be fe66 bfbe
000002b0: e8c5 f1bd 0c51 e7bf 0d8e ce3e 59ca 843e
000002c0: a5a4 713e e286 c8be 2923 98be 069c 34bf
000002d0: 5951 903e c676 5a3a a333 80be 875c bf3e
000002e0: 08f8 af3f 4c97 c73e d930 05bf 5f31 9eb8
000002f0: 3f85 2ebd 9ae8 003f 3153 6bbe 97cf 08bf
00000300: 697b ce3d 7008 bbbe b295 a73e 7a33 37bf
00000310: b200 94be 8fcc 2dbe c071 66bf 1c24 d33f
00000320: 17e1 01bf 15e8 ca3e df23 78be 36cd 21be
00000330: fb88 3e3a 8cd8 aebe 2d21 00bf b13a 9cba
00000340: a6dd ffbe 217e 8a3c 653f 90bf 5a5e 76bf
00000350: 272f aabf 60ac f83d fd4d 94bc 67c9 e6be
00000360: e893 08bf 85f8 91be a87a 45bf 7a9d 803e
00000370: e56f b7be e665 68be 9777 8dbf 9bcc a2be
00000380: 3014 2d3d 664d 57bf 44c2 0fbe 16e2 adbd
00000390: 06b5 ad3f f6ec 61bf 7d82 40bf 377f afbe
000003a0: 9523 9bbb 1272 9cbe 6353 aebe d770 91bf
000003b0: 0425 2cbf 2915 e83c 6fd3 72bc 79d0 623e
000003c0: a859 9bbd 5bcc febe c76b 3bbe 43cb 8dbf
000003d0: ec43 a3bd 029c 67be 4852 89be da7b 18bf
000003e0: 55f2 7f3e f0ee a03d ab70 50bf a63f 82bc
000003f0: be64 dabe 64b1 1a3f 9f0f b83d 71a5 a7bf

dist.fc_logstd.bias f4 [2]
-0.10650239 -0.046970237
00000000: ed1d dabd dd63 40bd

exp_avg f4 [128, 9]
-0.06186054 -0.09128231 -0.027124379 -0.04214074 -0.00741228 -0.011733032 0.01721088 0.021423873
0.13200086 0.025010241 -0.024235489 0.07246938 0.3247644 0.010432652 0.037310038 0.043054376
0.04222988 -0.09568268 0.06235231 -0.23164414 0.11231656 -0.3846609 -0.097576275 -0.34494656
0.027368305 0.028301181 0.2648364 0.047846857 -0.10812956 0.09734566 -0.13151048 -0.029646834
-0.069841735 -0.005596802 -0.0041087116 -0.17226312 0.035680156 -0.040562958 0.070893705 -0.084357336
-0.10700322 -0.073228806 0.007213739 0.005832434 0.11563241 0.010275114 -0.17966983 0.05117434
-0.14841881 -0.18538742 -0.29870412 0.038811542 0.03423016 0.29142785 0.046186965 0.037903115
0.029569782 -0.092451274 -0.001683716 0.0070838775 -0.011854428 -0.009782961 -0.04236744 -0.18902396
-0.08189185 -0.2007105 0.030197006 -0.13093568 -0.16337417 0.027814206 0.02388002 0.29585975
-0.090035036 0.09896462 -0.105210654 0.105284035 0.07971866 0.08746386 -0.008179055 -0.009246693
-0.15288801 -0.02251627 -0.041291263 -0.09427174 -0.15326375 0.06567373 0.08610643 -0.005187953
0.006855025 -0.21361294 0.009034403 -0.174388 -0.052075934 -0.063757315 -0.0022346717 -0.088974334
0.016659494 0.0108370315 0.10419513 0.004308718 0.099549524 0.061256118 0.0961973 -0.040661458
-0.0203824 -0.013898305 -0.011944471 -0.023560217 0.0076738372 -0.076811194 -0.11016091 -0.104960926
0.1410084 0.22704124 0.014602265 0.014620916 -0.06660049 0.01296782 -0.03207285 0.06938746
-0.011183365 -0.0613381 -0.05276459 0.016379304 0.012483396 0.18304335 0.067803256 -0.09084752
0.113525115 -0.17157714 -0.060781352 -0.013523672 -0.022124728 -0.023703894 0.04922537 0.078858845
0.16814786 0.07133655 0.19178759 -0.054461 0.04104509 -0.007358135 -0.013646191 -0.114803955
0.015040349 -0.11516434 -0.063989416 0.09277254 0.08937103 0.08567084 0.01046355 0.012785484
0.0022090308 -0.06788304 0.08917794 -0.15559882 0.1599931 0.13593052 0.096109636 -0.012985149
-0.009908635 -0.11983046 0.0046873568 0.048512094 -0.024779106 0.23990051 -0.012578822 -0.036733665
-0.0010004084 0.0004578732 -0.0023796165 -0.04536257 -0.098795906 -0.08640414 -0.03912103 0.056168217
-0.04012359 0.0019335866 0.0019527831 -0.054161634 -0.032146856 -0.03821048 -0.037413787 -0.1291692
0.06811921 0.0484194 0.00045249032 0.00029923662 0.0036265918 0.043590005 0.08240041 0.06903221
-0.16780454 -0.06573359 -0.007818394 -0.029610194 -0.02906534 0.06493544 -0.0090653505 -0.066589266
-0.056031585 -0.04193862 0.015657522 0.076886185 0.010927389 0.013538119 0.0862739 0.053764287
0.0017301983 0.09102379 0.014396525 -0.050437625 -0.015314803 -0.019710757 -0.010079964 -0.002851462
0.030359987 -0.026237845 0.08252799 0.06659355 -0.021300389 -0.07864522 0.013689914 0.005944742
0.031087084 -0.1242214 -0.15739232 -0.058686767 0.033629205 -0.045382325 0.022159021 -0.009732643
-0.011410407 -0.101756714 0.01606438 0.02829397 0.0063938666 -0.10887818 0.16718464 0.16657381
-0.0031426626 -0.01965077 -0.06971642 0.10455137 -0.2378744 0.1974345 -0.36733112 -0.15181983
-0.38305935 0.043100864 0.042312287 0.3391326 0.109978326 -0.16084823 0.21866661 0.0058227377
00000000: 7a61 7dbd 38f2 babd f233 debc c59b 2cbd
00000010: b6e2 f2bb e73b 40bc d5fd 8c3c 1e81 af3c
00000020: 3c2b 073e 47e2 cc3c 8189 c6bc d46a 943d
00000030: 8547 a63e b7ed 2a3c 69d2 183d c959 303d
00000040: 3df9 2c3d 48f5 c3bd 2365 7f3d 1f34 6dbe
00000050: 3906 e63d 46f2 c4be 12d6 c7bd d69c b0be
00000060: 7f33 e03c e1d7 e73c a398 873e 11fb 433d
00000070: 0873 ddbd 295d c73d afaa 06be ebdd f2bc
00000080: 2f09 8fbd 6165 b7bb 5fa2 86bb be65 30be
00000090: 5b25 123d 5825 26bd b830 913d 8ac3 acbd
000000a0: 8124 dbbd fcf8 95bd 3b61 ec3b 011e bf3b
000000b0: afd0 ec3d f458 283c 5efb 37be 2f9c 513d
000000c0: 1afb 17be 33d6 3dbe bfef 98be daf8 1e3d
000000d0: ed34 0c3d 0836 953e 8b2e 3d3d 4c40 1b3d
000000e0: 543c f23c 1857 bdbd 22b0 dcba df1f e83b
000000f0: 1339 42bc b648 20bc 7b89 2dbd 7f8f 41be
00000100: eab6 a7bd 0e87 4dbe b65f f73c 0114 06be
00000110: 8f4b 27be 9eda e33c 08a0 c33c ee7a 973e
00000120: 4a64 b8bd f6ad ca3d af78 d7bd 289f d73d
00000130: 8943 a33d 4120 b33d 7101 06bc 717f 17bc
00000140: ad8e 1cbe 0a74 b8bc 0721 29bd 8b11 c1bd
00000150: 2cf1 1cbe f37f 863d 9158 b03d b4ff a9bb
00000160: 1ea0 e03b 5abd 5abe 0805 143c c592 32be
00000170: 934d 55bd 3293 82bd 9273 12bb 2d38 b6bd
00000180: 7e79 883c ce8d 313c 4264 d53d 2530 8d3b
00000190: 9fe0 cb3d b2e7 7a3d 1703 c53d a18c 26bd
000001a0: fef8 a6bc b7b5 63bc beb2 43bc 5b01 c1bc
000001b0: d074 fb3b 304f 9dbd 0b9c e1bd c1f5 d6bd
000001c0: 8264 103e 807d 683e 573e 6f3c 918c 6f3c
000001d0: d665 88bd fb76 543c d25e 03bd 031b 8e3d
000001e0: 6f3a 37bc a93d 7bbd af1f 58bd e42d 863c
000001f0: 2887 4c3c b76f 3b3e 6fdc 8a3d 440e babd
00000200: db7f e83d ebb1 2fbe def5 78bd 6492 5dbc
00000210: eb3e b5bc ab2e c2bc 8ba0 493d bf80 a13d
00000220: f42e 2c3e e618 923d f763 443e 7f12 5fbd
00000230: e51e 283d 831c f1bb 4694 5fbc 561e ebbd
00000240: cc6b 763c 48db ebbd e20c 83bd 88ff bd3d
00000250: 2908 b73d 3274 af3d 4f6f 2b3c 357a 513c
00000260: 63c5 103b 4306 8bbd eca2 b63d 4c55 1fbe
00000270: 3bd5 233e 5f31 0b3e 21d5 c43d aabf 54bc
00000280: d457 22bc ac69 f5bd 6698 993b 9eb4 463d
00000290: 8dfd cabc 7ba8 753e 6717 4ebc 0a76 16bd
000002a0: 2320 83ba b30e f039 57f3 1bbb 1ace 39bd
000002b0: 8255 cabd a7f4 b0bd 603d 20bd a510 663d
000002c0: a258 24bd 6670 fd3a 87f4 ff3a 97d8 5dbd
000002d0: 6cac 03bd 9882 1cbd 333f 19bd ee44 04be
000002e0: 1682 8b3d 6c53 463d 393c ed39 dce2 9c39
000002f0: 1dac 6d3b 6f8b 323d 8cc1 a83d c260 8d3d
00000300: f4d4 2bbe 559f 86bd b918 00bc 1491 f2bc
00000310: 701a eebc dffc 843d d686 14bc f45f 88bd
00000320: 6081 65bd d5c7 2bbd 3444 803c 8176 9d3d
00000330: cb08 333c fdce 5d3c 5fb0 b03d f137 5c3d
00000340: d2c7 e23a ae6a ba3d 67df 6b3c af97 4ebd
00000350: f1ea 7abc 7478 a1bc 6f26 25bc 98df 3abb
00000360: 82b5 f83c c0f0 d6bc 6f04 a93d 3362 883d
00000370: 277e aebc bf10 a1bd a94b 603c 1ccc c23b
00000380: 57aa fe3c ca67 febd 742b 21be 8961 70bd
00000390: c7be 093d d1e2 39bd d686 b53c aa75 1fbc
000003a0: b7f2 3abc d365 d0bd 7299 833c c1c8 e73c
000003b0: a483 d13b 86fb debd 7332 2b3e 5392 2a3e
000003c0: 21f5 4dbb a7fa a0bc 7bc7 8ebd 071f d63d
000003d0: 5995 73be 452c 4a3e d312 bcbe a876 1bbe
000003e0: 5b20 c4be 888a 303d a64f 2d3d caa2 ad3e
000003f0: 513c e13d 66b5 24be 24ea 5f3e aacc be3b

exp_avg_sq f4 [128, 9]
0.15545303 0.5322547 0.34036246 0.5220364 0.31931677 0.3715679 0.014010075 0.016416598
0.5689588 0.10381314 0.21371841 0.19687507 0.5746614 0.12183106 0.17147622 0.014899465
0.012881399 0.31667274 0.11501521 0.49498072 0.27414438 0.44661438 0.22151195 0.31274647
0.018665308 0.0137249185 0.23128383 0.2018954 0.15272674 0.32766905 0.27946287 0.18643205
0.28185582 0.0070676603 0.011442721 0.30248296 0.069680996 0.26989743 0.11526199 0.1587106
0.09479309 0.1335112 0.007637279 0.005039917 0.17725872 0.18841776 1.7974962 0.49090272
1.0954102 0.2612128 0.26256543 0.043391794 0.03786295 0.7312893 0.1098516 0.065389365
0.119405806 0.30576277 0.077938795 0.087128095 0.010463578 0.0039122677 0.12844844 0.2987203
2.3030305 0.96901685 1.8287576 0.5289031 0.74802715 0.06410943 0.05384065 0.968565
0.17169662 0.19951384 0.22397903 0.2006538 0.09151317 0.11151898 0.008168934 0.003583639
0.10942158 0.26297364 1.892179 0.51647645 1.1573467 0.26989138 0.27608013 0.04374148
0.046244096 0.7897886 0.2651093 0.60033864 0.42371786 0.7229638 0.15151262 0.17779619
0.04702032 0.018275376 0.66620386 0.033075932 0.109994136 0.053415947 0.101717636 0.033001862
0.034233797 0.005489948 0.0032715276 0.06850183 0.08125114 0.46274424 0.15977736 0.29842493
0.11348938 0.17465304 0.009210689 0.0078104036 0.20875025 0.096142866 0.25821877 0.16108496
0.35096654 0.14416508 0.19881597 0.04350664 0.006625196 0.5165703 0.1934529 0.34893838
0.32699046 0.36573586 0.18833897 0.24821578 0.01490807 0.01373791 0.29878074 0.16015933
0.2867138 0.26545295 0.71595395 0.29598624 0.9505061 0.023208724 0.018848717 1.0370964
0.0832988 0.17701636 0.12765637 0.25253955 0.09773589 0.1251808 0.0113323955 0.005158227
0.24686442 0.16434602 0.41465443 0.2936303 0.46534666 0.12723358 0.16882607 0.008400413
0.008337989 0.27271748 0.16438201 0.20757243 0.24690756 0.3373176 0.16717546 0.16611889
0.027428338 0.007105546 0.34392035 0.086681016 0.11415026 0.14565793 0.21574919 0.10341476
0.10692556 0.0049824384 0.0050228843 0.16854894 0.10528335 0.20113423 0.19896497 0.3053946
0.15056661 0.12080765 0.011513766 0.009672395 0.1099823 0.16105412 0.44322512 0.29091257
0.53005505 0.34250283 0.2442393 0.027518282 0.011603862 0.28182346 0.104769826 0.34831682
0.17935653 0.2666871 0.18093386 0.12448105 0.039133172 0.004963482 0.18747038 0.13638535
0.8015211 0.26519424 0.9433666 0.45577094 0.42709777 0.041069265 0.018809367 0.40479785
0.106620565 0.2780493 0.1687395 0.38449612 0.2156492 0.17137744 0.0092868395 0.009266824
0.24843684 0.20175788 0.16186161 0.31520852 0.2740507 0.17208429 0.2261737 0.015971184
0.0100623565 0.1684304 0.20849417 0.074126996 0.2036903 0.3396408 0.45500502 0.254438
0.01582804 0.012075824 0.14467297 0.089874625 0.32055172 0.20949659 0.21226765 0.109170705
0.17777053 0.0076978393 0.0074172667 0.22049004 0.47703648 0.87322927 0.94701713 0.96349996
00000000: 142f 1f3e d841 083f fd43 ae3e 2da4 053f
00000010: 7d7d a33e 263e be3e 838a 653c 1a7c 863c
00000020: 49a7 113f fc9b d43d 00d9 5a3e 9e99 493e
00000030: 021d 133f 9082 f93d 7697 2f3e e31c 743c
00000040: 810c 533c ee22 a23e 188d eb3d 1d6e fd3e
00000050: a75c 8c3e a4aa e43e 07d4 623e 4e20 a03e
00000060: fde7 983c 7bde 603c abd5 6c3e abbd 4e3e
00000070: 6664 1c3e 3dc4 a73e c215 8f3e 0be8 3e3e
00000080: 684f 903e d597 e73b 407a 3b3c 0cdf 9a3e
00000090: e9b4 8e3d ff2f 8a3e 7a0e ec3d 0885 223e
000000a0: e122 c23d 29b7 083e 2442 fa3b e325 a53b
000000b0: 4f83 353e 96f0 403e 5b14 e63f 9a57 fb3e
000000c0: 6736 8c3f afbd 853e fa6e 863e 98bb 313d
000000d0: 2e16 1b3d c735 3b3f e0f9 e03d dcea 853d
000000e0: 088b f43d f08c 9c3e 609e 9f3d 3770 b23d
000000f0: 6d6f 2b3c 7b32 803b fd87 033e def1 983e
00000100: da64 1340 7d11 783f bb14 ea3f 3266 073f
00000110: b57e 3f3f ce4b 833d 0388 5c3d e0f3 773f
00000120: 3dd1 2f3e 5b4d 4c3e c25a 653e 3178 4d3e
00000130: 426b bb3d 1064 e43d fed6 053c 7cdb 6a3b
00000140: 6c18 e03d 7ba4 863e ec32 f23f cd37 043f
00000150: f023 943f 342f 8a3e 605a 8d3e 442a 333d
00000160: 736a 3d3d 962f 4a3f 68bc 873e cbaf 193f
00000170: 8cf1 d83e 2814 393f 2026 1b3e 3410 363e
00000180: 6198 403d 3eb6 953c 568c 2a3f a17a 073d
00000190: 9b44 e13d aeca 5a3d 5651 d03d f62c 073d
000001a0: bd38 0c3d 06e5 b33b 2067 563b b04a 8c3d
000001b0: ff66 a63d d0ec ec3e ad9c 233e 27cb 983e
000001c0: 1f6d e83d 3fd8 323e 6ee8 163c 6aee ff3b
000001d0: a0c2 553e 8de6 c43d 4035 843e 75f3 243e
000001e0: e3b1 b33e 03a0 133e 6a96 4b3e 0534 323d
000001f0: 2c18 d93b f43d 043f 8418 463e 0da8 b23e
00000200: 4b6b a73e bb41 bb3e eedb 403e 472c 7e3e
00000210: fa40 743c f914 613c caf9 983e cf00 243e
00000220: 27cc 923e 73e9 873e c248 373f 828b 973e
00000230: 5e54 733f 3920 be3c a068 9a3c 93bf 843f
00000240: 9098 aa3d c743 353e 5ab8 023e dd4c 813e
00000250: c129 c83d 652f 003e 83ab 393c 5806 a93b
00000260: 07ca 7c3e 534a 283e 964d d43e b656 963e
00000270: eb41 ee3e 8549 023e bee0 2c3e e3a1 093c
00000280: 109c 083c a0a1 8b3e c253 283e de8d 543e
00000290: 56d5 7c3e e4b4 ac3e 0b30 2b3e 121b 2a3e
000002a0: 65b1 e03c a4d5 e83b 5416 b03e d185 b13d
000002b0: 9dc7 e93d 5a27 153e 5bed 5c3e 1ecb d33d
000002c0: cafb da3d b943 a33b 0297 a43b 1898 2c3e
000002d0: cc9e d73d 22f6 4d3e 79bd 4b3e ae5c 9c3e
000002e0: 222e 1a3e 006a f73d 3ca4 3c3c f778 1e3c
000002f0: 663e e13d 5feb 243e 67ee e23e 7ef2 943e
00000300: b0b1 073f 885c af3e de19 7a3e 056e e13c
00000310: 201e 3e3c 2a4b 903e 9091 d63d 9556 b23e
00000320: 3da9 373e 368b 883e ba46 393e ecef fe3d
00000330: 1b4a 203d b4a4 a23b 3cf8 3f3e 9aa8 0b3e
00000340: 7d30 4d3f 8ac7 873e 7980 713f cf5a e93e
00000350: 8fac da3e 3f38 283d 1a16 9a3c aa41 cf3e
00000360: e25b da3d 7a5c 8e3e 0cca 2c3e addc c43e
00000370: 25d3 5c3e 917d 2f3e d427 183c e1d3 173c
00000380: 3a66 7e3e 9e99 4e3e 0dbf 253e 0363 a13e
00000390: 6050 8c3e dd36 303e 149a 673e 00d6 823c
000003a0: 95dc 243c 0579 2c3e 7f7f 553e e5cf 973d
000003b0: 3194 503e 66e5 ad3e 6bf6 e83e b345 823e
000003c0: cea9 813c add9 453c 2725 143e 3010 b83d
000003d0: 5b1f a43e 4686 563e b15c 593e e494 df3d
000003e0: 7a09 363e 283e fc3b 8b0c f33b 24c8 613e
000003f0: 203e f43e f48b 5f3f b76f 723f efa7 763f

exp_avg f4 [128]
-0.11190796 -0.28854817 -0.19593574 0.036521677 -0.038630057 -0.21938793 0.073526196 -0.15816852
0.055976003 0.029130466 -0.07094087 0.098909326 -0.09683901 -0.082682125 0.15353152 0.06128779
-0.076222435 0.06611123 -0.02460532 -0.009484847 -0.027795188 0.19250903 -0.07641683 0.07038132
-0.0683668 0.06493906 0.09317089 -0.28024772 -0.24810691 0.0011580639 0.07200654 -0.01842228
0.042753812 0.10651604 -0.14879066 -0.14660123 -0.010534126 0.13420191 0.0028028663 -0.05590711
-0.15096529 0.17195387 0.06920534 -0.13626753 -0.076901175 -0.03260677 -0.1302017 0.3985114
0.078009166 0.057401016 -0.092778996 0.007982989 -0.09377441 0.09586749 0.070333906 0.24991824
-0.32854736 0.06634551 0.03471667 -0.10247399 0.03896467 0.00016643222 -0.09429929 -0.03166453
0.20406273 -0.057721738 0.30252236 0.23568535 0.10351575 0.13784061 0.19625604 0.08002182
0.15103668 0.04102412 -0.035779085 0.026250415 -0.024917683 -0.008258603 -0.14403231 -0.035842516
-0.114762075 0.045997694 0.41401333 0.046305772 -0.089914955 0.13167828 -0.028363377 0.20692983
-0.014792356 0.12980492 -0.12699892 -0.15171939 0.0029901196 -0.15180443 -0.033096194 -0.0058313482
0.0922753 0.006829625 -0.13845538 -0.018674495 0.2152513 -0.1339659 -0.079903 0.1478036
-0.08775221 0.011315651 -0.23767987 -0.35708317 0.028236076 0.091985986 -0.06516851 -0.12891833
0.11432719 0.34145692 0.027529083 0.10368739 -0.081652135 -0.18229677 -0.17194994 0.057647556
0.0010245395 0.19968265 0.03888874 -0.36384344 -0.04277129 0.0754475 -0.017813195 0.009299086
00000000: 0030 e5bd 96bc 93be 61a3 48be c197 153d
00000010: 8d3a 1ebd 3ba7 60be e794 963d eef6 21be
00000020: 1847 653d 04a3 ee3c 7249 91bd f990 ca3d
00000030: 8853 c6bd 3f55 a9bd 5e37 1d3e e808 7b3d
00000040: 821a 9cbd 5365 873d 1991 c9bc 5566 1bbc
00000050: bcb2 e3bc 1621 453e 6d80 9cbd 1524 903d
00000060: e503 8cbd c5fe 843d 61d0 be3d a17c 8fbe
00000070: bd0f 7ebe 2dca 973a 2a78 933d 52ea 96bc
00000080: 9f1e 2f3d 1525 da3d 945c 18be a21e 16be
00000090: 5497 2cbc 3a6c 093e 4bb0 373b dbfe 64bd
000000a0: a596 1abe ad14 303e 88bb 8d3d b789 0bbe
000000b0: 5d7e 9dbd ad8e 05bd 9853 05be b009 cc3e
000000c0: 45c3 9f3d 541d 6b3d ea02 bebd 15cb 023c
000000d0: cc0c c0bd 2d56 c43d 390b 903d 91ea 7f3e
000000e0: 5c37 a8be 28e0 873d 1133 0e3d e2dd d1bd
000000f0: 6b99 1f3d 4f84 2e39 fc1f c1bd abb2 01bd
00000100: d2f5 503e a16d 6cbd 36e4 9a3e 8057 713e
00000110: 1100 d43d 1726 0d3e 58f7 483e 7be2 a33d
00000120: 5ca9 1a3e e808 283d 178d 12bd 1c0b d73c
00000130: 2b20 ccbc 174f 07bc 357d 13be 9acf 12bd
00000140: 6108 ebbd 1468 3c3d 8ef9 d33e 1fab 3d3d
00000150: 5525 b8bd acd6 063e 505a e8bc 6ae5 533e
00000160: a35b 72bc 95eb 043e 010c 02be 545c 1bbe
00000170: e2f5 433b 9f72 1bbe e08f 07bd e514 bfbb
00000180: d5fa bc3d 0ccb df3b 3fc7 0dbe 41fb 98bc
00000190: d66a 5c3e 5b2e 09be 2fa4 a3bd d459 173e
000001a0: 6eb7 b3bd 4865 393c 5a62 73be 9bd3 b6be
000001b0: 584f e73c 2663 bc3d 1177 85bd 2b03 04be
000001c0: 6024 ea3d 71d3 ae3e ac84 e13c 0e5a d43d
000001d0: 3c39 a7bd 01ac 3abe a513 30be d81f 6c3d
000001e0: d749 863a 9c79 4c3e cd49 1f3d b049 babe
000001f0: f330 2fbd 3884 9a3d faec 91bc 325b 183c

exp_avg_sq f4 [128]
0.5831328 0.46658215 0.587319 0.24615039 0.22109284 1.6009088 0.1510811 2.3341622
0.13285829 1.6074222 0.7768553 0.11352088 0.33979285 0.27966985 0.5817291 0.75650996
0.1997569 0.34250936 0.27667144 0.18786646 0.111336455 0.5092662 0.18434833 0.38901883
0.3313187 0.2666275 0.17048919 0.32538313 1.441112 0.09152345 1.7748736 0.117154576
0.3048935 0.43443376 0.24386938 0.43607497 0.33284867 0.08909341 0.21251002 0.4948661
0.23500377 1.1798843 1.0755132 0.24425116 0.42856795 1.0905826 1.1243838 0.74309456
0.36387268 0.11713681 0.36115873 0.24482244 0.29822326 0.19015722 0.11465017 0.8744815
0.5793896 0.43766883 0.13022947 0.58684886 0.41670322 0.18326475 0.27667877 0.2658152
0.583603 0.8870453 0.47447726 0.32813895 0.27761903 1.2458266 0.22426711 0.47318274
0.9415167 0.33403364 1.4233327 0.32005882 0.23139246 0.445699 0.71641946 0.28722098
0.110323064 0.30652124 1.378912 0.21653749 0.3041618 0.22906417 0.4656523 0.41251874
0.3487624 0.5798425 0.33686334 1.6383435 0.33962613 0.32231653 0.24729685 0.3425605
1.1980447 0.32721063 0.56933236 0.14073093 0.53790534 0.5443546 1.6679024 0.9297342
0.5512471 0.76526445 0.6995269 3.9106798 0.36039644 0.69100815 0.33194882 0.49641943
0.5372816 0.5938573 0.24307756 2.2686384 1.8304218 0.8489164 4.328876 0.275884
0.060303695 0.29734358 0.24212366 1.5692935 0.53993905 0.44107023 4.230985 1.0671787
00000000: 3148 153f dbe3 ee3e 8a5a 163f d90e 7c3e
00000010: 2966 623e 94ea cc3f 01b5 1a3e ea62 1540
00000020: 010c 083e 03c0 cd3f fddf 463f a37d e83d
00000030: 54f9 ad3e e330 8f3e 33ec 143f a3aa 413f
00000040: 138d 4c3e 635d af3e e1a7 8d3e 1160 403e
00000050: 5e04 e43d 455f 023f cfc5 3c3e 7a2d c73e
00000060: 9ba2 a93e 6683 883e b894 2e3e 9e98 a63e
00000070: 5c76 b83f a670 bb3d 0f2f e33f bdee ef3d
00000080: 001b 9c3e 1a6e de3e e5b8 793e 3845 df3e
00000090: 246b aa3e 9b76 b63d 3a9c 593e 175f fd3e
000000a0: d4a4 703e 7306 973f 6baa 893f fa1c 7a3e
000000b0: 426d db3e 3698 8b3f cfeb 8f3f 723b 3e3f
000000c0: 854d ba3e 6de5 ef3d cce9 b83e bcb2 7a3e
000000d0: b8b0 983e 93b8 423e b5cd ea3d 05de 5f3f
000000e0: e052 143f 2116 e03e e05a 053e ba3b 163f
000000f0: 205a d53e c1a9 3b3e d7a8 8d3e ee18 883e
00000100: 0267 153f 6715 633f afee f23e d401 a83e
00000110: 1524 8e3e 3f77 9f3f 47a6 653e 0245 f23e
00000120: 3d07 713f 7506 ab3e c42f b63f c0de a33e
00000130: 25f2 6c3e a932 e43e 4467 373f a10e 933e
00000140: 0ff1 e13d 5af0 9c3e 3080 b03f 01bc 5d3e
00000150: 18bb 9b3e cc8f 6a3e fa69 ee3e a835 d33e
00000160: fc90 b23e 8f70 143f 5a79 ac3e 3db5 d13f
00000170: 7ae3 ad3e ac06 a53e 633b 7d3e 1764 af3e
00000180: 8759 993f 2788 a73e c4bf 113f c51b 103e
00000190: 2ab4 093f d35a 0b3f d37d d53f 0f03 6e3f
000001a0: 881e 0d3f 5fe8 433f 3214 333f 9448 7a40
000001b0: e285 b83e e9e5 303f 32f5 a93e b02a fe3e
000001c0: 498b 093f 0807 183f 53e9 783e 5f31 1140
000001d0: 434b ea3f 9652 593f 2786 8a40 ab40 8d3e
000001e0: 0201 773d 6b3d 983e 44ef 773e 9cde c83f
000001f0: 7239 0a3f f5d3 e13e 3b64 8740 5099 883f
