ppo/models/behavioral_cloning_agents_drone/bc7/ckpts/002159100.pt (torch_old, 374669 bytes, 26 tensors)

fc1.weight f4 [128, 15]
000000 b7 36 0a be a8 72 0a 3e 58 8b 02 bf 6a 3c a1 be
       -0.13497435 0.135203 -0.5099387 -0.31491405
000010 30 cf 1f 3d 57 e6 15 3e 61 2a 96 3e ed 56 05 3f
       0.03901595 0.14638649 0.29329208 0.52085763
000020 2a 6b 6f 3c fb 16 b5 3d 15 05 92 be d7 4e dc be
       0.014612952 0.08842274 -0.28519502 -0.430289
000030 0a 97 7c be c2 1a 2f be e8 f6 31 3e 70 b6 45 bc
       -0.24666992 -0.17100051 0.17379344 -0.012067422
000040 26 39 82 3e 06 88 17 3f a4 bc 22 bf 0c 96 62 be
       0.25434226 0.5919193 -0.6356909 -0.22127551
000050 6d c8 25 be 8f cf 34 3e 87 73 f0 3e 4d 90 bf 3e
       -0.16189738 0.17657302 0.4696314 0.3741478
000060 d9 1d 05 bd dd d6 2c 3d f1 4e 66 3e a3 45 75 be
       -0.032499168 0.042197097 0.22491051 -0.23952346
000070 75 72 26 be 99 4b 41 3e 32 83 f1 bd c6 e1 1b 3e
       -0.162546 0.18876494 -0.11792602 0.15222844
000080 8a 97 5e be a3 eb 97 3d 61 0d c4 3d e1 a4 38 be
       -0.21737495 0.07417991 0.09572864 -0.18031646
000090 51 dc 74 be 28 3b 3e 3e 4b a0 fe bb c2 26 ef 3d
       -0.23912169 0.18577254 -0.0077705733 0.11677314
0000a0 31 e3 38 3e 91 1d 0d be 40 ed 32 3d 66 dd 76 be
       0.18055417 -0.1378081 0.04368329 -0.24107894
0000b0 0a 46 83 bd b1 fa f9 bd 89 84 48 3e 3d 74 ee 3d
       -0.06409843 -0.12206019 0.19581808 0.116432644
0000c0 be a9 3d be 53 c6 c7 bd 00 2e 72 3e 6f de 13 3f
       -0.18521783 -0.09754624 0.2365036 0.5776128
0000d0 9f 40 72 3e 03 96 1c 3e 6a b4 c3 3d 33 2f 66 bd
       0.23657463 0.152916 0.095558956 -0.056197356
0000e0 dc fa 7d 3b c7 fc 4c be bc 3f 37 be d9 c1 43 3d
       0.003875426 -0.20018302 -0.17895406 0.04779229
0000f0 07 15 30 3c 70 f9 48 3e f3 9c a4 be ee 4f 30 3e
       0.010747201 0.19626403 -0.32150993 0.17217991
000100 c4 01 b5 3e cc ed 08 be 8f c5 da 3e 98 e2 1d bd
       0.3535291 -0.13371962 0.4272885 -0.038546175
000110 71 88 51 3e 0b 90 c7 3e 94 99 d4 be 3d c5 e0 3a
       0.20462205 0.38977084 -0.4152342 0.0017148625
000120 fc d1 cf 3d 9a 10 5b 3e 8a ad c9 3e d2 27 03 3e
       0.10147473 0.21393052 0.39390212 0.12808159
000130 83 0e 80 3e c4 6b 0a be 0e 38 1d 3d 64 83 6d be
       0.25011072 -0.13517672 0.038383536 -0.23194653
000140 23 e1 bb 3c a6 0d e2 3d f3 c0 d8 3d 7f 05 90 be
       0.022934502 0.110377595 0.10583677 -0.28129193
000150 c6 d8 d9 3d 55 6d 45 be 0d 3e 23 be d0 0e f2 bd
       0.106370494 -0.19279988 -0.15941639 -0.118192315
000160 98 59 cb 3d 4d 31 e2 3c d1 76 c3 bd 39 80 95 3d
       0.09929198 0.0276114 -0.09544147 0.07299847
000170 c5 65 05 3d b4 3b b1 3e 47 e7 47 be d2 3d a7 be
       0.032567758 0.34615862 -0.19521819 -0.32664353
000180 d8 b1 fc 3e 7f 9e 9d 3e 3a d2 06 bf da a7 1c be
       0.49354434 0.30784985 -0.5266453 -0.15298405
000190 36 79 07 3d 96 f8 f8 3d fa 90 e6 bd b6 16 85 bd
       0.03307458 0.12156789 -0.11258121 -0.064984724
0001a0 19 e1 97 bd 4b 40 2b be 85 0d ff 3c 1f ee 56 be
       -0.07415981 -0.16723745 0.031134376 -0.20989273
0001b0 71 90 06 be 72 9c 94 3e b5 d2 68 3e 5b 6c b8 3e
       -0.13141038 0.29025608 0.22736628 0.3602017
0001c0 59 70 01 bd 65 b0 df 3d c0 6a bf 3e 49 f3 32 bf
       -0.031601284 0.109223165 0.3738613 -0.69902474
0001d0 f3 a1 9d 3c 40 e2 3e 3c 70 4d 1a 3d 1c 94 d4 3d
       0.019242262 0.011650622 0.037671506 0.10379812
0001e0 d0 3e 83 3c ea 2e 01 be eb e3 08 bf 13 ae a2 3d
       0.016021162 -0.12615553 -0.53472775 0.07943358
0001f0 ba 7b 85 be f7 56 6d be 87 2c 41 3c dc 2d 9f be
       -0.26070958 -0.23177706 0.011790401 -0.31089675
000200 2a b6 bd be c3 6e 88 be 7b d5 d3 3d c1 2c 5d be
       -0.37053043 -0.26647004 0.103434525 -0.21599104
000210 a6 3e 2c be 10 19 59 bc 25 b8 8b 3e b8 dd a9 bd
       -0.16820773 -0.013250604 0.2728893 -0.082942426
000220 40 45 a5 3d ae 6d 46 3e 78 29 8a 3c 6a da 9e 3d
       0.08069849 0.19377777 0.016865477 0.07756503
000230 63 5c af 3d 2c 86 e4 3d 7d c4 07 3f d4 df a1 bc
       0.08562543 0.11158404 0.5303419 -0.01976005
000240 7d 43 98 be ed 73 a7 bd a1 89 42 3e 00 62 db ba
       -0.2973899 -0.08176408 0.18997814 -0.001673758
000250 ba 6a 03 be 91 3b f7 bd 74 91 7b be 4d 4e 08 bf
       -0.12833682 -0.12071908 -0.24567205 -0.5324448
000260 2c f5 28 bd 81 97 38 bd bf 45 e9 3e 29 92 d2 be
       -0.04124944 -0.04506636 0.45561025 -0.41127136
000270 16 aa 67 3e 2d c5 0a bf 4e c7 95 bd 51 7e 26 be
       0.22623476 -0.54207116 -0.07313405 -0.16259123
000280 a6 1d 74 3e 0f 09 65 be 64 41 6d be 0b 4a 64 be
       0.23839435 -0.22366737 -0.23169476 -0.2229387
000290 78 88 fa 3d 8e 47 84 3c 48 c7 e9 bd cf dd a3 ba
       0.122330606 0.016147401 -0.11414963 -0.0012502017
0002a0 f6 23 2e 3c 0c 16 6e bd 5d 76 5f 3e b1 3c bc bd
       0.010628691 -0.058126494 0.21822496 -0.091912635
0002b0 9d 24 90 3e 72 7e ef bd 68 ee 73 3c 5c 74 85 3d
       0.28152934 -0.116940394 0.014888383 0.065163344
0002c0 15 32 e7 be 5a 0e ec bd c4 6c 53 3e 72 f8 f6 bc
       -0.45155397 -0.11526175 0.2064696 -0.030147765
0002d0 aa 78 d5 bc 5e 9c 70 be f7 d4 3e 3e 46 06 82 3c
       -0.026058514 -0.2349715 0.18635927 0.015872132
0002e0 e7 b6 5e 3e a3 b1 e5 3d ba 27 da be 9e 20 98 bd
       0.21749459 0.11215522 -0.42608434 -0.07428096
0002f0 28 d0 e3 be f9 09 76 3e ab fe ee 3e 6a fb 3e 3e
       -0.44494748 0.24027242 0.4667867 0.18650594
000300 bc 7f 3a be 20 ac 3c 3c 49 e8 b6 bd 1c 79 09 be
       -0.1821279 0.011515647 -0.08931024 -0.13425106
000310 b1 ee a5 3d 46 83 86 bd 22 ce 1f be e8 83 ed 3b
       0.081021674 -0.06568007 -0.15605977 0.0072483905
000320 f4 fb b3 3e e5 d5 76 3e 9d f3 80 be f0 fe b5 be
       0.35153162 0.24105032 -0.25185862 -0.35546064
000330 ce ba d4 be 1c 77 fc 3e a6 0b 79 3d c6 03 5f 3e
       -0.4154877 0.49309623 0.060802124 0.21778783
000340 04 37 bf 3d 3f 2b ac 3d d6 e5 23 3c 9e 7c 8b 3e
       0.09336665 0.08406686 0.010003528 0.27243513
000350 b6 24 07 3e 5b f6 90 38 b1 b3 07 3e 3f c1 1e 3f
       0.13197598 6.912342e-05 0.1325214 0.6201362
000360 16 9e 75 be 16 f6 9e be 3b f2 74 3e 06 4b 92 be
       -0.23986086 -0.31047124 0.23920529 -0.28572863
000370 68 ac 15 bd ea 48 b0 3e e0 04 bf 3d 00 8c ef 3b
       -0.036541373 0.3443063 0.09327102 0.0073103905
000380 04 77 82 bd 97 33 c3 bd e9 54 cc be 67 eb 78 be
       -0.06370357 -0.09531324 -0.3990853 -0.24308549
000390 e2 1f ae 3c bb 40 96 3e 66 e6 a1 3e cd 11 93 3d
       0.021255437 0.2934626 0.31621093 0.071811296
0003a0 29 23 a8 bd 0a 08 04 3e 07 bc 89 3d 7a 34 75 3d
       -0.08209831 0.12893692 0.067253165 0.0598645
0003b0 4a f5 36 3e 77 e6 3a be 74 1d e0 bd 67 32 48 3e
       0.17867008 -0.18251978 -0.10943118 0.19550477
0003c0 be 1a 1d be 3d 58 bb 3e e4 1c fb bd d4 18 06 3e
       -0.15342233 0.36590758 -0.1226137 0.13095409
0003d0 13 3d 39 3d c3 98 13 bf 77 d2 38 3f 35 2e 97 be
       0.04522426 -0.5765497 0.72196144 -0.2952744
0003e0 b7 72 28 3d b3 4a 02 bd de 35 a0 3d 78 f5 cb 3d
       0.041125026 -0.03180952 0.07822774 0.09958929
0003f0 3c a2 5a 3e 76 93 9a bd db be 76 bd ee 81 8e be
       0.2135095 -0.07547657 -0.060240608 -0.27833503

fc1.bias f4 [128]
000000 cd 09 b8 be f0 80 cc be 27 19 12 be 14 fe a9 3c
       -0.35944977 -0.39942122 -0.14267407 0.020751037
000010 84 8a 16 be b0 0d 96 ba b6 e3 31 be 7e 28 16 3d
       -0.14701277 -0.0011448171 -0.17372021 0.03665971
000020 88 f4 a1 bd d4 a2 8f bd cf 1f d1 be f7 f6 ce be
       -0.07907969 -0.07013479 -0.4084458 -0.40422794
000030 7e e5 91 bd a6 81 9c 3d 5d 65 5b 3c e2 eb dd bd
       -0.0712385 0.07641916 0.013390866 -0.10836007
000040 73 51 81 3c 02 c0 18 be 2a 14 e0 be 48 ce ae be
       0.015785908 -0.14916995 -0.43765384 -0.34141755
000050 ad 3e 0d be 14 9b 9b bd d5 e3 b2 be 99 d4 f8 bd
       -0.1379344 -0.07597938 -0.34939447 -0.12149925
000060 4a 50 4d be 1b 86 09 be 7b e8 17 bd 16 a0 2b 3e
       -0.20050159 -0.13430063 -0.037086945 0.16760287
000070 2e 8e 15 3d d7 3b 6c be 24 82 20 be 44 e9 96 bc
       0.036512546 -0.23069702 -0.15674645 -0.018421777
000080 69 1a 75 3d ee 97 44 bc 08 90 81 be 7a 73 76 be
       0.05983964 -0.0119991135 -0.253052 -0.24067488
000090 f0 bb 4c 3e e7 73 cc bd 04 a5 9c bd 63 50 01 3d
       0.19993567 -0.09983044 -0.07648662 0.031570803
0000a0 27 c9 03 3e 26 87 84 bc e5 be 5a bd 4a cd 47 3e
       0.12869702 -0.016177725 -0.053404707 0.19511905
0000b0 25 65 75 be d0 bd 18 be a3 c0 de be 47 74 13 be
       -0.23964365 -0.14916158 -0.43506345 -0.14399825
0000c0 bc 3f 66 be f6 0b b4 be 83 a5 ce be b0 ee d4 bd
       -0.2248525 -0.35165375 -0.4036065 -0.103970885
0000d0 6f 91 d8 bd 6a 3b 64 be 84 25 a7 bd 79 15 6d be
       -0.10574614 -0.2228829 -0.081614524 -0.23152722
0000e0 06 d2 f0 3d b8 40 6d 3c 23 8f b6 bd 74 2e f2 bd
       0.11758809 0.014480762 -0.0891402 -0.118252665
0000f0 e5 e7 8e be c7 fe 86 be 98 9f 01 bd a6 25 2c bd
       -0.27911296 -0.26366255 -0.03164634 -0.04202809
000100 74 a0 cd bc 69 d7 84 be 43 24 e0 ba 6c c2 a9 be
       -0.025100924 -0.25945595 -0.0017100651 -0.33156145
000110 6e ac 94 3c 26 6c 1a 3e ad 57 1a bf a9 93 38 be
       0.018148627 0.15080318 -0.6029003 -0.18025078
000120 4f 14 83 3c a8 37 43 be 1e c1 5e be eb 9c 5a bd
       0.016000895 -0.190642 -0.21753356 -0.053372305
000130 a7 d4 be bb e6 2c a4 bd 98 10 31 be eb 4d 56 3d
       -0.00582369 -0.08016376 -0.17291486 0.052320402
000140 78 a9 c1 bd 97 d2 c7 bd 06 ef 3a bd 1e 51 66 bd
       -0.09456152 -0.09756964 -0.045638107 -0.056229703
000150 23 be 08 bc d4 41 39 bd 66 93 98 bc a8 3a 30 3c
       -0.008346113 -0.045228794 -0.018624973 0.010756172
000160 c1 ed 3c be 7e 65 5b 3e 5f 3f 60 be cf cd 7c 3d
       -0.18450071 0.21425435 -0.21899174 0.061719712
000170 55 94 3d be d0 0d af 3a f1 05 97 3d 08 2e 14 be
       -0.18513615 0.0013355557 0.0737418 -0.14470685
000180 f1 2d 8e bd 80 81 37 3d 40 d8 83 be 35 f5 79 be
       -0.069423564 0.044801235 -0.25750923 -0.24409945
000190 a0 a8 60 be b8 d0 58 be ef a8 88 bd da 61 c4 be
       -0.21939325 -0.2117337 -0.066728465 -0.38355905
0001a0 2c 40 37 bd dd 20 a1 bd 94 ca 3d 3e 9a b3 86 bd
       -0.044738933 -0.07867596 0.18534309 -0.06577225
0001b0 19 8f 52 be 3f da ae 3c 7e d8 1f be a2 be 87 3e
       -0.205624 0.021344302 -0.15609929 0.2651263
0001c0 92 29 41 be e1 29 ca be 94 8b eb bd 49 0f 0c bb
       -0.18863514 -0.39485076 -0.11501232 -0.0021371415
0001d0 a7 6e 87 3c 46 9a 1a be 3c 58 1a 3e 45 fc e8 bd
       0.016532255 -0.15097913 0.15072721 -0.113762416
0001e0 0f 96 c0 bd 49 18 9e be ac 06 1b bd 93 27 a5 3e
       -0.094036214 -0.30877903 -0.03784816 0.32256755
0001f0 ef b0 2f be 93 4d 47 bd 19 2f d2 3d 82 11 8e bd
       -0.17157339 -0.048657965 0.102628894 -0.06936933

fc2.weight f4 [128, 128]
000000 c1 0c d8 be 08 cf b9 bd ec 64 fa 3c 45 46 85 3c
       -0.4219723 -0.09072691 0.030565701 0.016268859
000010 16 44 00 3f 59 45 70 3e f6 45 29 bc a2 b6 8b bf
       0.5010389 0.23463954 -0.010331621 -1.091511
000020 75 5d 07 3f b1 56 ab 3d 09 83 b4 bf 2e 23 81 3d
       0.5287698 0.083661444 -1.4102489 0.06305538
000030 ec df ac 3c 9a 2d 1e be 1b 2f 7b be e5 79 02 3f
       0.021102868 -0.15447083 -0.24529688 0.50967246
000040 43 3c 6b be 72 51 b3 3a bb 40 04 bf 67 6a 99 3e
       -0.22972207 0.0013680889 -0.5166127 0.2996399
000050 42 d4 86 3d 27 6a 64 be 58 6c 28 be 1c e2 0f be
       0.06583454 -0.22306119 -0.1644758 -0.14051098
000060 d3 01 15 3c be f6 00 3e 44 b7 7b be f5 c0 e5 bd
       0.009094673 0.12594125 -0.24581629 -0.11218444
000070 35 c7 94 be 33 b0 1e 3e dd b8 14 3e 9d 69 01 3d
       -0.29058233 0.15496902 0.14523645 0.03159486
000080 b4 9a b4 bc e8 74 66 be 9c 53 9d be 7b 34 f2 be
       -0.022046424 -0.22505534 -0.3072785 -0.47305664
000090 4c ea 5a be 57 ef 0c 3d cd 87 9e 3c e5 c8 83 3e
       -0.2137844 0.03440794 0.019351864 0.25739208
0000a0 27 d4 0a 3e 44 f8 b1 be 66 55 58 3e 38 0a 76 bd
       0.13557492 -0.34759724 0.21126327 -0.06006834
0000b0 cf b3 6c bc 8d 79 cf bf 41 fb b8 bd 1b 8c ef be
       -0.014447167 -1.6208969 -0.09032298 -0.4678658
0000c0 1e 85 6d be 02 f8 15 3e 63 06 02 be 3e dd 9a 3d
       -0.23195311 0.14645389 -0.12697749 0.0756173
0000d0 66 85 ad be 8e 32 11 3e 7d c9 f3 3c 29 fc fc 3e
       -0.33890837 0.14179441 0.029759163 0.49411133
0000e0 3f 57 5c 3e d2 ce 00 bc 9a d6 28 bf 7d 92 e6 be
       0.21517657 -0.00786181 -0.65952456 -0.45033637
0000f0 b4 8a 1e be 85 ac 9c 3c d2 97 08 bf 0e fc 30 3c
       -0.15482599 0.019125232 -0.5335666 0.010802282
000100 53 cd 85 bd 1f 34 8a 3e 23 57 e7 3d b2 f7 2f 3e
       -0.06533303 0.2699289 0.11295917 0.17184332
000110 a1 0f 4a be fd af d8 be 4a e2 41 bd 48 77 06 3f
       -0.19732524 -0.42321768 -0.047334947 0.5252576
000120 25 b9 fe 3d 58 35 ad bd 1e ff 9e bd 9c a2 5f 3e
       0.12437657 -0.0845744 -0.077635035 0.21839374
000130 98 6c 16 3f 40 bd 39 be 75 da b9 3c 7b 08 50 3e
       0.5875945 -0.181386 0.022687176 0.20315735
000140 b0 a8 23 3e 58 af 8c 3d eb 1f 19 bf a0 16 83 3d
       0.15982318 0.06869382 -0.5981433 0.064008
000150 a0 2f 34 3e 27 73 b4 3d 9d 5c e2 bd 5c 3e 07 3e
       0.17596292 0.08811026 -0.11052821 0.13207382
000160 8a 71 fb 3d c2 0f c2 3d 7e 77 75 3e e2 90 a2 bf
       0.12277515 0.09475662 0.23971364 -1.2700465
000170 b2 06 8d 3c ff 94 07 3e 24 21 f3 3d 61 3a 08 be
       0.017215107 0.13240431 0.118715554 -0.1330352
000180 f9 bd 58 3d 02 19 39 bd 60 4c 82 be 35 55 2d be
       0.052915547 -0.045189865 -0.25448895 -0.16927035
000190 40 78 7e bd 97 39 82 3d 4d 34 9e 3d ab a1 c7 be
       -0.062126398 0.06358641 0.07724819 -0.3899053
0001a0 0f 59 b2 3d 60 3b 64 3f 05 d0 cd be 7e 24 15 be
       0.08708393 0.891531 -0.4019777 -0.14564702
0001b0 78 22 66 3e c5 3a 81 be aa ea 82 3e 10 f2 8c 3c
       0.22474086 -0.2524015 0.2556966 0.017205268
0001c0 fc 05 b8 3e 76 e6 8d 3d 83 62 71 be dc 7e 95 be
       0.35942066 0.069287226 -0.23572735 -0.2919835
0001d0 ea b8 74 be 07 2b 7b 3c 0f 7b 67 3e 76 5e 96 be
       -0.23898664 0.015330083 0.22605537 -0.29368943
0001e0 45 c5 8d bc 13 30 32 3f 3a fb 92 be df ce 94 3c
       -0.01730598 0.69604605 -0.28707296 0.01816505
0001f0 b4 21 da 3e 55 93 0e be d8 92 71 3e d3 fa 6e 3e
       0.42603838 -0.1392339 0.23591173 0.2333787
000200 83 16 27 bc 05 59 8d be f2 ca 0e be 56 99 99 3d
       -0.010198238 -0.2760698 -0.13944605 0.0749995
000210 24 d4 82 bf 5d 46 1b 3e 9b ec 6a bd 3a 94 43 be
       -1.022099 0.1516356 -0.05735455 -0.19099513
000220 2e ab 85 bc 0e 3a a3 3c 59 05 a0 3e e3 31 0c 3e
       -0.016316976 0.019925144 0.3125408 0.13690905
000230 4c b6 e9 3d c9 86 a2 3d 6e 59 23 be 8c cb 22 be
       0.114117235 0.079358645 -0.15952083 -0.1589796
000240 ea fe 80 39 c8 2a ea bd 69 24 37 3d 43 6a 5e 3e
       0.00024603988 -0.11433941 0.044712458 0.21720223
000250 68 d6 8e 3e 1c 8d c5 bc 8d cb 10 be 49 68 84 3d
       0.27897954 -0.024115138 -0.14140148 0.06465203
000260 fc ef 8d 3e 8b c7 bf bc 8a 11 bc 3e 06 58 8e be
       0.27722156 -0.02341058 0.3673213 -0.27801532
000270 de 1d 4c bf 0c 05 ca 3d 12 86 12 be 01 53 e5 3d
       -0.79733074 0.09864244 -0.14308956 0.11197472
000280 e0 9e d3 3d dd 21 83 3e ee 07 5e be fb 94 84 be
       0.103330374 0.25611773 -0.21682712 -0.25894913
000290 83 8c f8 be d7 1c 44 be 88 1d c3 3e 0e 7e 56 3d
       -0.48544702 -0.19151627 0.38108468 0.05236631
0002a0 19 79 be be 7c 3a d6 3e 51 13 1e bf 06 19 11 3e
       -0.37201765 0.41841495 -0.61748224 0.14169702
0002b0 95 d2 50 3e a0 b5 61 be 67 ab 54 3d d3 3f 40 bb
       0.2039283 -0.2204194 0.051921275 -0.0029334917
0002c0 8f 33 08 3e 8c 15 14 be 4e 9c c7 bd b0 ca 2d be
       0.13300918 -0.14461344 -0.0974661 -0.1697185
0002d0 35 e9 2e 3e b0 78 20 be a8 5a de 3d 0d 70 05 3e
       0.17081149 -0.15671039 0.10857135 0.13031025
0002e0 71 05 a0 3e 3a 54 fa be 71 ef 68 3e d5 70 f0 3c
       0.3125415 -0.48892385 0.2274759 0.029350678
0002f0 57 a4 6b 3e 22 8d 4e bf 69 71 ec 3d 3f cd 99 be
       0.2301191 -0.806841 0.11545069 -0.30039403
000300 e4 5e d2 bc 9a 1a 02 3e 4b 51 fc be d4 70 1e 3d
       -0.025680013 0.1270546 -0.49280772 0.03868182
000310 29 01 9e 3d fb 6c be bc 1c 88 70 be 16 ee 27 bd
       0.07715065 -0.023245325 -0.23489422 -0.04099854
000320 7b a9 00 be 13 0c 29 3e 54 06 c8 be 4e 6b 28 3a
       -0.12564652 0.16508512 -0.39067328 0.0006424681
000330 1b 71 96 3d 72 c2 5d be 1f fb 34 3d 4c 8b 72 3e
       0.07345792 -0.21656206 0.0441848 0.2368595
000340 0a 74 60 bd 39 e8 24 bf 4a 10 62 be 09 21 0a 3f
       -0.054798163 -0.64416844 -0.22076526 0.5395666
000350 5a f2 c9 bd 13 ac 8d be a8 f3 07 3e bb 95 8b 3d
       -0.09860678 -0.27670345 0.13276541 0.06815668
000360 d5 38 5e be 31 6a 1f 3c 5b c1 54 3e 49 dd 54 bd
       -0.21701367 0.009729908 0.20776884 -0.051968846
000370 63 9d 64 bf 24 72 e1 be 9c 18 51 3e 90 11 df bb
       -0.89302653 -0.44032395 0.20419544 -0.0068075135
000380 8d 10 06 be 37 04 16 3e b4 e6 48 be 2d 82 48 3d
       -0.13092251 0.14650045 -0.19619256 0.04895227
000390 78 98 00 3e a6 f6 0b bf 39 d2 c7 3d 3c 66 46 3e
       0.12558162 -0.5467323 0.09756894 0.19374937
0003a0 72 9c 49 be 85 3d 87 3c 16 32 8d be fb 36 e8 3d
       -0.19688585 0.016508827 -0.27577275 0.11338612
0003b0 48 43 2d be 09 f2 4d bf f2 dc 20 be c2 2c 57 3d
       -0.16920197 -0.8044744 -0.15709284 0.05253292
0003c0 47 40 1a bf d8 ef c6 be 30 2b 02 3e 56 bc c0 3e
       -0.6025433 -0.3885486 0.12711787 0.3764369
0003d0 a1 4d b5 bd b4 80 3b bf 47 52 9e be 9d 9c b5 3e
       -0.08852697 -0.7324326 -0.30922148 0.3547105
0003e0 51 72 25 3e 27 79 f0 3e 23 46 2d be af ee bf 3c
       0.1615689 0.46967432 -0.16921286 0.023429243
0003f0 44 10 38 3e 7c 6f c6 be 28 51 f4 bd eb 8b 26 bd
       0.17974955 -0.3875693 -0.11929542 -0.04066078

fc2.bias f4 [128]
000000 48 6f e0 3d 68 69 0d be 2e 2e bb bd 4d 70 28 3e
       0.10958725 -0.1380974 -0.091396675 0.1644909
000010 d0 ec 0f bd 7f ff dd 3d 12 97 a9 3c d3 a3 94 3c
       -0.03513795 0.10839748 0.020701919 0.018144524
000020 60 ca fa bd 7b 6f 2d 3d e2 7d b4 3d c0 be 36 bd
       -0.12245631 0.042342644 0.08813073 -0.044615507
000030 ec df 1d bd b8 02 6a be f2 1c 2a 3d 75 e9 32 be
       -0.038543627 -0.228526 0.04153151 -0.1747187
000040 04 b2 6f 3d 37 84 0e be 26 c9 c8 be 56 b4 ae be
       0.05851938 -0.13917623 -0.39215964 -0.3412196
000050 b4 76 89 3e 49 c8 83 3b 6b cc 1a be 39 8e 93 bd
       0.26848376 0.0040216786 -0.15117042 -0.07204861
000060 9a ad b1 3c 3e 45 04 be de 32 dc bc 73 ec eb 3c
       0.021689225 -0.12917039 -0.026879724 0.028799271
000070 74 c4 7b bc bf 08 5a 3e ad a1 36 3c 21 c1 5c bd
       -0.015366662 0.21292399 0.011146945 -0.05389512
000080 01 66 ad 3e 70 07 dd bd cb 08 44 be 6a d4 49 3e
       0.33866885 -0.10792434 -0.19143979 0.19709936
000090 4b ea ae bd 7b 89 3b 3e 7d 6e 03 3e ef e6 c2 bc
       -0.085407816 0.18314163 0.12835117 -0.023791758
0000a0 89 1a f7 bd 7c 1b 9e 3d 88 f3 5a bb 7c 20 5d be
       -0.12065608 0.07720086 -0.0033409316 -0.21594423
0000b0 64 0a e4 3d 34 10 43 be 02 90 a2 3d 40 72 b9 bd
       0.11134794 -0.1904915 0.079376236 -0.090549946
0000c0 58 b7 eb be 82 12 3c be 16 6d c6 3e 6d d7 84 3d
       -0.46038318 -0.18366435 0.387551 0.06486402
0000d0 0a 85 0c 3e ba 3f 0d bd 81 4e 9f be f5 c1 3a bd
       0.13722625 -0.034484603 -0.3111458 -0.045595128
0000e0 f2 47 00 bf e5 af 4e 3d 58 53 55 be ca 1e 00 3e
       -0.5010978 0.050460715 -0.20832574 0.12511745
0000f0 45 f0 1d 3d 21 d9 5b bc 67 d2 28 3e f4 87 a0 bd
       0.038559217 -0.013418467 0.16486512 -0.07838431
000100 7d f9 94 3d d3 14 37 3e b4 24 83 3e 76 a5 f9 3d
       0.072741486 0.17879038 0.2561394 0.12189762
000110 b8 a8 63 3e 70 9e 14 3e 61 e8 a2 be 42 10 80 bd
       0.2223233 0.14513564 -0.31817916 -0.06253101
000120 a5 86 3a 3e 58 d0 80 3c bd ee 1b bf ef 74 02 bd
       0.18215425 0.015724346 -0.6091116 -0.031849798
000130 be 32 be 3d b5 43 b7 3d 69 0a 1c be cf 68 ad be
       0.09287022 0.08948461 -0.15238346 -0.33869025
000140 eb d5 82 be 75 c1 3f 3d 0b 4e 1d 3b 75 8f 83 be
       -0.2555383 0.046815354 0.0024002816 -0.25695387
000150 cd 8b 48 3d e8 15 b5 bd e3 9f 0d 3e c4 47 29 be
       0.04896145 -0.08842069 0.13830523 -0.16531283
000160 15 77 7b bd 4b 69 72 be 1a 21 4d bd 4e ac 44 3e
       -0.061392862 -0.23672979 -0.050080396 0.19206354
000170 fe 4e 12 be 62 11 83 be b3 68 ed 3c 2b 67 1b be
       -0.14287946 -0.255992 0.028980589 -0.15176074
000180 2e 4d 95 bd d6 a1 80 bd d4 03 80 3e 1a d5 6c 3d
       -0.072901115 -0.06280868 0.2500292 0.057820417
000190 ea 70 ab 3d 12 1d 3b be 46 fa e3 bd 9c c5 86 3e
       0.08371146 -0.18272808 -0.1113172 0.2632264
0001a0 44 ee f1 3d 8a b0 5c 3e ef c4 37 be e5 d5 51 3e
       0.11813024 0.2155172 -0.17946218 0.2049175
0001b0 83 af 36 bd 96 f7 3b be cb 1c 6e 3e 3e 06 cc 3c
       -0.044600975 -0.18356165 0.23253171 0.02490532
0001c0 68 93 e9 bd 37 62 46 3d bf 49 42 3e 03 ed 79 3e
       -0.11405069 0.04843351 0.18973444 0.24406819
0001d0 a3 86 52 3d ea c0 b9 be fc 8d 73 3c 92 8b bc be
       0.05139793 -0.36279994 0.014865395 -0.36825234
0001e0 24 8a 7d bb e0 08 46 3e c3 57 4c bc 91 41 73 bc
       -0.0038687075 0.19339323 -0.012472096 -0.014847175
0001f0 77 e6 29 bb 32 d0 22 be 2d 49 3e 3e 8e aa dc 3d
       -0.0025924721 -0.15899733 0.18582602 0.10774718

dist.fc_mean.weight f4 [4, 128]
000000 3a 12 5b 3c 9a 14 78 3b 12 2a c7 bc e4 2a 18 3c
       0.013371045 0.0037854076 -0.024312053 0.00928757
000010 c1 8e 02 bd 9d 50 18 bc ac 29 85 be 3b 21 79 3d
       -0.031874422 -0.009296563 -0.26008356 0.060822707
000020 a4 50 3f 3c f8 fd 81 3e d7 63 ac 3c c6 af e0 bd
       0.011676941 0.25389075 0.021043701 -0.10971026
000030 ce a8 92 bc 4d ba 66 bc 74 04 c3 39 8b 51 1e 3d
       -0.017902758 -0.0140825035 0.00037196616 0.038651984
000040 50 45 50 bd 9c 21 d7 3c ca 5b b8 3b ca 18 10 3e
       -0.05084735 0.026261143 0.0056261765 0.14071956
000050 ba 67 39 bc 36 67 5d bc d0 c6 65 3c 66 66 fd 3b
       -0.011316234 -0.013513377 0.014024451 0.007733154
000060 21 a7 16 bc f7 ae 93 3c 83 1b 32 bb 92 b4 a9 3b
       -0.00919512 0.018027766 -0.0027177043 0.0051789964
000070 c9 be 60 3a d7 a9 a8 bc 72 22 1b bc 32 b7 b8 3c
       0.0008573351 -0.020588798 -0.009468662 0.022548292
000080 19 5d 99 bb 74 63 16 bd 32 f6 2c bb 15 fa e2 3a
       -0.0046802876 -0.03671594 -0.002639186 0.0017316962
000090 38 aa 8e 3d 3b 36 73 3b ad 45 9a 3c 6c 11 ca 3c
       0.069660604 0.0037111181 0.018832052 0.02466651
0000a0 ce ee ca 3e 71 bb f4 bb d0 32 f0 3c 59 64 95 39
       0.3963532 -0.007468634 0.029321104 0.0002849426
0000b0 8e 17 08 3b 29 7b 7b bf 90 49 63 3c 0f cf fb 3d
       0.0020765993 -0.982348 0.013872519 0.12295353
0000c0 03 89 ab bd 75 5f 2f 3e a6 e6 33 bb f6 50 63 3c
       -0.08375742 0.17126258 -0.002745071 0.013874283
0000d0 ce b5 64 3c c6 4c 40 bc 90 16 64 bb da 82 cb bd
       0.013959361 -0.011737054 -0.0034803487 -0.09937067
0000e0 eb e3 29 3e 78 1f 0d 3c c7 79 c1 3d a7 a7 2f bc
       0.1659085 0.00861346 0.09447055 -0.010721124
0000f0 0f fa 4c bc 18 ed 14 3d dd 86 fa 3b d4 09 4a 3d
       -0.0125107905 0.036358923 0.0076454715 0.04932578
000100 0a e4 ae 3b 2a 4f c1 3a be ce 15 3a 32 c5 a3 3b
       0.005337243 0.0014748324 0.0005714706 0.0049978727
000110 68 d7 75 3c 0c 87 87 3b 98 20 5b 3c ca 5f 8f 3c
       0.01500497 0.004135972 0.01337447 0.01750173
000120 d9 96 be bc 2a 2d 8a 3c a9 7d 49 3c 2c 79 79 bc
       -0.02326529 0.016867239 0.012298026 -0.0152266435
000130 fe fb 0b bb f5 9a 8f 3b fc e2 6b 3b 1a 5f 8b bb
       -0.0021359916 0.004382486 0.0035993448 -0.0042532803
000140 11 4c 6d bc b7 f4 68 3b c4 c5 5b 3a 6e a3 c3 bf
       -0.014483468 0.0035546252 0.00083836564 -1.528425
000150 4b 85 39 bd 66 7e 46 bc d2 af f9 3b a3 18 f5 bc
       -0.045293134 -0.012115097 0.0076198364 -0.029918974
000160 18 92 97 3b 80 69 4a 3d 62 ec fd 3b d4 85 15 3c
       0.00462557 0.04941702 0.0077491263 0.009126145
000170 ae 7d f9 3b 27 d5 70 bc 35 da 18 bb fa 96 4b bc
       0.007613859 -0.014699257 -0.002332342 -0.012426132
000180 4f 46 e5 3d b6 fa 65 3d bf ff bf ba e6 a2 bc bb
       0.11195051 0.0561473 -0.0014648362 -0.0057567237
000190 f5 3d d4 bc 19 8b b4 3e bc d2 74 bc 07 cb 1e bb
       -0.02590845 0.35262373 -0.014942821 -0.00242299
0001a0 2f d7 9b 3b 5d 23 4f bc 11 a7 8c b9 aa 52 c1 3b
       0.0047558765 -0.012642709 -0.00026827355 0.005899747
0001b0 56 7f b1 3a 0e 2d eb ba 90 bf b7 bb 4c 79 13 bd
       0.0013541977 -0.0017942504 -0.005607553 -0.03600435
0001c0 79 31 a9 3d bb cd 8b 3b 7d e2 5a 3c 6f d6 22 3b
       0.08261389 0.0042664683 0.013359663 0.002484705
0001d0 d9 e6 38 bc c5 67 da 3d 36 cc 3f ba 2a 60 2e 3e
       -0.011285507 0.10664324 -0.00073165016 0.17028871
0001e0 db 9c 83 3b 51 4e b4 bb 18 4e fa bb f8 4b bb 3c
       0.0040165014 -0.0055025 -0.007638704 0.022863373
0001f0 d7 d6 d6 bc 2f 52 e4 bd 6e 89 64 3d cb 02 43 3c
       -0.02622549 -0.11148488 0.055795126 0.011902521
000200 ce 6b bd ba 7a c0 c4 be 63 67 04 be a8 9c 35 bb
       -0.0014451684 -0.38428098 -0.12930064 -0.0027711783
000210 5f 3c 11 bd 91 63 5c bc c0 de ac 3b 4b 38 86 3b
       -0.035457965 -0.013451473 0.0052755773 0.004096066
000220 6f 2b e4 bc c9 22 a5 bb 1a 46 1e bb 58 dc 21 3d
       -0.027852742 -0.005039547 -0.002415067 0.039516777
000230 e3 16 fe 3c 35 c9 f3 b9 44 ea 94 bb 9c ac 42 3c
       0.031016773 -0.00046498483 -0.004544528 0.011881974
000240 8f 22 15 3a 97 f7 42 39 82 ec 80 bd 18 c8 b5 bc
       0.00056890486 0.00018593516 -0.0629511 -0.022190139
000250 f9 cb 86 ba b9 97 83 3b 81 e3 8e bb e6 97 08 bb
       -0.0010284177 0.0040158895 -0.0043606167 -0.0020842492
000260 7d de 23 38 69 a2 ed ba b8 c1 30 3b 8e 96 5e 3c
       3.9069437e-05 -0.0018130067 0.0026970934 0.0135857
000270 a7 2a bd ba 3b 19 b2 3a 2e 2b 64 bc 9a 43 e4 bc
       -0.0014432267 0.0013587842 -0.01392631 -0.027864266
000280 c6 9d 80 ba 68 63 93 3c 7a 90 fa ba 4e ae 0e bb
       -0.0009812645 0.017991737 -0.0019116544 -0.0021771374
000290 96 10 f3 ba 86 39 39 ba c7 d3 cc ba 09 30 41 3c
       -0.0018544372 -0.00070657616 -0.0015627079 0.011791238
0002a0 5d 57 9e 39 b5 41 32 bc e3 08 f3 3c 25 28 80 3c
       0.000302012 -0.010879924 0.029667323 0.015644142
0002b0 5f 00 9a 3b 33 1d 89 bb 93 02 96 39 06 cc b1 bb
       0.0046997513 -0.004184389 0.00028612147 -0.005425933
0002c0 2a 8e a1 bb 3a 88 e8 bc a1 bb 21 ba aa 0a 55 bb
       -0.0049302774 -0.02838527 -0.00061696215 -0.0032507577
0002d0 d6 6c 1a b9 07 22 b1 ba c8 01 96 be 63 00 76 3a
       -0.00014727129 -0.0013514169 -0.29298234 0.0009384213
0002e0 a0 37 b0 3c 9a 4d ea b9 f6 01 c8 bb b4 dd 98 3b
       0.021510899 -0.00044689776 -0.0061037494 0.004665101
0002f0 3c 1c 6d ba f1 5b 0c 3c 4f 2d 00 bb 52 a4 40 bc
       -0.000904504 0.008566842 -0.0019558256 -0.011757927
000300 88 e1 4f 3d b3 38 be ba 16 4b 67 ba 94 57 9d 39
       0.050752193 -0.0014512747 -0.00088231394 0.00030010624
000310 6b 1b f0 ba a8 97 c0 3b 2e 00 36 3f 43 70 ba bc
       -0.0018318718 0.005877454 0.71094024 -0.022758609
000320 f1 cc 1f 3b 4f 72 22 3b 9e 6c b8 bb 62 38 85 3c
       0.002438363 0.0024787372 -0.0056281826 0.016262237
000330 5b 3f 1b 3b 8d f7 8a 3b c6 b2 30 bb ce 59 7c ba
       0.0023688886 0.004240936 -0.0026962026 -0.0009626419
000340 6b 6a 9b bc 20 8a d2 ba 59 fe ee bb da 33 80 3a
       -0.018971642 -0.0016062893 -0.007293504 0.0009781078
000350 a4 3b 09 3b a4 57 db 3b 29 8f 5a ba ec 40 f1 bc
       0.002094009 0.006693797 -0.00083373726 -0.029449902
000360 8a 2a 26 bc 9c c7 38 3e 9b 43 90 3e ae ba 5f 3b
       -0.010141978 0.18044895 0.2817658 0.003413837
000370 e2 47 95 bb 80 d5 20 be 00 f3 51 be 93 a5 48 bc
       -0.0045556882 -0.15706444 -0.20502853 -0.012246507
000380 f2 8f 98 3b 3e ff 3b bd c3 3e 92 ba 3d d3 a7 bc
       0.0046558315 -0.045897715 -0.001115762 -0.020486468
000390 ca d6 60 3b 7f 19 53 39 68 7d a2 bc 1c 5a 22 bb
       0.0034307712 0.00020132026 -0.019835189 -0.0024772948
0003a0 fc 7f ce bb 6e 18 cd ba 47 5d 16 bd 35 86 8d bb
       -0.006301878 -0.0015647539 -0.03671005 -0.0043189772
0003b0 83 68 de 3c 5e 96 10 be 4a 96 98 bb b0 31 80 3a
       0.027149444 -0.1411986 -0.0046565877 0.0009780433
0003c0 fa f0 a4 3c d1 87 bd bf 6c 5b 30 ba f8 4e bc b9
       0.020134438 -1.4807073 -0.000672749 -0.0003591699
0003d0 ec ab aa bc 48 63 89 bd 40 4b cc bc 0d 27 29 bb
       -0.020833932 -0.067083895 -0.024938226 -0.002581063
0003e0 34 3e c0 3a 4c 69 e0 ba bc e4 97 3c c3 fc 0b bb
       0.0014666975 -0.0017121225 0.018541686 -0.0021360375
0003f0 fe 86 78 ba 53 95 86 bb 0c 41 5e ba f4 7e eb b9
       -0.00094805646 -0.0041071563 -0.00084783207 -0.0004491728

dist.fc_mean.bias f4 [4]
000000 89 a9 9f bb d5 2c 1a 3b 47 4e 8b bb bd 44 ae 3b
       -0.004872505 0.0023525257 -0.0042512747 0.005318253

dist.fc_logstd.weight f4 [4, 128]
000000 8c 61 43 3f e3 11 78 bf ce 36 a7 bc c8 66 e6 bf
       0.7632072 -0.9690229 -0.020411875 -1.8000116
000010 a6 18 ea be 98 6d 08 3f 7d 03 f3 3f b8 f9 56 be
       -0.4572193 0.53292227 1.898544 -0.20993698
000020 94 9e 8b bc 79 ef 53 3e 65 43 f3 3f 5a aa 83 bc
       -0.01704339 0.2069682 1.9004942 -0.01607244
000030 a7 4b 82 bf 44 17 4a be 79 a3 19 c0 c3 67 16 bf
       -1.0179337 -0.19735438 -2.4006026 -0.5875208
000040 a7 1e 39 40 e4 35 6f be 13 cb 36 bf 44 5f 46 be
       2.8924959 -0.23360401 -0.71403617 -0.19372278
000050 a7 05 5f 3e 15 fa 77 be cc 21 c6 bf 29 1c 52 3e
       0.217795 -0.24216492 -1.5479064 0.20518555
000060 a2 21 6f c0 d6 31 c9 bf ee 60 91 be 2b 3d dd bd
       -3.7364278 -1.5718334 -0.28394264 -0.108026825
000070 cb 0b ad be f6 d1 85 c0 f8 3b 94 3d fe 8f f1 bb
       -0.3379806 -4.18188 0.07238001 -0.0073719015
000080 dd ab 5d bf d2 66 ef be 9f c3 d3 bf 9f 1f 80 c0
       -0.8659037 -0.46758133 -1.6544074 -4.00386
000090 7d 28 f7 bd b0 37 04 40 e9 20 2e bf 9b 59 fc be
       -0.120682694 2.065899 -0.68018967 -0.49287114
0000a0 96 c8 1a 3e 52 ed 48 3f ae 72 49 3f 59 a9 7d bf
       0.1511558 0.7848712 0.7869061 -0.9908653
0000b0 2b d7 26 bf 03 1c 0b 3f bd fa e9 3d 8a f9 df 3e
       -0.6517207 0.5433962 0.11424778 0.4374507
0000c0 72 93 cd bd 2b 40 c7 3e 40 86 85 c0 4b a0 5e c0
       -0.100378886 0.38916144 -4.172638 -3.4785335
0000d0 56 43 01 3f cc 8e 04 40 77 c2 2c be be 13 60 be
       0.5049337 2.0712156 -0.16871057 -0.21882531
0000e0 26 a5 20 be 1c 65 e5 bf bf 22 c4 be fb 38 61 3f
       -0.15687999 -1.7921481 -0.3830776 0.8797757
0000f0 19 ea c2 3f 73 51 8c 3c d2 34 33 c0 41 c4 df be
       1.5227691 0.017128682 -2.800099 -0.43704417
000100 07 da 41 be 27 01 4c bf 24 77 14 c0 b2 a0 5e c0
       -0.18930827 -0.7968926 -2.3197718 -3.478558
000110 f1 40 2d c0 aa dc 6d bf f1 da d3 be db 26 0f be
       -2.7070887 -0.9291483 -0.41377977 -0.13979666
000120 e0 17 fb 3e 45 c5 c5 be ef 0e 0a bf 7e d2 68 be
       0.49041653 -0.38627067 -0.53929037 -0.22736546
000130 77 0e 22 3d e2 3a 13 c0 8d 46 11 3f c8 77 55 bf
       0.039564576 -2.300469 0.56748277 -0.83385897
000140 1b dc e8 3b a5 df 3c 3e 80 f7 4d bf 83 93 5b 40
       0.0071063167 0.18444689 -0.8045578 3.4308784
000150 da 89 9a be 0d 49 9c bd 81 46 ba 3f 46 a3 26 bd
       -0.30183297 -0.07631121 1.4552766 -0.040683053
000160 f9 c3 e8 bf 55 af b4 be 80 48 e7 be 24 bd ac bf
       -1.8184806 -0.35290018 -0.451725 -1.3495221
000170 bf 2c f4 bf 1f 73 79 bf 5d 0b d7 3d 93 c6 f5 bf
       -1.9076155 -0.97441286 0.10500214 -1.9201225
000180 ee 57 a6 bf ac d4 9e bd 55 73 c9 bf 59 2d 8e bf
       -1.2995584 -0.07755408 -1.5738322 -1.1107589
000190 23 67 3c c0 29 91 29 3f 94 b6 c8 be 56 eb 2c c0
       -2.943795 0.6623712 -0.39201796 -2.7018638
0001a0 d0 1c 91 bf 73 bc 16 40 64 aa f1 bd b9 46 24 c0
       -1.1336918 2.355252 -0.118000776 -2.5668166
0001b0 9a 30 8a 3e b5 06 0d be 33 ac 00 3f 05 3d 03 40
       0.26990205 -0.1377209 0.50262755 2.0505993
0001c0 73 ed 2c be 3f a3 0d c0 b6 84 00 c0 0b cf 2f c0
       -0.16887455 -2.2130888 -2.0081 -2.747012
0001d0 5a 82 d4 bf 42 cb f3 3e 3d 9c ab bf ce 0b cf be
       -1.660228 0.4761601 -1.3407055 -0.40438694
0001e0 7a cc e0 bf e8 b7 94 bf cb 9a e4 be ad ad 82 3c
       -1.7562401 -1.1618624 -0.44649348 0.015951956
0001f0 37 73 49 3e a1 a1 d0 3e 51 e8 fe bf 50 d2 cf bf
       0.19672857 0.40748313 -1.9914647 -1.6236057
000200 57 39 39 c0 9b 25 09 3c be c2 33 3d 67 d3 00 c0
       -2.8941247 0.008370782 0.043886892 -2.012903
000210 3a 1f 05 bf ee 28 07 3d 7f d1 4f c0 dc 99 e8 bd
       -0.5200077 0.032998018 -3.2471616 -0.11357471
000220 1c 97 f2 bb e5 c2 c1 bf 20 53 b3 bf f4 b8 9e 3a
       -0.0074032675 -1.5137602 -1.4009743 0.0012109564
000230 64 9c 58 bf cd d0 57 bf 35 df d3 bf 8b 8f e0 be
       -0.84613633 -0.8430298 -1.6552492 -0.43859515
000240 9a 0f cc bf 52 9b 88 3e 64 54 14 bf df 46 cc be
       -1.5942261 0.26681 -0.5794127 -0.3989782
000250 2d 78 1f c0 bd 3b 88 bd 3f b0 12 3e e1 16 c7 bf
       -2.49171 -0.06652019 0.14325045 -1.5553857
000260 86 20 aa bf e7 5f b7 bf 96 57 8f bf b5 66 93 be
       -1.3291175 -1.4326142 -1.1198604 -0.28789297
000270 b5 cb 06 c0 ae 4c 76 bf 7c f4 b5 be ca 2b 44 bd
       -2.1061833 -0.96210754 -0.3553809 -0.047893323
000280 2d a9 27 c0 fd 5b 84 3c 79 70 88 be bd b3 b1 bf
       -2.6197007 0.016157145 -0.2664831 -1.3882977
000290 3d 36 0c bf 63 c4 53 c0 f2 bd ee bf fe 1c 2a 3e
       -0.5477026 -3.3088615 -1.8651717 0.16612622
0002a0 52 ae bb bf 31 4a 99 3f d0 07 49 c0 8b e9 ce bf
       -1.4662573 1.1975766 -3.1411018 -1.6165022
0002b0 a2 d1 e2 bf b1 c1 b0 3e eb d0 df bd 13 94 5b bf
       -1.7720225 0.34522775 -0.1092852 -0.8577282
0002c0 b0 a2 d2 bd f4 a7 92 bf 10 e6 52 c0 8d ac 09 3e
       -0.102849364 -1.1457505 -3.295292 0.13444729
0002d0 e5 d6 87 be d8 a5 64 c0 a7 0a 7f 3c a5 d0 8d bf
       -0.2653114 -3.5726223 0.015566505 -1.1079298
0002e0 50 c0 5f bf 78 f7 21 3f 09 e6 b2 3e ad ae fd be
       -0.8740282 0.6326823 0.34941128 -0.4954733
0002f0 e1 e3 0f c0 a9 6a 5b bd e0 f1 fd 3e d2 fe a5 be
       -2.2482836 -0.053568516 0.49598598 -0.32420975
000300 ec 42 02 bf c4 ad 33 c0 6e 16 d8 bf 48 06 73 bf
       -0.50883365 -2.8074808 -1.6881845 -0.9493146
000310 03 0d dd bf b5 c5 c4 3f a4 59 d3 be c7 50 41 be
       -1.7269596 1.5372835 -0.41279328 -0.1887847
000320 c6 88 48 40 e7 a1 f4 be ff d6 8a bf 83 b3 7d be
       3.133348 -0.47779772 -1.0846862 -0.2477551
000330 3e 34 ef bf f6 62 00 bf 55 ed 34 3f 3d 50 82 3f
       -1.8687818 -0.50151 0.7067464 1.0180737
000340 09 59 b1 bf d7 9d ed bf 7a ad 9e bf e9 3f 1c c0
       -1.3855296 -1.8563794 -1.2396691 -2.4414008
000350 16 4c d7 bd 96 ac 10 be ef 4b ed bf 2d f9 bf bd
       -0.10512559 -0.14128336 -1.8538798 -0.093736984
000360 f0 65 05 3f 05 5f 41 bf b0 90 a5 3f 94 94 9b 3f
       0.5210867 -0.75535613 1.293478 1.2154717
000370 2c 10 7e 3f 77 c0 37 bf 1a 14 27 3d 05 98 f5 3e
       0.99243426 -0.71778053 0.040790655 0.47967544
000380 5f 01 b5 bf d5 45 d8 bd 0c f5 6d 3e f1 50 17 be
       -1.4141043 -0.105601944 0.23238009 -0.1477697
000390 02 8e f2 3f d5 8d 8b be 27 68 4a 3d 3f dd c6 bf
       1.8949587 -0.27256647 0.049415734 -1.5536269
0003a0 99 ae e6 bf 8d 90 07 c0 e4 39 25 bf 87 b1 19 40
       -1.8022033 -2.1181977 -0.6454146 2.4014604
0003b0 58 c4 ca bf 74 52 af 3d 36 50 37 40 4e 9c 0d c0
       -1.5841169 0.085606486 2.8642707 -2.212665
0003c0 0e d8 62 bf b1 f2 51 3f 85 ca 82 bf a0 e5 61 3e
       -0.88610923 0.8201094 -1.0218054 0.22060251
0003d0 9a 15 04 c0 37 e4 db be 98 b5 a5 bf 66 ac a7 bf
       -2.0638185 -0.42947552 -1.2946043 -1.3099487
0003e0 45 a3 4a bf bd 9a 33 c0 b3 e9 ac bf 28 00 8f bd
       -0.7915538 -2.8063195 -1.3508819 -0.06982452
0003f0 48 ac a8 3e 8b 00 6c 3f d9 b3 22 c0 9b 43 a2 bf
       0.3294394 0.9218833 -2.542227 -1.2676882

dist.fc_logstd.bias f4 [4]
000000 85 c4 5c bf dd 06 9a bf da 0a 8f bf 60 ff 36 bf
       -0.86237365 -1.2033345 -1.1175187 -0.7148342

exp_avg f4 [128, 15]
000000 d0 cc 26 3d b7 c5 b0 3d a8 66 c7 be 98 e7 a7 bd
       0.04072267 0.08631461 -0.38945508 -0.0819847
000010 f6 61 f9 3d 14 85 21 3e 5e d8 2b 3d 96 00 d9 3d
       0.12176888 0.15773422 0.04195439 0.10595815
000020 d5 e7 fb bd 31 5e 11 3d 60 1f 2a 3c 10 64 16 be
       -0.12300078 0.03549022 0.010383457 -0.14686608
000030 00 00 00 00 00 00 00 00 3d 56 2c bf 18 0b 9a bd
       0.0 0.0 -0.6731909 -0.07521647
000040 ee cc 0f bd 1b ca ec 3e ab e6 5d be 24 00 4c be
       -0.035107546 0.46247944 -0.21670024 -0.19921929
000050 4e cd 03 be 41 20 35 be 2d 30 84 3e 83 e5 29 bc
       -0.12871286 -0.17688085 0.25818005 -0.010369661
000060 13 58 35 be 50 e8 c5 3d 2c 20 1c 3e 00 00 00 00
       -0.17709379 0.09663451 0.15246648 0.0
000070 00 00 00 00 a5 dd 3f bf af ed 3e 3d f9 26 b5 bd
       0.0 -0.7494758 0.04661339 -0.08845324
000080 71 38 e5 3e 98 6c 7d 3e a6 50 ff bc 7d b8 f6 bd
       0.44769624 0.24748456 -0.031166386 -0.12046907
000090 57 56 a7 bb e2 e5 82 be 34 bb 3f 3e 1f 5f 4d 3d
       -0.005106728 -0.25566012 0.18723756 0.050139543
0000a0 97 b5 e3 bd 3c c9 cf 3d 00 00 00 00 00 00 00 00
       -0.1111862 0.10145804 0.0 0.0
0000b0 e8 ea e3 3f e6 c6 61 3c 23 0b bf 3d 48 03 0a 3c
       1.7806063 0.013780331 0.09328296 0.008423634
0000c0 00 0a 0a bd 08 d0 22 3d 06 6b 44 be ac 02 53 3d
       -0.033700943 0.039749175 -0.19181451 0.05151622
0000d0 91 51 bc 3d 63 14 b4 bb 1f 38 f4 3c e3 66 68 3d
       0.09195245 -0.0054955943 0.029811917 0.056738745
0000e0 f6 af 57 3d 00 00 00 00 00 00 00 00 1c 9c 24 be
       0.052658044 0.0 0.0 -0.16075176
0000f0 6b 56 10 3b cf ec a1 3d 0e 4f 21 3d e9 d7 ca bc
       0.0022024165 0.07906496 0.039382033 -0.024761157
000100 df 6e ac 3d 84 0c 37 bd bf 56 90 3d 43 bf 87 3d
       0.084195845 -0.04468967 0.070477955 0.06628277
000110 ea 01 29 bd 80 8b 5d 3d 06 f7 d5 3c 64 45 b3 bd
       -0.04126159 0.054088116 0.026118767 -0.087534696
000120 00 00 00 00 00 00 00 00 df d7 6f bd 16 71 d3 3c
       0.0 0.0 -0.05855548 0.02581076
000130 54 44 05 bc d8 07 b8 bd 1b cf d1 3c 05 3d 9b 3d
       -0.0081339665 -0.08985871 0.02561145 0.07579998
000140 5f 29 02 be f9 8e 5a 3c 97 b6 af 3b 94 c9 18 bd
       -0.12711094 0.013339751 0.0053623426 -0.037301615
000150 e9 e3 4c bc ff 3b 4e bb bc 60 75 bd 00 00 00 00
       -0.01250551 -0.0031468866 -0.059906706 0.0
000160 00 00 00 00 ef ff d5 3d a2 e0 2e 3e b4 e2 f2 bb
       0.0 0.10449206 0.17077878 -0.007412279
000170 56 dd 5f bd c3 42 88 3d a6 cf e2 3c a1 b1 bb 3d
       -0.05465444 0.06653359 0.027686905 0.091647394
000180 9c d1 32 3d a7 3c bb 3d 83 ce e3 3d 18 2c c6 bd
       0.04365693 0.09142428 0.11123373 -0.09676379
000190 fb 5b 30 3d b2 04 c5 3c 00 00 00 00 00 00 00 00
       0.04305647 0.02405009 0.0 0.0
0001a0 9d 57 45 3e 5f 2c ed bb 9b cb 52 3c bf d1 47 3e
       0.19271703 -0.0072379555 0.012865926 0.19513606
0001b0 7b 49 1f 3d 49 62 bf bd 24 8b 43 be 2b 10 83 bd
       0.038888436 -0.09344918 -0.19096047 -0.06399568
0001c0 2f 80 87 bd c3 be 03 3e 8b f2 00 bc f4 14 ad 3c
       -0.06616246 0.12865739 -0.007870327 0.021128155
0001d0 f7 62 9a 3d 00 00 00 00 00 00 00 00 8e 8d 3b bc
       0.07538407 0.0 0.0 -0.0114473235
0001e0 4d b8 73 bc 0d 61 b1 3d ae 00 ae 3e 0d 11 dc 3d
       -0.014875484 0.08661089 0.33984894 0.1074544
0001f0 a1 d0 d2 3d 8c fe ff 3d 8d 0c 85 3d 89 5b 80 bd
       0.10293699 0.12499723 0.064965345 -0.06267459
000200 7a 3a a7 3d 9f bf c3 3d d4 ca 86 bd da a3 bb 3d
       0.081654504 0.09558033 -0.06581655 0.091621116
000210 00 00 00 00 00 00 00 00 e8 7f 2e 3f 8d be e5 3c
       0.0 0.0 0.6816392 0.028044963
000220 c2 78 b8 3b 15 14 ae 3d a4 20 ee 3c 10 45 f9 3d
       0.00562963 0.08499924 0.029068299 0.12171376
000230 48 3f b0 bd 33 9b 0e 3d ae c1 e2 3c 41 5a a9 bc
       -0.0860582 0.03481598 0.027680244 -0.02067292
000240 e6 e5 a0 bd 01 e7 ad 3c cf 7f 01 3d 00 00 00 00
       -0.0785635 0.021228315 0.03161603 0.0
000250 00 00 00 00 b6 4c 7d 3e a3 1b 1b 3e f4 86 28 3d
       0.0 0.24736294 0.15147261 0.041144326
000260 48 64 fc bc 80 cf 27 3e 4f be 00 bd 65 86 b1 3c
       -0.030809537 0.16387749 -0.031431492 0.02167053
000270 96 4b 68 bc a1 72 00 be a7 a3 8f bd d3 af be 3d
       -0.014178177 -0.12543727 -0.07013636 0.093108796
000280 7e cc 5b 3b 47 94 e9 bd 00 00 00 00 00 00 00 00
       0.0033538635 -0.11405235 0.0 0.0
000290 08 2e a8 bd b6 00 88 bd 9b bc 9c 3d ac fd 89 bd
       -0.08211905 -0.066407606 0.07653161 -0.06737837
0002a0 64 4f 56 bd 6b ea 01 3d 4a 4a 8b 3d 7c ed 03 3d
       -0.052321807 0.0317177 0.06801279 0.032208905
0002b0 1f 36 eb bd 67 4e 91 3d 3a c8 66 bd e9 11 5a be
       -0.11484932 0.07095032 -0.056343295 -0.21295895
0002c0 a9 4a 1f 3d 00 00 00 00 00 00 00 00 46 52 2f 3e
       0.03888956 0.0 0.0 0.17121229
0002d0 b3 87 11 be d8 13 72 3d 9f 06 0e be 40 cc 22 be
       -0.14211921 0.059100956 -0.13869713 -0.15898228
0002e0 cb 9b e4 3d 20 b0 30 be 35 a0 08 3d ee c7 27 3e
       0.11162528 -0.17254686 0.03335591 0.16384861
0002f0 d7 58 ee bc 8f b4 be 3c 56 8b 88 3d b0 79 b4 3c
       -0.029095097 0.023279456 0.06667201 0.022030681
000300 00 00 00 00 00 00 00 00 21 1a 3d bd fc 9d e1 3c
       0.0 0.0 -0.046167497 0.027541153
000310 71 84 15 3d cc 0c 0a 3f c7 19 d2 3c 31 4b 25 bd
       0.03650326 0.53925776 0.025647057 -0.04035491
000320 51 3f 60 3c 9f 28 82 bd a9 e6 08 bd 9b c4 11 3e
       0.013686971 -0.06355404 -0.0334231 0.14235155
000330 0c f5 85 be 4c 46 3f bc ae 80 f9 3b 00 00 00 00
       -0.26163518 -0.011674475 0.007614217 0.0
000340 00 00 00 00 35 a0 74 3f 45 ea cc bc 46 e4 1d 3d
       0.0 0.95556957 -0.025014052 0.038547777
000350 7b 94 e8 3e bc 09 2d 3d 37 1e ea 3d 9f b9 98 be
       0.45425782 0.04224561 0.11431544 -0.29829118
000360 25 5a bc bc 77 0f 28 bd a9 94 ad bb c1 f4 fa bc
       -0.022992203 -0.041030373 -0.0052972627 -0.030634286
000370 c5 a0 47 bd 65 ef 94 bd 00 00 00 00 00 00 00 00
       -0.048737306 -0.072722234 0.0 0.0
000380 93 f6 75 3f 93 19 c1 3c d1 b8 b4 3c 08 4c 85 bd
       0.9607937 0.023571765 0.022060784 -0.065086424
000390 3a f0 e9 3b 94 e2 be 3c 07 13 28 3d 61 50 93 bc
       0.007139233 0.0233014 0.04103377 -0.017982664
0003a0 54 91 a3 bc 24 7d 0a bd df 13 03 bd 3c f3 d4 bb
       -0.019966759 -0.03381075 -0.032001372 -0.0064987224
0003b0 8e 42 bb bd 00 00 00 00 00 00 00 00 17 4e 57 bd
       -0.09143554 0.0 0.0 -0.052564707
0003c0 b7 4d 9c 3d f3 02 e8 bd 7b 29 9a 3e de 1d f8 3c
       0.076320104 -0.113286875 0.30109772 0.03028768
0003d0 8e b8 f2 bd 24 82 94 bd e8 ca f0 bc c4 ac a7 bd
       -0.11851607 -0.07251385 -0.029393628 -0.08187249
0003e0 41 83 44 3e e1 18 cc 3c 4e 27 05 be 6e ad 0d 3e
       0.19190694 0.024914207 -0.13003275 0.1383569
0003f0 00 00 00 00 00 00 00 00 c8 a9 51 3e a8 ef 62 bd
       0.0 0.0 0.20474923 -0.055404335

exp_avg_sq f4 [128, 15]
000000 a1 f3 2d 41 1d f0 74 41 6a e7 df 41 ea ba 5c 42
       10.87198 15.308621 27.987995 55.182533
000010 ce 46 c3 42 75 72 8b 43 71 2b e6 42 0f 22 44 42
       97.63829 278.8942 115.08485 49.03326
000020 62 4a 0f 41 cb 4a 46 42 23 5e aa 42 fd de 16 40
       8.95566 49.57304 85.18386 2.3573601
000030 00 00 00 00 00 00 00 00 5a c6 50 42 bf 50 90 42
       0.0 0.0 52.193703 72.15771
000040 05 8e a1 43 a1 58 6d 43 29 f1 8c 42 08 2f 36 43
       323.10953 237.3462 70.471016 182.18372
000050 26 47 8f 43 a6 7f d6 42 17 c8 8c 42 1c 22 85 42
       286.55585 107.24931 70.3908 66.56662
000060 a1 c1 73 44 2e d3 72 42 6e 9e 9a 42 00 00 00 00
       975.02545 60.70623 77.30943 0.0
000070 00 00 00 00 98 ad a9 42 77 e7 4a 40 3e 57 b2 40
       0.0 84.83905 3.1703775 5.5731497
000080 03 59 82 41 84 c1 a1 40 c8 ee 75 40 7d c8 2a 41
       16.293463 5.0548725 3.842699 10.673947
000090 76 31 4c 40 6e 52 21 40 d3 c6 3e 3f 18 7d 0a 41
       3.1905189 2.520656 0.7452213 8.65554
0000a0 2b aa 46 40 b1 45 29 3f 00 00 00 00 00 00 00 00
       3.1041362 0.66121966 0.0 0.0
0000b0 39 b3 ff 41 d6 be 47 3f a9 01 82 3f d8 dd da 40
       31.962511 0.7802557 1.0156757 6.8395805
0000c0 59 25 94 3f d5 c1 0f 41 ef b1 13 40 51 3b 96 3e
       1.1573898 8.984822 2.3077352 0.2934213
0000d0 f4 46 58 3f b0 db 3b 41 4b 70 d8 3f 12 4d 1b 41
       0.84483266 11.741135 1.6909269 9.706316
0000e0 d8 d1 35 40 00 00 00 00 00 00 00 00 b1 b0 4e 41
       2.8409328 0.0 0.0 12.918138
0000f0 ac 4b a8 3f 8b e5 7d 3f 67 71 10 3f 4f 90 38 3f
       1.3148093 0.9917838 0.5642304 0.720952
000100 59 94 17 42 54 b2 92 3f 7f d8 a7 3f bf be 14 3f
       37.89487 1.1460671 1.3112944 0.58103555
000110 ac bd b7 41 3d 54 5f 40 b8 8e 8b 41 9e 9e 81 40
       22.967613 3.4895165 17.444687 4.0506124
000120 00 00 00 00 00 00 00 00 4f 0c 1c 40 fb 31 63 40
       0.0 0.0 2.4382513 3.5499256
000130 d1 ff 51 40 e1 cf d9 40 12 23 46 41 4b 90 76 42
       3.2812388 6.806626 12.383562 61.64091
000140 7a b3 7a 42 85 7e cc 41 02 d6 33 41 ad a3 d8 41
       62.67527 25.561777 11.239748 27.07992
000150 3d ed 5b 41 06 59 11 42 7d 6c a0 40 00 00 00 00
       13.7454195 36.336937 5.013243 0.0
000160 00 00 00 00 86 08 6e 41 34 40 2d 41 97 ae f0 3f
       0.0 14.877081 10.828175 1.880328
000170 39 65 ae 42 33 da 87 40 83 6f 8e 41 a6 45 06 42
       87.1977 4.2453856 17.80445 33.568016
000180 53 5b a4 3f 72 2d cc 40 4e e3 11 3f 5e 92 2b 41
       1.284037 6.3805475 0.56987464 10.723234
000190 0f 79 04 40 e3 a3 c9 3f 00 00 00 00 00 00 00 00
       2.0698888 1.5753139 0.0 0.0
0001a0 af 9f 7d 40 75 c2 b2 3f a1 de 4d 3f cc f1 0e 42
       3.9628713 1.3965594 0.8041783 35.73613
0001b0 d2 46 06 40 dd a0 14 42 24 7e 15 41 89 49 1c 3f
       2.0980725 37.157093 9.343296 0.61049706
0001c0 fa 2d 2a 40 b5 31 bf 41 87 ee d7 3f f2 00 8d 41
       2.6590562 23.899271 1.6869668 17.625462
0001d0 6a 90 9f 40 00 00 00 00 00 00 00 00 60 47 87 42
       4.9863787 0.0 0.0 67.639404
0001e0 70 19 b9 41 cd cf 4c 42 e9 d2 b6 41 84 07 df 42
       23.13742 51.20293 22.852983 111.51468
0001f0 a9 8b 5c 43 f5 ca 0c 44 1c 20 6c 43 84 6b c1 42
       220.54555 563.1712 236.12543 96.70999
000200 4c 7f 03 42 20 2f 14 43 3c df 36 43 18 9c 15 41
       32.874313 148.18408 182.87201 9.350609
000210 00 00 00 00 00 00 00 00 04 3b fd 41 c7 43 ce 41
       0.0 0.0 31.653816 25.783094
000220 db 8a 83 42 15 44 1d 42 e2 c9 f0 42 f3 3f 5a 43
       65.7712 39.316486 120.3943 218.2498
000230 5b a3 14 44 86 26 79 43 02 13 cf 42 17 ef b2 41
       594.5524 249.15048 103.537125 22.366743
000240 65 f6 41 43 dc e1 35 43 d7 1d 21 41 00 00 00 00
       193.96248 181.88226 10.069785 0.0
000250 00 00 00 00 95 09 08 42 3b 93 4e 41 75 0b 6a 42
       0.0 34.009357 12.910945 58.51119
000260 b9 35 fd 41 56 ad 04 41 cb 9a ad 41 03 12 e0 41
       31.651232 8.292318 21.700583 28.008795
000270 12 43 2d 41 d7 a1 16 41 c9 33 4b 41 8e 3a 2e 43
       10.828875 9.414512 12.700143 174.22873
000280 f2 14 98 40 de 98 81 41 00 00 00 00 00 00 00 00
       4.752557 16.199642 0.0 0.0
000290 d7 b7 7d 41 b9 a9 93 40 55 22 b7 40 76 9f 24 40
       15.857383 4.614468 5.722941 2.5722327
0002a0 52 49 a4 41 0b 15 16 42 ed a5 d2 42 34 36 31 42
       20.5358 37.52055 105.32407 44.302933
0002b0 ba d3 96 41 d5 d3 48 40 4d 9c 97 41 83 d1 04 42
       18.853382 3.1379292 18.951319 33.2046
0002c0 f3 39 43 3f 00 00 00 00 00 00 00 00 59 eb 90 40
       0.762603 0.0 0.0 4.528729
0002d0 ec 43 9a 40 9d f7 bc 3f d9 f0 41 42 7d f3 2d 40
       4.8207912 1.4763066 48.485203 2.7179863
0002e0 4e 6b 07 41 b4 64 64 41 3f 8a af 3f 0e c5 58 40
       8.463697 14.274586 1.3714064 3.3870273
0002f0 68 cf d1 3e de 44 93 40 cd f3 1d 40 05 93 7b 3f
       0.4097855 4.6021566 2.4680054 0.9827121
000300 00 00 00 00 00 00 00 00 ca d3 a1 40 4f 00 cc 3f
       0.0 0.0 5.057103 1.5937594
000310 d3 10 04 41 00 04 29 41 7d 37 40 40 59 c2 23 40
       8.254107 10.563477 3.0033867 2.558737
000320 2c af 87 40 07 8c 06 3f d4 d4 ff 3f 15 ce c2 40
       4.2401333 0.52557415 1.9986825 6.0876565
000330 e8 3d 64 41 6a 2a d0 40 93 e8 3a 40 00 00 00 00
       14.265114 6.5051775 2.9204452 0.0
000340 00 00 00 00 95 f7 b8 41 45 49 2d 40 e1 86 8c 41
       0.0 23.12089 2.707597 17.565859
000350 3a a7 80 41 cc 74 bf 40 ac 57 16 41 77 02 0b 41
       16.081654 5.9830074 9.396404 8.688102
000360 15 74 34 40 f1 a4 53 40 4c 51 f4 40 02 e3 3c 42
       2.819585 3.3069422 7.634924 47.221687
000370 c2 e7 8e 40 5f 58 95 40 00 00 00 00 00 00 00 00
       4.4657907 4.6670375 0.0 0.0
000380 e9 fc 8f 41 84 89 59 3e 9a 49 cf 3e 89 56 37 40
       17.998491 0.21243864 0.4048584 2.8646567
000390 17 17 a9 3e 32 be 1e 3e ec b1 3e 3f d6 78 00 3e
       0.3302543 0.15502241 0.7449024 0.12546095
0003a0 77 fd 86 3e 55 0c 0e 3f f7 04 35 3e f6 31 0d 3f
       0.26365253 0.5548757 0.17677675 0.5515436
0003b0 7e eb 74 3e 00 00 00 00 00 00 00 00 db 80 a3 40
       0.23917958 0.0 0.0 5.1094794
0003c0 c7 12 ca 3f 97 c0 4c 40 9a 7f cf 40 8e cc 82 40
       1.578698 3.1992548 6.4843264 4.08747
0003d0 09 c9 57 41 20 9d fa 3f 9f 76 9c 3e f0 db 2b 40
       13.486581 1.9579201 0.3055925 2.685299
0003e0 ae 64 8b 41 ea a0 81 41 6e 2c 07 41 66 8d b9 40
       17.42416 16.203571 8.448347 5.7985106
0003f0 00 00 00 00 00 00 00 00 f8 99 99 41 3d bd a4 40
       0.0 0.0 19.20018 5.1481004
